checkpoints/rnd/seed4/final.pt (torch, 798559 bytes, 15 tensors)

fc1.weight f4 [256, 256]
-0.008911864 0.03387439 -0.05681601 0.015246322 0.0017856443 0.022961082 -0.062056683 0.06447807
-0.010159014 0.032756068 0.06353639 0.013966084 -0.048799552 -0.036915388 -0.0041846535 0.036484487
-0.04986497 -0.024963683 0.03299634 0.044665746 -0.019402554 -0.05468372 -0.045385674 -0.00486096
-0.03475243 -0.060769565 0.053740215 -0.015755376 0.055937856 0.04047014 0.00139895 -0.04712326
-0.037093528 0.0065192874 -0.02289493 -0.0065124487 0.06031864 -0.006701137 -0.00872896 0.028017333
0.018948968 0.022510799 0.058781054 0.017318482 -0.00010015636 0.017876819 0.009534202 -0.051136486
-0.010022225 0.04641478 -0.011725805 -0.05697623 -0.015724244 -4.1651503e-05 -0.0056928317 0.030361585
-0.011807149 0.013150341 0.017649326 -0.03771971 -0.0133135 0.021386834 0.0041572447 -0.0078107878
0.029288251 -0.008822024 -0.018488985 -0.0063821757 -0.042635947 0.028205972 0.035587125 -0.055569366
-0.02360991 -0.049609385 0.0120635545 -0.057237826 -0.019990873 -0.02198432 0.038952544 0.00071659224
-0.01247687 -0.027549472 0.00090360193 0.031065674 0.050889276 -0.033321537 0.050377905 0.027173962
-0.020452943 0.05180636 -0.03666044 0.020117555 0.015138838 0.01381161 -0.060356736 0.041252285
-0.05582735 -0.011979886 -0.058085047 0.039901353 0.041901603 0.016611446 -0.06129606 -0.063915215
-0.027867164 -0.021131251 0.015392008 0.016459802 -0.003973968 -0.063320264 -0.05812773 -0.00238895
0.01693124 -0.059396513 -0.010291593 -0.0059388033 -0.05716266 -0.05083964 -0.038052887 0.050118268
-0.059302576 0.023199428 0.0027037226 -0.038696487 -0.0144009 0.03784696 0.045218557 0.02195276
0.02078341 -0.021664225 0.022429451 0.03221806 0.013239261 0.053866133 -0.017105548 -0.0555521
0.022723585 -0.022590965 0.05670741 -0.011094636 0.039770868 0.016693551 0.024988964 0.05172747
-0.048620544 -0.017645344 -0.0107801 0.021711443 -0.0038436914 0.0490913 0.017506381 0.05565597
-0.023834057 0.03223639 0.031758588 0.060869273 0.0053433673 -0.007279899 -0.049406976 -0.033802494
-0.010543071 0.0011881571 0.027601989 0.024690365 -0.017399158 0.015167426 0.053347755 0.035492808
-0.01603008 0.03245479 0.049551502 0.05208281 0.04409378 0.032514088 -0.017671535 -0.03998992
0.03277812 -0.008856639 0.054906026 0.037997663 0.004628162 0.035852853 -0.010531254 -0.04758729
0.04079949 0.05862508 0.056787565 0.039201774 0.0023883744 0.008945821 -0.0065209195 -0.02939323
-0.01631774 0.02993183 0.059600662 0.04536836 0.044339545 0.033813216 0.05909498 -0.010319818
-0.002396847 -0.06038806 0.039567806 -0.033413336 -0.05143516 0.008564696 0.021946602 0.059749506
0.03831188 0.05618938 0.058707155 0.009742729 -0.055338703 0.00017233193 -0.058195278 0.03690631
-0.021689516 -0.02600135 0.00055079017 -0.01634156 0.0118315 0.016306045 0.017753035 -0.017972767
0.056206822 0.06152358 0.031820476 0.0121200085 -0.06366297 -0.020854969 0.020319313 0.033652514
0.056608498 0.037755743 -0.04360065 -0.05404651 -0.010688692 0.05499427 -0.061118565 0.00909365
-0.04808911 -0.033431612 0.0035509989 -0.018006697 0.037588593 0.011478484 0.051158108 -0.0331909
0.012442812 0.05615554 -0.022543073 -0.041694902 -0.035945065 -0.05119493 -0.022993065 -0.0123303905
00000000: 1103 12bc dfbf 0a3d e8b7 68bd b6cb 793c
00000010: 480c ea3a e118 bc3c 262f 7ebd 140d 843d
00000020: fe71 26bc 3a2b 063d 5e1f 823d 01d2 643c
00000030: 0ae2 47bd 9734 17bd 6b1f 89bb c270 153d
00000040: 363f 4cbd a380 ccbc 2c27 073d 6ef3 363d
00000050: 1bf2 9ebc 09fc 5fbd 54e6 39bd b048 9fbb
00000060: 9058 0ebd 82e9 78bd b31e 5c3d 6b11 81bc
00000070: 181f 653d 04c4 253d f95c b73a 5204 41bd
00000080: 62ef 17bd bf9f d53b 268e bbbc 6166 d5bb
00000090: ae10 773d 3695 dbbb e903 0fbc 9b84 e53c
000000a0: de3a 9b3c 9168 b83c 67c4 703d 7ddf 8d3c
000000b0: 090b d2b8 6872 923c 5735 1c3c 7e74 51bd
000000c0: 4234 24bc 6d1d 3e3d 971d 40bc e85f 69bd
000000d0: 21d0 80bc f6b2 2eb8 ef8a babb dcb8 f83c
000000e0: c672 41bc 8774 573c 5295 903c fc7f 1abd
000000f0: de20 5abc 7133 af3c 7f39 883b a3f1 ffbb
00000100: eaed ef3c 408a 10bc 3676 97bc 9221 d1bb
00000110: 08a3 2ebd 3610 e73c cec3 113d b49c 63bd
00000120: 9269 c1bc 3633 4bbd 37a6 453c 3672 6abd
00000130: e6c3 a3bc 7618 b4bc b48c 1f3d b1d9 3b3a
00000140: c96b 4cbc 6eaf e1bc b3df 6c3a 717d fe3c
00000150: 4671 503d 2a7c 08bd 1059 4e3d ee9b de3c
00000160: ee8c a7bc e832 543d 4229 16bd 92cd a43c
00000170: e408 783c 174a 623c a038 77bd 28f8 283d
00000180: 38ab 64bd 4947 44bc 96ea 6dbd 9a6f 233d
00000190: 04a1 2b3d ba14 883c 9411 7bbd fbe5 82bd
000001a0: ae49 e4bc 721b adbc c32e 7c3c b5d6 863c
000001b0: 0f38 82bb 0eae 81bd 5817 6ebd ee8f 1cbb
000001c0: 62b3 8a3c c249 73bd 129e 28bc 4b9a c2bb
000001d0: 6523 6abd 3a3d 50bd 58dd 1bbd d048 4d3d
000001e0: 42e7 72bd ba0c be3c f030 313b 3580 1ebd
000001f0: c1f1 6bbc 6a05 1b3d 1837 393d 46d6 b33c
00000200: f841 aa3c 2c79 b1bc f8bd b73c 16f7 033d
00000210: 7ce9 583c bca2 5c3d ef20 8cbc 998a 63bd
00000220: d026 ba3c b010 b9bc 0746 683d 47c6 35bc
00000230: c7e6 223d eac0 883c a8b5 cc3c 2fe0 533d
00000240: 5626 47bd f88c 90bc 049f 30bc 32dc b13c
00000250: 71e6 7bbb f613 493d 8b69 8f3c 84f7 633d
00000260: a43f c3bc 4e0a 043d 4b15 023d 0f52 793d
00000270: 6a17 af3b 388c eebb f85e 4abd 7c74 0abd
00000280: d8bc 2cbc f0bb 9b3a 911d e23c 7343 ca3c
00000290: ae88 8ebc cc80 783c 2d83 5a3d e860 113d
000002a0: 8451 83bc 50ef 043d 84f6 4a3d c954 553d
000002b0: ae9b 343d 7e2d 053d e5c3 90bc 78cc 23bd
000002c0: 5a42 063d 701b 11bc 24e5 603d 70a3 1b3d
000002d0: d6a7 973b 71da 123d 488b 2cbc e4ea 42bd
000002e0: 5e1d 273d da20 703d 149a 683d 0a92 203d
000002f0: 4686 1c3b 7e91 123c 70ad d5bb 12ca f0bc
00000300: c8ac 85bc 9933 f53c d31f 743d 2cd4 393d
00000310: 629d 353d ba7f 0a3d 940d 723d 7414 29bc
00000320: 6b14 1dbb 7859 77bd da11 223d 6cdc 08bd
00000330: adad 52bd f052 0c3c 5cc9 b33c e6bb 743d
00000340: ebec 1c3d d626 663d ea76 703d f89f 1f3c
00000350: d6aa 62bd 00b4 3439 2c5e 6ebd 122b 173d
00000360: 36ae b1bc c800 d5bc e762 103a bcde 85bc
00000370: e8d8 413c 4194 853c d06e 913c a03b 93bc
00000380: 2039 663d 2600 7c3d 3056 023d 0093 463c
00000390: bb61 82bd 0ad8 aabc b074 a63c 38d7 093d
000003a0: 50de 673d c4a5 1a3d 9896 32bd e05f 5dbd
000003b0: a01f 2fbc ac41 613d 7657 7abd 88fd 143c
000003c0: 16f9 44bd 96ef 08bd e0b7 683b c882 93bc
000003d0: 7ff6 193d 4010 3c3c 2a8b 513d 2ef3 07bd
000003e0: f0dc 4b3c 5a03 663d 40ac b8bc 46c8 2abd
000003f0: 223b 13bd c6b1 51bd f45b bcbc 6805 4abc

fc1.bias f4 [256]
0.0010440751 0.04387606 0.02296515 0.05315657 -0.022460533 -0.037623167 0.060053088 -0.041777965
-0.05253806 -0.059064046 0.024702916 -0.004533628 0.025824519 0.014618883 -0.043097075 -0.018383117
0.010952362 0.033128686 0.04840426 0.06508407 0.052141313 0.02885892 -0.05930298 0.026582468
-0.010715373 -0.05278305 0.001014389 -0.005346492 0.031474207 0.054941215 -0.06078566 -0.06254068
0.0025811344 0.039618466 0.05502962 -0.055745006 -0.057867214 0.044488482 -0.024289196 0.049761225
-0.0072440077 0.003995504 -0.033022083 0.034650177 -0.039712258 -0.06323697 -0.037322678 0.011750014
-0.0556827 0.046025258 -0.024446536 -0.023644578 0.043652013 0.011865062 0.054174986 -0.010484017
0.01156715 0.051554658 0.03796235 -0.022764305 -0.028910955 0.021868505 0.0029984713 -0.006142312
-0.0331256 -0.049873825 0.017477833 -0.015470117 0.0038193853 0.019737273 0.054562885 -0.04934219
-0.026902229 -0.005832911 -0.040439103 -0.020671152 -0.042438153 0.05904922 0.031493902 -0.05779479
0.058604643 0.06070168 -0.0060602445 -0.007850513 0.06294557 0.00602071 0.007922727 -0.006399378
0.00064983935 -0.011095858 -0.044921514 0.044060275 0.036668662 0.02232907 -0.036801636 0.010397811
-0.00871934 -0.00069978373 -0.014357373 0.02538574 0.013806695 -0.059814803 -0.050075073 0.022450928
0.06027592 0.024400817 0.047802586 0.031578965 0.065105796 -0.009924531 0.027853347 0.022786321
0.051874876 -0.021043452 -0.0031891759 0.041650005 0.03903043 0.046876162 -0.008297249 -0.02977983
0.01031335 -0.061846476 0.060558744 -0.005256259 -0.013321678 0.02313864 0.029158909 0.019974297
-0.00016262583 -0.062306657 -0.0067107487 -0.02048737 -0.044438317 -0.03869705 -0.02893401 0.054124337
0.0039605172 0.013951228 -0.014460202 -0.039739195 -0.0007220748 0.042272307 -0.04513463 -0.057272885
-0.022749621 0.017422896 -0.047805432 0.020302929 -0.030680872 -0.020766674 -0.039045963 0.036398146
0.055282366 -0.024812052 -0.03247639 0.04814454 0.052039992 0.054381907 0.011586443 0.01922941
-0.0021286064 -0.05149194 -0.059817977 -0.043098394 -0.04379398 0.03707753 0.029043796 -0.04091028
-0.0074159144 0.00039833784 -0.057768583 -0.045833632 -0.052399613 -0.026340868 0.01304408 -0.057300974
0.018082296 -0.037314113 0.0052196123 0.007188961 -0.034456808 -0.023110246 0.06282669 0.048580017
-0.0628477 0.017462065 0.05562692 -0.061431862 -0.0013654116 -0.05149345 0.03288217 -0.04042835
0.028057786 0.032781973 -0.026544131 -0.041718397 -0.048849326 -0.0558502 0.012701283 -0.0017794201
0.031944662 0.01120794 -0.0033654396 -0.022987463 -0.053129848 0.0044883774 0.03664102 -0.043828607
0.032573253 -0.014505906 -0.043249823 -0.03409654 0.06777969 -0.0046916083 -0.05662109 -0.030134572
0.051397502 0.0471124 0.011338673 0.054670997 0.047679923 0.05937899 0.0020185309 0.028040193
0.022221927 -0.0040475614 0.006645906 -0.004039923 -0.022842815 -0.054905992 -0.058470823 -0.026773185
0.021336496 -0.025673471 -0.0596375 -0.037083663 -0.035705168 -0.02906987 0.06611189 0.019041456
-0.016884359 -0.024492946 0.036614373 -0.0090313405 -0.056671835 0.0016138747 -0.03657694 0.037524525
-0.032253414 0.03020825 -0.029376527 -0.030954927 0.028033905 0.03690764 0.008645961 -0.04792973
00000000: 59d9 883a 62b7 333d 6921 bc3c b4ba 593d
00000010: 27ff b7bc c01a 1abd 3afa 753d 5f1f 2bbd
00000020: 2632 57bd 24ed 71bd c55d ca3c d48e 94bb
00000030: f18d d33c 0a84 6f3c 8f86 30bd 3198 96bc
00000040: 8971 333c f2b1 073d 8c43 463d cc4a 853d
00000050: 2192 553d 8b69 ec3c aee7 72bd 7ac3 d93c
00000060: 888f 2fbc 0a33 58bd 3ff5 843a a031 afbb
00000070: 19eb 003d 0a0a 613d 62fa 78bd 5415 80bd
00000080: 4028 293b f946 223d bd66 613d e054 64bd
00000090: 2c06 6dbd 8e39 363d 23fa c6bc 6dd2 4b3d
000000a0: 245f edbb b8ec 823b 2a42 07bd 58ed 0d3d
000000b0: 52a9 22bd 6282 81bd aadf 18bd 2183 403c
000000c0: 8b13 64bd fb84 3c3d 1a44 c8bc 46b2 c1bc
000000d0: 74cc 323d ad65 423c 97e6 5d3d 28c5 2bbc
000000e0: 2584 3d3c fa2a 533d 697e 1b3d 357c babc
000000f0: abd6 ecbc 9425 b33c 0082 443b 7345 c9bb
00000100: b6ae 07bd 7f48 4cbd ac2d 8f3c 6076 7dbc
00000110: a74e 7a3b 10b0 a13c 557d 5f3d 091b 4abd
00000120: 1062 dcbc 0122 bfbb 79a3 25bd 8c56 a9bc
00000130: a1d3 2dbd 98dd 713d c0ff 003d 3bba 6cbd
00000140: 6c0b 703d 53a2 783d 0495 c6bb 709f 00bc
00000150: 9be9 803d 6049 c53b 53ce 013c e0b1 d1bb
00000160: fb59 2a3a 67cb 35bc 9fff 37bd 8c78 343d
00000170: e131 163d 74eb b63c 50bd 16bd 955b 2a3c
00000180: 90db 0ebc b171 37ba 303b 6bbc c1f5 cf3c
00000190: 7a35 623c 5e00 75bd 851b 4dbd 02eb b73c
000001a0: e2e3 763d 39e4 c73c a5cc 433d f258 013d
000001b0: 3056 853d 809a 22bc b42c e43c 61aa ba3c
000001c0: c07a 543d 5163 acbc 7e01 51bb 3299 2a3d
000001d0: 5fde 1f3d 3801 403d 2ff1 07bc d4f4 f3bc
000001e0: 53f9 283c bb52 7dbd 720c 783d b23c acbb
000001f0: 2b43 5abc 3f8d bd3c aade ee3c 23a1 a33c
00000200: 8a86 2ab9 4435 7fbd d7e5 dbbb 21d5 a7bc
00000210: f404 36bd cc80 1ebd 0407 edbc 7bb1 5d3d
00000220: 3ac7 813b b193 643c 7cea 6cbc 91c5 22bd
00000230: 9f49 3dba ba25 2d3d 17df 38bd f996 6abd
00000240: 6a5d babc 76ba 8e3c a1cf 43bd 5452 a63c
00000250: 7456 fbbc df1e aabc a9ee 1fbd 3916 153d
00000260: c36f 623d a542 cbbc f705 05bd 3633 453d
00000270: e327 553d 90bf 5e3d 10d5 3d3c ff86 9d3c
00000280: 1780 0bbb 36e9 52bd b203 75bd f187 30bd
00000290: 5161 33bd 9cde 173d 41ed ed3c 8a91 27bd
000002a0: 3301 f3bb 00d8 d039 c09e 6cbd 0cbc 3bbd
000002b0: faa0 56bd cec8 d7bc d6b6 553c 6db4 6abd
000002c0: 5321 943c afd6 18bd 4809 ab3b 6091 eb3b
000002d0: 9522 0dbd b351 bdbc 48ab 803d d7fb 463d
000002e0: 4cb6 80bd 9b0c 8f3c 0ed9 633d fa9f 7bbd
000002f0: 9cf7 b2ba ccea 52bd 74af 063d 3398 25bd
00000300: 71d9 e53c 6446 063d 1473 d9bc e9e0 2abd
00000310: 3b16 48bd 2ec3 64bd 0b19 503c 6e3b e9ba
00000320: 68d8 023d 82a1 373c b58e 5cbb 3450 bcbc
00000330: af9e 59bd 3d13 933b e514 163d a085 33bd
00000340: 886b 053d 2eaa 6dbc ba26 31bd d0a8 0bbd
00000350: 14d0 8a3d 10bc 99bb 84eb 67bd c7dc f6bc
00000360: 3086 523d eff8 403d d7c5 393c b2ee 5f3d
00000370: 064c 433d 6237 733d 5449 043b 8cb4 e53c
00000380: c20a b63c 68a1 84bb e6c5 d93b 5561 84bb
00000390: db20 bbbc 1be5 60bd 1a7f 6fbd 7053 dbbc
000003a0: e0c9 ae3c 2c51 d2bc 7446 74bd 0ae5 17bd
000003b0: 953f 12bd f023 eebc ac65 873d d4fc 9b3c
000003c0: 1151 8abc 6ea5 c8bc f4f8 153d 30f8 13bc
000003d0: ba20 68bd a688 d33a b4d1 15bd 51b3 193d
000003e0: 281c 04bd 4b77 f73c 0ba7 f0bc 3095 fdbc
000003f0: 5ca7 e53c 772c 173d caa7 0d3c f751 44bd

fc2.weight f4 [128, 256]
-0.054471053 -0.014756575 0.023874953 0.0054936446 0.0088664945 0.04992523 -0.0416437 0.024593253
-0.053133745 0.052201614 -0.024019256 0.0068594795 0.0147178825 0.0007734212 -0.054655075 0.059441514
-0.0054631084 -0.02003223 -0.013874401 -0.0050383485 -0.0014475262 0.006355129 -0.058057338 -0.054487437
0.03247588 -0.04403466 0.031612642 -0.027890958 -0.013013863 -0.04098423 -0.03793598 0.016661737
0.052101254 -0.019713614 0.05930016 0.043894414 0.011932924 -0.0020710442 0.03289121 0.026952405
-0.033308554 -0.015471424 -0.05430057 0.049335517 -0.025712289 0.05107743 -0.056374844 0.034521993
-0.044256147 -0.061869845 0.012310005 -0.03750621 0.029666003 0.057507373 0.0407882 0.04676216
0.016572976 -0.0065705595 0.047180753 -0.04651448 -0.00932584 0.014497034 -0.0041430816 0.020244159
0.025998745 0.016717581 -0.003833264 0.046167634 0.045999415 -0.022039726 -0.02979628 -0.04456653
-0.05704761 -0.037732095 -0.05032517 0.040586308 0.019359872 0.00068224117 -0.023267157 0.027409583
-0.039970487 -0.004074084 -0.0016329599 -0.023122068 -0.014387266 -0.0557554 -0.03229878 0.007271759
0.013431117 -0.030643687 -0.015728183 0.031798773 -0.013151543 0.05275272 0.006502448 0.045917805
-0.0037404 0.04288722 0.05749505 0.0073792287 -0.0009303478 -0.04836554 -0.0068981093 0.050634753
0.019716645 0.02543127 0.036672153 0.027962238 -0.025951201 0.053224474 0.05474561 -0.04212649
-0.025196375 -0.024920499 -0.04600282 0.043718982 0.016851597 0.0042476538 -0.04663167 -0.044758372
-0.013076365 -0.021265991 -0.021836141 -0.023064816 0.023704303 -0.033916645 -0.052561134 -0.023048652
-0.05186867 0.010397546 0.054694764 -0.0073582744 0.048777517 -0.05366937 -0.02438147 -0.047450736
-0.058220256 0.008886891 -0.010919842 0.0532448 -0.0048754737 -0.009228971 -0.02350858 0.057222847
-0.027712783 0.0617894 0.04543253 -0.019918922 0.017015122 -0.0044926885 -0.062020592 -0.0018177032
0.025696024 -0.0382433 -0.050287608 -0.0069169006 -0.007754867 -0.040918395 -0.04505743 0.014015297
-0.06119459 0.020541022 -0.052339066 -0.03315223 -0.032858573 0.023906276 -0.030733176 0.039250024
-0.035896912 0.035922468 0.02244999 0.005184926 0.029320873 0.029183604 0.00033060394 -0.045701608
-0.062051535 0.012805037 0.017035915 0.02346843 0.048217535 -0.007098235 0.010401763 0.047862887
-0.058804177 -0.059871454 0.04637959 -0.031730697 0.033327743 0.02531597 0.041566283 -0.044216737
-0.050213378 -0.022823647 -0.009627223 -0.008320861 -0.047013473 0.02476003 -0.003973366 -0.011649767
0.039804876 -0.009104894 0.010884639 0.051238917 -0.05116367 -0.04455208 0.0072777956 0.0025490373
-0.004823521 -0.031061102 -0.046116263 0.048665233 -0.035338223 0.05953552 0.059268482 -0.04025159
0.0351823 0.021053042 -0.012619555 -0.034258977 0.025529921 -0.023490489 0.03838197 0.03112334
-0.054630578 -0.04205359 -0.0517234 -0.033977248 0.022895008 0.028108414 -0.014986095 0.044727936
-0.018909752 -0.01083473 0.0031773373 0.042366542 0.056126762 0.058781445 0.05630829 -0.010073571
0.0457791 -0.03324669 -0.05833125 -0.060160868 -0.028773583 0.058105193 0.046695516 0.00928431
-0.029158361 -0.018585427 -0.024757296 -0.0039948076 0.022490397 0.0020735145 -0.062131386 -0.019155748
00000000: 0a1d 5fbd 90c5 71bc 6895 c33c 0804 b43b
00000010: c644 113c 667e 4c3d 9692 2abd ca77 c93c
00000020: c5a2 59bd 5cd1 553d 08c4 c4bc 7cc5 e03b
00000030: 4623 713c 6bbf 4a3a 00de 5fbd f278 733d
00000040: e003 b3bb a21a a4bc 7551 63bc bb18 a5bb
00000050: ebba bdba b03e d03b 88cd 6dbd 382e 5fbd
00000060: 6e05 053d b05d 34bd 427c 013d 947b e4bc
00000070: 1938 55bc 14df 27bd c262 1bbd 327e 883c
00000080: 2068 553d 727e a1bc b9e4 723d a1ca 333d
00000090: 5082 433c 5bba 07bb efb8 063d 4acb dc3c
000000a0: 8d6e 08bd db7b 7dbc 466a 5ebd 0a14 4a3d
000000b0: 94a2 d2bc 9136 513d 4fe9 66bd ef66 0d3d
000000c0: ef45 35bd 3c6b 7dbd e7af 493c 1da0 19bd
000000d0: 1e06 f33c da8c 6b3d 8711 273d ae89 3f3d
000000e0: 0dc4 873c d94d d7bb 9b40 413d f885 3ebd
000000f0: 68cb 18bc f884 6d3c b0c2 87bb 14d7 a53c
00000100: 52fb d43c 4ff3 883c 8037 7bbb 461a 3d3d
00000110: e269 3c3d a88c b4bc 5417 f4bc 658b 36bd
00000120: c1aa 69bd f88c 1abd c421 4ebd d43d 263d
00000130: 9898 9e3c 6ed8 323a c49a bebc 108a e03c
00000140: 18b8 23bd e57f 85bb 0b09 d6ba 7e6a bdbc
00000150: 91b8 6bbc c65f 64bd ba4b 04bd f047 ee3b
00000160: 300e 5c3c 7808 fbbc 64d8 80bc 6e3f 023d
00000170: 9279 57bc 3c13 583d 7d12 d53b 4f14 3c3d
00000180: 8021 75bb 82aa 2f3d ee7f 6b3d 75cd f13b
00000190: 95e2 73ba f21a 46bd 8909 e2bb 6366 4f3d
000001a0: cd84 a13c 3d55 d03c 8a35 163d 1011 e53c
000001b0: 9d97 d4bc e801 5a3d ef3c 603d d48c 2cbd
000001c0: a168 cebc 1326 ccbc 746d 3cbd ad12 333d
000001d0: 5c0c 8a3c e72f 8b3b da00 3fbd 8e54 37bd
000001e0: 403e 56bc 0436 aebc b5e1 b2bc 6df2 bcbc
000001f0: 872f c23c 2eec 0abd 584a 57bd 87d0 bcbc
00000200: 3e74 54bd 785a 2a3c 9e07 603d ae1d f1bb
00000210: efca 473d 6ad4 5bbd a6bb c7bc b45b 42bd
00000220: 5d78 6ebd 539a 113c 23e9 32bc 3817 5a3d
00000230: 70c2 9fbb 1c35 17bc 1195 c0bc 8162 6a3d
00000240: eb05 e3bc e216 7d3d 7617 3a3d 022d a3bc
00000250: 4c63 8b3c 6737 93bb 4e09 7ebd 0040 eeba
00000260: 7880 d23c 02a5 1cbd 61fa 4dbd 2ba7 e2bb
00000270: 8a1c febb 0c9a 27bd 248e 38bd 6ba0 653c
00000280: 2ea7 7abd a545 a83c 7d61 56bd a2ca 07bd
00000290: b696 06bd 18d7 c33c 24c4 fbbc a2c4 203d
000002a0: a408 13bd 7023 133d 0be9 b73c 50e6 a93b
000002b0: 5432 f03c 7412 ef3c e954 ad39 9c31 3bbd
000002c0: c029 7ebd 38cc 513c e78e 8b3c dd40 c03c
000002d0: c07f 453d 5098 e8bb 286c 2a3c e00b 443d
000002e0: a6dc 70bd c53b 75bd 86f8 3d3d 0cf8 01bd
000002f0: ac82 083d 7063 cf3c 6841 2a3d 9c1c 35bd
00000300: 8bac 4dbd a8f8 babc 80bb 1dbc 3854 08bc
00000310: 3391 40bd 8cd5 ca3c 0333 82bb aade 3ebc
00000320: 700a 233d b12c 15bc 7c55 323c e6df 513d
00000330: ff90 51bd 3e7c 36bd 937a ee3b c00d 273b
00000340: a00e 9ebb da73 febc 68e4 3cbd 3255 473d
00000350: d0be 10bd 84db 733d 82c3 723d dade 24bd
00000360: 511b 103d 6e77 ac3c 40c2 4ebc 2453 0cbd
00000370: 2024 d13c 206f c0bc 6a36 1d3d 60f6 fe3c
00000380: 50c4 5fbd 6340 2cbd eadb 53bd ba2b 0bbd
00000390: 508e bb3c 9e43 e63c 3d88 75bc a434 373d
000003a0: a0e8 9abc 2784 31bc e03a 503b 8a88 2d3d
000003b0: 2de5 653d d0c4 703d 86a3 663d 9e0b 25bc
000003c0: de82 3b3d ae2d 08bd c0ec 6ebd 3e6b 76bd
000003d0: 94b6 ebbc b6ff 6d3d cc43 3f3d 381d 183c
000003e0: 84dd eebc 7740 98bc d0cf cabc e0e6 82bb
000003f0: c83d b83c cde3 073b 7b7d 7ebd 84ec 9cbc

fc2.bias f4 [128]
0.022386065 -0.019685518 0.021122597 0.015631165 0.021291249 0.022616306 -0.0095323855 -0.02651221
-0.02681275 -0.044249687 -0.030137671 0.0103671895 -0.012880454 -0.027967447 0.0024929962 -0.0036269852
-0.026439378 -0.06382919 0.009810766 0.024094557 0.063316666 -0.019943666 -0.051304623 0.06094517
0.0403217 -0.0029605576 0.02880973 0.03756898 0.01668661 0.019127175 0.015510389 0.055630345
-0.01915835 -0.060134634 -0.013449093 -0.014932176 0.04576923 -0.0058845873 0.001153223 -0.0042525562
-0.015855044 -0.0019593225 0.012282374 0.020062346 0.036288727 0.054555662 -0.010509472 -0.062227502
-0.05226472 0.025947234 0.056273755 0.0127652995 0.049618408 -0.008750928 0.0072595575 -0.0019605982
-0.0621672 0.042123374 -0.042976357 0.012452311 0.018787336 -0.010888871 0.012465557 -0.038188078
0.040554438 -0.055800375 0.0064991564 0.010077762 -0.022391308 0.048171498 -0.042468548 -0.05710587
0.036598217 0.0061053615 0.051972177 0.005218521 0.011122072 -0.02226555 0.011264234 0.013263888
-0.0011948148 -0.03422255 0.009672313 -6.6508765e-05 0.034107715 0.06813359 -0.027062867 0.01133766
0.029361704 0.06472718 0.05766429 0.020037733 0.041959416 -0.009102045 -0.021111319 0.046801984
0.010348044 0.041299798 0.04328026 0.025726488 -0.002720785 -0.016343158 0.04998998 0.02118133
0.06647723 0.035099294 0.046486713 0.014437953 -0.028640434 0.051984612 0.00719635 0.0013403543
0.009635058 0.026608344 -0.02166128 0.0345577 -0.028155113 0.037881814 0.020924412 -0.051342957
-0.003551664 -0.01355505 0.030850194 0.0028889028 -0.021678302 -0.0012882663 -0.03863665 0.03056619
00000000: fb62 b73c 8643 a1bc 4c09 ad3c ee0c 803c
00000010: fc6a ae3c d545 b93c b92d 1cbc 2230 d9bc
00000020: 6aa6 dbbc 293f 35bd 47e3 f6bc 25db 293c
00000030: 8a08 53bc fd1b e5bc 8961 233b b7b2 6dbb
00000040: 6597 d8bc e1b8 82bd 56bd 203c f361 c53c
00000050: 2bac 813d e660 a3bc cc24 52bd a4a1 793d
00000060: 5e28 253d ea05 42bb 6202 ec3c eee1 193d
00000070: 5cb2 883c 98b0 9c3c 491f 7e3c a5dc 633d
00000080: f9f1 9cbc bc4f 76bd 9659 5cbc 16a6 74bc
00000090: 8478 3b3d 7fd3 c0bb be27 973a 0759 8bbb
000000a0: 70e2 81bc fa67 00bb 033c 493c ca59 a43c
000000b0: 7da3 143d c275 5f3d ec2f 2cbc 44e2 7ebd
000000c0: 8813 56bd 4b8f d43c 4f7f 663d 8c25 513c
000000d0: ac3c 4b3d 0d60 0fbc 95e1 ed3b 617d 00bb
000000e0: 09a3 7ebd 8f89 2c3d fa07 30bd c704 4c3c
000000f0: e6e7 993c 3c67 32bc 563c 4c3c 1a6b 1cbd
00000100: 691c 263d ef8e 64bd e0f6 d43b 331d 253c
00000110: fa6d b7bc 7a4f 453d 80f3 2dbd d8e7 69bd
00000120: 03e8 153d 7c0f c83b c7e0 543d 2100 ab3b
00000130: 5a39 363c 3e66 b6bc 9f8d 383c c750 593c
00000140: 559b 9cba f22c 0cbd 9f78 1e3c 9f7a 8bb8
00000150: 88b4 0b3d a089 8b3d f2b2 ddbc 98c1 393c
00000160: f587 f03c af8f 843d 6431 6c3d 2c26 a43c
00000170: a3dd 2b3d be20 15bc a5f1 acbc 70b3 3f3d
00000180: d88a 293c fa29 293d a446 313d 5bc0 d23c
00000190: 334f 32bb 16e2 85bc 4bc2 4c3d 7884 ad3c
000001a0: 3725 883d 47c4 0f3d da68 3e3d 2a8d 6c3c
000001b0: 589f eabc d1ed 543d 5ccf eb3b d4ae af3a
000001c0: 5ddc 1d3c bef9 d93c ff72 b1bc 608c 0d3d
000001d0: 8da5 e6bc f629 1b3d ac69 ab3c fe4c 52bd
000001e0: 09c3 68bb 0016 5ebc 8cb9 fc3c bf53 3d3b
000001f0: b296 b1bc 0bdb a8ba 7741 1ebd f265 fa3c

actor.weight f4 [4, 128]
0.076556966 0.002163304 0.08544167 0.06677601 -0.0064048744 0.035703067 -0.0066891816 0.058192722
0.05834699 0.029041663 0.040004164 -0.014334146 -0.056184098 0.014467734 -0.01577007 -0.015412647
0.042150903 0.052262247 0.0148125095 -0.06358642 0.05527019 0.08828481 -0.043017413 -0.035057247
0.032829713 0.022055954 -0.007989292 0.07760752 0.023302356 -0.01813379 -0.045947034 -0.07107313
-0.046626847 -0.08300633 -0.09034958 -0.024001503 0.016495548 -0.04468417 0.0002511999 -0.061860517
0.06633197 -0.082935154 0.015677635 -0.03179392 -0.012959674 -0.05346132 -0.0052782586 0.03793071
0.045527223 -0.02257744 -0.050920464 0.048738055 -0.045609463 0.08107772 -0.019425957 -0.00408532
-0.08151248 0.08097213 0.04868331 0.032198284 -0.029854542 0.07158022 -0.020582959 -0.077434644
-0.009117736 -0.07727004 0.027381765 -0.021088533 0.036873583 0.086347714 0.08632812 -0.05484093
-0.07981548 0.07148244 -0.029547937 -0.08080597 0.07130357 0.060444385 0.07230767 -0.064484745
-0.05058264 0.010912736 0.02548237 0.007047725 0.08477705 -0.08478301 0.07205955 0.037990674
-0.056284934 0.0030857476 -0.011108919 -0.06616468 0.017217504 -0.02858497 -0.012440389 0.0007105132
-0.078607835 -0.073227964 -0.064016394 0.07828843 -0.028337875 -0.04272497 0.08902703 -0.032664713
-0.025954291 0.028605867 -0.034804467 -0.078626595 0.08642113 -0.017347004 0.047578845 -0.049201258
0.06051567 -0.022593198 0.056657217 0.08897768 0.053382676 -0.0674765 0.049012247 -0.0027249667
0.00072639907 -0.084590174 0.08204127 0.058570303 0.03820439 0.047200583 0.052219115 -0.011139387
0.044722535 -0.0026902668 0.057823073 -0.06749365 -0.03127304 0.022750769 -0.08234934 -0.012267074
0.09447868 0.06350825 0.045823436 -0.070749104 -0.0041436967 0.07759961 -0.08976766 -0.076654926
-0.033694647 -0.059579857 -0.039815404 -0.0029650778 0.007762888 0.073856056 0.087880574 -0.06973544
-0.042648904 -0.067489624 0.05061418 -0.0007109979 -0.053946823 -0.01397759 0.032615047 0.08312969
-0.032473784 -0.03261147 0.012584031 0.008926668 0.05038253 0.014479524 0.0046278685 -0.027546221
0.01732617 0.08352351 -0.082129784 -0.018534586 0.077454895 0.088247426 0.08146427 0.03406751
0.0053429645 -0.04343685 0.021030687 0.05782903 0.063541286 -0.063164614 -0.02575436 0.051350072
0.08418041 0.021439157 0.039687112 0.05281468 0.08020072 0.013004871 -0.086423814 -0.063085325
0.051031202 0.02320718 0.041873053 -0.09023253 0.015798232 -0.047864612 0.055018503 0.080819994
-0.02395642 -0.06950834 0.046072725 -0.023587288 0.06795791 0.010552149 0.031173805 -0.0754604
0.025936846 -0.07828773 0.013923866 -0.05256586 -0.0060360325 -0.026789673 0.07867489 0.07847101
-0.028397853 -0.045211785 -0.08464847 0.07372859 0.031282935 -0.051160432 0.0022805347 0.047732
-0.08143656 -0.03632964 -0.0789165 0.08033087 0.057520468 -0.05834676 -0.02948283 0.08476183
0.0009100002 -0.036783252 0.043224774 -0.010381839 0.04960801 0.027626261 -0.002834779 0.015623443
0.009689998 0.0016800807 -0.07624701 0.038670335 -0.053639866 0.053544786 0.043862935 -0.05576957
0.039729804 0.018540462 0.08620571 -0.033851366 -0.059851352 -0.040828243 -0.07951187 -0.062410645
00000000: e6c9 9c3d 38c6 0d3b 0bfc ae3d dcc1 883d
00000010: fbdf d1bb 613d 123d ec30 dbbb 7e5b 6e3d
00000020: 41fd 6e3d c8e8 ed3c 68db 233d c4d9 6abc
00000030: 4c21 66bd 130a 6d3c 3c30 81bc 5485 7cbc
00000040: 6da6 2c3d f010 563d 2bb0 723c 9939 82bd
00000050: ff62 623d abce b43d 0733 30bd 3098 0fbd
00000060: 7378 063d b0ae b43c 85e5 02bc b1f0 9e3d
00000070: 95e4 be3c 508d 94bc f532 3cbd ca8e 91bd
00000080: cbfb 3ebd 39ff a9bd 3309 b9bd cd9e c4bc
00000090: ac21 873c c006 37bd 7bb3 8339 7461 7dbd
000000a0: 0ed9 873d e8d9 a9bd 626e 803c 573a 02bd
000000b0: d054 54bc 42fa 5abd 3ef5 acbb 3b5d 1b3d
000000c0: c17a 3a3d 53f4 b8bc fa91 50bd 8ea1 473d
000000d0: fdd0 3abd 130c a63d 2f23 9fbc 26de 85bb
000000e0: 04f0 a6bd b7d4 a53d 2768 473d 59e2 033d
000000f0: 8391 f4bc a698 923d 989d a8bc 0e96 9ebd
00000100: 8e62 15bc c13f 9ebd b94f e03c dcc1 acbc
00000110: c108 173d 12d7 b03d cccc b03d e2a0 60bd
00000120: 4c76 a3bd 6365 923d 840e f2bc 9a7d a5bd
00000130: 9b07 923d 8894 773d 0b16 943d 9410 84bd
00000140: be2f 4fbd 55cb 323c 67c0 d03c 9af0 e63b
00000150: 979f ad3d b7a2 adbd f593 933d 1c9c 1b3d
00000160: 088b 66bd 413a 4a3b 2f02 36bc 5981 87bd
00000170: b90b 8d3c 072b eabc c6d2 4bbc bc41 3a3a
00000180: 25fd a0bd 8bf8 95bd 071b 83bd af55 a03d
00000190: d524 e8bc 6100 2fbd ce53 b63d 6fcb 05bd
000001a0: 189e d4bc da56 ea3c 218f 0ebd fb06 a1bd
000001b0: 90fd b03d 4e1b 8ebc 09e2 423d 4287 49bd
000001c0: 47df 773d 5f15 b9bc 6611 683d ee39 b63d
000001d0: cba7 5a3d 1f31 8abd 11c1 483d 5b95 32bb
000001e0: d16b 3e3a 9d3d adbd 4105 a83d 6ae7 6f3d
000001f0: 357c 1c3d 6655 413d b6e3 553d fa81 36bc
00000200: fa2e 373d 304f 30bb e3d7 6c3d 1c3a 8abd
00000210: 2918 00bd d25f ba3c c5a6 a8bd d6fb 48bc
00000220: 0a7e c13d 9d10 823d 5bb1 3b3d e8e4 90bd
00000230: d9c7 87bb 8bec 9e3d 1bd8 b7bd 42fd 9cbd
00000240: 6603 0abd 020a 74bd 7a15 23bd c051 42bb
00000250: d35f fe3b d841 973d bbfa b33d 74d1 8ebd
00000260: 9eb0 2ebd 0038 8abd d050 4f3d 4362 3aba
00000270: 58f7 5cbd 4302 65bc 5b97 053d e63f aa3d
00000280: 3b03 05bd 9b93 05bd 402d 4e3c 2941 123c
00000290: e95d 4e3d 873b 6d3c 60a5 973b 9da8 e1bc
000002a0: 9def 8d3c 600e ab3d a933 a8bd d8d5 97bc
000002b0: aca0 9e3d 11bb b43d bdd6 a63d 608a 0b3d
000002c0: 0914 af3b d7ea 31bd 8c48 ac3c 22de 6c3d
000002d0: ef21 823d 735c 81bd cffa d2bc 7454 523d
000002e0: c766 ac3d 2ca1 af3c f48e 223d 3554 583d
000002f0: 4640 a43d 6212 553c f8fe b0bd e132 81bd
00000300: 1806 513d fc1c be3c 1483 2b3d d5cb b8bd
00000310: 4b6b 813c af0d 44bd 155b 613d f484 a53d
00000320: 4140 c4bc 635a 8ebd c1b6 3c3d 213a c1bc
00000330: 842d 8b3d ece2 2c3c 3560 ff3c fb8a 9abd
00000340: 8279 d43c 5155 a0bd ed20 643c 4d4f 57bd
00000350: e9c9 c5bb 0476 dbbc 4d20 a13d 69b5 a03d
00000360: 9da2 e8bc fe2f 39bd 2d5c adbd 04ff 963d
00000370: 8922 003d 9a8d 51bd 0675 153b a182 433d
00000380: 36c8 a6bd 63ce 14bd f99e a1bd 8384 a43d
00000390: 959a 6b3d 03fd 6ebd fa85 f1bc 9c97 ad3d
000003a0: 148d 6e3a 09aa 16bd 760c 313d 9718 2abc
000003b0: c531 4b3d 7850 e23c b3c7 39bb 78f9 7f3c
000003c0: ccc2 1e3c 2736 dc3a 6427 9cbd c964 1e3d
000003d0: 7ab5 5bbd c751 5b3d 9fa9 333d a26e 64bd
000003e0: b8bb 223d 2be2 973c 9f8c b03d bba7 0abd
000003f0: b126 75bd 843b 27bd 1fd7 a2bd 4ea2 7fbd

actor.bias f4 [4]
0.009390722 -0.052120414 -0.07898576 -0.088698514
00000000: 8bdb 193c 377c 55bd 49c3 a1bd 91a7 b5bd

critic.weight f4 [1, 128]
-0.07117454 0.085264094 0.03893637 -0.013046955 0.026597751 -0.03906463 0.08617609 -0.08033913
0.018801805 0.025376253 0.032059792 0.0096558565 0.05729857 -0.018890463 0.082088426 0.05632476
0.009071368 -0.06804363 -0.04315526 -0.08344302 0.004876026 -0.06571206 0.047453515 0.019346224
0.02905258 0.016259238 -0.03144413 -0.027288083 -0.061234653 0.092889935 -0.031593382 -0.019561063
0.07140064 -0.019969387 -0.0048528323 -0.04427637 0.07404944 0.033495456 -0.08149714 0.0671932
0.04356442 0.06385391 -0.041400608 0.07464613 0.006398748 0.07695786 0.020300344 -0.04360208
0.028235326 0.051071662 -0.044073574 -0.08030934 -0.03409585 -0.0485295 0.031247312 0.091870636
-0.08357717 -0.0425359 0.007867806 -0.017138 -0.06158345 0.020439703 0.048487164 -0.011009252
-0.011305674 -0.058389883 -0.036392856 -0.0707805 0.067520395 0.075174674 0.052641686 -0.069410406
-0.06302805 -0.008881154 0.05974683 0.050884735 0.043182764 -0.016652439 -0.07964553 -0.015369756
-0.011324216 -0.047927458 0.03967993 0.07277157 -0.05765028 0.0543477 0.072001904 -0.04135154
0.080280736 0.022022039 0.020137427 0.093341984 0.0027678255 0.041891914 0.011147943 0.042628907
0.08675969 -0.044039194 0.024250854 -0.014442007 -0.04627849 0.053737096 0.001232948 0.041701797
0.06920493 0.05583614 0.04762076 0.04791209 0.033869006 0.06617857 -0.028418856 -0.013271929
-0.06862673 -0.063828096 0.020478904 -0.0478323 0.043816596 0.06832629 0.036400765 0.013595325
0.09057766 0.023425408 0.004573846 0.088508934 0.06356794 0.042233907 0.036014475 0.021727609
00000000: f5c3 91bd f19e ae3d be7b 1f3d e5c2 55bc
00000010: 87e3 d93c 3c02 20bd 177d b03d d788 a4bd
00000020: 3e06 9a3c dce1 cf3c 2151 033d 9933 1e3c
00000030: e8b1 6a3d 2cc0 9abc fa1d a83d cbb4 663d
00000040: 13a0 143c 755a 8bbd 92c3 30bd 2de4 aabd
00000050: 12c7 9f3b 0b94 86bd 9e5e 423d f97b 9e3c
00000060: adff ed3c 1832 853c 8fcb 00bd 428b dfbc
00000070: 30d1 7abd 143d be3d 1068 01bd 863e a0bc
00000080: 803a 923d d796 a3bc 8204 9fbb 245b 35bd
00000090: 3ca7 973d 8832 093d f9e7 a6bd 979c 893d
000000a0: 9b70 323d d7c5 823d af93 29bd 12e0 983d
000000b0: 97ac d13b 159c 9d3d e84c a63c 1898 32bd
000000c0: c54d e73c 8530 513d 7e86 34bd 3979 a4bd
000000d0: 17a8 0bbd dec6 46bd 5dfa ff3c ac26 bc3d
000000e0: 822a abbd 203a 2ebd f8e7 003c fe64 8cbc
000000f0: ed3e 7cbd 2a71 a73c 7a9a 463d 2660 34bc
00000100: 6f3b 39bc 3b2a 6fbd ad10 15bd 5ef5 90bd
00000110: 2248 8a3d 2ef5 993d cf9e 573d 0b27 8ebd
00000120: da14 81bd 4282 11bc 18b9 743d 836c 503d
00000130: 69e0 303d b26a 88bc 321d a3bd 6ed1 7bbc
00000140: 3489 39bc 954f 44bd 6c87 223d 4309 953d
00000150: b322 6cbd b29b 5e3d bc75 933d 3b60 29bd
00000160: 3a6a a43d 9067 b43c 3ff7 a43c 152a bf3d
00000170: 6864 353b db96 2b3d dda5 363c a69b 2e3d
00000180: 10af b13d 7162 34bd baa9 c63c 2b9e 6cbc
00000190: 848e 3dbd 6e1b 5c3d df9a a13a 81cf 2a3d
000001a0: 50bb 8d3d 70b4 643d fc0d 433d 783f 443d
000001b0: 3aba 0a3d a188 873d a9ce e8bc 8172 59bc
000001c0: 2c8c 8cbd 4eb8 82bd 60c3 a73c cdeb 43bd
000001d0: 0879 333d a7ee 8b3d f818 153d edbe 5e3c
000001e0: c880 b93d a4e6 bf3c 33e0 953b 2c44 b53d
000001f0: e82f 823d 76fd 2c3d ea83 133d 19fe b13c

target.0.weight f4 [128, 256]
0.0005586371 -0.030359171 0.043988258 -0.022277437 0.048895232 0.042237617 0.007524483 -0.0041538477
-0.05016502 -0.0316403 0.040902294 -0.037434563 0.047599636 -0.010595217 -0.05328416 0.0039546043
-0.016324393 -0.037747532 -0.06159328 0.040547565 0.02910763 -0.04813263 0.0079407245 0.035825312
0.042842045 -0.02409029 0.055975065 -0.039383627 0.025722593 -0.059123926 0.019322269 -0.024086699
-0.0117935985 -0.0037323833 -0.03150087 0.023200355 -0.011607945 -0.058164753 0.041806027 -0.020764224
-0.0012220368 -0.026107356 0.011390582 0.017024383 -0.014423177 -0.010951869 0.057763606 -0.048843294
-0.00012129545 0.03103298 0.056444764 -0.008176364 0.03504453 -0.050255604 0.05860325 0.029429086
-0.031223401 -0.029324569 0.04018481 0.06106241 -0.008781053 0.042217508 -0.031464018 -0.037633665
0.0057715103 -0.020197429 0.056775898 -0.0026907325 0.002106823 -0.019300036 0.025959238 0.0437205
-0.043508656 0.008001357 -0.009996854 0.058326982 -0.011445135 -0.0035599545 0.048276663 0.032626696
0.058466427 0.012872323 -0.030497417 -0.027686305 -0.034520216 -0.0069440827 -0.039667048 -0.045340724
-0.046400942 -0.054925554 0.01951667 -0.0014082864 0.05511564 -0.021133065 0.009948216 -0.05552031
0.034586936 0.014258914 0.037206054 0.00025849044 0.021175094 0.03314957 0.029563986 0.030961059
0.011326656 0.041814484 0.009927005 0.039684974 -0.020952187 0.046203144 -0.0013672262 -0.004752554
0.018827103 0.062443353 -0.008282825 0.043087795 -0.05185532 -0.0369277 -0.060841925 -0.0105040595
0.00690417 -0.0128368065 0.02692137 0.056751862 0.035445973 0.04721327 0.029252611 0.00076719373
0.0555169 0.0026606247 0.03681525 0.05200322 -0.05820658 0.042681277 0.026857324 -0.05553911
0.053900965 0.05272796 -0.04849392 -0.055687442 -0.051832512 -0.008126438 -0.006451316 0.061866395
-0.048423804 -0.02339495 -0.03956292 -0.0090230405 -0.04087837 0.004633136 -0.05240746 0.04625413
-0.04733541 -0.008663937 0.017477103 0.050824866 0.03522788 0.038865678 0.03379494 -0.061522007
-0.0267018 0.025949046 0.035393372 -0.038133696 -0.011450574 0.0048746765 -0.045348704 -0.03584437
-0.03355036 -0.008866273 0.05139114 0.011744328 -0.059649937 0.037225306 -0.048506692 -0.020938128
0.059197247 -0.04706753 -0.0185031 0.05509632 -0.008102804 0.05773306 0.034300856 0.003030017
-0.026579067 -0.0549779 -0.017339766 -0.0027817711 -0.03751316 0.008295648 0.054332204 -0.051952638
-0.054669738 -0.031542055 0.038591072 -0.020289056 -0.0028305948 -0.0550351 0.059638955 0.018237159
-0.01994522 0.007455237 0.019859515 0.04636783 0.026270844 -0.032254122 -0.053612366 0.014175937
0.062157415 -0.019879133 -0.05314283 -0.021861315 -0.04414106 -0.039301097 -0.0391031 0.05526427
-0.062258303 0.02412542 -0.04969184 -0.0013985038 -0.062492304 -0.05040016 -0.039075732 -0.06157612
-0.0025099888 -0.048454344 0.0039715096 -0.0076685622 -0.021786556 0.027950838 0.058133364 0.028149888
-0.052085362 0.018098406 0.02247332 0.028236613 -0.047692552 0.05480966 0.055320412 -0.045803256
0.041433252 -0.0025583953 0.0070375577 -0.0017743707 -0.027536713 -0.041162774 0.042475373 -0.031228729
-0.008021869 0.010760404 -0.011553146 0.022393689 0.0103081465 0.029545724 -0.017283365 0.0007560402
00000000: 8071 123a ccb3 f8bc 082d 343d 2c7f b6bc
00000010: 5e46 483d 5a01 2d3d f08f f63b 001d 88bb
00000020: d679 4dbd 4299 01bd 2a89 273d fc54 19bd
00000030: d6f7 423d 9097 2dbc 7e40 5abd a095 813b
00000040: bcba 85bc 289d 1abd 3c49 7cbd 3415 263d
00000050: 2073 ee3c b826 45bd d019 023c 90bd 123d
00000060: 247b 2f3d 0059 c5bc 1c46 653d ba50 21bd
00000070: 30b8 d23c ee2b 72bd bc49 9e3c 7851 c5bc
00000080: f039 41bc 009b 74bb 0e07 01bd ac0e be3c
00000090: 402f 3ebc 2a3e 6ebd cc3c 2b3d bc19 aabc
000000a0: c02c a0ba 18df d5bc 909f 3a3c b876 8b3c
000000b0: 304f 6cbc 786f 33bc 8899 6c3d e80f 48bd
000000c0: 0060 feb8 e038 fe3c a032 673d 28f6 05bc
000000d0: da8a 0f3d d2d8 4dbd f609 703d 4415 f13c
000000e0: 38c8 ffbc 143a f0bc d498 243d 941c 7a3d
000000f0: 68de 0fbc 44ec 2c3d 6ae0 00bd c225 1abd
00000100: f01e bd3b 1475 a5bc d88d 683d 0057 30bb
00000110: a012 0a3b 1c1b 9ebc 78a8 d43c 4414 333d
00000120: 2236 32bd 2018 033c d8c9 23bc 46e8 6e3d
00000130: 6084 3bbc 204e 69bb c0bd 453d 92a3 053d
00000140: 7e7a 6f3d 70e6 523c b8d5 f9bc 64ce e2bc
00000150: 1265 0dbd 308b e3bb ea79 22bd 32b7 39bd
00000160: ea0e 3ebd 9ef9 60bd 6ce1 9f3c 4096 b8ba
00000170: f0c0 613d 401f adbc d8fd 223c 4469 63bd
00000180: 08ab 0d3d 389e 693c 6065 183d 0086 8739
00000190: 6477 ad3c d8c7 073d 2c30 f23c 0ca2 fd3c
000001a0: 7093 393c aa45 2b3d e0a4 223c b68c 223d
000001b0: eca3 abbc 823f 3d3d 8034 b3ba 50bb 9bbb
000001c0: 4c3b 9a3c 9ac4 7f3d b0b4 07bc d47c 303d
000001d0: 3e66 54bd 8041 17bd 6235 79bd 3819 2cbc
000001e0: 603c e23b 7851 52bc 348a dc3c a474 683d
000001f0: cc2f 113d b462 413d 2ca3 ef3c 801d 493a
00000200: b065 633d e05d 2e3b 96cb 163d 5401 553d
00000210: 066a 6ebd 90d2 2e3d e403 dc3c fa7c 63bd
00000220: 42c7 5c3d 46f9 573d 90a1 46bd 8418 64bd
00000230: 544e 54bd c024 05bc 9065 d3bb 9e67 7d3d
00000240: 0a58 46bd c4a6 bfbc ba0c 22bd 60d5 13bc
00000250: 1470 27bd 90d1 973b 34a9 56bd f874 3d3d
00000260: c6e2 41bd 30f3 0dbc 242c 8f3c bc2d 503d
00000270: 1c4b 103d 9e31 1f3d 906c 0a3d 80fe 7bbd
00000280: bcbd dabc 1893 d43c a4f8 103d 1432 1cbd
00000290: 309b 3bbc c0bb 9f3b 90bf 39bd 8cd1 12bd
000002a0: 1a6c 09bd d843 11bc 847f 523d 486b 403c
000002b0: 7e53 74bd 9079 183d f4ae 46bd 7086 abbc
000002c0: d078 723d e2c9 40bd d093 97bc aeac 613d
000002d0: a0c1 04bc 8079 6c3d 0e7f 0c3d 4093 463b
000002e0: 58bc d9bc 8230 61bd 200c 8ebc 604e 36bb
000002f0: 66a7 19bd 78ea 073c 728b 5e3d 4acc 54bd
00000300: 60ed 5fbd 3e32 01bd ac11 1e3d 3c35 a6bc
00000310: 8081 39bb 7c6c 61bd fa47 743d 1866 953c
00000320: 2864 a3bc 104b f43b 6cb0 a23c 32ec 3d3d
00000330: f435 d73c e61c 04bd a498 5bbd 3042 683c
00000340: c698 7e3d 90d9 a2bc 4cac 59bd 8016 b3bc
00000350: 42cd 34bd 30fa 20bd 922a 20bd ca5c 623d
00000360: 9002 7fbd aca2 c53c ac89 4bbd 004e b7ba
00000370: eef7 7fbd 6670 4ebd e00d 20bd 3e37 7cbd
00000380: a07e 24bb 1078 46bd 7023 823b 9048 fbbb
00000390: b879 b2bc 28f9 e43c 401d 6e3d 989a e63c
000003a0: 7657 55bd 1c43 943c f819 b83c 7850 e73c
000003b0: 4459 43bd 1880 603d a897 623d 329c 3bbd
000003c0: eab5 293d c0aa 27bb 509b e63b 0092 e8ba
000003d0: ac94 e1bc 4c9a 28bd a8fa 2d3d 64d3 ffbc
000003e0: 286e 03bc 684c 303c 6849 3dbc f872 b73c
000003f0: 80e3 283c e009 f23c d895 8dbc 0031 463a

target.0.bias f4 [128]
-0.020886377 -0.04541423 -0.004926555 0.0010940209 0.016111769 -0.019984208 -0.02598495 0.020511135
-0.005513124 -0.058321215 -0.059703052 0.054426506 0.0052667484 -0.02514048 -0.016992785 0.03437233
0.008543491 -0.04329414 -0.04282116 -0.045780905 -0.00782945 -0.036372967 -0.03806106 -0.008391164
0.042902194 0.055224508 -0.0612749 0.019702919 -0.038250588 0.022221401 0.046305746 -0.017128177
0.011093631 -0.02947075 -0.0153685585 0.033362404 0.045563556 0.05898013 -0.052959733 -0.028206497
0.007364951 0.042096123 0.010954142 -0.0036371201 0.0064215735 0.008657403 0.04478266 0.04506126
0.006554261 0.034168087 -0.021282047 0.04164248 0.023600161 -0.019720845 -0.0392733 -0.005024947
0.0034729838 0.03186337 0.02734562 0.0041866526 0.04008609 0.050606444 0.04225774 0.04906729
-0.034462333 0.044414796 -0.0018045381 -0.03387411 0.039724052 0.0113784075 -0.041274227 0.027676389
0.034952775 -0.02971299 0.05830244 0.017134242 0.018777572 -0.038716987 -0.024636023 -0.0072535053
0.029459372 -0.04941877 0.037596956 0.050000668 0.037533082 0.062472634 -0.024401218 0.05457434
0.04260096 -0.009725891 -0.048808724 -0.050596938 -0.000652425 0.04524245 0.020755313 -0.045834303
0.015498079 -0.05503323 -0.023873784 -0.055466697 0.025908872 -0.05951739 -0.030434169 0.031209022
-0.044436835 -0.001307331 0.04821328 -0.008403905 -0.006945707 0.03407094 -0.0036627725 -0.011400528
0.058375493 0.0014915168 -0.018838458 -0.0036920607 0.03811144 0.016829707 -0.053674363 0.05403281
-0.007039942 0.0097458735 -0.041307017 0.057131283 -0.03553024 -0.010275014 -0.039377354 -0.053920142
00000000: e819 abbc 4604 3abd f06e a1bb 4065 8f3a
00000010: d4fc 833c ecb5 a3bc 64de d4bc f806 a83c
00000020: 70a7 b4bb 3ae2 6ebd 308b 74bd 54ee 5e3d
00000030: b094 ac3b 68f3 cdbc 7434 8bbc 00ca 0c3d
00000040: 00fa 0b3c 3255 31bd 3e65 2fbd c284 3bbd
00000050: 1847 00bc d2fb 14bd eae5 1bbd 187b 09bc
00000060: 36ba 2f3d 1833 623d 64fb 7abd 0468 a13c
00000070: a6ac 1cbd a809 b63c 18ab 3d3d 6450 8cbc
00000080: 10c2 353c a46c f1bc 68cc 7bbc 04a7 083d
00000090: daa0 3a3d 2695 713d 4eec 58bd 5011 e7bc
000000a0: b055 f13b fc6c 2c3d 0079 333c c05c 6ebb
000000b0: 106c d23b c8d7 0d3c 066e 373d 2892 383d
000000c0: 20c5 d63b d6f3 0b3d b057 aebc 4e91 2a3d
000000d0: 2055 c13c 9c8d a1bc 0add 20bd 50a8 a4bb
000000e0: 009b 633b 2a83 023d ec03 e03c 3030 893b
000000f0: 5031 243d b448 4f3d 7416 2d3d c8fa 483d
00000100: 6028 0dbd 4aec 353d 4086 ecba 94bf 0abd
00000110: b0b5 223d 806c 3a3c 2a0f 29bd 98b9 e23c
00000120: a42a 0f3d a868 f3bc 8ace 6e3d 1c5d 8c3c
00000130: 6cd3 993c b495 1ebd 7cd1 c9bc d0ae edbb
00000140: c854 f13c 566b 4abd 44ff 193d 80cd 4c3d
00000150: 4abc 193d 4ee3 7f3d 10e5 c7bc 5889 5f3d
00000160: 587e 2e3d 5859 1fbc a8eb 47bd bc3e 4fbd
00000170: 8007 2bba 2650 393d 0c07 aa3c c0bc 3bbd
00000180: a8eb 7d3c 866a 61bd f492 c3bc 0c31 63bd
00000190: d83e d43c 82c8 73bd 1451 f9bc 10aa ff3c
000001a0: 6603 36bd c05a abba 4a7b 453d 88b0 09bc
000001b0: d098 e3bb f88d 0b3d 200b 70bb 48c9 3abc
000001c0: 241b 6f3d 007f c33a 1c53 9abc 80f6 71bb
000001d0: be1a 1c3d 74de 893c a6d9 5bbd 8251 5d3d
000001e0: 50af e6bb 28ad 1f3c 8c31 29bd 7e02 6a3d
000001f0: 2888 11bd 8858 28bc 264a 21bd 5edb 5cbd

target.2.weight f4 [128, 128]
0.06567798 0.06045567 0.023514064 -0.03940979 0.037356142 -0.022969421 -0.016321262 -0.018237088
0.04100743 -0.013713183 0.05781223 0.0124398 -0.013646739 -0.039467204 0.07491294 -0.061472725
0.045543462 0.020280493 -0.07024498 -0.039310407 -0.06658737 0.019583859 0.011855666 0.0073522646
0.07116995 -0.05827049 -0.06583139 0.020547632 -0.057561193 -0.008896578 -0.085356906 -0.07155045
-0.050424088 -0.056392115 0.069460735 0.06132299 0.013266532 -0.056384623 0.06686365 -0.082925595
-0.04587555 -0.0127043035 -0.026516542 0.07858336 0.05453017 -0.0029253284 0.023795731 -0.04353701
-0.04264808 0.040664162 -0.03687791 -0.07144329 0.031094057 0.014255118 0.055461995 -0.005943496
-0.033842824 0.0761409 -0.04319287 -0.050938208 0.025913473 0.013875353 0.06605415 -0.06874921
0.08298972 0.018830758 0.066195 0.009714627 0.0554637 -0.06168776 0.04395623 0.022908729
0.010074203 0.08593498 0.026056109 -0.009968826 0.042046864 0.069358885 -0.07691149 0.03257123
-0.08198245 -0.005499616 0.04658229 0.071079776 -0.05323501 -0.072934434 0.044688113 0.012909464
0.05259185 0.06346878 -0.016404554 -0.060542073 0.0503346 -0.07317098 -0.072021924 -0.048911102
-0.034137852 -0.026109193 0.014502815 -0.019939253 0.051500868 -0.005923276 0.085886985 -0.048925884
0.0672982 0.085116535 0.04303071 -0.08246743 -0.060182676 -0.01806122 0.048249543 -0.047345597
-0.021533763 -0.018855194 -0.07722354 0.0865167 -0.07517833 0.043066144 -0.05798542 -0.008093248
0.021559335 -0.06451236 -0.0865688 -0.08173696 -0.07415527 -0.018547764 0.0424645 -0.035628386
0.0029736077 -0.061142273 0.052381113 0.07561688 -0.023465436 0.037246823 0.023781685 -0.039129153
-0.032626245 -0.04516627 0.046554036 0.022702843 0.059707943 -0.010414128 -0.05626231 -0.020289756
0.0773013 0.079347365 -0.03941983 0.07482337 -0.03485616 0.079138085 0.08447635 -0.04531864
-0.022875633 0.08383834 -0.06885982 0.039383892 -0.078879334 0.06722236 -0.030380439 -0.00534696
-0.05889843 -0.04052922 -0.05046144 -0.0026534286 -0.013478541 -0.004565905 -0.042897474 0.057272393
0.08084914 -0.00018978726 0.01039119 0.01713969 -0.08476607 -0.0052402546 -0.013213732 -0.015932847
-0.012694167 -0.008561352 0.067957886 -0.0076706735 0.06962056 0.0041736336 0.060648598 -0.06889783
-0.0019429275 -0.043216113 -0.030581363 0.04088261 0.0835932 -0.01668636 -0.07488 -0.012403069
-0.0416651 0.021682931 0.043069188 -0.07554209 -0.06377656 0.06929977 -0.0024111157 -0.02637341
-0.013915888 -0.034626238 -0.05004173 -0.08122 0.045886464 -0.035099525 0.03904509 0.082100615
-0.043264814 -0.018571924 -0.08501765 0.04000406 0.03444601 -0.079019636 -0.0055070124 -0.0032539684
0.021313166 0.048162993 0.06602477 -0.004981294 0.07926516 -0.037943702 -0.004390585 -0.06522401
0.047808804 0.06394899 -0.08168776 -0.023636922 -0.08350779 -0.008702787 -0.017062161 -0.022960402
-0.05309815 -0.020099474 -0.07620497 0.05461734 0.049514137 -0.07297597 -0.05680924 -0.018647883
0.03534319 -0.070154145 -0.07211356 0.06413766 0.035096124 0.06707102 -0.016070446 0.016876146
-0.0056419875 0.058708336 0.06942011 -0.08131394 0.028708326 0.056945354 0.07838553 -0.057955477
00000000: 2d82 863d 5da0 773d 91a0 c03c 296c 21bd
00000010: c102 193d 5e2a bcbc 2bb4 85bc f265 95bc
00000020: 68f7 273d 42ad 60bc 84cc 6c3d 4ed0 4b3c
00000030: 9296 5fbc 5da8 21bd f56b 993d d3ca 7bbd
00000040: c88b 3a3d 4723 a63c 9adc 8fbd f303 21bd
00000050: f65e 88bd 546e a03c 443e 423c 44eb f03b
00000060: 8dc1 913d 0aad 6ebd 9cd2 86bd 8253 a83c
00000070: 49c5 6bbd f4c2 11bc 9acf aebd 0b89 92bd
00000080: 7d89 4ebd 6bfb 66bd 6e41 8e3d d12d 7b3d
00000090: de5b 593c 90f3 66bd cfef 883d e5d4 a9bd
000000a0: 00e8 3bbd b625 50bc 3839 d9bc 50f0 a03d
000000b0: 075b 5f3d deb6 3fbb 44ef c23c dd53 32bd
000000c0: c1af 2ebd 778f 263d 4b0d 17bd dc50 92bd
000000d0: f7b8 fe3c 4c8e 693c 1e2c 633d a8c1 c2bb
000000e0: c69e 0abd c3ef 9b3d 02eb 30bd 95a4 50bd
000000f0: 7e48 d43c 7355 633c 6647 873d 63cc 8cbd
00000100: 84f6 a93d f642 9a3c 3f91 873d 192a 1f3c
00000110: e82d 633d 4eac 7cbd 730b 343d 16ab bb3c
00000120: 450e 253c aefe af3d 9f73 d53c 4954 23bc
00000130: 5539 2c3d 080c 8e3d c583 9dbd 6969 053d
00000140: 6ae6 a7bd 1f36 b4bb 12cd 3e3d 4692 913d
00000150: f40c 5abd a65e 95bd e20a 373d 3782 533c
00000160: 8d6a 573d ebfb 813d d862 86bc f7fa 77bd
00000170: a72b 4e3d abda 95bd 3b80 93bd 0257 48bd
00000180: 22d4 0bbd f2e2 d5bc 379d 6d3c a557 a3bc
00000190: 93f2 523d 0a18 c2bb 84e5 af3d 8266 48bd
000001a0: a4d3 893d 9451 ae3d f840 303d afe4 a8bd
000001b0: 1c82 76bd 20f5 93bc 50a1 453d 75ed 41bd
000001c0: 9367 b0bc 3576 9abc 6027 9ebd ab2f b13d
000001d0: 19f7 99bd 2066 303d 1f82 6dbd 8b99 04bc
000001e0: 349d b03c 0e1f 84bd fc4a b1bd b565 a7bd
000001f0: b8de 97bd 7bf1 97bc 41ef 2d3d 12ef 11bd
00000200: dce0 423b 5270 7abd 948d 563d 06dd 9a3d
00000210: 963a c0bc 2090 183d cfd1 c23c e445 20bd
00000220: 19a3 05bd 4400 39bd 72af 3e3d 50fb b93c
00000230: 5190 743d 05a0 2abc 4f73 66bd b436 a6bc
00000240: 2550 9e3d df80 a23d b076 21bd ff3c 993d
00000250: 55c5 0ebd 2613 a23d f001 ad3d 0aa0 39bd
00000260: ae65 bbbc 70b3 ab3d 6106 8dbd 0151 213d
00000270: 7d8b a1bd e0ab 893d 66e0 f8bc 8d35 afbb
00000280: 7b3f 71bd f801 26bd a8b0 4ebd 25e5 2dbb
00000290: 19d5 5cbc 969d 95bb 43b5 2fbd 7596 6a3d
000002a0: 3c94 a53d a101 47b9 cf3f 2a3c 8968 8c3c
000002b0: d599 adbd 71b6 abbb 697e 58bc 9a85 82bc
000002c0: 32fb 4fbc ea44 0cbc 812d 8b3d 465a fbbb
000002d0: 3995 8e3d fac2 883b aa6a 783d 4e1a 8dbd
000002e0: d4a9 feba 6103 31bd c485 fabc 8674 273d
000002f0: e932 ab3d d5b1 88bc af5a 99bd 3e36 4bbc
00000300: 06a9 2abd 67a0 b13c 5169 303d d0b5 9abd
00000310: 499d 82bd 0aed 8d3d cf03 1ebb 0d0d d8bc
00000320: 77ff 63bc 3ed4 0dbd 8ff8 4cbd ac56 a6bd
00000330: 72f3 3b3d 85c4 0fbd bfed 1f3d 5e24 a83d
00000340: 7236 31bd 2624 98bc bc1d aebd 4cdb 233d
00000350: 4217 0d3d 0cd5 a1bd 2b74 b4bb 8840 55bb
00000360: f398 ae3c 8f46 453d ff37 873d 1f3a a3bb
00000370: c655 a23d db6a 1bbd e5de 8fbb 2a94 85bd
00000380: 2ad3 433d b0f7 823d ea4b a7bd 38a2 c1bc
00000390: 2206 abbd 2296 0ebc f2c5 8bbc 7417 bcbc
000003a0: 727d 59bd a7a7 a4bc 5a11 9cbd 6fb6 5f3d
000003b0: 56cf 4a3d 6d74 95bd ceb0 68bd 72c3 98bc
000003c0: 05c4 103d faac 8fbd 46b0 93bd 9b5a 833d
000003d0: f4c0 0f3d 885c 893d 2ba6 83bc d83f 8a3c
000003e0: 6ce0 b8bb 2778 703d 212c 8e3d ec87 a6bd
000003f0: b92d eb3c 883f 693d 9888 a03d b962 6dbd
