checkpoints/count/seed0/final.pt (torch, 400901 bytes, 7 tensors)

fc1.weight f4 [256, 256]
0.03938411 -0.050408274 0.017999314 0.014044456 0.034146674 0.011488387 -0.058260817 -0.0035807483
0.04453687 0.00010389974 0.0006685069 0.042410042 -0.018537499 -0.0030983463 -0.027292835 0.046076313
0.036377523 -0.036498543 -0.056270175 -0.03291714 0.042409208 -0.050232258 0.0038635319 0.06306191
-0.034367595 -0.03020995 -0.005952651 -0.028089294 -0.0469483 -0.054949734 0.04126456 -0.059953045
0.00783467 -0.0062333145 0.0685509 0.038470715 0.050047733 0.04539614 0.01272414 -0.047926843
-0.023083117 0.036043163 0.014546774 -0.048643865 0.036251217 0.030623486 0.02425339 0.034968436
0.06517542 0.011584012 -0.030105485 0.056031577 -0.035977416 -0.06399608 -0.0009760414 -0.012887803
-0.028970914 -0.04206023 -0.03374632 -0.056427784 -0.00035063704 -0.023694767 -0.05006272 -0.051205486
-0.018741619 -0.011222644 -0.014731314 -0.0008735114 -0.009548163 -0.05375819 0.013355337 0.05893072
0.020250041 0.019893143 0.026643861 -0.018608136 0.013550017 -0.021533165 -0.010190962 0.041313242
-0.005052166 0.012842692 -0.019216288 0.013984436 0.00056029705 0.024828102 -0.03684398 -0.028456172
0.023351181 -0.011125429 -0.04477192 0.03900047 0.02893765 -0.047020886 -0.0023888526 -0.054877322
-0.02144679 -0.015550535 -0.0016473036 0.04826435 -0.016940873 -0.007818371 -0.044389334 0.0135380775
0.051574763 0.01286044 0.043039087 -0.023099434 0.00741449 0.023744192 -0.0011771724 -0.027835522
-0.013508067 0.03675234 -0.013757028 -0.009703673 -0.016455326 0.04795823 -0.026995283 0.05373736
0.0043072617 0.040882993 -0.035581615 0.034477327 -0.004530291 0.025004704 0.02412169 -0.03425656
0.059096955 -0.04030581 0.057038076 0.019439321 -0.04986254 0.02216467 -0.016044758 0.009133004
0.02044569 0.050619736 0.015334069 0.06278836 0.053827047 0.0241908 0.05999867 0.04861192
-0.05677534 -0.012381616 0.04584822 0.030087434 -0.015078146 -0.03599625 -0.050202634 -0.043715432
-0.012878776 -0.046690732 0.05200669 0.061622478 0.035001703 -0.052516513 -0.024096008 0.03706344
0.025826268 -0.035104115 -0.031574756 -0.05515121 0.05875585 -0.0049717394 0.06536088 0.065204196
-0.031743042 0.0393988 -0.014500278 0.032218225 -0.015527175 -0.020590268 0.012997653 0.010212299
0.050055888 0.023911212 0.013938046 0.046504073 0.062810235 0.02930393 0.005498653 0.014861473
-0.003854324 0.027180064 0.014782223 0.012886623 -0.059315156 -0.055374507 0.041945532 0.03220997
0.035095003 0.0072477236 0.022834627 -0.04963755 0.03535702 0.021110516 0.001512371 0.03740514
-0.0054884404 0.053775147 -0.0015450045 0.036712408 0.05382278 -0.021161059 -0.044474505 -0.05407362
0.027798273 -0.061575033 0.02942292 0.052731454 -0.025834756 -0.035278484 -0.026954206 -0.0069843754
0.046327163 0.04615788 -0.04942578 -0.039773986 0.01104384 0.047800567 0.032165006 0.006155913
0.039426208 -0.048158325 -0.026481383 0.00069815665 -0.008517243 0.0073920563 -0.00039669126 0.008159816
0.043913573 0.04707399 -0.012779184 -0.009518407 -0.03670767 0.019666284 0.041994892 -0.017048065
-0.020057544 0.05066538 -0.005780034 0.014858715 0.021571293 0.013146811 0.03967141 0.06412821
-0.04180234 0.03551951 -0.055998124 -0.009067483 -0.05624537 0.023607045 -0.013701282 -0.0010079145
00000000: 3c51 213d e878 4ebd 4c73 933c b81a 663c
00000010: 62dd 0b3d ca39 3c3c e5a2 6ebd fdaa 6abb
00000020: 4b6c 363d c0e4 d938 bd3e 2f3a 27b6 2d3d
00000030: f4db 97bc a00d 4bbb 3995 dfbc 84ba 3c3d
00000040: 9900 153d 7f7f 15bd 8e7b 66bd 1fd4 06bd
00000050: 47b5 2d3d 57c0 4dbd 4f33 7d3b 9a26 813d
00000060: 09c5 0cbd db7a f7bc 750e c3bb 851b e6bc
00000070: dc4c 40bd f912 61bd 0705 293d 5391 75bd
00000080: fd5c 003c d540 ccbb 6a64 8c3d 7893 1d3d
00000090: dafe 4c3d 4ef1 393d e978 503c f04e 44bd
000000a0: ce18 bdbc ffa1 133d 9855 6e3c ca3e 47bd
000000b0: 287c 143d 1bde fa3c 0caf c63c 103b 0f3d
000000c0: b17a 853d deca 3d3c c79f f6bc 5e81 653d
000000d0: 0e5d 13bd 6010 83bd 08dd 7fba 5d27 53bc
000000e0: 6954 edbc 5947 2cbd 9539 0abd d220 67bd
000000f0: b5d5 b7b9 871b c2bc 910e 4dbd d8bc 51bd
00000100: 0688 99bc 2edf 37bc 9c5b 71bc 5cfc 64ba
00000110: e66f 1cbc 8c31 5cbd 58d0 5a3c 5761 713d
00000120: 6ae3 a53c f2f6 a23c 3a44 da3c 1770 98bc
00000130: e400 5e3c 5266 b0bc fef7 26bc 1338 293d
00000140: a48c a5bb 286a 523c 7a6b 9dbc fa1e 653c
00000150: e6e0 123a 4e64 cb3c b7e9 16bd eb1c e9bc
00000160: fa4a bf3c 6e47 36bc c362 37bd f5be 1f3d
00000170: a70e ed3c f998 40bd 4c8e 1cbb 0bc7 60bd
00000180: 2eb1 afbc acc7 7ebc 56ea d7ba d7b0 453d
00000190: 96c7 8abc a018 00bc 97d1 35bd d0ce 5d3c
000001a0: 0f40 533d 98b4 523c c149 303d 063b bdbc
000001b0: 40f5 f23b 2e83 c23c 5a4b 9aba 5207 e4bc
000001c0: f050 5dbc 9f89 163d 2865 61bc 28fc 1ebc
000001d0: 52cd 86bc d96f 443d 3625 ddbc b51b 5c3d
000001e0: ee23 8d3b ed74 273d 07be 11bd 1938 0d3d
000001f0: d672 94bb aad6 cc3c da9a c53c 9b50 0cbd
00000200: a60f 723d b417 25bd c2a0 693d 363f 9f3c
00000210: aa3c 4cbd af92 b53c 4c70 83bc 98a2 153c
00000220: b87d a73c a456 4f3d bf3b 7b3c 2f97 803d
00000230: c079 5c3d c92b c63c 2ac1 753d 4b1d 473d
00000240: 428d 68bd 43dc 4abc 58cb 3b3d ec79 f63c
00000250: 540a 77bc ce70 13bd 47a1 4dbd f40e 33bd
00000260: 8001 53bc c83e 3fbd f804 553d da67 7c3d
00000270: f25d 0f3d 8e1b 57bd fe64 c5bc d5cf 173d
00000280: 9c91 d33c 55c9 0fbd 8854 01bd 3ce6 61bd
00000290: f9a9 703d f9e9 a2bb eddb 853d c789 853d
000002a0: fe04 02bd a360 213d 9392 6dbc 42f7 033d
000002b0: b165 7ebc ecac a8bc 1cf4 543c 7d51 273c
000002c0: 6707 4d3d 72e1 c33c 675c 643c 0e7b 3e3d
000002d0: a7a2 803d cc0e f03c 0b2e b43b 897d 733c
000002e0: d498 7cbb baa8 de3c 2331 723c 6a22 533c
000002f0: 73f4 72bd 61d0 62bd 14cf 2b3d 9aee 033d
00000300: c7bf 0f3d 507e ed3b af0f bb3c be50 4bbd
00000310: 86d2 103d f6ef ac3c c03a c63a 2236 193d
00000320: 60d8 b3bb 5443 5c3d c081 caba c05f 163d
00000330: 4675 5c3d f559 adbc e62a 36bd 4d7c 5dbd
00000340: 34b9 e33c 1a36 7cbd 5608 f13c f0fc 573d
00000350: 69a3 d3bc 2c80 10bd 11cf dcbc 30dd e4bb
00000360: 8dc1 3d3d 0c10 3d3d b072 4abd 0cea 22bd
00000370: 39f1 343c 87ca 433d 74bf 033d 8bb7 c93b
00000380: 607d 213d aa41 45bd 7cef d8bc 8004 373a
00000390: e88b 0bbc 1039 f23b 00fb cfb9 c0b0 053c
000003a0: b8de 333d a8d0 403d c85f 51bc 18f3 1bbc
000003b0: c85a 16bd 301b a13c d602 2c3d 62a8 8bbc
000003c0: b84f a4bc 8086 4f3d 7066 bdbb f871 733c
000003d0: 48b6 b03c b965 573c 7d7e 223d a755 833d
000003e0: ee38 2bbd e87c 113d 4a5e 65bd c88f 14bc
000003f0: 8c61 66bd 9063 c13c 587b 60bc 001c 84ba

fc1.bias f4 [256]
0.053828385 0.049593277 0.014746249 -0.023719167 -0.030069165 0.029126251 0.023276068 -0.059783522
0.014766121 -0.022012308 -0.01928377 0.058572486 0.035002038 -0.053026386 -0.0116593 0.032329
0.0334644 0.022102445 0.021488283 -0.03048905 -0.005259292 -0.000619621 0.027835457 0.04441689
-0.021688886 -0.040504955 -0.039640754 0.016264234 -0.047315154 -0.03836101 -0.058626957 -0.053798802
-0.045778994 -0.0569969 -0.03829214 0.029637534 -0.036791008 0.06548031 -0.026219381 -0.06279017
0.009445659 0.024493776 -0.034847904 -0.010425848 -0.009049676 0.030419258 -0.0009977419 -0.008681065
-0.044170458 -0.055063557 -0.026320517 -0.019379564 0.021087192 0.011045231 -0.029881036 -0.05677882
-0.003543832 0.063322335 -0.018653452 -0.0033729437 0.04431401 -0.057927288 0.06413347 0.051942945
-0.007545585 0.015658353 0.0145943165 -0.039023906 -0.0010398148 0.012321591 -0.021712705 -0.05208586
-0.028782764 -0.05566938 -0.035142504 0.016417542 -0.042192128 -0.02528713 -0.029112749 -0.00987373
-0.013170104 0.04317734 -0.0024439595 0.017174613 0.019777913 0.024985712 0.01383256 -0.02599387
-0.062457003 -0.039997093 0.054867852 -0.04248926 0.01975291 -0.019424982 -0.02185082 0.034804113
-0.0448907 0.031837735 0.023329515 -0.02760812 0.006004697 -0.035057046 -0.028204499 -0.015450719
-0.002297223 -0.031685207 0.042537965 0.059428267 -0.00066854624 -0.0011406163 0.04664241 -0.0042611808
-0.056615084 -0.02425916 -0.057273176 0.02045846 -0.026836447 -0.00097314117 0.017028315 -0.030202836
-0.06275197 0.04559636 -0.019273307 -0.007948611 -0.046959165 -0.0011651276 -0.05036956 -0.030071933
0.0018913597 0.043059085 -0.020293076 0.046558116 -0.03789518 0.0069191046 -0.058379665 -0.04306415
0.06544472 0.01494998 0.04842082 -0.03299427 -0.003303036 0.007952694 -0.018430747 0.018825484
-0.041755445 0.0562177 -0.0065756137 0.017246198 -0.05232574 -0.016830713 -0.03827635 0.03753063
0.015473917 0.039265644 0.0019004572 0.020958498 -0.014950508 0.018722374 -0.004506577 -0.041729435
-0.040509265 0.0064283963 0.047823142 -0.029701596 0.04219619 -0.05517093 0.05683561 -0.018285425
-0.053691134 0.022563674 -0.03922157 -0.0046705306 -0.0018820514 0.058373112 0.04322935 0.0065932544
0.020559035 0.016024623 0.01042934 0.019605786 0.016994417 0.06208041 0.0019274775 0.033812616
-0.031643245 0.037640925 -0.043259025 -0.012838252 0.052954033 -0.025126386 0.00991592 -0.015271949
0.042503294 -0.02865428 -0.053092152 -0.047133822 -0.063154645 0.027799133 0.045437332 -0.0027749962
0.027580632 -0.039252657 0.044494662 0.056790244 0.007973573 -0.020922197 -0.060691286 0.013056765
0.044379957 0.0045588166 0.02403573 0.048954457 -0.028446235 -0.015976854 -0.039228797 -0.011698961
0.0018753357 0.04953844 -0.048205078 -0.01864116 -0.048074514 0.023924291 0.031613737 0.061338495
0.048331965 0.029107101 -0.015382366 -0.008975302 -0.012110888 0.056431063 -0.018079987 0.007416614
-0.013524895 0.0004732597 -0.042265575 0.05931143 -0.00333192 0.0015534088 -0.03676886 0.043916326
-0.049560796 0.038376283 -0.028208757 0.034472242 -0.024738401 -0.006199104 -0.007805557 0.035595242
0.04531447 -0.004244105 -0.04644025 -0.04500582 0.052421883 0.005360881 0.026908498 -0.049955457
00000000: 277b 5c3d 5222 4b3d 409a 713c b34e c2bc
00000010: 9c53 f6bc 2d9a ee3c 74ad be3c 91df 74bd
00000020: 9aed 713c 2853 b4bc fff8 9dbc b4e9 6f3d
00000030: 4c5e 0f3d 3232 59bd a606 3fbc 6a6b 043d
00000040: f711 093d 3010 b53c 3208 b03c 2cc4 f9bc
00000050: 2456 acbb 106e 22ba 2f07 e43c 7cee 353d
00000060: e4ac b1bc 86e8 25bd 585e 22bd 923c 853c
00000070: 89cd 41bd 6f20 1dbd d222 70bd 225c 5cbd
00000080: c182 3bbd 9575 69bd 38d8 1cbd 6aca f23c
00000090: 2bb2 16bd 8a1a 863d 07ca d6bc 2298 80bd
000000a0: f7c1 1a3c 2ca7 c83c adbc 0ebd 2dd1 2abc
000000b0: 1845 14bc cf31 f93c aac6 82ba 073b 0ebc
000000c0: 15ec 34bd 538a 61bd 209e d7bc e4c1 9ebc
000000d0: 0cbf ac3c 0ef7 343c 13c9 f4bc e890 68bd
000000e0: a33f 68bb 24af 813d 20cf 98bc 9b0c 5dbb
000000f0: 9b82 353d 2a45 6dbd 6958 833d 20c2 543d
00000100: f440 f7bb f245 803c 001d 6f3c 88d7 1fbd
00000110: 654a 88ba 80e0 493c d8de b1bc fc57 55bd
00000120: d5c9 ebbc 9305 64bd 96f1 0fbd 157e 863c
00000130: a7d1 2cbd f526 cfbc dc7d eebc 6dc5 21bc
00000140: 6bc7 57bc b9da 303d d62a 20bb c6b1 8c3c
00000150: 4a05 a23c d6ae cc3c f6a1 623c 19f1 d4bc
00000160: ead2 7fbd fed3 23bd 1dbd 603d 3809 2ebd
00000170: dbd0 a13c 2421 9fbc 7e00 b3bc c28e 0e3d
00000180: 50df 37bd 4968 023d 8a1d bf3c 6d2a e2bc
00000190: 0dc3 c43b fa97 0fbd 1f0d e7bc 0325 7dbc
000001a0: 028d 16bb 59c8 01bd 4a3c 2e3d 0e6b 733d
000001b0: 6141 2fba bb80 95ba 1d0c 3f3d 60a1 8bbb
000001c0: 38e5 67bd 25bb c6bc 4797 6abd 8098 a73c
000001d0: 1cd8 dbbc 661a 7fba f77e 8b3c f06b f7bc
000001e0: 1b84 80bd 40c3 3a3d 0ee3 9dbc e43a 02bc
000001f0: 4158 40bd 32b7 98ba 5050 4ebd 6a59 f6bc
00000200: 80e7 f73a b95e 303d aa3d a6bc b9b3 3e3d
00000210: fa37 1bbd a8b9 e23b 841f 6fbd 0964 30bd
00000220: e207 863d c3f0 743c e954 463d 0025 07bd
00000230: c077 58bb 044c 023c 14fc 96bc e737 9a3c
00000240: c207 2bbd 8844 663d 3f78 d7bb e647 8d3c
00000250: 8453 56bd 90e0 89bc a9c7 1cbd b8b9 193d
00000260: 5086 7d3c 03d5 203d c318 f93a 28b1 ab3c
00000270: faf2 74bc aa5f 993c e8ab 93bb 7cec 2abd
00000280: 0bed 25bd 4ca5 d23b 33e2 433d c350 f3bc
00000290: ead5 2c3d eafa 61bd 75cc 683d 51cb 95bc
000002a0: 3ceb 5bbd 74d7 b83c cca6 20bd 400b 99bb
000002b0: 2aaf f6ba a518 6f3d 4211 313d 3a0c d83b
000002c0: 6c6b a83c 1246 833c d3df 2a3c 509c a03c
000002d0: e037 8b3c 0748 7e3d 6aa3 fc3a 197f 0a3d
000002e0: 599c 01bd 5f2d 1a3d 6030 31bd 8857 52bc
000002f0: 54e6 583d dad5 cdbc 6276 223c 3237 7abc
00000300: ef17 2e3d 61bc eabc 2877 59bd 650f 41bd
00000310: 3957 81bd 02bb e33c 7f1c 3a3d b6dc 35bb
00000320: c7f0 e13c 65c7 20bd 0940 363d e39c 683d
00000330: 97a3 023c 0765 abbc 6d97 78bd 0bec 553c
00000340: c2c7 353d 2062 953b 94e6 c43c 7884 483d
00000350: 1408 e9bc e4e1 82bc 60ae 20bd 00ad 3fbc
00000360: d3cd f53a d2e8 4a3d b072 45bd 59b5 98bc
00000370: c8e9 44bd e0fc c33c 687d 013d 133e 7b3d
00000380: bdf7 453d 0472 ee3c 5206 7cbc 250d 13bc
00000390: bf6c 46bc 4224 673d 7b1c 94bc 1107 f33b
000003a0: 8597 5dbc d71f f839 ab1e 2dbd 8bf0 723d
000003b0: 575c 5abb c09b cb3a f29a 16bd 9be1 333d
000003c0: 4300 4bbd 7330 1d3d 0d16 e7bc c432 0d3d
000003d0: 30a8 cabc da21 cbbb c2c5 ffbb 51cc 113d
000003e0: aa9b 393d 2212 8bbb 2238 3ebd 0658 38bd
000003f0: 54b8 563d 54aa af3b 366f dc3c 189e 4cbd

fc2.weight f4 [128, 256]
0.061622966 0.041066673 -0.03919678 0.06682954 -0.036114015 -0.026355075 0.010944203 0.019759012
-0.028075779 -0.019322932 -0.014927294 0.005401174 -0.021347497 -0.007434829 -0.03461314 -0.0072382987
0.01983353 -0.04965795 0.017581565 -0.0070515014 0.007952881 -0.03785629 -0.022379508 0.0061426163
0.022246664 0.015092418 0.028956288 0.03707431 -0.060649853 0.016446844 -0.045766436 -0.008960236
-0.04071729 -0.005028176 -0.024838254 0.005263706 -0.04906404 0.055655014 -0.02491872 -0.026535396
-0.023558397 -0.019013667 0.04119215 -0.046347603 -0.026809372 0.023910673 0.05500531 -0.026709802
0.07004697 0.019545263 -0.050381497 0.048013944 -0.044517517 -0.012844834 0.0019858077 0.037136126
-0.037792202 -0.055345446 0.042618297 -0.058263637 -0.022743369 -0.038437434 -0.04039146 0.056310326
0.005521976 0.0097404905 -0.051634386 -0.0036864728 0.031289205 0.056180276 0.023977196 -0.034718215
-0.0016430131 0.045101237 0.00032894107 0.0069596036 -0.011779102 0.06691463 0.026023123 0.057833478
0.036690164 0.019725315 -0.009997746 0.05654199 0.06608249 -0.055342037 0.057507094 -0.054252654
-0.050745644 0.03170567 -0.02683152 -0.044559382 -0.03450513 0.047560774 0.03829375 0.039192803
-0.05890195 0.069616616 -0.018694578 0.027898012 0.0058921566 0.018119698 0.01369434 0.0069734566
-0.047207247 -0.0043525845 0.05148996 0.053411722 0.056293324 -0.031434722 0.004366599 -0.0008548051
0.055408016 -0.021768551 0.00387718 0.0518042 -0.008143881 -0.0040622703 0.008536656 0.049189344
0.02469996 0.053406466 0.04380323 0.033493534 0.048833244 -0.0056119757 -0.036426686 0.035634603
0.055832185 -0.00525321 0.040545635 0.037790593 0.040401544 0.01856166 -0.013895163 -0.046660006
-0.02449329 0.0383184 0.037641905 0.039067395 0.051873825 0.06416296 0.027552076 -0.012242386
0.00336933 0.024900464 -0.009934406 -0.023981573 -0.014806226 -0.0079867225 -0.035341322 0.020716475
-0.059875015 0.0031573088 0.044865455 -0.05942771 0.04674167 0.023724493 0.05165892 -0.036452614
0.04442727 -0.031045534 0.01452517 -0.012199319 0.059482023 0.006659098 0.0515844 -0.054626364
-0.02350726 -0.030566737 -0.0518309 0.010371341 -0.0008764436 0.057462875 -0.042829424 -0.015298206
-0.04008708 0.0019815909 -0.052913286 -0.05260663 -0.035034396 -0.009160849 0.039481286 -0.015425461
-0.03050069 -0.04808055 -0.03780043 -0.05184133 0.032185454 0.06513174 0.05647623 0.042872008
0.0046141366 -0.049835257 -0.04830954 0.050322402 -0.021809237 -0.014236101 0.060902286 0.055160567
0.020885015 -0.032267906 -0.0020974874 -0.030031703 0.03456451 -0.0060696066 -0.0042046276 0.08051947
-0.037730165 -0.012509681 0.026508212 -0.0072068963 -0.050180137 0.019500595 0.047124106 -0.05545606
-0.050529104 -0.024395116 -0.010705553 -0.003024249 -0.0010054559 0.003223268 0.06996065 0.033745207
-0.053602256 0.06667863 0.011430143 0.013718154 0.05034739 0.025197359 -0.035787936 0.041716114
-0.03937083 -0.04656734 -0.0032313939 -0.0021413045 -0.044139884 0.062194392 -0.02962764 0.0090107145
-0.018780032 0.055169635 -0.01968602 0.015435552 0.015585964 -0.002619122 -0.017324056 -0.016238425
0.0005382195 0.053600103 0.04946773 0.007379184 0.026796214 0.02421336 -0.019799858 0.0008938131
00000000: 5d68 7c3d 8735 283d ce8c 20bd eddd 883d
00000010: 4aec 13bd 99e6 d7bc 504f 333c a7dd a13c
00000020: 2dff e5bc 204b 9ebc 9c91 74bc 55fc b03b
00000030: f2e0 aebc de9f f3bb 82c6 0dbd 402f edbb
00000040: ed79 a23c 2266 4bbd 3707 903c 4810 e7bb
00000050: cd4c 023c 320f 1bbd 3b55 b7bc 0048 c93b
00000060: a33e b63c 3046 773c bd35 ed3c 3bdb 173d
00000070: fb6b 78bd 88bb 863c 9675 3bbd f4cd 12bc
00000080: 2cc7 26bd 66c3 a4bb 9879 cbbc 2b7b ac3b
00000090: 60f7 48bd 83f6 633d 5822 ccbc c260 d9bc
000000a0: 8afd c0bc 8dc2 9bbc 1ab9 283d fcd6 3dbd
000000b0: 549f dbbc 51e0 c33c 3f4d 613d 84ce dabc
000000c0: c974 8f3d 631d a03c d45c 4ebd 45aa 443d
000000d0: 0058 36bd 2373 52bc 5324 023b 0d1c 183d
000000e0: ffcb 1abd e8b1 62bd 8690 2e3d daa5 6ebd
000000f0: 4d50 babc 9270 1dbd 8471 25bd a8a5 663d
00000100: b1f1 b43b 9496 1f3c 947e 53bd c098 71bb
00000110: 1c29 003d 4a1d 663d d36b c43c b034 0ebd
00000120: 5f5a d7ba 13bc 383d b975 ac39 630d e43b
00000130: 22fd 40bc 8a0a 893d 722e d53c cce2 6c3d
00000140: 6d48 163d fc96 a13c 96cd 23bc 9398 673d
00000150: 4256 873d 55ae 62bd 8f8c 6b3d 0838 5ebd
00000160: aada 4fbd cedd 013d c7cd dbbc e683 36bd
00000170: 4055 0dbd 16cf 423d e8d9 1c3d a288 203d
00000180: 2c43 71bd 2893 8e3d 5f25 99bc 5f8a e43c
00000190: fe12 c13b c36f 943c 3a5e 603c 9881 e43b
000001a0: 635c 41bd 20a0 8ebb 23e7 523d 40c6 5a3d
000001b0: d493 663d b2c1 00bd b015 8f3b 0015 60ba
000001c0: 84f3 623d f653 b2bc 4918 7e3b a430 543d
000001d0: ea6d 05bc cb1c 85bb 55dd 0b3c c47a 493d
000001e0: 9257 ca3c bdc0 5a3d 046b 333d 8430 093d
000001f0: 5e05 483d aae4 b7bb 2634 15bd 97f5 113d
00000200: 4ab0 643d 1f23 acbb 2e13 263d 4fca 1a3d
00000210: 177c 253d 9f0e 983c 8aa8 63bc 901e 3fbd
00000220: 27a6 c8bc c1f3 1c3d 662e 1a3d 2205 203d
00000230: a679 543d df67 833d e4b4 e13c 4a94 48bc
00000240: facf 5c3b 0ffc cb3c ebc3 22bc 0175 c4bc
00000250: d095 72bc beda 02bc 10c2 10bd 99b5 a93c
00000260: 813f 75bd daea 4e3b d7c4 373d 786a 73bd
00000270: 3274 3f3d de59 c23c 4e98 533d 564f 15bd
00000280: 5ef9 353d 3453 febc fbfa 6d3c a7df 47bc
00000290: 6ca3 733d 9034 da3b 2a4a 533d e5bf 5fbd
000002a0: 4c92 c0bc 1867 fabc a34c 54bd 8fec 293c
000002b0: 22c1 65ba 315e 6b3d e86d 2fbd 54a5 7abc
000002c0: 5a32 24bd 94dd 013b 9abb 58bd 0d7a 57bd
000002d0: 3a80 0fbd 6317 16bc 21b7 213d 13bb 7cbc
000002e0: 95dc f9bc 1cf0 44bd a0d4 1abd 9357 54bd
000002f0: e5d4 033d ca63 853d 9f53 673d 8f9a 2f3d
00000300: 2f32 973b 0e20 4cbd 39e0 45bd dd1e 4e3d
00000310: 49a9 b2bc 893e 69bc ad74 793d 0cf0 613d
00000320: 0d17 ab3c 5a2b 04bd 0076 09bb 0c05 f6bc
00000330: 8493 0d3d 8de3 c6bb f9c6 89bb 64e7 a43d
00000340: f28a 1abd 68f5 4cbc c027 d93c d427 ecbb
00000350: b089 4dbd b6bf 9f3c 3505 413d e525 63bd
00000360: 9bf7 4ebd 44d8 c7bc 5866 2fbc 7b32 46bb
00000370: 80c9 83ba 773d 533b 8747 8f3d 6a38 0a3d
00000380: 0a8e 5bbd ce8e 883d 7f45 3b3c 1cc2 603c
00000390: 1139 4e3d b16a ce3c 5f96 12bd 84de 2a3d
000003a0: 4f43 21bd 65bd 3ebd cbc5 53bb 2155 0cbb
000003b0: 06cc 34bd 8cbf 7e3d aab5 f2bc ada1 133c
000003c0: 95d8 99bc 8ef9 613d 9444 a1bc 66e5 7c3c
000003d0: 455c 7f3c 93a5 2bbb 2eeb 8dbc 7206 85bc
000003e0: 4d17 0d3a c88b 5b3d ad9e 4a3d 15cd f13b
000003f0: bc83 db3c 195b c63c 5033 a2bc c84e 6a3a

fc2.bias f4 [128]
0.06683334 0.037384354 -0.037573673 0.037607394 -0.05180247 -0.017576998 0.061986037 -0.061740957
0.012936496 -0.0061686276 0.06705726 0.015420578 -0.029447595 0.03970165 0.0014770741 -0.00012648478
0.037906624 -0.04322183 0.035365187 0.021600721 -0.02668557 -0.030349016 0.023311473 0.037782133
-0.044366937 0.006516687 0.04036753 0.0064708604 0.043059547 0.02883436 0.019040206 0.0464055
0.024313409 0.04485664 0.017376475 -0.029780941 0.018427506 -0.018785939 0.03239727 0.034252066
0.022280117 -0.0006226851 0.0245052 -0.05081752 0.0038445517 -0.03682772 0.019519448 0.0054125823
0.015719935 0.045647986 0.052743707 -0.01871064 0.012746088 0.06472681 -0.0573577 0.04824231
0.0016047284 0.04250285 0.025171902 0.031516932 0.0106594665 -0.026696214 -0.051309578 -0.048688293
-0.009115923 -0.056506228 -0.00024365987 0.03951541 -0.04944289 -0.05088363 0.036608018 0.06008961
0.020124832 -0.033244245 0.049990114 -0.014185836 0.046669774 0.055562083 0.024648964 -0.05691502
-0.041631237 0.038577694 0.027047718 -0.046850923 -0.04461557 0.004585816 -0.040279426 0.05540153
-0.0035341405 0.0527112 -0.035652228 -0.02531434 0.025718614 -0.029769367 0.055856284 -0.03709596
0.05470182 0.040027447 -0.010774823 -0.004265247 -0.027021443 -0.059074745 -0.049353678 0.055593032
0.032933313 0.06073904 0.03050318 0.024086839 0.053668328 -0.003575556 -0.053628497 0.0105934795
-0.04184211 0.043972984 0.011083116 -0.040478505 0.042151906 -5.9727256e-05 0.0330902 -0.041734297
-0.02331408 -0.015512564 0.03632143 -0.012049191 0.060194194 -0.040491782 -0.052063927 0.03415286
00000000: ebdf 883d 5620 193d dae6 19bd 360a 1a3d
00000010: d42e 54bd a3fd 8fbc 12e5 7d3d 16e4 7cbd
00000020: 99f3 533c 3322 cabb 5155 893d 98a6 7c3c
00000030: 153c f1bc 339e 223d 629a c13a 00a1 04b9
00000040: fa43 1b3d 6009 31bd 16db 103d fff3 b03c
00000050: b29b dabc 809e f8bc b4f7 be3c 70c1 1a3d
00000060: 1bba 35bd ef89 d53b 6c58 253d 8309 d43b
00000070: 355f 303d 0936 ec3c 35fa 9b3c b213 3e3d
00000080: ea2c c73c 99bb 373d 1c59 8e3c 29f7 f3bc
00000090: 48f5 963c f8e4 99bc 00b3 043d e54b 0c3d
000000a0: cb84 b63c b13b 23ba 21bf c83c 0826 50bd
000000b0: e0f4 7b3b aad8 16bd 40e7 9f3c 085c b13b
000000c0: 18c7 803c 62f9 3a3d c909 583d 0e47 99bc
000000d0: f8d4 503c 7d8f 843d e8ef 6abd ba99 453d
000000e0: c055 d23a 7817 2e3d 4e35 ce3c e617 013d
000000f0: 0ba5 2e3c 05b2 dabc fe29 52bd 606d 47bd
00000100: f45a 15bc 1373 67bd f37e 7fb9 e9da 213d
00000110: a184 4abd 5a6b 50bd 4af2 153d 8620 763d
00000120: d5dc a43c 1e2b 08bd 6fc2 4c3d b56b 68bc
00000130: ce28 3f3d 1195 633d a0ec c93c b91f 69bd
00000140: 8485 2abd a503 1e3d 2d93 dd3c c1e6 3fbd
00000150: d1be 36bd 9d44 963b 0afc 24bd b7ec 623d
00000160: 0a9d 67bb b3e7 573d 1208 12bd 0560 cfbc
00000170: d8af d23c e3de f3bc 8fc9 643d eff1 17bd
00000180: 040f 603d d2f3 233d e288 30bc 7cc3 8bbb
00000190: 135c ddbc 5cf8 71bd 1527 4abd 85b5 633d
000001a0: 15e5 063d 80c9 783d cee1 f93c c351 c53c
000001b0: 52d3 5b3d e053 6abb 8ea9 5bbd 4690 2d3c
000001c0: a262 2bbd 041d 343d f595 353c cacc 25bd
000001d0: 7aa7 2c3d a783 7ab8 9789 073d 95f1 2abd
000001e0: 2bfd bebc 6928 7ebc c8c5 143d f869 45bc
000001f0: 308e 763d b6da 25bd fc40 55bd dfe3 0b3d

actor.weight f4 [4, 128]
-0.054063115 0.013710106 -0.053742934 0.076204754 -0.04954836 0.075560845 -0.0068028173 0.049517456
-0.029159632 0.06036595 0.02418022 0.042334013 -0.071550295 0.04405594 -0.011357953 0.071500584
-0.000708836 0.029376913 -0.078607984 0.01609478 0.08129296 -0.0151883755 0.059061885 -0.03291945
0.017399251 -0.07714546 -0.07750216 -0.03703272 -0.087115906 -0.0023742311 -0.018187266 0.030219955
-0.047194235 -0.025572455 -0.05092732 -0.071415395 -0.008326995 -0.0151078645 -0.06461644 -0.03337331
0.06934879 0.00080760877 -0.019620327 -0.033577856 -0.01926298 0.03423659 0.056648463 0.032168426
0.0475786 0.064682655 0.07977215 0.0023154607 -0.044708047 -0.017504277 0.074506626 0.07233963
-0.066177465 -0.009819257 0.028984573 0.029815791 -0.085309945 -0.026127338 0.01576859 -0.022185089
0.05363639 0.021616507 0.083978444 0.056062367 -0.072756544 -0.056585398 0.08720808 -0.0007180603
0.010490173 0.005508553 0.0796405 -0.053768717 -0.022352474 0.08300024 -0.050873168 0.03662549
0.034235336 -0.012876252 -0.08673679 -0.06159735 -0.022217235 -0.01956909 0.06430058 -0.032286353
0.048549004 -0.020671157 -0.03700502 -0.035910886 -0.041858666 -0.0349783 0.08302852 0.04240854
0.051252957 0.032289084 0.02560301 -0.016298205 -0.028926201 -0.060867213 -0.08061336 -0.04953822
-0.048228092 0.052734252 0.08457698 0.07177998 -0.02953942 -0.080035955 -0.017998712 0.05721997
-0.038240876 -0.067234226 -0.046816483 0.014163718 -0.06541145 -0.045241952 -0.080149524 -0.09436378
-0.05410475 0.010684882 0.03697939 0.0042458973 0.05330589 -0.050533682 -0.045866035 0.0024550199
-0.080240734 -0.03905637 -0.054802462 -0.06543289 -0.020844383 -0.07263116 -0.03360788 -0.055155724
-0.05218353 0.071027815 0.051804174 0.050755996 -0.08358443 -0.081387475 0.05924168 -0.0075770007
-0.08604407 -0.02569201 -0.029249424 -0.07861199 0.044357665 -0.020651177 0.028426226 -0.01135173
-0.08519705 -0.056791816 -0.06813415 0.0031733837 0.031465035 0.088613875 0.07511171 -0.052329917
0.03416789 0.028292762 0.06525709 -0.032914948 -0.084634684 -0.07192308 -0.0142928725 0.042794544
0.06744983 0.079887494 0.022328498 -0.08355429 -0.07363465 -0.073966034 -0.080535166 -0.099132836
0.047014743 0.018725451 0.030392889 -0.0813956 -0.084689304 -0.0030492165 0.008236739 -0.026356196
-0.08603636 -0.0012211666 0.05764542 -0.0045533073 0.031372644 -0.026780732 0.04140163 0.05657227
-0.010967507 -0.060993608 -0.0010055157 0.016346982 -0.07105757 -0.053615473 0.014988926 0.013783844
0.05159145 0.06461771 -0.08335094 -0.040520504 0.078593194 -0.08277179 0.011856371 -0.06755262
-0.073274665 0.013740179 0.03802846 0.052225504 -0.057805773 0.0842835 0.07739679 -0.005015105
0.09158982 -0.066093154 0.060465332 -0.019600542 -0.0232566 0.0076937154 0.016987173 -0.05863484
0.08602184 -0.04074697 -0.021357402 0.08969966 -0.0029000612 -0.07498038 0.077255584 -0.026633868
-0.004558129 0.015119564 -0.05974228 -0.011818186 0.04562154 0.07132588 -0.0050408146 0.037603423
-0.045080893 0.06923105 0.0045340154 -0.035928342 0.09261508 0.02250351 -0.0017194463 0.0702241
-0.055535227 0.05037275 -0.06282734 0.02836235 -0.025942523 0.05572772 -0.016604584 -0.009853084
00000000: 4971 5dbd 5aa0 603c 8d21 5cbd 3d11 9c3d
00000010: 39f3 4abd a5bf 9a3d 2bea debb d1d2 4a3d
00000020: 2ee0 eebc 4942 773d 9915 c63c 6e66 2d3d
00000030: f688 92bd 0074 343d b516 3abc e66e 923d
00000040: 2ed1 39ba daa7 f03c 39fd a0bd 33d9 833c
00000050: ec7c a63d aad8 78bc e0ea 713d 8cd6 06bd
00000060: e088 8e3c 70fe 9dbd 74b9 9ebd 9faf 17bd
00000070: d369 b2bd fd98 1bbb 76fd 94bc d78f f73c
00000080: be4e 41bd 537d d1bc 2a99 50bd 3c42 92bd
00000090: f36d 08bc fa86 77bc a055 84bd 74b2 08bd
000000a0: bd06 8e3d b5b5 533a cfba a0bc ef88 09bd
000000b0: 66cd 9dbc ab3b 0c3d 3808 683d 0ac3 033d
000000c0: c7e1 423d 5778 843d 955f a33d fcbe 173b
000000d0: c91f 37bd 2165 8fbc ee96 983d cd26 943d
000000e0: 0d88 87bd f3e0 20bc 0e71 ed3c 3f40 f43c
000000f0: fbb6 aebd 0009 d6bc 212d 813c 81bd b5bc
00000100: d5b1 5b3d 1a15 b13c e4fc ab3d a7a1 653d
00000110: 6201 95bd 17c6 67bd 269a b23d 363c 3cba
00000120: f9de 2b3c 1781 b43b 8f1a a33d 963c 5cbd
00000130: 891c b7bc 08fc a93d 6260 50bd 9c04 163d
00000140: 5a3a 0c3d eaf6 52bc 0fa3 b1bd 814d 7cbd
00000150: eb00 b6bc 5b4f a0bc 06b0 833d b23e 04bd
00000160: 52db 463d 8f56 a9bc 9392 17bd 4b17 13bd
00000170: fe73 2bbd 6845 0fbd db0a aa3d 94b4 2d3d
00000180: 9fee 513d 8f41 043d 67bd d13c d083 85bc
00000190: a4f6 ecbc e64f 79bd 9e18 a5bd 97e8 4abd
000001a0: d28a 45bd dfff 573d b236 ad3d 6201 933d
000001b0: a7fc f1bc e4e9 a3bd 0972 93bc 7d5f 6a3d
000001c0: 77a2 1cbd 19b2 89bd a4c2 3fbd f00e 683c
000001d0: 70f6 85bd a04f 39bd 6f25 a4bd cc41 c1bd
000001e0: f19c 5dbd a50f 2f3c b377 173d 2b21 8b3b
000001f0: 4757 5a3d 68fc 4ebd 06de 3bbd 66e4 203b
00000200: 4155 a4bd 92f9 1fbd 8c78 60bd ae01 86bd
00000210: d7c1 aabc a5bf 94bd 6ba8 09bd f8ea 61bd
00000220: 66be 55bd 0877 913d 9d30 543d 85e5 4f3d
00000230: 502e abbd 7aae a6bd 67a7 723d 7d48 f8bb
00000240: e037 b0bd 0d78 d2bc 7d9c efbc 53ff a0bd
00000250: 62b0 353d a82c a9bc 1ede e83c 9bfc 39bc
00000260: ca7b aebd 899e 68bd eb89 8bbd 8bf8 4f3b
00000270: 7be1 003d 317b b53d 2bd4 993d e557 56bd
00000280: a1f3 0b3d 39c6 e73c 82a5 853d d3d1 06bd
00000290: f354 adbd 684c 93bd a72c 6abc 5549 2f3d
000002a0: 2323 8a3d 0e9c a33d 41ea b63c 831e abbd
000002b0: c3cd 96bd 817b 97bd 9fef a4bd 2806 cbbd
000002c0: 8892 403d 1e66 993c 82fa f83c bdb2 a6bd
000002d0: 9671 adbd 5dd5 47bb 63f3 063c f3e8 d7bc
000002e0: d533 b0bd 8d0f a0ba 9b1d 6c3d e933 95bb
000002f0: 9a80 003d 4463 dbbc c194 293d 53b8 673d
00000300: 0fb1 33bc 6fd4 79bd 82cb 83ba 1bea 853c
00000310: a286 91bd e69b 5bbd 1d94 753c a2d5 613c
00000320: 8e51 533d 4a56 843d e6b3 aabd d4f8 25bd
00000330: 78f5 a03d 4284 a9bd 3941 423c 0759 8abd
00000340: 0711 96bd 7d1e 613c bbc3 1b3d 69ea 553d
00000350: bfc5 6cbd d49c ac3d 3582 9e3d c055 a4bb
00000360: 7293 bb3d d95b 87bd 7faa 773d 5191 a0bc
00000370: a084 bebc 901b fc3b af28 8b3c 162b 70bd
00000380: 382c b03d 4be6 26bd b8f5 aebc 75b4 b73d
00000390: f40e 3ebb 508f 99bd 2d38 9e3d 452f dabc
000003a0: 5b5c 95bb 0cb8 773c 52b4 74bd 11a1 41bc
000003b0: a7dd 3a3d 4e13 923d 6b2d a5bb 0c06 1a3d
000003c0: bea6 38bd 02c9 8d3d 1492 943b 9929 13bd
000003d0: faac bd3d 4859 b83c 0b5f e1ba a7d1 8f3d
000003e0: e878 63bd a853 4e3d 9fab 80bd 2958 e83c
000003f0: 6a85 d4bc c042 643d 5606 88bc d46e 21bc

actor.bias f4 [4]
0.07113213 -0.06779179 0.054966725 -0.08287077
00000000: b9ad 913d 6cd6 8abd ca24 613d 26b8 a9bd

critic.weight f4 [1, 128]
0.067701675 -0.00028110895 -0.0052739205 0.06745676 0.047242045 -0.07859762 0.091003485 0.038837362
-0.039335005 -0.0650591 0.042443115 -0.04406401 -0.08149604 0.00985133 0.029278472 0.09224283
0.057462968 -0.00822111 0.047184788 0.02201409 -0.062542364 -0.027642593 -0.022449382 0.045199063
0.0560424 -0.05110779 -0.08362762 0.01587643 -0.07589903 0.060369775 0.07822028 -0.08288532
0.06421943 -0.010292634 -0.029928096 0.031170009 0.029150572 -0.078996636 -0.06418951 0.03215206
-0.016224002 0.031373866 -0.01990024 0.019298088 0.08783023 -0.027147217 0.067503795 -0.046189263
0.065943345 0.07255233 0.06696293 -0.060343202 0.03787321 0.0062186215 0.029911675 -0.031059468
-0.006960299 -0.09456416 0.029710129 -0.014178743 0.022557247 0.088945046 0.08256857 -0.034941297
-0.07838108 0.006035004 0.027050426 -0.032612514 -0.034480166 -0.047621243 0.01972963 0.08472522
-0.013280952 -0.052004967 0.07236449 0.021673646 0.027835893 0.06115417 -0.079235666 -0.034581397
-0.053981915 0.013298227 0.06668766 -0.06609923 0.06520758 -0.059084672 -0.08182939 0.057343774
-0.05778878 0.07002047 0.009887534 0.010813495 0.048677143 -0.04688578 0.023569638 -0.02169349
-0.076082826 0.06841119 0.007415342 0.036127806 -0.00015472902 0.028246323 0.04952752 -0.0038161974
0.03335439 0.08028651 -0.07160694 0.07333351 -0.08573642 0.018893072 0.081398614 0.045256235
-0.05318284 -0.010189087 -0.06062672 -0.029753286 0.045800246 -0.037019428 -0.02159435 -0.060122423
-0.066348106 0.046254218 0.030047894 0.04201103 -0.0011328968 0.08486459 0.02235296 0.059752654
00000000: 2da7 8a3d ce61 93b9 dad0 acbb c526 8a3d
00000010: e080 413d caf7 a0bd 0960 ba3d ed13 1f3d
00000020: be1d 21bd b53d 85bd d5d8 2d3d 777c 34bd
00000030: 65e7 a6bd 7967 213c 68d9 ef3c cfe9 bc3d
00000040: 4a5e 6b3d d6b1 06bc d644 413d e556 b43c
00000050: 3616 80bd b872 e2bc c4e7 b7bc a722 393d
00000060: b78c 653d 6756 51bd f544 abbd 490f 823c
00000070: f370 9bbd 4c46 773d f431 a03d c7bf a9bd
00000080: 7a85 833d 70a2 28bc c42b f5bc 3f58 ff3c
00000090: 2ecd ee3c fdc8 a1bd ca75 83bd e1b1 033d
000000a0: 33e8 84bc e281 003d d405 a3bc 0617 9e3c
000000b0: 56e0 b33d d763 debc 6e3f 8a3d f430 3dbd
000000c0: 4e0d 873d 5196 943d dc23 893d 6f2a 77bd
000000d0: f020 1b3d 94c5 cb3b 5409 f53c 6d70 febc
000000e0: 3813 e4bb dbaa c1bd a862 f33c f54d 68bc
000000f0: fac9 b83c d228 b63d b619 a93d 9b1e 0fbd
00000100: 4286 a0bd 48c1 c53b db98 dd3c b394 05bd
00000110: 133b 0dbd 7e0e 43bd 08a0 a13c 6b84 ad3d
00000120: 5a98 59bc 2903 55bd d533 943d ee8c b13c
00000130: 1908 e43c cc7c 7a3d 4f46 a2bd 39a5 0dbd
00000140: 241c 5dbd cfe0 593c 8a93 883d 085f 87bd
00000150: 8d8b 853d c502 72bd 2b96 a7bd 4ee1 6a3d
00000160: eeb3 6cbd e466 8f3d 53ff 213c 162b 313c
00000170: af61 473d 4e0b 40bd 1d15 c13c 8cb6 b1bc
00000180: 50d1 9bbd 2a1b 8c3d 66fc f23b c0fa 133d
00000190: c13e 22b9 d564 e73c 5edd 4a3d 2b19 7abb
000001a0: 9d9e 083d 416d a43d a9a6 92bd e12f 963d
000001b0: 9396 afbd a5c5 9a3c 51b4 a63d 9a5e 393d
000001c0: 40d6 59bd 21f0 26bc b953 78bd 2abd f3bc
000001d0: 0a99 3b3d afa1 17bd a2e6 b0bc ee42 76bd
000001e0: 84e1 87bd 1075 3d3d 0027 f63c c213 2c3d
000001f0: b57d 94ba 7ccd ad3d 8e1d b73c 33bf 743d
