checkpoints/rnd/seed1/final.pt (torch, 798559 bytes, 15 tensors)

fc1.weight f4 [256, 256]
0.059273705 0.008248858 -0.021536 -0.030910179 0.019649513 0.051079355 0.059747837 0.050924808
-0.01891501 -0.012524322 -0.008753091 -0.03276656 -0.050369292 -0.014431447 0.038513385 -0.04713326
-0.05567231 -0.053854376 -0.0011541694 0.024663948 0.0027728453 0.002003625 -0.008785367 -0.026550457
-0.021267258 -0.056853257 -0.014142625 0.01777257 -0.008381836 0.03003791 0.054684706 0.04445456
0.029588692 0.05893725 -0.05426588 -0.036849983 0.027871564 -0.02076444 -0.0174158 -0.026514985
0.032267295 -0.010149196 0.05172553 -0.061363958 -0.0061555654 0.031819344 -0.027733997 -0.011383057
0.03668091 -0.043927506 -0.004906006 -0.055525944 -0.016235083 0.060769208 0.028007753 0.0012756288
-0.046571866 -0.01154004 0.045846738 0.062454864 0.031575426 0.011211589 -0.031997994 -0.008108981
0.01773312 -0.05168489 -0.029395573 0.01964993 0.024993472 -0.02684407 -0.008818837 -0.005843196
0.048677426 -0.059720214 -0.0012720213 0.019165993 -0.0044615227 -0.04624569 0.04516429 -0.0064831115
-0.008796567 0.04448938 -0.009721319 -0.047400203 0.033640835 0.032383543 -0.011204001 0.037928578
0.04613771 0.014782931 0.055427697 -0.05548014 -0.046649266 -0.06381269 -0.015192534 -0.016148768
0.053964574 0.009308827 -0.04063144 -0.034599848 0.042980615 0.03932197 0.042620223 -0.059981834
-0.024978764 0.025487214 0.03393924 -0.059787456 0.021463312 0.046113092 -0.032394502 -0.039857384
-0.010974433 -0.026371993 0.0073834998 -0.06284745 0.046172652 0.022532903 -0.029035427 0.008942564
0.053604465 0.01044586 -0.031541776 -0.04533268 0.028254248 -0.028525844 -0.030394606 0.016459122
0.051906064 0.01822418 0.03337603 -0.03398886 0.050059058 -0.03449282 0.03952509 0.040988684
-0.060536586 -0.039310537 0.030546343 -0.020039141 0.013606021 0.05248379 0.031634144 0.061507255
0.057035178 -0.060318265 0.061409827 -0.012409181 -0.0023115268 -0.04771563 0.011778735 -0.022821724
-0.009180051 -0.056833483 -0.05156351 0.021198828 -0.041561455 -0.015943315 -0.0035626362 -0.033313803
-0.03946378 -0.046874348 -0.059309866 0.0582773 0.041637897 0.006228245 0.005683892 -0.04706662
-0.04743851 -0.025502432 -0.046736334 -0.003879788 -0.055309895 -0.0534502 0.028677797 -0.011002111
0.032090977 -0.037644565 0.043315683 0.03903189 -0.0015072883 -0.061335865 -0.020134917 0.031362787
-0.036752537 0.055490702 0.021955075 -0.021153476 -0.051785797 -0.057701875 0.0010444132 0.05069173
0.0434703 0.022376612 -0.03779704 0.00060141087 -0.007215835 -0.045174412 0.014379434 -0.03403259
0.013990991 0.0510018 0.058476523 0.0033678329 0.009780818 -0.039047644 -0.018888935 -0.04599717
0.01498875 -0.037885793 -0.006492853 0.020999722 -0.050111182 -0.025460958 0.057238877 0.02826184
-0.012040846 0.0013125241 0.008838446 0.017585889 0.02177792 0.056494344 -0.015908748 -0.04553265
-0.034922827 -0.056131795 0.058947727 0.05091904 -0.05840813 -0.002054505 0.01645673 -0.0043998137
0.04556989 0.03978779 -0.0028976202 0.01699134 0.022720136 0.03388741 0.021673508 0.027603783
-0.043308165 0.05007147 -0.030544661 -0.06487289 0.052637696 -0.009999916 -0.00068445504 -0.03859742
-0.05559655 0.036903687 0.052514672 0.039971687 -0.061723255 0.0557806 -0.01784442 0.051176786
00000000: fcc8 723d 3826 073c 446c b0bc 5837 fdbc
00000010: 04f8 a03c 9638 513d 26ba 743d 8896 503d
00000020: a7f3 9abc d032 4dbc 2069 0fbc 3a36 06bd
00000030: 0850 4ebd e071 6cbc 36c0 1d3d ce0e 41bd
00000040: a608 64bd 6896 5cbd 8047 97ba 0c0c ca3c
00000050: a0b8 353b 404f 033b 80f0 0fbc 5880 d9bc
00000060: ac38 aebc f6de 68bd 78b6 67bc c897 913c
00000070: f853 09bc 1012 f63c 12fd 5f3d fc15 363d
00000080: fc63 f23c 3068 713d e645 5ebd 02f0 16bd
00000090: e852 e43c 301a aabc 94ab 8ebc f435 d9bc
000000a0: b62a 043d d048 26bc 26de 533d c658 7bbd
000000b0: a0b4 c9bb 0055 023d 6832 e3bc 0080 3abc
000000c0: b93e 163d 54ed 33bd 90c2 a0bb 2c6f 63bd
000000d0: 70ff 84bc 22e9 783d 8470 e53c 0033 a73a
000000e0: 24c2 3ebd 7012 3dbc cac9 3b3d acd0 7f3d
000000f0: 3c55 013d d0b0 373c 5410 03bd 88db 04bc
00000100: 0c45 913c 89b3 53bd fcce f0bc e4f8 a03c
00000110: 1cbf cc3c 18e8 dbbc e27c 10bc 4878 bfbb
00000120: fb61 473d 2f9d 74bd f4b9 a6ba 0002 9d3c
00000130: f731 92bb 1f6c 3dbd 31fe 383d 4870 d4bb
00000140: 7a1f 10bc 7f3a 363d 2b46 1fbc b726 42bd
00000150: f9ca 093d 9ba4 043d fc90 37bc ff5a 1b3d
00000160: e5fa 3c3d 1b34 723c 2708 633d 253f 63bd
00000170: 4d13 3fbd 3ab0 82bd 1bea 78bc 6c4a 84bc
00000180: f509 5d3d 0d84 183c 276d 26bd 92b8 0dbd
00000190: 710c 303d 1310 213d 8b92 2e3d 83af 75bd
000001a0: 44a0 ccbc 90ca d03c df03 0b3d b1e3 74bd
000001b0: d4d3 af3c 15e1 3c3d 19b0 04bd 7f41 23bd
000001c0: 1cce 33bc 140a d8bc 49f1 f13b 2ab6 80bd
000001d0: 891f 3d3d ec96 b83c b4db edbc d583 123c
000001e0: 5b90 5b3d 1d25 2b3c f331 01bd c3ae 39bd
000001f0: 7475 e73c 08af e9bc 1cfe f8bc 48d5 863c
00000200: 749b 543d e04a 953c 4eb5 083d e737 0bbd
00000210: ba0a 4d3d 5848 0dbd 10e5 213d c0e3 273d
00000220: 36f5 77bd 1604 21bd 533c fa3c 2029 a4bc
00000230: caeb 5e3c 3ef9 563d ce92 013d 08ef 7b3d
00000240: b89d 693d 4910 77bd df88 7b3d e14f 4bbc
00000250: fc7c 17bb 7771 43bd 98fb 403c a0f4 babc
00000260: ed67 16bc 3aca 68bd 4234 53bd 2aa9 ad3c
00000270: 583c 2abd 8e9b 82bc 1e7b 69bb 0e74 08bd
00000280: c6a4 21bd 51ff 3fbd e7ee 72bd 2eb4 6e3d
00000290: 808c 2a3d 4e16 cc3b f13f ba3b eec8 40bd
000002a0: e24e 42bd 7aea d0bc 996e 3fbd 0b44 7ebb
000002b0: a18c 62bd 99ee 5abd b3ed ea3c 3342 34bc
000002c0: d471 033d 3031 1abd c96b 313d e7df 1f3d
000002d0: 3490 c5ba 513b 7bbd fbf1 a4bc 4476 003d
000002e0: d489 16bd 384a 633d 21db b33c 0e4a adbc
000002f0: 581d 54bd cd58 6cbd b1e4 883a 22a2 4f3d
00000300: ea0d 323d 284f b73c 12d1 1abd 00a8 1d3a
00000310: d072 ecbb ce08 39bd b897 6b3c c265 0bbd
00000320: 783a 653c 43e7 503d 1485 6f3d dcb6 5c3b
00000330: b93f 203c 6cf0 1fbd f8bc 9abc 8767 3cbd
00000340: 6093 753c 222e 1bbd 00c2 d4bb 9c07 ac3c
00000350: 6241 4dbd 8093 d0bc 5073 6a3d 6085 e73c
00000360: f846 45bc 0009 ac3a 21cf 103c 4810 903c
00000370: 9c67 b23c 9d66 673d 1053 82bc 7280 3abd
00000380: 3d0b 0fbd 74ea 65bd 2c73 713d 7c90 503d
00000390: 5d3d 6fbd e0a4 06bb 44d0 863c 502c 90bb
000003a0: 7ea7 3a3d 86f8 223d 00e6 3dbb 6c31 8b3c
000003b0: 941f ba3c 86cd 0a3d a48c b13c 5421 e23c
000003c0: e763 31bd be17 4d3d cc38 fabc 14dc 84bd
000003d0: a09a 573d b0d6 23bc 006d 33ba 5418 1ebd
000003e0: 35b9 63bd 5228 173d a019 573d 5ab9 233d
000003f0: 86d1 7cbd 337a 643d 762e 92bc c09e 513d

fc1.bias f4 [256]
0.0015423883 -0.020080121 0.04747487 -0.04580396 -0.014095776 0.04922218 -0.021711294 0.056927297
0.019451736 0.027027773 -0.008172013 0.053949468 0.027512558 0.030661456 -0.0047027394 -0.059396982
0.004530098 -0.036518417 -0.03990659 -0.02565217 -0.04339059 0.045038275 -0.014471583 -0.04335279
-0.019593552 0.029175103 -0.019776588 0.029375507 -0.051999167 -0.00017952113 -0.055884693 0.01891195
-0.040533245 0.05863542 0.04392229 0.048198182 0.009157475 -0.014466636 0.002505891 0.004830863
0.011868675 -0.0065804706 0.05235734 -0.0029938945 0.034671895 -0.052580692 0.012713619 0.0018350844
-0.03566968 -0.044116665 0.011160364 0.025171066 0.05189107 -0.023857422 0.03321292 0.02110992
-0.043514553 -0.0490055 0.037664946 0.04717121 -0.051417965 -0.029765122 0.019384896 -0.056064278
-0.025554383 -0.049141344 -0.056571294 0.021843417 0.071043424 0.0051862365 0.013498679 -0.036074735
0.02128679 -0.04142076 0.020201962 0.0024166899 -0.0383224 0.008257158 -0.0056186775 -0.049505576
0.008916584 0.031537887 0.03448895 0.008388013 -0.026470888 0.042225916 0.02257957 0.025777856
0.019505903 0.048858427 -0.03705917 0.045782182 -0.03253683 -0.04045988 0.010706625 0.060108338
-0.05003929 -0.048624966 -0.045759823 -0.042801175 0.0016191469 -0.012686754 -0.0017545857 -0.0047262446
-0.0091585545 -0.030850532 0.058206856 0.019117303 0.051814634 0.018775534 -0.04386623 0.067888744
0.013792515 0.03511042 -0.02059068 -0.045408465 -0.06228207 -0.02617941 0.033042274 -0.013759967
-0.004557035 0.058823705 0.0028763637 0.039966136 0.017373357 -0.03698091 0.020532949 -0.021759216
0.05484095 -0.062239252 0.0402134 -0.030553631 -0.047083393 0.001601095 -0.051695798 -0.033763994
0.0021427302 0.008989333 0.051039487 0.0033103118 0.029151987 0.0582129 0.008105541 -0.0579731
-0.036200218 -0.046019126 -0.023271512 -0.0017731285 0.021550778 -0.04889095 0.062399186 -0.034645442
-0.05934377 0.0151577005 -0.020486023 0.009505224 -0.030651733 -0.015492728 0.02378326 -0.043800328
0.005725073 0.055512857 0.024390724 0.05015091 0.03535275 0.0044262167 -0.059905745 0.00766702
0.01484849 0.030504376 0.04599475 0.030736186 0.061240546 0.024044206 0.04265466 0.06657528
-0.053902477 0.002285704 0.056705646 0.034625404 0.06603162 -0.025849571 0.006579226 0.051467888
-0.04873692 -0.024103632 0.0003142181 0.011183697 0.05165469 -0.03669138 -0.010933891 -0.023503445
0.0065856054 -0.014664829 0.056226037 0.036256794 0.0060248575 -0.040977526 -0.009783324 -0.055741407
-0.053125933 -0.055685014 0.0009613618 0.02620263 0.038730163 -0.054919396 0.059565574 0.024162894
0.0441386 -0.037423987 -0.065012276 -0.03176489 -0.009776275 -0.016840886 -0.00017458403 0.035226703
0.054276768 -0.059896432 -0.04039097 0.069839545 0.048461474 -0.004547601 0.012260535 -0.021180907
0.016196012 0.038661648 -0.016226925 -0.032129426 0.01573102 -0.012608801 -0.014459399 0.016740061
-0.026843354 0.031917714 -0.0011634582 -0.0073093995 -0.008309405 -0.016801402 -0.041476935 -0.057008713
-0.0063882554 0.050992887 -0.06155032 0.053845417 -0.05621934 0.013343524 0.024219824 0.049020164
0.030662203 0.0371013 0.02437961 0.024081113 -0.02960632 -0.042227373 -0.05871224 0.037499722
00000000: f729 ca3a 117f a4bc 0275 423d ef9c 3bbd
00000010: f8f1 66bc 329d 493d e2db b1bc 992c 693d
00000020: 3f59 9f3c 5969 dd3c e8e3 05bc 1efa 5c3d
00000030: 0462 e13c bc2d fb3c 7019 9abb 404a 73bd
00000040: 3771 943b 5694 15bd 1875 23bd 8024 d2bc
00000050: 55ba 31bd 0e7a 383d 381a 6dbc b292 31bd
00000060: a882 a0bc a000 ef3c 8302 a2bc e7a4 f03c
00000070: 14fd 54bd d63d 3cb9 59e7 64bd 3ced 9a3c
00000080: 3006 26bd b22b 703d dce7 333d 756b 453d
00000090: 3c09 163c 7805 6dbc e039 243b 374c 9e3b
000000a0: d574 423c fda0 d7bb a674 563d 3735 44bb
000000b0: 1e04 0e3d da5e 57bd c84c 503c 3787 f03a
000000c0: 5f1a 12bd adb3 34bd f6d9 363c 8d33 ce3c
000000d0: bb8b 543d a470 c3bc 450a 083d b6ee ac3c
000000e0: 513c 32bd feb9 48bd 8f46 1a3d 9936 413d
000000f0: a59b 52bd fcd5 f3bc 13cd 9e3c a8a3 65bd
00000100: 6d57 d1bc 6f48 49bd 4db7 67bd f7f0 b23c
00000110: 377f 913d 4ef1 a93b 9029 5d3c 1ac3 13bd
00000120: a261 ae3c d1a8 29bd 967e a53c 5461 1e3b
00000130: f3f7 1cbd 0849 073c e21c b8bb 5cc6 4abd
00000140: dd16 123c df2d 013d 4944 0d3d e06d 093c
00000150: 7ad9 d8bc 15f5 2c3d caf8 b83c 152c d33c
00000160: d8ca 9f3c c61f 483d 5bcb 17bd 1986 3b3d
00000170: 5745 05bd 42b9 25bd d76a 2f3c 2934 763d
00000180: 00f6 4cbd f92a 47bd a76e 3bbd 4950 2fbd
00000190: 8e39 d43a 1adc 4fbc 20fa e5ba 9dde 9abb
000001a0: c30d 16bc 41ba fcbc 506a 6e3d e49b 9c3c
000001b0: 953b 543d 26cf 993c 13ad 33bd 4109 8b3d
000001c0: 00fa 613c f2cf 0f3d c9ad a8bc 3afe 39bd
000001d0: 7c1b 7fbd 3476 d6bc 5657 073d 7c71 61bc
000001e0: 2e53 95bb 20f1 703d 6081 3c3b 88b3 233d
000001f0: 9252 8e3c 4b79 17bd b734 a83c 6240 b2bc
00000200: e7a0 603d 96ee 7ebd ceb6 243d 9c4b fabc
00000210: 84da 40bd d5db d13a f9be 53bd 1d4c 0abd
00000220: 0c6d 0c3b ff47 133c c80e 513d d1f1 583b
00000230: 26d0 ee3c a670 6e3d 1acd 043c 3475 6dbd
00000240: ae46 14bd 8d7e 3cbd e6a3 bebc 5268 e8ba
00000250: 428b b03c e041 48bd 4a96 7f3d 61e8 0dbd
00000260: 7412 73bd 0158 783c 4ed2 a7bc cdbb 1b3c
00000270: 5819 fbbc 36d5 7dbc 1cd5 c23c f967 33bd
00000280: 6599 bb3b 7361 633d 0ecf c73c 0a6b 4d3d
00000290: 0cce 103d cc09 913b ba5f 75bd a03b fb3b
000002a0: 1547 733c 50e4 f93c fe64 3c3d 74ca fb3c
000002b0: 5ed7 7a3d 5bf8 c43c a7b6 2e3d 9f58 883d
000002c0: d8c8 5cbd c0cb 153b 2e44 683d 5ed3 0d3d
000002d0: 963b 873d 7bc2 d3bc 8c96 d73b fecf 523d
000002e0: 5da0 47bd fb74 c5bc a4bd a439 d33b 373c
000002f0: de93 533d b349 16bd 1024 33bc 4c8a c0bc
00000300: 10cc d73b c044 70bc 464d 663d 0182 143d
00000310: 2b6c c53b 0dd8 27bd 3c4a 20bc 1a51 64bd
00000320: 949a 59bd f815 64bd e603 7c3a e6a6 d63c
00000330: 85a3 1e3d 29f3 60bd 08fb 733d 43f1 c53c
00000340: adca 343d e549 19bd 2825 85bd e71b 02bd
00000350: ab2c 20bc e6f5 89bc 8b10 37b9 e049 103d
00000360: 5151 5e3d f655 75bd 0071 25bd 0908 8f3d
00000370: 8a7f 463d 0b04 95bb 69e0 483c 9583 adbc
00000380: 80ad 843c ad5b 1e3d 54ee 84bc 259a 03bd
00000390: 57de 803c 2595 4ebc 1de7 6cbc 7422 893c
000003a0: 98e6 dbbc 26bc 023d 2e7f 98ba b083 efbb
000003b0: 2c24 08bc 18a3 89bc b8e3 29bd f881 69bd
000003c0: 9254 d1bb ebdd 503d 301c 7cbd 038d 5c3d
000003d0: 4046 66bd cc9e 5a3c a768 c63c 5ec9 483d
000003e0: 4d2f fb3c 88f7 173d bfb7 c73c c145 c53c
000003f0: f488 f2bc 9cf6 2cbd 3f7c 70bd 4f99 193d

fc2.weight f4 [128, 256]
-0.05777561 -0.009474676 -0.014627871 0.024605522 -0.017239418 0.059458744 0.0042281216 0.010853179
0.06895226 0.027321389 -0.040346984 -0.024527712 -0.045464046 0.0583916 -0.048465364 0.05143617
-0.052624427 -0.04937076 0.01627372 -0.061093085 0.01255384 0.006590955 0.0147303045 -0.042944625
-0.015292282 -0.024166988 0.0053292634 0.032726444 -0.053158488 -0.02194425 0.009734755 -0.028872542
0.028913906 0.05455574 0.03187531 -0.016595323 0.05398864 0.021098576 0.015498899 -0.0348201
-0.021117156 -0.045303904 0.03412454 -0.056409582 -0.060243066 0.024112787 0.05340282 0.004920385
-0.03191918 -0.028841535 -0.0515676 0.051259555 -0.026059741 0.04069365 0.044420358 0.02174342
0.0073956563 0.02968955 -0.025535308 -0.005875439 -0.007380822 1.1175871e-05 0.018001309 0.01739579
-0.044009753 -0.057021163 -0.030656599 -0.04323218 0.07091395 0.010242093 -0.026523381 0.046031196
-0.009105594 -0.049316622 0.061568234 -0.021395937 -0.023378147 0.027234072 0.01894905 0.027323985
-0.028179869 0.054461237 0.062064163 0.014471859 -0.019027244 -0.027386455 -0.04107208 -0.039149795
-0.05380258 -0.029250761 0.024341017 -0.041270304 -0.017621808 0.0172939 0.04207917 -0.032438762
0.059076138 0.008912224 -0.0029679015 -0.022644188 -0.001984276 -0.020315085 -0.0009600512 -0.0508216
-0.032388024 -0.036448948 0.032074835 -0.022312298 0.0054875603 -0.029752105 -0.054499924 0.016596422
-0.0004560575 0.0605878 0.066806205 0.08133294 -0.044492975 -0.040895194 0.03083518 -0.055931807
0.037897963 -0.04217099 -0.027228475 -0.038557414 0.023072988 0.04770462 -0.04150438 -0.010948503
-0.038741976 -0.058372922 -0.015180629 0.060894787 -0.058424294 0.053092368 -0.0176456 0.0070463503
-0.028773021 0.06143264 0.051401034 0.044943556 0.053004846 0.06830713 0.061620478 0.08569191
-0.038044624 0.023231566 -0.04976058 -0.021655634 0.029169874 -0.012576155 -0.043255296 0.049387928
0.037411213 -0.018391963 -0.032486264 0.040915906 -0.03620801 0.0005276478 0.04079616 0.036062583
-0.01756877 -0.039717466 -0.022951467 -0.008358937 0.023397483 -0.033895917 0.040603742 0.02242548
0.0077936277 0.03639725 -0.005636746 -0.03311649 0.018896582 0.059665147 0.007008969 -0.007587085
-0.048557267 0.043270722 0.04311376 0.006736171 -0.0023343484 0.0057291756 -0.025160097 0.07208142
0.030011686 -0.028282749 0.046065934 0.039573703 0.035762966 -0.047252797 -0.061542094 -0.035858355
0.050920963 -0.020169906 0.028254021 -0.057568654 0.0086336415 0.0010649861 0.063973755 0.0242187
-0.028635494 0.03895295 0.05624775 0.017928561 -0.027829707 0.025247307 -0.011913732 -0.039319947
0.04555632 -0.018386304 -0.052320205 0.027628409 -0.007500174 -0.003128061 0.011155169 0.042938236
0.017712787 0.012672439 -0.031190284 0.02155297 0.020371042 0.05255666 -0.03334155 0.059536006
0.059641458 -0.059523832 0.06069586 -0.021939084 0.026031263 0.010699343 0.046110768 -0.006847635
-0.030818602 0.038547467 -0.009966528 -0.04340948 -0.029706838 -0.021924699 -0.01710479 0.06237404
0.0030551509 0.053073812 -0.056928657 0.034417223 0.033104904 0.053493936 -0.0094619375 -0.02263651
-0.00041969202 0.05040561 0.0075260396 -0.06160718 -0.05120223 -0.00436117 0.022763219 0.044096574
00000000: 1ea6 6cbd ac3b 1bbc bda9 6fbc 8591 c93c
00000010: ae39 8dbc 038b 733d 0e8c 8a3b 88d1 313c
00000020: d836 8d3d 1bd1 df3c e142 25bd 57ee c8bc
00000030: 8238 3abd 082c 6f3d 9e83 46bd bcae 523d
00000040: b68c 57bd fe38 4abd 7750 853c be3c 7abd
00000050: 9fae 4d3c f0f8 d73b 6057 713c b4e6 2fbd
00000060: 7b8c 7abc d9f9 c5bc 1aa1 ae3b 2a0c 063d
00000070: b7bc 59bd 6ec4 b3bc 867e 1f3c 1c86 ecbc
00000080: dbdc ec3c d775 5f3d af8f 023d eaf2 87bc
00000090: 3123 5d3d ecd6 ac3c 18ef 7d3c 859f 0ebd
000000a0: e3fd acbc 9690 39bd 2cc6 0b3d bc0d 67bd
000000b0: 6fc1 76bd 2e88 c53c eabc 5a3d 2e3b a13b
000000c0: b0bd 02bd 1545 ecbc 8c38 53bd 8af5 513d
000000d0: 3d7b d5bc 62ae 263d 1ff2 353d 421f b23c
000000e0: 4357 f23b 8037 f33c 6c2f d1bc c186 c0bb
000000f0: d3da f1bb 0080 3b37 7b77 933c 9e81 8e3c
00000100: 9243 34bd 068f 69bd 8c23 fbbc 3a14 31bd
00000110: 553b 913d 74ce 273c 9047 d9bc 358b 3c3d
00000120: a12f 15bc 3a00 4abd f92e 7c3d 8846 afbc
00000130: 8783 bfbc fd19 df3c 0a3b 9b3c 8dd6 df3c
00000140: 78d9 e6bc bf12 5f3d fe36 7e3d 601b 6d3c
00000150: 06df 9bbc 8f59 e0bc 333b 28bd 895b 20bd
00000160: 1860 5cbd 4b9f efbc d066 c73c 0d0b 29bd
00000170: 9c5b 90bc f0ab 8d3c 355b 2c3d 82de 04bd
00000180: d2f9 713d 9404 123c 2081 42bb 4e80 b9bc
00000190: a10a 02bb d26b a6bc f2ab 7bba 4f2a 50bd
000001a0: 4ea9 04bd 7e4b 15bd e760 033d 48c8 b6bc
000001b0: fed0 b33b b0ba f3bc 503b 5fbd 38f5 873c
000001c0: 001b efb9 ea2a 783d b1d1 883d e291 a63d
000001d0: 443e 36bd b881 27bd 0f9a fc3c c018 65bd
000001e0: e53a 1b3d 7dbb 2cbd 400e dfbc 61ee 1dbd
000001f0: 9003 bd3c eb65 433d 7f00 2abd 5a61 33bc
00000200: e8af 1ebd 7218 6fbd 2cb8 78bc d06c 793d
00000210: 504e 6fbd 6277 593d 818d 90bc 12e5 e63b
00000220: 66b5 ebbc cba0 7b3d e489 523d bc16 383d
00000230: 9c1b 593d 9ce4 8b3d c165 7c3d 3d7f af3d
00000240: aed4 1bbd 2050 be3c c0d1 4bbd 2867 b1bc
00000250: a9f5 ee3c 380c 4ebc 772c 31bd ff4a 4a3d
00000260: 803c 193d beaa 96bc 5110 05bd 7097 273d
00000270: da4e 14bd d851 0a3a e019 273d 5cb6 133d
00000280: 62ec 8fbc c8ae 22bd b704 bcbc ecf3 08bc
00000290: 14ac bf3c 72d6 0abd 1c50 263d a4b5 b73c
000002a0: b061 ff3b 4815 153d 74b4 b8bb 28a5 07bd
000002b0: 01cd 9a3c 7163 743d 7eab e53b 159d f8bb
000002c0: fce3 46bd a43c 313d 0e98 303d 19bb dc3b
000002d0: defb 18bb cfbb bb3b 8c1c cebc 6c9f 933d
000002e0: 11db f53c 39b1 e7bc a2af 3c3d 0918 223d
000002f0: 307c 123d 268c 41bd 9013 7cbd 36e0 12bd
00000300: 8092 503d 5c3b a5bc fa74 e73c 1ccd 6bbd
00000310: 1e74 0d3c 0197 8b3a ac04 833d 4c66 c63c
00000320: fc94 eabc 218d 1f3d 0a64 663d ebde 923c
00000330: 20fb e3bc 71d3 ce3c d031 43bc f40d 21bd
00000340: 4499 3a3d e09e 96bc b64d 56bd f954 e23c
00000350: 05c4 f5bb 2800 4dbb 2cc4 363c 01e0 2f3d
00000360: 681a 913c 10a0 4f3c c482 ffbc db8f b03c
00000370: 2ce1 a63c a745 573d 2691 08bd 07dc 733d
00000380: 9a4a 743d 43cf 73bd 399c 783d 98b9 b3bc
00000390: 843f d53c 4c4c 2f3c a5de 3c3d 2062 e0bb
000003a0: 4b77 fcbc f3e3 1d3d a64a 23bc 24ce 31bd
000003b0: c15b f3bc 6d9b b3bc 581f 8cbc ec7b 7f3d
000003c0: ed38 483b ed63 593d 062e 69bd 13f9 0c3d
000003d0: 0299 073d 751c 5b3d 3e06 1bbc 3470 b9bc
000003e0: 1c0a dcb9 1d76 4e3d ff9c f63b cf57 7cbd
000003f0: 6eb9 51bd 25e8 8ebb ee79 ba3c 9c9e 343d

fc2.bias f4 [128]
-0.015827317 -0.048145276 0.048902664 -0.007864276 0.035601463 -0.0103333015 -0.053510666 -0.025964228
0.040291 -0.023041282 0.010608228 -0.01610469 0.05692604 0.0021871775 0.0023008138 0.031144027
0.0001345873 0.023601957 -0.04371184 -0.0043801493 -0.013358532 0.0402961 0.044810247 -0.057645135
-0.042322032 0.04067486 0.011299408 -0.039356932 -0.05620818 -0.035039924 0.052806307 0.06431303
0.021037107 -0.026768878 -0.03282722 -0.0637165 -0.0101402365 -0.026912576 -0.018659119 -0.0466666
0.019823277 0.05040896 -0.006503311 -0.015776379 -0.00852714 -0.012637913 0.0095596835 -0.03309601
-0.05032795 -0.062382862 -0.021860601 0.011015478 -0.050465174 -0.048051476 -0.029762797 0.032021474
0.011767599 0.007700783 0.019739676 0.051329106 -0.038601637 0.032771856 -0.030976502 0.03964782
0.02641584 -0.03463725 0.040413003 0.05669769 -0.044129256 0.06410811 -0.013512123 0.022088673
-0.050643813 0.05641079 -0.021298587 0.027428892 -0.04819161 0.04970833 -0.0638848 0.00014224615
0.048858404 0.010499358 0.021029515 -0.040729344 -0.041401062 -0.035180926 0.0015238562 0.0018321187
0.0075983 -0.015177491 -0.05171111 0.004528583 0.01987971 -0.041749932 -0.053866334 0.044416368
0.050664004 0.023764016 0.011881397 -0.018677227 -0.043535884 0.02152571 -0.04509025 0.008907713
0.052381422 0.002690799 -0.024974033 -0.002739753 0.00057295896 0.021796308 0.011169636 -0.007128944
0.039797273 -0.011207651 0.012953989 0.04918214 -0.06253201 -0.015880192 0.058735304 -0.03966499
-0.036608923 -0.016806938 -0.010501259 0.027706245 -0.045172825 -0.04577477 -0.05100371 -0.053192317
00000000: 4aa8 81bc fb33 45bd 294e 483d 2ad9 00bc
00000010: d7d2 113d 024d 29bc 002e 5bbd efb2 d4bc
00000020: 2d08 253d 12c1 bcbc 22ce 2d3c fced 83bc
00000030: 482b 693d c056 0f3b 40c9 163b c221 ff3c
00000040: 0120 0d39 e458 c13c 300b 33bd 5b87 8fbb
00000050: bfdd 5abc 860d 253d f38a 373d 4e1d 6cbd
00000060: de59 2dbd af9a 263d 2721 393c bc34 21bd
00000070: 8c3a 66bd 0686 0fbd 6d4b 583d 8db6 833d
00000080: 0356 ac3c 684a dbbc d675 06bd cc7d 82bd
00000090: 3c23 26bc c377 dcbc 02db 98bc 7a25 3fbd
000000a0: 6d64 a23c a079 4e3d ba19 d5bb 773d 81bc
000000b0: 6bb5 0bbc 400f 4fbc 38a0 1c3c af8f 07bd
000000c0: ae24 4ebd 2c85 7fbd 0115 b3bc 437a 343c
000000d0: 92b4 4ebd a0d1 44bd 1cd1 f3bc f328 033d
000000e0: e3cc 403c da56 fc3b 1ab5 a13c 783e 523d
000000f0: c01c 1ebd c83b 063d 6fc2 fdbc c165 223d
00000100: 0866 d83c cadf 0dbd 1b88 253d d63b 683d
00000110: e1c0 34bd 1d4b 833d f461 5dbc 4ef3 b43c
00000120: e36f 4fbd 000f 673d 607a aebc 8eb2 e03c
00000130: 9164 45bd f69a 4b3d 09d6 82bd e927 1539
00000140: c01f 483d 8005 2c3c 1746 ac3c d0d3 26bd
00000150: 2994 29bd e019 10bd 21bc c73a b423 f03a
00000160: 29fb f83b 03ab 78bc 07cf 53bd 8264 943b
00000170: c6da a23c fa01 2bbd f2a2 5cbd f0ed 353d
00000180: 0f85 4f3d c1ac c23c 31aa 423c fc00 99bc
00000190: af52 32bd b056 b03c 8eb0 38bd a8f1 113c
000001a0: e78d 563d 1e58 303b 5896 ccbc 6e8d 33bb
000001b0: a032 163a 2c8e b23c d900 373c eb99 e9bb
000001c0: 7702 233d 4ca0 37bc f83c 543c 3673 493d
000001d0: c810 80bd 2d17 82bc 6e94 703d c277 22bd
000001e0: 3df3 15bd b4ae 89bc 790d 2cbc 35f8 e23c
000001f0: 2407 39bd 537e 3bbd 44e9 50bd 30e0 59bd

actor.weight f4 [4, 128]
-0.0005008511 0.048076738 0.015593726 -0.030648526 -0.07676691 -0.055975854 -0.057422437 0.026612332
-0.08613883 0.04216007 -0.049739763 -0.04164742 0.020330526 -0.07736909 -0.078490846 0.023363177
0.04371363 0.027990602 0.0095743 -0.026701093 -0.001520105 -0.0051090326 -0.019272588 -0.007849809
-0.048857804 -0.08177713 -0.043109283 0.06493951 -0.06939991 -0.048282325 0.08626691 0.057660084
-0.051725086 -0.035638552 -0.050726734 0.040786445 -0.07745439 0.040075228 -0.02795724 0.013017908
0.06650148 0.030126836 0.012875286 -0.036720082 -0.014497478 0.026150232 0.047486525 0.0024791544
0.076008946 -0.025154209 0.06736865 0.059822474 -0.02952726 0.047248155 -0.051722538 0.057446945
-0.028391225 0.039275292 0.02661289 -0.024149258 -0.07517207 0.057703994 -0.025494091 -0.015192745
0.043509044 -0.087384574 0.07596938 0.0527664 0.06547195 0.034902055 0.036212444 -0.018835502
-0.0017857732 -0.04409478 -0.051791817 0.07202392 -0.009026705 0.094628096 -0.051417623 -0.0051610605
-0.04791766 0.03595182 -0.03663175 0.039135233 -0.033606503 0.06555154 0.03730026 -0.03975799
-0.07344141 0.063256085 0.009130501 -0.01638345 0.00069649226 0.080910504 0.081627674 -0.08142482
0.054363023 -0.026702164 0.059838418 0.017364109 0.028196545 -0.053234108 -0.04850667 0.005267808
-0.03183876 -0.06453203 0.024128944 -0.048919074 -0.06264274 0.06585092 -0.05153019 -0.081230536
0.050182994 -0.0043109697 -0.05492329 -0.008663176 -0.00867014 0.03463581 -0.071928516 0.023130896
-0.046465304 -0.043731432 0.037219096 -0.024233762 -0.05781184 -0.056094553 -0.05303268 0.08295106
-0.01990146 -0.044321574 -0.009772637 -0.08186242 -0.061463088 0.027282534 0.082391344 -0.019679831
0.062381275 0.035439577 0.062035054 -0.042229783 -0.08271734 -0.07361963 0.015929917 0.07802905
-0.0166501 -0.06957043 -0.021983385 0.011136577 -0.012321008 -0.009938212 0.061935138 0.019259442
0.07789639 -0.049282026 0.011985883 -0.043170687 -0.025203794 0.06615235 0.0074749035 0.08044172
0.031466577 0.039508983 0.055264674 0.07790317 -0.032759424 0.05121168 0.022344539 0.051229924
-0.015472915 -0.0423543 -0.046949513 0.05256717 -0.077783555 -0.08434833 0.05171038 0.049128223
-0.012462644 0.017671145 0.02264569 0.036344398 0.0351513 0.06504833 -0.022396445 0.06634646
0.030679282 0.06869167 0.02250447 0.063416414 0.043813135 0.0031165914 -0.040612534 0.028680352
-0.0485169 -0.07139035 -0.07321596 -0.04859327 -0.038391557 -0.057666264 -0.054366693 0.08990451
-0.021937856 -0.04882352 0.06479941 -0.015989432 -0.02560218 -0.05094015 -0.030148262 0.022338334
0.051130243 0.054471545 0.018661859 0.07726139 0.048441738 0.0859122 -0.023123551 0.034213446
0.09161678 -0.002349119 -0.07039443 -0.045681775 -0.01473039 -0.022023741 -0.06551062 0.0560718
-0.07055374 -0.07763276 0.0013905559 0.0841423 0.05841805 -0.008428806 0.046197075 -0.045614302
0.021011442 0.028988259 0.023219436 0.08756097 -0.034093436 0.058312695 0.014463861 -0.071983084
0.07408093 0.022363117 0.049946878 0.033351183 -0.03580284 -0.06980854 -0.045281354 0.08732768
-0.07403619 0.01334641 -0.06917762 -0.0076331818 0.06672022 0.01912334 0.020849645 0.07123938
00000000: 8c4b 03ba 1dec 443d d47c 7f3c 9e12 fbbc
00000010: f837 9dbd f046 65bd ca33 6bbd 1b02 da3c
00000020: 8e69 b0bd 0ab0 2c3d ecbb 4bbd 7c96 2abd
00000030: 348c a63c af73 9ebd cfbf a0bd 2264 bf3c
00000040: 100d 333d 8c4c e53c 86dd 1c3c 40bc dabc
00000050: 433e c7ba ac69 a7bb 8ce1 9dbc 7c9c 00bc
00000060: 1f1f 48bd c57a a7bd 5c93 30bd 01ff 843d
00000070: 8a21 8ebd b0c3 45bd b5ac b03d fb2c 6c3d
00000080: afdd 53bd bbf9 11bd d6c6 4fbd b00f 273d
00000090: 68a0 9ebd ec25 243d 9506 e5bc 1049 553c
000000a0: ee31 883d 8ecc f63c ddf2 523c cc67 16bd
000000b0: d486 6dbc 0339 d63c 3b81 423d 4f79 223b
000000c0: 94aa 9b3d 3310 cebc 93f8 893d 6908 753d
000000d0: 27e3 f1bc 4887 413d 03db 53bd 7d4d 6b3d
000000e0: b794 e8bc 21df 203d 4703 da3c aad4 c5bc
000000f0: d0f3 99bd 065b 6c3d fcd8 d0bc feea 78bc
00000100: 8a36 323d aff6 b2bd d695 9b3d 9521 583d
00000110: 2816 863d 75f5 0e3d 8053 143d e94c 9abc
00000120: 9b10 eaba ba9c 34bd a823 54bd 4781 933d
00000130: bfe4 13bc 60cc c13d 499b 52bd 1d1e a9bb
00000140: 4f45 44bd 3742 133d 2d0b 16bd 444c 203d
00000150: f9a6 09bd e33f 863d 28c8 183d 46d9 22bd
00000160: 7368 96bd 688c 813d 1998 153c 9636 86bc
00000170: ce94 363a 68b4 a53d 692c a73d 0ec2 a6bd
00000180: c3ab 5e3d 7fbe dabc 2119 753d 2d3f 8e3c
00000190: 71fc e63c 020c 5abd eeae 46bd 949d ac3b
000001a0: 5c69 02bd 5e29 84bd 10aa c53c 5e5f 48bd
000001b0: d64a 80bd d9dc 863d 5211 53bd 325c a6bd
000001c0: af8c 4d3d 0943 8dbb 3ef7 60bd feef 0dbc
000001d0: 340d 0ebc 47de 0d3d 424f 93bd 017d bd3c
000001e0: 6752 3ebd bb1f 33bd 0d73 183d e285 c6bc
000001f0: 1ccc 6cbd 67c3 65bd cc38 59bd 3fe2 a93d
00000200: 6308 a3bc 8a8a 35bd 691d 20bc 7ca7 a7bd
00000210: b8c0 7bbd 9f7f df3c cbbc a83d 9937 a1bc
00000220: 8283 7f3d 1729 113d 7818 7e3d 23f9 2cbd
00000230: b567 a9bd e3c5 96bd 757f 823c b2cd 9f3d
00000240: ca65 88bc f17a 8ebd 8016 b4bc 3176 363c
00000250: 0ede 49bc e2d3 22bc b3af 7d3d fac5 9d3c
00000260: 2488 9f3d f3db 49bd 7060 443c bfd3 30bd
00000270: 3078 cebc e27a 873d 09f0 f43b a1be a43d
00000280: 19e3 003d 2cd4 213d 365d 623d b28b 9f3d
00000290: bf2e 06bd 57c3 513d e50b b73c 78d6 513d
000002a0: 1c82 7dbc b47b 2dbd 224e 40bd ac50 573d
000002b0: fc4c 9fbd d1be acbd 43ce 533d ad3a 493d
000002c0: 1e30 4cbc 14c3 903c 7483 b93c dddd 143d
000002d0: cffa 0f3d 0f38 853d c078 b7bc a7e0 873d
000002e0: 1e53 fb3c 38ae 8c3d 4b5b b83c 77e0 813d
000002f0: 6775 333d ba3f 4c3b 5459 26bd 0ff3 ea3c
00000300: a8b9 46bd 1b35 92bd 40f2 95bd bd09 47bd
00000310: 7740 1dbd 7633 6cbd 9caf 5ebd db1f b83d
00000320: 05b7 b3bc 2cfb 47bd 8eb5 843d 45fc 82bc
00000330: aabb d1bc 9ea6 50bd 7df9 f6bc e2fe b63c
00000340: f26d 513d 8e1d 5f3d c1e0 983c 383b 9e3d
00000350: d86a 463d bcf2 af3d 9a6d bdbc 6623 0c3d
00000360: 94a1 bb3d adf3 19bb f42a 90bd d01c 3bbd
00000370: bc57 71bc 226b b4bc 6f2a 86bd 8bab 653d
00000380: 7b7e 90bd edfd 9ebd 5043 b63a cc52 ac3d
00000390: c447 6f3d fa18 0abc 2539 3d3d 10d6 3abd
000003a0: 3020 ac3c c978 ed3c b036 be3c 2a53 b33d
000003b0: 8fa5 0bbd 4bd9 6e3d d4f9 6c3c de6b 93bd
000003c0: beb7 973d db32 b73c 1995 4c3d 409b 083d
000003d0: 00a6 12bd c8f7 8ebd f178 39bd dbd8 b23d
000003e0: 49a0 97bd e7aa 5a3c ffac 8dbd c51f fabb
000003f0: 9ca4 883d 8da8 9c3c e0cc aa3c f4e5 913d

actor.bias f4 [4]
-0.030504627 0.066043906 -0.028840668 4.6522542e-05
00000000: d7e4 f9bc 0742 873d 4443 ecbc 3321 4338

critic.weight f4 [1, 128]
0.058659963 0.024153974 0.042890925 0.0105903195 -0.005541926 -0.024857378 -0.062204976 0.078127004
-0.047361147 -0.026264781 0.10029927 0.025637802 0.027992971 -0.05218529 -0.04660889 0.07638806
-0.02157638 -0.014256602 -0.041900404 0.086306885 -0.025760192 -0.04102814 -0.056978423 -0.003692285
-0.05921342 -0.008156162 0.046428367 -0.032850776 -0.044267204 0.085766606 -0.07731846 0.05948606
-0.083065905 -0.05290913 -0.08171747 -0.065314025 0.08018457 0.0050850655 0.064548664 -0.02361628
-0.011721993 0.082476676 0.011543604 0.09107837 -0.032134093 0.0030175352 0.07664441 -0.045354374
-0.05948647 -0.03503026 -0.031686317 -0.05098586 -0.017009292 0.06619495 -0.06331511 -0.057156827
0.082193956 -0.08287523 -0.025637766 -0.04297272 0.077250965 0.054820254 0.11425227 -0.05048861
-0.07926063 -0.044047523 -0.041537616 0.030484691 -0.06838858 0.04248016 -0.02123835 0.0743302
-0.01633713 -0.0067835264 0.042168286 0.011281287 0.029691797 0.044526454 -0.07598062 -0.007437243
-0.062266316 0.0694792 0.088596374 -0.059362464 -0.079893805 -0.040449776 -0.07037867 0.008384429
0.079855554 -0.055086058 0.035893362 0.019577388 0.041069135 -0.00727207 0.087662905 -0.02683463
-0.048621617 0.03309393 0.058728907 0.035174515 -0.03795138 0.050362118 -0.03578885 0.03446691
-0.048430577 0.044068255 -0.08669085 0.03008138 -0.058905028 -0.041125003 -0.08305973 0.048692472
0.09466955 0.071767785 -0.04855147 0.04566513 -0.057226107 -0.0784866 0.098149985 0.079408474
0.045761686 -0.023874283 0.07427824 0.027469916 0.035991523 0.006012594 0.027166003 -0.005152226
00000000: 6e45 703d 8ede c53c 65ae 2f3d 0583 2d3c
00000010: 0b99 b5bb b3a1 cbbc a5ca 7ebd 0d01 a03d
00000020: c3fd 41bd 3d29 d7bc b469 cd3d 5e06 d23c
00000030: 8451 e53c 3ec0 55bd f7e8 3ebd 5871 9c3d
00000040: f3c0 b0bc 8694 69bc c29f 2bbd aac1 b03d
00000050: 0a07 d3bc 1f0d 28bd 3562 69bd 43fa 71bb
00000060: c589 72bd 6ca1 05bc ac2b 3e3d 898e 06bd
00000070: 8751 35bd 67a6 af3d 2459 9ebd a8a7 733d
00000080: 751e aabd 3eb7 58bd 7d5b a7bd 5cc3 85bd
00000090: cf37 a43d 9fa0 a63b 1732 843d ee76 c1bc
000000a0: 9a0d 40bc 88e9 a83d 6221 3d3c 4c87 ba3d
000000b0: 0a9f 03bd d7c1 453b bff7 9c3d 82c5 39bd
000000c0: 16a8 73bd e47b 0fbd 83c9 01bd 8dd6 50bd
000000d0: 1257 8bbc 3891 873d 5aab 81bd 471d 6abd
000000e0: 4e55 a83d 7dba a9bd 4b06 d2bc 2a04 30bd
000000f0: c135 9e3d 348b 603d 18fd e93d 25cd 4ebd
00000100: 6653 a2bd 2d6b 34bd 5923 2abd 08bb f93c
00000110: 500f 8cbd adff 2d3d 0cfc adbc 6f3a 983d
00000120: 72d5 85bc 5848 debb a7b8 2c3d 26d5 383c
00000130: 363c f33c 5f61 363d ba9b 9bbd 1eb4 f3bb
00000140: f70a 7fbd 1c4b 8e3d 0472 b53d 0e26 73bd
00000150: 5d9f a3bd aaae 25bd b122 90bd d85e 093c
00000160: 4f8b a33d eba1 61bd eb04 133d c260 a03c
00000170: 1c38 283d 8b4a eebb 9c88 b33d 4cd4 dbbc
00000180: 7627 47bd 808d 073d b98d 703d 2713 103d
00000190: e872 1bbd 8248 4e3d 5497 12bd 2d2d 0d3d
000001a0: 245f 46bd ea80 343d f98a b1bd 3a6d f63c
000001b0: 6646 71bd b172 28bd 381b aabd c271 473d
000001c0: 1ce2 c13d fdfa 923d e8dd 46bd 5c0b 3b3d
000001d0: ec65 6abd 95bd a0bd dc02 c93d e9a0 a23d
000001e0: 9b70 3b3d 0094 c3bc 311f 983d 9708 e13c
000001f0: d96b 133d 4b05 c53b 3d8b de3c 01d4 a8bb

target.0.weight f4 [128, 256]
0.02163174 0.036820307 0.010955758 0.048830785 -0.018449798 -0.060747884 -0.060219683 0.060278513
-0.033255994 -0.050864562 -0.020895556 -0.014093719 -0.00940562 0.023126706 -0.019159868 -0.0053738654
-0.019239023 -0.05683492 -0.0039645657 0.04356932 -0.056595437 0.028973497 -0.058643468 0.059816778
-0.013798527 0.019494452 -0.0022211596 0.054421715 0.048383728 -0.0617934 0.0069602206 0.044904426
-0.05123412 0.04177054 0.010917291 -0.03513433 0.011310786 0.046687134 -0.053627342 0.056315698
0.009376042 0.055942 0.051185675 0.020267531 0.015416235 0.034616023 -0.050544843 -0.02172751
0.030196205 0.016428337 -0.020391941 -0.055645674 -0.05441363 -0.00052663684 -0.060529977 -0.026260234
-0.048488013 -0.03639201 -0.022584178 -0.012510024 -0.037593596 0.009393476 0.027835391 -0.043127492
0.025536753 0.05847594 -0.03817468 -0.019146793 0.01793015 -0.026990376 0.056603424 -0.00033017248
-0.033521764 0.044408485 -0.0016464293 0.041280784 -0.06201484 -0.0310468 -0.054689616 -0.05496677
-0.0030890107 -0.04087554 -0.012656726 0.059207253 0.061300904 -0.052219898 -0.01981663 0.03402868
0.025843047 -0.04456719 0.029485203 0.05383177 -0.04915739 0.03062573 0.006094426 0.0011339262
-0.006174296 0.006782651 0.052124582 -0.05003886 -0.031729057 0.026907586 0.035564855 -0.0020216927
0.042424887 -0.045814566 -0.023748532 -0.059816778 0.027534977 0.017114818 -0.008614533 0.0168963
-0.033743344 -0.008592553 0.026622139 0.059297748 0.055382557 0.056291595 0.052205145 -0.045963548
-0.0081036985 -0.047307834 -0.053151637 0.0046798065 0.049061373 0.061518826 -0.04846468 -0.037081316
-0.022733495 -0.02189684 0.024927892 -0.039547965 -0.013249166 -0.060669966 -0.0073798597 0.048962735
0.04101669 -0.029103272 -0.024670549 -0.03691802 -0.0051972046 0.016317807 0.041509703 -0.009378709
0.023612566 -0.050130792 0.020712376 0.021876402 0.0519192 -0.021424092 0.050564513 -0.058675915
0.046307936 -0.0043693483 -0.031562418 0.03113386 0.004005544 0.059145205 -0.05429221 -0.05876878
0.002446279 0.062404357 0.04035408 0.058326803 -0.03190659 -0.056934193 0.02524691 0.026201472
-0.05438094 0.020947881 0.048777714 0.018092878 0.021612033 0.01513055 0.03567408 0.06234955
0.010339148 -0.0058165565 -0.056388944 -0.04722154 0.05896353 0.0092151165 0.02562473 0.062176958
0.014972165 -0.061194457 0.013301782 -0.020798013 -0.056340978 -0.019564256 -0.05708325 -0.051848695
-0.042465262 -0.046756424 -0.048887976 0.044968024 -0.0050234497 -0.018244013 0.039193057 -0.05342172
-0.04673753 -0.058234125 -0.0068037733 -0.00037287176 0.017842092 0.026701331 0.05036696 -0.00051146746
-0.006482519 -0.0023622662 0.053723387 -0.025733687 0.0034130514 -0.013762936 -0.03041052 0.02031491
-0.049628533 0.0078119487 -0.0014671683 -0.026668504 0.016179271 -0.0214262 0.0025539473 -0.017337441
0.05780583 0.032476828 0.021611035 0.020203888 0.0037300438 0.029335186 0.044449247 0.041955203
-0.030062065 -0.060646743 0.0062437654 0.03710387 0.0449017 -0.034319513 0.036290765 0.027291492
-0.06172753 0.009038925 -0.025747292 0.04979393 0.010339759 -0.04720907 0.04121227 0.02870614
0.05363998 -0.032573745 0.031986207 -0.057353295 0.037598222 0.029125303 0.014198974 -0.058841333
00000000: 0c35 b13c e4d0 163d c87f 333c ca02 483d
00000010: 0824 97bc c6d2 78bd eaa8 76bd 9ae6 763d
00000020: 7037 08bd 5c57 50bd 282d abbc 58e9 66bc
00000030: 081a 1abc 3874 bd3c 28f5 9cbc 4017 b0bb
00000040: 289b 9dbc bccb 68bd 30e9 81bb be75 323d
00000050: 9ed0 67bd d459 ed3c 2234 70bd 7002 753d
00000060: 3813 62bc d4b2 9f3c e090 11bb 4ee9 5e3d
00000070: 042e 463d 141b 7dbd 9012 e43b b4ed 373d
00000080: deda 51bd 9617 2b3d 70de 323c 04e9 0fbd
00000090: e050 393c 023b 3f3d 58a8 5bbd 4aab 663d
000000a0: f89d 193c 7023 653d 12a8 513d 1808 a63c
000000b0: 6094 7c3c 88c9 0d3d 1c08 4fbd e4fd b1bc
000000c0: 085e f73c b894 863c 000d a7bc b8ec 63bd
000000d0: d4e0 5ebd 000e 0aba 48ee 77bd b41f d7bc
000000e0: 5e9b 46bd ca0f 15bd 7402 b9bc d8f6 4cbc
000000f0: befb 19bd 18e7 193c 0c07 e43c 74a6 30bd
00000100: 7432 d13c 7884 6f3d 0e5d 1cbd bcd9 9cbc
00000110: 40e2 923c ec1a ddbc fed8 673d 001b adb9
00000120: 1e4e 09bd ace5 353d 00cd d7ba 0a16 293d
00000130: 4603 7ebd dc55 febc 3802 60bd d624 61bd
00000140: 0071 4abb 1c6d 27bd 285e 4fbc 4e83 723d
00000150: a816 7b3d 88e4 55bd 7c56 a2bc a861 0b3d
00000160: ccb4 d33c 168c 36bd f48a f13c b47e 5c3d
00000170: 4259 49bd d0e2 fa3c c0b3 c73b 40a0 943a
00000180: c051 cabb 0041 de3b 9680 553d 8cf5 4cbd
00000190: 54f6 01bd 4c6d dc3c 74ac 113d 607e 04bb
000001a0: b8c5 2d3d 0ea8 3bbd 488c c2bc 7002 75bd
000001b0: 0891 e13c 6034 8c3c f823 0dbc 1c6a 8a3c
000001c0: 7636 0abd c8c7 0cbc ac16 da3c 32e2 723d
000001d0: d2d8 623d 0492 663d 10d5 553d 4644 3cbd
000001e0: 60c5 04bc dcc5 41bd 88b5 59bd 1059 993b
000001f0: 94f4 483d 2afb 7b3d e682 46bd 94e2 17bd
00000200: 983b babc 0061 b3bc 9435 cc3c 0cfd 21bd
00000210: 0813 59bc 1281 78bd c0d2 f1bb 268d 483d
00000220: 1e01 283d fc69 eebc e419 cabc 5a37 17bd
00000230: 504d aabb ecac 853c 1406 2a3d 28a9 19bc
00000240: 246f c13c f255 4dbd 00ad a93c 2436 b33c
00000250: 3aa9 543d 9481 afbc bc1c 4f3d 2856 70bd
00000260: 64ad 3d3d c02c 8fbb 9847 01bd 700c ff3c
00000270: f040 833b 3e42 723d 8261 5ebd 88b7 70bd
00000280: c051 203b b69b 7f3d 524a 253d 16e8 6e3d
00000290: 7cb0 02bd d433 69bd 9cd2 ce3c 78a4 d63c
000002a0: 8cbe 5ebd e49a ab3c 24cb 473d 8437 943c
000002b0: b80b b13c 20e6 773c fc1e 123d 3e62 7f3d
000002c0: 8865 293c d098 bebb 18f8 66bd 606b 41bd
000002d0: be83 713d 00fb 163c f4ea d13c 44ad 7e3d
000002e0: d04d 753c 0aa7 7abd b8ef 593c 9860 aabc
000002f0: ccc5 66bd 3845 a0bc 20d0 69bd 4c5f 54bd
00000300: 0ef0 2dbd aa83 3fbd c23e 48bd 6430 383d
00000310: c09b a4bb 7874 95bc e688 203d bcd0 5abd
00000320: da6f 3fbd e886 6ebd 30f2 debb 007e c3b9
00000330: 9429 923c c0bc da3c 964d 4e3d 0014 06ba
00000340: 506b d4bb 40d0 1abb 0e0d 5c3d 74cf d2bc
00000350: 80ad 5f3b f07d 61bc 7c1f f9bc 746b a63c
00000360: 4a47 4bbd 60fb ff3b 004e c0ba e877 dabc
00000370: 648a 843c 0086 afbc 2060 273b 4007 8ebc
00000380: cec5 6c3d 6c06 053d a009 b13c a082 a53c
00000390: c073 743b 5850 f03c 6a10 363d 38d9 2b3d
000003a0: b844 f6bc b868 78bd 8098 cc3b 3afa 173d
000003b0: d8ea 373d 9e92 0cbd a0a5 143d 6892 df3c
000003c0: 02d6 7cbd 0018 143c fceb d2bc b8f4 4b3d
000003d0: 1868 293c 4c5e 41bd 32ce 283d 2429 eb3c
000003e0: 98b5 5b3d 0c6c 05bd f803 033d 4aeb 6abd
000003f0: 9800 1a3d 3098 ee3c d0a2 683c 9c03 71bd

target.0.bias f4 [128]
-0.056673564 -0.05261538 0.033064753 -0.0092317015 0.047602743 -0.05370982 0.020667687 -0.06244716
-0.0336757 0.04431472 -0.04937744 0.050444767 0.004231833 0.031176776 -0.033347458 -0.0012187734
-0.026672624 0.009210356 -0.0187385 0.057329006 -0.037458695 -0.06175351 0.003720522 -0.036229894
-0.045167983 -0.031269446 0.041240245 0.0033199787 -0.048449293 -0.009626336 0.05574262 -0.00986705
0.01829283 -0.044310935 -0.0076695234 0.0038680658 -0.041621976 0.014896132 0.009095393 -0.037270583
-0.01161667 -0.00898689 0.01591631 -0.040525086 0.027290963 -0.015001833 -0.062422045 -0.029192604
0.027277634 0.0061769113 0.01892303 0.0041958615 -0.022232667 0.009488627 0.04228875 -0.057591468
0.04542861 0.026117861 0.026965052 0.009236909 0.040083364 0.034044914 0.021366738 0.0194266
-0.037321843 0.021212913 -0.03393899 0.000515528 -0.040207207 -0.01539959 -0.052834645 0.01775767
-0.05831024 -0.012885436 0.013138637 -0.038316496 -0.020738944 0.011287607 -0.054990776 0.039267726
-0.043041125 -0.036345124 -0.02849821 0.04964733 0.05966025 0.04454027 -0.02047176 0.05317028
0.046691947 -0.00809218 0.05219704 0.055662632 -0.043562956 0.01595623 0.034168802 0.018805087
0.03772913 0.025490642 0.0026960596 -0.046518467 -0.024392575 0.05094918 -0.020395614 -0.021328524
0.05398518 -0.036618777 0.060937345 -0.019986294 0.0425537 0.06218335 -0.025014594 -0.026935823
0.024420679 0.018859722 -0.009101406 -0.040401675 0.02446948 0.055661388 -0.006091498 -0.031160034
-0.053222805 -0.0066957474 0.04664526 -0.016786233 0.061164133 -0.038399875 -0.010232359 -0.031947985
00000000: 8a22 68bd 3a83 57bd e86e 073d 9040 17bc
00000010: 18fb 423d d4fe 5bbd 484f a93c 98c8 7fbd
00000020: 88ef 09bd 5a83 353d 0040 4abd 2c9f 4e3d
00000030: 30ab 8a3b 7066 ff3c 5897 08bd 40bf 9fba
00000040: 8c80 dabc 08e7 163c 7c81 99bc d2d1 6a3d
00000050: 4a6e 19bd 40f1 7cbd 00d4 733b cc65 14bd
00000060: 1002 39bd 6414 00bd 88eb 283d 0094 593b
00000070: c472 46bd c8b7 1dbc 6052 643d 68a9 21bc
00000080: d8da 953c 627f 35bd a050 fbbb 607f 7d3b
00000090: ce7b 2abd e80e 743c d804 153c 0aa9 18bd
000000a0: d853 3ebc c03d 13bc ec62 823c a2fd 25bd
000000b0: 4c91 df3c 40ca 75bc 42ae 7fbd 5425 efbc
000000c0: 5875 df3c b067 ca3b 7804 9b3c 707d 893b
000000d0: 4821 b6bc 3076 1b3c f836 2d3d 08e5 6bbd
000000e0: 5a13 3a3d 20f5 d53c d0e5 dc3c 6856 173c
000000f0: 742e 243d ae72 0b3d 4c09 af3c 8824 9f3c
00000100: cade 18bd b4c6 ad3c 9c03 0bbd 8024 073a
00000110: 50b0 24bd 904e 7cbc 2469 58bd 8878 913c
00000120: b8d6 6ebd 701d 53bc 7043 573c c2f1 1cbd
00000130: b8e4 a9bc a8ef 383c 023e 61bd 32d7 203d
00000140: e44b 30bd a0de 14bd 1475 e9bc 005b 4b3d
00000150: 4e5e 743d dc6f 363d 64b4 a7bc 14c9 593d
00000160: 0e40 3f3d 1095 04bc 90cc 553d 80fe 633d
00000170: 126f 32bd a4b6 823c 96f4 0b3d 200d 9a3c
00000180: dc89 1a3d c0d1 d03c 60b0 303b 268a 3ebd
00000190: f0d2 c7bc 16b0 503d b414 a7bc 28b9 aebc
000001a0: 901f 5d3d 92fd 15bd 7099 793d 4cba a3bc
000001b0: ca4c 2e3d f8b3 7e3d 68eb ccbc 84a8 dcbc
000001c0: e00d c83c b47f 9a3c 101e 15bc 3a7c 25bd
000001d0: 3874 c83c 32fd 633d 309b c7bb 5443 ffbc
000001e0: 2800 5abd 0068 dbbb 1a0f 3f3d 4883 89bc
000001f0: 3e87 7a3d 3049 1dbd a0a5 27bc e4db 02bd

target.2.weight f4 [128, 128]
0.011720417 -0.062032573 0.042025074 0.08114031 -0.015547772 0.08686749 0.070162006 -0.056906685
0.051142883 -0.056927748 0.07076295 0.054567397 0.0009178003 -0.0784078 0.035591632 0.020246988
0.06546415 -0.017071981 0.035077535 0.029048704 -0.06648984 0.06345621 0.051382836 0.03315428
-0.08385537 0.020962905 -0.043769415 0.060964204 0.023109948 -0.02717401 -0.06727203 -0.04569343
-0.043900073 -0.019661505 -0.047258038 -0.028282369 -0.055965904 0.05511046 -0.07777513 0.04649264
0.037849557 -0.06737209 0.010413938 -0.0066212276 -0.0061866725 -0.033018 0.013768923 -0.025696712
-0.06787339 -0.036458403 -0.04734816 -0.04923325 0.060238633 -0.068858005 0.01319386 0.024738261
-0.078208916 0.012388149 -0.012537244 -0.004798703 -0.08148191 0.045480978 0.0015817501 0.054678548
-0.080528446 -0.08482183 0.05561817 0.07358666 0.042987373 -0.066676885 -0.044255603 0.015366593
-0.027633538 0.009154411 -0.022220239 -0.03179396 0.026999734 -0.01229079 -0.04815973 0.082760625
0.03298485 -0.08827921 -0.03293987 -0.01550376 0.050048318 -0.007637156 0.038086947 0.016166562
-0.05156849 0.06864853 -0.015473656 -0.023023896 0.08733049 -0.07498352 0.046562754 0.052649673
-0.051877163 -0.012106756 -0.088155106 0.028371878 -0.0418852 0.06869184 -0.084341794 -0.029648338
0.038909085 0.08604963 -0.009028572 -0.011065686 -0.0061464855 0.08344139 -0.061558463 0.08507076
0.05892593 -0.07991454 0.05325896 0.06321454 0.021106519 0.07489857 -0.014533497 -0.0046925456
0.03405774 0.014510549 0.03259794 -0.038481157 0.079425104 -0.059338063 0.04075988 0.03975767
-0.0044382317 -0.0137872035 -0.026239522 0.04652211 0.06987087 0.014841244 0.08633126 -0.07802041
-0.054149956 -0.06558274 -0.08793377 -0.025211696 -0.04292234 0.06467826 -0.044942226 -0.08198861
-0.0650163 -0.028228547 0.027858878 0.032856006 -0.081107646 -0.04138242 -0.0693154 -0.052258033
-0.032940987 0.07413157 0.05987101 -0.04356708 0.017233225 0.08259476 0.0663443 0.047212258
0.033826355 0.0031695482 -0.03132393 0.07999601 0.025709862 -0.02216175 0.053433668 0.07562889
-0.012429253 -0.032820012 0.027442012 -0.07500559 -0.05100364 0.063159846 -0.058403563 -0.08589963
-0.08490086 -0.06605201 -0.004070184 -0.034538276 0.07166336 0.011143847 0.048362244 0.029946083
0.07798405 0.07943779 0.002242107 0.06652126 -0.08627627 -0.0007652498 -0.0004899571 0.036416467
-0.04832288 -0.012109906 -0.05727589 -0.03571647 -0.010137539 0.03933574 -0.06853164 -0.04538622
-0.004090952 0.07963074 -0.015601288 0.048516236 -0.034062598 -0.0015015552 0.06538193 0.06943106
-0.0845035 0.02625244 0.03703157 0.039515324 -0.030223757 0.06885338 -0.033360727 0.04304603
-0.051121745 -0.011827111 -0.056495614 -0.03550167 0.03329894 0.03792149 0.024702732 0.022068933
0.061131537 0.061560422 -0.01223171 0.0236322 0.03929785 0.053890496 -0.015584756 0.06946025
0.06979302 0.08389699 -0.0637946 -0.0098998 -0.05611169 0.04682421 -0.08534246 0.032187104
-0.011277296 0.020617459 -0.055338927 -0.05367715 -0.047172952 0.060289685 -0.0022684804 0.006960594
-0.021558587 0.057321664 0.007876877 -0.0020938343 0.013161966 0.07429485 -0.08274838 0.00015394136
00000000: fe06 403c de15 7ebd 7c22 2c3d e42c a63d
00000010: 15bc 7ebc 95e7 b13d 19b1 8f3d fc16 69bd
00000020: 337b 513d 122d 69bd 2aec 903d 1082 5f3d
00000030: 8998 703a 4594 a0bd 88c8 113d 03dd a53c
00000040: 1112 863d 8ada 8bbc 76ad 0f3d 8cf7 ed3c
00000050: d32b 88bd 54f5 813d cf76 523d c8cc 073d
00000060: 5dbc abbd 66ba ab3c 8f47 33bd 9ab5 793d
00000070: 1351 bd3c 089c debc ebc5 89bd 0929 3bbd
00000080: 90d0 33bd 2a11 a1bc a591 41bd 6db0 e7bc
00000090: 813c 65bd 81bb 613d 9148 9fbd 116f 3e3d
000000a0: 2308 1b3d 61fa 89bd 399f 2a3c e2f6 d8bb
000000b0: 92b9 cabb e23d 07bd 0c97 613c e981 d2bc
000000c0: 3401 8bbd 6855 15bd 25f0 41bd cea8 49bd
000000d0: c9bc 763d 6d05 8dbd 0f2b 583c e5a7 ca3c
000000e0: ff2b a0bd aaf7 4a3c 0369 4dbc 703e 9dbb
000000f0: fddf a6bd 434a 3a3d ba52 cf3a 9df6 5f3d
00000100: 19ec a4bd 11b7 adbd e1cf 633d 9ab4 963d
00000110: 8713 303d e48d 88bd 5d45 35bd 2ac4 7b3c
00000120: bb5f e2bc 62fc 153c 3807 b6bc 623a 02bd
00000130: 8c2e dd3c 4f5f 49bc 2343 45bd 677e a93d
00000140: 1f1b 073d bbcb b4bd f5eb 06bd 7c03 7ebc
00000150: 77ff 4c3d 1c41 fabb 0f01 1c3d bd6f 843c
00000160: 7b39 53bd 9a97 8c3d 3885 7dbc 9c9c bcbc
00000170: 54da b23d f690 99bd 96b8 3e3d 2fa7 573d
00000180: 267d 54bd 6a5b 46bc aa8a b4bd 246c e83c
00000190: d18f 2bbd 4fae 8c3d 64bb acbd 12e1 f2bc
000001a0: 225f 1f3d ca3a b03d 93ec 13bc da4c 35bc
000001b0: 7568 c9bb 52e3 aa3d ba24 7cbd 9439 ae3d
000001c0: 515c 713d 3caa a3bd 1126 5a3d a076 813d
000001d0: 94e7 ac3c 6c64 993d e81d 6ebc edc3 99bb
000001e0: 2180 0b3d a7bd 6d3c 6b85 053d 6b9e 1dbd
000001f0: a1a9 a23d 780c 73bd d5f3 263d f0d8 223d
00000200: 966e 91bb b9e3 61bc 44f4 d6bc f88d 3e3d
00000210: 7518 8f3d b028 733c 72ce b03d 2ac9 9fbd
00000220: 58cc 5dbd 3e50 86bd 9f16 b4bd c288 cebc
00000230: 56cf 2fbd 0976 843d 5715 38bd a5e9 a7bd
00000240: 4427 85bd 8e3f e7bc 4d38 e43c 0594 063d
00000250: c41b a6bd 9d80 29bd 3cf5 8dbd 850c 56bd
00000260: 21ed 06bd 4bd2 973d 4e3b 753d 6573 32bd
00000270: b12c 8d3c 7127 a93d 85df 873d a461 413d
00000280: 818d 0a3d 32b8 4f3b 854d 00bd f3d4 a33d
00000290: 7d9d d23c 8f8c b5bc 43dd 5a3d 52e3 9a3d
000002a0: 11a4 4bbc 476e 06bd 12ce e03c 889c 99bd
000002b0: 31e9 50bd f359 813d 9338 6fbd 25ec afbd
000002c0: 81e0 adbd 4746 87bd 2e5f 85bb 0278 0dbd
000002d0: 3dc4 923d af94 363c 7d17 463d 7d51 f53c
000002e0: 1ab6 9f3d 48b0 a23d 50f0 123b 4c3c 883d
000002f0: 9db1 b0bd 0b9b 48ba 7770 00ba 6f29 153d
00000300: 36ee 45bd a168 46bc 209a 6abd 6f4b 12bd
00000310: ec17 26bc 831e 213d 515a 8cbd e7e6 39bd
00000320: 650d 86bb 7115 a33d 8b9c 7fbc f6b8 463d
00000330: 3985 0bbd d5cf c4ba f6e6 853d df31 8e3d
00000340: 2c10 adbd 5b0f d73c 6aae 173d d2da 213d
00000350: d097 f7bc 0003 8d3d 42a5 08bd 0951 303d
00000360: 0965 51bd 80c6 41bc f267 67bd 336a 11bd
00000370: 7864 083d 9053 1b3d 625d ca3c e8c9 b43c
00000380: 1065 7a3d c826 7c3d 8367 48bc 5198 c13c
00000390: c8f6 203d 48bc 5c3d 3457 7fbc 2d41 8e3d
000003a0: a5ef 8e3d 2fd2 ab3d bea6 82bd c532 22bc
000003b0: 5fd5 65bd beca 3f3d 07c8 aebd a0d6 033d
000003c0: 68c4 38bc f2e5 a83c 12ab 62bd 92dc 5bbd
000003d0: 6d38 41bd 51f2 763d c9aa 14bb b215 e43b
000003e0: a29b b0bc 1fca 6a3d 040e 013c b638 09bb
000003f0: 49a5 573c e627 983d fc77 a9bd 526b 2139
