checkpoints/count/seed2/final.pt (torch, 400901 bytes, 7 tensors)

fc1.weight f4 [256, 256]
00000000: 8c3f 1f3d 6a5b 07bd 3ba6 d43c f012 b83c
00000010: 165b e83c d552 f6bc 6da4 76b9 2631 593b
00000020: 2a19 9d3d 3564 e3ba f125 aebb 2f7f 483d
00000030: d94e 383d 4745 283c e126 91bc be9b 4c3c
00000040: 4a64 f83c fa73 1abd 8933 723d 2fb1 04bc
00000050: cdc6 0e3d d54e 1abc 8bfe 9c3c 7f80 79bb
00000060: 1b50 95bc f95c 373d 206f 47bd 0249 4fbd
00000070: 0847 5dbd ef5a 44bd e207 86bd 6f18 543d
00000080: 8b41 283c ac49 1f3d d5dd 2b3c e7de 983b
00000090: 10b6 58bd 53f9 3ebb 02b9 b73c 2bd1 903d
000000a0: 64f1 f9bb 74db 43bd cb1f 4b3d d979 6d3d
000000b0: a348 4b3d 0139 67bd dc08 bdba dd17 81bc
000000c0: f9a1 28bd 76ca a0bc a44f 92bc 29c2 01bd
000000d0: b0e1 1d3d 3326 e13c e536 01bd 8af2 4c3d
000000e0: 3b45 86bc 6aab 18bd 88a9 7abc ef29 8b3d
000000f0: 69b4 593c b1f2 25bd c3ad 6ebc 498f 1b3d
00000100: 13ca e73c bdc0 78bd cd62 303d 470c 6d3d
00000110: bb92 923c 13f5 13bc 5fb1 eb3c d36f b43c
00000120: 51e0 4d3d 5b03 a33c d50d e7bc 47f7 3f3c
00000130: d641 e8bb 0147 8dba 0649 4fbb 2758 4ab8
00000140: d94c 3d3d 4f60 883c 77cd 6a3d 9733 2f3d
00000150: 799c b5bc 2902 32bc 27bd 1c3c 4f89 093d
00000160: 0bd1 893b 0779 a63c cf6c 6bbd a9ea 643d
00000170: 2fc9 73bd 23c7 19bd 9152 4b3d 9953 68bd
00000180: 8b63 763d 6fa4 73bc 7bbf 843b c4b0 a23a
00000190: 4f87 203c df6e af3c 0308 1f3d 5ffc f33c
000001a0: 11e8 353d 8a59 183a d65b e7bb 9571 9abc
000001b0: 3dcc fd3c d96f 94bc 446a b1bb 5fb0 3fbd
000001c0: 95f5 c6bc 516a bd3c 0614 493c 99d7 463a
000001d0: 5fb7 c53c 29f5 4e3d 09e8 ddbc 35ef 60bd
000001e0: b717 d53c db3b 2f3d 056d 893a 7110 133d
000001f0: 8ed8 89bc a752 fb3c b1c3 81bb 2851 7f3d
00000200: 1461 283c 7714 db3a c4f3 563d 1e6b 183d
00000210: d5c9 5a3a 5223 5d3d d8f3 da3c a821 753d
00000220: 600e d0bb 029c 4a3d b4e4 4dbc 030a 7ebd
00000230: e3da 153d 24a6 5a3d f057 c1bc d70f 49bd
00000240: 9875 f5bb 5cfb 493d ef85 433d d2c4 0dbd
00000250: 5eda 793d 3c96 4c3d dac3 63bc 41d5 053d
00000260: b7d6 0abd ea6b 203d 9a1a 77bd 918b c9bc
00000270: 114d 64bd 4217 a43c fd3e f4bc 6d74 803d
00000280: 5c5d 203c ce4d 43bd e965 76bb 9a06 3fbb
00000290: 68fc d7bb 3cd6 573d 51ca e9bb b431 a83c
000002a0: 3701 5bbd fc6a 02bc f7b6 1cbd c347 d23c
000002b0: e737 15bd 3d61 09bd a63a 3c3d 93ad bcbb
000002c0: fa24 72bc ef23 7dbd 5c2c 30bd 0c23 ea3c
000002d0: 413a f6bc 4993 823d a10e eb39 2597 593d
000002e0: 9d0e 7ebc 699a a83c 5a43 743c 1dd7 7c3c
000002f0: dc33 0b3d 0931 3c3d 42d6 a3bc 275e 23bd
00000300: 6262 bf3c 5497 193d 7e3f 893b c4d2 e63c
00000310: f4bf 873c ebac d0bb 642e 4dbd 5c1d 3d3d
00000320: 82a8 1c3d 445d 7d3d 941c 6cbd cefc 4f3d
00000330: b513 563d 748b e2bc 1c8d 9a3c 6671 413d
00000340: 1d9b 62bc d6d3 0d3d 0c0d 773d 28e1 3e3c
00000350: 945a b4bc e420 a7bc 27d7 77ba 1cd8 c13c
00000360: 6b34 3c3c 8f99 553d 2272 0bbd 7c80 9cbc
00000370: 2055 92bb 0ac8 dcbc 6473 743d 02f0 603d
00000380: 6c6b 48bd 7511 613d 8231 023d a8dd 9bbc
00000390: 50b4 223d 8c9a 9a3c f0ef 5abd 2c94 4e3d
000003a0: d081 dcbb 7051 1dbc b7c3 31bd 0060 17bc
000003b0: a855 2dbc ecea 0fbd 70c5 443b 10f6 c3bb
000003c0: 2a46 283d 589f 323c 5a6e 123d ec91 e13c
000003d0: 742f 0d3d 1383 403d 543c f0bc 38ba 563c
000003e0: bc55 e5bc d0cf 6abd bee3 333d 3175 183d
000003f0: 8c18 5b3d 0ea2 743d 3a33 643d 848b b43c
0.038878962 -0.033046164 0.025958171 0.022469968 0.028363746 -0.030068794 -0.00023521642 0.0033140867
0.07670815 -0.001734859 -0.0053145816 0.048949417 0.04499707 0.010270423 -0.017718734 0.012488304
0.030321259 -0.03770826 0.05913118 -0.0080988845 0.03485756 -0.009418209 0.019164344 -0.0038070974
-0.018226674 0.0447664 -0.04868996 -0.050606735 -0.05402282 -0.047938284 -0.06544472 0.051781114
0.010269533 0.03888862 0.010489901 0.004665244 -0.052908003 -0.0029140308 0.022427086 0.070711456
-0.007627653 -0.04781671 0.049590867 0.05797753 0.04962982 -0.056450848 -0.0014422196 -0.01575845
-0.041170094 -0.01962779 -0.017860241 -0.031679306 0.03854531 0.027484035 -0.031546492 0.05003599
-0.016390434 -0.03727285 -0.015299208 0.067951076 0.013287642 -0.04051465 -0.014567795 0.037978444
0.028294599 -0.060730685 0.043062974 0.057873037 0.017892232 -0.009030598 0.0287711 0.022025978
0.050262753 0.019899061 -0.028204838 0.01171667 -0.0070879264 -0.0010778607 -0.0031629219 -4.824265e-05
0.046215866 0.016647486 0.057324853 0.04277381 -0.022169339 -0.010864773 0.009566582 0.033578213
0.004205828 0.020321382 -0.057476815 0.055887852 -0.059518036 -0.037543427 0.04963929 -0.05672035
0.060153525 -0.014870747 0.0040511466 0.0012412299 0.009797885 0.021415172 0.038826 0.029783426
0.04441077 0.0005811682 -0.0070605082 -0.018852988 0.030981177 -0.01811974 -0.005414279 -0.04679906
-0.024287025 0.023121985 0.01227284 0.0007585227 0.02413529 0.05052677 -0.027088182 -0.054915626
0.026012285 0.042781692 0.0010484761 0.03590435 -0.016826894 0.03067906 -0.003960096 0.062333256
0.0102770515 0.0016714473 0.052478567 0.03721153 0.00083461154 0.053988762 0.026727602 0.05984655
-0.00634937 0.049465187 -0.012566734 -0.062021267 0.0365857 0.0533811 -0.023601502 -0.04908737
-0.007490825 0.04931198 0.04773515 -0.03461153 0.060999267 0.049947962 -0.013901675 0.032674078
-0.033896174 0.039165415 -0.060328104 -0.024602683 -0.05573756 0.020030621 -0.029815191 0.062722065
0.009787884 -0.047681622 -0.0037597364 -0.0029148222 -0.0065913685 0.052694544 -0.0071347137 0.020531513
-0.053467955 -0.007960077 -0.038260426 0.025668984 -0.036430266 -0.03354 0.04595437 -0.0057579963
-0.014779324 -0.061801847 -0.043011054 0.028581165 -0.030057075 0.06375749 0.00044833592 0.05312266
-0.015506414 0.020581441 0.014908636 0.015432146 0.033985004 0.0459452 -0.019999627 -0.039884713
0.023362342 0.037497833 0.004188477 0.028176673 0.016571023 -0.0063682697 -0.05009307 0.046170577
0.03824664 0.061856523 -0.05764444 0.050778203 0.052264888 -0.027654387 0.018866114 0.047227286
-0.013830927 0.03462585 0.060315177 0.011650361 -0.022015847 -0.020401426 -0.00094543624 0.02366262
0.011487107 0.052148398 -0.034044392 -0.019104235 -0.004465714 -0.026950855 0.059680358 0.05491639
-0.04893057 0.05494829 0.031785496 -0.019026592 0.03972274 0.018872522 -0.05345148 0.050434276
-0.006729342 -0.009601936 -0.04339954 -0.009239197 -0.010579504 -0.03513615 0.0030024908 -0.0059802607
0.04108254 0.010902248 0.03574977 0.027535401 0.034469083 0.047000002 -0.029325642 0.013105921
-0.027994983 -0.05732709 0.043918364 0.037221137 0.053490207 0.05972486 0.055712916 0.022039182

fc1.bias f4 [256]
00000000: e8d1 06bc b822 843d 03b1 343d 24ab dabc
00000010: 95a3 9e3c 4298 873a c147 a7bc 8a49 823d
00000020: 54cc bbbc 102c 463c be2c 30bd a356 bd3b
00000030: 6049 06bd 266b 183d 517d 6f3d a820 553c
00000040: ef6f 37bd dab5 14bd 69ea e23c 1b77 943c
00000050: 893c 223c a0b9 2c3d da70 6ebc c2e0 603d
00000060: 5f46 31bc a1c0 933c 02dc 813d c10a 433d
00000070: ccfd 023d 625c 353d cd79 7b3b a1ba f1bc
00000080: c5ad f23c ba1a 5b3d edd2 6d3b f322 58bd
00000090: 02b1 3c3d e17c 403d fa75 de3c da5a f83c
000000a0: 0908 11bd 7b34 3cbd de19 00bd ae5d 983b
000000b0: b832 d6bb 3d78 38bd b722 45bd 5637 663d
000000c0: 7efa 313d 56c9 12bb ea7b 213d 89b9 323d
000000d0: 99ba 323d 429f 3abb 621f d4bc 277b c13c
000000e0: a75c 6b3d 8522 ea3c d907 29bd 32a0 30bd
000000f0: d381 81bc 13ca a5bc aa23 a0bc 1501 443d
00000100: 54e7 523d 7188 2bbb 3195 2f3d f41b eb3c
00000110: ccd9 d53c c9e6 0cbd 5fa2 14bd df71 4f3d
00000120: e1f3 8a3c aa73 473d a4cd 433d b6db 793d
00000130: 4c83 343d a955 203d 2384 823c ae38 63bd
00000140: f830 1a3c c9f5 6a3b 0ea6 b3bb 5a47 00bd
00000150: 9c4f 5d3d 82fa 3a3d 9768 853d 370d 92ba
00000160: ff6a 833d 170f 62bc 6040 1ebc 4020 2f3d
00000170: 506d d9bc 78f8 a83b a6d7 743d b52e 45bd
00000180: 79a1 1cbd d6ae 473d c886 34bd 9ceb 40bd
00000190: 174b c33c 09b5 15bd f598 623d 84f4 52bd
000001a0: 3775 1f3d 7204 2b3d 8a29 3dbd 9557 8c3b
000001b0: 54b6 cfbc c296 f03c 8c05 863d ffd8 acba
000001c0: 51dc 53bd 12b9 1abc 02b0 17bd cec8 5b3d
000001d0: d918 9bbc a850 47bc 9b7b 5e3d 6289 6fbd
000001e0: e52b 5f3d 4024 debc 90dd 1c3d 47ae 5c3d
000001f0: 922d 263d a80e 393c aa2d 4f3d f01e bdbc
00000200: 4040 8bbc ef19 9abb 2e67 53bd 2ab6 6bbd
00000210: 9397 6ebc efab 61bd 5e59 a5bb e956 08bd
00000220: e629 b13c a7fe d1bc 24de b1bc c904 a03c
00000230: fbb1 cbbc 3d67 4b3d 3e41 abbc c744 82bd
00000240: 475c 383d 3a4e a53c 5479 16bc 2308 8abd
00000250: 26db 813d b1f8 13bc b798 963b 1591 48bc
00000260: 039c 013d ad98 42bd 9c04 b3bc 3a14 d6bc
00000270: 0841 d1bc d22d 8dbc 6421 f93c 785a b23b
00000280: 5322 923c c5ed 01bc fd40 56bd 84d9 bebc
00000290: 682f 24bd 0e1d c5bc ecfb 1e3d 7524 483d
000002a0: 027d 893b 50cf 69bc 18e8 20bd effe 0f3d
000002b0: 4380 033d 108a 2bbd 2937 7cbd e301 d0bc
000002c0: 41a2 69bd e062 a6bb bea7 51bd a87f 18bd
000002d0: 4dd2 763d e1ae 353c 3479 87bd 3cc1 95bc
000002e0: a708 3a3c cc7d 383d 2c59 0e3d 539c 23bd
000002f0: 80f6 863d e619 1cbd ea1e 7b3c 64f2 ac3c
00000300: db37 8dbc d325 713d 8a61 723d e21f 3b3d
00000310: 9715 4ebc d062 27bd 04c5 b8bc 8b50 263d
00000320: facc 2c3d e9f1 603d 7fb6 adbc 8a7f 593d
00000330: 1c20 4c3d 445f 00bd 40ca b43c d886 56bd
00000340: f25e f03b 6b01 87bd ec92 573d dafc 843d
00000350: 10d8 fdbb 062a 1bbd 0e34 6fbd 762f 54bc
00000360: b4a6 ffbc 7e63 e23c 032f 363d fca0 9cbb
00000370: 3bf7 233c c489 98bc 8a5a 4abd f906 583d
00000380: 1fa4 f4bc 27e3 6b3d d18c 883a c253 2bbd
00000390: a082 32bb 803b e03c c50a da3c 6649 173c
000003a0: 27e3 69bd db76 eabc 740e 593c 328f a03c
000003b0: 2acb 5bbc 4351 063b a7a9 0e3c 0f8f 613d
000003c0: 6c9d 1cbd fd22 233d de9c 28bd 9397 3e3d
000003d0: 803d e7ba 5807 8d3d c210 8d3c ff2a 30bd
000003e0: 0a15 b4bc 3b89 623d cf08 043d d1d3 283b
000003f0: 2d5a ebbc 427b 29bd a577 573d 3a7b 35bd
-0.0082287565 0.064519346 0.044114124 -0.026692934 0.019365111 0.0010345059 -0.020419957 0.06361683
-0.02292458 0.012095466 -0.04301142 0.00577815 -0.03278482 0.03721156 0.05846912 0.013008274
-0.044784483 -0.03630624 0.027699666 0.0181232 0.009902128 0.042169213 -0.014553273 0.054901846
-0.01082 0.018036189 0.06340791 0.047617678 0.03198032 0.044277556 0.003837216 -0.029507937
0.029623875 0.053492285 0.0036289052 -0.052767705 0.046067245 0.046994094 0.027155865 0.030316759
-0.035408054 -0.045948487 -0.03127467 0.0046498394 -0.006536808 -0.045036543 -0.04812881 0.056205116
0.04345178 -0.0022397838 0.039424814 0.04363397 0.043634985 -0.0028476273 -0.02589387 0.023618294
0.057461407 0.028580913 -0.04126725 -0.043121524 -0.015808975 -0.020237958 -0.019548256 0.047852594
0.051490143 -0.0026173855 0.04286689 0.028699853 0.02610483 -0.03439978 -0.03628766 0.050645705
0.016961994 0.04869429 0.047803536 0.06100055 0.044070527 0.039144192 0.015932148 -0.055473976
0.009411089 0.0035852066 -0.0054824417 -0.031318046 0.054031 0.04564906 0.065140896 -0.0011142854
0.06416892 -0.013797543 -0.009658903 0.042755365 -0.026541382 0.005156573 0.05977597 -0.048140246
-0.03823993 0.04875072 -0.04407385 -0.047099695 0.023839517 -0.0365496 0.055321652 -0.05150272
0.038930144 0.041752286 -0.046182193 0.0042829015 -0.025355496 0.029368762 0.06544027 -0.0013187228
-0.051723782 -0.009443538 -0.03703309 0.0536583 -0.018932747 -0.012165226 0.054317098 -0.058480628
0.05448522 -0.027116895 0.038297236 0.05387714 0.040570803 0.011294998 0.050580658 -0.023086041
-0.01699841 -0.0047027986 -0.05161207 -0.057546772 -0.014562505 -0.05509561 -0.005046054 -0.03328601
0.021626424 -0.025634123 -0.02171237 0.019533532 -0.024865141 0.049659003 -0.020905133 -0.063607745
0.045009878 0.020178903 -0.0091842 -0.06739833 0.06340627 -0.009031461 0.0045958417 -0.0122416215
0.031642925 -0.047508884 -0.021852784 -0.026132692 -0.025543705 -0.017233763 0.03041143 0.0054429136
0.017838633 -0.007930224 -0.05230807 -0.023297079 -0.040084273 -0.024061706 0.03881447 0.048862893
0.0041958103 -0.014270619 -0.03928384 0.035155233 0.03210474 -0.041879714 -0.061576042 -0.025391525
-0.057039503 -0.005077705 -0.051185362 -0.037231117 0.060259152 0.011089058 -0.066149145 -0.018280618
0.011354602 0.045041844 0.03475301 -0.039944004 0.06589985 -0.038110636 0.015327195 0.021111675
-0.017238548 0.058873963 0.05917505 0.045684703 -0.01257839 -0.04086572 -0.022554882 0.040604156
0.04218767 0.054918204 -0.021205185 0.053100146 0.04983531 -0.031340852 0.022069097 -0.05237469
0.007335537 -0.06592067 0.05263035 0.0649354 -0.007746704 -0.037881874 -0.058399253 -0.012950769
-0.03120742 0.027635332 0.044478428 -0.004779933 0.010007675 -0.01862038 -0.04940275 0.052741025
-0.029863415 0.057589676 0.0010417943 -0.041827925 -0.0027238503 0.027372122 0.026616463 0.009233808
-0.057101395 -0.028621128 0.013248075 0.01959953 -0.013415137 0.0020495213 0.00870744 0.055068072
-0.038236067 0.03982829 -0.041165225 0.04653127 -0.001764223 0.06886166 0.017219905 -0.043009754
-0.021982688 0.055306654 0.032234963 0.0025761018 -0.028729523 -0.041377313 0.052604336 -0.04430697

fc2.weight f4 [128, 256]
00000000: 4889 23bd b544 e6bc 9f20 0e3b 0eb1 18bd
00000010: fd16 5abd ae76 5e3d d796 47bd 5f82 5abd
00000020: 54bc 98b9 0046 fd3a 0822 233d dccd 01bd
00000030: ba28 16bc f2b5 04bd 0e0a 493d bc7a a8bc
00000040: e8a4 2f3b 644c 50bc 91db 51bd e818 ccbc
00000050: 0156 243c b9af 103d cc64 febc e15b 5cbb
00000060: fe6d 5a3d 8c2a 21bd 3741 0bbd 6106 42bd
00000070: b6cc 53bd a668 533d b9d5 6cbc 095b ba3b
00000080: e1ab 8a3d 516c 7d3d bb67 9bbc 16fb 203d
00000090: e624 443d 1403 cd3c 68f2 2cbb a955 b8bb
000000a0: 94d5 c4bc 24d4 8f3d 89b7 aebc 6f12 abbc
000000b0: f2c0 393d 5245 45bd 086f 233d 9e71 733c
000000c0: 3607 123d 0321 633c 905d f4bc 5265 1d3d
000000d0: 1c96 d83c 4f98 2bbd 44b9 113d 07f4 b63c
000000e0: 110b f93c 8fb8 303d 64bf 1ebd 0855 3a3c
000000f0: a91b 17bd 47b6 d6bc 5069 02bd 5db5 f53c
00000100: 2a6e d6bc 3448 493d eb43 f53c 86c4 463d
00000110: 96d3 a13b 322a d3bb d9bb 5cbd 020d 2dbd
00000120: 747e 42bd 5558 1dbc 7a7e 5abd ed5c 0f3d
00000130: ae51 69bb dc49 503d 450b b6bc 6401 b3bc
00000140: 0639 83bc 627e 6c3c 76f3 ec3c e01c 61bd
00000150: 6cc5 dbbc 5da6 823d 5747 c6bc 9e82 663d
00000160: ff3d 8b3d 1034 713d 0d59 bd3c 4abd be3c
00000170: 84a2 413d 9ea1 a9bc f22c 0f3d b4af 843d
00000180: 6eea 3cbc 6ca9 69bd 6393 a7bc 50c8 383d
00000190: 58fb 5dbd 0b76 ce3c 5d70 263d af2c 823a
000001a0: 104a f23c 1ba5 39bd 0e2f 07bd 7b85 1d3d
000001b0: 5728 6ebd 0ba5 30bd 2348 403d ae58 5cbd
000001c0: 564c c6bc 89c3 26bd 6eba f3bc 4731 a4bc
000001d0: 596e 2d3d bc44 023d d2ed 653d 582d d4bc
000001e0: f8b7 51bd e017 cdbc 2d8e 6b3d bb70 4c3d
000001f0: cbbd a43c 01dc 10bd 1953 0f3d e037 0dbd
00000200: ce23 3e3d 4535 373d f8b3 983c ec66 e13b
00000210: 0361 19bd cf87 ae3c 3dd3 0abd cfad acbc
00000220: 48bc 4fbd 7f31 3fbd 0cd3 1ebd f627 5ebd
00000230: c6c5 70bc 3df0 4c3d 5a1a 0abc fae4 25bd
00000240: 617d 0f3c a961 2e3c 4549 78ba 03b4 27bd
00000250: 1cc8 243d ae9f ac3c 6769 debc 0cf7 683d
00000260: e7d7 fe3b 5b90 fd3c 8407 e5bc 9554 49bd
00000270: d406 a7bc d629 9d3c d952 503c eeef 49bd
00000280: ddea 91bc ad95 3bbd 3356 523d a4ab 9c3c
00000290: 7965 493d 364e 0a3d 6778 643c 6e0d 2ebd
000002a0: 0f3a 51b9 6afe aebc 9cc6 6f3c 8c94 dbba
000002b0: 782c 763d 447f 4e3d 86fe 95bc bd3f b9bb
000002c0: 332f 22bd 147b 493d b486 d73c 137a 0a3d
000002d0: 5498 09bd c4c1 1c3d 2400 6d3d e85d 733d
000002e0: 5d41 513d f04b 3ebc ffb4 d7bb dea0 9b3a
000002f0: 67e9 133c a0e8 b9bc 0729 093d 5f8d d8bc
00000300: 4d79 453d 199f 413d e896 823d 403c 2f3d
00000310: bdf0 24bd 7be2 543d 309a 3b3c 3478 8dbc
00000320: a0fe efbc b98f 663d c5b2 53bd 3eeb cbbb
00000330: 6fca 773d 9dac 783d 8123 323d 5ab7 0cbd
00000340: acd8 d23c c3e4 b93c 2b8e 5d3c 9c6a 6d3c
00000350: b09c f23c 0906 91bc a836 453d ca79 c43c
00000360: 7e23 043d d2f3 47bd f02c 493d 513d a0bb
00000370: 6fe0 4fbd 401a 613d bc9d 793d 484f 9ebb
00000380: 12d5 573d eed4 5f3d d6f8 acbb 6044 4f3d
00000390: 3f8f afbc c37f 663d 0b99 203d bf17 3a3c
000003a0: b009 033d 1a39 053c 33e3 3a3c 654b 5a3d
000003b0: b18e 29bc 1113 653d ad0a 2cbc 14bb 82bc
000003c0: 4073 143d 6750 9339 4309 17bc 9b2b 8cbc
000003d0: 86af 093d eec0 753d 8519 cc3c 3947 103d
000003e0: d8d2 9abc 1aec 30bc 5d54 70bd be58 9cbb
000003f0: 79cb 193d 4907 a5bb 1ab5 293d eeed 8cbc
-0.039925843 -0.028108934 0.0021686924 -0.037278228 -0.05324458 0.0543124 -0.048727836 -0.053346988
-0.00029132015 0.001932323 0.039827377 -0.031690463 -0.009164983 -0.03240008 0.049081855 -0.020566337
0.0026801173 -0.012713525 -0.051234785 -0.02491422 0.010030271 0.035323832 -0.031053923 -0.00336241
0.053327553 -0.039347216 -0.03399774 -0.047369365 -0.0517089 0.051613472 -0.014455252 0.005687122
0.067710645 0.061870877 -0.018970361 0.039301954 0.04788675 0.025025882 -0.0026389603 -0.005625446
-0.024027623 0.070228845 -0.02132775 -0.020882813 0.045350023 -0.048161812 0.03990081 0.014858631
0.035651408 0.013862851 -0.02982977 0.038426705 0.026438765 -0.0418933 0.035577074 0.022333158
0.030400785 0.04314476 -0.038756743 0.011372812 -0.036891613 -0.026209963 -0.031838715 0.029993707
-0.026175577 0.049141124 0.029939612 0.048527263 0.004938553 -0.006444239 -0.053890083 -0.042248733
-0.047483876 -0.0096035795 -0.053343274 0.03500073 -0.0035601663 0.050851688 -0.02222217 -0.021851249
-0.016018402 0.014434429 0.028924685 -0.054959178 -0.026827537 0.063793875 -0.02420394 0.05627691
0.06798934 0.05888754 0.023113752 0.02328362 0.047274128 -0.020706948 0.034954973 0.06478825
-0.011530502 -0.05704634 -0.020456022 0.045112908 -0.05419478 0.025202772 0.0406345 0.000993153
0.029576331 -0.045323472 -0.03300386 0.038457375 -0.05814394 -0.043126147 0.046943795 -0.05379551
-0.024206322 -0.04071382 -0.029751983 -0.020043029 0.042341564 0.03180383 0.056135006 -0.025900528
-0.051200837 -0.025035799 0.057508636 0.049912196 0.020110032 -0.035366062 0.034991357 -0.034477115
0.046420865 0.044728536 0.018640503 0.0068787243 -0.037446033 0.021304993 -0.03389286 -0.021078972
-0.05071667 -0.046678063 -0.03877549 -0.05423733 -0.01469559 0.050033797 -0.008429134 -0.040501572
0.00875792 0.010643401 -0.0009471367 -0.040943157 0.0402299 0.021072235 -0.02714987 0.056876227
0.0077772024 0.030952623 -0.027957685 -0.04915293 -0.020388998 0.019184988 0.012715065 -0.04930108
-0.017812187 -0.04579704 0.051351737 0.019124813 0.049169037 0.033765994 0.013944722 -0.042493276
-0.00019953422 -0.021361548 0.0146347545 -0.0016752644 0.060101002 0.05041434 -0.018309843 -0.00565335
-0.039595794 0.049189642 0.026309349 0.033807825 -0.033592537 0.038270727 0.057861462 0.059415728
0.051087726 -0.011614785 -0.0065828557 0.0011873504 0.009027815 -0.022693932 0.033486392 -0.026434598
0.048211385 0.047270868 0.06376439 0.04278207 -0.04026865 0.0519738 0.011450335 -0.017269231
-0.02929622 0.05628941 -0.05168416 -0.0062231114 0.06049579 0.06071149 0.04349089 -0.034354545
0.025738083 0.02269209 0.013522665 0.01449075 0.02961573 -0.017703073 0.048147827 0.023983855
0.03226041 -0.04881651 0.04911512 -0.004890122 -0.050751146 0.054956675 0.060941443 -0.0048312284
0.052693434 0.054646425 -0.005278687 0.050602317 -0.02143061 0.056274187 0.039208453 0.011358201
0.03199166 0.00813129 0.011406708 0.053294558 -0.010348962 0.055926386 -0.010500592 -0.015958346
0.036242723 0.0002809793 -0.009218517 -0.017110636 0.033614658 0.059998445 0.024914512 0.035224173
-0.018899366 -0.0107984785 -0.058674205 -0.004771321 0.037547562 -0.005036269 0.041432478 -0.017203297

fc2.bias f4 [128]
00000000: 6fa5 223d 9140 d3bc 5eb1 153d 7fcb 60bd
00000010: fc62 61bd e4ff aebc 7144 0f3d 6af8 53bd
00000020: 82c4 a0bc 8c68 bbbc 19af 19bd ba11 f4bc
00000030: 20fd 13bd 645c 6bbd c5ca d4bb 03be 0abb
00000040: f81a 57bc 8392 aa3c 1bab 3e3d 19ee 853d
00000050: 13b4 cabc 1515 003d 80db 813c 8b44 f0bb
00000060: eff7 50bd 3590 833d da98 f3bc 2f14 c9bc
00000070: 3050 ff3b 171e 3b3d 3c0f d33c dc1f fdbc
00000080: 20c5 5fbc efec d33c a7da f03c e705 54bd
00000090: 61cd 4d3d bd7b 5d3d ba7f 16bd b0b7 20bd
000000a0: 9414 293d bc84 23bd e2e7 08bd 0fdc af3c
000000b0: f9a0 4e3d 0872 21bd f225 4d3b 678f d5bc
000000c0: b033 5d3c 95bc fe3c fee9 353c 3cda cdbc
000000d0: 9a57 ef3c 8b37 453d 0651 f33c f0a2 293d
000000e0: fca1 4c3d eab6 54bd a6bb 7b3b 39da 883c
000000f0: 589f bb3c 246e b6bb 7366 25ba c87d 8c3b
00000100: 57d9 0ebd a4bc c43c 91cc 873c 3638 2bbc
00000110: 45b2 6ebc 2390 53bd 6f14 40bb 8c4a 6cbd
00000120: 6a2e 28bd 89a8 73bc bcfb 82bc dabb 3ebd
00000130: e45b 693d 6e97 b53c 8d90 373c 82f1 6fbd
00000140: ffca 453d fa7c 34bc 19d0 183c 9f34 e53b
00000150: 0077 e23b 79f6 97bb 91f9 4c3d ed7b 56bc
00000160: 6ec5 03bc 7834 32bd 7b17 cc3c c0b1 1abb
00000170: 6620 3bbd d091 873c bb92 453d 45e4 503b
00000180: 63c0 a3bb 84f2 2a3d 09e1 b33c 6ce8 7fbd
00000190: 4edd 653d 5ef8 693d 5051 7abd 7c7f 523b
000001a0: 3902 62bd 8781 1dbc 538a 753c dbd4 38bd
000001b0: f678 0b3d b0e3 0abd e3fe 843d 0cae 1fbd
000001c0: f846 f6bb f160 3dbd 2934 64bc 4ce8 2cbd
000001d0: 64aa 50bd f349 523d 0c04 cdbc c6f5 13bd
000001e0: 3abe 5939 907d dbbc 405c c6bb e1ff 16bb
000001f0: 01ff 4b3d b1b6 29bd 7cfa 44bd e4ed 68bd
0.03970855 -0.025787624 0.036546104 -0.05488157 -0.05502604 -0.021362253 0.03497738 -0.051750578
-0.019624952 -0.022877 -0.0375205 -0.029793609 -0.03613007 -0.057461157 -0.0064938986 -0.0021170385
-0.013128988 0.020821815 0.046549898 0.06539554 -0.02474407 0.031270105 0.015851736 -0.0073323897
-0.051017698 0.0642399 -0.029735971 -0.024545757 0.0077915415 0.045682993 0.0257641 -0.03089898
-0.013657838 0.025869815 0.029401137 -0.05176344 0.050244693 0.054073084 -0.036742903 -0.039237678
0.04127939 -0.039921507 -0.033424266 0.021467237 0.050446484 -0.03941539 0.0031303135 -0.026069356
0.013501093 0.031095782 0.011103151 -0.025128476 0.029216576 0.048148673 0.02970172 0.041415155
0.049959168 -0.051932253 0.0038411408 0.01670562 0.02290313 -0.005567329 -0.00063095166 0.004287455
-0.03487524 0.024015732 0.016577037 -0.010450413 -0.01456887 -0.05165113 -0.0029309054 -0.05768828
-0.04105989 -0.014871725 -0.015989177 -0.046565868 0.0569724 0.022166934 0.011203897 -0.05857993
0.048289295 -0.011016125 0.009326958 0.0069947983 0.0069111586 -0.004637536 0.050042693 -0.01309107
-0.008042676 -0.04350707 0.02491354 -0.0023604482 -0.045685194 0.016549021 0.048235636 0.003187434
-0.0049972995 0.041735187 0.021957891 -0.062477514 0.056119256 0.057121627 -0.061112702 0.0032119444
-0.0551779 -0.009613401 0.014986592 -0.04512487 0.034050904 -0.033908546 0.06493928 -0.038984343
-0.0075157844 -0.04623503 -0.013928452 -0.042213723 -0.050943747 0.051340055 -0.025026344 -0.03612306
0.00020765598 -0.026793271 -0.0060534775 -0.00230407 0.049803738 -0.041433994 -0.048090443 -0.056867495

actor.weight f4 [4, 128]
00000000: 891b b53d ed44 783c 96bc bc3c e347 5abd
00000010: bcc1 aabd 7659 04bc e4a9 343c 8588 82bc
00000020: 2a48 bebc e7da b33d 1b65 763d 0372 a23d
00000030: 9fcb a9ba 7550 d2bc 9d87 86bd 450d ee3c
00000040: de81 e7bc 136f 233b 51f8 8cbb 45d0 f23c
00000050: ab98 35bc 794e 9e3d 9b96 9fbc f582 66bd
00000060: 15a4 1b3d 737a b23d 9d38 93bc e6d1 663d
00000070: b682 4c3d b6cf 9e3d 49bf 0dbd 536c a33d
00000080: 74b0 b33d b64a 77bd 4b9a 633d 1130 933d
00000090: 7a8c 8c3d 81a0 69bc a5f4 83bd ed75 8c3d
000000a0: 2067 cfbb 19e4 a3bd 97d6 12bc 88fd 6cbd
000000b0: 57d7 993c 6a5f 8b3c 8028 ba3d e3d1 383d
000000c0: d184 d03b 19bb 82bd 37cc 1abd fdb7 733b
000000d0: 5106 343d 08e6 bf3d 4492 0ebc 8ead 60bd
000000e0: 4f4f babc 8ae5 903d 2667 2e3c ee1f 0cbd
000000f0: 59c0 743d d9b9 91bd d746 20bd 05d5 a3bd
00000100: 324f ffbc eb00 273d 8d8b 10bd cfff e3bc
00000110: 3cc2 2f3d 92f9 77bd bf19 073c 92c8 38bd
00000120: a01c 2cbc 9514 79bd 0b98 a83d bb7d 453d
00000130: 9216 44bc 846b a83d 07e9 783c 10be b0bd
00000140: 9893 9bba 08bf d1bc 189b 30bd 5bf5 81bd
00000150: 0cc1 0ebd ed84 963d b9f5 ab3d 288b d4bc
00000160: f346 103d 4f8a 8b3d 1230 1cbd 31b8 bbbc
00000170: 7ca0 063b cd4b 11bd 1c91 7bbd 7b42 8b3d
00000180: 62ca 533b 40ba 1dbd 284a 78bd 56e9 b73c
00000190: b430 983c 374d 04bd c0ba 3e3d 9435 f4bc
000001a0: 6be6 6538 2804 8d3d 0b0a 9fbc 6a3a 003d
000001b0: 5705 46bd 7f49 34bd bb70 a53d c29e 80bc
000001c0: 3171 103b ab3d 453d 082f 9f3d eda9 063d
000001d0: 0eee 45bd 6fcf 25bd 598c 95bd d2da e7bc
000001e0: e1ff 093d 9d1c 6b3c 5b07 e8bb a697 be3c
000001f0: b74f 863d da90 393d bd53 92bd 9b77 313c
00000200: 23cc 9dbb 0af6 263c 2d8f 1d3d f057 31bd
00000210: 4836 b83d 8116 59bd c746 a3bd 5a8c 49bb
00000220: cc67 933d 31b0 75bc c611 cdbc 4264 48bd
00000230: 5f4e 2e3c 95ec 9d3c 4865 babd eb87 9dbc
00000240: af08 223d d9a9 f1bc 4dff 3c3d c106 5ebb
00000250: 645c 4abd 472a 3ebc 2091 403d 13b8 aa3d
00000260: c565 853c 7258 a53d 246c 14bd aa43 a7bd
00000270: 7f14 7f3b c1cc 203d 923e d5bc 4ad5 fc3c
00000280: 72ee 98bd db93 79bd 1681 ae3d e560 973d
00000290: 446f a43d 9980 7fbc 292f a2bd 304b ae3d
000002a0: a880 87bd 5b6e 4ebd 4744 48bd de72 313d
000002b0: b28b a5bc 000d 96bd d49d 963d 4799 3b3d
000002c0: 02cd 7e3c 0705 92bd bae1 ee3c 4b2d 113d
000002d0: f3e7 86bd ba34 133c b5b9 9c3d ab98 253d
000002e0: b4e8 a43d 0812 563d 449a 123d b4da a13c
000002f0: d0d0 8d3d 5f8d 98bd 99ea b1bd 798b ba3c
00000300: 3024 a03d 1789 643c 9c40 f3bc 203a 09bd
00000310: b77e 0f3c 3bb8 7abc b01f 8ebc a6c5 3bbd
00000320: 3982 623d f575 043d 98aa e53c fc46 af3d
00000330: 51bd 763d 3f86 2e3d f534 093d 2e8d 39bd
00000340: 0e68 cabc 4830 923a 4b24 c1bd 39b2 84bd
00000350: 7bf5 043d fc47 083d 36d1 9dbd 0069 d83c
00000360: 6a5e 2fbd 87a7 8ebd cf06 9b3d 8d92 fcbb
00000370: e7ce 2c3d fc8c 023d 98f6 5cbd e9d5 9dbd
00000380: 48da 56bd 06a3 313d faa0 503d 836f 5d3d
00000390: 5412 abbd cfba 533d efe2 83ba 29fb d43c
000003a0: 6668 8dbd 709b 3a3d 5657 473c a11c 40bd
000003b0: 492c 44bc 87ea eeba 900e babd a6fc b7bb
000003c0: dd06 90bd 5d47 b2bd e91e 50bd b870 95bc
000003d0: 89af 643d 2dcd a13d a8ee 443c 0850 a73d
000003e0: 1436 d43c 3448 7cbd be0e 803d 98c6 d0bb
000003f0: 38dd 963c 724b 6f3c a4c8 b5bb 9410 92bd
0.088431425 0.015153152 0.023039144 -0.053291213 -0.08337733 -0.00807797 0.011026833 -0.015934238
-0.02322777 0.08781987 0.060155015 0.07931902 -0.001295436 -0.02567313 -0.06568835 0.029059062
-0.028260168 0.0024938032 -0.0043020626 0.029640326 -0.011083762 0.07729811 -0.019480994 -0.056277234
0.037998278 0.087147616 -0.017971331 0.05635252 0.049929343 0.077544615 -0.034606252 0.079796456
0.0877389 -0.060373984 0.055567067 0.07186902 0.06862731 -0.0142594585 -0.064431466 0.0685843
-0.006329432 -0.080024906 -0.008962295 -0.057858974 0.01877944 0.01701327 0.09089756 0.04512204
0.006363489 -0.06383342 -0.03779241 0.0037188523 0.043951336 0.09370047 -0.008701865 -0.054853015
-0.022742895 0.07075031 0.01064471 -0.034210138 0.05975375 -0.07115526 -0.03913006 -0.079996146
-0.031165693 0.04077236 -0.035289336 -0.02783194 0.042909846 -0.060540743 0.008245884 -0.045113154
-0.010504872 -0.060810644 0.08232125 0.04821561 -0.011968272 0.08223632 0.015192277 -0.086300015
-0.0011869548 -0.025603786 -0.04311666 -0.06345626 -0.034852073 0.07349572 0.08396477 -0.025945261
0.035223912 0.0681349 -0.03813178 -0.022914978 0.0020542433 -0.03547268 -0.061417684 0.067997895
0.0032316674 -0.0385077 -0.060617596 0.02245013 0.018577911 -0.0323002 0.046564817 -0.029810704
5.4812448e-05 0.06885558 -0.019413969 0.031305708 -0.048344936 -0.044015404 0.08078142 -0.015700702
0.0022040124 0.048154514 0.077726424 0.032876898 -0.04832273 -0.040481027 -0.0730216 -0.028302584
0.03369129 0.014350084 -0.007080955 0.023265671 0.06558173 0.045304157 -0.07144878 0.010831739
-0.0048155948 0.010190496 0.03846662 -0.043296754 0.08994728 -0.052999977 -0.07972484 -0.0030753822
0.07197532 -0.014995621 -0.02503289 -0.04892374 0.010638802 0.01927785 -0.09101349 -0.01922985
0.039559063 -0.029499935 0.04614191 -0.0033878537 -0.049404517 -0.011606759 0.047013402 0.083358906
0.016283879 0.0807351 -0.036235943 -0.08167203 0.0038922129 0.03925777 -0.026030812 0.030863423
-0.07467355 -0.06093202 0.08520715 0.07391528 0.08029035 -0.015594625 -0.07919151 0.08510435
-0.06616336 -0.050398212 -0.04889324 0.043322437 -0.020208213 -0.07326698 0.07354322 0.045800474
0.015551807 -0.07129865 0.02916037 0.035443585 -0.065872096 0.008984739 0.07652608 0.0404288
0.08052197 0.05226329 0.03579165 0.019757606 0.069245934 -0.074488394 -0.08687324 0.022771584
0.07819402 0.0139487 -0.029693894 -0.033502698 0.0087582385 -0.015302713 -0.017349094 -0.04584279
0.05529997 0.032339055 0.028035447 0.08558461 0.06023914 0.042608496 0.03349777 -0.045300655
-0.02470782 0.0011153305 -0.094307505 -0.06479306 0.03246067 0.033271775 -0.077059194 0.026417255
-0.04281465 -0.06965547 0.07569658 -0.0077079 0.042189505 0.031872734 -0.053946108 -0.07706816
-0.052454263 0.043368362 0.05093477 0.054061424 -0.08353105 0.051691826 -0.0010062138 0.025998669
-0.06904678 0.045558393 0.012166819 -0.046902303 -0.011973449 -0.0018227854 -0.09084809 -0.005614835
-0.07032559 -0.08705018 -0.05081073 -0.018242225 0.055831466 0.07900462 0.012019791 0.081695616
0.025904693 -0.061592296 0.06252812 -0.0063713305 0.018416032 0.01460539 -0.0055476 -0.07132068

actor.bias f4 [4]
00000000: 14a1 433c 0aac 04bd 5a54 323c 0098 973d
0.0119402595 -0.03239063 0.010884369 0.074020386

critic.weight f4 [1, 128]
00000000: b953 503d d4b8 1b3d de64 ff3c 79e9 71bd
00000010: f9b9 ca3c 6ca3 81bd f156 683d f36a a7b8
00000020: 4fa7 8e3d cf31 be3d 12d3 5abc 5014 01bd
00000030: adfb 023d 1b6b f3bc 84c3 b23d a592 9e3d
00000040: 0a9a 5b3d 3c83 033d a883 613d e042 9a3d
00000050: 14cd abbd 6fd8 32bd 6a93 97bd 1364 38bc
00000060: 3b77 b63d 2ec1 a83d 9587 713c 8183 f1bc
00000070: 2995 6f3d 6fcd 4abd b7f9 bdbc da67 95bd
00000080: ada4 e7bc df30 43bd b52d 78bd 215f 86bd
00000090: 5dce 86b9 85a3 a83c 8443 44bd c299 acbc
000000a0: 812a 89bd 9815 9fbd 5d54 813d 7b2a 89bd
000000b0: fe12 87bd da18 30bd ac8b 803d bf69 0c3d
000000c0: 09de 2cbd d0c9 3b3d 3d29 2abd 15fb a7bd
000000d0: 1b7a a33c 45cd 893d 92da f7bb 6fd7 673c
000000e0: 27b6 093d 8165 41bc 7142 0ebd 3202 fb3c
000000f0: e047 2d3d 11c8 8dbd f0cd 633d ae94 843d
00000100: db5b 903d 175e 5fbd 27f0 733d d9ae 063c
00000110: e241 de3c 675f 1a3d 661e 5b3d acfb 853d
00000120: a143 4f3d 6443 00bd a833 19bd fce3 61bd
00000130: b467 17bb 9bed f33c edcc bf3d 7358 69bc
00000140: 4f17 fdbc 6f24 06bd 6bd9 903c f20f 9e3d
00000150: b7d1 19bd 3ff1 eabc 6694 93bd 603d 843c
00000160: d089 60bc 2e95 92bc 7f3a 99bc d3c3 913d
00000170: cf97 79bd c817 ab3d b825 a6bd 0de9 f13c
00000180: bbdb d9bb 0bf1 9b3d 7f68 1f3d faf3 8abb
00000190: 804f e53c 4e44 ca3c 4b6c 903d c146 c03c
000001a0: d7ad 543d c3f1 443d 7c10 73bd 6dd7 0d3d
000001b0: 626e 093d ace6 bf3d 1316 bd3c e6ae 7a3d
000001c0: c41f 8fbd 1c8d 843c 7f74 41bd b1fb 4e3c
000001d0: ea67 873d 82c0 4f3d 01f6 4aba 5656 9e3d
000001e0: 7e80 51bd c9eb ab3d da65 2b3d d977 1fbd
000001f0: 4387 13bd 9a80 8abd 560c 01bd 3ebd 86bc
0.050861094 0.038018063 0.031176027 -0.059060548 0.024746882 -0.063299984 0.05672354 -7.9831014e-05
0.06965505 0.09286844 -0.013355987 -0.031513512 0.031978298 -0.029714158 0.08728698 0.07742814
0.0536137 0.032107577 0.055057198 0.07532287 -0.08388725 -0.04366344 -0.07401164 -0.011254328
0.0890946 0.08239971 0.014741798 -0.029481651 0.05849186 -0.049512323 -0.023190362 -0.07295199
-0.028276766 -0.04765403 -0.060590465 -0.06561113 -0.00025712224 0.020585785 -0.04791595 -0.021069411
-0.0669756 -0.077677906 0.06314919 -0.06697556 -0.06595419 -0.04299245 0.0627664 0.034280535
-0.042203937 0.04584676 -0.041543234 -0.08202187 0.019955685 0.06728605 -0.0075638974 0.014150484
0.03362098 -0.011803986 -0.034731332 0.030640695 0.042304873 -0.06922925 0.05561632 0.06473671
0.0704877 -0.05453309 0.0595552 0.008220398 0.027131025 0.03768864 0.053495787 0.06542143
0.050601605 -0.03131427 -0.03740278 -0.055149063 -0.0023102583 0.029776385 0.09365258 -0.014242279
-0.030894903 -0.03274959 0.017681798 0.07717885 -0.037553515 -0.028679488 -0.07206039 0.016142547
-0.013704732 -0.0178934 -0.01870465 0.07117429 -0.06093579 0.08354145 -0.08112663 0.029530073
-0.0066485084 0.07614335 0.038918015 -0.00424051 0.02799201 0.024690773 0.07051905 0.023471238
0.0519236 0.048082124 -0.059341893 0.034629274 0.033552535 0.09370169 0.023081815 0.061201952
-0.06988481 0.016180567 -0.04723024 0.01263325 0.06611617 0.0507207 -0.0007742346 0.07731311
-0.05114793 0.08394582 0.04184518 -0.038932655 -0.036017668 -0.0676281 -0.031505905 -0.01644766
