checkpoints/icm_planner/seed0/final.pt (torch, 870123 bytes, 19 tensors)

fc1.weight f4 [256, 256]
000000 d0 a6 44 3d e8 b3 6e bd 3f 87 a7 3c b8 1a 66 3c
       0.048010647 -0.05827704 0.020450233 0.014044456
000010 62 dd 0b 3d e0 dc 26 3c 16 f4 77 bd 20 ea c9 bb
       0.034146674 0.010184497 -0.060535513 -0.006161943
000020 52 8f 01 3d 4d 4d 85 3a 03 bf 09 3b ca b9 34 3d
       0.03163082 0.0010170132 0.0021018393 0.044122495
000030 f4 db 97 bc 80 70 14 3a 24 7b ae bc 40 19 34 3d
       -0.018537499 0.0005662516 -0.021298952 0.043969393
000040 b3 f8 e0 3c 09 90 22 bd df 5f 64 bd dc 2b 8d bc
       0.027462339 -0.039688144 -0.055755492 -0.017232828
000050 09 f1 60 3d b4 c2 30 bd 70 34 9a 3b ae 58 7d 3d
       0.05491737 -0.043154433 0.004705958 0.06185215
000060 8f e3 4a bd ad 45 0c bd 6e 0a 3f bc 77 06 0b bd
       -0.049533423 -0.034246136 -0.0116602015 -0.033941712
000070 b7 89 30 bd 56 8f 66 bd 5c 26 21 3d 74 70 7e bd
       -0.043100085 -0.05628904 0.039343223 -0.062118962
000080 87 ab fe bb f6 57 f5 3a 6e ed 7f 3d 3d 91 06 3d
       -0.0077719125 0.0018718231 0.06248229 0.032853354
000090 c6 b2 45 3d 05 fb 3f 3d c8 a4 4f 3c f4 6f 48 bd
       0.048266195 0.04687025 0.012673564 -0.04893489
0000a0 95 52 4e bc 44 bc 1a 3d a8 9e 8b 3c 4f 15 27 bd
       -0.012592931 0.0377772 0.017043427 -0.040791806
0000b0 03 1a 26 3d af 70 f4 3c 86 54 f7 3c 60 e1 03 3d
       0.04055215 0.029838888 0.030191671 0.032197356
0000c0 09 4b 7f 3d 99 57 74 3c 06 af b5 bc fa b9 77 3d
       0.06232742 0.014913463 -0.022178184 0.060480095
0000d0 d6 e2 06 bd 1b bb 7a bd d5 00 26 bb 9a 67 74 bc
       -0.03293117 -0.061213594 -0.0025330086 -0.014917279
0000e0 cd d4 ed bc 18 28 35 bd c3 20 fd bc 39 f9 66 bd
       -0.029032135 -0.04422769 -0.030899411 -0.05639002
0000f0 82 19 b9 3b 9c 0a e3 bc 41 76 6d bd c7 80 67 bd
       0.0056487927 -0.02771502 -0.057974104 -0.056519296
000100 63 a7 9a bc af 10 47 bc 57 31 74 bc d1 2b 89 ba
       -0.018878644 -0.012149974 -0.014904342 -0.0010465329
000110 65 a1 2b bc ee fd 5f bd a7 91 58 3c b5 d1 70 3d
       -0.010475491 -0.054685526 0.01321832 0.058793742
000120 0e c4 a4 3c 96 d7 a1 3c ad 5f d7 3c f6 da 99 bc
       0.020113017 0.01975612 0.026290739 -0.018781167
000130 27 2b 5b 3c df 4a b3 bc 7f 29 36 bc 71 a8 28 3d
       0.013376988 -0.021886287 -0.011118292 0.041176263
000140 fd 09 aa bb 77 2b 50 3c d7 8a 9e bc f0 55 5f 3c
       -0.005189179 0.012705675 -0.019353313 0.013631329
000150 73 41 59 39 c1 7f c8 3c 59 79 17 bd 46 3c ea bc
       0.00020719114 0.02447498 -0.03698096 -0.028593194
000160 9d 2b be 3c 23 86 38 bc 65 f2 37 bd 53 2f 1f 3d
       0.023214156 -0.011262449 -0.0449089 0.03886349
000170 e5 75 e5 3c 9b 28 41 bd f3 88 25 bb ad 56 61 bd
       0.028010318 -0.047157865 -0.002525863 -0.0550143
000180 8b d0 b0 bc 32 83 80 bc b2 df e9 ba 35 21 45 3d
       -0.021583816 -0.015687559 -0.0017843156 0.04812737
000190 f3 e6 8b bc 4e 57 02 bc 39 61 36 bd 1f 90 5b 3c
       -0.017077899 -0.007955385 -0.044526313 0.01340106
0001a0 6d b0 52 3d e7 75 50 3c 1f ba 2f 3d 63 5a be bc
       0.051437784 0.012723423 0.04290211 -0.02323646
0001b0 db 77 ee 3b d1 63 c1 3c ac 40 ac ba ad 26 e5 bc
       0.0072774715 0.023607166 -0.0013141832 -0.027972544
0001c0 a1 8f 5f bc fd f9 15 3d d9 a3 63 bc d9 3a 21 bc
       -0.013645084 0.03661536 -0.013894045 -0.0098406905
0001d0 ad ec 87 bc 37 e0 43 3d 92 44 de bc 13 8c 5b 3d
       -0.016592348 0.04782125 -0.027132306 0.053600382
0001e0 95 a6 88 3b 4b e5 26 3d a9 4d 12 bd 76 a8 0c 3d
       0.0041702488 0.040746015 -0.035718594 0.034340344
0001f0 2d f0 98 bb 4d b7 cb 3c 7d 7b c4 3c 3d e0 0c bd
       -0.004667303 0.024867678 0.023984665 -0.034393538
000200 a6 0f 72 3d b4 17 25 bd c2 a0 69 3d 8c 24 8f 3c
       0.059096955 -0.04030581 0.057038076 0.017473482
000210 77 60 53 bd 21 22 ab 3c 4c 70 83 bc 98 a2 15 3c
       -0.051605668 0.020890297 -0.016044758 0.009133004
000220 b8 7d a7 3c a4 56 4f 3d 3a 9d 6d 3c 86 d4 79 3d
       0.02044569 0.050619736 0.014502818 0.060993694
000230 f6 fe 50 3d ec 34 ad 3c 26 a5 69 3d ea 48 45 3d
       0.0510244 0.0211434 0.057042263 0.04816524
000240 42 8d 68 bd 7a 5b 7b bc 3f ca 39 3d 37 28 ed 3c
       -0.05677534 -0.015341634 0.045358893 0.02894984
000250 8b e7 89 bc cd 1d 26 bd ff 73 61 bd 5d e2 3a bd
       -0.016834041 -0.040555764 -0.055042263 -0.045626033
000260 ee 21 8d bc 6a 0f 51 bd 5a c1 46 3d 07 47 78 3d
       -0.017228093 -0.05104009 0.04852424 0.060614612
000270 c8 a2 07 3d 8f 13 62 bd e1 51 e7 bc 81 70 0d 3d
       0.033114225 -0.055194434 -0.028237285 0.03453112
000280 9c 91 d3 3c 18 4b 21 bd 4d c0 11 bd 19 3b 6c bd
       0.025826268 -0.039378256 -0.035583783 -0.057673547
000290 c7 de 6f 3d 4d 38 15 bc c7 90 7b 3d fc 65 81 3d
       0.058562066 -0.009107661 0.061417367 0.0631828
0002a0 fe 04 02 bd b8 88 2e 3d 62 85 8a bc 43 0f 04 3d
       -0.031743042 0.042610854 -0.016909305 0.032241117
0002b0 27 6a 7e bc 93 b1 a9 bc 49 8c 39 3c 17 54 1c 3c
       -0.015528238 -0.020714557 0.0113249505 0.009541533
0002c0 7c 2f 5a 3d 71 d4 d2 3c 18 09 89 3c 5a 35 40 3d
       0.05326794 0.025736066 0.016727969 0.04692588
0002d0 d0 6a 84 3d a3 7a e8 3c f5 f2 b6 3b ce 65 77 3c
       0.06465685 0.02837879 0.005583162 0.015099956
0002e0 25 5e 27 bb 6d aa f2 3c 7b 3e 90 3c 98 d0 80 3c
       -0.0025538292 0.029622281 0.017607918 0.015724465
0002f0 4d c9 69 bd 36 e1 62 bd 68 2c 2d 3d ae 2a 05 3d
       -0.05707674 -0.05539056 0.042278677 0.032511406
000300 f2 7f 0f 3d 50 7e ed 3b e6 8f ba 3c 94 90 4b bd
       0.035034128 0.0072477236 0.022773694 -0.049698427
000310 86 d2 10 3d 2c 70 ac 3c c0 3a c6 3a 22 36 19 3d
       0.03535702 0.021049581 0.001512371 0.03740514
000320 60 d8 b3 bb 54 43 5c 3d c0 81 ca ba ea 1f 16 3d
       -0.0054884404 0.053775147 -0.0015450045 0.03665153
000330 46 75 5c 3d be d9 ad bc e6 2a 36 bd 21 bc 5d bd
       0.05382278 -0.021221992 -0.044474505 -0.05413449
000340 34 b9 e3 3c 1a 36 7c bd 8f 88 f0 3c f0 fc 57 3d
       0.027798273 -0.061575033 0.029361991 0.052731454
000350 32 23 d4 bc 2c 80 10 bd d9 4e dd bc 30 dd e4 bb
       -0.025895689 -0.035278484 -0.027015137 -0.0069843754
000360 b9 81 3d 3d 0c 10 3d 3d b0 72 4a bd 0c ea 22 bd
       0.04626629 0.04615788 -0.04942578 -0.039773986
000370 b4 f1 33 3c b3 8a 43 3d 74 bf 03 3d 84 b8 c7 3b
       0.0109829195 0.047739696 0.032165006 0.006094994
000380 8a 3d 21 3d aa 41 45 bd 7c ef d8 bc 80 04 37 3a
       0.03936533 -0.048158325 -0.026481383 0.00069815665
000390 e8 8b 0b bc 10 39 f2 3b 00 fb cf b9 c0 b0 05 3c
       -0.008517243 0.0073920563 -0.00039669126 0.008159816
0003a0 b8 de 33 3d a8 d0 40 3d c8 5f 51 bc 18 f3 1b bc
       0.043913573 0.04707399 -0.012779184 -0.009518407
0003b0 9e 9a 16 bd 30 1b a1 3c d6 02 2c 3d 2c 28 8c bc
       -0.03676855 0.019666284 0.041994892 -0.017109
0003c0 b8 4f a4 bc aa 46 4f 3d 70 66 bd bb f8 71 73 3c
       -0.020057544 0.0506045 -0.005780034 0.014858715
0003d0 48 b6 b0 3c 34 66 56 3c a9 3e 22 3d b3 35 83 3d
       0.021571293 0.013085891 0.03961054 0.06406727
0003e0 ee 38 2b bd e8 7c 11 3d 4a 5e 65 bd c8 8f 14 bc
       -0.04180234 0.03551951 -0.055998124 -0.009067483
0003f0 8c 61 66 bd 90 63 c1 3c 58 7b 60 bc 00 1c 84 ba
       -0.05624537 0.023607045 -0.013701282 -0.0010079145

fc1.bias f4 [256]
000000 50 3b 5c 3d 2d e8 16 3d 40 9a 71 3c 48 ee bd bc
       0.053767502 0.036842514 0.014746249 -0.02318491
000010 9c 53 f6 bc 7f bb 00 3d 75 30 b2 3c 0c 7b 7e bd
       -0.030069165 0.03142881 0.021751622 -0.062129065
000020 89 d8 7e 3c 28 53 b4 bc c7 03 9e bc 6c 58 78 3d
       0.015554556 -0.022012308 -0.01928891 0.0606312
000030 6c 3d 0e 3d bb f3 38 bd d6 33 d9 bb d8 ec c2 3c
       0.034726545 -0.045154314 -0.006628494 0.023794577
000040 2a 40 08 3d 30 10 b5 3c 1f 51 b2 3c ef 1c fc bc
       0.033264317 0.022102445 0.021767197 -0.030775515
000050 ea 85 c7 bb 88 2e b1 b9 d0 be 09 3d af 71 27 3d
       -0.006088962 -0.0003379474 0.03362924 0.0408799
000060 d8 67 9f bc 86 e8 25 bd ba bc 1e bd 44 68 85 3c
       -0.019458696 -0.040504955 -0.038754202 0.01628507
000070 fe a7 44 bd e2 9c 1e bd 88 c4 72 bd 45 ed 57 bd
       -0.048011772 -0.038723834 -0.059269458 -0.052716512
000080 c6 7d 3e bd 4f 99 69 bd e9 1e 27 bd 0a c5 f3 3c
       -0.046506666 -0.057030972 -0.040800963 0.029757041
000090 42 5f 13 bd af d3 67 3d 9a 22 ca bc 5d 88 80 bd
       -0.035979517 0.05659836 -0.024674702 -0.06276009
0000a0 a8 2e 2f 3c f3 33 c6 3c 1a ff 09 bd 3a 3f 26 bc
       0.010692276 0.024194693 -0.03369055 -0.01014691
0000b0 18 45 14 bc c3 23 b7 3c a7 f6 de ba 18 62 03 bc
       -0.009049676 0.02235592 -0.0017010764 -0.008018993
0000c0 d5 48 37 bd 03 59 66 bd 20 9e d7 bc 82 ad a0 bc
       -0.044747192 -0.056237232 -0.026320517 -0.019613985
0000d0 d8 90 ad 3c 1d 73 25 3c 40 96 f4 bc 06 6b 68 bd
       0.021187231 0.010098246 -0.029856801 -0.05674269
0000e0 f8 51 6a bb 4a 17 82 3d 20 cf 98 bc 03 ec b1 3b
       -0.0035754424 0.06352098 -0.018653452 0.005429746
0000f0 f5 e1 37 3d 85 0c 6f bd ca d8 85 3d 20 c2 54 3d
       0.044893224 -0.05836155 0.0653549 0.051942945
000100 c2 09 25 ba 2d 4b 90 3c 9b fa 60 3c 88 d7 1f bd
       -0.00062957045 0.017613972 0.013731624 -0.039023906
000110 37 4f 05 ba 04 f2 fc 3b ce ee ae bc fc 57 55 bd
       -0.00050853513 0.00771928 -0.021354105 -0.05208586
000120 55 d1 e8 bc 2f ff 68 bd b5 ca 13 bd 3b 55 86 3c
       -0.02842013 -0.056883987 -0.03608199 0.016398063
000130 5e 9a 2a bd 0e fe c3 bc 15 e7 ea bc e1 c1 11 bc
       -0.041651122 -0.023924854 -0.028674642 -0.008896322
000140 c8 18 62 bc 4c 84 31 3d 9b 8c 6c bb 4f 5a 86 3c
       -0.013799854 0.04333906 -0.003609455 0.016400484
000150 5a 96 a4 3c f7 48 e4 3c d5 63 46 3c d3 50 d3 bc
       0.020091224 0.027866824 0.012108763 -0.025795376
000160 8d 11 55 bd 6b ff 1f bd 0e a3 63 3d 38 09 2e bd
       -0.05201869 -0.039061945 0.055575423 -0.04248926
000170 ae 0c 4c 3c 24 21 9f bc 30 7a 98 bc 90 82 0e 3d
       0.012454195 -0.019424982 -0.018612951 0.034792483
000180 50 df 37 bd 30 3d f3 3c c2 a6 c0 3c 3f 4f dc bc
       -0.0448907 0.029692262 0.023517016 -0.026893256
000190 f2 76 80 3b ee cd 0c bd 3a 70 ef bc de 56 80 bc
       0.0039204294 -0.034376077 -0.029228318 -0.015666422
0001a0 90 55 1a bb 54 11 00 bd f6 25 42 3d 1f ba 72 3d
       -0.0023549534 -0.031266525 0.047399484 0.05925953
0001b0 c9 66 b3 3a da b6 f4 3a bb ca 58 3d 60 a1 8b bb
       0.0013687249 0.0018670217 0.052927714 -0.0042611808
0001c0 38 e5 67 bd 7b 9e cb bc 06 0c 6f bd 80 98 a7 3c
       -0.056615084 -0.024855843 -0.058361076 0.02045846
0001d0 da 53 e5 bc 0d 7a 0b 3a 7b 06 97 3c f0 6b f7 bc
       -0.027994085 0.0005320616 0.018435707 -0.030202836
0001e0 19 bf 80 bd e6 ec 3e 3d 9a 82 c7 bc b1 67 08 bc
       -0.06286449 0.046612643 -0.024354268 -0.008325503
0001f0 62 2e 3c bd 91 a5 bd ba d8 a7 4e bd b5 d2 fc bc
       -0.04594267 -0.0014468898 -0.050453037 -0.030862192
000200 80 e7 f7 3a 74 83 2b 3d 4b 29 a8 bc 77 3e 43 3d
       0.0018913597 0.04187341 -0.020527503 0.047666993
000210 78 11 1d bd ba 5c 99 3b a7 44 6f bd 74 3d 32 bd
       -0.038346738 0.0046802433 -0.05841508 -0.043515638
000220 fb 6f 85 3d c7 d8 2b 3c de 01 34 3d 8c 10 04 bd
       0.06515499 0.010488695 0.043947093 -0.032242343
000230 c0 77 58 bb 9a 69 12 3c 15 24 93 bc ac 46 a0 3c
       -0.003303036 0.00893631 -0.017961541 0.019564949
000240 f4 54 23 bd 86 3a 69 3d 65 50 b5 bb 01 7d 8b 3c
       -0.03987594 0.056940578 -0.0055332654 0.01702738
000250 84 53 56 bd 3c e6 8d bc a5 12 1a bd 81 03 21 3d
       -0.05232574 -0.017321698 -0.037615437 0.039309982
000260 3d 23 4c 3c 73 f4 25 3d 90 a4 57 3b 28 b1 ab 3c
       0.012459573 0.040516328 0.0032904483 0.020958498
000270 97 c1 7a bc c9 a4 88 3c cc c6 a2 bb ba c4 24 bd
       -0.0153049445 0.016680138 -0.004967546 -0.040226676
000280 5d 86 1e bd c2 ea bd 3b c8 b8 41 3d 24 06 02 bd
       -0.038702358 0.0057958076 0.04729536 -0.031744137
000290 ea d5 2c 3d ea fa 61 bd a2 0c 67 3d 06 f8 97 bc
       0.04219619 -0.05517093 0.056408532 -0.018550884
0002a0 17 cf 5b bd 74 d7 b8 3c 7c f7 39 bd aa 8e 88 bb
       -0.053664293 0.022563674 -0.045402035 -0.0041673975
0002b0 1f 1b ae bb 43 b6 6d 3d a3 87 33 3d 32 89 c6 3b
       -0.0053132917 0.058035146 0.043830525 0.0060588354
0002c0 6c 6b a8 3c 77 8a 85 3c 31 99 36 3c 54 e0 89 3c
       0.020559035 0.016301377 0.011144922 0.0168306
0002d0 e0 37 8b 3c a9 74 78 3d f0 52 ce 3b 02 14 06 3d
       0.016994417 0.06065813 0.006296508 0.032733925
0002e0 23 ac ba bc 97 ff 17 3d 0c 96 30 bd ce 5f 53 bc
       -0.02278716 0.037108984 -0.043111846 -0.01290126
0002f0 c7 a8 61 3d 01 0a c6 bc 96 d3 2c 3c 45 58 77 bc
       0.0550926 -0.024174692 0.010548493 -0.015096729
000300 47 68 2a 3d 6d 59 e7 bc 9d 79 5f bd a4 36 25 bd
       0.041603353 -0.028240884 -0.05455934 -0.040335312
000310 69 22 7e bd 4b 5a ef 3c 16 4a 37 3d 60 e5 8f bb
       -0.062044535 0.02921786 0.04474839 -0.0043913573
000320 35 c8 d0 3c 0f 1e 20 bd 08 92 2e 3d f7 4d 66 3d
       0.025486091 -0.039091166 0.042619735 0.056226697
000330 99 e7 f9 3b b7 fa a7 bc e1 3d 7a bd 6c ef 8d 3b
       0.0076264855 -0.020505292 -0.06109417 0.00433152
000340 56 56 36 3d 20 62 95 3b 94 e6 c4 3c a7 36 3c 3d
       0.04451593 0.0045588166 0.02403573 0.045950558
000350 14 08 e9 bc 2d 2f 7b bc 3f 06 24 bd cf f4 2c ba
       -0.028446235 -0.015331072 -0.04004502 -0.00065977586
000360 06 c2 64 3a 96 2d 3f 3d b0 72 45 bd b5 59 8f bc
       0.00087264215 0.046674334 -0.048205078 -0.01749883
000370 c8 e9 44 bd bd ad c9 3c 41 05 01 3d 37 12 7f 3d
       -0.048074514 0.024618978 0.03149915 0.06227323
000380 86 18 42 3d ad 57 f5 3c 51 66 7c bc c6 38 e5 bb
       0.04738667 0.029949034 -0.0154052535 -0.0069952933
000390 46 f1 35 bc 7c bf 5b 3d 49 62 97 bc 15 a2 00 3c
       -0.011104887 0.05364941 -0.018479483 0.007851143
0003a0 bc f0 3a bc 45 33 c7 ba aa a6 41 bd 49 60 6b 3d
       -0.011409935 -0.0015197775 -0.047278084 0.05746487
0003b0 5e 0f 2a bc c0 9b cb 3a da 63 10 bd 6c 70 2e 3d
       -0.01037964 0.0015534088 -0.035251476 0.042587683
0003c0 9b 43 48 bd 22 2f 18 3d d1 31 d1 bc 81 59 0d 3d
       -0.0488926 0.037154324 -0.02553645 0.034509186
0003d0 d8 a9 a5 bc 1e 77 bb bb b0 98 0f bc 37 41 15 3d
       -0.02022259 -0.005720987 -0.008764431 0.036439147
0003e0 b4 80 43 3d 2e 1d 25 bb 2c b7 42 bd c7 6d 4e bd
       0.047730163 -0.0025194394 -0.047537968 -0.05039766
0003f0 f3 71 56 3d 17 6c 3b 3c 82 26 cd 3c 18 54 42 bd
       0.052354764 0.011439345 0.025042776 -0.04744348

fc2.weight f4 [128, 256]
000000 74 73 79 3d 60 7e 0a 3d ce 8c 20 bd e3 8d 88 3d
       0.06090112 0.033811927 -0.03919678 0.06667688
000010 4a ec 13 bd de e1 ca bc 21 92 02 3c b8 90 a0 3c
       -0.036114015 -0.024765905 0.00796941 0.019600257
000020 e4 00 e4 bc 20 4b 9e bc af 4f 6a bc a7 18 ca 3b
       -0.027832456 -0.019322932 -0.014301225 0.0061674896
000030 e2 a2 c1 bc 70 a2 88 bc 8d 1c 41 bd 4c 5f 81 bc
       -0.023637239 -0.016679019 -0.04714637 -0.015792511
000040 32 f6 a0 3c 22 66 4b bd 63 63 99 3c e1 d0 a7 bb
       0.019648645 -0.04965795 0.01872415 -0.005121336
000050 40 fa d1 3b ef a6 21 bd 4d ec 07 bd ac ea 36 3c
       0.006408006 -0.03946584 -0.03318434 0.011164349
000060 4c eb b0 3c 30 46 77 3c fd 73 bc 3c 29 db 29 3d
       0.021596573 0.015092418 0.023004526 0.041468773
000070 a0 b0 7f bd 7f 77 73 3c 08 d5 39 bd ef b9 6d bb
       -0.062424302 0.014860033 -0.045369178 -0.0036274155
000080 1c 1c 2b bd 39 a6 20 bb bf e3 cb bc a0 d7 89 3b
       -0.041774854 -0.002451314 -0.024888871 0.0042066127
000090 11 f1 59 bd 6d 80 2a 3d 05 07 e4 bc 22 f2 f0 bc
       -0.053208414 0.041626383 -0.027835378 -0.029412333
0000a0 13 ff c3 bc c9 b8 96 bc a7 1c 22 3d e6 56 47 bd
       -0.02392534 -0.01839866 0.039578106 -0.048666857
0000b0 54 9f db bc 70 f2 a9 3c fc 8d 52 3d 18 a8 dc bc
       -0.026809372 0.020745486 0.051404938 -0.026935622
0000c0 d2 94 90 3d f8 93 88 3c d4 5c 4e bd 06 14 4a 3d
       0.07059635 0.01667212 -0.050381497 0.049335502
0000d0 b7 75 37 bd c4 0d 36 bc 91 0b 47 3b a6 2e 17 3d
       -0.044789996 -0.01111168 0.0030371884 0.03690972
0000e0 35 8e 13 bd 14 ff 5f bd 86 90 2e 3d b2 50 3a bd
       -0.03602429 -0.05468662 0.042618297 -0.045487113
0000f0 d9 dd bd bc ce 39 24 bd 88 1f 24 bd a8 a5 66 3d
       -0.023177074 -0.04009419 -0.040069133 0.056310326
000100 f1 07 6f 3c db 0f 22 3c fb 46 54 bd c0 98 71 bb
       0.014589296 0.009891476 -0.051825505 -0.0036864728
000110 bc ca 00 3d 20 fa 60 3d 78 43 c7 3c b0 34 0e bd
       0.031443343 0.054926038 0.024324164 -0.034718215
000120 78 d3 80 bb 82 90 38 3d 44 66 c6 b8 7e 36 c2 3b
       -0.003931459 0.04505969 -9.460424e-05 0.005926906
000130 dc c0 4b bc 37 c3 87 3d 34 7c e0 3c 47 33 6c 3d
       -0.012436118 0.06629031 0.027402975 0.05766609
000140 fc 58 1a 3d ea 44 94 3c 2c 18 aa bc 10 19 68 3d
       0.03768252 0.018099267 -0.02076348 0.056664526
000150 ce 3b 85 3d 7a 46 85 bd 3b bd 85 3d 15 7a 60 bd
       0.065055475 -0.06507583 0.065302335 -0.054803926
000160 39 1e 2f bd 37 45 36 3d 63 33 e4 bc e6 83 36 bd
       -0.042753432 0.044499602 -0.027856534 -0.044559382
000170 f5 2c 32 bd 16 cf 42 3d f5 ec 20 3d 9d 3c 1c 3d
       -0.043499906 0.047560774 0.03928848 0.038143743
000180 2c 43 71 bd 3f 7b 90 3d ab 24 99 bc 6b 86 e4 3c
       -0.05890195 0.07054757 -0.018694242 0.027896127
000190 0e 60 0b 3c a4 a3 99 3c 92 37 6f 3c 28 39 ee 3b
       0.008506788 0.018754788 0.014600651 0.007269997
0001a0 3c e4 41 bd dd 1e d7 bb 9f c5 50 3d d8 01 61 3d
       -0.047336802 -0.0065649585 0.050969716 0.0549334
0001b0 29 eb 62 3d 9e 6d fb bc 63 e4 13 bc 00 15 60 ba
       0.055400047 -0.030691918 -0.00902662 -0.0008548051
0001c0 84 f3 62 3d 6d 90 ab bc 60 45 94 3a a4 30 54 3d
       0.055408016 -0.020942891 0.0011312179 0.0518042
0001d0 a3 60 17 bc 54 fe 35 bb 0d 8e 27 3c c4 7a 49 3d
       -0.009239349 -0.002777 0.010226739 0.049189344
0001e0 04 2b c8 3c 9d 88 60 3d 9e 9b 65 3d 04 cf 0b 3d
       0.024434574 0.054817785 0.05605661 0.034132972
0001f0 f0 79 44 3d 8e 98 00 bc fc 67 0d bd 70 95 f9 3c
       0.04796785 -0.007848872 -0.034522995 0.030466765
000200 4a b0 64 3d f2 ba de bb 40 9e 25 3d b9 26 0e 3d
       0.055832185 -0.006797188 0.040434122 0.034704898
000210 7f 5d 28 3d db fe 91 3c 94 ed 4b bc e0 53 43 bd
       0.04110479 0.01782172 -0.01244678 -0.04768741
000220 aa c0 b5 bc f2 b6 f1 3c 7b 0f 54 3d ce 80 20 3d
       -0.022186596 0.02950618 0.051772576 0.039185338
000230 a6 79 54 3d 20 63 80 3d 34 a6 d9 3c 12 bf 56 bc
       0.051873825 0.062689066 0.02656851 -0.013107078
000240 3c 7b d8 3b 4c 3e cc 3c 66 b6 05 bc 66 bd c0 bc
       0.0066064876 0.02493205 -0.008161163 -0.023527812
000250 d0 95 72 bc 45 79 0e bc 46 bf 0d bd de e0 ad 3c
       -0.014806226 -0.008695905 -0.03460624 0.02122539
000260 a7 49 6e bd 9b b0 31 ba 39 d8 27 3d 78 6a 73 bd
       -0.05817571 -0.00067783304 0.04097769 -0.05942771
000270 48 da 4c 3d 24 14 be 3c 0c 79 5c 3d f8 92 0e bd
       0.050012857 0.023202963 0.053826377 -0.03480813
000280 7b 70 33 3d b2 e4 05 bd 3c 0d 68 3c ee 23 4b bc
       0.04380844 -0.032688804 0.014163312 -0.012398703
000290 6c a3 73 3d 90 34 da 3b 36 67 50 3d 91 e3 71 bd
       0.059482023 0.006659098 0.05087968 -0.059054915
0002a0 4d 7f cb bc 18 67 fa bc 7b df 42 bd 7d aa 2f 3c
       -0.024840975 -0.030566737 -0.04757641 0.0107218
0002b0 0b dd 4f 3a d8 51 6f 3d 2e 81 28 bd 98 fe 91 bc
       0.00079293613 0.05842766 -0.04113882 -0.017821595
0002c0 5a 32 24 bd da 33 56 3a d9 40 75 bd 4b 0e 57 bd
       -0.04008708 0.00081711786 -0.059876297 -0.052503865
0002d0 3a 80 0f bd 5e c7 08 bc 14 94 a7 3c ac 43 6c bc
       -0.035034396 -0.008348314 0.020456351 -0.014420431
0002e0 e4 0a 5c bc 0f d1 4c bd 15 ae 11 bd 00 dc 59 bd
       -0.013430331 -0.05000406 -0.03556641 -0.053188324
0002f0 f9 0f 07 3d 88 84 8c 3d bc ce 65 3d 6d 2d 3b 3d
       0.032974217 0.06861216 0.05610536 0.04569762
000300 1f 49 47 3c 5d f7 47 bd a8 0d 46 bd 12 53 86 3d
       0.0121634295 -0.04881989 -0.048352867 0.06558813
000310 34 18 b9 bc 16 a2 81 bc c6 20 7b 3d 08 22 64 3d
       -0.022594549 -0.015824359 0.061310552 0.055696517
000320 3f 4e a9 3c 76 06 07 bd f6 d4 00 bc 61 b2 dd bc
       0.020667193 -0.032965146 -0.007863274 -0.027062597
000330 f7 89 03 3d d0 ca cc bb d0 8d 8e bb dc 70 86 3d
       0.032113995 -0.006249763 -0.0043504015 0.06564495
000340 aa ae 20 bd 68 f5 4c bc c0 27 d9 3c 18 dd 15 bc
       -0.039229073 -0.012509681 0.026508212 -0.009146951
000350 b0 89 4d bd 33 c3 a9 3c c4 98 16 3d 8f 98 85 bd
       -0.050180137 0.020722961 0.036766782 -0.06523239
000360 0d 95 52 bd 9a 99 b5 bc 58 66 2f bc 33 f7 e3 bb
       -0.051411677 -0.02216797 -0.010705553 -0.0069569587
000370 80 c9 83 ba 2b 33 87 3b f3 2c 8d 3d b2 4c 0f 3d
       -0.0010054559 0.0041259727 0.06893339 0.03498525
000380 22 6b 6b bd 07 77 86 3d 73 5e 62 3c c3 d1 53 3c
       -0.057475217 0.065656714 0.013816464 0.012928429
000390 f8 77 4b 3d 3a d2 c7 3c f4 10 fc bc 05 7d 28 3d
       0.049674958 0.024392236 -0.030769803 0.041134853
0003a0 72 5a 25 bd ff 1a 2a bd 74 6c 01 3c 0f 7d 3c bb
       -0.04036946 -0.04152965 0.007899392 -0.0028761064
0003b0 29 8a 6a bd 8c bf 7e 3d fd f9 f5 bc 7c 70 ba 3b
       -0.057260666 0.062194392 -0.03002643 0.0056896787
0003c0 64 64 83 bc 50 5d 64 3d c0 c6 04 bd 8c 20 83 3c
       -0.01603908 0.055753052 -0.032416105 0.01600673
0003d0 da c8 77 3b 93 d4 79 ba 13 8b bc bc 61 94 8f bc
       0.0037808926 -0.0009530272 -0.023015535 -0.017526807
0003e0 28 8f 09 3b d9 79 5b 3d 76 0e 42 3d 53 dc 01 3c
       0.0020989869 0.053583 0.047377072 0.007926065
0003f0 fc ac db 3c fc 54 fe 3c f7 41 9b bc d2 01 43 3b
       0.026815884 0.031046383 -0.018952353 0.0029755724

fc2.bias f4 [128]
000000 14 d5 88 3d ae 29 2d 3d 63 b6 16 bd 75 9c 1a 3d
       0.066812664 0.042276077 -0.03679503 0.037746865
000010 83 f9 3b bd 3a 71 91 bc c3 97 7e 3d 16 e4 7c bd
       -0.04589225 -0.017754186 0.06215645 -0.061740957
000020 a7 43 5d 3c 6d 3a e1 bb ba 6e 89 3d 98 a6 7c 3c
       0.013504899 -0.00687342 0.067105725 0.015420578
000030 14 3b f5 bc 17 e3 17 3d c0 e9 b7 ba ec 7f 45 b7
       -0.029935397 0.037081804 -0.0014031455 -1.1771899e-05
000040 62 e7 1c 3d d9 80 24 bd b1 3e 0c 3d da dc a2 3c
       0.0383066 -0.04016194 0.034239475 0.0198807
000050 97 0a e4 bc 1c 97 00 bd b4 f7 be 3c c3 82 1a 3d
       -0.02783708 -0.03139411 0.023311473 0.03772236
000060 d6 13 2a bd 69 64 bb 3b 4c 7d 27 3d 6c 47 ed 3b
       -0.041522823 0.005718757 0.040890977 0.00724118
000070 60 17 31 3d a6 d9 ec 3c 9b 1c 9d 3c 67 4f 3e 3d
       0.043235183 0.028912377 0.01917868 0.046462443
000080 b1 63 c8 3c 86 98 48 3d 3f ef b1 3c 30 4e 03 bd
       0.024461599 0.048973583 0.021720527 -0.032056987
000090 48 f5 96 3c 84 cd 99 bc 2b 3c 06 3d 2d b0 0c 3d
       0.018427506 -0.018774755 0.032772224 0.0343477
0000a0 42 45 ad 3c 59 0a 1b ba e0 81 d6 3c 52 15 4f bd
       0.021151189 -0.00059143227 0.026184976 -0.050557442
0000b0 43 9f 85 3b aa d8 16 bd 20 1a 9a 3c 99 12 7a 3a
       0.0040778234 -0.03682772 0.018811285 0.00095395144
0000c0 9f fb 82 3c 9e 65 1f 3d 0c 3f 4b 3d 52 24 99 bc
       0.015989123 0.03891527 0.049620673 -0.018694077
0000d0 f8 d4 50 3c 43 0e 85 3d aa 0f 6c bd 4f e6 49 3d
       0.012746088 0.06496861 -0.057632126 0.049291905
0000e0 c0 55 d2 3a 11 c6 29 3d fb 24 de 3c 0e 8d 0b 3d
       0.0016047284 0.041448656 0.027117243 0.034070067
0000f0 d4 ab 2d 3c f1 e8 d9 bc f2 b2 57 bd 60 6d 47 bd
       0.010600049 -0.026600333 -0.05266089 -0.048688293
000100 f7 e6 16 bc ce db 68 bd da 1c 56 ba 27 3e 24 3d
       -0.00921034 -0.056850247 -0.00081677514 0.040098336
000110 56 2c 41 bd 8d 3f 51 bd 54 fb 0f 3d 02 cc 76 3d
       -0.047161423 -0.051085997 0.035151795 0.06025315
000120 4f 0a 99 3c 9b bc 0a bd f3 a4 4c 3d 64 13 60 bc
       0.018681673 -0.033871274 0.049961995 -0.013676498
000130 04 33 40 3d 21 28 61 3d c4 d9 c2 3c b0 ff 67 bd
       0.046923652 0.05496991 0.02378548 -0.056640327
000140 84 85 2a bd de 92 21 3d 11 b2 e0 3c 79 33 3f bd
       -0.041631237 0.039446704 0.027428659 -0.046679948
000150 2c 6e 34 bd 1e 9f 7a 3b 57 4a 29 bd a0 4b 64 3d
       -0.04405038 0.0038241814 -0.04133066 0.055736184
000160 27 eb 55 bb b9 e1 4c 3d bd d6 1f bd 0f 92 bb bc
       -0.0032641382 0.050019953 -0.03902315 -0.022896795
000170 92 18 d6 3c be 8f f4 bc 67 b9 64 3d a0 2f 13 bd
       0.026134763 -0.029853698 0.055840876 -0.03593409
000180 04 0f 60 3d 5b 17 24 3d 38 20 46 bc 91 06 f3 bb
       0.05470182 0.040061336 -0.0120926425 -0.0074165543
000190 0f a1 d0 bc 5c f8 71 bd af 23 49 bd 36 5b 61 3d
       -0.025467424 -0.059074745 -0.049106296 0.055018626
0001a0 bc 16 08 3d f3 ee 7b 3d 43 84 ff 3c 6e 4c c7 3c
       0.033224806 0.061507177 0.031190997 0.024328437
0001b0 52 d3 5b 3d e0 53 6a bb e5 3a 5a bd 10 64 30 3c
       0.053668328 -0.003575556 -0.053278822 0.010766044
0001c0 9d 2a 2b bd 57 c3 4f 3d df 02 45 3c 52 5c 21 bd
       -0.041788686 0.0507234 0.01202461 -0.039394684
0001d0 26 45 2d 3d 40 55 c7 3a c3 4e 1c 3d 55 41 41 bd
       0.042302273 0.0015207902 0.03816105 -0.047181446
0001e0 48 5f 8c bc d2 d4 7a bc a4 88 08 3d 89 54 46 bc
       -0.017135277 -0.015309529 0.033333436 -0.012105116
0001f0 30 8e 76 3d b6 da 25 bd fc 40 55 bd c7 bf 0b 3d
       0.060194194 -0.040491782 -0.052063927 0.03411844

actor.weight f4 [4, 128]
000000 4a 37 58 bd fe fc 82 b9 37 56 64 bd 86 96 94 3d
       -0.052787103 -0.00024984026 -0.055746283 0.072552726
000010 a4 6f 61 bd 3f 49 9a 3d 95 90 f3 bb d1 d2 4a 3d
       -0.05503811 0.07533502 -0.007433007 0.049517456
000020 e8 4d e3 bc 87 c1 73 3d 44 5a c0 3c 6e 66 2d 3d
       -0.02774711 0.059510734 0.023480542 0.042334013
000030 01 86 92 bd 92 d4 07 3d 7c 1d 2b bc 98 25 93 3d
       -0.071544655 0.033161707 -0.010444041 0.07184905
000040 ac be 3f 3a d2 b0 fa 3c bd 08 9f bd 57 ee 97 3c
       0.0007314484 0.030601893 -0.077653386 0.018546266
000050 59 1c aa 3d ed 75 0a bc e0 ea 71 3d 05 b7 0c bd
       0.08306188 -0.008450967 0.059061885 -0.03435423
000060 de 7f 6d 3c de a8 a9 bd 6b a0 a0 bd b1 30 16 bd
       0.014495818 -0.08284162 -0.07843097 -0.03666753
000070 7a 08 aa bd 6e bd d7 ba 26 87 93 bc bc f9 f9 3c
       -0.08302398 -0.0016459653 -0.01800878 0.03051459
000080 01 3b 40 bd 11 38 15 bd 09 fa 53 bd 0a 17 97 bd
       -0.04693127 -0.036430422 -0.051752124 -0.07377441
000090 f3 6d 08 bc b1 63 7a bc 9c 07 84 bd 1c 0d 09 bd
       -0.008326995 -0.015282557 -0.06446764 -0.033459768
0000a0 34 2e 8b 3d ca ee a1 3a b8 c6 9a bc c3 93 09 bd
       0.06795922 0.001235449 -0.018893585 -0.033588182
0000b0 b9 dd 8f bc ab 3b 0c 3d 9d d4 6f 3d 9b 13 ab 3c
       -0.01756178 0.03423659 0.058552373 0.020883372
0000c0 51 7e 39 3d 7f ee 87 3d b5 b4 9d 3d be b3 d9 3a
       0.04528648 0.066372864 0.07700483 0.0016609353
0000d0 c9 1f 37 bd 94 54 90 bc da 99 99 3d 05 dc 92 3d
       -0.044708047 -0.017618455 0.07500048 0.07170872
0000e0 0d 88 87 bd d0 67 03 bc db 6b f9 3c 5d 7c f2 3c
       -0.066177465 -0.008020356 0.030446937 0.029600317
0000f0 56 b6 ae bd 74 b1 d3 bc 06 35 81 3c 81 bd b5 bc
       -0.085308716 -0.025841452 0.015772354 -0.022185089
000100 aa 80 5f 3d 31 b2 ae 3c ac a7 af 3d 1d 53 65 3d
       0.054566063 0.021325203 0.08576903 0.055987466
000110 c5 a1 93 bd 2c 40 64 bd 53 b7 b2 3d 63 3e a8 ba
       -0.072085895 -0.05572526 0.087263726 -0.0012835976
000120 d9 c9 1c 3c cb 94 15 3c 50 1b 9f 3d 5b c1 5a bd
       0.009569609 0.009129713 0.07768881 -0.053407054
000130 49 df bd bc 50 d7 a8 3d 2e bb 4f bd ec 3d 17 3d
       -0.02317776 0.082441926 -0.050715618 0.036924288
000140 5a 3a 0c 3d 50 c6 4d bc 53 af b1 bd cc a7 85 bd
       0.034235336 -0.012559488 -0.086760186 -0.06526145
000150 11 e3 b2 bc 1f 45 ae bc 0c 41 80 3d b1 e8 02 bd
       -0.02183679 -0.021273194 0.06262407 -0.031960193
000160 f1 9a 4a 3d b6 51 cf bc be d9 09 bd 73 01 13 bd
       0.04946417 -0.025307517 -0.03365492 -0.035890054
000170 d7 8a 27 bd fd 50 17 bd 82 84 ac 3d 75 7d 30 3d
       -0.040903892 -0.03694247 0.08423711 0.043088395
000180 9f ee 51 3d b1 e1 1a 3d 0b 67 ed 3c 67 b4 25 bc
       0.051252957 0.037812892 0.028979799 -0.010113812
000190 ca 92 e0 bc e6 4f 79 bd 1e 9f a6 bd 91 2e 4c bd
       -0.027413744 -0.060867213 -0.08135818 -0.049849097
0001a0 2e 30 45 bd b7 75 57 3d 7e f4 ac 3d b9 f2 93 3d
       -0.04814165 0.052602496 0.08445071 0.0722403
0001b0 a7 fc f1 bc e4 e9 a3 bd 89 e3 8b bc 6b 28 69 3d
       -0.02953942 -0.080035955 -0.01707627 0.05692331
0001c0 ec a9 2b bd 49 4e 90 bd c7 cc 3c bd f1 c1 52 3c
       -0.041910097 -0.07046182 -0.04609373 0.012863622
0001d0 c3 76 86 bd 94 b0 3f bd 31 7b 97 bd f2 30 b2 bd
       -0.06565621 -0.046799257 -0.07396544 -0.08700742
0001e0 27 a2 70 bd f4 27 26 3c 7a 2e 13 3d 3b f0 55 3b
       -0.05874839 0.0101413615 0.035932995 0.003264441
0001f0 47 57 5a 3d 68 fc 4e bd 06 de 3b bd 9c a7 f2 3a
       0.05330589 -0.050533682 -0.045866035 0.0018513086
000200 ae 12 a6 bd aa af fc bc d7 eb 60 bd 07 9b 88 bd
       -0.081090316 -0.030845482 -0.054912414 -0.06670194
000210 cd 59 d0 bc e7 77 8f bd ec 1f 0b bd f8 ea 61 bd
       -0.025433445 -0.070052914 -0.03396599 -0.055155724
000220 56 04 56 bd 50 e4 90 3d 60 0e 52 3d 85 e5 4f 3d
       -0.05225023 0.07074797 0.05128324 0.050755996
000230 f6 70 aa bd 39 d1 8d bd cf 7f 6a 3d d4 6b 02 bc
       -0.08322327 -0.06924672 0.057250794 -0.007960279
000240 a8 7b ae bd be 63 ed bc 2d 20 bf bc 14 eb 94 bd
       -0.08519679 -0.028978225 -0.023330772 -0.072714
000250 69 ae 28 3d 86 86 c4 bc 1e de e8 3c e9 07 2b bc
       0.041181955 -0.023989927 0.028426226 -0.010438898
000260 db 6e b4 bd d7 39 7e bd 7f df 84 bd 52 b2 3b 3b
       -0.088102065 -0.06206688 -0.06487941 0.0028640223
000270 ce 9e 0a 3d 91 93 b2 3d dd f1 98 3d 85 54 57 bd
       0.033842854 0.08719552 0.07468007 -0.05257084
000280 60 1c 0d 3d 70 7e 12 3d cc 67 94 3d 33 54 0d bd
       0.03445089 0.03576511 0.0724636 -0.034504127
000290 f3 54 ad bd 7d 6f 93 bd 50 ee 5c bc 1d 4a 24 3d
       -0.084634684 -0.07198999 -0.0134845525 0.040109742
0002a0 7f d4 80 3d 96 9e a7 3d 0f d1 bc 3c 8f fa 9e bd
       0.062905304 0.08184545 0.023048906 -0.07762634
0002b0 b8 96 97 bd 81 7b 97 bd b2 28 a2 bd c7 10 b2 bd
       -0.07401794 -0.073966034 -0.07917918 -0.08694606
0002c0 9d 53 3e 3d 51 16 89 3c 61 cb ee 3c fe e6 a7 bd
       0.04646646 0.016734274 0.029149713 -0.08198355
0002d0 96 71 ad bd b2 b4 93 bb 15 b5 96 3b 03 bc d5 bc
       -0.084689304 -0.0045076245 0.0045992234 -0.026090628
0002e0 d5 33 b0 bd 49 7f 33 bc 93 2e 7f 3d 58 a4 b4 bb
       -0.08603636 -0.01095564 0.062300276 -0.0055127554
0002f0 f4 eb fc 3c db b2 ce bc f5 01 23 3d 53 b8 67 3d
       0.03087423 -0.02523177 0.03979679 0.05657227
000300 2a 82 38 bc 00 91 7a bd 2b 05 25 ba 76 a1 84 3c
       -0.011261502 -0.06117344 -0.00062950206 0.016190272
000310 3a 08 96 bd 56 0e 5e bd 0e 3c 85 3c bc f2 81 3c
       -0.07325788 -0.05421289 0.016263988 0.015862815
000320 76 30 39 3d 9d f6 8d 3d 97 3a ab bd a8 bc 2d bd
       0.04521223 0.069318034 -0.083607845 -0.042416245
000330 78 f5 a1 3d 9f 41 a6 bd 8f c8 50 3c 64 90 8d bd
       0.079081476 -0.08117985 0.012743129 -0.06912306
000340 07 11 96 bd 72 b0 19 3c af 44 1f 3d 98 9d 63 3d
       -0.073274665 0.009380447 0.03888386 0.055570215
000350 ef 10 72 bd df 9d b1 3d 55 32 92 3d 96 2f c5 bb
       -0.05909818 0.0867269 0.07138506 -0.0060176356
000360 b7 6f ba 3d a9 87 7f bd 95 1e 6a 3d 07 ea a7 bc
       0.09103339 -0.062385235 0.05715807 -0.020497335
000370 88 3c c2 bc f1 ab 4b 3c e7 8f 58 3c 3e 1a 73 bd
       -0.023710504 0.012431131 0.013217903 -0.0593512
000380 38 2c b0 3d 95 91 23 bd 72 fe df bc 59 92 ab 3d
       0.08602184 -0.03993376 -0.027343009 0.08377523
000390 49 1a 07 bc 50 8f 99 bd 50 41 a1 3d 62 e5 ec bc
       -0.008246013 -0.07498038 0.078737855 -0.028917972
0003a0 48 fe b6 bb 56 71 6d 3c 82 da 72 bd 04 0e 4a bc
       -0.005584512 0.014492353 -0.059290417 -0.012332443
0003b0 a7 dd 3a 3d 4e 13 92 3d 25 0a 20 bb a4 10 1e 3d
       0.04562154 0.07132588 -0.002442011 0.03859009
0003c0 83 a5 38 bd 81 7c 9f 3d c8 f2 3c 3b b8 ca 13 bd
       -0.04507972 0.07787419 0.0028831232 -0.036082
0003d0 bb 6e bb 3d ee be c4 3c 2c 94 84 bc 83 5e 78 3d
       0.091519795 0.024016824 -0.016183935 0.06063701
0003e0 41 04 6c bd ad 0b 4d 3d e1 6a 81 bd cc aa df 3c
       -0.057621244 0.050059963 -0.06319214 0.027303122
0003f0 6a 85 d4 bc c0 42 64 3d 56 06 88 bc a5 bf f3 bb
       -0.025942523 0.05572772 -0.016604584 -0.0074386173

actor.bias f4 [4]
000000 da c6 8f 3d ef 63 8b bd be f8 5c 3d 4f db aa bd
       0.0702035 -0.0680617 0.053948157 -0.08342611

critic.weight f4 [1, 128]
000000 e8 e9 91 3d 56 c3 38 3c 90 1c bd bb 96 ca 86 3d
       0.07124692 0.0112770405 -0.005771227 0.06581609
000010 28 75 8a 3d e5 b5 a1 bd d0 1b bf 3d ed 13 1f 3d
       0.06760627 -0.07896022 0.09331477 0.038837362
000020 99 70 20 bd 9e f8 83 bd d2 b6 38 3d 77 7c 34 bd
       -0.03916988 -0.06443904 0.045096226 -0.04406401
000030 f4 52 a5 bd f5 56 1c bc fb 1c e1 3c 74 01 bf 3d
       -0.08072463 -0.009542217 0.02747964 0.09326449
000040 9e 89 84 3d 66 7a 5a bc 7c eb 4a 3d fb 0e bb 3c
       0.06471561 -0.013334846 0.04954098 0.022834292
000050 33 2f 6d bd ee 85 e2 bc c4 e7 b7 bc ca b0 3f 3d
       -0.05790634 -0.027651753 -0.022449382 0.04679946
000060 04 c7 59 3d 4c 62 3f bd d2 e7 ac bd 29 df 98 3c
       0.05316831 -0.046724603 -0.08442654 0.018661099
000070 b8 c6 9c bd 8c 9a 7a 3d da 09 a4 3d 59 4f aa bd
       -0.0765509 0.061182544 0.080096915 -0.083159156
000080 99 fe 85 3d 19 0a 37 bc 88 01 2a bd a9 92 e1 3c
       0.06542701 -0.011171841 -0.041505367 0.027535753
000090 2e cd ee 3c 76 1c a1 bd a5 eb 83 bd b3 2a 05 3d
       0.029150572 -0.078667566 -0.0644143 0.032511424
0000a0 f6 e1 88 bc be bf 03 3d e3 91 a9 bc ef 72 b7 3c
       -0.01670931 0.03216528 -0.020699447 0.022393672
0000b0 2c 9f bf 3d d7 63 de bc 4c 86 95 3d 39 ee 45 bd
       0.093565315 -0.027147217 0.07301006 -0.04832289
0000c0 35 2b 89 3d 72 de 8f 3d b3 04 96 3d ae 72 77 bd
       0.06697694 0.0702485 0.07325115 -0.0604121
0000d0 f0 20 1b 3d 09 0c fc 3b ed ea fd 3c 23 45 03 bd
       0.03787321 0.0076918644 0.03099581 -0.032048356
0000e0 38 13 e4 bb 05 0a c0 bd 98 b2 17 3d 65 27 a0 bc
       -0.006960299 -0.09376911 0.037035555 -0.019550035
0000f0 4e ab bc 3c 8a 5a ba 3d 65 3e a7 3d 9b 1e 0f bd
       0.023030903 0.090993 0.08166198 -0.034941297
000100 c1 cb a0 bd 9d 0f 8d 3b 58 2a f2 3c 76 e5 06 bd
       -0.07851363 0.0043048398 0.029561207 -0.032933675
000110 c1 ac 06 bd b9 e3 41 bd db bf 79 3c b3 9e b3 3d
       -0.032879595 -0.047336314 0.015243496 0.08770504
000120 ec 27 47 bc 21 e6 79 bd 19 49 98 3d c2 d5 b6 3c
       -0.012155514 -0.061010484 0.07435817 0.022318725
000130 ad 6d ef 3c 73 87 88 3d 25 d9 a0 bd 00 8e 10 bd
       0.029227102 0.0666646 -0.07853917 -0.03529167
000140 24 1c 5d bd a0 9d 46 3c 41 65 8c 3d 46 89 87 bd
       -0.053981915 0.012122542 0.0685525 -0.0661798
000150 1f 9f 86 3d e6 1d 73 bd b7 29 b2 bd a7 2e 6f 3d
       0.06573319 -0.059354685 -0.08699363 0.0583941
000160 ff c4 69 bd ac dd 85 3d 99 3c d6 3b 9f 30 64 3c
       -0.057072636 0.06536421 0.0065379855 0.013927608
000170 11 31 4b 3d c2 15 3b bd 79 0e b2 3c 7e 44 b6 bc
       0.04960734 -0.045675047 0.021735417 -0.022249456
000180 50 d1 9b bd 45 27 95 3d c3 b5 21 3c e3 a5 05 3d
       -0.076082826 0.07282881 0.0098699955 0.032628905
000190 d5 7d 4d 39 d5 64 e7 3c 17 6c 56 3d 95 d0 a2 bb
       0.000195972 0.028246323 0.052349176 -0.0049687126
0001a0 4c 54 08 3d 44 d4 a9 3d 34 77 92 bd 8d ad 9a 3d
       0.033283517 0.082924396 -0.071516424 0.075526334
0001b0 93 96 af bd a5 c5 9a 3c 5d 3e ab 3d 6a fd 40 3d
       -0.08573642 0.018893072 0.08361504 0.047116674
0001c0 62 20 43 bd 9e 88 8a bc 34 4f 7c bd 55 50 fa bc
       -0.047638305 -0.016910847 -0.06159897 -0.030555883
0001d0 06 cf 3f 3d 12 ca 1d bd db 68 01 bc c8 49 51 bd
       0.046828292 -0.038522787 -0.007898535 -0.051095754
0001e0 5f 09 75 bd 87 2f 40 3d 19 2d 09 3d 10 8d 36 3d
       -0.05982339 0.046920326 0.033490274 0.04456812
0001f0 b5 7d 94 ba 7c cd ad 3d 8e 1d b7 3c 1b 15 7c 3d
       -0.0011328968 0.08486459 0.02235296 0.061543565

encoder.0.weight f4 [128, 256]
000000 00 54 f5 b9 5e 54 09 3d 16 b3 52 bd 80 66 3c bd
       -0.00046792626 0.033527724 -0.05144032 -0.04599619
000010 f4 32 c5 bc ec 4b 89 3c 40 4f a2 ba ce fa 4a 3d
       -0.024072148 0.016759835 -0.0012383237 0.049555592
000020 70 bf b5 bb 4c 7b 87 3c ac bb 9a bc 70 48 49 bc
       -0.005546503 0.016538285 -0.018888317 -0.012285337
000030 b8 91 74 bd 52 8b 29 bd e8 0e d3 bc 00 bb 17 3b
       -0.05970928 -0.04139263 -0.025763944 0.0023152232
000040 60 69 ca 3c 18 9b 19 3d 8c 8d 2d bd fc f4 de bc
       0.02470845 0.037501425 -0.042371318 -0.027216427
000050 98 f7 b9 3c 4e 94 54 3d 48 bd 52 bc 5c 91 3f 3d
       0.02270107 0.051899247 -0.012862511 0.046769485
000060 40 0d 25 bc 10 b5 d8 3b 4a cd 67 3d ce 7b 6d bd
       -0.01007396 0.006613381 0.056592263 -0.057979397
000070 66 29 21 bd e0 9e 81 bc dc 93 c7 bc 28 2f 5d 3d
       -0.03934612 -0.015822828 -0.024362497 0.05400005
000080 1a ef 25 bd c0 b0 eb bc 1a da 32 bd 76 c2 6f bd
       -0.04051123 -0.028770804 -0.04366503 -0.05853506
000090 04 70 15 bd 9e 0e 5c 3d bc 76 e4 3c 00 27 f8 3c
       -0.03648378 0.053724878 0.027888648 0.030292034
0000a0 40 6a 57 3b 3a 3f 03 bd c0 3e 2d 3c 9e 06 6f bd
       0.0032869726 -0.03204272 0.010574043 -0.05835592
0000b0 1a fa 38 bd c6 f9 03 bd 26 85 21 3d 26 19 16 3d
       -0.04516039 -0.032220624 0.03943362 0.036645077
0000c0 c8 11 e3 bc 20 cb 13 bb 40 ba 23 3d 82 7f 7e 3d
       -0.02771844 -0.0022551492 0.039972544 0.06213332
0000d0 24 34 cb 3c c8 55 0a 3c fe a4 2b 3d c0 bb 16 bd
       0.024805136 0.008443303 0.041905396 -0.036800146
0000e0 f8 d0 3e 3c 6c 7a 46 bd 18 6e 31 bd d2 3e 04 bd
       0.011646502 -0.048456594 -0.043317884 -0.032286473
0000f0 8c aa e7 3c f8 e7 cd 3c 6a a4 17 bd c8 ad 9a 3c
       0.028279565 0.025135025 -0.03702203 0.018881693
000100 6e 89 0c 3d 20 3f 01 bc 40 64 1c 3b 00 44 6d 3c
       0.03431075 -0.007888585 0.0023863465 0.0144815445
000110 00 d1 1e 3d 48 cf 75 3d 96 47 45 bd ec a1 bb bc
       0.038773537 0.060012132 -0.048163973 -0.022904359
000120 98 38 c9 3c d0 1b 54 3d e8 c5 5e 3d 22 e2 61 3d
       0.024563119 0.051784337 0.054387957 0.055147298
000130 78 ca 4b 3c f8 9c 5e bd 90 66 bc 3b ac 27 20 bd
       0.012438409 -0.054348916 0.005749531 -0.039100334
000140 8c 94 6e bd 3e 74 63 3d f0 a6 42 3d fe 5d 7f bd
       -0.058247134 0.05553078 0.047522485 -0.062345497
000150 08 aa 3f 3c c8 80 2c bc b8 82 28 bc 1c 5f ea bc
       0.011698253 -0.010528751 -0.010285072 -0.028609805
000160 8c e4 c4 3c 34 a1 17 bd dc b1 bb 3c 16 76 01 3d
       0.02403476 -0.03701897 0.022911958 0.031606756
000170 5c 43 37 3d 48 71 bf 3c 4a 5f 7d bd 00 11 26 bd
       0.044741973 0.023369446 -0.061858453 -0.040543556
000180 38 a6 ff 3c 18 53 56 3c 96 b3 47 bd e8 68 13 bd
       0.031207189 0.0130813345 -0.04875525 -0.03598872
000190 f2 d4 70 3d 54 7f 2c 3d b0 3e df bc d4 dc 80 bc
       0.05879683 0.042113617 -0.027251571 -0.015730299
0001a0 78 dd 73 bd 80 3e 93 ba 78 c8 40 bd a2 77 45 bd
       -0.05953738 -0.0011233836 -0.047066182 -0.048209794
0001b0 20 b0 61 bb a0 bf 19 3c f4 ad d1 bc 98 e7 17 3d
       -0.0034437254 0.009384066 -0.025595643 0.0370861
0001c0 38 c9 1b bd 68 49 68 3d d0 6f 2f 3d 64 e1 57 bd
       -0.038033694 0.05671063 0.042831242 -0.052705184
0001d0 88 db 7e bc 80 d2 38 3b 18 67 15 3c d0 dd 72 3c
       -0.01555527 0.002820164 0.009118818 0.014823392
0001e0 5c ec c8 3c e0 59 75 3b cc d1 f9 bc d4 45 f2 3c
       0.024526767 0.0037437603 -0.030495547 0.029574312
0001f0 56 91 75 bd a0 bb 17 bd 3c 2b 80 bc ec 66 f9 bc
       -0.059953056 -0.037044168 -0.015645616 -0.030444585
000200 5c 1d b3 bc ba d2 51 bd 00 d2 59 bc f8 e2 5a 3c
       -0.021864586 -0.051226355 -0.013294697 0.013359778
000210 76 c6 26 bd 40 34 52 bb 00 42 37 3d f0 88 d2 bb
       -0.04071661 -0.00320746 0.044740677 -0.0064250156
000220 80 ac e3 3a c0 ad b0 bb 10 3d 4f 3c 60 c6 22 3d
       0.0017370135 -0.0053918064 0.012648836 0.039739966
000230 ba 7e 72 3d 06 93 22 3d c4 0c 73 3d 60 1d 94 bb
       0.059202887 0.039690994 0.059338346 -0.0045201033
000240 66 f8 65 bd 40 ba f2 bc ce 4f 2e 3d 00 6b d4 b9
       -0.056145094 -0.029629827 0.042556576 -0.00040515512
000250 dc 7c fe bc 02 2d 44 bd 00 94 6f bd ec 10 58 bd
       -0.031065397 -0.047894485 -0.058490753 -0.052750513
000260 70 b4 4f bc 56 64 0c 3d 74 67 0a 3d 02 e5 76 bd
       -0.012677297 0.034275375 0.033790067 -0.060276993
000270 2e b0 1f 3d 8a 52 48 bd f0 7b 58 bc 1c 9a cf bc
       0.038986377 -0.04890684 -0.013213143 -0.02534204
000280 f0 3c 45 bc 10 0e 49 bc ba b8 65 bd 44 0a 5d bd
       -0.012038454 -0.012271419 -0.056084372 -0.05396487
000290 28 3c 20 bc 80 e1 53 3a b8 96 e8 bc b8 de c0 3c
       -0.009779967 0.00080826133 -0.02839218 0.0235437
0002a0 3a 6a 66 bd c0 36 8a bb a2 21 61 3d 38 d7 d0 bc
       -0.05625365 -0.0042179525 0.054963715 -0.02549325
0002b0 36 2b 67 3d 38 6c b9 3c ae 07 67 bd 74 f8 21 3d
       0.056437694 0.02263461 -0.05640381 0.039543584
0002c0 f0 53 ec bb 70 8f e4 bc 14 b6 4c 3d 54 df 4e bd
       -0.0072121546 -0.027900428 0.04997833 -0.05050595
0002d0 b0 c2 db 3b c0 64 56 bc 16 d0 36 3d 08 ec 8e 3c
       0.006706558 -0.013085544 0.04463204 0.017446533
0002e0 cc 04 f6 3c 40 d1 b4 3c 00 3f 76 bc 50 5a 57 bc
       0.030031584 0.022072434 -0.015029669 -0.013144091
0002f0 00 f7 52 bd 4c b6 0a 3d 26 42 4b 3d 5c 29 2f 3d
       -0.05150509 0.033865258 0.04962363 0.042764053
000300 ac 93 34 bd 60 ae 36 3b 90 76 34 bd 88 ec 0c bd
       -0.044086143 0.0027874932 -0.044058383 -0.03440526
000310 30 2c 15 bd 34 f9 ae 3c c4 8d 18 bd 00 ba b2 ba
       -0.036419094 0.021359064 -0.037244573 -0.0013635755
000320 a0 4f 2c 3b 04 06 25 3d fa 83 41 bd 44 bf 2f bd
       0.0026292577 0.04028894 -0.047245003 -0.042907014
000330 3c a6 14 bd d6 2e 33 3d cc 0b b8 bc e0 ee 57 3d
       -0.036291346 0.043745838 -0.022466563 0.052718043
000340 a0 24 b9 3c 40 aa 01 3c 00 ed f3 b9 08 6d 4a bc
       0.022600472 0.007914126 -0.0004652515 -0.012355097
000350 40 7a 00 3c 30 d3 69 bc 00 3e e6 b9 c0 a7 02 3c
       0.007841647 -0.014271542 -0.00043915212 0.007974565
000360 98 3e 48 bd 7a 2d 06 bd d8 b7 4e 3d 86 c1 4f bd
       -0.04888782 -0.032758214 0.050468296 -0.050721668
000370 20 0f 93 bb c0 3e 7d 3d 10 f4 b8 3c c0 f0 e7 3a
       -0.004487887 0.06182742 0.022577316 0.001769565
000380 26 da 5d bd 2c a2 fd 3c 08 58 36 bd a8 56 91 bc
       -0.05416312 0.030961119 -0.044517547 -0.017741516
000390 cc c8 ab bc 38 a4 17 bc 80 36 33 3a 96 26 53 3d
       -0.02096977 -0.009255461 0.0006836429 0.05155047
0003a0 80 ab ff 3b 20 4c 65 3d 30 99 1c 3d c6 d8 21 bd
       0.007802427 0.0559808 0.03823203 -0.039513372
0003b0 54 a2 e5 3c 24 f7 34 bd 9c ff d8 bc 40 97 96 3c
       0.028031506 -0.044181004 -0.026489072 0.018382668
0003c0 f0 0e a9 3c f2 0e 40 3d 28 d2 a4 bc 00 d4 d1 38
       0.020637006 0.046889253 -0.020119742 0.00010005385
0003d0 7a cb 03 3d 5a 93 77 bd 42 15 39 3d 30 b1 53 bd
       0.032176472 -0.06044326 0.04518629 -0.05168265
0003e0 00 d0 61 3a e0 18 2e bc 0a d4 06 bd d8 57 07 3c
       0.0008614063 -0.010626048 -0.03291706 0.00826069
0003f0 f2 b0 53 3d e8 aa 95 bc 56 fc 17 bd 84 5b bd bc
       0.05168242 -0.018269971 -0.03710588 -0.023114927

encoder.0.bias f4 [128]
000000 6c 70 ab 3c f6 0f 05 bd be 13 39 3d 32 2b 60 3d
       0.02092763 -0.032485925 0.045184843 0.054728694
000010 8e e9 79 3d c0 af 73 3d 40 60 9d ba d8 c9 4b 3d
       0.06101375 0.05949378 -0.0012006834 0.04975304
000020 9c b7 8a bc d4 9c 4d bd 88 03 2c bc 90 1b fe 3c
       -0.016933255 -0.05019839 -0.010498889 0.031019002
000030 78 9d 2d 3c e2 27 6d bd 2c 98 c5 bc 78 0d 6e 3c
       0.0105966255 -0.057899363 -0.024120413 0.014529578
000040 54 37 2e 3d 9c b0 68 bd 54 c2 ec bc a0 e0 92 bc
       0.042533234 -0.056809053 -0.028901257 -0.017929375
000050 dc 9b 26 3d cc 75 e9 bc d2 2b 00 bd 2e 50 7b bd
       0.040675983 -0.028498553 -0.03129179 -0.061355762
000060 e4 7e f6 3c 9e 27 48 bd 50 d0 b6 bc 68 08 6c 3d
       0.030089803 -0.048865907 -0.022316128 0.057625204
000070 d4 8c 44 3d c0 25 47 bb 22 b3 05 3d a8 d7 ca 3c
       0.047985867 -0.003038749 0.032641537 0.024761036
000080 20 c2 94 3c 58 2f 7d bc 90 cb d9 3c 1a 0a 66 3d
       0.018158972 -0.015453182 0.026586324 0.056161977
000090 20 40 68 bd 32 f3 67 bd 3a 42 62 bd c0 5e fd bc
       -0.05670178 -0.056628413 -0.05523894 -0.03092897
0000a0 b6 6b 07 bd 00 d7 61 3b 9a 0b 33 3d 42 51 4f 3d
       -0.033061706 0.0034460425 0.043712236 0.050614603
0000b0 2c 9d 8e 3c 80 2e 5e 3d 1c e7 1a 3d aa 27 69 bd
       0.01740893 0.054243565 0.03781806 -0.056922592
0000c0 60 8e cb 3c b6 c8 44 3d a0 38 01 3c c4 01 67 bd
       0.024848163 0.048042975 0.007887036 -0.05639817
0000d0 e4 59 05 bd 80 55 70 3b bc b0 25 3d fc 3f a2 3c
       -0.03255643 0.0036672056 0.04045175 0.0198059
0000e0 e0 de 71 bd 02 7b 5f bd fc ec 7b 3d 00 5a 8c bc
       -0.05905044 -0.05456067 0.061505303 -0.01713276
0000f0 50 98 c7 bb 1a 82 75 bd 60 a5 43 3d 58 cd 3a 3c
       -0.006091155 -0.059938528 0.047765136 0.011401497
000100 fc 7d ce 3c 08 51 43 3d 10 23 a2 3c dc 1a 09 bd
       0.025206558 0.0476847 0.01979211 -0.03347288
000110 46 0c 60 3d dc a8 73 bd fe 84 41 bd 76 2f 38 3d
       0.054699205 -0.05948721 -0.04724597 0.044967137
000120 f8 36 10 bc b0 56 ef 3c 58 19 33 bd 6c 9f 86 3c
       -0.008802168 0.02921614 -0.04372534 0.01643344
000130 e8 0d 63 3d a4 c2 9d 3c b0 74 b9 3b 80 46 95 3c
       0.055433184 0.019257851 0.005659662 0.018222094
000140 64 93 f3 bc 0e f0 60 3d 1a ca 5f bd 6a 28 35 3d
       -0.029733367 0.054916434 -0.0546361 0.044227995
000150 ae 31 1b bd e0 dc 71 bb e0 8b f0 3b aa c7 42 3d
       -0.037889175 -0.0036905333 0.007340893 0.047553696
000160 6c 06 4f 3d 52 02 0c 3d 80 9b ae bc dc 46 2a 3d
       0.050543234 0.0341819 -0.021314383 0.041571483
000170 12 a4 40 3d fe a4 49 3d b4 93 85 3c c0 95 dc ba
       0.04703147 0.049229614 0.016305782 -0.0016829297
000180 a8 7f ab 3c 8e 8c 4f 3d 1c ab f8 bc 3c fb d1 bc
       0.020934895 0.050671153 -0.030355029 -0.025632493
000190 50 fe a2 bc 9e ed 5a 3d 40 06 32 3d 6e ae 27 3d
       -0.019896656 0.053449266 0.04346299 0.040937833
0001a0 c0 c2 2f 3c e4 81 3c bd 60 c1 2c bc a0 93 99 bc
       0.010727584 -0.04602231 -0.010544151 -0.01874715
0001b0 ac 04 4c 3d 88 2b b3 3c 94 ab 26 bd 42 5b 10 bd
       0.049809143 0.021871343 -0.040690973 -0.03524328
0001c0 08 1c b0 3c 1c 4c 3c bd 64 ec 6c 3d e0 58 ac 3c
       0.021497741 -0.04597102 0.057842627 0.021038473
0001d0 ea d2 09 bd 66 54 2d 3d 2e c5 72 3d aa 89 5c bd
       -0.03364841 0.042316817 0.059270076 -0.053842224
0001e0 d8 39 10 3c 90 f6 22 bd fa bc 5c bd 70 3c 96 3b
       0.0088028535 -0.03978592 -0.05389116 0.0045848414
0001f0 12 24 09 3d ec 0e 0e bd bc 7f 17 3d e0 5f 78 bb
       0.033481665 -0.0346822 0.03698705 -0.0037898943
