checkpoints/icm/seed2/final.pt (torch, 869915 bytes, 19 tensors)

fc1.weight f4 [256, 256]
-0.042717177 -0.05086672 -0.058731984 0.04312743 0.012403103 0.058391694 0.02793286 -0.038091302
0.08851689 0.009258769 0.0005494787 0.04493436 0.015983645 0.024528658 0.02244093 -0.04105628
-0.029359635 0.049197014 -0.00094785576 0.05133335 0.03785457 0.017779058 0.024095891 0.0047984775
-0.017504111 0.020109842 -0.0063400855 -0.039850127 -0.059376087 -0.051344644 -0.006600755 0.07084496
-0.021601817 -0.034890227 -0.018853355 -0.005647305 -0.01712495 0.035686646 0.051350515 0.01818031
0.048667133 0.025951976 0.04706366 -0.027043762 0.06389539 0.010392312 0.021824354 -0.051689155
0.009386361 -0.024415301 -0.039526306 0.0030846687 -0.00860364 0.010647183 0.015312039 -0.01643955
0.05488231 0.008701553 -0.056330893 0.04440909 0.010430219 -0.03428429 -0.04001256 0.024973337
0.062497705 0.0252975 0.027866282 -0.016355984 0.034582198 0.00225515 -0.039888624 0.06615642
0.032312147 0.042934243 -0.028799891 0.03738204 -0.017945603 0.06366179 0.031144798 0.04460446
0.03313167 -0.04722571 0.012217778 -0.0031582636 -0.0479795 0.051959258 -0.019947983 -0.03803407
-0.043676954 0.006409296 0.026235476 0.035931997 0.060982626 0.06698707 -0.026067853 0.015706345
-0.042120557 0.04416654 0.042262528 0.033970635 -0.052912217 0.01635893 -0.03676145 -0.022560567
0.020237066 0.063490845 0.04038791 -0.0067749247 0.00749366 0.05533846 0.006928787 0.046203773
-0.013818896 -0.0147164995 0.062899135 -0.0011152474 -0.03719188 -0.011604993 -0.032866526 -0.043028746
0.016673297 0.048292074 0.021823399 0.021211386 0.05449148 -0.045414608 -0.044730123 -0.008087499
0.024490623 0.026778856 -0.055536315 -0.04826393 -0.026938291 0.013626792 0.0010030866 -0.053712785
-0.012939189 -0.029099584 -0.047880307 0.059679102 0.030150995 0.037712373 0.039372537 0.015010599
0.06629027 -0.051648412 -0.027820775 -0.054139126 0.06445593 0.022269474 0.014642957 0.029254848
0.013424999 -0.012783322 0.038291316 0.023766847 0.035377335 0.028448692 0.042550836 0.055909857
-0.04132562 0.0048415195 0.025627838 0.02568617 -0.039826192 0.032675024 -0.045075733 -0.02272846
0.05282145 -0.053372182 -0.03377685 0.01380396 -0.036199186 0.03584557 -0.019873824 0.031039108
0.026378615 0.02179488 0.06128406 0.045684274 -0.016149404 0.03142062 0.005009801 -0.024843559
-0.0049355724 0.052232087 0.05174183 -0.03969242 0.019146923 0.037421364 0.02044377 0.01994616
-8.235303e-05 -0.05627744 0.04373892 0.00014150143 -0.020820685 -0.049566083 -0.062384926 0.011037536
-0.06092996 -0.0031255707 0.04932692 -0.033608213 -0.021003889 -0.0484524 0.021195136 -0.021326587
0.038945932 0.024809636 -0.006544769 0.0009653643 0.053198583 -0.044875376 0.029203564 -0.007899225
0.068827994 -0.054037277 0.023592696 0.046057977 -0.027671725 -0.024416566 -0.023693688 -0.001776211
0.062446877 -0.007855845 0.0018097068 0.022765018 -0.005255908 -0.026828744 0.0050031766 -0.029445201
0.033672936 -0.05570259 0.019344287 0.016504824 -0.008921735 0.060352102 -0.030756978 -0.043600276
0.039177015 0.009018397 0.00737036 -0.00567887 0.0584122 0.04647625 0.0140016405 -0.0048849285
-0.050400667 -0.029189393 -0.059456408 0.012766693 -0.051179424 -0.03251125 -0.046905212 0.016503148
00000000: 35f8 2ebd 9f59 50bd f390 70bd 63a6 303d
00000010: 6236 4b3c 212c 6f3d 74d3 e43c a005 1cbd
00000020: 5848 b53d 18b2 173c e40a 103a 170d 383d
00000030: 22f0 823c 53f0 c83c 0bd6 b73c a12a 28bd
00000040: 9e83 f0bc cf82 493d 8679 78ba eb42 523d
00000050: 650d 1b3d 63a5 913c bf64 c53c 8c3c 9d3b
00000060: c864 8fbc 65bd a43c 7ec0 cfbb e339 23bd
00000070: 5734 73bd c34e 52bd 254b d8bb 2a17 913d
00000080: 4bf6 b0bc 0ee9 0ebd 5a72 9abc 070d b9bb
00000090: a049 8cbc 292c 123d eb54 523d e0ee 943c
000000a0: 3057 473d 3d99 d43c d3c5 403d e18a ddbc
000000b0: 96db 823d 8444 2a3c fdc8 b23c 02b8 53bd
000000c0: 40c9 193c 9902 c8bc 56e6 21bd 2728 4a3b
000000d0: 48f6 0cbc 8671 2e3c 59df 7a3c 3cac 86bc
000000e0: 46cc 603d f590 0e3c 39bb 66bd 4ee6 353d
000000f0: 82e3 2a3c af6d 0cbd 36e4 23bd e294 cc3c
00000100: 98fd 7f3d b43c cf3c d447 e43c fcfc 85bc
00000110: 10a6 0d3d 23cb 133b 4162 23bd 047d 873d
00000120: be59 043d d1db 2f3d c0ed ebbc e91d 193d
00000130: a802 93bc 1d61 823d 6023 ff3c 2bb3 363d
00000140: 13b5 073d bf6f 41bd 132d 483c dffa 4ebb
00000150: 2786 44bd 3bd3 543d f469 a3bc 9dc9 1bbd
00000160: 9be6 32bd 1205 d23b c8eb d63c 6e2d 133d
00000170: ebc8 793d 8430 893d 408c d5bc 98aa 803c
00000180: 9b86 2cbd f9e7 343d 791b 2d3d cb24 0b3d
00000190: 7bba 58bd 2a03 863c 2d93 16bd f0d0 b8bc
000001a0: 34c8 a53c 7d07 823d cb6d 253d 3000 debb
000001b0: 608d f53b 95aa 623d e10a e33b 2b40 3d3d
000001c0: a768 62bc 791d 71bc 43d1 803d 7e2d 92ba
000001d0: 8356 18bd de22 3ebc 0d9f 06bd e93e 30bd
000001e0: 7096 883c e9cd 453d fcc6 b23c 80c3 ad3c
000001f0: 7532 5f3d ab04 3abd ef36 37bd 6e81 04bc
00000200: 8fa0 c83c 555f db3c 0c7a 63bd 66b0 45bd
00000210: b1ad dcbc e842 5f3c 007a 833a f001 5cbd
00000220: e4fe 53bc 4062 eebc 241e 44bd 1372 743d
00000230: 38ff f63c 4a78 1a3d 1945 213d 04ef 753c
00000240: 31c3 873d 498d 53bd 65e8 e3bc fdc0 5dbd
00000250: 7801 843d 796e b63c 03e9 6f3c dda7 ef3c
00000260: 87f4 5b3c 2371 51bc 5bd7 1c3d b1b2 c23c
00000270: d3e7 103d 3b0d e93c c949 2e3d bc01 653d
00000280: 0e45 29bd 9ca5 9e3b 79f1 d13c ce6b d23c
00000290: ca20 23bd 3fd6 053d 55a1 38bd 0931 babc
000002a0: 4e5b 583d ca9c 5abd 9859 0abd 012a 623c
000002b0: 9945 14bd ced2 123d 6ece a2bc ba45 fe3c
000002c0: f717 d83c 2d8b b23c ff04 7b3d 6f1f 3b3d
000002d0: c14b 84bc e8b2 003d 4229 a43b b884 cbbc
000002e0: 95ba a1bb 50f1 553d 3eef 533d 8594 22bd
000002f0: 02da 9c3c 2547 193d b179 a73c 2166 a33c
00000300: f2b4 acb8 2c83 66bd 9527 333d 0060 1439
00000310: 2490 aabc ce05 4bbd 5687 7fbd c8d6 343c
00000320: b291 79bd 60d6 4cbb 060b 4a3d c4a8 09bd
00000330: 5910 acbc 0676 46bd 6ca1 ad3c 18b5 aebc
00000340: c585 1f3d 943d cb3c 8075 d6bb 8010 7d3a
00000350: c2e6 593d 3ecf 37bd 503c ef3c c06b 01bc
00000360: b1f5 8c3d 3156 5dbd 7845 c13c 4aa7 3c3d
00000370: d0af e2bc 4005 c8bc 4419 c2bc c0cf e8ba
00000380: 4cc8 7f3d cdb5 00bc af33 ed3a b47d ba3c
00000390: c039 acbb f4c7 dbbc b0f1 a33b 1037 f1bc
000003a0: a2ec 093d 6628 64bd e977 9e3c 2035 873c
000003b0: 782c 12bc c433 773d 0ff6 fbbc 3496 32bd
000003c0: 1478 203d e6c1 133c 1083 f13b d015 babb
000003d0: a241 6f3d e15d 3e3d 2367 653c c011 a0bb
000003e0: ee70 4ebd 981e efbc 9088 73bd 642b 513c
000003f0: 84a1 51bd 842a 05bd ae1f 40bd 9c31 873c

fc1.bias f4 [256]
0.03223201 -0.055247985 -0.050452124 -0.015957551 0.015930025 -0.037516214 -0.029693108 0.059429724
0.03379063 0.041639306 -0.03793703 0.011431754 -0.02145491 0.013328532 0.057848625 -0.010677973
-0.058810294 -0.017349407 -0.054056592 -0.06300065 -0.04838261 0.02025359 -0.05120976 0.059637457
-0.05978457 0.02382831 -0.058735214 -0.05803612 -0.00026015617 0.005635187 -0.044347733 -0.03913742
-0.035470404 0.004366908 -0.02548119 0.042250548 0.027280092 -0.050948285 0.057217535 -0.05270401
-0.036746774 -0.056298465 -0.00019874545 0.00043464082 -0.043764483 -0.006752322 0.059783723 -0.011366857
0.016532388 0.061668452 0.04762626 0.0012980119 -0.045408495 -0.03490155 -0.016364174 -0.025162183
-0.025294265 -0.052804086 0.0063017462 0.024907056 -0.046590634 -0.006747693 0.0013479441 -0.02239392
-0.0322401 0.029860122 -0.004814369 -0.012185979 0.06881896 0.013187529 0.04954401 -0.054742467
0.03449776 0.01955947 -0.055143867 -0.031608373 0.011766776 0.0018145056 0.001262048 0.042460356
-0.022297878 0.034183346 -0.038098402 0.048778724 0.06509207 0.03882967 0.007387742 -0.028529458
-0.049317744 0.011266514 0.04288381 0.019025918 -0.024741493 -0.01882228 0.057377696 -0.034003604
0.0059265867 0.03679544 0.028742298 0.04421182 0.03986564 0.036420114 -0.033988126 -0.054431308
-0.025804859 -0.057056636 0.020287294 0.012235036 -0.017491687 0.0395369 -0.0010332457 -0.015472747
0.028826138 -0.020237999 0.030542843 0.025625166 -0.026417777 0.031458892 -0.035166215 -0.0015488421
-0.010765522 -0.030463733 0.01055385 -0.05328858 0.064288825 -0.036996696 -0.009624195 -0.021429453
0.047889978 0.05514023 0.009117891 -0.059526525 0.01229725 -0.0336882 0.04900832 -0.014409283
0.05410406 0.043572646 0.05381609 0.037451785 0.05204254 0.0016072934 0.018956263 -0.010433734
-0.008616816 -0.034863528 0.009469001 -0.0051855296 -0.0016011389 -0.03210153 0.02591669 -0.0062300516
-0.050304405 -0.037993237 -0.042590395 0.039456125 -0.057872355 0.044347536 0.0075360537 0.05321292
0.03268751 0.054105 -0.0081349835 -0.014128563 -0.043290664 -0.0050289524 0.03254231 -0.02266188
-0.05054602 -0.0065643354 0.00324806 -0.028150706 -0.034215186 0.038995482 0.00066797144 0.044632416
0.039381463 0.05232466 -0.03530331 -0.004638739 0.015348701 -0.0071796943 -0.02883718 -0.016559105
-0.042132102 -0.009997979 -0.04157014 0.034660902 -0.023953503 -0.009475035 0.039426785 0.020809555
-0.0010403154 -0.008986253 -0.028736249 -0.013067137 0.0042552585 0.0041069007 -0.05862468 -0.04591455
0.046283033 0.05926851 -0.016039765 -0.023122808 0.02718702 -0.0489712 0.04013782 0.028704992
-0.033016175 0.030542405 0.05346602 0.00057558576 -0.043779097 0.024477324 -0.025863772 0.0023826708
0.029599972 0.04861379 -0.011993355 0.026752278 -0.0030912852 0.040924385 0.046353776 0.042092368
0.041971978 -0.047507156 0.01700184 -0.01063124 0.036895636 0.017281536 -0.046142887 0.0060240226
0.026144957 0.041980118 -0.030320227 -0.050332427 -0.019507531 -0.003975599 -0.042572983 0.01667201
0.014997881 -0.027253972 0.06075997 -0.01370769 -0.024525221 0.017671444 -0.015242905 0.024091238
0.014144682 0.051262204 0.009698725 -0.021364521 0.054394353 -0.034991853 0.008957847 -0.016189728
00000000: b605 043d b64b 62bd e3a6 4ebd 69b9 82bc
00000010: af7f 823c 9aaa 19bd f63e f3bc 956c 733d
00000020: 0b68 0a3d fa8d 2a3d dc63 1bbd 404c 3b3c
00000030: 35c2 afbc ea5f 5a3c aef2 6c3d aaf2 2ebc
00000040: 10e3 70bd 5820 8ebc 726a 5dbd 7c06 81bd
00000050: d82c 46bd dbea a53c 53c1 51bd 6846 743d
00000060: aae0 74bd 9733 c33c 5694 70bd 48b7 6dbd
00000070: 9265 88b9 60a7 b83b f8a5 35bd 8f4e 20bd
00000080: 6a49 11bd 4818 8f3b eebd d0bc e90e 2d3d
00000090: 807a df3c 26af 50bd ef5c 6a3d 29e0 57bd
000000a0: c983 16bd 3899 66bd 5366 50b9 81e0 e339
000000b0: 6342 33bd 9542 ddbb c7df 743d 0e3c 3abc
000000c0: ee6e 873c 0f98 7c3d c113 433d 0d22 aa3a
000000d0: 42fe 39bd edf4 0ebd 290e 86bc ec20 cebc
000000e0: eb35 cfbc 1949 58bd e17e ce3b e209 cc3c
000000f0: d2d5 3ebd c01b ddbb 80ad b03a 7473 b7bc
00000100: 320e 04bd 379d f43c dbc1 9dbb b3a7 47bc
00000110: f4f0 8c3d 8110 583c a9ee 4a3d a339 60bd
00000120: 864d 0d3d 2e3b a03c 89de 61bd c877 01bd
00000130: 70c9 403c b4d4 ed3a 4e6b a53a e9ea 2d3d
00000140: 0aaa b6bc d603 0c3d 120d 1cbd 33cc 473d
00000150: fe4e 853d dc0b 1f3d df14 f23b 9cb6 e9bc
00000160: 6701 4abd 2f97 383c efa6 2f3d 3edc 9b3c
00000170: acae cabc 2f31 9abc e004 6b3d 5d47 0bbd
00000180: d033 c23b d1b6 163d f874 eb3c 7417 353d
00000190: 274a 233d 422d 153d 2237 0bbd 5df3 5ebd
000001a0: b664 d3bc 38b4 69bd 8a31 a63c 7675 483c
000001b0: ba4a 8fbc 72f1 213d f96d 87ba 6881 7dbc
000001c0: cb24 ec3c 29ca a5bc fc34 fa3c deeb d13c
000001d0: 186a d8bc 0adb 003d 730a 10bd 8402 cbba
000001e0: df61 30bc 148f f9bc 0eea 2c3c 2045 5abd
000001f0: dca9 833d d989 17bd cdae 1dbc d28c afbc
00000200: 4828 443d b9da 613d 3563 153c 16d2 73bd
00000210: 687a 493c a3fc 09bd f3bc 483d ea14 6cbc
00000220: 389c 5d3d 3b79 323d 436e 5c3d 0b67 193d
00000230: 8f2a 553d d1ab d23a 2a4a 9b3c 41f2 2abc
00000240: 8c2d 0dbc 0fcd 0ebd de23 1b3c 60eb a9bb
00000250: 4edd d1ba e57c 03bd 3d4f d43c 7625 ccbb
00000260: fe0b 4ebd cc9e 1bbd 4473 2ebd bf9c 213d
00000270: 900b 6dbd c3a5 353d 00f1 f63b caf5 593d
00000280: 57e3 053d 349d 5d3d 9848 05bc 7d7b 67bc
00000290: 8d51 31bd e9c9 a4bb 164b 053d 68a5 b9bc
000002a0: 5809 4fbd a319 d7bb 67dd 543b 4f9c e6bc
000002b0: 3925 0cbd bab9 1f3d ce1a 2f3a 7bd0 363d
000002c0: 754e 213d 6252 563d 349a 10bd 9000 98bb
000002d0: 1e79 7b3c a443 ebbb f33b ecbc f6a6 87bc
000002e0: b692 2cbd 90ce 23bc 7345 2abd 97f8 0d3d
000002f0: 233a c4bc 2d3d 1bbc fb7d 213d cd78 aa3c
00000300: 315b 88ba 143b 13bc 4868 ebbc 8c17 56bc
00000310: b26f 8b3b 2e93 863b 6f20 70bd e510 3cbd
00000320: 4793 3d3d 8ac3 723d d365 83bc 0b6c bdbc
00000330: 50b7 de3c 0696 48bd 8e67 243d bb26 eb3c
00000340: f83b 07bd 1134 fa3c 2fff 5a3d e8e2 163a
00000350: b651 33bd ab84 c83c 43e0 d3bc 9526 1c3b
00000360: a47b f23c 411f 473d c77f 44bc 9827 db3c
00000370: 2997 4abb 54a0 273d 75dd 3d3d 0c69 2c3d
00000380: cfea 2b3d dd96 42bd 7147 8b3c a72e 2ebc
00000390: e11f 173d 0292 8d3c 5300 3dbd 2a65 c53b
000003a0: f32d d63c 58f3 2b3d 2062 f8bc 6029 4ebd
000003b0: 42ce 9fbc be45 82bb 0261 2ebd bd93 883c
000003c0: acb9 753c b943 dfbc 72df 783d 3896 60bc
000003d0: 1ee9 c8bc b4c3 903c 61bd 79bc fd5a c53c
000003e0: 19bf 673c 51f8 513d 67e7 1e3c a604 afbc
000003f0: 9dcc 5e3d 9e53 0fbd efc3 123c 52a0 84bc

fc2.weight f4 [128, 256]
0.031027906 0.0628437 0.061862096 0.06375873 -0.016292518 0.021137677 0.056975238 0.021777123
-0.055414528 -0.008281919 0.055117365 0.036444135 0.008473197 0.052019995 -0.025198625 -0.044655804
-0.012596771 0.029575557 0.060394183 -0.024212666 0.015455542 0.062494427 -0.024358189 0.05232726
-0.056569364 -0.0021806178 -0.04787219 0.03081733 0.064053565 -0.031767607 0.02571525 0.007878845
0.07021226 -0.026605358 -0.04198883 -0.044266485 -0.023319203 0.0457843 0.0035191288 0.04056357
0.011076339 0.046961896 0.021291792 0.015844755 0.052605767 -0.059761353 0.06409506 0.016337289
0.026707435 0.015559196 -0.030541237 -0.049831554 0.033731036 0.021507783 -0.0036035422 -0.0035180673
-0.055747148 0.01480621 0.01449699 0.064324535 -0.05319587 -0.017626986 -0.020749062 -0.027681064
-0.009005338 0.019700542 0.044506215 0.046055544 0.021726076 -0.021463327 -0.042834464 -0.044869415
0.03117937 0.06525571 -0.04820731 -0.0364209 0.023651334 0.024291558 -0.03419305 0.060415976
0.021282712 -0.024133515 -0.016007792 0.054561343 -0.019332802 -0.010684156 -0.014118731 0.054497994
-0.045297075 0.046209898 0.007313948 0.02310969 -0.03686089 0.040822744 -0.034559444 0.04391265
0.02311647 0.0030246212 0.04042519 0.037566464 -0.012941853 0.045237627 0.022748081 0.023340493
0.021442361 -0.032952897 0.042660918 0.020959346 -0.0019131473 -0.014489157 0.013661717 -0.021375336
0.03185629 0.06631285 -0.030672062 0.073314734 0.030641485 0.0233056 -0.042177994 -0.027833188
0.02844702 -0.019442186 0.063775904 0.0063299816 -0.049971126 0.060604177 0.055647317 0.037171297
0.05817678 0.065514 -0.01539195 -0.036006115 -0.052205645 0.03416208 -0.023706546 0.0010036778
-0.03346633 -0.03542781 -0.0014254816 -0.019659186 -0.031290155 0.049773596 -0.007844427 0.062794946
0.05035739 0.002107119 0.026505675 -0.045853645 -0.006338408 0.028043259 0.04627233 -0.02291967
-0.014819121 0.047365356 -0.009005165 0.045356415 0.053972863 -0.032480408 0.012963325 -0.021182707
-0.026996534 0.06730387 -0.03964874 -0.0370462 -0.054115444 -0.040495418 0.053052004 -0.01872418
0.022138815 0.030519508 -0.03693776 0.06495668 0.057835754 0.051410038 -0.0017401433 0.04030887
0.04735987 -0.056545805 0.060439184 0.002609238 -0.044726867 -0.03477405 -0.022508033 -0.04724037
0.062657684 0.03050191 -0.02445386 -0.0019910831 0.053820755 0.054138362 0.047318146 -0.029441506
-0.017987547 0.02782358 0.048673946 -0.0121639315 -0.013598872 0.018708317 0.034526996 -0.04362595
0.020406459 -0.014799259 -0.004314985 -0.05066006 0.0064209243 -0.021907292 -0.001348057 0.022663016
0.03642588 -0.009615919 -0.022141146 0.03963896 0.021580223 0.067598104 -0.043942396 0.055485666
-0.026490493 -0.022549674 0.061177712 0.063897096 0.05520473 -0.0005595434 0.017226463 -0.04860788
0.054914147 -0.027131196 0.01678468 0.063617535 0.061514456 -0.053680275 0.005486996 0.047817796
-0.008789702 0.03754072 -0.035241112 0.074964434 -0.006886027 0.02445018 -0.04872942 -0.04986749
-0.02581816 0.031668853 0.046317022 0.0056177815 0.029987257 -0.016695717 -0.05763889 -0.014455742
-0.018573921 -0.0005082323 -0.03730638 -0.006134009 -0.018816553 0.0574321 -0.056176618 -0.029515283
00000000: 3c2e fe3c 33b4 803d 1c63 7d3d f093 823d
00000010: e377 85bc ec28 ad3c de5e 693d f065 b23c
00000020: 58fa 62bd e3b0 07bc bfc2 613d 7246 153d
00000030: 2ad3 0a3c eb12 553d 596d cebc 01e9 36bd
00000040: b062 4ebc 7048 f23c e45f 773d a459 c6bc
00000050: 3e39 7d3c 28fa 7f3d d38a c7bc 1c55 563d
00000060: 47b5 67bd b2e8 0ebb a115 44bd a074 fc3c
00000070: 842e 833d c01e 02bd caa8 d23c 4516 013c
00000080: 72cb 8f3d 7bf3 d9bc 7bfc 2bbd c650 35bd
00000090: ea07 bfbc 5188 3b3d 2fa1 663b fc25 263d
000000a0: 8879 353c 1e5b 403d 206c ae3c dccc 813c
000000b0: 2579 573d 52c8 74bd 4544 833d c7d5 853c
000000c0: 8dc9 da3c ffeb 7e3c 9e31 fabc 2c1c 4cbd
000000d0: 8e29 0a3d 1731 b03c 6829 6cbb 608f 66bb
000000e0: 1f57 64bd bf95 723c c884 6d3c 95bc 833d
000000f0: eae3 59bd 7866 90bc f0f9 a9bc 66c3 e2bc
00000100: 208b 13bc 0863 a13c 264c 363d bda4 3c3d
00000110: e2fa b13c dcd3 afbc 3173 2fbd fec8 37bd
00000120: e16b ff3c c9a4 853d 0775 45bd 152e 15bd
00000130: 71c0 c13c 17ff c63c 030e 0cbd be76 773d
00000140: 1559 ae3c a6b3 c5bc c622 83bc b77b 5f3d
00000150: d35f 9ebc 990c 2fbc 4052 67bc 4a39 5f3d
00000160: 6d89 39bd 9746 3d3d d8a9 ef3b 8850 bd3c
00000170: 72fb 16bd c035 273d 348e 0dbd c0dd 333d
00000180: c05e bd3c b938 463b e294 253d 4bdf 193d
00000190: 110a 54bc 174b 393d 2f5a ba3c 9034 bf3c
000001a0: e4a7 af3c 9ef9 06bd 37bd 2e3d efb2 ab3c
000001b0: 92c2 faba ee63 6dbc 65d5 5f3c 541b afbc
000001c0: be7b 023d 08cf 873d fa43 fbbc 0926 963d
000001d0: da03 fb3c 63eb be3c d5c2 2cbd 6d02 e4bc
000001e0: ba09 e93c 3845 9fbc f19c 823d bc6b cf3b
000001f0: 86ae 4cbd 163c 783d 71ee 633d ee40 183d
00000200: c64a 6e3d 342c 863d 842e 7cbc 267b 13bd
00000210: 96d5 55bd 8aed 0b3d 3b34 c2bc d78d 833a
00000220: fe13 09bd c01c 11bd 3ad7 baba 4d0c a1bc
00000230: 1b2a 00bd 66df 4b3d e985 00bc a39a 803d
00000240: 8d43 4e3d 9717 0a3b 6e22 d93c 08d1 3bbd
00000250: 6cb2 cfbb faba e53c 0e88 3d3d 08c2 bbbc
00000260: e6cb 72bc 2d02 423d 668a 13bc a6c7 393d
00000270: a612 5d3d 2d0a 05bd 2064 543c 5b87 adbc
00000280: d627 ddbc 9dd6 893d b866 22bd c2bd 17bd
00000290: 28a8 5dbd 86de 25bd 0f4d 593d 7463 99bc
000002a0: 765c b53c 0c04 fa3c 0c4c 17bd 0208 853d
000002b0: 2fe5 6c3d 5593 523d 8515 e4ba ea1a 253d
000002c0: 6cfc 413d 939c 67bd 148f 773d c0ff 2a3b
000002d0: 8533 37bd 3c6f 0ebd c462 b8bc 1e7f 41bd
000002e0: ac52 803d 24df f93c 7653 c8bc d57c 02bb
000002f0: 2773 5c3d 30c0 5d3d acd0 413d 502f f1bc
00000300: 9f5a 93bc 47ee e33c 555e 473d 3a4b 47bc
00000310: cecd 5ebc 2f42 993c 2e6c 0d3d 20b1 32bd
00000320: 722b a73c 9778 72bc b864 8dbb ec80 4fbd
00000330: 9e66 d23b ec76 b3bc 49b1 b0ba caa7 b93c
00000340: 4e33 153d 168c 1dbc 5961 b5bc 765c 223d
00000350: 02c9 b03c e070 8a3d f1fc 33bd f044 633d
00000360: 9702 d9bc 18ba b8bc 7b95 7a3d 7bdc 823d
00000370: 5b1e 623d 52ae 12ba 831e 8d3c 0e19 47bd
00000380: a8ed 603d 3e42 debc 0680 893c e949 823d
00000390: 95f6 7b3d d9df 5bbd 42cc b33b 98dc 433d
000003a0: af02 10bc 4cc4 193d fc58 10bd f486 993d
000003b0: 2ea4 e1bb be4b c83c 8098 47bd da41 4cbd
000003c0: 9b80 d3bc 33b7 013d ebb6 3d3d 5e15 b83b
000003d0: d6a7 f53c 75c5 88bc c216 6cbd c7d7 6cbc
000003e0: 5628 98bc e43a 05ba 93ce 18bd ccff c8bb
000003f0: 2c25 9abc ec3d 6b3d 7419 66bd 09ca f1bc

fc2.bias f4 [128]
-0.004817651 -0.04605008 -0.028736431 -0.016938997 0.021998474 -0.01907402 -0.0362591 -0.02171134
-0.046907946 -0.0386065 0.053562123 0.03892547 -0.0048434846 -0.035927378 0.0039080577 0.017202424
0.05873229 -0.044440076 -0.038347527 0.06451458 -0.06249568 0.04929805 0.01992918 -0.04069856
-0.015749196 -0.012344137 -0.013481416 -0.01919704 -0.038821068 0.04568711 0.04679444 -0.0652163
-0.03194152 0.026111048 -0.016502518 -0.0020255558 0.015655048 -0.04746952 0.0053050765 0.016365875
0.025057932 -0.059807565 0.040288758 0.0013218273 -0.0046059326 -0.019860663 0.06924374 -0.011026433
-0.02411826 0.0071868896 -0.04901996 0.040871173 0.022412412 0.020027505 0.0378519 0.008660673
-0.04600932 -0.008566433 -0.01187453 0.019146834 -0.043434102 0.030020842 -0.02594699 0.032034937
0.007932275 0.038613662 -0.021229543 0.026742868 -0.04946512 0.048645183 0.041110456 0.046479095
-0.02240703 0.020253131 -0.02088327 0.05764284 0.03970463 0.012591241 0.025039073 0.0024193549
0.023946771 0.0540786 0.03933012 -0.032277048 -0.011712587 -0.032247543 0.035638463 0.06308586
0.03723677 -0.021711022 -0.012304454 -0.06319867 -0.012263407 0.021331532 -0.009370975 0.016515182
-0.014839685 -0.0641082 -0.017669199 0.057105016 -0.028501121 0.050842714 0.031058006 -0.049139798
-0.037372332 -0.025878001 -0.014334689 -0.008751223 0.00526167 -0.047459327 -0.04677982 0.023951685
0.0029006004 -0.010089306 -0.025466261 -0.05135768 -0.051373724 0.037466187 -0.0021353504 -0.04893638
0.017414972 -0.04512448 -0.061044596 -0.0020870592 0.057016313 0.01715504 -0.062019996 -0.0029731754
00000000: 63dd 9dbb 029f 3cbd aa68 ebbc a7c3 8abc
00000010: 2536 b43c 1f41 9cbc 6c84 14bd fbdb b1bc
00000020: 8c22 40bd d921 1ebd f563 5b3d 5070 1f3d
00000030: 18b6 9ebb 9628 13bd 2a0f 803b 19ec 8c3c
00000040: 4591 703d cc06 36bd 4c12 1dbd 3820 843d
00000050: 78fb 7fbd c1ec 493d 8542 a33c 89b3 26bd
00000060: 7504 81bc 103f 4abc 28e1 5cbc 1c43 9dbc
00000070: d702 1fbd 6822 3b3d 87ab 3f3d 2090 85bd
00000080: 1cd5 02bd d6e6 d53c 4a30 87bc 30bf 04bb
00000090: 043f 803c 666f 42bd 35d6 ad3b ba11 863c
000000a0: 4b46 cd3c c7f8 74bd d305 253d 2a41 ad3a
000000b0: 5ded 96bb d4b2 a2bc a9cf 8d3d 36a8 34bc
000000c0: a893 c5bc 0080 eb3b 27c9 48bd 8868 273d
000000d0: 3c9a b73c b910 a43c 980a 1b3d 7fe5 0d3c
000000e0: 4574 3cbd 395a 0cbc 648d 42bc d2d9 9c3c
000000f0: f5e7 31bd 45ee f53c c88e d4bc 1137 033d
00000100: 5ff6 013c 5c29 1e3d 94e9 adbc dc13 db3c
00000110: f09b 4abd 2c40 473d 7063 283d dd60 3e3d
00000120: f38e b7bc e5e9 a53c 6413 abbc e61a 6c3d
00000130: 52a1 223d 7e4b 4e3c be1e cd3c 0a8e 1e3b
00000140: 052c c43c 8681 5d3d 9f18 213d f034 04bd
00000150: 27e6 3fbc 0016 04bd a3f9 113d 2933 813d
00000160: 9585 183d 50db b1bc 9f98 49bc 4e6e 81bd
00000170: 75ec 48bc 77bf ae3c b888 19bc d94a 873c
00000180: 2622 73bc 294b 83bd ffbe 90bc f3e6 693d
00000190: 2f7b e9bc 7340 503d 5c6d fe3c d046 49bd
000001a0: bb13 19bd 1afe d3bc 0bdc 6abc 4a61 0fbc
000001b0: 166a ac3b b664 42bd 329c 3fbd 5336 c43c
000001c0: 0018 3e3b 9e4d 25bc 9f9e d0bc 6e5c 52bd
000001d0: 416d 52bd 2576 193d 3cf1 0bbb 8371 48bd
000001e0: d8a9 8e3c 72d4 38bd e609 7abd 0bc7 08bb
000001f0: f089 693d ba88 8c3c ae08 7ebd 9bd9 42bb

actor.weight f4 [4, 128]
0.059302997 -0.042777058 -0.066776924 0.09222331 0.080519766 0.07511501 -0.035471115 -0.05547353
0.064768866 0.053122204 -0.025235984 0.012689309 0.05732333 0.08000001 0.05475929 -0.04712428
0.07239766 0.011929444 0.032879524 0.019955099 -0.07425194 0.058435846 0.07521164 -0.0680423
-0.07138155 0.00550727 0.021128284 0.0804473 -0.07524723 0.07290015 -0.064749055 0.0016219898
0.08484946 -0.07356293 -0.005602532 0.09174618 0.011457089 -0.052812055 0.014530934 -0.0027944606
-0.06488683 -0.063233644 -0.035430323 -0.039391432 0.02835537 -0.07867715 -0.0005124616 0.07997753
-0.083912015 0.029376745 -0.038229473 0.048951283 -0.029893855 0.025888875 0.07164603 0.032161415
0.019930096 -0.020123456 -0.057450064 0.07469561 -0.032235462 0.06831191 0.06948481 0.015510323
-0.016524004 -0.08798411 -0.0029174918 0.02454155 -0.08324205 0.011780806 -0.0016264219 0.09175181
-0.024205655 0.021230318 -0.06836025 -0.0740103 -0.03169398 0.05392522 0.035850003 -0.011169338
-0.05251972 0.048822388 0.08076326 -0.018477116 0.048865315 0.05823059 -0.04633448 0.043535158
0.039280843 0.06907283 0.020602271 -0.079551645 0.038192224 -0.0022354512 -0.017729016 0.047659084
0.05058254 0.058689494 -0.014578139 -0.06211849 0.07514321 0.0024040935 0.010183476 0.073256806
0.037280817 -0.0019182869 0.070229 -0.06877047 -0.07091568 0.019493861 -0.01905125 0.037461206
0.030459074 0.059307694 -0.050058596 0.04973351 0.0066820295 0.0828886 0.06927421 0.0198403
-0.050810844 0.03262431 -0.0022787221 -0.08543602 0.067227416 -0.039472856 -0.020503188 -0.00045831417
-0.068332314 -0.04387294 -0.081833564 0.020420333 -0.009814493 -0.06417344 0.025313081 0.066980064
-0.08854755 0.061158054 0.06623073 -0.006069188 -0.010753025 0.016013397 0.025463117 0.0059174965
-0.014529789 -0.04593313 0.0314032 -0.012524888 -0.066779666 -0.008681837 -0.03342356 0.0832683
-0.036797002 -0.004953423 0.007293874 0.024187824 0.03857467 0.048122264 0.077143356 0.066151835
0.05205889 -0.054197475 -0.0047650966 -0.0021851957 0.066673286 -0.07895474 -0.028561715 -0.02503833
0.042495016 0.070710875 0.075012445 0.027040908 0.044258203 -0.06723714 -0.037727475 0.06830016
0.04049444 0.070723355 -0.03916822 -0.05020161 0.032212295 0.021720655 -0.022106014 -0.077445224
-0.019992389 -0.01003922 0.05679469 0.04189207 -0.02672025 0.04206752 0.08246289 0.051036175
-0.061826285 -0.041182645 0.010471682 0.075248554 -0.013109126 -0.0636534 0.07862066 -0.068566605
0.06948312 -0.090582564 -0.021701157 0.0026427933 0.052701287 -0.06890977 -0.0028985979 0.03615927
-0.033095375 -0.012486422 0.058902483 -0.006855859 0.07573585 0.06329121 -0.015650876 0.054989096
0.058051556 0.048495654 0.06916476 -0.030140089 -0.07381121 0.046534576 -0.02855634 0.031879514
-0.052213978 0.04305885 0.061830677 0.0676755 -0.0031413776 0.043637305 -0.039730955 0.047199063
-0.08868548 -0.0022147193 0.00112309 0.06288237 0.01113241 0.07294204 0.020105995 0.05356411
-0.028409336 -0.092653655 -0.027444934 -0.057346646 0.044323646 0.0046992013 -0.055863082 0.013706907
-0.07818824 -0.002880739 -0.0018408584 -0.053881347 -0.021550147 0.07452604 0.07761077 -0.04472597
00000000: b3e7 723d ff36 2fbd 57c2 88bd 93df bc3d
00000010: 8ce7 a43d e6d5 993d 294a 11bd 3638 63bd
00000020: 8aa5 843d ab96 593d b2bb cebc d2e6 4f3c
00000030: decb 6a3d 0cd7 a33d 474b 603d 6405 41bd
00000040: 3945 943d b773 433c aeac 063d e078 a33c
00000050: 6711 98bd 6d5a 6f3d 8f08 9a3d c359 8bbd
00000060: 7d30 92bd 5476 b43b 3915 ad3c 8ec1 a43d
00000070: 381b 9abd ad4c 953d 279b 84bd f298 d43a
00000080: 8ec5 ad3d 29a8 96bd 7295 b7bb 6ce5 bb3d
00000090: 84b6 3b3c 7451 58bd 2813 6e3c 4523 37bb
000000a0: 63e3 84bd a480 81bd 631f 11bd e958 21bd
000000b0: 8549 e83c 7c21 a1bd b756 06ba 42cb a33d
000000c0: 10da abbd 80a7 f03c 8296 1cbd 2481 483d
000000d0: f5e3 f4bc e814 d43c 27bb 923d b0bb 033d
000000e0: 7144 a33c f2d9 a4bc c250 6bbd 03fa 983d
000000f0: 5509 04bd 1de7 8b3d 0d4e 8e3d 031f 7e3c
00000100: 595d 87bc 0331 b4bd 6433 3fbb 5c0b c93c
00000110: cf7a aabd 4804 413c aa2d d5ba 5fe8 bb3d
00000120: f04a c6bc 34eb ad3c 7500 8cbd b692 97bd
00000130: 8cd1 01bd b1e0 5c3d 74d7 123d 99ff 36bc
00000140: eb1e 57bd fcf9 473d 3567 a53d 525d 97bc
00000150: ff26 483d 3383 6e3d 39c9 3dbd ec51 323d
00000160: f3e4 203d 0e76 8d3d 18c6 a83c f9eb a2bd
00000170: 736f 1c3d a680 12bb 713c 91bc 2c36 433d
00000180: a32f 4f3d 6564 703d 26d9 6ebc f56f 7ebd
00000190: afe4 993d ff8d 1d3b 98d8 263c aa07 963d
000001a0: c5b3 183d 076f fbba 39d4 8f3d 88d7 8cbd
000001b0: 3d3c 91bd 97b1 9f3c 5e11 9cbc ec70 193d
000001c0: 4f85 f93c a0ec 723d 3e0a 4dbd 5db5 4b3d
000001d0: edf4 da3b 80c1 a93d a3df 8d3d 2088 a23c
000001e0: 081f 50bd 12a1 053d 9d56 15bb 14f9 aebd
000001f0: 87ae 893d 4aae 21bd 4df6 a7bc e349 f0b9
00000200: d0f1 8bbd 1db4 33bd 5b98 a7bd 8b48 a73c
00000210: f8cc 20bc 5d6d 83bd 615d cf3c d82c 893d
00000220: 6b58 b5bd de80 7a3d faa3 873d 0ae0 c6bb
00000230: 752d 30bc 872e 833c 0798 d03c 8fe7 c13b
00000240: 5a0e 6ebc 6124 3cbd a4a0 003d 3035 4dbc
00000250: c7c3 88bd 433e 0ebc 25e7 08bd 9288 aa3d
00000260: 74b8 16bd 5350 a2bb 7301 ef3b 8b25 c63c
00000270: 7900 1e3d da1b 453d 56fd 9d3d 9d7a 873d
00000280: b43b 553d 2cfe 5dbd 8724 9cbb 8035 0fbb
00000290: 018c 883d 06b3 a1bd 42fa e9bc 2f1d cdbc
000002a0: 410f 2e3d ddd0 903d 20a0 993d e584 dd3c
000002b0: 1748 353d a0b3 89bd 2088 1abd f4e0 8b3d
000002c0: 7fdd 253d 68d7 903d db6e 20bd 34a0 4dbd
000002d0: 0af1 033d 84ef b13c ac17 b5bc 9a9b 9ebd
000002e0: 14c7 a3bc 8a7b 24bc 8da1 683d 0597 2b3d
000002f0: 6de4 dabc fe4e 2c3d 4ee2 a83d 4f0b 513d
00000300: 8f3d 7dbd 22af 28bd 6b91 2b3c ea1b 9a3d
00000310: a9c7 56bc b75c 82bd de03 a13d a66c 8cbd
00000320: 2b4d 8e3d 5a83 b9bd a0c6 b1bc b732 2d3b
00000330: 4edd 573d 9120 8dbd 67f6 3dbb be1b 143d
00000340: 048f 07bd da93 4cbc bb43 713d 1da7 e0bb
00000350: 661b 9b3d d29e 813d 4436 80bc 3f3c 613d
00000360: 78c7 6d3d 61a3 463d 41a6 8d3d 59e8 f6bc
00000370: 552a 97bd 0a9b 3e3d fcee e9bc 1894 023d
00000380: 53de 55bd 7a5e 303d 2a42 7d3d 7499 8a3d
00000390: 92df 4dbb 08bd 323d edbc 22bd ce53 413d
000003a0: bca0 b5bd d324 11bb a634 933a 79c8 803d
000003b0: b664 363c a362 953d 54b5 a43c 0a66 5b3d
000003c0: b2ba e8bc 33c1 bdbd 33d4 e0bc 51e4 6abd
000003d0: b68c 353d c2fb 993b b0d0 64bd ef92 603c
000003e0: 2821 a0bd c8ca 3cbb f548 f1ba b0b2 5cbd
000003f0: ef89 b0bc 1ca1 983d 65f2 9e3d 9432 37bd

actor.bias f4 [4]
-0.08194511 -0.0030810807 -0.08124428 0.0041577416
00000000: d6d2 a7bd f5eb 49bb 6763 a6bd aa3d 883b

critic.weight f4 [1, 128]
0.081939355 0.0051286183 -0.0061304257 0.087463304 0.067345046 -0.04814292 -0.03723143 -0.021958286
-0.08568603 -0.06370511 -0.02019722 -0.0027803539 -0.01858571 0.029479923 0.015031453 0.03717517
0.08405623 -0.05210406 0.013355328 0.0142113855 -0.0149841 0.019343045 -0.021310495 -0.06147214
-0.026235584 -0.07454746 0.048033282 0.03751729 0.030137554 -0.043873783 0.07937686 -0.0050916597
0.039920874 0.0011669466 0.05431519 0.083920136 -0.035834707 0.086794645 -0.0774322 -0.005338182
0.06620463 0.0005984455 -0.079330504 0.022113387 0.05288363 -0.050500054 0.04707374 0.027637433
0.024785707 0.05709269 0.0033953746 -0.08182116 -0.055151794 0.056297082 0.006898122 -0.07244046
-0.046995737 0.06837879 -0.07448499 -0.030994864 -0.07074964 -0.061501138 0.056901604 0.012383552
-0.05992403 0.0023311211 0.05525137 -0.07571238 0.020766962 0.07390413 0.015259379 0.014215143
-0.0041972157 -0.078727126 0.053844806 0.03963005 0.016796518 0.069231525 0.062381323 0.09057358
-0.017920164 -0.03438536 0.0091335 0.06880703 -0.00029646722 0.03485471 0.045900792 0.012244467
-0.009922307 0.07950903 0.08342127 -0.028394304 -0.072950296 0.0024072516 0.057807773 -0.012215947
-0.010448762 -0.025250642 -0.05580887 -0.028646175 0.05690188 0.06576569 -0.014992355 0.016053818
0.06945693 0.011688374 -0.06356575 -0.046730194 -0.038314253 -0.05396105 0.010698451 0.041658886
-0.07527856 -0.037966076 0.027120037 -0.023830833 -0.043499827 -0.011832583 0.03154779 0.059044484
-0.026740467 -0.049898446 -0.08212948 -0.05999654 0.015718414 0.026341258 0.07023186 -0.037124343
00000000: d2cf a73d f80d a83b bde1 c8bb f61f b33d
00000010: 33ec 893d 8331 45bd fc7f 18bd dde1 b3bc
00000020: 287c afbd d377 82bd a474 a5bc 9936 36bb
00000030: 0f41 98bc e17f f13c 7c46 763c fe44 183d
00000040: ac25 ac3d 116b 55bd 4ed0 5a3c dfd6 683c
00000050: df7f 75bc 4e75 9e3c 5993 aebc 36ca 7bbd
00000060: 02ec d6bc 57ac 98bd 8cbe 443d bbab 193d
00000070: 08e3 f63c ffb4 33bd 5690 a23d f0d7 a6bb
00000080: 1284 233d 3bf4 983a 9b79 5e3d 52de ab3d
00000090: 6ac7 12bd 64c1 b13d c694 9ebd ebeb aebb
000000a0: 4b96 873d ffe0 1c3a 0878 a2bd 2227 b53c
000000b0: 819c 583d 25d9 4ebd 65d0 403d e667 e23c
000000c0: 650b cb3c 06da 693d ef84 5e3b da91 a7bd
000000d0: d9e6 61bd c597 663d a409 e23b aa5b 94bd
000000e0: 9a7e 40bd 2e0a 8c3d 968b 98bd f1e8 fdbc
000000f0: 30e5 90bd 9ee8 7bbd a811 693d 62e4 4a3c
00000100: e672 75bd b9c5 183b 434f 623d 180f 9bbd
00000110: 7a1f aa3c 0c5b 973d 7902 7a3c a2e6 683c
00000120: cc88 89bb b03b a1bd 5f8c 5c3d 1f53 223d
00000130: da98 893c 42c9 8d3d 8f83 7f3d a47e b93d
00000140: 4fcd 92bc aad7 0cbd ada4 153c b3ea 8c3d
00000150: 286f 9bb9 d0c3 0e3d 7802 3c3d 049d 483c
00000160: 2c91 22bc a1d5 a23d c5d8 aa3d 2c9b e8bc
00000170: f766 95bd fbc2 1d3b d8c7 6c3d 6525 48bc
00000180: 4931 2bbc 6fda cebc d797 64bd 62ab eabc
00000190: f211 693d 29b0 863d 7fa2 75bc 4c83 833c
000001a0: 6f3f 8e3d 9880 3f3c c32e 82bd 2968 3fbd
000001b0: 68ef 1cbd 4306 5dbd 8e48 2f3c 82a2 2a3d
000001c0: a52b 9abd 5182 1bbd d72a de3c e138 c3bc
000001d0: e02c 32bd 73dd 41bc 4138 013d a1d8 713d
000001e0: d30e dbbc 5062 4cbd 8033 a8bd efbe 75bd
000001f0: e7c3 803c 9fc9 d73c b9d5 8f3d b20f 18bd

encoder.0.weight f4 [128, 256]
0.014336884 -0.014873393 0.017139293 -0.0031923652 0.02669923 0.014879547 -0.0071834177 -0.05052892
0.01426965 -0.05533404 0.00821425 0.0041536167 -0.013743646 0.051106058 0.004171051 0.025917403
0.026449673 -0.036870725 -0.024027154 0.06010738 -0.061217338 -0.004244894 -0.0049531087 0.04433184
-0.0059418455 0.016457364 -0.0030002296 -0.034996673 -0.03542439 -0.03036461 -0.05677528 -0.040561393
0.014709309 0.041134126 0.0030788928 -0.02864936 0.02746772 -0.02399204 -0.01384493 -0.034262955
-0.019625157 -0.057912484 0.026668116 0.024302237 0.012414597 0.030686326 0.026489489 0.0027651936
0.006619096 0.0047725737 0.033349857 0.04198417 0.0448841 0.03622535 -0.015238091 -0.0027823523
-0.0127014 0.036358245 0.0069411322 0.057846062 0.031699523 -0.053416193 0.018283263 0.060054637
0.055515245 -0.0009821728 0.020734616 -0.058628224 -0.019925058 0.030477457 -0.056935184 0.0544502
-0.041101515 0.019763902 -0.002366148 0.011013575 0.006055303 -0.05842703 -0.013425007 -0.039506942
0.053134635 -0.007671848 -0.062232353 0.015137434 0.027141891 -0.027978659 -0.005862996 0.027019396
-0.038887918 -0.033038527 -0.006029144 -0.04389088 0.038412392 0.0051119477 0.037394017 0.03345973
-0.04816635 -0.03895589 -0.042748883 -0.020087555 -0.022839025 -0.010070659 -0.060462534 0.026393548
0.035456665 0.019808322 0.039716065 0.046951897 -0.06169846 0.009440944 0.057975717 -0.045294784
-0.027828418 -0.003291361 -0.038880214 -0.011780113 -0.009235665 0.05568569 -0.003929928 0.033892
0.045767218 0.027845182 -0.05435221 0.046844065 0.041215613 -0.044803835 -0.022285737 0.04253936
-0.060756564 -0.054779135 -0.042359896 0.019474946 -0.02552303 -0.055740036 0.024226882 0.031613946
0.023410141 -0.05354829 0.06085737 -0.004715644 -0.05948595 -0.009408824 0.04082214 0.028783068
-0.000667952 0.044059947 -0.05702371 0.043365322 0.0620408 -0.03800405 0.013405949 -0.010078527
-0.052761868 -0.00054792315 -0.020945184 -0.053384036 -0.045541808 0.0013637468 0.057941638 0.022377014
-0.041583553 0.04310924 0.0051302463 -0.061071478 0.0029647052 0.040121347 -0.036750324 -0.002875723
-0.031138554 -0.0492817 -0.035513334 0.006276183 0.04040087 -0.011613898 -0.056207046 -0.00053500384
-0.054357894 0.0036713704 0.0463389 0.026674032 -0.038227268 -0.01379358 0.02502662 0.016955227
-0.05870785 -0.036438502 -0.02210372 0.022968136 0.055843934 0.027850851 0.023609981 -0.05303503
0.04044175 0.022383623 -0.020097613 -0.029988132 0.017768227 -0.033877894 0.025371328 0.047798313
-0.04123895 -0.038986795 -0.025965221 -0.053511 -0.0071678385 0.038927764 0.023392104 -0.020140879
-0.0077590346 -0.02717892 -0.050452545 -0.01705867 0.0043133423 -0.031695284 -0.046823494 0.018256508
0.009206332 -0.019441165 0.017113201 0.05776315 0.0034128428 -0.04283636 0.057795256 0.044976823
-0.0059652776 -0.028231494 -0.02637168 0.054499097 0.03264927 -0.03214048 0.0024944544 0.012819603
0.016521811 -0.0035359561 -0.032710865 -0.0019224659 -0.017264612 -0.020981662 -0.030982636 -0.030305326
-0.029451095 0.024627753 -0.052840076 -0.059445113 0.053457156 0.022437386 0.034568608 0.027263455
-0.023839332 -0.039253272 -0.042603776 -0.0039441288 0.01550132 -0.058545306 -0.04798875 0.03518051
00000000: 40e5 6a3c 88af 73bc b467 8c3c 0037 51bb
00000010: 58b8 da3c 58c9 733c e062 ebbb 6af7 4ebd
00000020: 40cb 693c f2a5 62bd 1095 063c 101b 883b
00000030: 082d 61bc 9654 513d 50ad 883b bc50 d43c
00000040: fcac d83c c205 17bd 98d4 c4bc 2833 763d
00000050: 08bf 7abd c018 8bbb b04d a2bb 4e95 353d
00000060: d0b3 c2bb 98d1 863c 809f 44bb ac58 0fbd
00000070: 2a19 11bd 34bf f8bc 328d 68bd b423 26bd
00000080: 50ff 703c 427c 283d 40c7 493b 10b2 eabc
00000090: fc03 e13c f48a c4bc d8d5 62bc 5057 0cbd
000000a0: f0c4 a0bc a435 6dbd 1877 da3c 7c15 c73c
000000b0: 9866 4b3c e461 fb3c 7c00 d93c 4038 353b
000000c0: 00e5 d83b 4063 9c3b dc99 083d 98f7 2b3d
000000d0: 64d8 373d 0861 143d 30a9 79bc 2058 36bb
000000e0: 8819 50bc 62ec 143d 7072 e33b feef 6c3d
000000f0: 5cd7 013d f0ca 5abd c8c6 953c dafb 753d
00000100: f463 633d 40bc 80ba a4db a93c 2624 70bd
00000110: e039 a3bc dcab f93c de34 69bd 2c07 5f3d
00000120: 105a 28bd e8e7 a13c 6011 1bbb 4872 343c
00000130: 906b c63b 2e51 6fbd 90f4 5bbc 08d2 21bd
00000140: b4a3 593d 2064 fbbb 5ae7 7ebd 0003 783c
00000150: ac58 de3c 8033 e5bc 601e c0bb c857 dd3c
00000160: f048 1fbd 6853 07bd 2090 c5bb ecc6 33bd
00000170: 5056 1d3d 2082 a73b 782a 193d 120d 093d
00000180: 144a 45bd 3690 1fbd 7419 2fbd a88e a4bc
00000190: e818 bbbc 68ff 24bc 90a7 77bd 4837 d83c
000001a0: 023b 113d 1045 a23c 50ad 223d a250 403d
000001b0: 86b7 7cbd 30ae 1a3c f277 6d3d 0687 39bd
000001c0: 6cf8 e3bc e0b3 57bb dc40 1fbd 6001 41bc
000001d0: 3051 17bc ae16 643d a0c6 80bb 56d2 0a3d
000001e0: 6876 3b3d 941b e43c 6ca0 5ebd 90df 3f3d
000001f0: b4d1 283d 3a84 37bd 9490 b6bc c03d 2e3d
00000200: e0db 78bd 1660 60bd 9281 2dbd ec89 9f3c
00000210: ac15 d1bc aa4f 64bd 7477 c63c a07d 013d
00000220: a0c6 bf3c 7455 5bbd 9445 793d b085 9abb
00000230: 8aa7 73bd 7827 1abc 1e35 273d 78ca eb3c
00000240: 8019 2fba 3478 343d b291 69bd d69f 313d
00000250: 7e1e 7e3d 22aa 1bbd a0a4 5b3c 6820 25bc
00000260: d41c 58bd 80a2 0fba 3c95 abbc 38a9 5abd
00000270: 0c8a 3abd c0bf b23a 3654 6d3d 0050 b73c
00000280: 8453 2abd 5093 303d a01b a83b 1626 7abd
00000290: 804b 423b 4856 243d 8287 16bd a076 3cbb
000002a0: 4816 ffbc 9cdb 49bd 6e76 11bd 70a8 cd3b
000002b0: 627b 253d 3848 3ebc 5c39 66bd 803f 0cba
000002c0: 62a6 5ebd 609b 703b dccd 3d3d 8083 da3c
000002d0: 3294 1cbd 78fe 61bc a004 cd3c b0e5 8a3c
000002e0: a477 70bd 8a40 15bd dc12 b5bc ac27 bc3c
000002f0: 9cbc 643d 7827 e43c b869 c13c 423b 59bd
00000300: 40a6 253d dc5d b73c c0a3 a4bc aca9 f5bc
00000310: ac8e 913c 8cc3 0abd 88d7 cf3c 2ac8 433d
00000320: 2cea 28bd 9eb0 1fbd 04b5 d4bc 5a2e 5bbd
00000330: 30e0 eabb b872 1f3d cca0 bf3c 7cfe a4bc
00000340: 803f febb 54a6 debc 54a7 4ebd a0be 8bbc
00000350: f056 8d3b ead2 01bd fec9 3fbd ac8e 953c
00000360: 28d6 163c 1443 9fbc fc30 8c3c 0e99 6c3d
00000370: 00aa 5f3b 2e75 2fbd b8ba 6c3d 9e39 383d
00000380: 6078 c3bb bc45 e7bc 6c09 d8bc 723a 5f3d
00000390: 3ebb 053d bca5 03bd 007a 233b 5009 523c
000003a0: c058 873c 80bb 67bb d4fb 05bd 40fb fbba
000003b0: 846e 8dbc bce1 abbc 4ccf fdbc e042 f8bc
000003c0: 6c43 f1bc 24c0 c93c d66e 58bd b87c 73bd
000003d0: e4f5 5a3d 9cce b73c d097 0d3d 9c57 df3c
000003e0: b44a c3bc 0ac8 20bd 4c81 2ebd c03d 81bb
000003f0: 40f9 7d3c 34cd 6fbd da8f 44bd 7019 103d

encoder.0.bias f4 [128]
-0.04568953 -0.008110724 -0.056943938 -0.0007464364 0.047428504 -0.034289524 -0.021461807 -0.056677684
-0.01711823 0.0259962 0.031337455 -0.03674288 -0.051368997 0.057099365 0.037856184 0.002829343
-0.011258677 0.028449088 0.044991747 0.020848356 0.026708096 0.004511133 -0.056121737 0.019638427
-0.004327476 0.022819318 0.042302236 0.025210321 -0.021589786 0.030661821 -0.012898669 0.024699807
-0.0035508499 -0.016087674 -0.03444931 0.061106585 0.04318075 -0.03540048 -0.01579436 0.007742673
-0.01121638 0.0062303096 -0.04657019 0.047732882 0.019485898 -0.0051948205 -0.03067185 0.049864314
-0.018323094 0.02143827 0.024062723 -0.054143973 0.031037688 -0.06240225 -0.03289733 0.024720825
-0.0074212626 0.045515582 0.023645148 -0.016266532 0.017768554 -0.0010486767 0.047629908 -0.03408744
-0.010644563 0.044242896 0.04198478 -0.03649734 -0.0044410974 0.019499011 -0.04780355 -0.053657718
-0.030454203 0.024805434 -0.013279788 -0.05545871 0.008205205 0.012051061 -0.0020884722 -0.030433878
0.008481815 0.031750217 -0.014041692 -0.00093663484 0.062194332 0.009929493 -0.021434277 -0.050431333
-0.04786285 -0.02306348 -0.021501295 0.03698969 -0.040980354 -0.000594981 0.013526112 0.00024086237
-0.0031502992 0.04016564 0.03765583 0.042221144 0.01484137 -0.037032858 0.054657534 0.061155707
-0.06226053 -0.009954259 0.018834986 0.04221712 -0.033835843 0.04406997 0.058510393 0.03308963
-0.04412801 -0.059058636 -0.046130374 0.004189521 -0.0466569 -0.05839196 -0.039573304 -0.015978426
0.05990296 0.05754663 -0.026511163 0.032839626 -0.0109558925 0.047641724 0.048577562 -0.043616034
00000000: f224 3bbd d8e2 04bc 0c3e 69bd 80ac 43ba
00000010: 6444 423d 2c73 0cbd acd0 afbc dc26 68bd
00000020: 883b 8cbc fcf5 d43c b45b 003d b47f 16bd
00000030: 4c68 52bd 06e1 693d 160f 1b3d 806c 393b
00000040: 5076 38bc 100e e93c 4449 383d 2cca aa3c
00000050: f0ca da3c 20d2 933b e8df 65bd c4e0 a03c
00000060: 80cd 8dbb 94ef ba3c 1c45 2d3d e085 ce3c
00000070: 10dd b0bc 802e fb3c f054 53bc 4057 ca3c
00000080: 60b5 68bb 4cca 83bc b81a 0dbd e64a 7a3d
00000090: 4cde 303d 1800 11bd 2c63 81bc 40b6 fd3b
000000a0: e8c4 37bc a027 cc3b 62c0 3ebd 8e83 433d
000000b0: e4a0 9f3c 5039 aabb 8843 fbbc 863e 4c3d
000000c0: 501a 96bc 509f af3c 301f c53c 12c6 5dbd
000000d0: c042 fe3c 8099 7fbd 5abf 06bd 5483 ca3c
000000e0: 102e f3bb 8c6e 3a3d 78b3 c13c 6441 85bc
000000f0: 5c8f 913c c073 89ba 9417 433d 469f 0bbd
00000100: 8866 2ebc 0a38 353d 3cf8 2b3d 3c7e 15bd
00000110: a086 91bb 64bc 9f3c a8cd 43bd 32c8 5bbd
00000120: 187b f9bc c434 cb3c 7893 59bc ac28 63bd
00000130: 206f 063c d071 453c c0de 08bb 7850 f9bc
00000140: 50f7 0a3c 840c 023d 200f 66bc 8088 75ba
00000150: 7cbf 7e3d 50af 223c f096 afbc 1691 4ebd
00000160: d60b 44bd a0ef bcbc 7c23 b0bc 8082 173d
00000170: 04db 27bd 80f8 1bba a09c 5d3c 0090 7c39
00000180: 4075 4ebb ba84 243d 003d 1a3d 14f0 2c3d
00000190: 3829 733c c4af 17bd 94e0 5f3d 687e 7a3d
000001a0: e604 7fbd 3017 23bc d44b 9a3c dceb 2c3d
000001b0: 7497 0abd b682 343d 98a8 6f3d fe88 073d
000001c0: 92bf 34bd 78e7 71bd 34f3 3cbd 4048 893b
000001d0: 4e1b 3fbd 682c 6fbd 9e17 22bd 30e5 82bc
000001e0: ce5c 753d 04b6 6b3d f02d d9bc d882 063d
000001f0: 5880 33bc f823 433d 44f9 463d baa6 32bd

encoder.2.weight f4 [128, 128]
-0.021891652 0.08573513 0.01708901 0.05458338 0.05780632 0.08527671 0.07153763 -0.050863165
-0.030278621 -0.0059430953 0.028699275 -0.08684991 -0.051615432 -0.05241917 -0.022613607 -0.07189799
-0.010303893 0.0511315 -0.08631915 0.01998357 -0.060977183 -0.0122144725 0.077472515 0.06783724
0.003343362 -0.04337585 0.0064008734 0.057978816 -0.07452905 -0.050290555 -0.025628107 0.026184045
0.014944293 0.031391427 0.060207985 0.054147445 -0.0099010635 -0.045397423 -0.07608566 -0.07938426
0.07018647 -0.08242388 -0.04303664 0.023144277 0.08693689 0.0012045569 0.012168912 0.079511546
-0.07445566 -0.086983494 -0.01515116 0.024364756 -0.019828185 -0.057468217 -0.053390816 0.07671818
-0.0213694 -0.051489096 -0.06482532 0.04586207 -0.018361885 -0.010557037 -0.027187034 0.030849174
-0.0653497 0.019332612 0.055808496 -0.05571824 -0.065658435 -0.013048327 0.08513013 -0.029192002
0.02873984 0.07152087 0.014788233 -0.08571968 0.0385521 -0.042865872 -0.032993395 0.03332075
-0.03668981 0.05994992 -0.016330723 0.015882965 -0.012792748 0.0119343335 0.07701445 -0.015958745
0.026489051 0.0493198 -0.08793304 0.055179495 -0.040163174 0.008646879 -0.05554806 0.053036433
0.038204283 0.0668999 0.07138537 -0.006955863 0.07603091 0.023881406 -0.06295226 0.0796252
-0.0029548628 -0.05036463 -0.02322286 -0.049079962 0.01139851 0.020260992 -0.008931286 -0.047929816
-0.022353666 -0.048067763 0.023571499 0.047718797 0.012068275 -0.038407 -0.0052198768 -0.052974742
-0.0443651 0.040188767 0.08537239 -0.0650727 0.08672013 -0.027774993 -0.067096636 0.07333218
-0.005271675 1.547843e-05 0.07076478 -0.015942993 -0.017980024 0.080184326 0.0087951515 0.026360715
-0.078032315 -0.045846213 -0.029857386 -0.047436476 0.03357343 -0.033266224 0.054186855 0.008445301
0.07084031 -0.08596309 -0.029846374 0.06942298 -0.06298662 0.018427286 0.07676359 0.017479552
0.008765059 -0.042640302 -0.0057223197 0.03492798 -0.060084313 0.07529857 0.08567174 -0.080526955
0.024871519 0.027326025 0.030488534 -0.043764822 0.0048565916 0.043274876 0.029674405 -0.0132785225
0.066735074 0.011342455 -0.02291758 0.06296713 0.064259216 -0.08540401 -0.08470371 -0.061859604
-0.04842855 -0.027799144 -0.043165978 0.038316026 0.005106881 -0.07097155 -0.075679556 -0.06253103
-0.030516932 0.03052396 0.056330875 -0.06990888 0.051700126 -0.061885998 -0.01186596 -0.065696254
0.00132398 -0.051378872 -0.021870188 -0.037409004 0.0276171 -0.08692279 -0.0005965676 -0.06597256
-0.06678351 0.040442947 -0.08792586 0.0299743 0.03292889 0.028614927 -0.021876585 -0.03045349
0.07363613 -0.04623293 -0.009396903 -0.038296647 0.08545572 0.074050315 -0.07360338 0.08072544
-0.08347721 0.088146135 0.012004855 -0.07516354 -0.01061638 -0.04434553 0.039353933 -0.041885126
0.015254514 -0.014301564 -0.05098185 0.0030043328 -0.039676704 -0.04153356 -0.040965736 0.050249938
-0.08035994 0.018186355 0.04672429 -0.02789644 0.047415078 0.05257641 -0.061103616 0.027795171
-0.040361907 0.010905824 -0.013056018 0.051694196 0.05551999 -0.05401679 0.0247204 -0.08100284
-0.045402218 -0.016022915 0.013829434 -0.028393446 -0.0078027616 -0.016996697 -0.03992492 0.06285175
00000000: 1f56 b3bc e695 af3d 40fe 8b3c d392 5f3d
00000010: 52c6 6c3d 8ea5 ae3d 5282 923d e555 50bd
00000020: df0a f8bc 4cbe c2bb be1a eb3c 5ede b1bd
00000030: b46a 53bd 7cb5 56bd 2c40 b9bc 413f 93bd
00000040: a9d1 28bc 446f 513d 18c8 b0bd 95b4 a33c
00000050: 36c3 79bd 361f 48bc e9a9 9e3d 40ee 8a3d
00000060: 4e1c 5b3b e0aa 31bd 6bbe d13b 327b 6d3d
00000070: b0a2 98bd 78fd 4dbd 09f2 d1bc ec7f d63c
00000080: e8d8 743c 4c94 003d a69c 763d b6c9 5d3d
00000090: 1238 22bc a6f2 39bd ccd2 9bbd 3794 a2bd
000000a0: edbd 8f3d dacd a8bd 3047 30bd 1199 bd3c
000000b0: f80b b23d 39e2 9d3a 1e60 473c f3d6 a23d
000000c0: 367c 98bd 6724 b2bd 923c 78bc 9998 c73c
000000d0: b86e a2bc cb63 6bbd 54b0 5abd 6c1e 9d3d
000000e0: e10e afbc 3be6 52bd 23c3 84bd ded9 3b3d
000000f0: aa6b 96bc 6cf7 2cbc 58b7 debc 68b7 fc3c
00000100: 10d6 85bd 6d5f 9e3c 7397 643d cf38 64bd
00000110: ee77 86bd a6c8 55bc b558 ae3d 1124 efbc
00000120: d06f eb3c 8979 923d 584a 723c cd8d afbd
00000130: cfe8 1d3d 2094 2fbd 1524 07bd 577b 083d
00000140: 0e48 16bd 0c8e 753d 02c8 85bc fe1c 823c
00000150: ad98 51bc 3988 433c c1b9 9d3d eabb 82bc
00000160: 91ff d83c 8f03 4a3d 3d16 b4bd e503 623d
00000170: 2482 24bd a4ab 0d3c 5d86 63bd bb3c 593d
00000180: 187c 1c3d d102 893d 7e32 923d 02ee e3bb
00000190: 18b6 9b3d f0a2 c33c 1ded 80bd 8912 a33d
000001a0: 5fa6 41bb 244b 4ebd de3d bebc 1208 49bd
000001b0: d1c0 3a3c 61fa a53c 8754 12bc 0e52 44bd
000001c0: 091f b7bc b4e2 44bd 0419 c13c c974 433d
000001d0: 04ba 453c a950 1dbd 800b abbb 0bfc 58bd
000001e0: 2eb8 35bd fa9c 243d b8d7 ae3d d644 85bd
000001f0: 539a b13d 6288 e3bc f669 89bd 2f2f 963d
00000200: 04be acbb add7 8137 20ed 903d e19a 82bc
00000210: d84a 93bc ae37 a43d 8a19 103c 6df2 d73c
00000220: 68cf 9fbd 3dc9 3bbd 7a97 f4bc c04c 42bd
00000230: 4b84 093d 2a42 08bd 09f3 5d3d 295e 0a3c
00000240: b914 913d 6b0d b0bd 6280 f4bc a32d 8e3d
00000250: 21ff 80bd d2f4 963c 3b36 9d3d 4731 8f3c
00000260: 529b 0f3c 99a7 2ebd 4c82 bbbb a410 0f3d
00000270: f81a 76bd 2336 9a3d aa74 af3d 51eb a4bd
00000280: 5bbf cb3c d4da df3c 17c3 f93c be42 33bd
00000290: 0b24 9f3b ff40 313d bd17 f33c 298e 59bc
000002a0: 66ac 883d b4d5 393c a6bd bbbc e9f4 803d
000002b0: 569a 833d 4ce8 aebd 2479 adbd 7f60 7dbd
000002c0: 045d 46bd 08bb e3bc cfce 30bd 44f1 1c3d
000002d0: 9f57 a73b 8859 91bd e2fd 9abd 4510 80bd
000002e0: a5fe f9bc 620d fa3c 34bb 663d 632c 8fbd
000002f0: 83c3 533d 2c7c 7dbd 7269 42bc c28b 86bd
00000300: 6689 ad3a a772 52bd 1c29 b3bc 2f3a 19bd
00000310: 423d e23c 9304 b2bd f962 1cba 9f1c 87bd
00000320: cbc5 88bd 81a7 253d 7912 b4bd aa8c f53c
00000330: 72e0 063d da69 ea3c 8636 b3bc 9979 f9bc
00000340: 8ace 963d be5e 3dbd 78f5 19bc f2dc 1cbd
00000350: 6903 af3d b1a7 973d 5ebd 96bd 6153 a53d
00000360: 19f6 aabd f685 b43d 03b0 443c 58ef 99bd
00000370: 53f0 2dbc a9a3 35bd 9731 213d bd8f 2bbd
00000380: 12ee 793c 1b51 6abc 58d2 50bd 57e4 443b
00000390: 0a84 22bd 181f 2abd b0cb 27bd e1d2 4d3d
000003a0: c193 a4bd 8dfb 943c f861 3f3d 1387 e4bc
000003b0: 5036 423d 5d5a 573d c947 7abd b3b2 e33c
000003c0: 8752 25bd 57ae 323c e9e8 55bc 4bbd 533d
000003d0: ee68 633d b640 5dbd 7082 ca3c d1e4 a5bd
000003e0: adf7 39bd 7d42 83bc da94 623c 5f99 e8bc
000003f0: 4fae ffbb a83c 8bbc 5088 23bd 6bb8 803d
