checkpoints/icm_planner/seed4/final.pt (torch, 870123 bytes, 19 tensors)

fc1.weight f4 [256, 256]
000000 b2 a2 48 bd 92 7b 12 bd b6 8a 34 3d 3c 78 91 bc
       -0.048983283 -0.035762377 0.044077598 -0.017757528
000010 18 cd 5a bc 48 6c 43 bc 74 5a 3d 3d 34 34 72 bd
       -0.013354562 -0.011927672 0.04622884 -0.059131816
000020 7e f5 3b bd be 98 24 bd 92 61 46 3d 5c 5f bb bc
       -0.045888416 -0.04018473 0.048432894 -0.02287262
000030 20 10 b5 3b c4 0a a4 3c a6 aa 09 3d 50 3b 50 3c
       0.005525604 0.020024665 0.03361001 0.012709454
000040 50 94 7c bc 30 c1 c4 3c 40 bb 45 bd 76 22 12 bd
       -0.01541622 0.0240179 -0.04827428 -0.035677396
000050 ac aa 14 3d 7e 97 33 3d 62 49 2d bd c0 eb 5b 3d
       0.036295578 0.043845646 -0.04230631 0.053691626
000060 98 41 f5 bc 90 62 53 3d 58 69 6b bc 4e 3a 59 3d
       -0.029938504 0.05160767 -0.014368378 0.05303412
000070 d0 5f b0 3c 72 b4 72 3d b4 51 5a bd 88 46 4d 3d
       0.021530062 0.059254117 -0.053300574 0.050116092
000080 40 04 31 bc 50 b4 88 3c 80 61 3f 3d e0 fa 76 bc
       -0.010804236 0.016687542 0.046723843 -0.015074462
000090 c0 11 05 3b 66 d9 26 3d 98 c3 cf 3c 20 95 3a bc
       0.002030477 0.04073467 0.025361821 -0.011388093
0000a0 52 44 47 bd 6c 1d 4d 3d 34 27 1e bd 5c 21 2a 3d
       -0.04864914 0.050076887 -0.038611606 0.04153572
0000b0 f8 0c a0 bc 84 38 82 3c 8c b1 22 3d 64 60 ca bc
       -0.019537434 0.01589609 0.039720103 -0.024704166
0000c0 e0 68 8a bb 6c 48 57 bd fa 87 48 bd 78 32 61 bc
       -0.004223928 -0.0525593 -0.048957802 -0.013744943
0000d0 0a 5f 08 bd 5a a4 76 bd 14 fe ce 3c ec 31 bd bc
       -0.03329376 -0.06021533 0.025267638 -0.023095094
0000e0 40 4e 94 3b 14 ea 8d bc 40 19 01 3b c0 82 1e 3d
       0.0045259297 -0.017323531 0.0019698888 0.03869891
0000f0 c8 6a 5f bd 60 fa 4e bb 4c 29 21 bd c6 a2 66 bd
       -0.054545194 -0.003158234 -0.039346024 -0.056307577
000100 b8 69 05 3c de 1e 7a bd e0 b7 82 3b b2 ea 6d 3d
       0.008142881 -0.061064593 0.0039892048 0.05808515
000110 02 8f 45 bd ae 2a 04 bd 04 33 e4 3c ac 2b 08 3d
       -0.048232086 -0.032267265 0.027856357 0.033244774
000120 ac 20 0c bd 2e 14 3a bd 00 98 e9 bb be 01 5d bd
       -0.034210846 -0.0454294 -0.0071287155 -0.05395674
000130 5a 60 68 3d 92 ae 0a 3d 40 56 0c 3b 14 00 c0 3c
       0.056732513 0.03385789 0.0021413714 0.023437537
000140 b0 c3 be 3b 28 76 50 bd 18 c5 32 3c 40 6d 13 3b
       0.0058216676 -0.050893933 0.010911249 0.0022495538
000150 f0 26 15 bd 80 e8 73 bd 70 dc 3c 3d 80 bb 84 bc
       -0.036414087 -0.0595479 0.046108663 -0.016202688
000160 36 33 7e 3d ee 52 5f 3d e8 22 8a bc 60 06 5b bd
       0.062060557 0.054522447 -0.016862348 -0.053472877
000170 3c d4 6c bd 18 b7 99 3c 32 55 40 3d 30 68 42 3d
       -0.05781959 0.018764064 0.04695625 0.047462642
000180 32 5c 38 3d 08 10 60 3c a0 ba 10 bc 0e a1 06 bd
       0.0450098 0.013675697 -0.008833557 -0.032868437
000190 6e af 1b 3d 52 70 4b bd c0 23 36 bd be 54 1d bd
       0.0380091 -0.049667664 -0.044467688 -0.038410895
0001a0 60 dd a9 3c 60 ed a2 3c 88 6e fe 3c b0 15 1b 3c
       0.020735443 0.01988858 0.031058565 0.00946562
0001b0 ba aa 4e 3d 0a dd 57 3d 3c b4 b2 3c d6 cd 65 3d
       0.050455786 0.052701034 0.021814458 0.056104504
0001c0 dc 08 e2 bc e6 22 6d bd ca 33 33 3d e0 4c d5 bb
       -0.027592115 -0.05789461 0.04375056 -0.0065094084
0001d0 7a 25 61 bd 5c af 5c 3d 48 3a 64 bc 84 cf 1e bd
       -0.05496738 0.053878173 -0.013929911 -0.03877212
0001e0 60 e6 a9 bc 20 65 88 3c 90 c9 5d bc d0 f0 f8 3b
       -0.020739734 0.016649783 -0.013536826 0.0075970665
0001f0 00 f1 b1 bc 84 36 ee 3c a0 3f c9 3c 1c b3 a3 3c
       -0.021721363 0.02907873 0.024566472 0.019982867
000200 92 55 20 3d b4 eb 67 3d 0a bd 7d 3d 00 99 5a ba
       0.039144106 0.05662127 0.06194786 -0.0008338839
000210 88 f7 14 bc 1a 98 0f bd 60 4c ea bc 2a fa 04 3d
       -0.009092219 -0.035057165 -0.028600872 0.032465138
000220 ea 49 02 bd 88 b4 6e 3d 96 34 35 bd 44 87 48 3d
       -0.03180877 0.058277637 -0.044239603 0.048957124
000230 b8 80 c5 bc 00 b8 23 bc 84 b6 75 3d 06 e2 35 bd
       -0.02410923 -0.0099925995 0.059988514 -0.044405006
000240 1c 3f ce bc 94 5e a1 bc 78 cc 13 bd a8 96 7a bc
       -0.025176577 -0.019698419 -0.03608367 -0.015294708
000250 b0 c2 f6 bb 68 44 2f 3c da e0 0d 3d 6c d6 d7 bc
       -0.007530533 0.010697462 0.034638263 -0.026347362
000260 62 c8 24 bd 90 fa 96 bc e6 bf 30 bd b0 6f 72 3c
       -0.040230162 -0.018430024 -0.04315176 0.014797136
000270 c0 8b 59 bd a0 58 0b bd 4e 53 3b bd 00 bc 24 3d
       -0.05311179 -0.034020066 -0.045733742 0.040218353
000280 cc e5 c6 bc d4 99 76 bd 5a a1 23 bd 60 60 b8 3c
       -0.024279498 -0.060205296 -0.0399488 0.022506893
000290 90 2e 9b 3b c2 42 34 bd d6 81 40 bd bc 69 67 3d
       0.0047357753 -0.044008978 -0.04699882 0.05649732
0002a0 94 80 56 bd c2 87 7a bd 44 ba c0 3c 20 d6 50 3b
       -0.052368715 -0.061164625 0.023526318 0.003186591
0002b0 be b7 19 3d 50 58 a8 3b 64 59 74 bd 88 b3 44 bd
       0.037528746 0.005137481 -0.059655562 -0.048022777
0002c0 ec 8e 37 bd 40 b8 0d bc 72 54 2d bd 40 39 e2 3a
       -0.044814035 -0.008649886 -0.04231686 0.0017259493
0002d0 20 d2 ce 3c 54 1a 82 3c 90 d6 4b bc 3c 88 75 bd
       0.02524668 0.015881695 -0.012441292 -0.059944376
0002e0 0c 19 05 bd 00 b1 ad bb 84 03 13 bd 00 1e 77 bc
       -0.03249459 -0.005300641 -0.035892025 -0.015082836
0002f0 a0 a4 d6 3c 72 ec 69 bd 7c b0 24 bd b2 f5 11 3d
       0.026201546 -0.057110257 -0.04020737 0.035634704
000300 b0 12 b2 bb 88 24 97 bc 04 da ad 3c c8 0e 15 3c
       -0.0054343566 -0.018450037 0.021222122 0.009097762
000310 78 9b d7 3c c6 df 00 3d 80 7a 5b bd 9c c8 73 bd
       0.02631925 0.031463407 -0.053583622 -0.059517488
000320 48 b6 7b bd e0 c8 c7 bc 50 f8 f6 bc 18 2a 16 3d
       -0.061453134 -0.024387777 -0.030147702 0.036661237
000330 08 6b 35 bc 8a 16 7d 3d 98 a1 58 bc a2 54 1d bd
       -0.0110728815 0.061789073 -0.013222121 -0.03841079
000340 04 a7 2e 3d 24 cc 9e bc 5c aa 5c bd ba a8 15 bd
       0.042639747 -0.019384451 -0.053873405 -0.036537863
000350 00 a2 42 bb b8 bc f4 3c 20 bd 0e bb cc 3c d9 bc
       -0.002969861 0.029875144 -0.0021780208 -0.026518248
000360 28 d0 57 3d 3c 37 c7 3c 40 b0 14 3b ea 00 47 bd
       0.052688748 0.02431833 0.002268806 -0.048584856
000370 e8 fa 78 bc 00 8a 62 3d 90 a6 4f 3d dc 79 7e 3d
       -0.015196539 0.05530739 0.050695956 0.062127933
000380 82 53 3f bd 46 ef 42 bd 50 e0 af bc bc c2 58 3d
       -0.0467105 -0.04759147 -0.021469265 0.05292009
000390 60 4c 03 bd a0 18 cf 3c 00 f5 c5 3b 9c 99 a5 3c
       -0.03205526 0.025280297 0.006041169 0.020214848
0003a0 60 30 7e bb fa fc 4a 3d ca da 15 bd 4c 9d 76 3d
       -0.0038786158 0.049557664 -0.036585607 0.060208604
0003b0 9c 78 9b bc 84 e2 b4 3c 6c 45 87 bc 88 2a 0f 3d
       -0.01897841 0.022080667 -0.016512595 0.03495267
0003c0 9c e2 3d bd d2 7d 16 bd 00 43 0a 3b 0c fe 8d bc
       -0.04635869 -0.036741085 0.0021097064 -0.017333053
0003d0 28 1b d2 bc b8 14 39 bc ea 0a 50 3d 28 19 0a bc
       -0.025647715 -0.011296444 0.05079166 -0.008428849
0003e0 e4 1e 9a 3c 06 15 3f 3d f0 3c b7 bc ac 52 af 3c
       0.018813558 0.04665091 -0.022367924 0.021401726
0003f0 2c aa 10 3d 10 80 7f 3c 28 db 38 3d 40 c6 79 3c
       0.03531854 0.015594497 0.04513088 0.01524502

fc1.bias f4 [256]
000000 38 5e cd bc f3 f0 81 3d 28 13 32 3d 48 b5 bc bc
       -0.025069341 0.063447855 0.0434753 -0.02303566
000010 6c 3a 47 bd 54 ad 42 3c f1 b4 27 3d 96 0c 77 3c
       -0.0486397 0.011882145 0.040944044 0.015078684
000020 3a 50 9b 3c 9f 94 7a 3d 0c 7c 86 3c e2 be 61 3d
       0.018959153 0.061176892 0.016416572 0.05511368
000030 2a 73 03 3d 98 9e 3d 3d a6 62 46 3d 01 a5 4f 3b
       0.03209225 0.046293825 0.048433922 0.0031684043
000040 43 75 3b 3d 3b 73 ed 3c 51 a2 f4 3c ac 63 a1 3c
       0.045766126 0.02898561 0.029862555 0.019700848
000050 1c d0 c0 bc 40 3c 93 bb aa bb 84 3c 2c 13 19 bd
       -0.023536734 -0.0044932663 0.016202766 -0.0373718
000060 0a 6d 6a bd 40 d1 f9 bc bc 1f 7c 3d 9c e8 4a bc
       -0.057232894 -0.030495286 0.0615537 -0.01238456
000070 9f ba 53 bd d1 98 40 bd 58 d2 4a 3d d3 93 c1 3c
       -0.051691648 -0.047020737 0.049517006 0.023630058
000080 cb 2c d1 3c 7f 91 1b bd 24 5e 21 3d ec e0 19 bd
       0.025534054 -0.037980553 0.03939642 -0.037568018
000090 b0 71 3d 3d fe c1 e5 3c 23 f7 08 ba 0f b7 56 3d
       0.046251 0.028046604 -0.00052248145 0.052420672
0000a0 d7 8a a9 3c 54 32 98 bb 21 43 1f 3c 9e 2f c9 3b
       0.020696087 -0.0046446715 0.009720595 0.0061397096
0000b0 e3 2f 05 bd 4d e2 72 3d b8 aa 2b bc dc 5c 1f 3d
       -0.03251637 0.05929785 -0.010477714 0.038906917
0000c0 2a 6f 0f 3d d1 30 3e bc 3f 78 0b 3d 31 6c 87 bd
       0.035018124 -0.011608318 0.034050222 -0.06612433
0000d0 fd 3b 06 bd 8c 5c c3 bc fa ae 5c bd 22 89 27 bc
       -0.032772053 -0.02384784 -0.05387781 -0.010225566
0000e0 62 a0 ff bb a8 4d 78 bc d7 b0 02 bd 85 88 60 3d
       -0.0078011015 -0.015155233 -0.03190693 0.054817695
0000f0 2a 88 86 3c 55 48 fb 3c 5a 62 d6 bc 5a 07 04 3d
       0.01642235 0.030674139 -0.026169945 0.032233573
000100 80 39 85 3d b0 99 6e 3c ec 76 00 bc 0e 9d 96 3c
       0.06505108 0.014563009 -0.007840853 0.018385436
000110 f4 0a 3c 3c 42 67 d9 3c f3 f2 12 3d ef 2d 03 3d
       0.011477221 0.026538495 0.035876226 0.032026228
000120 84 b5 d8 3b ec 84 12 bd b0 0f ea bc 6e c2 99 3c
       0.006613435 -0.035771295 -0.028571934 0.01876947
000130 e6 f6 47 3c 00 3e fc bc b0 10 6d 3d 6a b9 7e bd
       0.012204861 -0.030791283 0.057877243 -0.062188543
000140 be 55 0d bd 00 0f 3f bc 54 24 70 bc aa 6a db 3c
       -0.0345056 -0.011661291 -0.014657099 0.02678426
000150 fe 20 99 3c 19 44 69 3d 62 24 e3 3c 0e e0 d7 3c
       0.01869249 0.05694971 0.02772731 0.026351955
000160 0e 4c 36 3d 1c 05 0b bd 3a 7c d3 bc 7b c2 19 ba
       0.044506125 -0.03394042 -0.025816072 -0.00058654667
000170 d2 46 1f bc 17 e4 df 3c 60 4e 04 3d 41 6a f9 3c
       -0.009721475 0.027330441 0.032301307 0.030446174
000180 04 8c 69 bd a2 b0 4a bd d6 ac b7 bc 2e ba 3e bc
       -0.057018295 -0.049484856 -0.022421282 -0.011641068
000190 e8 c0 0a 3d 87 66 04 bd e2 d4 f1 bc a0 4e 62 3d
       0.033875376 -0.03232434 -0.029520456 0.055250764
0001a0 c7 51 c8 3c 2d e5 53 3d d7 c1 0b 3b 36 c2 5b 3d
       0.024453057 0.05173223 0.0021325254 0.05365201
0001b0 d4 4a ad bb a9 8c 17 3d 04 66 43 3d 73 2b 2f 3d
       -0.005288461 0.03699938 0.04770471 0.042766046
0001c0 40 86 72 bd 51 db 2a bd 32 2a eb bc 65 1b 62 3d
       -0.059210062 -0.041713063 -0.028706644 0.055201907
0001d0 65 3e 8c 3d 56 e8 e0 3b 9b 40 ca bc 29 76 66 bc
       0.06847838 0.006863634 -0.02468901 -0.0140662575
0001e0 e8 63 87 bc 75 38 51 bd 52 30 9b bc c7 c1 e0 3c
       -0.016527131 -0.051079232 -0.01894394 0.02743615
0001f0 d3 11 51 bd 81 98 e2 bc b9 8c 1c ba 88 59 69 bd
       -0.05104239 -0.02766061 -0.0005971897 -0.05697015
000200 2a e0 17 3d 30 d8 1d 3c ad 17 22 3d 96 29 72 3d
       0.037079014 0.009634063 0.03957336 0.05912169
000210 cc 2b 1f 3d 91 18 34 bc c7 35 12 3d 9b b6 4e bd
       0.038860127 -0.010992185 0.035695817 -0.050467115
000220 cc 5f 73 bd 31 47 7f bc ce dd d0 3c 97 ba 5f 3d
       -0.05941753 -0.015580938 0.02549639 0.054621305
000230 a5 4d 11 bc 5a 3c 86 3b b5 1b 09 3d af c8 24 3d
       -0.00886861 0.00409655 0.03347369 0.04023045
000240 0f c2 f0 3c 01 1f 19 3d ef b9 31 bc e5 79 ec 3c
       0.02938941 0.037383083 -0.010847553 0.028866718
000250 85 de 02 3c 6c 50 5d 3d 3a 2b 07 bd 47 1b c4 3c
       0.007987623 0.054031774 -0.03300021 0.023938788
000260 c3 18 2d 3c 91 c9 56 bd 3c 5b 06 bd 12 e1 9d bc
       0.010564986 -0.052438322 -0.03280185 -0.019272361
000270 48 c4 c6 bc a7 98 06 3d b5 b7 85 3d d7 a9 2b bc
       -0.024263516 0.032860424 0.0652918 -0.010477505
000280 a1 ea 2e bd ae fc 1e bd 10 3c 80 3d 0e de 52 bd
       -0.04270423 -0.038815193 0.06261456 -0.0514813
000290 74 cd 03 3d 2f 2c cc 3c e5 99 44 bd 65 fc 83 bc
       0.032178357 0.024923412 -0.047998328 -0.016111562
0002a0 17 89 4e bd 9b 1e c9 bc 92 2b e1 3b 6b 61 8f bc
       -0.050423708 -0.024550727 0.006871649 -0.017502507
0002b0 73 e8 ea 3c 73 6b 33 bc 52 b7 c5 3b 5e 6c 21 bd
       0.028675294 -0.010950911 0.0060338164 -0.039409988
0002c0 d9 bc e8 bb 04 a2 80 3c 95 07 1c bc 9b 5a 2b bb
       -0.0071025905 0.015702255 -0.009523292 -0.0026146534
0002d0 47 dc 0b bb 7e ac 23 bd 31 57 30 3d 46 41 09 3b
       -0.0021341012 -0.039959423 0.043051902 0.0020943447
0002e0 c0 0d e5 ba 64 41 31 3d 9b ba 54 3d 25 2d 24 3d
       -0.0017475411 0.043275252 0.051935773 0.040082116
0002f0 ee c4 f0 bc 09 4a 28 3d 64 ba 32 3d 7a 13 51 bd
       -0.029390778 0.04108623 0.043634787 -0.051043965
000300 30 11 0c 3d 34 91 f5 3c 3f 37 3b bb 42 bc 1e 3d
       0.03419608 0.029976465 -0.0028566865 0.038753755
000310 ce 75 43 bd 1d 6a 30 3d 96 e6 73 bc bd db d3 3c
       -0.04771977 0.043069948 -0.014886519 0.025861615
000320 3e 1b 05 3d 74 ea 16 bd 10 33 b6 3c 11 a8 18 bc
       0.032496683 -0.036844686 0.022241145 -0.009317414
000330 cc 6c 1f 3c 3e 97 f5 3c e4 28 9d bc cf 9c 92 bc
       0.009730529 0.029979344 -0.019184537 -0.017897038
000340 6f 2b 60 3d 74 b0 39 bb fe db db bc da 4d 61 bd
       0.05472892 -0.0028333934 -0.026838299 -0.055005886
000350 c7 d8 20 bd 9d ef a3 bc 83 d3 22 ba 4d 9c f6 3b
       -0.039269235 -0.020011717 -0.0006211327 0.0075259567
000360 f4 d4 32 bd bc e0 c9 3c ce 6b 8c 3c c8 18 12 bb
       -0.04366012 0.024643295 0.017141249 -0.0022292603
000370 48 38 48 bc e5 5b 51 3d 5a 03 04 3d fb aa bc bb
       -0.01222045 0.051113028 0.03222976 -0.005757687
000380 3c a9 72 3d d3 6e 23 3d 28 ab 50 bd 33 f7 5e 3d
       0.059243426 0.039900612 -0.050944477 0.054434966
000390 b4 08 00 bd b5 38 41 3d ab b4 13 bc 06 e0 69 3c
       -0.0312583 0.04717322 -0.009015243 0.014274603
0003a0 f4 01 95 bc e5 b5 7c 3d a2 cf 01 bd 8f ee 2d bd
       -0.018189408 0.061696906 -0.031692155 -0.042463835
0003b0 e0 5d f0 3b fe 5a 33 bc fa 60 0f bd bb f2 4a bd
       0.0073354095 -0.010946987 -0.035004593 -0.049547892
0003c0 9a bb 30 bd e1 a3 82 bc e8 11 35 bc 14 64 a9 bc
       -0.04314766 -0.015947284 -0.011051632 -0.020677604
0003d0 d1 11 3c 3c 7b 62 35 3d 40 e0 94 3c f4 07 c2 bc
       0.011478857 0.04428337 0.018173337 -0.023685433
0003e0 da c7 7b 3d 0c e2 ae bc 90 12 25 bd 1a ab 59 bd
       0.06146989 -0.021348022 -0.040300906 -0.05314169
0003f0 5c 10 70 bd b5 fc 23 bd c0 30 24 bd 2c 0e b1 bb
       -0.05860935 -0.040035922 -0.040085554 -0.0054033007

fc2.weight f4 [128, 256]
000000 2c 7d f2 bc ae cc 50 3b f4 f6 3c 3d ad b4 85 3d
       -0.029600702 0.003186028 0.04613395 0.06528602
000010 74 f8 5a bc 9c 26 ec 3c 08 aa ba bc 31 17 92 bc
       -0.0133649 0.028827004 -0.022786155 -0.017833324
000020 36 92 83 3b 0d 01 47 3d 91 71 d7 bc d5 3c eb 3b
       0.0040152324 0.048584986 -0.02629927 0.0071788826
000030 c1 43 87 3d 1c 09 19 3d 58 c3 2f 3d 59 d4 04 bd
       0.0660472 0.037362203 0.042910904 -0.032429073
000040 f9 08 5d 3d a5 65 fa 3c 10 4e 0b bc 5c 8b 83 3d
       0.053963635 0.030566046 -0.008502498 0.06423065
000050 62 93 49 3d ff b3 3c 3d fa 6f 2d bb 00 db 19 ba
       0.04921282 0.046070095 -0.0026464448 -0.00058691204
000060 ca 93 66 bd 2e 25 2e 3d fb 6e 0d bc 20 06 54 3c
       -0.056293286 0.042515926 -0.008632417 0.012940913
000070 ed 91 d8 3b 37 aa 60 bd 9f 99 ef bc 42 30 c6 3c
       0.0066091926 -0.05484983 -0.029248057 0.024192933
000080 e4 2e 65 bc fa c6 70 bc 5a 29 54 3d f4 2c 4d bd
       -0.01398823 -0.014695877 0.05179725 -0.0500917
000090 14 b1 cf bc df ce 45 3b 26 d6 f2 3c 05 8c 5d 3d
       -0.025352992 0.003018312 0.02964313 0.05408861
0000a0 c2 4b a8 bc 39 af 42 3c bb 9a 4a 3d af 70 94 3c
       -0.020543937 0.011882597 0.04946397 0.018120138
0000b0 ea f8 35 bd 0b b4 30 3d c2 11 0c 3d 8d 45 b2 3b
       -0.044426836 0.043140452 0.034196623 0.00544042
0000c0 cf f4 55 3c a1 ff 31 3d f9 1c 81 3d 2d ac 48 bd
       0.013058855 0.043456677 0.06304354 -0.048992325
0000d0 ca 99 55 bc c0 16 62 bd 60 02 99 b8 06 7b 1d 3d
       -0.013037154 -0.055197477 -7.296051e-05 0.038447402
0000e0 c0 5e 61 3d dc 01 eb bc 07 68 aa 3c 78 78 7b bc
       0.055022 -0.02868741 0.020801557 -0.015348546
0000f0 64 b9 03 3c 2f 7f 88 3d 8b 7c 48 3c 9c 1b bf bc
       0.008039806 0.06664883 0.012236725 -0.023328595
000100 98 44 4f bd d4 c1 80 3d 9e 1d 96 bc e0 5f c8 bb
       -0.050602525 0.0628697 -0.01832467 -0.006114945
000110 b7 14 6d 3d 50 81 27 bb ee c9 2b bd e5 28 5a bd
       0.057881083 -0.0025559254 -0.041940622 -0.053261656
000120 a0 36 89 3d 93 d3 32 3c 8e ce 12 bd cd 80 26 3d
       0.06699872 0.010914701 -0.035841517 0.040650178
000130 ab a2 05 3d c7 34 43 bd c8 f7 09 3c e8 74 29 3c
       0.032625835 -0.047657754 0.008420892 0.010342814
000140 b9 8d 11 bc a4 c1 2d 3d 5e 65 60 3d b1 0e 41 3d
       -0.008883887 0.042421 0.05478417 0.04713315
000150 e2 06 0b bd a5 50 86 3d 56 73 98 3c 4e 87 0b 3d
       -0.03394211 0.065583505 0.018609684 0.034064583
000160 26 2d 65 bc a9 c7 a0 3c 59 2e a8 bb c5 74 e1 bb
       -0.013987815 0.019626455 -0.005132478 -0.006880375
000170 92 08 03 3d 9b eb cd 3c ca eb 49 3d 24 b8 5a 3d
       0.031990595 0.02513676 0.04929713 0.053398266
000180 84 cc 4f bd 02 10 3f 3d 64 38 05 bd 0f b3 a5 3c
       -0.05073215 0.046646126 -0.03252448 0.020226983
000190 98 31 2b 3c 4a ae 97 3c 92 86 4b bc 6f a6 90 bc
       0.010448836 0.018515725 -0.012422221 -0.017657487
0001a0 df f8 f1 3c a3 0a 4a 3d e1 52 35 3d ac 88 04 3d
       0.029537616 0.04932655 0.044268493 0.032356903
0001b0 a3 58 3f bd 4e 0b af bc 80 34 f2 ba 9f da 26 3d
       -0.04671539 -0.021367695 -0.0018478781 0.040735837
0001c0 70 8a fd 3c 1d fd 2d 3d 38 65 69 bd a8 51 2e bd
       0.030949801 0.042477716 -0.056981295 -0.042558342
0001d0 95 2e fd bc 74 44 03 bd 05 1b 67 3c 9d d7 50 3d
       -0.030906001 -0.032047704 0.014105563 0.050986875
0001e0 53 b0 1a bd d9 bc 27 bd dd da 7d 3d ad 8b a0 3a
       -0.037765812 -0.040951584 0.061976302 0.0012248658
0001f0 19 4d 49 bd 74 c0 fe 3c 01 76 19 bd 5f 1c ec 3c
       -0.04914579 0.031097628 -0.037466053 0.028822122
000200 52 f0 11 3c f4 86 10 3d e3 3c 2e bd 6b 6a 61 bd
       0.0089073945 0.03528495 -0.042538535 -0.05503313
000210 15 af 99 3c 64 f8 39 3d f9 a5 2a bd 8d d0 72 3d
       0.018760243 0.0454029 -0.04166219 0.05928092
000220 54 2f bc bc ca 63 59 bd d5 06 d2 bc 1e 49 c6 bb
       -0.022971787 -0.053073682 -0.025638023 -0.0060511967
000230 a1 8e 13 3d 16 64 42 bb eb 6d 51 bd fb fa 08 bd
       0.036024693 -0.0029661707 -0.051130217 -0.03344248
000240 a6 2d 48 bd 9b c8 ba 3c 39 0e a2 3c 20 fa 71 3d
       -0.04887166 0.022800734 0.019782173 0.05907643
000250 cf 15 ce bc ab 6c 31 3d b4 0c 05 39 59 3d 2a 3c
       -0.025156884 0.043316524 0.000126886 0.010390603
000260 bd a8 5d 3d ae a8 35 bc ac 0a a9 bc 98 6c 05 bd
       0.054116 -0.01108758 -0.020634972 -0.032574266
000270 d2 f3 62 3d 13 3f b0 3c 03 f6 87 3d 83 8e fa 3c
       0.055408306 0.021514451 0.0663872 0.030585533
000280 ee 30 47 3d e7 4b ae 3a 02 68 37 3d 73 69 09 bd
       0.048630647 0.0013297767 0.044776924 -0.03354783
000290 5c d7 5a 3d d5 ab 29 bd e6 3c b8 3c d8 05 7a 3d
       0.05342804 -0.041423637 0.022489976 0.06104073
0002a0 94 96 88 bc 26 4f 14 bc ae 67 1d 3d 5c 2f 40 3d
       -0.016673364 -0.009052074 0.038428955 0.046920165
0002b0 f1 84 88 3c a1 ca 3a 3d 49 0e 6f 3d c4 0b 83 3c
       0.016664954 0.0456034 0.058363233 0.015996821
0002c0 3e 41 69 bc 6e fe 42 bd f5 3a 44 3b 57 fb 03 3d
       -0.014236746 -0.047605924 0.0029942368 0.03222212
0002d0 ae 98 dd bc 0c 16 48 bd c3 31 21 bd 72 1c 4b 3d
       -0.027050342 -0.04884915 -0.039354097 0.049587674
0002e0 c4 74 58 bd 89 0f 65 bd 42 6f 81 3d 53 b2 14 bb
       -0.05284573 -0.05592302 0.06320049 -0.0022689297
0002f0 12 81 01 3d c6 98 a3 3b d1 f7 5b 3b 0a 48 55 3c
       0.03161723 0.0049925772 0.0033564458 0.013017664
000300 59 ab 0c 3c 82 52 62 3d e6 37 29 bd ed 7b 2c 3d
       0.008585774 0.055254467 -0.041313075 0.042110372
000310 b6 32 d6 bb 08 53 fe 3c 19 8b c7 3c 2a fa 73 3d
       -0.006536807 0.031045452 0.02435832 0.059564747
000320 fc a1 c3 bb 15 c3 e2 3c c3 67 83 bc 99 bb 8c bc
       -0.005970238 0.027680913 -0.016040688 -0.017179297
000330 80 e0 39 bd 9d f6 0d bc c0 fc 7f 3d 62 85 23 3d
       -0.045380116 -0.008664754 0.0624969 0.039922126
000340 7c 1a 86 3d b1 35 1e 3d 7e 69 23 3d 0a cf 22 3d
       0.0654802 0.038625423 0.039895527 0.03974823
000350 94 85 4c bc 50 74 e3 bc da 58 5d 3d 6b 38 4f bd
       -0.012483019 -0.027765423 0.054039814 -0.050590914
000360 f7 35 4d 3c eb e5 26 3d 26 1a 78 3c ec 92 35 bc
       0.012525073 0.04074661 0.015142953 -0.011082392
000370 58 84 2b 3d 4f 6f 7b 3d 84 c5 6b 3c 78 be 36 bd
       0.04187426 0.06138545 0.014390353 -0.04461524
000380 ca 1a c0 bc 97 78 be 3c c6 6b 00 3d a2 4c 7e 3d
       -0.023450274 0.023250861 0.03135278 0.0620848
000390 32 1f 17 bd 9a 4e b1 3c ce 2b 82 3c b5 47 1e 3d
       -0.036894985 0.021643925 0.015890028 0.038642604
0003a0 cf 94 96 3c 28 cc dd bc 62 98 34 3d 44 33 67 bd
       0.018381504 -0.027074888 0.044090636 -0.056445375
0003b0 8c 1e 96 3c c6 36 63 bd 68 1a 30 3d 82 d5 f5 bc
       0.018325113 -0.055472158 0.042993933 -0.030009035
0003c0 4e 59 87 3d de 61 d7 bc 5e a6 24 3c 02 95 46 3d
       0.066088304 -0.026291784 0.010049431 0.04848195
0003d0 3f a1 9b bc ab 16 d2 bc 96 15 11 3d cf 2f 68 3d
       -0.018997787 -0.025645575 0.035420977 0.05668622
0003e0 01 fc 58 bd 68 ca 58 bd 81 7f 75 3c a4 ea 8f 3c
       -0.052974705 -0.052927405 0.014984013 0.01756794
0003f0 5b 7b 74 3d 9e 4f 12 3d 63 36 0c 3d b3 a1 80 3c
       0.059687953 0.03572046 0.034231555 0.015702104

fc2.bias f4 [128]
000000 c2 ea 28 3c ff c1 7d 3c f7 8b 07 bd a4 12 20 bd
       0.010309877 0.015488147 -0.033092465 -0.039080277
000010 e9 8b 00 bd e4 c1 2e 3c 53 07 2d 3d c0 01 dc 3c
       -0.03138343 0.010666344 0.042243313 0.026856303
000020 d8 d9 80 3d 0e af 53 3d c4 c0 da bc 23 61 8f 3d
       0.062915504 0.051680617 -0.026703246 0.07000949
000030 fc 17 3f bd 95 aa f8 3b 60 57 3c bd 91 b4 1c 3b
       -0.046653733 0.0075886943 -0.045981765 0.0023911337
000040 4a 3f 38 3d ac 4e 77 3c 78 d8 6e 3d 75 29 e5 38
       0.044982232 0.01509444 0.05831191 0.00010927293
000050 3d 1e 08 bd b0 b4 12 bd 8a 17 52 3d 2f 31 f2 3c
       -0.033231962 -0.03581685 0.05129198 0.029564468
000060 5e bc 38 bd fc b1 28 3c 4d 9e 61 bd 07 57 36 3d
       -0.045101516 0.010296341 -0.055082608 0.04451659
000070 47 c5 5b 3c f1 c5 37 3d da 1f 82 bd 8f 37 40 3c
       0.013413734 0.044866506 -0.063537315 0.011731996
000080 79 0c 0d 3c 00 5e 26 bd 31 6d 3c bc 60 7e 84 3c
       0.008608931 -0.04061699 -0.011500643 0.016173542
000090 10 45 d6 bc f5 67 26 3d 35 49 58 bd 48 db f9 3c
       -0.026155978 0.040626485 -0.05280419 0.03050007
0000a0 a8 fc 38 3d 08 88 6d bd 04 c2 61 3d f9 58 3e 3d
       0.045162827 -0.057991058 0.05511667 0.04647157
0000b0 d8 cf 07 bc 24 e0 1d bd 75 af 7e bc d1 16 eb 3b
       -0.0082893 -0.038543835 -0.015544762 0.007174351
0000c0 f4 4a 18 bd bd a8 c3 bb 1c 4c 0f bd d4 70 2e bd
       -0.037180856 -0.005971043 -0.034984693 -0.04258807
0000d0 32 6b f1 bc 45 a2 7d 3c 8f 56 ec 3c 57 94 21 bc
       -0.02947006 0.015480583 0.028849868 -0.009862027
0000e0 03 1c 00 3d ea b1 09 39 ce eb 29 bd 08 44 1a 3c
       0.031276714 0.00013131616 -0.041484646 0.009415634
0000f0 f4 34 ae 3c 3c ff c9 3b 33 56 4d 3c 54 d9 55 bd
       0.021265484 0.0061644595 0.0125327585 -0.052209213
000100 9b df 1c 3d 6d 8c b5 3c 38 f1 93 bc 29 3d 0e 3c
       0.038299184 0.022161687 -0.018059358 0.008681574
000110 e4 0f 33 3d b0 45 55 3d dd 31 2e 3d f3 22 78 3d
       0.043716326 0.052068412 0.042528022 0.060580205
000120 a9 82 38 3d cf 86 be bc 12 01 a6 3b 74 3c 88 bc
       0.045046482 -0.023257641 0.0050660456 -0.016630389
000130 79 ee 88 3d 12 4d 96 bc 94 8b 22 3a ee 87 6e 3c
       0.0668611 -0.018347297 0.00062006083 0.014558775
000140 20 00 f4 3c 7e be 57 bd 06 1f 10 bd ee f7 96 bc
       0.029785216 -0.052671902 -0.035185836 -0.018428769
000150 d6 48 11 3d 92 d2 1b bd 11 4a 49 bd 02 80 36 bd
       0.035469852 -0.038042612 -0.0491429 -0.04455567
000160 a3 1b 4a bb 19 b4 17 bd e5 29 3d 3d 11 80 21 bd
       -0.0030839227 -0.03703699 0.046182532 -0.039428774
000170 3c c8 24 bd 45 57 0a bc fd 65 aa 3c ef 61 b4 bc
       -0.04023002 -0.008443658 0.020800585 -0.022019355
000180 b2 06 16 3d 12 ab b1 3c a0 5e ce 3c 87 c7 4c 3d
       0.03662748 0.021688018 0.025191605 0.04999497
000190 0c 8d 23 bd 77 28 f6 3c 8a 10 4e bc 72 6c 20 3d
       -0.039929435 0.030048592 -0.012577185 0.03916592
0001a0 5a 48 52 bd c8 dd ad bc 54 0e 4a 3d 65 f1 ec bb
       -0.05133853 -0.021223918 0.04933007 -0.007230925
0001b0 c2 3f 27 bd 60 21 4f bd e6 9f 51 3d be bc d2 3c
       -0.04083229 -0.05056894 0.05117788 0.025724765
0001c0 90 e7 d3 3b 67 93 9c bc 1c 86 62 3d 8c 1d dd bc
       0.0064668134 -0.019113256 0.055303678 -0.026991628
0001d0 92 a8 5c 3c 06 a3 15 3d 15 46 19 3c d6 06 c5 3c
       0.013467925 0.036532424 0.009355088 0.024051111
0001e0 d8 f4 48 bc 93 35 4d 3d 54 1a 45 bd a3 25 64 3c
       -0.012265407 0.05009992 -0.04812081 0.013924989
0001f0 b0 35 04 bb 58 f8 58 bd 00 03 10 3d 2d 45 57 bd
       -0.0020173602 -0.052971214 0.03515911 -0.052556206

actor.weight f4 [4, 128]
000000 7d 17 8a bc 02 7f d1 bc d8 84 66 bd bf a4 a3 bd
       -0.016856903 -0.025573257 -0.056279033 -0.07990407
000010 d5 ee 81 3d 9b 94 9f bd d8 dd 90 3d 4d e2 37 bd
       0.06344382 -0.07792016 0.07073563 -0.04489355
000020 a1 42 a9 3b 47 95 9f bd 7a 27 57 bc 53 9f e2 bb
       0.0051654135 -0.07792144 -0.013131971 -0.0069159656
000030 4f d6 9a bc 8a b9 c0 bb 52 fa 9d bd e8 8d d5 bc
       -0.018901018 -0.005881493 -0.077137604 -0.026068643
000040 55 04 48 3c 2d d9 ed 3c 24 ad 25 bd 4d 2f f1 bc
       0.012208064 0.029034222 -0.040448323 -0.0294415
000050 10 55 5a 3d bf 8d b6 bb 92 7d df bc e1 ca 2b 3d
       0.05330378 -0.0055710967 -0.027281556 0.041941527
000060 9d 71 2c bd c2 0d e4 3c 3b b6 43 3d 9a 6d 16 bb
       -0.042100538 0.027838591 0.04778121 -0.0022953511
000070 9c da a4 3d 04 19 74 3d fb d5 a5 bc 6e b5 25 3d
       0.08049509 0.05959417 -0.020243635 0.040456228
000080 30 5b 4d 3d cc c3 44 bd 52 fa 91 3d 6d 34 1e bb
       0.05013579 -0.04803829 0.07127823 -0.0024140135
000090 e4 d4 90 bd 42 e9 76 3d 3d a4 96 3c b9 e6 99 3d
       -0.07071856 0.060281046 0.018388862 0.0751471
0000a0 ab 95 a4 bd a4 b3 a7 bd 05 d7 a8 bd b7 a1 8c 3d
       -0.080363594 -0.081885606 -0.08244137 0.06866782
0000b0 58 0f 96 bb eb 3a a3 bc 9e 56 86 3d b0 7d 32 bd
       -0.004579466 -0.019925555 0.0655949 -0.043576896
0000c0 8b 0a 9c bd ec 42 4e 3d 2a 00 c3 3c 3e 85 30 bc
       -0.076191984 0.05035679 0.02380379 -0.010773955
0000d0 57 7f 06 bd 32 fc 62 3d 47 10 77 3d 92 c9 ab bd
       -0.032836284 0.055416293 0.060318258 -0.08388056
0000e0 f6 c9 ac 3d 45 8d 53 3d 29 05 81 3d 7e 8d 6b 3c
       0.084369585 0.051648397 0.06299812 0.014376996
0000f0 73 d9 fb bc 38 26 63 b9 d1 f9 85 3d 10 b2 0b bd
       -0.030743336 -0.00021662645 0.06541789 -0.03410536
000100 90 a3 60 3d e5 32 86 3d d2 f4 a8 bd c8 e2 09 bd
       0.054843485 0.06552676 -0.08249821 -0.03366354
000110 4b 01 d3 bc 4a cc 63 bd a2 d4 1e 3d 46 e9 e3 bc
       -0.025757452 -0.055614747 0.038777 -0.027821194
000120 b9 93 2e bc 18 7e 7b 3d 67 4c 6c 3d aa 42 d7 bc
       -0.010655337 0.06139955 0.05769005 -0.026276905
000130 9b 74 9b bd d9 00 14 bd 1f eb 18 bc 1e e0 96 3d
       -0.075906 -0.03613362 -0.009333401 0.07366966
000140 d9 f2 51 bd b2 9c 0d bd 21 fb be 3d 82 0b a9 bd
       -0.05125699 -0.034573264 0.09325243 -0.08254148
000150 83 0b a4 bb 9e ce 89 3d f5 8b 09 3d cc 67 12 3c
       -0.005006255 0.06728862 0.03358074 0.00893588
000160 1d 3b 2e bd 35 01 87 3d 56 63 36 bd be d9 66 bd
       -0.042536844 0.06592027 -0.044528328 -0.05636
000170 87 72 a0 bc 6b 43 e2 ba d4 21 70 3d 3f 31 89 bd
       -0.01958586 -0.0017262524 0.05862601 -0.06698846
000180 bd 53 a5 bd c9 41 2a 3c db 59 10 bd 10 e5 2f 3d
       -0.080726124 0.010391661 -0.035241943 0.04294306
000190 35 94 88 3d 96 87 a9 3c 18 0a 6e 3d fc e8 05 3d
       0.06668893 0.020694535 0.058115095 0.032692894
0001a0 5d 1b a0 3d c1 ad 35 3c 13 54 9b 3a 2a 52 9f bd
       0.07817719 0.011088789 0.0011850618 -0.077793434
0001b0 30 6e a8 3d eb 33 ac 3d ca 95 8e 3d ff eb a8 3d
       0.082241416 0.0840834 0.06962164 0.08248138
0001c0 08 fc 1c 3d 3a 1f 8a 3b d3 1f 7a bc b9 1c 3c 3c
       0.038326293 0.0042151483 -0.015266377 0.011481457
0001d0 e4 0a a3 3d 0d 1e 1c bd cf 55 96 bd 11 57 3e bd
       0.079610616 -0.038114596 -0.073405854 -0.04646975
0001e0 f8 d9 eb 3c ca 17 50 bc 9b 1c ba bc 24 75 87 bd
       0.028790459 -0.012700984 -0.022718718 -0.0661414
0001f0 16 9b 8f bc 72 22 ed 3c 01 ea 61 3d 1c dd b9 3d
       -0.017530005 0.028947089 0.055154804 0.090753764
000200 13 39 91 bd b0 ce 78 bd 64 65 8c bc 20 23 af 3d
       -0.07090964 -0.060743988 -0.01713819 0.085516214
000210 1d 91 de 3c ac 00 32 bb a8 85 a3 3d 74 d6 09 3d
       0.027168805 -0.0027161045 0.07984477 0.033651784
000220 2f fc 3d bd f0 5f 06 3d f5 6b f5 bc bc e3 a2 bd
       -0.04638308 0.032806337 -0.029958704 -0.07953593
000230 75 cd 95 bd 94 f8 53 3d df 24 5b 3c dc 56 6e 3d
       -0.073145784 0.051750734 0.01337549 0.058188304
000240 51 2d 40 3d e2 a1 01 bc a0 42 95 3d 79 c1 1d bc
       0.046918217 -0.007912131 0.07288098 -0.009628647
000250 76 b9 4f ba cd 32 f8 bc a8 bf 99 bd 79 19 88 bd
       -0.0007924059 -0.030297661 -0.07507259 -0.066454835
000260 d1 69 8f 3d 52 97 06 bd 74 ad a7 bc 10 83 25 bd
       0.07002605 -0.032859154 -0.020468451 -0.040408194
000270 86 fa 16 bd 5b f1 a3 3c b1 e2 2d bc ab 7b ac bd
       -0.03686001 0.020012548 -0.0106131295 -0.08422025
000280 bd 98 ce 3c 96 ab 69 bd 8a 01 9e bc 61 52 b5 bc
       0.025219316 -0.057048403 -0.019287843 -0.022134008
000290 1a 3f dc 3b 1f 0e a0 bc 3f e7 96 3d 46 f3 0a 3d
       0.0067213895 -0.019537983 0.073683254 0.03392341
0002a0 ca 81 49 bc 36 5c 2a 3c 70 38 68 bd db 08 90 bd
       -0.0122990105 0.010397961 -0.056694448 -0.07032939
0002b0 ee 7e 73 3d b9 84 10 3d 1d b2 e2 bc e2 70 a7 3d
       0.05944722 0.035282824 -0.027672822 0.081758276
0002c0 e2 6e 86 bd d8 cd 05 bd 72 27 a1 3a 6f 4d 5b bd
       -0.06564118 -0.03266701 0.0012295081 -0.053540643
0002d0 a3 69 27 3d be 8f cc 3c 9c 0a 2c bd e0 4d db bc
       0.040872227 0.024970885 -0.042002305 -0.026770532
0002e0 73 89 71 bc 0e 11 d8 bb 71 06 0d bd 68 72 ee 3b
       -0.014742243 -0.00659383 -0.03442997 0.007276822
0002f0 02 a6 2e bd 7a 53 af bd d6 d7 1f 3d 40 ff 80 bd
       -0.042638786 -0.08560844 0.039024197 -0.06298685
000300 1e a1 a8 bd b4 e4 83 bc 61 65 8b 3c ac f6 61 bd
       -0.08233856 -0.016100265 0.017016115 -0.055166885
000310 69 a7 23 3d 7e f4 3e bd d2 08 33 3d a1 67 60 bd
       0.039954577 -0.046619885 0.043709584 -0.05478633
000320 bd 92 a6 3d 54 47 86 bd d8 3e e3 3c e7 b6 9b 3c
       0.08133457 -0.065565735 0.027739927 0.019008113
000330 81 3c 1e 39 05 9d 38 3d 9b d9 94 bc 94 69 af bc
       0.00015090594 0.04507162 -0.018170169 -0.021412648
000340 5b 93 b3 3d 3b 9c 36 3c aa 2b 5d 3b ec 04 ab bd
       0.0876834 0.011145647 0.003374795 -0.08350548
000350 2b 0b bc 3d f1 e5 b8 bc bb 43 c4 3b 42 47 8d 3d
       0.091818176 -0.022570582 0.0059895194 0.06898357
000360 7c 86 48 bc c5 70 5a bd f5 ac b0 bd 85 02 a7 3d
       -0.012239095 -0.0533302 -0.08626739 0.081547774
000370 26 3f 9a 3d da a4 41 3c 95 5a 2c 3d b1 3c 60 bd
       0.07531576 0.011819089 0.042078573 -0.05474538
000380 4e 26 0c 3c 4d 18 92 3d 8f 0d 16 3d b6 29 8c bd
       0.008554054 0.07133541 0.036634024 -0.06843893
000390 49 58 b8 bc ec 49 66 3c 49 37 76 3d 01 eb 95 bd
       -0.022503035 0.01405571 0.060111318 -0.07320214
0003a0 6c 45 9a bd 5a 69 04 bd 18 34 40 3d fc 80 9b bd
       -0.075327724 -0.032327034 0.04692468 -0.07592961
0003b0 79 09 f8 3c 0f c3 7d bd f3 6d 90 bb e3 4a a2 bd
       0.030277954 -0.0619536 -0.004407638 -0.0792444
0003c0 39 66 75 3c 73 71 a3 bd 88 ab 90 bd cd 0f 2a bd
       0.014977985 -0.07980623 -0.07063967 -0.041518975
0003d0 8c 8d ac bc 48 36 5c bb 8c d9 49 3d ca e6 8d bb
       -0.021063589 -0.003360169 0.049279734 -0.0043304907
0003e0 9f 58 22 bd 62 f2 0e bd 11 32 89 bd b6 fc cc bb
       -0.039635297 -0.034899123 -0.066990025 -0.0062557114
0003f0 21 4c 0f 3d d1 2d 02 3d a4 a9 57 3d 84 99 0c bd
       0.03498471 0.031781975 0.052652016 -0.03432609

actor.bias f4 [4]
000000 83 2b 90 bd 12 9a 3f bc 8f 68 82 3d 97 0a 7f bd
       -0.07039549 -0.011694448 0.06367599 -0.06226596

critic.weight f4 [1, 128]
000000 29 45 69 3c eb 2f a4 3b b8 3c 40 3d 68 b4 8e bd
       0.0142376805 0.005010595 0.046932906 -0.069680035
000010 16 89 15 bd 1f 23 14 3d 25 58 0d bd cf a5 73 bc
       -0.03650769 0.036166307 -0.03450789 -0.014871075
000020 b9 17 87 3d 7a 8a 60 3d 45 a2 37 3d fa 77 8a 3c
       0.065963216 0.05481956 0.044832487 0.016902912
000030 1c 8a 9e bd 09 10 d1 bc 9b 70 3e bd 0a f7 ab bd
       -0.07741186 -0.025520341 -0.046494108 -0.08396728
000040 94 a5 0d bc 5f 28 ea bc fa de c1 3d 10 3c 1a bd
       -0.008645434 -0.028583704 0.094663575 -0.037654936
000050 5d 7f 3a 3d 31 10 08 bd f7 f9 8c bd e2 36 77 bc
       0.04553162 -0.033218566 -0.068836145 -0.015088769
000060 da 60 39 bc 89 b0 89 bb e1 6f a6 bd d6 61 7e bd
       -0.011314595 -0.004201953 -0.08126808 -0.062105022
000070 35 08 27 bc 39 36 28 3d 22 5a c2 bc c4 1f 9d 3d
       -0.010194828 0.041067336 -0.02372462 0.076720744
000080 ee 0e 35 3d 3f 7f 9a 3d 46 aa f5 bc 86 88 62 3d
       0.04420369 0.075438015 -0.02998842 0.05530598
000090 de 7b 41 bd 33 fe 8b bd 03 42 b6 bc 3f b7 8a bd
       -0.04723727 -0.06835594 -0.022248274 -0.06773233
0000a0 f9 40 96 3d 4f c0 ad bd 4e dc 1f bd e9 2b c1 bc
       0.07336611 -0.084839456 -0.03902846 -0.023580508
0000b0 dc eb 1f bd e6 28 a9 3c f9 bf 84 3d 4f 9f 58 3d
       -0.039043292 0.020649385 0.064819284 0.052886304
0000c0 a0 d0 37 bd 12 92 10 3d f7 6e a6 3c cb f3 8f bd
       -0.044876695 0.035295554 0.020316584 -0.07028922
0000d0 36 19 2d bc 0b b3 c2 3d 9c 43 6b 3d 23 0f 34 bd
       -0.010565093 0.09506806 0.057437524 -0.043959748
0000e0 1e 78 b2 3d 9f ca 16 bc 73 7f 36 3d 5a 71 08 3d
       0.08714317 -0.009203582 0.04455514 0.033311225
0000f0 29 e7 13 3d 34 66 83 bd d0 af be 3d 58 ac 56 bc
       0.036109123 -0.06415978 0.09310877 -0.013102613
000100 5f 6c 88 3c d6 06 96 bd 69 29 5f 3d ab be 9d bd
       0.016653238 -0.073255226 0.05448285 -0.07702383
000110 fe 09 b4 bc 4c b3 45 3c e2 16 80 3c bb 87 44 3d
       -0.02197742 0.0120666735 0.015635911 0.047981005
000120 fe bd 5e 3d 22 ed 9f bd a2 22 84 3d e1 a9 81 bd
       0.05438041 -0.07808901 0.06451918 -0.0633123
000130 09 cd 47 3d 1f b2 b8 3d 7c 50 93 bc 4b 17 9e 3d
       0.04877952 0.09018349 -0.017982714 0.077192865
000140 06 11 71 bd e8 e4 8d 3b 7f cd f3 3a 07 a9 67 bd
       -0.058854125 0.0043302663 0.0018600671 -0.05655768
000150 4c 9f a5 bc b8 a6 99 3d 6c db 04 bd e8 20 1f bc
       -0.02021756 0.07502502 -0.03243582 -0.009712435
000160 12 3f 48 3d cb 80 9e bd bb 05 b3 3d 3c 22 b8 3c
       0.048888274 -0.07739409 0.087413274 0.022477262
000170 9a c2 74 bc c1 2a a0 3d 6e 91 8e bd 8f c5 e7 3c
       -0.014938975 0.07820655 -0.06961332 0.028292445
000180 b6 2b c2 bc 89 a2 e3 bc 78 77 8d bb 6f c4 5e 3d
       -0.023702484 -0.027787464 -0.0043172203 0.054386552
000190 e7 4d 8e 3d ad c3 df bb 8b f4 aa bd 9e 74 fc bc
       0.069484524 -0.0068287463 -0.08347424 -0.030817326
0001a0 05 17 23 3d 2a 53 5a bd 26 ab 29 bd 00 10 0a 3d
       0.039816875 -0.053301968 -0.041422985 0.033706665
0001b0 30 52 ef 3b 9b 87 e0 bc 29 09 77 3d fe 60 43 bd
       0.0073034987 -0.027408412 0.06031147 -0.04769992
0001c0 a8 3e cc ba 04 ed d6 bc f2 9b 4d 3c 1f c0 10 3d
       -0.0015582638 -0.026236065 0.012549387 0.03533947
0001d0 51 83 ac 3d f6 fb 37 bd b8 13 af 3d 37 d8 93 bd
       0.08423484 -0.044918023 0.08548683 -0.07218974
0001e0 82 89 09 3d 83 66 02 bd fb ea 6f 3d 30 6e bc 3d
       0.033578403 -0.031836044 0.058573704 0.09200704
0001f0 7b 1c ac 3d 5c ab 2e 3c 83 d9 d3 bc da 15 76 3d
       0.0840387 0.010660972 -0.025860554 0.060079433

encoder.0.weight f4 [128, 256]
000000 a0 47 f4 3b e0 0a f2 3b 92 2c 51 bd 76 7a 14 bd
       0.0074548274 0.0073865503 -0.051067896 -0.0362496
000010 fe 50 7c bd 30 0d 6c bd ae 5c 7c 3d 90 83 53 3d
       -0.061600678 -0.057629764 0.061611824 0.05163914
000020 90 d9 72 3c 12 e3 72 3d 18 6f b9 bc 08 02 12 bd
       0.014822379 0.059298582 -0.022635981 -0.03564647
000030 ce 3e 5a 3d 60 f2 58 bb f0 72 42 3c 6e 56 17 3d
       0.05328255 -0.003310345 0.011868224 0.03694766
000040 6e e7 06 3d 8e 95 12 bd 60 02 c6 bc b8 42 6c bd
       0.032935552 -0.035787158 -0.024171054 -0.057680815
000050 40 76 34 3b 50 8f b7 bc 30 e9 5b 3c c0 8f 3e 3b
       0.0027536303 -0.022407204 0.013422295 0.002907738
000060 d4 3f 5a 3d 40 63 b0 3b 06 4b 00 3d 00 90 a1 3c
       0.053283527 0.0053829253 0.031321548 0.019721985
000070 6e 21 63 3d ac d7 d4 bc 2a c1 55 3d 92 9d 37 3d
       0.055451803 -0.025981747 0.05218617 0.044828005
000080 68 59 cc bc fa eb 1c 3d cc ab 6c 3d 90 bf 10 bd
       -0.024944976 0.038310982 0.057781026 -0.03533894
000090 f8 b4 c7 bc 5c 21 2f 3d ea 6a 4e 3d 78 10 87 3c
       -0.024378285 0.042756423 0.05039493 0.016487345
0000a0 20 3a 9d 3c 62 9c 3d 3d 84 5a 60 3d 8c e8 21 bd
       0.019192755 0.046291716 0.054773822 -0.039528415
0000b0 a4 9a d2 bc 40 8b 57 3d 50 45 0a 3d 34 3c f0 bc
       -0.025708504 0.052623034 0.033757508 -0.029325582
0000c0 58 b9 ad bc 5a 6f 78 3d be 56 20 bd 40 ae 24 3d
       -0.021206543 0.060653068 -0.039145224 0.04020524
0000d0 fc 8c 14 3d 26 84 75 bd c8 8c 7f bd 0c f8 a9 3c
       0.036267266 -0.05994048 -0.06239012 0.02074816
0000e0 c8 35 fb 3c e6 ea 62 3d f0 6c fc 3b c4 ac 2d 3d
       0.030665293 0.055399798 0.007703416 0.04240109
0000f0 42 ef 35 bd 72 cf 18 3d 02 9e 76 bd 64 c4 26 3d
       -0.044417627 0.03730721 -0.06020928 0.040714636
000100 10 09 de 3b e0 21 1e 3d 44 3f ca 3c 4e 1a 31 bd
       0.0067759827 0.038606524 0.02468837 -0.043237977
000110 80 24 2a 3a d8 85 01 3c 80 35 13 3c 68 24 60 bd
       0.0006490424 0.007905446 0.008984923 -0.05472222
000120 d2 4e 01 bd 38 2e f1 bc 44 26 0b bd 2c fc 59 3d
       -0.03156931 -0.029440984 -0.03397204 0.053219005
000130 86 cf 10 3d f8 d2 d2 3c 08 7d 99 bc 6a b5 4f bd
       0.03535416 0.025735363 -0.018736377 -0.05071012
000140 b8 e8 59 3c 70 88 6c 3d c8 dd e3 3c 74 ae 4e bd
       0.013300113 0.057747304 0.027815714 -0.05045934
000150 90 91 b5 bb a0 5d 26 3b d4 77 22 3d 1c 4b d8 3c
       -0.005541034 0.0025385395 0.03966506 0.026403002
000160 6e 88 34 bd 5c 6c 71 bd dc 06 98 3c d4 f2 f9 3c
       -0.044075422 -0.05894123 0.018557958 0.030511297
000170 e6 d3 12 3d e0 39 30 3d aa 4c 62 3d 88 b8 d5 bc
       0.035846613 0.043023944 0.055248894 -0.026088968
000180 62 01 79 bd 90 bc fa 3c b6 ef 76 3d 8a 77 3a bd
       -0.060792334 0.030607492 0.0602872 -0.045524158
000190 2a df 00 bd 66 30 5b 3d 10 f2 47 3d 70 e0 c3 bb
       -0.031462826 0.053512953 0.048814833 -0.005977683
0001a0 b6 1e 12 bd 40 ba 3b 3c 8a bc 7a bd 18 3c ca bc
       -0.03567382 0.01145798 -0.06121496 -0.024686858
0001b0 18 84 04 bc 50 0e 74 bc 9c f7 d2 3c 00 58 ad 3a
       -0.008088134 -0.0148959905 0.025752835 0.0013225079
0001c0 c4 b2 49 bd c0 e7 c8 bb 60 43 be 3b 96 f4 1f 3d
       -0.04924275 -0.0061311424 0.0058063716 0.039051615
0001d0 00 a1 66 3b 70 88 b2 bc 7c 68 c7 3c a0 ec eb 3c
       0.0035191178 -0.021793574 0.024341814 0.028799355
0001e0 88 5c 42 3c 64 77 09 bd 24 80 8a 3c e8 63 12 3c
       0.0118628815 -0.033561125 0.016906805 0.008934952
0001f0 6a b4 0f 3d f0 e4 8b bc 20 04 85 bb e4 94 05 3d
       0.035084166 -0.01707694 -0.0040593296 0.032612696
000200 28 0a 08 bc 06 99 05 3d e0 87 24 bc 4e d7 60 3d
       -0.008303203 0.032616638 -0.010042161 0.05489283
000210 00 ca fb b9 d0 01 58 bc a0 88 b1 3c 80 60 4f bb
       -0.00048024952 -0.013184026 0.021671593 -0.0031643212
000220 c0 ed 4c 3d e8 ad 0f bc d6 1b 2c 3d 2c 65 84 bc
       0.050031424 -0.00876949 0.042018734 -0.016161524
000230 60 e9 b3 3b b0 0b a6 3c 04 44 70 bd 50 17 45 3c
       0.005490467 0.020269245 -0.058658615 0.012029484
000240 22 36 0b 3d 6c 20 ca 3c 40 d8 c8 3a 40 8c d3 bb
       0.033987172 0.024673663 0.0015323237 -0.006455928
000250 ac 22 a1 3c 58 01 9b 3c 04 a6 f6 bc 3c d8 c7 3c
       0.019669853 0.01892154 -0.03010846 0.0243951
000260 e6 3a 5b bd 00 00 21 3b d8 09 b0 bc 60 3a d6 bc
       -0.053522967 0.002456665 -0.021489069 -0.026150882
000270 12 9f 4f bd ea 3b 49 3d e0 a7 bc 3b 70 d8 8c 3b
       -0.05068881 0.049129404 0.005757317 0.0042982623
000280 08 22 1a bc 68 54 d4 bc 62 eb 45 bd 40 0f 43 3c
       -0.009407528 -0.025919154 -0.04832018 0.011905491
000290 8a b5 47 bd 30 1b db bc 68 b0 00 3d 80 33 56 3d
       -0.048757114 -0.026746362 0.031418234 0.052295208
0002a0 a4 a4 a3 bc 1c 30 7c bd c2 5c 7a 3d 5c 95 0a 3d
       -0.019975968 -0.06156932 0.061123617 0.033833846
0002b0 54 bf 38 3d 40 c4 3a bc 40 00 53 bc 10 43 c8 3b
       0.04510434 -0.011399329 -0.012878478 0.00611151
0002c0 f8 9c 7a 3c 00 bf d3 3a ba dd 04 bd 3c ab 64 3d
       0.015296213 0.0016154945 -0.032438017 0.055827364
0002d0 04 1d ef 3c d0 07 b9 bb 54 13 5a bd 24 2a fc bc
       0.02918864 -0.0056466833 -0.05324109 -0.030781813
0002e0 d8 92 b2 bc 60 cb 2a bc 40 b3 8d 3c c8 1f 2b bc
       -0.021798536 -0.010424465 0.017297387 -0.010444589
0002f0 cc 2a b1 3c ec 47 26 bd c8 10 60 bc a4 68 e7 3c
       0.021626852 -0.040595934 -0.013675876 0.028248139
000300 ac 6b 7b 3d 14 44 58 bd f0 e8 d4 3b 52 32 07 3d
       0.06138198 -0.0527993 0.006497495 0.033006974
000310 d0 ef dc bb 50 92 6e 3c c4 d4 1f 3d d2 5e 7e bd
       -0.006742455 0.014561251 0.03902127 -0.062102146
000320 cc 96 17 3d f2 db 64 bd 48 3b 3e 3c 68 f4 1a 3d
       0.037009045 -0.05587382 0.011610813 0.03783074
000330 90 bd e8 bc 80 e5 13 3a 1a c3 75 bd 00 48 7c bb
       -0.028410703 0.0005641803 -0.060000516 -0.0038495064
000340 4a 43 10 3d 80 30 ff 3c 64 d4 88 3c b0 0d a8 bb
       0.03522042 0.031151056 0.016702838 -0.005128585
000350 64 c8 d1 bc 0a 18 50 3d 24 37 97 3c 28 2d b6 3c
       -0.025608249 0.050804175 0.01845891 0.022238329
000360 60 4e f9 3c 38 b8 90 bc 30 3e 9c bb ba 8f 71 3d
       0.03043288 -0.017665967 -0.0047681555 0.05897496
000370 48 24 65 3d 86 14 7e bd fc 77 5a bd b4 21 93 bc
       0.055942804 -0.06203129 -0.053337082 -0.017960407
000380 40 6b 81 3c 3a f6 05 bd 58 b0 fd 3c c8 ad 65 bd
       0.015798211 -0.032705523 0.030967876 -0.056073934
000390 70 90 f7 bb 98 03 25 3d c0 b1 82 bc 34 11 83 bc
       -0.00755506 0.04028663 -0.015953898 -0.015999414
0003a0 60 1e 5e 3c 98 1b 44 3d d8 b4 65 3c 00 fd ca 3a
       0.013557047 0.047877878 0.014020167 0.0015486777
0003b0 00 b6 ca ba b4 f1 58 bd 04 c6 ca bc 9e fa 7e 3d
       -0.0015465617 -0.05296488 -0.024752624 0.062250726
0003c0 4c 56 2b bd cc 96 f1 3c 08 cb b1 bc 1c 4a ad 3c
       -0.041830346 0.02949085 -0.021703258 0.021153502
0003d0 6c 4c e3 3c e6 0b 35 3d 4e da 1e bd 98 ed 01 bc
       0.027746402 0.0442008 -0.03878241 -0.007930182
0003e0 9e 81 2e bd 20 b0 50 3c 60 5a f2 bc 30 70 ca 3b
       -0.04260408 0.012737304 -0.02958411 0.0061779246
0003f0 e8 9c 52 bd 00 21 67 bc 1c da 55 bd 18 9c 58 bd
       -0.05141917 -0.014106989 -0.05220996 -0.052883238

encoder.0.bias f4 [128]
000000 48 e6 43 bd 70 af 95 3b c8 73 ea bc 50 0f a4 bb
       -0.047827035 0.004568033 -0.028619662 -0.005006708
000010 f8 e0 1e bc f0 e1 6b 3d b8 93 82 bc f0 13 1e 3c
       -0.009697191 0.057588518 -0.015939578 0.009648308
000020 96 58 23 3d 10 1b 96 3c 22 3a 5b bd 00 44 79 b9
       0.039879404 0.018323451 -0.053522237 -0.00023771822
000030 ee 8b 2a bd d0 79 46 3c d4 35 6d bd f0 59 49 bd
       -0.041637354 0.012114003 -0.057912663 -0.049158037
000040 a0 ff 4e bc 9e 09 3b 3d 14 fb 67 bd aa 2d 50 bd
       -0.012634188 0.04566347 -0.05663593 -0.0508248
000050 b0 b9 a5 bb 0c 1c 26 bd 84 ce 4a 3d 1c 89 2f bd
       -0.005057536 -0.04055409 0.049513355 -0.042855367
000060 ea fd 54 bd 80 7b da ba 3a 12 60 3d a0 16 8f bb
       -0.051999964 -0.0016668886 0.054704882 -0.004366711
000070 d0 59 99 3b 30 bf f7 bc bc a8 f8 bc ec dc b3 3c
       0.004679896 -0.030242532 -0.030353896 0.02195593
000080 e4 52 81 3c a0 23 3f 3c c8 30 1e 3c e0 8e 6b bd
       0.015786596 0.0116662085 0.009655185 -0.057509303
000090 26 e3 58 3d 68 a6 b4 3c 30 72 d6 bb a6 25 52 3d
       0.052951 0.022052005 -0.006544374 0.051305436
0000a0 26 0f 51 bd 52 c7 70 bd a4 b3 8a bc a2 cb 3a bd
       -0.051039837 -0.058783837 -0.016931362 -0.045604356
0000b0 be 3b 01 bd c8 e9 8e 3c 44 90 94 bc 70 4f 75 bd
       -0.031551115 0.01744546 -0.018135197 -0.05989021
0000c0 f4 b5 e5 bc ae 0e 57 3d bc c6 13 3d 60 16 12 bd
       -0.028040864 0.052504234 0.0360782 -0.03566587
0000d0 e8 7b 20 bc c4 ac 90 bc bc 05 de 3c 84 b2 d5 bc
       -0.009795167 -0.017660506 0.027102344 -0.0260861
0000e0 e2 0d 35 bd e6 db 0c 3d 94 37 6e bd ee 56 13 3d
       -0.044202693 0.0343894 -0.058158472 0.035971574
0000f0 14 8c 70 bd c6 0c 42 3d f8 f7 ea 3c c4 05 c8 bc
       -0.05872734 0.047375463 0.028682694 -0.024416812
000100 38 30 0d 3d 08 36 6c bd 40 e9 4b 3b a4 88 33 bd
       0.034469813 -0.057668716 0.003111437 -0.043831483
000110 14 8d c6 bc ec ea fa 3c 08 15 f0 3c 20 52 19 bd
       -0.024237193 0.030629598 0.029306903 -0.037431836
000120 04 61 f8 3c b0 b2 c4 3c c8 d3 4b 3d d0 62 98 3b
       0.030319698 0.024010986 0.049762517 0.0046504512
000130 96 97 7a 3d e0 5c f7 bb 90 2b 97 3c 00 d6 2a ba
       0.06117972 -0.0075489134 0.01845339 -0.0006516874
000140 f0 b6 bc bc 80 87 36 ba f8 2e 79 3c 8c 60 a6 bc
       -0.02303645 -0.000696294 0.015208952 -0.020309709
000150 b0 ce 41 bd 76 17 73 3d 24 cd 0c bd 8e bd 56 bd
       -0.047316253 0.059348546 -0.034375325 -0.052426867
000160 92 95 0e bd 44 b1 26 bd 8c d6 5f bd 88 f3 59 3d
       -0.03481061 -0.040696397 -0.054647967 0.053210765
000170 78 bb 65 3d e0 7d e9 3c 2c d2 a2 bc b8 e3 9d 3c
       0.056086987 0.028502405 -0.019875608 0.019273624
000180 24 d0 6f 3d c0 a3 c3 bc 00 40 77 37 5c f3 a1 3c
       0.058548108 -0.023881793 1.4737248e-05 0.019769363
000190 0a 96 4a 3d 04 6f 79 bd 98 a7 85 bc 38 a6 43 bd
       0.049459495 -0.06089689 -0.016315266 -0.04776594
0001a0 9c 83 54 bd 84 89 95 3c ba 77 78 3d 06 d4 2c bd
       -0.051883325 0.01825405 0.060661055 -0.04219439
0001b0 7a c1 2e 3d 6e 19 52 bd 3a ec 23 bd 0c 04 12 bd
       0.042664982 -0.051293783 -0.040020205 -0.03564839
0001c0 4c 74 92 3c a0 4e 0b bd bc 4f f7 3c 40 56 fd 3a
       0.01787772 -0.03401053 0.030189388 0.0019328073
0001d0 30 76 0a bc 2a ad 67 3d 70 47 3a 3d e2 2b 0b bd
       -0.00845103 0.056561626 0.045478284 -0.033977397
0001e0 7c 5d eb 3c 00 93 d7 3a d4 35 67 3d 0a ab 24 bd
       0.0287311 0.0016447008 0.05644782 -0.040202178
0001f0 36 ca 58 3d 7c 27 ee bc 20 86 82 bb 46 7e 14 3d
       0.05292722 -0.029071562 -0.003983274 0.036253236
