checkpoints/rnd/seed2/final.pt (torch, 798559 bytes, 15 tensors)

fc1.weight f4 [256, 256]
00000000: bbef 97bd 4fcd 96bd 7a2a 253d 3239 5d3c
00000010: afd3 42bd 4a6f dfbc f410 813d ccbe 08bc
00000020: 99cc a63d 0df2 833d 5743 313d 7bb7 d43a
00000030: 3d0f 823d 9ad2 6bbd 2e93 333d 0347 00bc
00000040: 402a 363c 4a31 9c3b 67a9 88bc 4262 043d
00000050: 2049 ff3b dd07 9b3c 8d6e 3cbd bbc2 543d
00000060: 8210 533d 2779 653c a1a4 5b3d a99f 7c3d
00000070: 8a04 32bc f738 4e3c 9957 dfba 9d76 3bbd
00000080: 523e 5fbd 7443 37bd 3334 be3c b70d d8bc
00000090: 58ee e4bc 0d0e bb3b 2f52 8dbd 97be 62bd
000000a0: 3747 223b 085b 66bd 2c8a 27bc 7be7 0cbd
000000b0: 9445 833d a91e 1ebd 0d4f 4b3c 5e84 663d
000000c0: 763e 29bc 5b1b e0bb c954 69bc 863e 4abd
000000d0: fc6d 493d 287c b3bb c8be bbb9 58dc 113d
000000e0: 2733 febc 1829 c6bc 8778 e4bc 37b8 8fbd
000000f0: 58ad 72bd cd85 20bd e40a 003d 109f b8bc
00000100: cfcb 6abd a40f 8ebb 4b6c 4d3c 731f 973c
00000110: 1d35 d23b c545 c93c cbbc 853d 84bf 27bd
00000120: e840 4fbd e6ed 46bc f5ed f23c 0e7b 4abd
00000130: 1e62 623d 6d9b e83c 1c0b 5bbd 3c77 623d
00000140: 1f6e b8bc 648a 6e3d e2f7 3bbd 42cb 273d
00000150: 6feb 893c 7fc9 15bc e5c9 f3bc 53cc 713c
00000160: 9334 dc39 feaa af3b a5ac 65bc 922e 693d
00000170: 2e87 4abc ebe9 deba 5116 a33c ea4b f9bc
00000180: 5980 ebbc 4132 be3c 240f 2dbd 3f23 6abb
00000190: 2625 89bb daf7 5e3d c6e3 733d 78b0 4c3d
000001a0: ffa0 bdbc 7d21 b7bc 2c45 51bd 90ec 3dbd
000001b0: c6f3 56bc 4ec9 49bd ce82 2d3d 02c1 5cbd
000001c0: 2504 aabc 7306 843c d3cb d93c ea9f 133d
000001d0: 1331 99bc 946b dbbb 2961 e6bc 0ca2 463c
000001e0: a5ac f2bc d3ef ffbc ae6a ee3b e0a6 35bd
000001f0: 97b5 fcbc f959 b63c 016f 103d 5afb 01bd
00000200: 714c cd3c eab0 343a 780e 15bd 15a5 15bd
00000210: eacc 8b3c 74d2 12bd 44bd b43c 4297 483d
00000220: 6436 80bd a606 c03c 12a6 1d3c fc6f 8dbc
00000230: 5e07 f1bc 4e7e 163d 4a19 0e3c 45a4 aebc
00000240: 23e6 133d 2aa5 24bc 2abf 8bbd 66c4 53bd
00000250: 1c5a 33bd 0644 1e3d 8ac3 333d 04ad 113d
00000260: 19ae edba acd5 12bd 5107 283d 1db4 8bbd
00000270: 19b5 093b 4e2d 79bd 7d72 bbbc a531 ae3c
00000280: fbe8 e23c 8276 9abc eaa8 953c ad0d 6abc
00000290: 828f ed3c 2c50 41bd 465e 493d 006e d0bc
000002a0: 905a 78bd 3141 2cbd 4df7 01bc 7e8a 983b
000002b0: 9d86 123d b9be d4bc e0d8 433d a603 203c
000002c0: b33c 68bc f823 8bbd 186d 12bc 505b e63c
000002d0: cc5a c6bc 6860 f3bc 71a1 4dbd 8802 52bd
000002e0: 559f bf3c 191f 44bd b71a 393d ca1a 1ebd
000002f0: a57f e7bc dab3 0c3d a002 db3a 6cde 31bd
00000300: 970c fd3c fece 3b3d fabb 1b3d 880d 693d
00000310: 6cf2 6bbd 2514 e13b 1828 3cbd f0a3 533c
00000320: 2052 4abd e819 083d feea 5d3d 00b6 3c3b
00000330: dfda 353d b0fb a93c 9004 49bc 8031 7a3c
00000340: deaa 823c d2c4 553d 0a76 22bd b031 65bc
00000350: 2ce3 81bc 9ef6 6abd 2d5e 853c c23a 62bd
00000360: 4445 3e3d baa8 803c 4c26 04bd 32d2 453c
00000370: cc00 3d3d 2dcf b4bc 400d febc f449 cdbc
00000380: e837 19bc 0866 203d 585d 1c3d 80d4 be3a
00000390: 00ed 143c c000 20bc 401c 69bd 18b7 b03c
000003a0: fc5c 2d3d 7448 ed3c e751 303c 8016 533b
000003b0: 8af5 3abd 00b2 833c e2d1 17bd 30d0 8fbc
000003c0: 00a3 2e3c fdb9 7f3d 3e17 3fbd 40ca a5bb
000003d0: 04ca a7bc 024a 2dbd 1786 023d 5891 5a3d
000003e0: 8136 133d 8045 823a 0099 36ba 9f28 18bd
000003f0: 0c38 a5bc c422 1abd 30cf acbc 7084 26bd
-0.07418772 -0.07363378 0.040323712 0.013502406 -0.04756516 -0.027274746 0.06302062 -0.008346271
0.08144493 0.06442652 0.04327711 0.0016228998 0.06350563 -0.057573892 0.043841533 -0.0078294305
0.011118472 0.004766618 -0.01668234 0.03232027 0.0077906996 0.018924648 -0.046003867 0.051943522
0.051529415 0.014005936 0.0536238 0.0616757 -0.01086534 0.012586824 -0.0017039656 -0.045767415
-0.054502793 -0.044742063 0.02321825 -0.026373727 -0.027945682 0.005708462 -0.06900441 -0.055357542
0.0024761686 -0.056239158 -0.010225814 -0.034400444 0.06409755 -0.03860346 0.012408984 0.05627858
-0.010329833 -0.0068391985 -0.014241406 -0.049376033 0.049177155 -0.005477447 -0.00035809563 0.035610527
-0.03103025 -0.024189517 -0.027889503 -0.07017558 -0.059247345 -0.039190102 0.031260386 -0.022536784
-0.057323273 -0.0043353606 0.012538026 0.018447613 0.006415023 0.024569402 0.0653015 -0.040954128
-0.05059901 -0.01214168 0.029654482 -0.04943376 0.055269353 0.028394425 -0.05347739 0.055289492
-0.022513447 0.05823745 -0.045890696 0.040965326 0.016835896 -0.009142279 -0.029759357 0.014758187
0.0004200084 0.00536096 -0.014018212 0.05692918 -0.012361331 -0.0017006969 0.019908102 -0.030431706
-0.028747724 0.023217322 -0.042250767 -0.0035726575 -0.0041853366 0.05443559 0.059543394 0.04997298
-0.023148058 -0.022354836 -0.051091358 -0.04636818 -0.013119644 -0.049264245 0.042361073 -0.053895004
-0.02075393 0.016116356 0.026586449 0.036041178 -0.018700158 -0.006696174 -0.028122501 0.012123596
-0.029623339 -0.031242287 0.007275901 -0.044348598 -0.030848308 0.0222597 0.03526211 -0.03173385
0.025060864 0.00068928173 -0.03639075 -0.036534388 0.017065484 -0.035845235 0.022062905 0.048972376
-0.06260374 0.02344067 0.009622114 -0.017265312 -0.029422458 0.036741547 0.008673022 -0.021318564
0.036108147 -0.010049144 -0.06823571 -0.051700972 -0.043787107 0.03863909 0.043887652 0.03556539
-0.001813355 -0.035848305 0.041022602 -0.06821463 0.0021012484 -0.06083422 -0.02288174 0.021263907
0.027698984 -0.018855337 0.018269021 -0.014285487 0.028999094 -0.0471956 0.04916217 -0.025443077
-0.060633242 -0.04205436 -0.007932496 0.0046551814 0.03577291 -0.02596985 0.04781425 0.009766495
-0.014174628 -0.0679397 -0.008937143 0.028119713 -0.024213217 -0.029709056 -0.05020279 -0.051271945
0.023391405 -0.04788122 0.045191493 -0.038599767 -0.028259108 0.034351207 0.0016709156 -0.04342501
0.030889792 0.0458517 0.038021065 0.05689767 -0.05760424 0.0068688565 -0.045936674 0.012917504
-0.049394727 0.03322783 0.054179184 0.0028795004 0.044398185 0.020749897 -0.012269154 0.015270591
0.015950616 0.052189656 -0.039663352 -0.013988897 -0.015855394 -0.0573641 0.016280258 -0.055231817
0.046452776 0.015705455 -0.032263085 0.01207404 0.046143338 -0.022071445 -0.031012177 -0.025059678
-0.009351708 0.039159805 0.038174957 0.001455918 0.009089708 -0.009765804 -0.056911707 0.02157168
0.042325005 0.028965212 0.010761715 0.0032209456 -0.04564432 0.016076088 -0.037065394 -0.017555326
0.010658979 0.06243323 -0.046653025 -0.0050595105 -0.02048207 -0.042306907 0.03186616 0.053361267
0.03594065 0.0009938926 -0.0006965548 -0.037148114 -0.020168327 -0.03763081 -0.021094888 -0.040653646

fc1.bias f4 [256]
00000000: 2c61 c63c c96a 8f3c 81a1 15bc b0f3 fabc
00000010: 0b27 d43a 13c6 9f3c 0809 08bc b64c 793b
00000020: 9b8b 02bd 532d 4ebd ef9f c83b 066f 393d
00000030: 1946 5c3d 65ee 2dbd 4d2e 083c 5aa0 463d
00000040: 3b1d 9a3c 5dfd 5ebd fd68 77bd 45d2 4e3d
00000050: a13e cfbb b52d 32bd a2a0 1bbd ca0a 813b
00000060: 106b f43c f5bd 6bbd 0aff 063d 06de 313d
00000070: 0f2e 82bc cc51 eb3c 9f26 93bc 52c1 46bd
00000080: 9fd6 803d 2764 dd3c fe2c 71bd 6933 b9bc
00000090: caa3 85bc 2be6 babb 094f b33c 3a5e 643b
000000a0: f814 3c3d 5cf1 56bd b69e 823d 609a a2bc
000000b0: 7792 e33c dc02 2bbd 2060 61bd f0eb f6bc
000000c0: f642 883d b0a9 38bc 5ea1 b23b 2bcd 7a3d
000000d0: 0204 8fbc f40b 2dbd 58e1 9ebc 1676 be3c
000000e0: d009 083d ded1 453b 447c eabc 2c71 553d
000000f0: 9c03 743d a369 2c3d 6164 2ebd a221 583d
00000100: 7e0c 963a e1fb 83bd a057 b43c 9bca c03c
00000110: 0d7e e63b a7ae 82bd fc30 d33c ea76 7bbd
00000120: 03e7 52bd e06a bfbc 2f7e 33bd 9a02 563d
00000130: ff95 523d 424e 51bd edcd 63bd 359a 22bd
00000140: 64ca d23c 8188 9f3b ebf6 c03c 185b 783d
00000150: 8cb9 0e3d 804e 09bd 3081 6bbd cdb0 32bd
00000160: 675a 223d 432b 303d e6d5 47bd 5e4d 70bd
00000170: 9e83 6b3c 121e 19bb 94f1 bf3c 414d 45bc
00000180: 9b30 783c fe83 b23c 0c76 1fbd 204b 91bc
00000190: 1ee0 85bd 80c8 03bc eada 6cbd bc5f ffbc
000001a0: d779 fdb9 8edf e53c 6b13 32bd 72e0 46bd
000001b0: cf2e 0d3d 9b41 43bd 6088 c33c 0857 373a
000001c0: a0ba bbbc 195d 70bc ff9e 4b3d 6641 2a3d
000001d0: d21c 60bd 4860 d4bc 1923 7e3d 00a4 293d
000001e0: 6769 3ebd 06d2 fc3c ad5d 4bbd 99fc 0ebd
000001f0: 50aa f03c 0942 50bd dd09 2c3d 6f84 83bd
00000200: ca89 50bd 9e79 6cbc 9c4b 60bd 325b 83bd
00000210: eec6 573d ac67 683d 7745 073c 8e07 5bbd
00000220: 49be 55bc ac81 233d 6890 4fbc 960f 2ebd
00000230: d0b5 88bb c283 73bd 5095 553d 1491 52bc
00000240: 0d5e 1abd da98 0d3d 4225 7bbd 8054 6cbd
00000250: 7217 d63c 8142 d43c b2cb afbc 00d0 5d3c
00000260: 5d2f fdbc 62d6 55bd 5b30 d9bc 7989 643c
00000270: 9a90 bdbc 099c 25bd 62ac 6cbd a8c7 193d
00000280: f7a5 eeba 291c e9bb 2a77 703d 562a 9f3c
00000290: cb1a 4fbd 5e4a 873d 0950 733c 5e6b 2e3d
000002a0: da4e 3f3d 7b14 073c 905a bdbc b7be df3c
000002b0: d586 513d c697 0bbd fee2 a83c 8d8d 443d
000002c0: e3f6 993b 28b5 43bc 96d8 2dbd 0226 e23c
000002d0: 9b0e 37bd 9925 423d 1439 c2bc b34b 06bd
000002e0: 2065 08bd 56d1 87bd 9b28 71bd 97c5 923c
000002f0: e287 4f3d b43e eabb c6ea 093d 1799 ab3b
00000300: 9d5d 0e3d 58a5 cbbc 2140 0cba 4ca6 823d
00000310: 1e04 093d dc83 96ba 709b 2b3d 357c 633d
00000320: 1c11 dd3c 30e5 f93c 962c 6d3d 36d0 81bb
00000330: 7028 963c ae9b 29bc 4e76 db3b ed9a 45bc
00000340: 083b 683b 9ead 373d da0d 03bd bf11 213d
00000350: f044 493c df84 3dbd 369e 73bd 91ee 1c3d
00000360: f4ae a3bc 2776 2e3d b12b 5e3d cd76 703d
00000370: bc40 cdbc 4ea6 303d 53f7 55bd 0004 453b
00000380: f182 10bd b86e 583d 1b21 2abd 0a00 2bbd
00000390: cba5 f8b9 9e01 bb3c 2c02 e8bc d50e 30bc
000003a0: 9b34 303d 7b25 31bc 3e82 72bc b90e a63c
000003b0: 7bf1 b9bc 75a5 d1bc 54f0 273d b5b2 b13c
000003c0: a5b0 783b dff0 5a3d ad0d 45bd 7acf bcbc
000003d0: 0076 a5bc eb52 0fbd 08b5 29bc 75d7 a63b
000003e0: 74cf 40bd 0b95 783d 295e 723d 4394 05bd
000003f0: 2830 33bd dc77 bc3c de2a 76bd 9837 4ebd
0.024216257 0.017506974 -0.009132744 -0.030633777 0.0016185952 0.019503629 -0.0083029345 0.0038040108
-0.03187142 -0.050336193 0.006122581 0.045271896 0.053777788 -0.04246368 0.00831182 0.048492767
0.018812766 -0.054440845 -0.06040286 0.050493497 -0.0063246046 -0.04350062 -0.03799499 0.0039380537
0.029836208 -0.057554204 0.032958068 0.04342463 -0.015891103 0.028725527 -0.017962752 -0.04852421
0.06290936 0.027025295 -0.0588808 -0.022607522 -0.016313452 -0.0057037077 0.021888273 0.0034846202
0.045918435 -0.052476272 0.06377928 -0.019849002 0.0277798 -0.041750774 -0.055023313 -0.0301418
0.06653397 -0.011270925 0.0054513654 0.06123082 -0.017457966 -0.042247728 -0.019394562 0.023249667
0.033212483 0.0030184905 -0.028623708 0.052109882 0.059573755 0.04209293 -0.042576198 0.05276645
0.0011447815 -0.064445265 0.02201444 0.02353411 0.0070340694 -0.063809685 0.025780194 -0.061392702
-0.05148984 -0.023366392 -0.04382151 0.052248575 0.05141258 -0.051100023 -0.055616308 -0.039697845
0.025731273 0.0048685675 0.02355524 0.06063375 0.03484492 -0.03352213 -0.05749625 -0.04362564
0.039636996 0.043010008 -0.048787974 -0.058667533 0.014374642 -0.002336387 0.023430623 -0.012042345
0.015148307 0.021791454 -0.038930938 -0.017736018 -0.065368876 -0.008043408 -0.05782596 -0.03117358
-0.00048346698 0.0280607 -0.04347555 -0.04855389 0.03446847 -0.047669988 0.02386874 0.00069938647
-0.022916138 -0.014670634 0.049712177 0.041566275 -0.054714985 -0.025924817 0.06204519 0.04141617
-0.04648724 0.030861866 -0.049649883 -0.034908865 0.029378086 -0.050844226 0.042001594 -0.06421744
-0.050912656 -0.014433293 -0.054759607 -0.064138785 0.05267995 0.056739494 0.008256308 -0.053474
-0.013045856 0.039918587 -0.0126687065 -0.042495333 -0.0041720644 -0.059451826 0.05214435 -0.012851972
-0.03768735 0.0345696 -0.06131483 -0.057697773 0.026134226 0.025910618 -0.021459434 0.013538361
-0.030906374 -0.052206405 -0.026512315 0.013948792 -0.02314024 -0.04043201 -0.057781585 0.037543923
-0.001820742 -0.0071139527 0.058707394 0.019429367 -0.05056266 0.06605981 0.014850625 0.042582862
0.046706058 0.008244629 -0.023114473 0.02731262 0.051153976 -0.03408029 0.02061605 0.047986556
0.0046986206 -0.0119450465 -0.04244288 0.027606014 -0.044691663 0.047399137 -0.023708858 -0.032787036
-0.033299565 -0.066317245 -0.058876615 0.017916484 0.050666697 -0.007148588 0.033671163 0.0052367556
0.034757245 -0.024859115 -0.0005350132 0.06379375 0.033451192 -0.0011483389 0.041896284 0.055538375
0.026985697 0.030504793 0.05790385 -0.0039615883 0.018329829 -0.010352058 0.0066974526 -0.012060863
0.0035435576 0.04484331 -0.03199563 0.039323565 0.012284502 -0.046269294 -0.059477054 0.038313452
-0.019980885 0.042593148 0.054240886 0.058707047 -0.025055282 0.04312735 -0.05223782 0.0030062199
-0.035281125 0.052839965 -0.041535478 -0.041748084 -0.00047425771 0.02282792 -0.028321348 -0.010745724
0.04301892 -0.010812159 -0.01480156 0.020270692 -0.022698155 -0.025591591 0.04100068 0.02169166
0.0037947085 0.05345237 -0.048108745 -0.023048151 -0.020197868 -0.034991186 -0.010358103 0.0050916024
-0.047072843 0.060689013 0.05917183 -0.032612097 -0.043747097 0.023006372 -0.060099475 -0.050345987

fc2.weight f4 [128, 256]
00000000: 68a5 5bbd bc68 963c b023 253c b074 79bd
00000010: d042 81bc 860c 163d 5478 a2bc ba25 233d
00000020: 742e 2f3d e869 2e3c 0059 dbbc fc5a 283d
00000030: 4040 453b b648 4d3d 40cc 41bb b49e 9abc
00000040: 7424 46bd 8c03 203d e040 1fbb 06cb 66bd
00000050: 9230 483d 10a0 12bd 2847 bc3c a04f 68bb
00000060: 6060 fb3c 5cfc bcbc 44f6 9d3c 4275 3b3d
00000070: 60a2 1cbc c85c 613c 2a6c 2b3d 7ca0 9cbc
00000080: 20aa b2bb 8ac6 7bbd 3480 84bc a2d6 613d
00000090: b80c 0a3d f000 abbc dc0e dabc e436 213d
000000a0: 9812 debc d01d 343d d076 7ebd acd0 2fbd
000000b0: 68ac 45bd f872 25bd 8e46 6fbd 48bc 47bd
000000c0: 789d 203c 8031 b7ba 4c3b 24bd 0004 0dbb
000000d0: 4293 4b3d 0a70 433d 205f 123b f65c 033d
000000e0: a04b e23c dc71 6a3d 4482 f7bc b61d 77bd
000000f0: 38eb cbbc f2a2 483d 2440 e9bc 4493 d63c
00000100: 50c2 3e3d dc07 6c3d 3259 253d 90f2 8b3b
00000110: a0d9 ccbc 94af 0a3d 38b0 75bc a442 0bbd
00000120: 4867 323c f8db f23c 1889 43bc 0013 7ebb
00000130: 5056 2dbd fcea d23c 1050 623c 2c4b 443d
00000140: 9c73 10bd 0098 a83a 948e ddbc b04c a4bb
00000150: b4d9 613d 24df e73c 007d 403d b85a 313c
00000160: b071 37bd 50a7 d23b d0e3 f73c 4892 653c
00000170: 5084 a23c c4aa aabc 8832 853c e240 44bd
00000180: 56c1 6a3d 78b1 50bc 720f 6bbd 76a2 46bd
00000190: 2ac2 4cbd 94c0 c5bc a480 103d b202 6c3d
000001a0: 1e19 673d 0ab9 283d 8057 72bd a0a3 df3b
000001b0: 0029 353a f02d 293c 3cf7 ab3c d028 253d
000001c0: a076 b73b 8e5a 67bd 4c39 6cbd 8222 4bbd
000001d0: 3a47 26bd 30c5 343d 0a9f 07bd ac31 dabc
000001e0: cecd 6dbd 18a8 3bbc 3869 2a3d fefd 773d
000001f0: dc57 603d 080d 293d 0079 783c 5445 ae3c
00000200: daff 64bd e803 3bbd 68bd 013d d868 7a3d
00000210: ca9b 68bd 8096 9cbc 7836 45bd 3078 e43c
00000220: 38e3 3b3c 90bd d4bc a269 35bd 809b 333b
00000230: 641d 9ebc fcdd 15bd 841d f53c 707c 87bb
00000240: 7c1d 7b3d 4c68 49bd 8eee 373d 44c8 8f3c
00000250: e27a 7fbd 5cac c5bc 9850 2f3d 40d0 b9bb
00000260: b66e 29bd 5221 14bd 8411 66bd 88f7 c3bc
00000270: 08e3 25bc 12fe 173d a89e 483d da53 75bd
00000280: 4007 db3a 8ce1 d63c 3602 25bd eaa1 4ebd
00000290: c278 4bbd 6ad8 63bd a096 7cbc 80b9 81bb
000002a0: 483f 7a3c 543c 67bd 3081 c13b 8072 8b3c
000002b0: 5200 1f3d 189a 48bd 203f 843c ac07 f2bc
000002c0: 460c 66bd 68f0 27bc 92a7 3abd 2e50 793d
000002d0: 7888 4cbd f04f b7bc c0bc fabc 6e71 52bd
000002e0: bea2 0a3d 986d 66bd bc82 a13c 56cc 40bd
000002f0: c458 a83c 7472 9ebc 3081 bbbb e0be 7c3b
00000300: 8051 7fbb 54c7 333d 8085 4dbc d82d 20bd
00000310: f052 5a3c 90aa fabc b0a5 2d3d f8e0 5f3c
00000320: 244e a83c 5409 f6bc fc6c dfbc ecd6 fa3c
00000330: 2055 58bd 2ec4 4f3d a865 0dbc 20c9 893c
00000340: fcd0 a33c b6ce 083d 10ba 8c3b bcf0 b5bc
00000350: 14f1 e2bc f825 16bd 70df fcbc c01c 46bd
00000360: 60ec f13c b2b9 05bd 80c4 be3a 58f9 5abd
00000370: 94d8 79bd 00b9 a1bb 7089 ad3c 30d3 cbbb
00000380: 88fe 6d3d 2079 44bb e0cc 0a3c a0f2 f6bc
00000390: 860f 5b3d e05c 6dbc ac58 ff3c f871 14bc
000003a0: 548f c53c 3686 323d fa2f 11bd 006c 5e3c
000003b0: 0034 6f3c 1016 c83c 6420 73bd 38be 1e3d
000003c0: bace 35bd f8d6 ffbc 34d3 7ebd 808b 613d
000003d0: a0b1 9a3c e828 243c f45a 7bbd 601f 08bd
000003e0: 246b 01bd 70d9 253c 00f2 4a3d 4c95 113d
000003f0: 104b 32bc 3e79 433d 5ad4 3fbd 58ce 7b3c
-0.05362454 0.018360488 0.010079309 -0.060902297 -0.015778929 0.036633037 -0.019832768 0.0398309
0.04276891 0.010645367 -0.026775837 0.041102394 0.003009811 0.05011817 -0.0029571205 -0.018874504
-0.04837461 0.039065883 -0.0024300143 -0.056345962 0.048874445 -0.03579718 0.022983149 -0.003544785
0.030685604 -0.023069553 0.019282468 0.045766123 -0.009560198 0.013755031 0.0418512 -0.019119494
-0.0054524094 -0.06146864 -0.016174413 0.05513633 0.033703536 -0.02087447 -0.026618414 0.03935899
-0.027108476 0.043973744 -0.062125027 -0.042923614 -0.048260123 -0.040392846 -0.058416896 -0.048763543
0.0098031685 -0.0013976544 -0.040095612 -0.0021517277 0.049700983 0.04771427 0.002233453 0.032071076
0.027623951 0.05723749 -0.030213483 -0.06033107 -0.024892434 0.04898352 -0.028472967 0.026193269
0.04657203 0.057624683 0.040368266 0.004270859 -0.025006115 0.03385885 -0.014995627 -0.0339991
0.010888882 0.029645905 -0.011934541 -0.003876865 -0.042318642 0.025746815 0.013813034 0.047923252
-0.035266504 0.0012862682 -0.027045526 -0.0050140247 0.05513926 0.028304644 0.04699421 0.010824852
-0.044786155 0.0064286366 0.030259997 0.014011927 0.019838482 -0.02083338 0.016259447 -0.04791344
0.057313286 -0.012737624 -0.057387777 -0.04849478 -0.049989857 -0.02413968 0.03527893 0.057619758
0.056420438 0.041192092 -0.059165478 0.0068249255 0.00069107115 0.010325894 0.020991914 0.040322125
0.005598858 -0.056482844 -0.05767183 -0.049593456 -0.04059527 0.044133365 -0.033110656 -0.026635014
-0.0580576 -0.011453651 0.04160425 0.06054496 0.05477129 0.041272193 0.015165567 0.021273293
-0.05590806 -0.045658022 0.031674773 0.061135143 -0.056789197 -0.019114733 -0.04814765 0.027889341
0.011467747 -0.025969297 -0.044290192 0.0027405918 -0.019301124 -0.036588654 0.0299213 -0.004134707
0.061307415 -0.04917173 0.044905238 0.017551549 -0.06237305 -0.024130039 0.04280147 -0.0056705773
-0.041365348 -0.03616459 -0.056169048 -0.023921743 -0.010124929 0.037107535 0.04897943 -0.05989442
0.0016710535 0.026230596 -0.04028531 -0.050447382 -0.04967571 -0.05562631 -0.015416771 -0.003958881
0.0152738765 -0.056454018 0.005905293 0.017022371 0.038818665 -0.04897508 0.016143382 -0.029544674
-0.05616405 -0.010250188 -0.045569964 0.06086748 -0.049934834 -0.022376984 -0.030607581 -0.051377706
0.03384661 -0.05625686 0.01971566 -0.04706987 0.02055014 -0.019341685 -0.0057221875 0.0038565919
-0.003895849 0.043891266 -0.012544036 -0.03910622 0.013325438 -0.030598909 0.04239434 0.013664477
0.020545073 -0.030033745 -0.027273647 0.03062006 -0.052815557 0.0507242 -0.008630194 0.016819537
0.019997112 0.03340026 0.0042946413 -0.022209518 -0.027702846 -0.036657304 -0.030868262 -0.048367262
0.029531658 -0.032647796 0.0014554411 -0.05346045 -0.06099756 -0.004935384 0.0211837 -0.006220244
0.058104068 -0.0029979423 0.008471698 -0.03014499 0.0534816 -0.014487475 0.031170212 -0.009060375
0.024116196 0.043585025 -0.035446145 0.013575554 0.0145998 0.024424583 -0.059357062 0.038755625
-0.044386603 -0.031230435 -0.062213138 0.05506468 0.018883526 0.010019518 -0.061366037 -0.033233047
-0.031596318 0.010122642 0.049547195 0.03554277 -0.010882154 0.047723047 -0.046833374 0.01536902

fc2.bias f4 [128]
00000000: 30e0 f13b 2fb9 fabb dcc9 7c3a 871d 2f3c
00000010: 8192 123d 8e32 3dbc ac3a 5e3d c082 933c
00000020: 8ced 19bc 4b78 f33c 7812 59ba eb64 3b3d
00000030: fa62 893c 1533 453c a731 413d 85d5 b93c
00000040: 90aa 57bd 59f5 373d cfb6 1bbd 0c43 4cbd
00000050: 841a 0d3d 6939 7c3d c933 613c 89db 96bc
00000060: de72 47bd e0e5 7a3d ea18 d83c 6ce2 dd3b
00000070: 3467 733d 2b7d 88bb c585 313c f42d ddbb
00000080: 7b92 0e3d ad0e e93b e106 0b3d 4e1e be3b
00000090: e0f7 55bd ae39 04bb 55c1 113d 1cc4 c83c
000000a0: 1009 243c ff1a 37bd 00a5 22bb 85e2 4f3d
000000b0: 0442 0a3d f756 47bd 41dc bebc d237 f8bc
000000c0: 8c70 613d bcf0 90bc 2c0f 0c3d b2ae f6bc
000000d0: 46e1 53bd 9566 56bd 869e 1fbd 883e 493c
000000e0: 3779 773c 2ef4 7abd 371f 32bd c229 0e3d
000000f0: fdf7 03bd 03b2 893c 87c0 483d 8e77 b63c
00000100: 2814 b83c 0891 3fbd 744b 74bd 3cbf 083d
00000110: 1eba 1fbc b690 b9bc 7413 643c 6870 03bd
00000120: 7460 d03c b2d9 f1bc f85a 403d f884 5b3d
00000130: 7bdf 38bb cd9b 663c d363 eb3b c157 84bc
00000140: 13cc 4ebd 9cbe 91bc 066b 6e3c 51f6 693d
00000150: 1bb1 65bd 32be 7e3c fca0 e0bc 2d2b 0abc
00000160: 67ab 163d 60b0 62ba 9d62 10bc 5311 51bc
00000170: 8c1b 5ebd f98d 283d bf67 1a3c b10e c5bb
00000180: e8ac 52bd caff 1d3c 86bf 9ebc 9f8b 1e3c
00000190: 648a 8abc 34df 0e3d 4c11 8a3c a723 06bd
000001a0: a82d fdbb e444 c3bc 2c3a 7f3d 06bc 993c
000001b0: 038a 083d 50b6 17bc cb87 243d 49a8 143d
000001c0: 8378 b8bb 8c0f 44bc fb67 173d e25d 89bd
000001d0: c03f 393d d4c2 00bd 2622 89bc 0e04 7ebd
000001e0: ef7d 1b3d 44f6 7bbd 6518 0c3d f3d0 103d
000001f0: 4035 b23c a3ce 8e3c 150e a9bc 6dbb 0fbc
0.0073814616 -0.00765147 0.00096431165 0.010688192 0.03578425 -0.011547698 0.054255173 0.018006682
-0.0093950145 0.029720446 -0.0008280645 0.04575054 0.016770829 0.012036105 0.047166493 0.022684822
-0.052652895 0.044911716 -0.038016137 -0.04986863 0.034449115 0.061578188 0.013745257 -0.01841523
-0.04869353 0.061254382 0.026379067 0.0067713764 0.059424594 -0.004165312 0.010835116 -0.006749863
0.034807663 0.007112345 0.033942107 0.0058019524 -0.052238345 -0.0020175981 0.035584766 0.024507575
0.010011926 -0.04470348 -0.0024817586 0.050753135 0.033754364 -0.04866692 -0.023298385 -0.030300055
0.055038974 -0.017692916 0.034194157 -0.030112598 -0.05172851 -0.052343924 -0.03896954 0.012282975
0.015104583 -0.061268024 -0.0434868 0.034707792 -0.032218922 0.016808515 0.049011733 0.022273805
0.022470549 -0.046769172 -0.05964227 0.0333855 -0.009748964 -0.022652011 0.013920654 -0.03208962
0.025436617 -0.02952275 0.046961755 0.053593606 -0.0028209377 0.014075232 0.007183531 -0.016155126
-0.05048759 -0.017791085 0.014551884 0.05711967 -0.056077104 0.015548276 -0.027420513 -0.0084331455
0.036784556 -0.0008647498 -0.008812574 -0.012760478 -0.05422549 0.04115102 0.009424149 -0.0060137142
-0.051434427 0.009643504 -0.019378435 0.009676843 -0.016911693 0.03488083 0.01685395 -0.032748844
-0.00772639 -0.02383656 0.062311336 0.018766414 0.033334743 -0.009259775 0.040168565 0.0362933
-0.0056296005 -0.011966597 0.036964398 -0.0670736 0.045226812 -0.031435803 -0.016739916 -0.062015586
0.037961897 -0.061514154 0.034202952 0.03535552 0.021753907 0.017432516 -0.020636598 -0.008772713

actor.weight f4 [4, 128]
00000000: 6f82 b43d 5824 5fbd 2d28 883d 209c 9cbd
00000010: 3579 b03d 9ff3 77bb 8773 9cbd 57f6 aa3c
00000020: a735 10bd 22e3 0a3d 8577 d3bb cd5f 93bc
00000030: 7c51 41bc 9c16 46bc b6ba 89bd 7200 13bd
00000040: 639c e23c 24c0 3c3c c131 64bd baa7 35bd
00000050: bf37 543d a284 4c3d affe 9bbc be77 02bd
00000060: dde2 6d3d e83b 88bd dc74 863d 325e 663c
00000070: e793 b0bb 34d3 0a3d 497f ab3d 348f 433d
00000080: 778a 13bd 9d3d 16bd 6c3a b43d feef d9bc
00000090: 8c49 bdbb 2dff 82bd a784 dc3c e03e 9cbd
000000a0: dbfa b73c 6008 283c 3a4f 9e3c 4b3b a53d
000000b0: cfef 273d 9a04 b13d cf68 2cbd 245f 793d
000000c0: e812 99bd 6c74 303d 284d 8f3d db64 b4bd
000000d0: 9522 8dbd f90f 6cbd 510d 15bd 68fa fcbc
000000e0: 6c98 c5bb c1f2 90bd 62f8 0dbc 1c5e 5abd
000000f0: 8ccb d53c 20d6 c23c eac8 da3b 40e9 a3bd
00000100: 906f 993d 7b3e 9c3d ecf6 96bd 9fcb 0b3c
00000110: 7b62 c4bc fb7d febc 6a7c 8abc ec93 a03d
00000120: c54b a1bd 88dc 1f3d e7cd 1ebd a101 9ebd
00000130: 701b 733c 61c7 e63c db01 79ba 7a55 903d
00000140: 48be a2bd c48e 83bd 2fd6 bfbc b52a 0cbc
00000150: 4261 a7bd cab1 a4bd aa56 31bd f168 07bd
00000160: 41cf 02bd fe32 98bd 1404 52bd df45 88bd
00000170: f883 4f3d 6ec2 a3bb c766 1ebd e72f b9bc
00000180: fc9d 9e3c d18a a4bd feb5 aabd 2aab 353d
00000190: 4483 7f3b 3f14 5e3d ffdd 9b3d 9ae7 a1bd
000001a0: e13d 35bd f335 c8bc 7c68 753a 7ecc 89bd
000001b0: 7e7b 8f3d fe20 d63c ea11 b53d af43 0e3d
000001c0: 4932 61bc 1c84 533d 8bd1 a23c 61ab b1bd
000001d0: 2a36 49bd f37f e0bc 3b90 083c 92d0 f03c
000001e0: 9e54 8f3c d1dc 643d 6aa1 45bd 65c6 ff3c
000001f0: ec59 de3c f217 95bd 5c42 2fbd 58f8 bb3c
00000200: 0428 fd3c f42d d6bc 424c 82bd 73d8 7d3d
00000210: 558c 513d f7b3 33bd ccd7 0c3d 7784 a1bc
00000220: 8ee4 8fbb b53f d2ba 90c1 933d 6218 78bd
00000230: b659 463d 9c45 273d cb5d 4fbc 247f 03bd
00000240: 195a abbc 5959 75bd ffe7 063d 0eab 94bd
00000250: 51c8 6fbd 7c59 a9bd 2ef1 acbd 10f8 82bd
00000260: 1002 cb3c c067 2dbd ecab 48bd 60f5 853c
00000270: 5c85 a6bd 8dc5 b13d 0051 14bd 9a3a e63c
00000280: 5f67 a53d f265 973d 40c9 79bd 516d d1bb
00000290: 9250 fe3a 1aa8 aabc 1857 833c a8c5 a9bd
000002a0: 362e e6bc 8bcf 70bd 4ff4 2c3d 1d9e 78bd
000002b0: 524d ac3d b95f 9f3d be2f 0dbc e47e 72bb
000002c0: 1850 d7bc cb79 dc3c ae04 4bbd dde6 a53d
000002d0: a8d2 573d a5fb e6bc 551b a1bd 14f8 79bd
000002e0: 1d68 983d 0ef9 0bbd 282d 58bd 2036 ac3d
000002f0: 96e8 f4bc 4c77 36bc 5961 cc3b bd6a 98ba
00000300: d3da 7cbd 4dc4 a33c ed43 92bd 93a8 54bd
00000310: 3588 5abc 3ce1 9c3d bd89 8a3d bd06 2fbd
00000320: 8f22 c2bc 5323 393d 856b d0bc 3bc0 773d
00000330: bf40 9f3d 63c9 2abd 4a64 6cbd 4e1d 963d
00000340: 443c 94bd a89d 433d 0ac9 53bd e0c9 203c
00000350: 9e14 b83b e09c 65bd da4c b2bd 4c13 9fbd
00000360: 6fb5 b73d e16c b83b 924d 65bd 8fce a83d
00000370: 2bac a13d e676 a43d 4bdd 46bd 2a0b c43d
00000380: 7253 04bd 3115 773b fb2e a2bd a829 88bc
00000390: 45eb 7abd b065 d4bc be55 30bd 43c3 a03d
000003a0: bee0 39bd 5ebc b43d 4a06 bfbc cd4c 2cbd
000003b0: 7bc2 643d 116c 353d 33e9 503d 8784 64bc
000003c0: 9db0 753d 6076 053d 4f22 e83a 1250 18bd
000003d0: aaed 12bd 7e57 9e3d 5bf9 3e3c 20a2 34bd
000003e0: 9407 0ebc b9ac 283c 7ab6 5fbd fb04 003d
000003f0: f1bd 95bd 9251 62bd 7e90 7b3d 8ad1 693d
0.08813941 -0.05447802 0.06648288 -0.07646966 0.086168684 -0.0037834418 -0.076392226 0.020869417
-0.035207417 0.033908017 -0.006453457 -0.017990017 -0.011799213 -0.012090351 -0.067250654 -0.035889097
0.027662462 0.011520419 -0.05571151 -0.04434941 0.051810976 0.049931176 -0.019042341 -0.031852476
0.05807768 -0.06652051 0.06565258 0.014060544 -0.005388725 0.033892825 0.08373887 0.04774399
-0.036020722 -0.036679853 0.088002056 -0.026603695 -0.0057765897 -0.06396327 0.026918722 -0.0762918
0.022458484 0.010255903 0.019324888 0.0806795 0.041000184 0.08643456 -0.04209214 0.06088175
-0.07474309 0.04307978 0.06997138 -0.08808299 -0.068913616 -0.05763242 -0.036389653 -0.030881122
-0.006030133 -0.07077552 -0.008665176 -0.053312406 0.026098035 0.023783743 0.006676783 -0.08003473
0.07491982 0.07629105 -0.07371315 0.008532434 -0.02397274 -0.031065932 -0.016905028 0.07840714
-0.0787578 0.039028674 -0.038770583 -0.077151544 0.014838085 0.028171243 -0.00094988727 0.07047553
-0.079464495 -0.06423715 -0.02341756 -0.008555104 -0.08172847 -0.08041723 -0.04329554 -0.033059064
-0.031935934 -0.07431601 -0.05127342 -0.06653952 0.050662965 -0.004997543 -0.038672235 -0.02260585
0.019362442 -0.0803429 -0.083354935 0.044352688 0.0038988153 0.054218527 0.07610702 -0.079055026
-0.044248465 -0.024439787 0.00093615777 -0.06728457 0.07005976 0.026138779 0.088413075 0.034732517
-0.013744899 0.05163966 0.019875308 -0.08675266 -0.04912392 -0.027404761 0.0083351685 0.02939633
0.017496403 0.05587465 -0.04824964 0.031222532 0.027142487 -0.07279958 -0.042787895 0.022945568
0.03090287 -0.026144959 -0.06362201 0.061974 0.05115922 -0.0438728 0.034385487 -0.019716484
-0.0043912595 -0.0016040715 0.072146535 -0.06057013 0.0484254 0.04083787 -0.012656639 -0.032103673
-0.020916985 -0.05989966 0.032936092 -0.072591886 -0.058540646 -0.08269021 -0.08444439 -0.063949704
0.024781257 -0.04233527 -0.048992082 0.016352355 -0.08130905 0.08680258 -0.03621006 0.028104115
0.08076357 0.073924914 -0.060982943 -0.0063912054 0.0019402674 -0.02083211 0.01603274 -0.08289653
-0.028098207 -0.05879168 0.04222518 -0.060697664 0.08413185 0.077819295 -0.00861734 -0.0037001902
-0.026283309 0.026913544 -0.04956501 0.08100674 0.05269113 -0.028196165 -0.07866541 -0.0610276
0.07441733 -0.034173064 -0.05277744 0.08408761 -0.029896062 -0.011136841 0.0062371907 -0.001162849
-0.061732125 0.019991064 -0.07141862 -0.051918577 -0.013338138 0.076601475 0.06764553 -0.042731036
-0.02369812 0.045199703 -0.025441894 0.06048606 0.07776021 -0.041695964 -0.05771283 0.07329808
-0.07238057 0.047757775 -0.051705398 0.009813756 0.005617692 -0.05605781 -0.087060645 -0.077673525
0.089701526 0.0056282138 -0.05598218 0.08242523 0.078941666 0.080304906 -0.048550885 0.09572442
-0.032306142 0.003770184 -0.07919117 -0.016621426 -0.061259527 -0.025927395 -0.04305052 0.07849743
-0.045380346 0.08824991 -0.023318429 -0.04206543 0.055849534 0.044292513 0.051003646 -0.013947613
0.059982885 0.032583594 0.001771042 -0.037185736 -0.035871185 0.077315316 0.011656131 -0.044099927
-0.008668799 0.010295087 -0.054617383 0.03125475 -0.07311619 -0.055253573 0.061417095 0.057084598

actor.bias f4 [4]
00000000: 9578 243d 7f38 38bc 391b 413d 81cd 8fbb
0.04015406 -0.0112439385 0.047145102 -0.0043885116

critic.weight f4 [1, 128]
00000000: 3f02 88bc c00b b1bc 96d5 3e3d 3bdf 88bd
00000010: 41ee 163d cfa1 10bd d01c 8b3d 7af5 623d
00000020: b8d7 8abd 5702 adbd 48a8 96bd ab38 953d
00000030: 5f2e 6c3d e955 64bd 380b 0ebd 2dde 173d
00000040: 1005 973c a01e 8a3b 52e3 343d e743 c43c
00000050: c280 923d f9d4 483d 1f68 bb3d 467a 49bd
00000060: b6ca 553b d2e5 fc3c 549e 963d e7c5 75bd
00000070: 65de 7b3d 98aa e53c 92dd 153c c6cb f13c
00000080: fbb2 3c3d 73b6 bf3c 77a4 953d 1304 31bd
00000090: 281f fc3b f2d8 5b3c 2240 7abd be65 7dbd
000000a0: bf75 4cbd c6ae dd3b e5fc f1bc 1d7d b1bc
000000b0: 572f a63d 54aa 993d 7247 24bd 07ce 2f3c
000000c0: 731c 93bd 7640 55bd 6dc3 ab3d 8966 92bc
000000d0: f6d5 ed3c 98ef 79bd 2ca4 7c3d af2b 9c3d
000000e0: 8261 f73c 9ab0 86bc 6c4d 713d b663 a3bc
000000f0: 2f7f 773d 8d1c 07bd dee4 363d bfa0 aabd
00000100: 9511 723c efd8 82bc 136a cbba e194 41bc
00000110: 2d0f a1bc 4079 9dbd f8ef b53d 22e9 af3c
00000120: 8396 85b9 8831 8bbd 1351 0f3a 016f 48bd
00000130: ce77 413d 9dce bf3d 97f7 0fbd 0a01 67bd
00000140: 6257 52bd 4d3c 2f3d 6429 363d cbf3 c43c
00000150: bb35 91bd d102 b73d f95c 763d 9d7c 0b3d
00000160: 68c7 b13d a820 9f3d 9e75 44bd d5c8 f73c
00000170: fc9f 7c3b fe5f 813d 1f12 4ebd 61ad 303c
00000180: 9154 aa3d 9fca 853d 04fe 4c3a e884 8e3d
00000190: 99e5 eabc 50bc 943a 1a84 433d 3c34 60bd
000001a0: 8f21 15bd cb70 f23b af18 a33d 411a 5e3d
000001b0: b720 8f3b fd35 a03d 3140 a93b 9ba8 b33d
000001c0: e40a aabd aa34 ecbc b896 08bd fae7 9dbd
000001d0: c70d a4bb 1461 ffba fd22 77bd af0c 57bd
000001e0: 2f51 923d 36f9 4abd 3966 6dbd 9d05 35bd
000001f0: 7dc8 663d c0e4 9c3c ad98 0dbb d354 a53c
-0.016602634 -0.021612048 0.04659041 -0.06683203 0.03684831 -0.035310563 0.06792605 0.055409886
-0.06779426 -0.08447712 -0.07356316 0.07286199 0.05766141 -0.055745993 -0.034678668 0.037077118
0.018435031 0.0042150766 0.044162102 0.02395816 0.07153465 0.04903123 0.09150719 -0.049188875
0.0032622046 0.030871306 0.073544174 -0.060003188 0.06149139 0.028035447 0.009147065 0.029516112
0.046069127 0.023402428 0.0730676 -0.043216776 0.007694144 0.013418423 -0.061096318 -0.061864607
-0.04991698 0.0067652194 -0.029539535 -0.021666104 0.08114498 0.07503191 -0.040107198 0.010730273
-0.07183161 -0.052063428 0.08386884 -0.017871158 0.029032689 -0.06101951 0.061680004 0.076255195
0.030197863 -0.016441632 0.058911726 -0.019945007 0.060424026 -0.032986213 0.04465186 -0.08331441
0.0147747 -0.015972583 -0.0015519283 -0.011815281 -0.019660557 -0.07689142 0.08883661 0.021473471
-0.00025479877 -0.06796557 0.0005467098 -0.048933987 0.047233395 0.0936558 -0.03514823 -0.056397475
-0.051352866 0.042782117 0.044473067 0.02404203 -0.070903264 0.08936084 0.06014726 0.034054387
0.08680612 0.077699006 -0.04796373 0.030247131 0.0038547507 0.06317137 -0.05031025 0.010783524
0.08316911 0.065327875 0.00078198337 0.069589436 -0.028673934 0.0011347625 0.047733404 -0.054737315
-0.036408957 0.0073987 0.079636924 0.054224256 0.0043679136 0.078227974 0.005165123 0.08772393
-0.083028585 -0.028833706 -0.03334686 -0.07710262 -0.005006525 -0.0019483888 -0.0603361 -0.05250233
0.07144391 -0.049554072 -0.057958815 -0.044194806 0.056343544 0.019152045 -0.0021605894 0.020182049

target.0.weight f4 [128, 256]
00000000: 6084 85bc 104c 613c 501b 143c 98ef d63c
00000010: 0493 7d3d 0e5b 34bd 06df 5ebd c4b1 9d3c
00000020: cec8 7abd e4aa 653d 00b0 06ba eca0 b1bc
00000030: 9ec0 573d f0a4 f4bb 449b 6dbd 58b1 a9bc
00000040: f8af 713c e4fc dc3c 30b6 b8bc 34f1 fdbc
00000050: 9e24 043d 90e9 1d3c 7884 40bc 2cc1 f13c
00000060: 124a 1cbd e453 fcbc bed1 1fbd a291 7d3d
00000070: d6c5 6c3d 6425 5a3d c84d 133c 1e67 30bd
00000080: ae70 2ebd 50a7 4a3c c8e8 143c f449 003d
00000090: 6620 373d d807 b93c aa89 383d 2839 7d3d
000000a0: b4d0 133d acc3 173d 8629 71bd e412 ce3c
000000b0: 56bc 1fbd 1042 5a3d 00a0 ad3a 3075 643d
000000c0: 4098 703d 8e9e 253d 9cb7 5c3d 306e 9e3b
000000d0: b8db 2d3d 68e1 65bd f060 5fbd 0c65 a7bc
000000e0: 9040 393c b208 1cbd 4259 6e3d a87c 643c
000000f0: 86cc 23bd fe09 073d 0c2c b53c 784a 2bbc
00000100: 367e 353d b863 913c 4849 663d dc6a ef3c
00000110: a899 88bc 0098 5fbb 1895 0bbd ac9f 4abd
00000120: 7060 46bc 96b1 10bd 80ec 22bc b42c 7abd
00000130: 941f 19bd 8ef3 37bd f867 b43c c48c c73c
00000140: 9a3c 103d e67a 3f3d 887c 65bd 2a3a 50bd
00000150: d8dc eb3c d8b7 003d 16a1 273d 80bf 863c
00000160: 30be 213d e831 643d e0b2 4abd ee4b 2e3d
00000170: 54cc 3c3d 2e0c 21bd 502e 63bc a467 9e3c
00000180: 8e1b 6cbd d256 453d 4ac7 46bd 50de 633d
00000190: cc3a 4d3d 1c80 ef3c 749e 1d3d d473 93bc
000001a0: 7890 eb3c 22f8 3ebd 249d 903c 006e e9bc
000001b0: 9c2c 683d c84f 71bd 3622 3f3d d079 cb3b
000001c0: 78f3 d93c 68a8 ad3c 8c35 a93c e051 9e3c
000001d0: 54c9 e4bc d40a 8e3c c8ff aebc 2457 0f3d
000001e0: b04d 273d 24f6 1cbd 7010 c03b 50a3 643c
000001f0: e8d4 5a3c 5096 1d3c 5468 e4bc 54f2 53bd
00000200: 40c5 8eba 74c9 83bc 7054 f23c be21 653d
00000210: d669 413d 2aac 0c3d a095 4fbb 485c 4a3c
00000220: 000e 13b9 2496 1dbd 942b 153d cc4b cfbc
00000230: ac3e 6cbd 1845 30bc 0407 52bd f0a3 edbc
00000240: 5297 7bbd d617 7cbd 6a7e 7bbd e062 9a3b
00000250: 7055 5cbd 0873 c13c 307f 053d be22 5ebd
00000260: 08d3 73bd 44cc 9f3c f836 0ebc a05e 4c3d
00000270: a447 173d b8da e0bc b836 473d 8ec8 2c3d
00000280: 7020 35bd a858 70bc fc9e b63c 2c4d e8bc
00000290: e046 68bc 204a 62bc f8a4 00bc b857 62bd
000002a0: b4e4 f53c 801f 513c 42b5 463d 6a29 40bd
000002b0: 18d9 0e3c 8614 6ebd 1abb 2b3d 983c 83bc
000002c0: 4687 603d 52cf 27bd ac90 a0bc f403 07bd
000002d0: 407f a83c b0d1 c2bc 467b 03bd 1883 9fbc
000002e0: 90eb d83b b03e 0abd a005 3bbd 60d8 f83c
000002f0: 0260 623d b208 43bd 9e39 7b3d 6cd9 66bd
00000300: 520c 2e3d 783f ea3c f8c5 693c 30d2 5abd
00000310: 1651 373d c259 763d 9ca7 8fbc dc45 423d
00000320: 06a1 29bd 46b2 50bd a8e3 b2bc 6027 14bd
00000330: f822 13bc 40b5 17bd 4846 143c d009 d33c
00000340: cc07 7e3d 6208 0b3d c03e 10bb d004 263d
00000350: 78a1 33bc 207e 8cbc b415 08bd d01d a1bc
00000360: c44f c5bc a8ef 8bbc 1a9e 40bd 6c8f 313d
00000370: 0c72 10bd 1c07 29bd 00dc 133a 005e e03c
00000380: b865 e1bc 4c14 2dbd ae67 14bd 0091 153c
00000390: 8c89 92bc 8ad0 3b3d 30de 42bd fa89 7b3d
000003a0: 4842 553d 84ae 8abc eab8 47bd e81a 443d
000003b0: 9055 e73b 7454 27bd 9476 793d 4ae1 203d
000003c0: d806 c9bc 90c0 acbb 1c96 863c a47a 10bd
000003d0: d0c4 c9bc 187d 483d 443b a0bc 68bb 53bc
000003e0: 18a3 79bc 8415 933c b01a 833c 3059 2d3c
000003f0: 20b6 76bd e893 33bd 9ce4 97bc 7c96 723d
-0.016298473 0.013751045 0.009039715 0.026237294 0.061907783 -0.04403215 -0.05441191 0.019249804
-0.06122666 0.056071177 -0.00051379204 -0.021683179 0.05267393 -0.007465951 -0.0580094 -0.020714447
0.014751427 0.026976056 -0.022547811 -0.030998804 0.032261483 0.009638205 -0.011750333 0.029511057
-0.038156576 -0.03080172 -0.039018385 0.061906464 0.05780586 0.053258315 0.008990712 -0.04306709
-0.04258793 0.012368992 0.0090887025 0.031320527 0.044708632 0.022586748 0.04505316 0.061822087
0.036087707 0.03705184 -0.05887749 0.025155492 -0.03899797 0.05328566 0.0013246536 0.05577582
0.058738947 0.040434413 0.05388604 0.0048349127 0.04244587 -0.056123167 -0.054535806 -0.020433925
0.011306897 -0.03809423 0.05819059 0.013945736 -0.03998997 0.032968514 0.02211573 -0.010454766
0.044309817 0.017747745 0.05622223 0.02922576 -0.016674832 -0.0034117699 -0.034077734 -0.04946868
-0.012107953 -0.03532561 -0.009944081 -0.06107779 -0.03738363 -0.044910006 0.022022232 0.024359114
0.035214044 0.046748064 -0.056026965 -0.05083672 0.02879183 0.031425327 0.040925108 0.016448736
0.039488018 0.055711657 -0.049486995 0.04255288 0.0460933 -0.039318256 -0.013866022 0.01933653
-0.057643466 0.0481785 -0.0485299 0.055631936 0.0501049 0.029235892 0.03848119 -0.017999567
0.028755412 -0.046623357 0.017653055 -0.028494835 0.056683168 -0.058913976 0.046663485 0.0062095895
0.026605353 0.021198466 0.020655416 0.01932615 -0.027928032 0.017339148 -0.0213622 0.034995213
0.040845573 -0.038320675 0.0058613345 0.013954952 0.013356425 0.009618357 -0.027881779 -0.051744774
-0.0010892525 -0.016087271 0.029581279 0.055940382 0.047220074 0.034343876 -0.0031674877 0.012351103
-0.00014024228 -0.038473263 0.036418512 -0.025304697 -0.057676956 -0.010758661 -0.051276222 -0.029008836
-0.061423607 -0.06154617 -0.061399855 0.004711494 -0.053792417 0.023614421 0.032592 -0.05423235
-0.059527427 0.019506581 -0.008680098 0.04989493 0.036933556 -0.027448043 0.04863617 0.04218345
-0.044220388 -0.014669575 0.022292607 -0.02835711 -0.014177054 -0.013811618 -0.007851832 -0.055259436
0.03001628 0.012763858 0.048512705 -0.046914496 0.008718751 -0.05812504 0.04192648 -0.016020104
0.054816507 -0.0409692 -0.019600235 -0.032962754 0.02056849 -0.023781627 -0.032099985 -0.01947169
0.006619878 -0.03375119 -0.04565966 0.030376613 0.05526734 -0.047615714 0.061334245 -0.056359693
0.04249222 0.028594717 0.014268391 -0.053423107 0.044755064 0.060144193 -0.017535977 0.047429904
-0.04141333 -0.050951265 -0.02183707 -0.036170363 -0.008980505 -0.037038088 0.0090499595 0.025761515
0.062019154 0.03394354 -0.0022010058 0.040531933 -0.01096379 -0.017149985 -0.033223823 -0.019667536
-0.024085887 -0.01708205 -0.047025777 0.04334967 -0.035265014 -0.041266546 0.00056403875 0.027388573
-0.027514324 -0.042255685 -0.03623169 0.009128809 -0.017887853 0.045853175 -0.047575176 0.06141088
0.052065164 -0.016928919 -0.048760332 0.047877222 0.0070597604 -0.040852025 0.0609041 0.039277352
-0.024539396 -0.0052719787 0.016429 -0.03527321 -0.02462998 0.048947424 -0.01955951 -0.012923099
-0.0152366385 0.017954595 0.016003937 0.010580346 -0.06023228 -0.043842226 -0.018541627 0.059225544

target.0.bias f4 [128]
00000000: 12d7 333d c84a 553d 94cb 1bbd 303a ebbc
00000010: d629 71bd 2e18 623d 9099 d03c d2de 493d
00000020: 48d2 903c ec10 e93c 0475 9dbc 60d3 4e3c
00000030: 4cc9 563d 3022 eebb 5c4f 3a3d 605c 863b
00000040: 8086 b03b 7667 383d 18e8 47bc a0b1 86bc
00000050: 5c81 953c 60a8 f23c e288 63bd dea8 2a3d
00000060: 5e7c 713d c09e a53a 0084 edb8 782e 723c
00000070: fe94 683d be27 493d dc4f fabc 7084 e5bb
00000080: 0075 42bb 9418 d53c f81a 49bc 58b3 26bc
00000090: 90a4 bfbc 903c ca3c b8ff 4b3c f4ec 1fbd
000000a0: 8eea 073d 0c58 b0bc a009 78bd a2e6 043d
000000b0: 20f5 173b 3405 de3c 181a 5f3c 7223 5a3d
000000c0: b86a 7fbc 26a3 393d 0e15 0fbd 8c9f 94bc
000000d0: 80a2 7eba b260 5cbd a8d2 e7bc 88d3 cfbc
000000e0: 445a 0b3d 7616 18bd 84df c6bc 942c 49bd
000000f0: 80b4 6a3d a864 18bc b882 283c 9881 9f3c
00000100: 9032 c53b 2867 673d 3eeb 273d 6805 2cbc
00000110: 44d7 ad3c b0a9 63bc cab7 5a3d 7809 3ebd
00000120: be8c 623d 807b 3d3a 30ae f0bb c807 e6bc
00000130: 34fc 6abd b2fb 333d 6020 9ebb f0d8 b8bc
00000140: 6089 543c 4cdd a03c 9e2b 2bbd 54d4 57bd
00000150: c246 203d 807c cfbb d454 6a3d f4f5 80bc
00000160: 707b debb c04f 0cbb be1b 47bd 00e0 6fbb
00000170: ec40 3f3d 1afd 613d 04a9 ae3c 6ed8 363d
00000180: b4b8 583d 6098 12bb 6228 60bd 90db 6f3c
00000190: 202c 5f3c fec9 093d 780d 07bd c0e7 02bc
000001a0: c02a 2bbb 000d e23c 28ce 733d 164f 6dbd
000001b0: 2828 30bd 4087 5fbc 2066 53bb a269 2b3d
000001c0: c879 66bc 4e2a 1fbd e8ad a43c 2064 8c3c
000001d0: 2c92 8d3c f0d3 1abd a8bf 0cbd 268f 31bd
000001e0: 5a72 06bd d8ac 14bc 0c4b 713d 24c8 5f3d
000001f0: c0eb 4b3c f255 4cbd a846 3dbc a087 06bd
0.04390628 0.05207327 -0.038035944 -0.02871427 -0.05887779 0.05519884 0.02546385 0.049284764
0.017678395 0.028450452 -0.019220836 0.012623638 0.052438065 -0.007267259 0.04548584 0.0041003674
0.0053871274 0.045020543 -0.012201332 -0.01644212 0.01825016 0.029621303 -0.055550463 0.04166495
0.058956496 0.0012635812 -0.000113256276 0.014781587 0.056782715 0.049110167 -0.030555658 -0.007004313
-0.0029671788 0.026012696 -0.012274496 -0.010174595 -0.0233939 0.024687082 0.012451105 -0.039044335
0.033182673 -0.021526359 -0.060556054 0.03244651 0.0023186877 0.02710209 0.013617061 0.05325646
-0.015589409 0.045321606 -0.03493219 -0.018142484 -0.00097135454 -0.053803153 -0.02829869 -0.02536942
0.03402163 -0.037130795 -0.024276502 -0.04911478 0.057301044 -0.009301342 0.010285072 0.019470975
0.0060179904 0.05649486 0.04099583 -0.010499336 0.02122081 -0.013895437 0.05339793 -0.04639575
0.055310003 0.0007228181 -0.0073449835 -0.028079882 -0.057369426 0.043941207 -0.0048256367 -0.022564381
0.012972206 0.019636773 -0.041789643 -0.052692726 0.03912998 -0.00633198 0.057209805 -0.01574228
-0.0067896172 -0.002140984 -0.04861044 -0.003660202 0.046692774 0.055173017 0.021320827 0.044639997
0.05291052 -0.0022368655 -0.054726012 0.01463975 0.01362136 0.0336399 -0.03297183 -0.007989824
-0.002611801 0.02759409 0.059522778 -0.05793675 -0.043007046 -0.013643086 -0.0032256916 0.041848786
-0.014067121 -0.038858704 0.020102456 0.017137587 0.017281614 -0.037799776 -0.034362465 -0.043349408
-0.032823898 -0.009074412 0.05890946 0.05463423 0.012446344 -0.04988665 -0.01155249 -0.032844186

target.2.weight f4 [128, 128]
00000000: c0a4 f53c 0ff6 813c f4f6 3a3d b318 0cbd
00000010: 4b3e 7abd d5bc 833d ce6e e13c eae3 d63c
00000020: 4fd1 f3bc ede7 713d 1982 b7bc da05 4b3c
00000030: 34f7 7a3d b804 a3bd 8938 0fbd c84d 4a3c
00000040: 7f5f febc b133 a73c 9854 9e3d 173a 683c
00000050: 6fb6 8b3c 4520 cd3c e99e 9abc fb0b 9a3d
00000060: c033 4a3d 8020 013d f84d 24bd f19d 3d3d
00000070: 2b01 1ebd f9e9 79bd 62f6 a4bd a5f6 3cbd
00000080: 6312 303c dfa4 21bd 6389 22bd a72a a43d
00000090: a2ed 22bd 55f9 613c 4f8b 48bb cf7b 39bd
000000a0: 2603 263c aab5 a3bc d8dd a23d b84d 063d
000000b0: 8692 1cbb 3463 8c3d 50c4 9bbd 033a 233d
000000c0: 06f6 9dbc bdd3 193d 455b e6bc d633 3c3d
000000d0: 4f00 9cbd 5506 20bd bd5b 193d a90e 373d
000000e0: 82b2 d53c cda9 a43d cef6 cebc 52ee 8abc
000000f0: 540e abbc e05b a63d 4553 a9bd bb47 2e3d
00000100: 6bc8 873d 741e 02bd 67f7 81bd 6bc9 b0bc
00000110: f5c4 0a3c c38b ecbc bc88 9e3d 06a2 553d
00000120: 27b2 b43d e093 11bd e65a 063d 4e6b 93bc
00000130: 8094 a33c 8dce b23d 2a63 86bd b293 d73c
00000140: 9060 5f3c 4b1b abbd a88e 9d3d 8f6e 3e3d
00000150: 3347 ac3d b639 ac3d b847 00bd 579a 863d
00000160: 01b4 b53c 571a e33c 23f0 913d e5cd 623d
00000170: df38 19bd 6624 8bbd 6c75 813d 8146 98bd
00000180: 0d00 c93c 6cd7 95bd 7666 abbd eca9 acbd
00000190: 0a34 483d ad5b 663d 132d 16bd 8337 063d
000001a0: db6e 363c 5818 b2bd 4952 aa3d 0d3f 963d
000001b0: 3fa7 90bc beae 48bd 812e a2bc 0465 d93c
000001c0: 0b21 963d cd5b ab3d a293 61bd 5839 193d
000001d0: e395 4e3c b7b4 a33c 8bf8 e4bc 9822 72bd
000001e0: 55dd aebd 8665 893b d11a 7e3c 9e09 793d
000001f0: 6e8d 1ebc be67 803d 6dc5 8d3c 6e3e a73d
00000200: 9e66 1a3d eda0 4b3d 059a 6f3d 635b 9ebd
00000210: b3da 9c3d 724f 66bd 00bb b6ba b597 8ebd
00000220: 8d5e d7bc a041 443d 0a4e 69bc ce16 9f3d
00000230: c87d 84bd 7d18 4b3d eef1 923d e273 923c
00000240: d0f0 1c3d 1c40 013d 2821 31bd 8f7b 3b3d
00000250: b167 17bd b1b5 1c3d 8d8a b03c 89e7 b0bc
00000260: 7dc5 96bd 0880 333d 6ed8 5fbd ab57 553d
00000270: 4071 633c 2acb 3fbd 56f1 043d 8e9e e23c
00000280: 6e18 00bc 92c9 5f3c 49f7 1cbb 9157 3ebd
00000290: c0ba cd3c 9aa4 9f3d d93f 8e3d 72dd 88bd
000002a0: 4f84 9bbd c523 a1bc e99f 60bc e88b 743d
000002b0: e71c ec3b 60b0 033c 85c8 bb3c d1c9 5e3a
000002c0: a65e 963d 354d a1bd 11af 973d 5578 083c
000002d0: 85a7 ebbc 4116 6d3d 086c 823d 1a7a 9d3b
000002e0: 7591 a03d 8909 223c 4ec5 333d 25a2 533d
000002f0: 5927 b23d 3f87 f23b 5d81 fb3c d8ed 3fbc
00000300: b202 93bd ca11 4cbd 5b85 503d 09c1 f93c
00000310: 75cb 20bd efb6 823d 32c4 96bd 1928 633d
00000320: b803 c93c 272c acbd 5292 083c cc26 713c
00000330: 0b00 22bd 0bbd 6bbc 9fcc 173d a442 3a3d
00000340: 67f5 873d c530 613d 877c 85bc 0f91 93bd
00000350: 0f0f e1b8 9a68 71bb f9f2 43bd adef 48bc
00000360: 47e1 e4bc 4d1d f03c cce6 febc a928 e3bc
00000370: 85a6 adbd c26f ae3d 76f7 ab3d 478f 723d
00000380: f904 843d 3e5e fd3c 0614 893d 4c90 e73b
00000390: 05da afbc 3eba 093c 4888 953d 26d7 c83a
000003a0: 433c 43bd 517e d53b 3333 813d f322 1f3d
000003b0: be90 79bd 48d5 35bc 9a13 543d b7c4 16bc
000003c0: e628 ac3d 5850 98ba 11e4 6fbd 855e 22bd
000003d0: f7c3 f73c d293 913d afe4 90bd ed3b a2bd
000003e0: ee7e a2bd 11f9 613d 2413 c9bc 65b7 0fbd
000003f0: dd03 953d fa4c 8ebd e305 a9bd a716 973d
0.029985785 0.0158644 0.04564567 -0.034203243 -0.061094563 0.06432501 0.027518656 0.026231725
-0.029762892 0.059059072 -0.022400903 0.012391532 0.061270908 -0.079598844 -0.034966026 0.012347646
-0.031051395 0.02041039 0.07730979 0.014174006 0.017054765 0.025039801 -0.018874602 0.07521816
0.04936576 0.031525135 -0.04011342 0.046293203 -0.038575333 -0.06101415 -0.08054806 -0.046133656
0.010746571 -0.039463874 -0.039681803 0.08015948 -0.039777406 0.013792356 -0.0030600613 -0.04528409
0.010132587 -0.019984085 0.079524696 0.032788962 -0.0023891046 0.06854859 -0.07605803 0.039850246
-0.019282352 0.037555445 -0.028119693 0.045947872 -0.07617246 -0.03906854 0.037441004 0.044691715
0.026086096 0.080401994 -0.02526417 -0.016959343 -0.020880856 0.081229925 -0.082678355 0.042548876
0.066300236 -0.031767324 -0.063460164 -0.021580419 0.00846981 -0.028875237 0.07740924 0.05215647
0.08823042 -0.035541415 0.03280153 -0.017995503 0.019968271 0.08730803 -0.06561883 0.026315544
0.013633862 -0.08354815 0.07693225 0.046492156 0.08412018 0.08409445 -0.031318396 0.06572407
0.02218056 0.02772252 0.071258806 0.055372138 -0.037407752 -0.06794052 0.063212246 -0.074353226
0.024536157 -0.07316479 -0.08369152 -0.084308475 0.048877753 0.056239773 -0.03666408 0.032767784
0.011134828 -0.086960495 0.08316476 0.07336245 -0.017657874 -0.048994772 -0.019797565 0.026537426
0.07330521 0.08367119 -0.055072434 0.037408203 0.012608978 0.019983632 -0.027950546 -0.059115022
-0.085383095 0.0041930107 0.015509323 0.060800187 -0.009677274 0.06269787 0.017306054 0.081662044
0.03769552 0.049714018 0.058496494 -0.077322744 0.07658901 -0.05622811 -0.0013941228 -0.069625296
-0.026290203 0.047914147 -0.014239797 0.077680215 -0.06469303 0.0495839 0.07175051 0.017877523
0.038315594 0.03155528 -0.04324451 0.04577213 -0.036964122 0.038259212 0.021550441 -0.02159478
-0.07361887 0.043823272 -0.054649763 0.05208556 0.013881981 -0.04682461 0.03245672 0.027663495
-0.0078183245 0.013658898 -0.0023951104 -0.04647023 0.025113463 0.07795067 0.06945772 -0.06682862
-0.07593595 -0.019670377 -0.013710001 0.059703737 0.007205594 0.008037657 0.022922764 0.0008498701
0.073422715 -0.07876054 0.07406438 0.008329471 -0.028766403 0.05788255 0.063682616 0.0048058154
0.07840244 0.009889969 0.043889336 0.051668305 0.08698911 0.0074013765 0.030701334 -0.011714421
-0.071782485 -0.049821652 0.050908428 0.030487554 -0.03925653 0.06382548 -0.0736164 0.055458162
0.024537906 -0.08406859 0.008335667 0.014718723 -0.039550822 -0.014388333 0.037060376 0.04547371
0.06638604 0.05497815 -0.01629473 -0.07205402 -0.00010731641 -0.003683603 -0.04783914 -0.012264174
-0.027939452 0.029310847 -0.031115912 -0.02772935 -0.08479027 0.0851741 0.08396809 0.05921867
0.06446261 0.030928727 0.06693272 0.007066762 -0.021466265 0.00840622 0.07301384 0.0015322908
-0.047664892 0.006515302 0.063085936 0.03885169 -0.060929053 -0.0110982135 0.051776506 -0.009202174
0.08406238 -0.0011620624 -0.05856711 -0.039640922 0.03024481 0.071082726 -0.07074868 -0.07921586
-0.07934366 0.05516917 -0.02454526 -0.035087008 0.072761275 -0.06948276 -0.08253076 0.073773675
