checkpoints/icm_planner/seed3/final.pt (torch, 870123 bytes, 19 tensors)

fc1.weight f4 [256, 256]
00000000: f765 a2bc 0e75 21bd 0981 453d 670f a7bc
00000010: c9a2 64bb 7912 1d3d 7af7 1a3d 5b60 1ebd
00000020: f9ad b5bc 67f4 35bd 20e8 1c3c 0dad 293d
00000030: 2974 2fbd 4ca2 09bd 54ca 38bd 5c74 57bc
00000040: 6cf9 083d eee5 913a 1f48 34bd ef1c b9bb
00000050: 8db6 76bd ebeb 363d 4b78 0ebd fe92 313c
00000060: 0b6b 3e3c 51cc 93bd e8c6 0bba dccb c33c
00000070: 66cf 0c3d b93f e83b b50e 10bd 00dc b0bc
00000080: 56b7 553c d6be 61bd 832e 45bd 63ae 07bd
00000090: 0ea9 a73c 4e85 09bc afc6 75bc cbf3 28bd
000000a0: 1db8 a83c c99b eb3c a66a d7bc 0b86 433d
000000b0: 9007 debc 7552 533d 2d46 52bd 014a 113d
000000c0: ec2d 32bd 00f2 17bd a18d 023d cae1 3dbd
000000d0: 3c97 293d ffdf febc 07f2 1f3c 255f ec3c
000000e0: e2b3 0d3c 7231 2abc 5c92 983c f94c 2a3d
000000f0: d917 12bd 24ba 5b3d 11e7 2dbd 58af 973c
00000100: 56dc 6e3d d65b 113d 56c3 49bd 66d5 1c3d
00000110: 38f6 2ebd 0aca 133d beaf 54bd f283 d1bc
00000120: 5876 2dbd 5269 51bd f9d4 823b a717 a93b
00000130: 8985 353d b800 693d afa2 27bc b129 853c
00000140: 1698 343d 51f7 643c 20ee 713d afb6 103d
00000150: 2b9e 54bd 9da1 f83c 88f6 e83b 3eb1 a93c
00000160: 5fdb 50bc 2285 a63c fa60 fdbb 648f 2a3c
00000170: 7038 a53c c5ec 3bbd a402 853d b820 d03b
00000180: e78d 0cbc 028e ea3c 50a9 513d 3cf9 2e3d
00000190: 6c09 063d 37a6 a7bb 6a41 783d 36f9 933c
000001a0: 50db 01bd a2a3 673d 4447 21bd 8615 43bd
000001b0: 6ef3 3b3d 0264 a13c 389e 853d c2a4 1b3c
000001c0: 8acd 9fbc c21b a0bc d608 ee3c 2e7b 21bd
000001d0: 78d0 c53b 1a19 22bd cafe dabc 9834 cb3b
000001e0: f3fd 093c 46ec d13c 962d a33c 383c 113d
000001f0: 3c72 033d 2c6d 0cbd 506a 6d3d 9a6f d8bc
00000200: 2a98 adbb d76a 1239 087e 6dbc 866a 7f3d
00000210: 95f1 3bbc ebae 69bc 0a5f 97bc 3154 703d
00000220: 5540 fdba 2557 4dbd e426 2bbd 9f85 54bd
00000230: 8333 d93b 08b6 193d 717e 7bbc b363 79bc
00000240: 7765 933c 57db 613b 3e1c 013d 6f7f 1c3d
00000250: 0fbb 4e3d 7d2d 1b3d aaa7 3a3d ebe3 853d
00000260: dc5d 11bd f657 61bc 499d 463c 65c9 dcbc
00000270: aded 893d f2ed 0f3d 22b4 a93c 79b4 c2bc
00000280: 93a4 4dbd 23d4 563c 1b02 8b3c c65e 44bd
00000290: 13c7 773d 4c79 8d3d 7099 64bd 1ab4 cc3a
000002a0: f0d1 dc3c 4fc4 2ebd e4e9 b4bc 9f71 243d
000002b0: 3406 213d b412 323d f87c c73c 140c 80bc
000002c0: b43f c13c a0e3 673d 6e1c 44bd 802b 913c
000002d0: 98fe 7ebd 1a5c 013d 849b 6cbd 68b8 e83c
000002e0: 5c63 a73c 828a 01bd 7068 a2bb 7cc9 d8bc
000002f0: 0e6b 19bd d076 34bc 3a77 14bd de1d 71bd
00000300: 18b3 d23c debb 6d3d f073 5c3d 30b3 b13c
00000310: c47d 7dbd 11fc 8bbc 2274 0a3d 5e83 19bd
00000320: 8085 0d3c d61f dabb 57a3 90ba 6ed9 75bd
00000330: f803 f3bc 04b1 9b3c 8021 7d3c 20a7 8c3b
00000340: 7c4c 9a3c 34ed 643d 3f6f 2d3c b4a8 c63c
00000350: 7869 2a3d 3875 113d 3cda fbbc a4d5 94bc
00000360: d1bf 4cbd 7b7b bebb 780a 3bbd 0e3f 503d
00000370: 0875 02bd 3da9 fbbc 0a70 0e3d 88d8 71bc
00000380: f353 5fbd c2e5 533d 020b 4d3d 13bd 113d
00000390: 206c 6cbc f8d3 68bd d7ad 173d 731c 5c3d
000003a0: 34e2 833d 0417 14bd b83d 33bc 0ce0 48bd
000003b0: 025c 733d f413 273d 2cec 963c 800a 5b3c
000003c0: 26a0 76bd 828a 3b3d 8af8 353d 36e9 823d
000003d0: 48a1 763c 104a 1ebc 845b 26bd 3efa 3cbd
000003e0: 1a4f 433d e2ef 423d 516e 49bd 1085 d13b
000003f0: e26e 403d 88e0 4e3d c8be 5d3c 386b 03bd
-0.019824011 -0.039418273 0.04821876 -0.020393087 -0.0034887067 0.038347695 0.03783367 -0.03866611
-0.022177683 -0.044422533 0.009576827 0.0414248 -0.04283539 -0.033602044 -0.04511483 -0.013150301
0.033440992 0.0011131146 -0.044014093 -0.005649201 -0.060232688 0.044658583 -0.03478269 0.010838268
0.011622201 -0.07216705 -0.00053320685 0.023900919 0.034377478 0.0070876745 -0.035170276 -0.02158928
0.013044199 -0.055113636 -0.04814006 -0.033125293 0.020466354 -0.008393599 -0.015000983 -0.041248124
0.020595605 0.028760808 -0.026295971 0.047735255 -0.027103215 0.05159231 -0.051336456 0.035470966
-0.043500826 -0.037096024 0.03187335 -0.046357907 0.041403994 -0.031112669 0.009762294 0.028853962
0.008648844 -0.010387765 0.018624477 0.041577313 -0.035667274 0.053644314 -0.04245669 0.018516228
0.058315597 0.035487972 -0.049258552 0.03828945 -0.04271528 0.03608135 -0.051925413 -0.025575612
-0.04234919 -0.051125832 0.0039926735 0.0051602903 0.044316802 0.05688545 -0.010231658 0.016255232
0.044090353 0.01397498 0.059064984 0.03533047 -0.051908653 0.0303505 0.007109467 0.020714398
-0.012747615 0.020327155 -0.007732508 0.010410164 0.020168513 -0.045880098 0.06494644 0.0063515566
-0.008578754 0.028632168 0.05118686 0.042718157 0.03272383 -0.00511625 0.06060926 0.018063169
-0.031703293 0.056552537 -0.039374605 -0.04762795 0.04588645 0.019701008 0.065243185 0.009499731
-0.019507188 -0.019544486 0.029056948 -0.039424114 0.0060368143 -0.03957472 -0.026732821 0.006201338
0.008422363 0.02562536 0.019919198 0.03545782 0.032091364 -0.034283802 0.057962716 -0.026420403
-0.0052976804 0.00013963446 -0.01449538 0.062357448 -0.011471172 -0.014262895 -0.018477935 0.05867404
-0.0019321541 -0.050131936 -0.041785136 -0.051885244 0.006628455 0.037527114 -0.01534997 -0.015221524
0.017992718 0.0034463012 0.031521074 0.038207468 0.05047136 0.037885178 0.045570053 0.065376125
-0.035489902 -0.013753882 0.012122461 -0.026951501 0.06734786 0.03513903 0.020715777 -0.023767697
-0.05020578 0.013112101 0.016968777 -0.047941945 0.060492586 0.06907901 -0.055810392 0.0015617639
0.026955575 -0.042667683 -0.022084184 0.04014742 0.039312556 0.043474868 0.024351582 -0.01563076
0.023589946 0.056613564 -0.047878675 0.017720938 -0.06225452 0.031581976 -0.0577655 0.028408244
0.02043312 -0.031626232 -0.0049562976 -0.026463263 -0.03745561 -0.011014655 -0.036246516 -0.058866374
0.025720164 0.058040492 0.053821504 0.021691889 -0.061887518 -0.017087968 0.03380216 -0.037478797
0.008637786 -0.006656627 -0.0011035007 -0.06002181 -0.029664978 0.019005306 0.015449882 0.004292384
0.018835299 0.055890277 0.010585605 0.024250366 0.04160449 0.03551218 -0.03074371 -0.018168278
-0.049987618 -0.00581306 -0.04566428 0.050841384 -0.03184989 -0.030720348 0.034774818 -0.014761098
-0.05452342 0.051732786 0.050059326 0.035580706 -0.014430076 -0.056842774 0.03703102 0.05373807
0.06439629 -0.036154762 -0.010940008 -0.049041793 0.059413917 0.040790513 0.018423162 0.013369203
-0.060211323 0.04578639 0.04442648 0.06392138 0.015053101 -0.009661213 -0.04061462 -0.046137087
0.04768286 0.04759205 -0.04917747 0.006394036 0.046980746 0.0505071 0.013534255 -0.032084674

fc1.bias f4 [256]
00000000: 845f f53b 700a f93c 4e2f 9cbc 8fa3 71bd
00000010: b67e cb3c 343b 3c3d a81b 5c3d 06c0 3d3c
00000020: 9f14 f6bc 2cd6 c63c f762 243d b139 2d3d
00000030: 2c78 423c 0672 fbbc be7e 7d3d d485 963c
00000040: c223 1fbd 1182 eb3a 0a30 07bc 6363 393a
00000050: 3fe2 e3bc cfd6 7c3d d04b 3cbd 2dee 1f3d
00000060: 4200 383d cbcc 6f3d 1871 acbc 3fb1 21bd
00000070: b2e2 17bd 006b ddbc 44a8 ebbc d535 bb3b
00000080: 3fa8 82bd d38a a4bb f1fe b63c 6c6a 153c
00000090: bc5d cbbc 80f8 533c c812 48bd c563 99bb
000000a0: c575 233d 8366 73bc 5732 5cbd 182c 2abc
000000b0: 08fe 7cbd 7855 c23c cc17 84bd cbcf cdbb
000000c0: b3a1 08bd fd45 c13b f329 60bd 8aee 60bc
000000d0: ff0d a33b 6d7a 383d 7836 6a3d 6996 343d
000000e0: f159 5c3d 31c7 54bc 9670 003c b7ea 643d
000000f0: c8a0 fb3c 1839 2cbd 4258 5e3d 2dd2 8fbc
00000100: 1d21 dabc bf30 63bd 92a3 23bc 0872 f23c
00000110: ddca 483d 493f 62bc c5e4 7dbd d9ff 863c
00000120: 1475 6c3d ce78 f3bc 87c4 443d 6369 d73c
00000130: d8b4 febc 3320 d3bc 0068 423d ac75 1abd
00000140: 61b2 d43b 5010 7b3d f3d4 4f3d 1427 8b3b
00000150: 87d5 573c 5d4b a9bc 565b 533d 05b1 66bd
00000160: f0e2 9e3c 3b98 0b3d 72ce 34bd 2fec 2b3d
00000170: e9ea 08bd f602 7dbd 98c0 48bd 0447 2d3d
00000180: 3a2b f93c 200e dc3c 106e e33c c359 3abd
00000190: 6ec7 68bd 3873 e7bc 7866 95bc 1ee0 933b
000001a0: 19d6 b73c 4261 16bd 0531 53bc 889b a0bb
000001b0: dc58 3f3d 4c7a fa3c 4105 65bc de06 9cbc
000001c0: 1849 56bb 251c 2a3d 5a07 1e3d 14c4 dbbc
000001d0: 5707 f9bb e079 413d 989e 9dbc 13c5 ee3c
000001e0: 4999 ed3b 84f2 25bc f4fb a2bc 681a b03c
000001f0: 31fb b23c be36 41bd 7ea4 373d 6e6d 55bc
00000200: 0dc1 3ebd ae3a d73c 582c ddbc 8c20 30bd
00000210: 6330 223d 0fe5 a33c 9ce9 b53c b8e7 023d
00000220: 09cd 4e3d e0e8 ddbb c09f 7dbd 60ef 23bd
00000230: 40e0 bf3b 80ff e13a 6bdb f83c d474 f1bc
00000240: a090 1abd eb91 503b eb2a 5c3d f7a7 75bd
00000250: ef87 ba3c e10f b4bc 181e 693d 9f16 66bd
00000260: 40a8 05bd 25ef 683d 65d3 20bd f4bb 693b
00000270: f6b3 0dbd 6a67 013c d6e5 30bd 4bf3 573c
00000280: 6791 2b3d 3c75 763b ac98 8a3c 0855 56bc
00000290: fe8c 233d 753e 6f3c 57f6 b03c ba42 3dbd
000002a0: 6a35 19bd 7531 c6bc c8f5 2fbd 3607 febc
000002b0: e294 a53c d432 923c 6ee2 1f3d 3694 40bd
000002c0: 90aa c1bc 72cb 6d3c 3776 51bc 8263 553c
000002d0: 6e14 82bd a1a7 c23c 4c71 02bd 6681 04bd
000002e0: adf4 133d aced bdbb 2a6d 03bd 51e2 bf3c
000002f0: a6e9 97bc b87f 1bbd 2e98 613d 1972 193c
00000300: ac1c ea3c c8f5 68bd 9471 babc 325c 473d
00000310: 883d 0a3d 2cda 7a3d 8f0d cdbc abee bebc
00000320: 2b12 573d cd86 423d 9ead 4f3d e623 a23c
00000330: 2f6f 6e3d 00f1 023d 7c77 2fbd e1c7 7b3c
00000340: 4291 3b3d 58eb 1ebc daec bc3c debb 263d
00000350: d81e 3dbd b805 b53c dcd6 5f3d 6eb0 b03c
00000360: fbd2 40bc 2186 b8bc 18df 1bbd 9a6f 93bc
00000370: b05b 98ba 5b1a 953b 7514 bfbc a90b cfbc
00000380: 8770 d53c 77eb 0d3d 33ab 653d 14c2 d83c
00000390: 8e15 48bd fe6a b03b 0599 f93a 41e5 b43b
000003a0: 9b00 e6bb 603e 583b afb7 803d 7e9c 10bd
000003b0: bab7 233d 6f54 f3bc b70e 34bd a006 6cbc
000003c0: 2816 7e3d 3099 f93c d571 d53b c7d1 babc
000003d0: 348c 6e3d acd9 4a3d 0769 a33c a3b2 2fbd
000003e0: 3844 523d 6f24 d4bc 7c6a d7bc 5047 37bc
000003f0: 6496 b03c 1861 a93c 577b 48bd 182d 793c
0.007488193 0.030400485 -0.019065525 -0.058993872 0.024840694 0.045954898 0.053737313 0.0115814265
-0.03003913 0.024272047 0.040133443 0.042291347 0.0118694715 -0.030694019 0.06188845 0.018374361
-0.03885246 0.001796784 -0.0082511995 0.0007072 -0.027817843 0.061728295 -0.045970738 0.0390455
0.04492212 0.058544915 -0.021050021 -0.039475676 -0.037081428 -0.02702856 -0.028766759 0.0057132044
-0.06379747 -0.005021432 0.022338362 0.009119611 -0.02482497 0.012937665 -0.048846036 -0.004681083
0.039907236 -0.014855984 -0.053758945 -0.010386489 -0.0617657 0.023722395 -0.064498514 -0.0062808744
-0.033357333 0.005898236 -0.054727506 -0.013728747 0.0049760337 0.04503863 0.05718085 0.044088755
0.053796712 -0.012986944 0.007839343 0.055887904 0.030716315 -0.042046636 0.054283388 -0.017556274
-0.026627118 -0.05546641 -0.009987729 0.02959539 0.04902159 -0.013809034 -0.06198575 0.01647942
0.057728842 -0.02972069 0.048038986 0.02629537 -0.031092092 -0.02577219 0.047462463 -0.037709877
0.006490991 0.061294854 0.050740194 0.004246602 0.0131734675 -0.020665819 0.051600777 -0.056321163
0.019395322 0.034080725 -0.044142194 0.04197329 -0.033427153 -0.061770402 -0.049011797 0.042304054
0.03041612 0.026862204 0.027762443 -0.04549576 -0.056830816 -0.028253183 -0.018237337 0.004512801
0.022440957 -0.036713846 -0.012890105 -0.0049013533 0.046715602 0.030575894 -0.013978303 -0.019046243
-0.0032697376 0.041530747 0.03858123 -0.026826896 -0.007599752 0.04723537 -0.019240662 0.029146707
0.007250939 -0.010128621 -0.019895531 0.021496966 0.021848293 -0.047171347 0.044834606 -0.013026578
-0.046570826 0.026273098 -0.026998684 -0.04299979 0.039596926 0.020006685 0.02220612 0.031959265
0.050488506 -0.0067721456 -0.061919928 -0.040023208 0.00585559 0.0017242283 0.030378064 -0.029474653
-0.03773558 0.0031825255 0.053751867 -0.059974637 0.022769896 -0.021980228 0.056913465 -0.056173917
-0.03263116 0.05686869 -0.0392641 0.0035665007 -0.034595452 0.007898191 -0.04318794 0.013180564
0.041886713 0.0037606498 0.016918503 -0.0130817965 0.039929383 0.014602293 0.021601839 -0.046206214
-0.037404455 -0.024193505 -0.042959005 -0.031009298 0.020212594 0.017846502 0.0390343 -0.047016345
-0.0236409 0.014513837 -0.012784532 0.013024213 -0.06351553 0.023761572 -0.03184633 -0.032349966
0.036122013 -0.005796155 -0.03208653 0.023423346 -0.01854403 -0.0379636 0.05507677 0.009365582
0.028578125 -0.05687502 -0.022759236 0.04867191 0.033750087 0.06124322 -0.02503088 -0.023307165
0.05250756 0.047491837 0.050702684 0.019792508 0.0582115 0.031968117 -0.04283856 0.015367479
0.045792826 -0.009699665 0.023062158 0.040706508 -0.046171993 0.022097453 0.054648265 0.021568503
-0.011769052 -0.022524895 -0.038054556 -0.017997552 -0.0011624005 0.004550261 -0.023325184 -0.025274115
0.026054634 0.034648385 0.05607147 0.026459731 -0.04884868 0.005383848 0.0019042796 0.0055204933
-0.007019115 0.0032996163 0.06285035 -0.035305493 0.039970137 -0.029703347 -0.043959346 -0.014405876
0.06203285 0.030468553 0.006513814 -0.022805108 0.058239177 0.049523994 0.019947542 -0.04289497
0.05133459 -0.02589628 -0.026295893 -0.011186436 0.021556087 0.02067618 -0.04894575 0.015208505

fc2.weight f4 [128, 256]
00000000: 78e7 a93c 4c30 7438 db4e ea3c 7f20 b43c
00000010: 1a82 983c 8571 733d 5a74 a1ba 8a81 d93c
00000020: e359 723c 2450 003d 7b75 9ebb a8b4 11bd
00000030: 489a 7bbd 1179 cabc 91a9 fe3c c6f8 293d
00000040: a9ec 223d 60d6 96ba 3945 e2bb 19d4 113d
00000050: 1b2d 51ba 3eb3 0d3c 5f67 673d c692 8bbc
00000060: 7b48 673c 7a7a 4d3d 6ab6 783d f4ee 213d
00000070: f189 8c3c 4007 c7bb 4cd1 b83c 75a6 55bd
00000080: 32a2 553c 383c 823c c6dc 833d 1624 f2bc
00000090: 40d5 1e3d 8825 63bd 3051 c7b9 0f37 e93c
000000a0: 4f4d 5c3d 661b 7d3d 2fe1 3cbd 5a7c 33bd
000000b0: 10f9 503c 38fe 0cbc 7e9a b3bc 8bb8 6f3c
000000c0: 53da 19bc a45b fdbc 4777 f8bc c080 4fbd
000000d0: 00ff 31bd bf21 793d cef7 213d e197 0e3d
000000e0: b9ed 8d3b b420 54bd db73 60bd a07a cb3c
000000f0: 71ee 123d f70f 9d3b 2012 ef3c 19ad 153d
00000100: 1a56 b1bc 64a8 6a3d c0f5 86bc 165c 0dbd
00000110: a5db 2c3d 8c2c 35bd 6099 59bb 4b5b b73c
00000120: cd5b 9f3c 1c45 253d d70b 2d3d 0527 37bc
00000130: e0b8 8b3c 0bb0 0a3d 014b 14bd 11d1 2d3d
00000140: 1c71 733c 7898 403d ace5 c4b9 daf0 79bc
00000150: cdf2 683d efa2 b5bc 939b a3bc b0dc 1dbc
00000160: 0af8 dcbc 452c 62bd a0a0 06bc a390 033d
00000170: 65a5 503d b088 093d 353c 07bc 742f ba3c
00000180: 7dd6 983b 1328 283d ed3a cebc 18d5 4a3d
00000190: e575 fcba 4e88 6d3d 7816 0cbd 55f7 3dbc
000001a0: 6b55 0c3d 5181 a43b ed73 903b 4753 953d
000001b0: 71a2 253d 9072 243c c1b6 563c c8f5 50bc
000001c0: 6de8 4c3d ed42 833d d04d d43c fa71 463d
000001d0: 91d5 c53c 4052 48bd c05a 72bb 88d1 24bd
000001e0: 4473 133d 5e93 843d 8f8c 6b3d 82d0 483d
000001f0: 942d 0dbd 0090 daba b1b9 8c3c e4ce a83c
00000200: d2a0 3c3c 64ba 4d3c 8cbe adbc 5ae1 4f3d
00000210: ec26 b2bc cdef dd3c 18db d8bc 3094 49bd
00000220: 1b8c 4fbd 2971 cf3c 9875 81bc 60b8 e4bb
00000230: 4835 c13c 8847 d53c c73a 633d 5325 643d
00000240: 362a 6e3d c45e 403d 4922 d3bb acdf f93b
00000250: 5e25 573c 7cf4 76bd 7bb3 47bd 1c4f 463d
00000260: 22a4 643c 78e4 773d 8e04 963c 1b3e 3dbd
00000270: aeb6 56bb 444e 243d ce01 14bd 394e 903c
00000280: 929d 28bd fe78 353d 3e91 65bd 8733 d5bc
00000290: 5cc1 783d 411e b53c 6ade 62bd 0eab 15bd
000002a0: 9afc 52bd 3a39 a93c 9aa0 6dbd e0f6 b23b
000002b0: 789e 5f3d c041 90ba 723f 3a3d bea2 1e3d
000002c0: 8e8f 263d aa83 3f3d 75ec 1f3d 11f6 d53c
000002d0: 7b23 48bd d06d 2abd e0b2 283d fe03 51bd
000002e0: 88e0 853b 7815 863d c817 4dbc c28b 883d
000002f0: dcd0 85bd 9d06 4d3d d385 a23c 52a3 003a
00000300: 4bbd 42bd f8dd 89bc 8408 c63c f995 043d
00000310: 1958 563b 0a4f c63c 7b6e 823d 0eeb 0c3c
00000320: 6d39 18bd 713f 4a3d 9b7e dd3c ea70 36bc
00000330: 01a0 26bc c09b c83c 2bf2 6d3d 3213 383d
00000340: 28a3 4ebc 941f 42bd a273 0c3d 8372 0a3a
00000350: 36e1 2f3d c505 febc e9cb 2d3c d7b1 ecb9
00000360: 8509 c13c a7f2 bb3c 1fc8 ec3c 149f 853d
00000370: 8dc2 54bc a564 523d 919c 30bd 4755 9e3a
00000380: ec37 8d3d d220 18bd 0207 ca3c 0502 71bc
00000390: 4efb 39bd 0c0b 2e3d 4743 05bd 710a 73bd
000003a0: 6213 12bd 53cb 353d 17c5 0dbd c60b 30bd
000003b0: 35c2 d63c d46a 073d 9875 e73c f00f 3abd
000003c0: 3991 9dbc d8cd a03c aa8b 503d 62c8 0b3d
000003d0: bab0 adbc 93c7 afbc fce8 43bd 5187 bd3c
000003e0: f873 863c 0298 94bb 3c59 0e3d ea1d 43bd
000003f0: 9730 383d 03ad 703b ee33 87bc 8cca aebc
0.020740256 5.8219113e-05 0.028602054 0.021988152 0.018616725 0.059434433 -0.0012318001 0.026551027
0.0147919385 0.031326428 -0.004835782 -0.035572678 -0.06142643 -0.024715932 0.031086715 0.041497014
0.039776478 -0.001150798 -0.0069052246 0.035602663 -0.00079794385 0.008648692 0.056495067 -0.01703776
0.014116402 0.05016563 0.06072084 0.039534524 0.01715562 -0.0060738623 0.022560738 -0.0521607
0.013039159 0.015897855 0.064385936 -0.029558223 0.03877759 -0.055455714 -0.00038016727 0.028468637
0.053784665 0.061793707 -0.04611319 -0.043819763 0.012754694 -0.008605532 -0.021924254 0.014631401
-0.009390431 -0.030927487 -0.030330313 -0.050659895 -0.043456078 0.0608232 0.039542966 0.03481281
0.0043313173 -0.051789 -0.05479799 0.024838746 0.035871927 0.004793163 0.029183447 0.036542032
-0.021647502 0.057289496 -0.016474605 -0.034511648 0.042201657 -0.044231936 -0.003320299 0.022382399
0.019452954 0.04034911 0.04224762 -0.011178737 0.017055929 0.033859294 -0.03620434 0.04243571
0.01485851 0.047020406 -0.00037555152 -0.015255177 0.056872178 -0.02217242 -0.019971645 -0.0096351355
-0.026973743 -0.055218 -0.008217007 0.03212036 0.050938983 0.03357762 -0.008254101 0.022727706
0.004664241 0.041053843 -0.025174582 0.04951963 -0.001926121 0.05799132 -0.034201115 -0.011594613
0.03426115 0.0050202985 0.0044083507 0.072912745 0.04043812 0.010037079 0.013105095 -0.012753911
0.050026346 0.064092495 0.02591601 0.04844854 0.024149688 -0.048906565 -0.003698036 -0.040238887
0.035998598 0.064734206 0.057507094 0.049026974 -0.034467295 -0.0016674995 0.017178388 0.020606466
0.011512952 0.012556646 -0.021209024 0.05075202 -0.021747075 0.027091885 -0.02647166 -0.04921359
-0.050670724 0.025322514 -0.015803143 -0.006979987 0.023584977 0.026035085 0.055475976 0.055699658
0.058145724 0.046965376 -0.006443296 0.0076255407 0.013131468 -0.060291752 -0.04875515 0.04841529
0.013955148 0.06052062 0.018312719 -0.046201807 -0.0032762694 0.040113702 -0.036134534 0.017615424
-0.041165896 0.04430484 -0.056046717 -0.026025547 0.060731277 0.022109153 -0.05538789 -0.036540084
-0.05151043 0.02065717 -0.05801449 0.0054615587 0.054594487 -0.0011005923 0.045470662 0.03872942
0.04066425 0.046756424 0.039043862 0.02611831 -0.04886196 -0.04160863 0.041186213 -0.051029198
0.004085604 0.065470636 -0.012517877 0.06667282 -0.065339774 0.050055135 0.019839203 0.0004907149
-0.047543805 -0.016829476 0.024173982 0.032369588 0.003270632 0.02420761 0.06368729 0.008600963
-0.03716414 0.04937691 0.02703791 -0.011135319 -0.010169984 0.02448833 0.058092277 0.04494018
-0.012612142 -0.047393396 0.034289964 0.0005281346 0.042939387 -0.03100861 0.010607698 -0.0004514593
0.02356411 0.022942854 0.028904019 0.06524482 -0.012985838 0.051365513 -0.043118063 0.0012079858
0.06895432 -0.037140675 0.024661545 -0.014709954 -0.04540568 0.042491004 -0.032534864 -0.05933613
-0.035663016 0.04438336 -0.034611788 -0.042979978 0.026215652 0.033060864 0.028254315 -0.045425355
-0.019234287 0.019629404 0.050914444 0.034126647 -0.021202434 -0.02145747 -0.047829613 0.023135813
0.01641272 -0.0045347223 0.03475307 -0.04763595 0.044968214 0.0036724217 -0.016504254 -0.021336816

fc2.bias f4 [128]
00000000: 8e45 e93c a34c e7ba 1059 bebc 0733 97bc
00000010: 0735 0b3d 4159 a33c 5237 0f3d 056e 7e3c
00000020: 6fda c23b f81b ee3c 3000 f2bc 3d46 8c3c
00000030: cf1c 82bd 7199 103d 3928 20bd 1530 043d
00000040: 2a0d 57bc 863f 2dbd aeba 4bbc 0071 453a
00000050: ac16 8abc 9d79 10bd cd2f 5abd 7992 f9bb
00000060: 3dcb 5b3d 51ca 2bbc af18 febc 2635 6dbd
00000070: 5cf1 9f3c d7b6 25bd 0c83 a1bc 53fd c63c
00000080: 28da 4e3c e011 553b c4a9 e7bc 4f25 123d
00000090: 64e2 3cbd e078 64bc e448 ed3b a232 5f3c
000000a0: 5c8f 56bd 6a6a dabc 8ffd bdbb 7606 4dbd
000000b0: 4d60 e13b 3c99 893d 610f 883d ec79 9abb
000000c0: 7cb9 f2bc da1b 183d 0ac0 95ba fd47 b83c
000000d0: 0a36 3a3d 6090 77bd c265 533c 34e6 1d3d
000000e0: 1df9 36bd 814c 98bb bd22 2d3d af35 b1bb
000000f0: af3f c8bb 1530 93bc 20d6 6bbc 0d0e 6b3d
00000100: 2123 163d b486 8dbc b971 613b ce9f 853c
00000110: 594a 413d e95b 63bd e065 c8bc 52b6 27bd
00000120: 8a72 e23b 802a 4f3a 3696 6cbd 061b a83c
00000130: 3b90 ee3c 068d 68bd f30d 5abd 495c 163d
00000140: e4ef 41bc a1e0 463d f857 8a3c d2a4 73bd
00000150: e78d 183d f5e4 d43c 32fa fd3c 204b 893c
00000160: c858 56bd 11cf 0d3d 3605 783b ab95 b83a
00000170: 3b9b d33b 5150 573d def5 163d 2d16 7e3d
00000180: b3b1 5ebd b21f 4ebd 807c 223c 84a6 993c
00000190: 1bb3 e53c efe0 4e3c d6d4 6dbc 94e3 2a3d
000001a0: 02e3 4cbc ab3e 8a3d 23dd 883d 085b 5f3d
000001b0: cfa5 9cbc f411 133d 39d1 ef3b be67 8d3b
000001c0: c58d 4c3c c623 ecbc 9800 d93c 1572 093d
000001d0: 7657 673d 36e7 2dbd 93c2 25bd e0af 033c
000001e0: a893 c3bc df09 173d bf9e 0d3d d8f0 6dbd
000001f0: ba7c 5d3d a3f3 8d3b 21a0 86bd b35d 22bd
0.02847555 -0.0017646741 -0.023235828 -0.018456949 0.033986118 0.01994002 0.034964867 0.01552916
0.0059464495 0.02906607 -0.029541105 0.017123336 -0.06353151 0.035302583 -0.03910086 0.032272417
-0.013125697 -0.04229691 -0.012434645 0.0007531792 -0.016856514 -0.03527223 -0.053268243 -0.007616338
0.05366062 -0.010485248 -0.03101763 -0.057912014 0.019524269 -0.040457573 -0.019715808 0.024290716
0.012625255 0.0032511875 -0.028279193 0.03568011 -0.04611434 -0.0139448345 0.0072413553 0.013622912
-0.052382812 -0.02666207 -0.005798049 -0.05005499 0.006877935 0.0671868 0.06643558 -0.0047142413
-0.029629461 0.037135936 -0.001142503 0.022495264 0.045461692 -0.06044042 0.012902679 0.038549617
-0.044671167 -0.004647792 0.042269457 -0.005408011 -0.0061111073 -0.017967263 -0.014394313 0.057386447
0.036654595 -0.017276146 0.003440006 0.016311552 0.047190044 -0.055507574 -0.02446264 -0.04094536
0.006910627 0.00079027563 -0.05776044 0.020520698 0.029121509 -0.056775115 -0.05323596 0.036709104
-0.01183698 0.048554067 0.01688765 -0.059483357 0.037244704 0.025988081 0.031003091 0.016759455
-0.052330762 0.034621302 0.0037844903 0.001408269 0.006457714 0.05256683 0.03685557 0.062032867
-0.054368686 -0.050323196 0.009917378 0.018756159 0.028039506 0.012626871 -0.014516076 0.04172094
-0.012505295 0.06750234 0.066828035 0.054530174 -0.019122032 0.035905793 0.0073186425 0.0043153455
0.012484972 -0.028825652 0.026489541 0.033556063 0.056479894 -0.042456828 -0.040468764 0.008037537
-0.023874119 0.03687465 0.03457522 -0.058091015 0.054074027 0.0043320223 -0.06573511 -0.03964014

actor.weight f4 [4, 128]
00000000: d9e9 4fbd cdef dfbc e9a4 8bbd 0981 583c
00000010: ba8b 88bd a7a9 47bd d7f4 8bbd 1367 fa3c
00000020: fa26 7abd 7d34 9c3c 5790 59bc 194b 60bc
00000030: 1a14 3f3d de7f aebd 5307 25bd 5ad2 553d
00000040: a740 7fbc 3297 9fbd 59fa 4a3d 91c5 57bd
00000050: ff96 503c b42e 18bd 243f 6dbd bc09 8a3d
00000060: e36f 8b3d df2e 24bd c9d2 d23c c051 bbbc
00000070: 666e a8bc 84aa 6ebd fb3a a0bd 5a19 143d
00000080: 94ea 5ebd 6dfd a93d 3fec 3b3d c77a 103c
00000090: 2d22 973d 5bc9 92bc fa71 7f3c a303 933d
000000a0: da37 91bc 4d08 4d3d 15e4 87bd 915a bfbc
000000b0: d369 6dbd 9e55 863d eae6 683d 7eba abbd
000000c0: ff49 f0bc ddf1 a43b 2210 53bd ad98 1fbd
000000d0: 16dc 763d 3cbd 9e3d ab5e af3d d78e 353c
000000e0: be6b 57bd d2ea 8e3d 08c8 aebc e9e5 463d
000000f0: c993 cdbc eb4b 55bd 8442 023d 6b28 163d
00000100: 9702 98bd 3ff2 b7bd 61d5 53bd d071 3b3d
00000110: 34ae a23c 262c 9fbc dd83 383c 8279 ba3c
00000120: 6aad e1bc 2229 90bd 68c2 743d 577e 9f3c
00000130: b9e0 9c3d c761 95bd f498 74bd 7518 883d
00000140: 305d 94bd 853b b9bc 5514 30bc e6a1 64bd
00000150: 011f 90bb d257 adbd 70f7 d03c aa30 9f3d
00000160: 9a08 2f3d 18b9 b7bd 2834 fdbc 0db6 163d
00000170: 2cfb e4bc 360a ae3d a542 323d edc8 c03c
00000180: 404f 323d 7657 f8bc 42d4 973d 57c1 eebc
00000190: c7a9 3f3d 0946 5b3d 781b b7bc cb52 7a3d
000001a0: f810 11bd 6184 7c3d 4b3c 38bc afaf cabb
000001b0: f93a 493d 3f45 cebb d0fb a2bd e562 9a3d
000001c0: ef0e 0cbd fffc adbd cac3 3c3d 03d4 70bd
000001d0: b30c 6f3d e2ee 293d 9e4c 1bbd 86d7 88bd
000001e0: bd6d 9c3d 1df0 9b3d e36c 4a3d bfa8 11bd
000001f0: 5f63 abbb f8a6 823d 96da c23c 9619 0cbb
00000200: 9cc6 6bbd c6cc 1e3d 559a 233c 3a51 8a3d
00000210: cd9a c4bc 8eea 853d 8cbd 523d 88dc 31bd
00000220: 6465 643d e227 163d 29b9 16bd d776 16bd
00000230: 8b3a 44bd 1e0d a4bc b158 e43b 92ce 9cbd
00000240: de7b 86bd fa69 95bd 970f 613d 8518 edbc
00000250: fd31 ccbc 5311 83bc 02ee 9cbd de05 edbb
00000260: 44d5 a3bd e142 44bd e88b 65bd a3d9 563d
00000270: 81d9 13bc 78dd dfbc a66e e1bc 8ba4 923c
00000280: a940 97bd ad77 8b3d c23f ad3d f452 043d
00000290: 4846 96bd 5211 3abc f348 b53b fb83 bcbd
000002a0: e77f 1dbd deef a1bd ded6 8abd 0d7b f1bc
000002b0: d502 553d 38cd 343c 9114 5b3d 93dc a93d
000002c0: e11a 4f3d 1aac 3abc 26e6 a1bd c546 a13c
000002d0: 97eb 7cbd ba1a ee3c 7cef 8c3d c3e5 30bc
000002e0: e4f9 873d 89b0 5bbd e4ec 4abd bc53 213d
000002f0: 00fa 5fbc 6286 a1bd df40 3abd bc88 843d
00000300: 244e 203d 9df7 c63d 452c 233d 4b6e 3ebd
00000310: 30b2 edbb 298f b4bc 11ce 0ebd a829 9f3d
00000320: d9a8 6fbd 347f 653d 1751 923d 5b4c 44bd
00000330: 74dc 5c3c 36c1 6a3d d973 8f3c 0c7f 593d
00000340: eade 6bbd 3c61 b2bd 6262 533d d617 c73c
00000350: a214 553d ab9b 6c3d c7b9 913d 160d 18bc
00000360: 692f 31bd 045b 9a3d 0221 9abb 0ad4 933d
00000370: 6b7a 07bd 5859 073c 6288 54bd a2c2 193d
00000380: aeed 583d 5ff4 91bd 533e 333c 0b9b 5bbb
00000390: 3560 783d c2b8 a5bc 98c0 883d 671b f7bc
000003a0: 49cd 403d 52ac 93bd bde4 be3c c231 8ebd
000003b0: 85f7 223d 6794 ae3d 71b1 6f3c f42d 9e3d
000003c0: 4ab5 d93c 9ded 343d 42ce cbbb 5f5b 00bd
000003d0: 0b33 423d 7939 ffbb c65a c33b b550 b3bc
000003e0: bbc1 18bc 57e2 3e3d cea2 123d 5fb1 18bd
000003f0: 232f 5d3c 2c2c 773d 0ce6 9cbd 0464 b03c
-0.050760124 -0.027336026 -0.068185635 0.013214358 -0.06667276 -0.048745777 -0.06833809 0.030566728
-0.061072327 0.019067997 -0.013279042 -0.01368978 0.04665003 -0.085204825 -0.040290188 0.05220256
-0.015579379 -0.0779251 0.049555156 -0.05267865 0.012731313 -0.037153915 -0.057921544 0.06740138
0.0680845 -0.040083762 0.025735276 -0.02286613 -0.020560455 -0.058268085 -0.0782375 0.03615699
-0.05442293 0.0830029 0.0458796 0.008818335 0.073795654 -0.01791828 0.015591139 0.07178428
-0.017726827 0.050056744 -0.066353 -0.023358615 -0.05796225 0.06559299 0.05686084 -0.0838518
-0.02933216 0.005033715 -0.051529057 -0.038963962 0.060268484 0.07750937 0.08562978 0.011081419
-0.052592985 0.06978382 -0.021335617 0.048559103 -0.025094884 -0.052074354 0.031801715 0.03665964
-0.07422369 -0.08981752 -0.051717166 0.045762837 0.019858457 -0.019430231 0.011261907 0.022763018
-0.02754851 -0.070390955 0.059755713 0.019469423 0.0766005 -0.0729404 -0.05971618 0.0664529
-0.072443366 -0.022611389 -0.010747035 -0.05581846 -0.004398227 -0.08464016 0.025508612 0.07772954
0.042732812 -0.08970851 -0.03090866 0.03679471 -0.0279518 0.08498041 0.04352059 0.023533309
0.04353261 -0.030315142 0.07413532 -0.029144926 0.04679277 0.053533588 -0.022351965 0.061114114
-0.035416573 0.061649684 -0.011244844 -0.006185494 0.049128506 -0.006294876 -0.07958186 0.07538394
-0.03419393 -0.08495521 0.046085157 -0.05879594 0.05836172 0.041487582 -0.037914865 -0.06681733
0.076381184 0.07614157 0.04942025 -0.03556132 -0.005230352 0.06379503 0.02378587 -0.0021377555
-0.057562456 0.038769506 0.009985526 0.06753774 -0.023999596 0.065388784 0.051450297 -0.043423206
0.055760756 0.03665913 -0.036797676 -0.03673443 -0.047907393 -0.020025786 0.0069685807 -0.07656588
-0.065665945 -0.07295604 0.05494651 -0.028942356 -0.02492618 -0.015999472 -0.07662584 -0.0072333654
-0.079996616 -0.047915343 -0.056041628 0.05245365 -0.009024025 -0.027327284 -0.027518582 0.017900726
-0.0738538 0.06809936 0.084594265 0.032305673 -0.07337624 -0.011356669 0.005532378 -0.09204861
-0.038452055 -0.07907079 -0.06779264 -0.02947762 0.052004654 0.011035256 0.05348641 0.08294024
0.050562743 -0.011393571 -0.079052255 0.019687066 -0.061748113 0.029065479 0.068816155 -0.010796967
0.0663946 -0.053635154 -0.049542323 0.039386496 -0.0136704445 -0.078869596 -0.045472022 0.064713925
0.03913702 0.09715197 0.03983714 -0.046491902 -0.0072539076 -0.02204092 -0.03486449 0.07771617
-0.058510635 0.056029513 0.07144373 -0.04792438 0.0134802945 0.057313167 0.017511295 0.053099677
-0.057585634 -0.08709952 0.051607497 0.024303358 0.05202163 0.057765644 0.07115512 -0.009280464
-0.043258104 0.07536891 -0.004703642 0.072181776 -0.03307573 0.008261047 -0.051887877 0.037539132
0.052961044 -0.07126688 0.010940152 -0.003350916 0.060638625 -0.020229701 0.06677359 -0.030164434
0.047070775 -0.07210602 0.02330243 -0.06943084 0.039786834 0.08524399 0.014629708 0.077236086
0.026575703 0.04417192 -0.006219656 -0.03133714 0.04741196 -0.0077888337 0.005961749 -0.02188907
-0.009323533 0.046602573 0.035799794 -0.03727853 0.013500008 0.06034486 -0.076610655 0.021532066

actor.bias f4 [4]
00000000: 4daf 6abd aaeb af3c 134e 923d 7e18 753d
-0.057296086 0.021474678 0.07143798 0.05983781

critic.weight f4 [1, 128]
00000000: a4bd 163d 0a2b 4abd c985 dd3b 3c59 ebbc
00000010: 5640 94bd c332 ac3d b6be 9abc e11f 2dbd
00000020: 7d74 40bd e3da 9bbd 941c 79bd 039a 56bd
00000030: bcbb 473d 6577 51bc ff17 513d f442 6b3d
00000040: 5e32 cd3c f896 9cbd ee06 83bd 67d3 88bd
00000050: 8f46 57bd e745 b83d 766e 063d 304d 55bb
00000060: 42e3 173d 33c0 96bc d6ec 5d3d bcd2 1dbd
00000070: a6c5 983d 22af 0ebd fb09 83bc 0ec3 a1bd
00000080: d068 a03d 2df8 acbb b5c4 0bbc c84d 8d3c
00000090: ee85 0d3d dac7 0c3d cfd4 b93b 7881 6f3d
000000a0: 244d 393b 3102 7ebd c10e e2bc 51b9 2d3d
000000b0: 38d9 953d 8c4a 233d a890 593c 4277 e43c
000000c0: 942e 6e3c 16ae 51bd c907 e2bb 9593 e0bb
000000d0: 1fa3 a03c 5cae 193b 5411 91bd b5a0 afbc
000000e0: 95f1 3abd f31e a83d 9e7b 6f3d c205 6abd
000000f0: 1382 8e3d 662d e2bc 4bbf 44bd 7842 a1bd
00000100: 2f85 b83d 76ec 593c 52ea 803d a798 c038
00000110: 2ecc 79bd bc68 5e3c 1c68 8d3c b302 3dbd
00000120: b84f 8ebd 23eb 11bd 67b5 36bd 2907 0b3d
00000130: 90d4 92bd 7f98 e33c 4a64 6abd 623e 3c3d
00000140: 02d3 ba3d f4dc 503d 0b05 eeba 1625 8cbd
00000150: 3837 343d 4fcc 94bd 9fa3 42bd c0da 61bd
00000160: aaed 72bd 4cd1 993d edda c63c 0c79 8e3d
00000170: d8e6 113c 7b5d 733c f17a ae3d aee9 af3c
00000180: 4567 763d f683 18bb 2acf 97bd a2fe 82bd
00000190: 42f9 73bd a1e0 ea3c 750b 5fbc cf76 3d3c
000001a0: 21f5 1dbd 02de 3e3d ad8a 863d da80 59bd
000001b0: 7d0e 60bc 09a1 e9bc bc5d b13d 3a5c 90bd
000001c0: 5909 35bd 8542 0b3b 9ce0 3dbc b48d 873d
000001d0: 1b67 8fbc a406 51bc d76c 903d a8c6 1bbc
000001e0: 7541 b33c 251d adbd 970b 6e3d 4a47 47bd
000001f0: 2628 823d 9b7b fb3c e55c 1fbd a068 a2b9
0.03680195 -0.04935745 0.006760333 -0.028729074 -0.072388336 0.084081195 -0.018889766 -0.04226673
-0.046986092 -0.07610109 -0.06081827 -0.05239297 0.04876302 -0.0127848135 0.051048275 0.0574369
0.025048431 -0.076459825 -0.06397806 -0.06680947 -0.052557524 0.08997708 0.032820188 -0.0032547228
0.037081964 -0.018402195 0.054180942 -0.03853105 0.074595734 -0.03483499 -0.01599597 -0.07898532
0.078324914 -0.0052786083 -0.008530785 0.017249003 0.034551553 0.03437028 0.0056711207 0.05847308
0.002827474 -0.06201381 -0.027594926 0.04241306 0.07316822 0.039866015 0.013279118 0.027888898
0.014537472 -0.051191412 -0.0068979007 -0.0068535306 0.019609032 0.0023449874 -0.07083383 -0.021438936
-0.045640547 0.08209028 0.0584675 -0.057134397 0.069584034 -0.027609538 -0.048033994 -0.07874006
0.09009778 0.013301006 0.06294693 9.183707e-05 -0.060985737 0.013574775 0.017261557 -0.046145152
-0.06948799 -0.035624634 -0.044606593 0.033942375 -0.07169449 0.027782677 -0.05722455 0.04595793
0.09122278 0.050991967 -0.0018159462 -0.06843011 0.043997973 -0.07265531 -0.047519322 -0.055140257
-0.059308685 0.07510623 0.024274314 0.069566816 0.008905135 0.01485383 0.08519543 0.021473732
0.06015708 -0.0023272014 -0.0741256 -0.063962236 -0.059563883 0.028671565 -0.013613571 0.011563971
-0.03856385 0.046598442 0.06569419 -0.053101398 -0.013675329 -0.02851917 0.086604565 -0.07048841
-0.044198368 0.0021249366 -0.011589196 0.066188246 -0.01750522 -0.012757931 0.070520096 -0.009507813
0.021881798 -0.084528245 0.05811652 -0.04865197 0.06355314 0.030698588 -0.03890695 -0.00030977

encoder.0.weight f4 [128, 256]
00000000: 2cd1 7dbd d0f2 49bd 1c4c dbbc fa32 72bd
00000010: 0089 68bb 7038 61bd 0032 0b3d 548c f93c
00000020: e85f 413c 2695 463d 6093 c8bb d656 193d
00000030: 0e48 33bd b8ca 49bc ec42 64bd b046 a6bb
00000040: 1217 26bd 4cfb 653d c0d3 313d 28ed 3f3d
00000050: b0de 973c 460b 12bd 4e0b 663d e4cc 79bd
00000060: 1064 23bd cce3 1fbd bc3a d4bc d02e 4c3c
00000070: d4ea 41bd 7c39 45bd f8db f4bc 7e3f 1c3d
00000080: 88a5 38bd fe9a 65bd 9ae0 5dbd 98f2 fbbc
00000090: ec86 86bc 30c9 7dbd 48b6 efbc 4098 9d3a
000000a0: e8cc 283c b0cc 12bc 8036 e8bb 0a8c 26bd
000000b0: 7c26 033d c8af 76bc 1008 2fbd a89a 76bc
000000c0: f80e 0fbc f6b2 6c3d 9e6a 053d 40bd cebc
000000d0: d846 11bc 2838 623d bc76 243d 8851 7f3c
000000e0: aca9 b7bc fe02 553d 385b db3c 3008 e4bc
000000f0: 38ac 353d 70f7 913b 9453 3dbd 00f0 e2bc
00000100: 80ba 3fbd 2e08 54bd 8044 c83a 1875 37bd
00000110: 7e6f 083d 94fa e43c c045 5c3c 70ef 523d
00000120: e440 e8bc 8052 743a fa4d 1d3d b8fa b03c
00000130: 1022 f83b e210 563d 0860 693c aa3e 2c3d
00000140: 169f 5cbd 1299 5cbd 6c10 67bd 60dd 673b
00000150: f83e 593d 3868 5fbd 8cb9 cb3c 4aea 61bd
00000160: e020 2abd 0498 aebc c032 d0bc 803a 973c
00000170: e0a8 56bd e427 7d3d 9048 153c 2c7d b23c
00000180: 92ee 2cbd c046 0d3d 0819 6fbc ccbd febc
00000190: 282d 2e3c 7816 d53c 00e3 d83b 0c21 b3bc
000001a0: 0869 3e3c 301b c6bc 3c58 adbc 1038 bebc
000001b0: e485 183d fcef 32bd 7052 de3c 48b0 043d
000001c0: 4c19 2abd 3072 42bd a87a 2abd a08e 58bd
000001d0: 76ee 563d 94a7 613d 50fa 0ebc e00b 703d
000001e0: 9007 913c 4a23 7bbd 1e3c 6abd ac3b f7bc
000001f0: 1e5b 7fbd 20e3 eabc a079 8a3c 40b6 b7ba
00000200: 1837 3fbc 0094 7b3b 600d 6a3d 8004 323a
00000210: 42b8 003d 88d0 76bc 120c 40bd e04d 483c
00000220: 60cb eb3c 6eda 143d eadd 70bd 6099 07bc
00000230: eca8 76bd 00b8 483a 00da 343b 30a1 a63c
00000240: f0b2 afbc a096 15bc 6041 7b3c 0af8 77bd
00000250: 4cd4 fb3c 2077 773d 102f 36bd c4a5 793d
00000260: 3875 1b3c 6449 7d3d 822f 603d ba2f 5bbd
00000270: 5ab9 403d 401e 0c3b d0c0 813c fccb b9bc
00000280: dc31 4dbd f0fb c33b 0870 8e3c aebd 003d
00000290: 3abc 56bd d8b6 77bd f8a0 f33c 7801 4dbc
000002a0: 00f5 71ba 90d8 84bc 00d6 0739 3814 293c
000002b0: 8e6c 6cbd 84d7 bc3c b03a e13b 8068 ec3c
000002c0: 0836 04bd b84c 3a3d 78b6 2a3d e090 00bd
000002d0: 3626 603d a8c9 033c d602 623d 10b4 683d
000002e0: a098 203c 4098 253c 605a a03c 9c67 243d
000002f0: 68c3 69bd 0013 ce39 c890 743d eec0 34bd
00000300: cc2f 10bd 202b d63b f020 b93c 0a81 093d
00000310: 801a 673b b88f 713c 8402 e8bc d283 723d
00000320: 2cb3 28bd a27a 263d 12f8 0a3d 4094 5f3d
00000330: 1a39 633d 08e8 a9bc 58e0 363d 72d3 3abd
00000340: b886 323d b895 1dbd 0601 2ebd ac40 2dbd
00000350: 9011 793d f047 973c cc67 32bd d00c 40bd
00000360: 40c9 d33b 10de 5cbc b062 853c 3c1d 213d
00000370: deba 21bd 187d 68bd 0002 d33b 6aad 2a3d
00000380: acd4 1b3d 80ec 6aba 1093 88bc 7c3d a33c
00000390: 4000 323d 5284 5cbd 80ea c1bb 428f 413d
000003a0: f83a 453d aa12 6d3d ccb4 c53c b4c8 7c3d
000003b0: 628e 77bd e0ca 413c 5838 133c ec8d 303d
000003c0: 48ef 4b3c f8f5 233d de9f 60bd d0e4 ddbb
000003d0: 1ced bf3c 1a30 243d f892 723c 8867 253d
000003e0: 04f0 9fbc 2052 b0bb 7e30 703d 52ba 2a3d
000003f0: 1ac0 333d 66e0 5dbd 00d0 5cba 507a 5ebd
-0.06196706 -0.04930383 -0.02676969 -0.059130646 -0.003548205 -0.054985464 0.03398323 0.030462421
0.011802651 0.048482083 -0.006121084 0.03743633 -0.04376989 -0.012316398 -0.055727884 -0.0050743446
-0.040549345 0.05614786 0.04341483 0.04685703 0.018538803 -0.035655282 0.056163125 -0.060986415
-0.03989035 -0.039035603 -0.025906913 0.012462333 -0.04734309 -0.048150524 -0.029890046 0.03814649
-0.045079738 -0.056056015 -0.054169275 -0.030755326 -0.016421758 -0.061959445 -0.029261723 0.0012023523
0.01030276 -0.008959934 -0.007086575 -0.040660895 0.032019123 -0.015056558 -0.0427323 -0.015051521
-0.008731596 0.057787858 0.03257238 -0.025236726 -0.008866988 0.055229336 0.040152296 0.015583403
-0.022419773 0.052004807 0.026776895 -0.027835935 0.044353694 0.0044545457 -0.046222284 -0.027702332
-0.04680872 -0.051765613 0.0015279204 -0.044789404 0.033309452 0.027951516 0.013444364 0.051497877
-0.028351255 0.0009320155 0.038404442 0.021603927 0.00757242 0.052262194 0.014244087 0.04205195
-0.053862654 -0.053856917 -0.056412145 0.0035379753 0.053038567 -0.05454275 0.02486875 -0.055155076
-0.04153526 -0.021312721 -0.025414824 0.018460512 -0.052407146 0.06180562 0.0091115385 0.021788202
-0.042219706 0.0344913 -0.01459337 -0.031096362 0.010630883 0.02601169 0.0066188574 -0.021866344
0.011621721 -0.024182886 -0.021160237 -0.023220092 0.037237063 -0.0436859 0.027138919 0.032394677
-0.04152803 -0.04747218 -0.04162088 -0.052870393 0.052473508 0.055091456 -0.008726671 0.058605075
0.017703801 -0.06131295 -0.05718624 -0.030179821 -0.062342755 -0.028672755 0.016903698 -0.0014016107
-0.01167085 0.0038387775 0.05714166 0.00067908317 0.031425722 -0.015064366 -0.04688651 0.012225598
0.0287835 0.036341123 -0.058805384 -0.008276314 -0.06021969 0.00076568127 0.0027595758 0.020340532
-0.021447629 -0.00913015 0.015335411 -0.060539283 0.03074088 0.06041634 -0.044478476 0.060949102
0.009488396 0.06183757 0.054732807 -0.053512312 0.047051765 0.0021380335 0.01583901 -0.022680275
-0.050096378 0.005980961 0.017387405 0.031430893 -0.0524256 -0.060477108 0.029739842 -0.012512557
-0.0009229928 -0.016216546 0.00012954324 0.010319762 -0.057720713 0.023051985 0.006873451 0.028858423
-0.03227809 0.04548332 0.041677922 -0.031388164 0.05472394 0.008043684 0.055178486 0.056812346
0.009802014 0.0101071 0.019574344 0.040137872 -0.05707112 0.00039305538 0.059708387 -0.044129305
-0.035201833 0.0065359026 0.022598714 0.033570327 0.0035263598 0.014743738 -0.028321512 0.059207745
-0.041186497 0.040644296 0.033927985 0.05458474 0.05547438 -0.020740524 0.044647545 -0.045611806
0.04358551 -0.03847286 -0.042481445 -0.042298004 0.060807765 0.01846692 -0.04355602 -0.04688722
0.0064632 -0.013480678 0.01628241 0.03933452 -0.03948485 -0.056759924 0.0064394474 0.041669287
0.038044617 -0.0008961633 -0.016671687 0.019926779 0.04345727 -0.053837128 -0.005917847 0.047255762
0.04815194 0.057879128 0.024134062 0.061714843 -0.06043852 0.011828154 0.008985601 0.043104097
0.012447186 0.040029496 -0.05483996 -0.0067716613 0.023428492 0.040084936 0.014805548 0.04038194
-0.019523628 -0.005380884 0.058639996 0.041681595 0.043884374 -0.05416908 -0.00084233284 -0.054315865

encoder.0.bias f4 [128]
00000000: 1a57 523d 1225 1abd a848 aa3c b097 e2bc
00000010: 40bf bebc 2c42 513d 80a8 58bc 5a5a 293d
00000020: 1092 4dbc d01f 88bb 60b6 973b 30f6 823c
00000030: 821e 42bd 56df 523d 5040 e9bb 3ce6 b9bc
00000040: 54ee 1abd 60ec ffbb 704b d43c 2e24 5bbd
00000050: b0d6 1dbd 669d 73bd 803b 45bd 545a 103d
00000060: ae47 593d 58e4 313d 18b0 1dbc c8de 6a3c
00000070: f0e4 7abd d667 6dbd 5823 17bc f8d4 30bd
00000080: 4a4f 10bd 0442 10bd 30bd e7bc 44be 083d
00000090: 80c1 263b 58fa 9abc 00b3 50bd ac4d ddbc
000000a0: 0c75 e93c 6839 273d 92ea 0abd 2c35 e33c
000000b0: 4828 6b3d 3852 7c3c 50c1 023c 1c7e bbbc
000000c0: f0e2 84bc e61a 0e3d 4a4e 2ebd ac31 91bc
000000d0: 3866 ddbc 7261 19bd 246c c3bc f4cd d63c
000000e0: 76c1 653d e802 fdbc e0ab b6bb be61 3dbd
000000f0: 9034 5b3c f05f debb e0ba 263b 383f 763c
00000100: 20ad 82bb c007 f8bc acbc 463d f006 23bc
00000110: 002d 01bb 827c 5fbd b6b8 64bd f6a7 75bd
00000120: 78db 0cbd f2ca 183d a80c 0bbd dc6e 663d
00000130: 866f 473d 6852 b5bc d817 1c3d a0b7 81bc
00000140: d4da 39bd 3862 56bc 7cee 3fbd d0d2 ed3b
00000150: de61 1d3d 5a32 4f3d 3860 e73c 661c 543d
00000160: c019 303c 6223 013d a0dd 0abc b081 63bc
00000170: 1e3d 40bd 4e2e 713d f0e7 753d f0c1 19bc
00000180: d036 c3bb e08e 5c3d 5807 783c 6a2f 723d
00000190: 7c58 f3bc 0203 6abd 0809 683c f0e4 693c
000001a0: 18e6 31bd 2869 bb3c 18e4 703c c48d bbbc
000001b0: c04d bbbc c823 2abd 0c07 59bd b824 5a3c
000001c0: 3c73 20bd 280c 873c 7098 f43c 00f0 4eba
000001d0: d82a a13c 40a1 a53a a830 fe3c aed9 6bbd
000001e0: a028 613d a23c 55bd c225 623d 403a 25bd
000001f0: bee5 3fbd fce4 573d 047c 41bd ccbe a03c
0.051352598 -0.03763301 0.020786598 -0.02766022 -0.023284554 0.051088497 -0.013223767 0.04134593
-0.012547031 -0.004154183 0.004629895 0.015986532 -0.047392376 0.05148252 -0.0071182624 -0.022692792
-0.037824944 -0.0078101605 0.025914878 -0.0535013 -0.03853482 -0.05947628 -0.048152447 0.035242394
0.053046875 0.043430656 -0.009624504 0.014335342 -0.061253488 -0.057960354 -0.009224735 -0.043171853
-0.035231866 -0.035219207 -0.028288454 0.033384576 0.0025444925 -0.018918201 -0.050951958 -0.027014576
0.028498195 0.04082623 -0.03391511 0.027735315 0.057411462 0.015400462 0.00798066 -0.022887282
-0.016221493 0.03469362 -0.04255513 -0.01772388 -0.02702628 -0.037446447 -0.023855276 0.026221253
0.0560927 -0.030885175 -0.0055746883 -0.046235792 0.013379231 -0.006786339 0.0025440976 0.015029721
-0.0039879233 -0.030277133 0.048519775 -0.0099503845 -0.001971066 -0.0545621 -0.055840217 -0.059974633
-0.03438899 0.03730292 -0.033947617 0.056258067 0.04869034 -0.02213402 0.038108677 -0.01583463
-0.045374706 -0.013084941 -0.046858296 0.007257797 0.03842341 0.05058513 0.028244123 0.051784895
0.010748327 0.031527884 -0.008475691 -0.0138859 -0.046933286 0.05888205 0.060035646 -0.009384617
-0.005957462 0.053847194 0.01513847 0.05912725 -0.029705279 -0.057131775 0.0141623095 0.014275774
-0.043432325 0.02287729 0.014702819 -0.022894748 -0.022864223 -0.04153803 -0.052985236 0.0133144185
-0.039172396 0.016485289 0.029857844 -0.0007894039 0.01967375 0.0012636557 0.03102906 -0.057580642
0.054970384 -0.052059777 0.05521179 -0.040338755 -0.04684996 0.05270861 -0.04723741 0.019622229

encoder.2.weight f4 [128, 128]
00000000: da5f 6fbd 4e90 883d 420b 933d 563b 513c
00000010: 482a c03c 5254 1c3d f034 6dbd 08c0 013c
00000020: 5de8 263d b648 e53c 38cb 7a3c 61b6 9f3d
00000030: acd9 383d 9ca4 a7bd 528b 72bd d9eb 893d
00000040: 3a3b 8fbd 46c0 92bd 04a0 89bd ab20 513d
00000050: 93a8 40bd b93c a0bd 6d27 9fbd 690a 1d3d
00000060: 7634 653d 9514 c43c d438 47bc a2d4 8cbb
00000070: 6909 293d a166 573d 6aa6 e73c 029b 463c
00000080: 2b78 43bd 36c0 203d 6de7 7abd cdb9 1ebc
00000090: 3579 9f3c 4480 84bb 6ae7 98bd 4cd8 6c3d
000000a0: 65fb 4b3c d1a6 8a3c bef4 cf3b c997 a4bc
000000b0: a814 963d a4f7 243d 412e 6dbd 3a1c ea3c
000000c0: 0947 2e3d 394a 6cbd 49dd 753d 38a7 05bd
000000d0: 2d1e 3fbd 17b8 9fbd b621 93bd 2d44 8dbd
000000e0: d144 8d3d ede2 6ebd 37e2 423d 40d4 7fbd
000000f0: 2106 af3c 18df 93bc e3bf f53c 63c8 9e3d
00000100: 94cc 083d 7fa9 8f3d f85b 8abd d982 133d
00000110: 9d49 81bd a314 e83c 41e5 683c ec9d c7bc
00000120: fe97 af3d 93a0 883c e178 4f3d bc6c 323d
00000130: 4c91 31bd f2a0 003d 6f0d 8cbd 64d0 3fbd
00000140: d79a efbc cf01 a53d c20c 4dbd cf89 d9bc
00000150: 3ed7 81bd 1d21 aa3d f904 3dbd 5745 b3bd
00000160: 65ff 573c 4514 73bd 65ff 53bd d41a a83c
00000170: 16f6 bb3b 6368 a8bd 1dd1 843d 0e36 b43d
00000180: 4305 bdbb a58a a3bb adbc 09bc 938d b1bd
00000190: e182 013d 7c0e 373d 8656 963d dcaa 253d
000001a0: e00c 6fbd 1b59 88bd 195c b23d 0baa 82bd
000001b0: 5768 d7bc 5db5 c3bc fe4b 24bd 4a7c b33d
000001c0: c9a6 adbd 71a9 aa3d efe5 9e3d fa6d 113d
000001d0: 4b5a 71bd 37e0 a73d 8d1f abbd 0099 5f3d
000001e0: 4d76 bfbc 1e6f 873d 1b97 cdbc 5cf9 ba3c
000001f0: 9b82 a63c 774d 80bd 7a14 5cbd 3b37 4cbb
00000200: e3da 583d ba21 c0bc 5572 673c 5f7c 333d
00000210: fe3e d8bc 0bee a63c 07ff 213d 46b7 a83d
00000220: ac25 143b 272e 3dbd 4ca8 753d 875d a53d
00000230: 4586 62bc 31ba 4e3d dbab 84bd c3e2 263d
00000240: 00c9 da3c 1736 6abd fef0 4cbd 7457 323c
00000250: 28bd 30bc 3d69 7a3d 93af 19bd 8a04 85bd
00000260: bef6 683d d31f 1bbc 4dac ccbc e3dd 6ebc
00000270: 5e23 5d3d b989 e5bb 7a95 153d 0503 b23d
00000280: 1ec2 a1bb 8334 abbb c164 953c 46e9 66bd
00000290: a839 efbc 6027 663d 23d9 263b f9a1 933c
000002a0: 875b 0dbd cb87 343a df61 563c 8033 a73d
000002b0: ad67 963d 9815 cdbc 8b22 86bd e2ab 65bc
000002c0: a8cd 9fbd 0e25 8bbc cc9f aa3c 10a0 c3bc
000002d0: ac66 97bd 78ec f73c dd4f f7bb 4bdd 933d
000002e0: 4ce9 cbbc 4130 b23d ab94 f0bc b6e3 e33c
000002f0: 5010 383d 574b 6e3d 8b08 c33b f3d0 8fbd
00000300: 3562 59bd c183 633d 9452 35bd 795a 10bd
00000310: fc52 b13d 4257 973d 60d2 263d c4a1 213a
00000320: 9782 57bb 7741 963d fdc6 75bd 6c40 b33d
00000330: 2921 a13d e934 b4bd 8862 a93d faac 8fbc
00000340: 150e 8a3b 1ece 903d 1949 633d f0c5 febb
00000350: 7b29 6b3d f32e 8c3c 4dd2 c13c fd73 9ebd
00000360: 0353 b4bd 8cf1 8abc d58c 9a3d b34c 203d
00000370: 3e60 7dbd 78e2 40bd 6396 c73b 64c6 453d
00000380: e3e8 0abd 1905 17bd 665b 5a3d 862a 33bd
00000390: 0273 1fbd 3d89 2e3c f54e 8a3d 2593 b0bd
000003a0: 00cb 603c 4f18 133c bbf6 5e3d 77df 4fbd
000003b0: b911 3dbc 3b48 b4bd ddf1 1e3d c9ed 8f3d
000003c0: 1475 9b3d 1877 24bd e6d7 8dbd 1459 34bc
000003d0: 7841 213d d0f7 883c d3eb 5c3d 0b62 423d
000003e0: bdfe 803d 608d b1bd 6728 f2bc dc2d 1a3c
000003f0: 2321 803d f864 27bb 16d7 e0bc 9cc3 a43d
-0.05844102 0.06668149 0.07179882 0.012770494 0.023457661 0.03816635 -0.057911813 0.007919319
0.040748943 0.027988773 0.01530724 0.07798458 0.045129463 -0.081856936 -0.059214897 0.067344375
-0.069937184 -0.071655795 -0.06719974 0.051056545 -0.047035765 -0.07824082 -0.07771192 0.038340006
0.055958234 0.023935596 -0.012159545 -0.0042978087 0.04126874 0.05258811 0.028277595 0.012121918
-0.047722023 0.039245807 -0.06125586 -0.009687853 0.019466976 -0.0040436108 -0.07466014 0.057823464
0.012450074 0.016925247 0.006346314 -0.020091908 0.073281586 0.04027523 -0.05790544 0.028577913
0.042548213 -0.05768797 0.060025487 -0.032630175 -0.046659637 -0.07798784 -0.07184164 -0.06897769
0.06897891 -0.058321882 0.047579017 -0.062458277 0.021365227 -0.018050715 0.029998725 0.077530645
0.033398226 0.07014751 -0.06755823 0.036013458 -0.06312869 0.028330153 0.014214815 -0.024367295
0.08573912 0.01667813 0.05065239 0.04356073 -0.043351457 0.03140349 -0.068385 -0.046829596
-0.029248638 0.080569856 -0.050060995 -0.02655497 -0.06339882 0.08307097 -0.04614732 -0.0875346
0.013183449 -0.059345502 -0.051757235 0.020520605 0.005736123 -0.08223035 0.06485198 0.087993726
-0.0057684495 -0.004990893 -0.0084068 -0.08669581 0.031618956 0.044691548 0.07340722 0.040446147
-0.058361888 -0.066576205 0.087089725 -0.06380089 -0.02629487 -0.023890192 -0.040111534 0.08763941
-0.08479077 0.083331 0.077587 0.035505272 -0.058924 0.081970625 -0.08355627 0.05458927
-0.02337184 0.06612991 -0.025096467 0.022823982 0.02032595 -0.06264775 -0.053730465 -0.003116085
0.05294312 -0.023453582 0.01412638 0.04381978 -0.026397225 0.02037718 0.039549854 0.08238082
0.0022605462 -0.046186592 0.059974954 0.080744796 -0.013825958 0.050470535 -0.06478091 0.0407436
0.026707172 -0.05718049 -0.050034516 0.010885108 -0.010787286 0.06113552 -0.037520956 -0.064950064
0.056875937 -0.009468037 -0.024984503 -0.014579269 0.053988807 -0.007004943 0.036519505 0.08691982
-0.0049364707 -0.0052247657 0.01823652 -0.05637481 -0.029202297 0.056189895 0.0025459013 0.01802157
-0.034511115 0.000688669 0.013084858 0.0816412 0.07343993 -0.02503471 -0.06549557 -0.014018031
-0.07802898 -0.016985442 0.02082815 -0.023880035 -0.0739263 0.030264124 -0.0075473622 0.07219943
-0.024891518 0.0870061 -0.029367765 0.027818542 0.04493743 0.05817732 0.005951946 -0.07022276
-0.053072173 0.055545572 -0.044268206 -0.03524253 0.08658406 0.0738969 0.040727973 0.00061657676
-0.0032884234 0.07336705 -0.060004223 0.08752522 0.07867653 -0.08799154 0.082707465 -0.017538536
0.0042131045 0.07070564 0.055489633 -0.007775061 0.057412606 0.01711223 0.02365985 -0.07736967
-0.08804896 -0.016960882 0.07546393 0.039135646 -0.06185936 -0.047090977 0.0060909255 0.048284903
-0.033913504 -0.036870096 0.05330982 -0.043741725 -0.03892804 0.010652837 0.06753341 -0.086218156
0.013720274 0.008977964 0.05443452 -0.050750222 -0.01153987 -0.08802839 0.038804878 0.07027776
0.0759069 -0.04015264 -0.06925945 -0.011007566 0.039369076 0.016719729 0.053935837 0.047456782
0.062985875 -0.08669543 -0.029560281 0.009410348 0.0625632 -0.002554236 -0.027446311 0.08045122
