checkpoints/rnd/seed3/final.pt (torch, 798559 bytes, 15 tensors)

fc1.weight f4 [256, 256]
00000000: e970 a03d ed60 b9bc 87c1 2ebc ed2b 733d
00000010: d724 e53c 4128 babc 396e 4ebb c956 5bbb
00000020: a863 893c df92 1dbd 752c 18bd 25e8 e8ba
00000030: 53b5 9cbc edbc 8b3c 4e3f 39bd ca04 463d
00000040: 01bd 5fbd db43 46bc 6dc3 383d fc0d 303d
00000050: 4b4a 2d3d 3f93 6ebc 9f86 3ebd 2217 10bc
00000060: 3d50 86bd 8346 8dba f0ea 1abc b995 04bd
00000070: b644 46bd 6249 f7bb 3acc d83c 9e01 363d
00000080: 1838 f9bc aebc 723d 024f 573d b6ef 52bd
00000090: 1891 293d 0216 7d3c 86af b63b fb4d 60bd
000000a0: 61ea 923c 4efb 4cbd 94e4 7d3c 9a1e 64bd
000000b0: 683c 16bd e6fc eb3c 3de8 483d 7c26 2cbd
000000c0: 006e af3c 768a f5bb e4fa 05bd e26e 483d
000000d0: 7226 513d 2ed7 61bd d9dc 4bbd 2234 843d
000000e0: bb3b a3bc fbcc 4c3d 6017 61bc 3883 173c
000000f0: 4996 b8bb cdd7 bb3c bd93 5b3d 5415 83bc
00000100: 1c15 4bbd e6d8 883d 3a24 a33c ca41 2a3d
00000110: b242 c93a b004 e339 cc07 433d 9e35 833d
00000120: f81b 49bd 7d93 843d f3ec 4bbc 66ac 803d
00000130: d70b 9e3c 5e9b 983c a7f0 b1bb 9ef9 ee3c
00000140: db9d 593c 2866 19bd 5a33 723d 4728 0c3d
00000150: df59 543d 39f9 9cbb b28e 8dbc d65f de3c
00000160: ba9a 33bd dbba fbba e814 7b3d c2b8 3ebd
00000170: c30b 6a3c 8a3c 793d 6608 83bc 847d 44bd
00000180: 827a bf3c 5b3c 873d 08fd 233d 6c81 47bd
00000190: 13ad a0bc 2d51 11bc 6e4b f43c db72 59bc
000001a0: cca3 19bd aafe 0ebd 7602 0abd 4244 7d3d
000001b0: 48a9 36bd 9892 22bd ad04 30bc 0226 ae3c
000001c0: c32c 5abc de1f 233d 4ad6 1e3d 45ab 30bc
000001d0: d982 2bb8 58f3 febc 85df 41bc 918d 803c
000001e0: 16dc f83c 826e 01bd 10e4 03bd b641 e63c
000001f0: fe86 04bd ca45 ce3c 752a 1abc 760b d73c
00000200: fe86 273d cb2b 93bc 2f42 643d fdfd 523d
00000210: 1c7c 323d c5f1 4b3d d40a 873c 8437 32bd
00000220: 4cdc 3fbd b222 1fbd 0667 f5bb eadf 9cbc
00000230: 4dbf 5e3d 9665 a5bc 620b 2e3d 1f8c 733c
00000240: 00d8 323d 3119 453c 1109 163c f7a6 e03c
00000250: cb5e 3abd 9bda 24bd 46fd f3bc 553b be3b
00000260: 5126 463d be86 d8bc b57f fa3c deef 4c3c
00000270: 2ea4 6f3b bd19 49ba a2de ff3c 8156 ab3c
00000280: ff00 e8bc 8d64 40bd 4d1f 7dbc 0faf 873d
00000290: 4440 9e3b 24a3 56bd fb6b 26bd 945a 4abd
000002a0: 003f b33b b5c0 a9bc 6337 28bd 2e2a 193d
000002b0: 243c 38bd 0a40 2ebd 142e 7dbd fa1e 36bd
000002c0: f89d 123c e0e0 7fbb 14c7 f83c 6b59 de3c
000002d0: 121f 343d e837 553c a848 cbbc f0b9 35bd
000002e0: 5229 303d 4088 8abb d49f c13c 20cd 313b
000002f0: 0e76 3ebd 420d 653d 82bd 073d 0660 493d
00000300: 38e8 a83c 40f7 02bc cc7b d83c 50f0 03bd
00000310: 40d4 4c3c 7550 d5bc 5013 173c 0ae7 573d
00000320: d254 4d3d dab6 41bd b8ff 82bc a2c8 16bd
00000330: a046 263c 28d7 6c3c 1a0d 48bd 402b b13a
00000340: 9604 573d be9a 0dbd 7333 8a3c a46f fe3c
00000350: f0a5 af3c b449 f63c d638 423d ca50 59bd
00000360: 3960 19bb 44c8 1dbd 004a 87ba 4051 b2bb
00000370: 6640 173d 77ec 983c 1873 f83c 8a3f 5abd
00000380: 1d58 afbc 20e1 a73b 4e4e 7b3d fe84 62bd
00000390: 7a35 6fbd e0aa 433c 88ba 35bd 0886 fb3c
000003a0: bd0f 433a eeb5 393d b0a8 68bd 44a4 acbc
000003b0: 60f8 4a3c 6828 9fbc 0896 26bc 7025 2f3c
000003c0: 4c78 eebc 5c29 f0bc f86d 95bc 4810 b3bc
000003d0: 9293 343d 88e3 433d 1027 f6bc 7818 2cbc
000003e0: 7e29 53bd 1c15 09bd b4c6 69bd 100c 8e3c
000003f0: a8c6 6ebd 80ec 243c 5ac7 3dbd 10ca b63b
0.07834036 -0.022629226 -0.010666258 0.059368063 0.027971668 -0.022724273 -0.0031498803 -0.0033468476
0.016771153 -0.038470145 -0.037151773 -0.001776938 -0.01912943 0.01705786 -0.045226388 0.04834441
-0.054623608 -0.012101139 0.045108248 0.042982087 0.04230718 -0.014561473 -0.046515103 -0.008794578
-0.06558273 -0.001077846 -0.0094554275 -0.03236935 -0.04840537 -0.0075465897 0.02646457 0.044435136
-0.030422255 0.05926197 0.052565582 -0.051498137 0.041398138 0.015447142 0.0055751232 -0.054761868
0.017934026 -0.05004435 0.015496392 -0.055693246 -0.0366787 0.028807115 0.049049605 -0.04202889
0.021414757 -0.0074933125 -0.03270997 0.04893387 0.051062055 -0.055136852 -0.049771164 0.06455256
-0.019925943 0.050000172 -0.013738483 0.009247594 -0.0056331498 0.02293005 0.05360769 -0.016001381
-0.04958068 0.06681995 0.019914735 0.041566648 0.001535496 0.00043300306 0.047614858 0.06406711
-0.04909894 0.06473444 -0.01244663 0.062828824 0.019292755 0.018628772 -0.0054302993 0.029171761
0.013282265 -0.03745094 0.059131004 0.0342181 0.05184352 -0.004790452 -0.017279956 0.027145308
-0.04384873 -0.0019205468 0.061299235 -0.046562918 0.014285031 0.06084875 -0.015995216 -0.047971264
0.023373846 0.06603309 0.04003623 -0.04870741 -0.019613778 -0.0088694515 0.029821124 -0.013272013
-0.037509724 -0.034910835 -0.033693753 0.061832674 -0.044595033 -0.039690584 -0.010743302 0.021258358
-0.013316336 0.039825313 0.03877858 -0.010783021 -4.089144e-05 -0.031121895 -0.011833076 0.015692504
0.030378383 -0.03159953 -0.03219992 0.028107505 -0.0323553 0.025179762 -0.009409537 0.026250582
0.040900223 -0.017965218 0.05572718 0.051511753 0.04357539 0.049791116 0.016484655 -0.043509975
-0.04684095 -0.038851447 -0.007489088 -0.01914974 0.054381657 -0.020190042 0.042491324 0.01486495
0.043663025 0.012029932 0.009157435 0.027423365 -0.045500558 -0.04024754 -0.029783856 0.005805413
0.048376385 -0.026431438 0.030578474 0.012508361 0.0036566365 -0.0007671377 0.03123409 0.020915272
-0.028320787 -0.046970893 -0.015449357 0.06625187 0.0048294384 -0.052401677 -0.040630322 -0.04940279
0.0054701567 -0.020721773 -0.041068446 0.03739374 -0.04497923 -0.04254154 -0.06181152 -0.044463135
0.0089487955 -0.0039043948 0.030368365 0.027142247 0.043974943 0.013013817 -0.024814919 -0.044366777
0.043008156 -0.004227668 0.023635782 0.002713032 -0.046499304 0.055920847 0.033139713 0.04916384
0.020618543 -0.007993519 0.026426218 -0.0322116 0.012501776 -0.026039341 0.009220913 0.05271057
0.05012972 -0.04729352 -0.015991077 -0.036812432 0.010148674 0.014455594 -0.04884062 0.0013516918
0.052494608 -0.0345714 0.016870236 0.031059094 0.02144143 0.030064441 0.047417484 -0.053055562
-0.00234033 -0.038521066 -0.0010321736 -0.0054418147 0.03692665 0.018667443 0.030328318 -0.05328325
-0.02140432 0.0051232725 0.061353974 -0.055302612 -0.05840061 0.011942595 -0.044367343 0.03070356
0.0007441005 0.045339517 -0.056801498 -0.021074422 0.012388319 -0.019428447 -0.010167606 0.010690078
-0.029110096 -0.029316597 -0.018240914 -0.02185835 0.044086047 0.047824413 -0.030047923 -0.010503881
-0.051553242 -0.033467397 -0.057074264 0.017339736 -0.058294922 0.010066152 -0.046332695 0.005578287

fc1.bias f4 [256]
00000000: b5cb e5bc 4a02 6dbd acd4 4e3a 689e 2d3c
00000010: 0e8a 13bd 9244 66ba 3cee 8e3c 7c1f 82bd
00000020: 12aa 073d 692f 85bc 2ea9 c5bc d035 eb3c
00000030: 6c29 d7bc b912 21bd 3559 6ebd 300c c03b
00000040: 80d1 883c a615 563d f2d7 f83b d4d7 ba3b
00000050: 6007 c6bc 87bf 54bd 5b6a 24bd ad06 08bd
00000060: 2cf0 71bc 43b8 3c3d 99c1 0b3d 2523 6a3d
00000070: bf69 e63c 4e96 e73c 1075 20bd 7e2c 58bc
00000080: d6d3 f5bc e39a bdbb 5de0 683d a823 a5bc
00000090: a331 093c 7b99 b1bc cbb3 6b3d 00bb b0bb
000000a0: bf0b 163d af63 fcbc bde7 543c 2dbe 83bc
000000b0: 1823 183c a886 5cbd 212b 74bd 36ca 28bd
000000c0: 6dfc e73c 19c8 293c 5e9b 913c 9f38 25bc
000000d0: b376 a7bc 50de ee3c b761 acbc ec59 983b
000000e0: f036 493c 759b 82bd 081b 24bb 533e 89bc
000000f0: 0a14 5f3d 93ac 313d 4e63 62bd 613e ddbb
00000100: f605 5d3d 311b 173d 8543 cbbc e06f 4bbb
00000110: 6dbf 5c3d ad2c f53c c909 4ebd 22d0 fd3c
00000120: 040b 41bd 29cb 943c 0e3d 603d aa91 54bd
00000130: 5031 cc3c ff59 8b3b 3518 4bba 8281 e0bc
00000140: 515a 56bd 7c4f 7a3d 8704 903c b393 603d
00000150: b2cb 88bd 5c35 00bd 6785 883d 669b 6bbc
00000160: eed3 2e3d 8ea4 bc3c b81c a63c 7ff2 443d
00000170: b084 343c 19b1 36bd 691e 72bd e0d0 83bb
00000180: 44d3 e0bc b557 ce3c 2eca 94bb 3700 503d
00000190: fa73 713d 70bf 13bc c6b4 4dbd d862 0dbd
000001a0: 0f43 ecbc 4a14 763d f565 5e3d 9c27 aa3c
000001b0: 5869 b73c 2341 b4bc d4ec 43bd f37e 58bc
000001c0: eb84 3b3d 185f 82bc d6df 453d cb14 eebc
000001d0: 7e3a bc3b dd6c 523c e0c9 ecbc c5ef b0bc
000001e0: 9fee 423c fe16 1d3d bc0d 2e3d 5ed4 3abd
000001f0: 06d0 bbbc e12e 103d 9e9b 183d 2af0 cbbc
00000200: d2d9 4fbd b241 67bd ca24 4d3d 44e1 593d
00000210: a751 f8bc f9fd 343c 1380 703c 4685 f7bc
00000220: 6f95 253d 8420 3cbd 02d1 213d 6634 0f3c
00000230: 6087 26bc 118c 893c 5239 463d c70f 0bbd
00000240: a72f 41bd dc65 56bd 573d efbc b9df 773d
00000250: 3d88 82bd 14fd 41bb 79c3 babb 68b1 1d3d
00000260: bde7 47bc 0bee 9e3c 656a ad3c 581a 58bd
00000270: d08c 33bd 4c89 3a3c dd4a 0abd cc83 15bd
00000280: e407 58bd 0951 673d 4b2e 41bd 74c6 053c
00000290: 06a9 51bd 8cc5 7d3d 6be7 153d 1c1e 06bc
000002a0: 880e 3f3d f02f 0fbd 42ae 3f3d 2b37 933c
000002b0: 3d65 51bd 45f9 1bbd a39e 483d 4d99 433d
000002c0: 0a4b a9ba aea4 d73c 7417 6dbd 7815 663d
000002d0: 57ac 0fbd a315 403d a56d e0bc 4577 21bd
000002e0: ec0b fe3c ee4d 07bd 91d0 713d 26b9 b13b
000002f0: 08f0 4c3d 3bad dd3b 86ec fe3c 54f7 c7bc
00000300: 5ede 21bd 8d08 63bd 896e afbc 3c2a 9dbc
00000310: 7347 1bbd c05c ebba 8c7e 563d 7dda 603d
00000320: f3e3 7dbd 1298 813d 82ce 593d 98d3 313d
00000330: 99a4 053b 44d5 863d 5831 933c 9040 84bb
00000340: 3fb1 1fbb e7b7 73bd 7098 823d d074 dd3c
00000350: a866 5cbd df00 923c 4ed7 b23a 329c 16bd
00000360: ea2e 7bbd 8a05 84bc 06c9 7a3d 24a2 213d
00000370: f042 ec3c 98b1 433c d78b 103c 51f1 193d
00000380: d82d 74bd dfcf 113d 8e8c 123d fe22 7dbd
00000390: ff45 083d 2b3d 31bd b8b2 61bd 1241 33bd
000003a0: 504a 0ebd 2870 113d b22d 4f3d 2f30 1fbd
000003b0: 1bd9 293b 00f8 6a3d 955a 2fbd e699 48bd
000003c0: f7df 9e3c 6675 1e3c fcb3 ddbc ce92 00bd
000003d0: d2a0 82bd 804a 533a 410f 623d 8a06 6cbd
000003e0: ae3d e9bc e5f9 d6bc 7fbc 893c fe1c 7cbd
000003f0: 18e2 8abc 7423 d03c a60b 71bd 7844 33bb
-0.028051237 -0.05786351 0.0007889967 0.010596849 -0.03602033 -0.00087840215 0.017447583 -0.063536614
0.033121176 -0.016257958 -0.024128523 0.028712183 -0.026264869 -0.039324496 -0.058190543 0.005860828
0.01670146 0.05226674 0.007594102 0.0057019982 -0.024173439 -0.051940467 -0.04014049 -0.03320949
-0.014766734 0.046074163 0.034120176 0.057162423 0.028126596 0.028269913 -0.03917414 -0.0131942015
-0.030008238 -0.005786286 0.056854594 -0.020158604 0.008373651 -0.02167963 0.05754451 -0.005393386
0.036632296 -0.030809252 0.012994704 -0.016081894 0.009285711 -0.053839356 -0.059611443 -0.04120847
0.028318608 0.010362648 0.01777428 -0.0100843 -0.020442342 0.029158741 -0.021042688 0.0046493914
0.0122811645 -0.06377307 -0.0025040526 -0.016753351 0.05446247 0.04337747 -0.055270486 -0.006751821
0.053960763 0.036891166 -0.02481247 -0.0031042024 0.053893495 0.02992853 -0.0503023 0.030983035
-0.047129646 0.01816328 0.054745726 -0.05189673 0.024925858 0.0042526717 -0.00077474426 -0.027405504
-0.052332226 0.06111096 0.017580284 0.054828357 -0.06679477 -0.031300887 0.066660695 -0.014380312
0.04268258 0.023027685 0.020277366 0.048082825 0.011017963 -0.044602487 -0.059111033 -0.0040227026
-0.02744449 0.025188306 -0.0045407033 0.050781455 0.058948494 -0.00901781 -0.050221227 -0.034518093
-0.02884057 0.060077943 0.054296453 0.02077084 0.022389099 -0.022003716 -0.04783328 -0.013213861
0.045781057 -0.015914485 0.04830917 -0.02906265 0.0057442775 0.012843338 -0.028904855 -0.021598706
0.011897712 0.038352005 0.042493567 -0.045612685 -0.022926342 0.035200957 0.037257783 -0.024894793
-0.05074484 -0.056459136 0.050083913 0.053193346 -0.030312372 0.01104688 0.014678973 -0.030214917
0.040425714 -0.045929447 0.039505966 0.00874052 -0.010164112 0.016790422 0.04839451 -0.033950593
-0.047164585 -0.052343234 -0.029204054 0.060516093 -0.06373642 -0.002960031 -0.0056995717 0.038499266
-0.012201247 0.019400617 0.021168897 -0.0527595 -0.04383546 0.011385273 -0.0337628 -0.036502644
-0.0527419 0.056473766 -0.04716329 0.008164991 -0.051186584 0.061955974 0.03659765 -0.00818589
0.046644717 -0.034957826 0.046797045 0.017970642 -0.05112194 -0.03807952 0.048979413 0.04775362
-0.001291604 0.026323643 -0.057883695 0.056172818 -0.035076465 0.046895634 -0.027396033 -0.039420385
0.031011544 -0.033033304 0.059036795 0.0054236827 0.0500336 0.0067650354 0.031118643 -0.024409927
-0.039518707 -0.055428077 -0.021415012 -0.019185178 -0.037909936 -0.0017956719 0.05236678 0.054895867
-0.061984967 0.06327833 0.053175457 0.043414682 0.0020392297 0.06583646 0.017967865 -0.0040360168
-0.0024367122 -0.059501555 0.063767314 0.02703324 -0.053808838 0.017822681 0.0013644488 -0.036770053
-0.061324038 -0.016115922 0.061226867 0.03946127 0.028840512 0.011944197 0.008822403 0.037583653
-0.059614033 0.035598632 0.035778575 -0.06180095 0.03326988 -0.043271225 -0.05510208 -0.043763228
-0.03473884 0.03550735 0.050580688 -0.03886431 0.0025916758 0.057365417 -0.042810995 -0.048974894
0.019393904 0.009671545 -0.027063362 -0.031390004 -0.0637833 0.00080601126 0.05519033 -0.057623424
-0.028471794 -0.026242206 0.016813515 -0.061551087 -0.016953513 0.02540753 -0.058849 -0.0027354043

fc2.weight f4 [128, 256]
00000000: 855f 3abd 4c23 38bd 6a56 033d 6033 79bb
00000010: 2dac f33b 7275 68bd c0e3 aabb fac0 06bd
00000020: 000d 92bb cd08 4abd 87af fe3c 50b1 283d
00000030: 13ce 213c ed99 553d 7cb1 913c 809b 7abd
00000040: 959e 25bd cbe0 1dbd 88ff abbc 637b 263c
00000050: dd1f 58bd a4de 84bd eee6 fabc 2ab4 26bd
00000060: 0845 dc3c 86c1 223d 1fb7 243d 1824 773d
00000070: f277 153c 0532 f8bb c966 4b3d ed94 aabb
00000080: b4f2 2cbd 3aba de3c c909 043d d1b0 af3c
00000090: 895e 253c e679 56bd 4359 4d3c 00f1 6ebc
000000a0: ef10 3b3d 0a18 df3c 2adf 563d c0ac 5dbd
000000b0: 52ca 51bd fe69 91bc ccda 79bc d0ad 8b3b
000000c0: e281 aa3c 487c 86bd 4888 ef3c 6a79 0abd
000000d0: f327 6fbd 21d7 29bc 0f32 83bd 8f70 0fbd
000000e0: 7caf 603b fdec 44bd 5f83 1c3c d401 1fbd
000000f0: 983e 713d 0155 83ba 667b 283c 7f64 2fbd
00000100: 6c43 3ebd ff23 283d ab27 903c 60aa b33c
00000110: 0695 dc3c 20f8 76bd 7924 1dbd f524 80bd
00000120: da7d 64bc 1a92 debc b74a 1e3c f0b3 c7bc
00000130: 58ed 1f3c d23b 80bd 9576 09bd 1f93 603d
00000140: 91e6 5fbd 74bf f6bc 9c55 71bd 7432 ab3c
00000150: dd31 e4bc 64a1 403c 5269 493d 774d 0c3c
00000160: daa7 d13c 0895 e83b 2c58 bd3c 2fc4 673c
00000170: 6ab9 5c3d 60cf 0bbd ca0a 8a39 e914 bc3c
00000180: 3b73 08bd 083c 2abd f51d 4c3d 33a8 6f3d
00000190: 514b 57bb 8c3f 953c d4de 393d c8b5 93bc
000001a0: 6e69 a93c 884d 75bd 059f 053d 9999 07bd
000001b0: d063 fd3b 2570 5a3d 6acc 7ebc 540c 443c
000001c0: c756 7cbc c439 a13b 6e05 f2bc 09df ddbc
000001d0: 9e15 c53c e01d 313c f6a8 263d 9e43 373d
000001e0: 36f7 46bd f582 64bd 3128 6b3d 94b8 02bc
000001f0: d28b 06bd 9055 3d3d 31e6 ee3c 0744 4ebd
00000200: 10e4 e63c b1a2 ce3c ce81 0a3d d25b 5d3d
00000210: aff5 b73c b438 11bc 3fb1 273d 0647 17bd
00000220: 8819 073d 76e1 0f3d 096b 8ebc b0b5 afbb
00000230: 6a9e fc3b 672a 543c 7965 81bd 507f 43bd
00000240: 7cd5 153a 84ab 2f3d 4a78 07bd 3255 c6bb
00000250: e619 363d 5d34 7cbd 02d3 4bbd 8124 7d3d
00000260: 7742 163d 69c0 dbbc 1503 e0bc de5d cbbc
00000270: 3fdb 083d e0bc 553d 884a 28bd c21a 453d
00000280: 0090 b8bc 2e74 df3c b6df 53bd 748f 4d3d
00000290: e242 1fbc 4088 5dbb a86f 48bd 8c85 353c
000002a0: 5306 85bb 0e55 14bd d7ab 023d b4e6 283d
000002b0: 89ec 11bc 4e58 ad3b d88d cc3c 842b b23c
000002c0: 18a0 f13c 16c2 5e3d 8d3b a5bc 415a 233c
000002d0: dc50 1bbd 5405 58bc 7db0 f0bc 0eff 03bd
000002e0: 8fed aabc 8036 e13c b108 4fbc d047 2fbb
000002f0: a652 413c f182 eb3c 3254 e6bc 34e4 dbbc
00000300: 666a 713d 4fa9 d9bc 8cc3 573d 2e45 573a
00000310: e983 723d e2ed 52bd c13b 403d 1d4d 56bd
00000320: 1eb3 553c 8ed9 693d 6538 73bd 0a2b 11bc
00000330: 11af f6bc 917c 5dbd b30d 34bd e431 103d
00000340: 67a3 4bbd d280 c13b 1648 223c 303c 75bd
00000350: 2fcf 4f3d 0548 953c a738 4bbd a8bf 4cbc
00000360: 78ca 793c 584d 873c bf4f 613d 0a78 8c3c
00000370: ea65 c8bc 1443 4fbd afb8 3c3d a5e9 a8bc
00000380: 3230 26bc 0eb7 3e3d f6b4 4d3d 4c2c 023d
00000390: 7bde 18bd 15b7 57bd 729d de3c 23e8 313d
000003a0: 9c18 6a3c 92c9 2dbd 9ed6 913c 277a 3e3c
000003b0: 74c0 3d3c 8290 7e3d cd26 643c fc83 59bd
000003c0: b253 03bd b0be 2dbd f874 233c 0497 d63c
000003d0: ebc3 fabc 1a40 1a3d 08e0 693c b0a4 b7bc
000003e0: c457 233d a995 c63b 1eec 33bc 2ab6 2d3d
000003f0: 8802 70bd 12dd 413d e4a4 46bd 4448 973c
-0.04550125 -0.044955537 0.032064833 -0.0038025007 0.0074362964 -0.05675263 -0.005215138 -0.03289888
-0.004457116 -0.0493248 0.031089557 0.041184723 0.009875792 0.05214875 0.017784826 -0.061183453
-0.04043444 -0.038544457 -0.02099587 0.010161254 -0.052764762 -0.06487778 -0.030627694 -0.04069916
0.026888385 0.03973534 0.0402137 0.060337156 0.0091228355 -0.007574322 0.04965857 -0.0052057416
-0.042223647 0.02718841 0.032235894 0.021446617 0.01009334 -0.052362345 0.012533489 -0.014583826
0.045670446 0.027233142 0.05245892 -0.054119825 -0.05121834 -0.017750736 -0.015249919 0.0042626634
0.020813886 -0.065666735 0.029239789 -0.033807196 -0.058387708 -0.010366232 -0.06406032 -0.035019454
0.0034284284 -0.048077572 0.009552806 -0.038820103 0.058897585 -0.001001984 0.010283327 -0.04282045
-0.046451017 0.041049954 0.01759704 0.021931827 0.026926529 -0.060295224 -0.03836486 -0.06257049
-0.013946021 -0.027169276 0.009661368 -0.024377793 0.009761177 -0.0626141 -0.033560354 0.054827806
-0.054663245 -0.030120589 -0.058919534 0.020898081 -0.027855808 0.0117572285 0.049172707 0.008563391
0.025592733 0.007097844 0.023113333 0.014145895 0.053887762 -0.034133315 0.0002632945 0.02295919
-0.033313017 -0.041561157 0.049833257 0.058510017 -0.0032851289 0.018218778 0.04537852 -0.018031016
0.020680156 -0.059888393 0.032622356 -0.033105467 0.007732846 0.053329606 -0.015551666 0.01196583
-0.015401549 0.0049202163 -0.029543605 -0.02708389 0.02405816 0.010810345 0.040688477 0.04474222
-0.048575602 -0.055788953 0.057411376 -0.007978577 -0.032848187 0.046224177 0.029162498 -0.050357845
0.02818492 0.025224062 0.033815198 0.054042645 0.022456018 -0.008863617 0.04094052 -0.036932968
0.032983333 0.035127126 -0.017385023 -0.005362235 0.007709314 0.012949563 -0.063181825 -0.047728837
0.00057157106 0.04288818 -0.0330737 -0.0060526365 0.044458292 -0.061573375 -0.04976178 0.06180239
0.03668448 -0.026825147 -0.02734522 -0.024825033 0.033412214 0.05218208 -0.041086704 0.04812122
-0.022529602 0.027277078 -0.05172702 0.050185636 -0.009720536 -0.0033803135 -0.04893461 0.011079203
-0.004059592 -0.036213927 0.03190216 0.04123564 -0.008906492 0.0052900678 0.02496998 0.021749265
0.029495284 0.054384314 -0.020169998 0.009970249 -0.03791891 -0.013184864 -0.029381031 -0.03222566
-0.02086523 0.027491808 -0.01263635 -0.0026745684 0.01179949 0.028748961 -0.02811632 -0.026842214
0.05893936 -0.02656999 0.052676722 0.00082119077 0.05920783 -0.051496394 0.046931986 -0.052319635
0.013043193 0.057092242 -0.059379954 -0.008860359 -0.030112775 -0.054073874 -0.043958377 0.03520383
-0.04971638 0.005905249 0.009904882 -0.059871852 0.050734695 0.018222818 -0.049614575 -0.012496866
0.015246026 0.016516373 0.055007692 0.017147083 -0.024462659 -0.05060108 0.046074566 -0.020619223
-0.010143327 0.046561293 0.050221406 0.031780526 -0.03732155 -0.052664835 0.027174685 0.043434273
0.014288094 -0.04242856 0.017802533 0.011625803 0.011581529 0.062149532 0.013925266 -0.053104386
-0.03206224 -0.042418182 0.009976618 0.026195057 -0.030611 0.03765879 0.014274605 -0.022417396
0.03987862 0.0060603213 -0.010981588 0.042410053 -0.058596164 0.04732997 -0.048497096 0.018467076

fc2.bias f4 [128]
00000000: 691a 653d f804 67bd 5cb0 153d f047 df3b
00000010: fd3c 71bd 368e 8f3d 082d 68bc 40bc ec3c
00000020: 3422 78bd d417 f03a d1b2 bebc 47fc cbbb
00000030: a482 cb3c e3ce 673b 7928 6fbc aa4e 62bd
00000040: a0ca 6e3c 3c9b 153d 0e5d e139 3694 06bd
00000050: 91df 62bd a3d9 3dbd 4ff7 0fbd 64ea 6dbc
00000060: f0aa 47bd 78b6 663d 26dd 353d 4938 ec3c
00000070: 0b07 623c cdbc 05bd 82c8 33bd 6c07 2ebd
00000080: dea1 673d f589 223d b640 4cbd f115 75bd
00000090: 1b49 11bd 03b9 16bc c310 fbbc 7616 1fbd
000000a0: 5a8b 43bd 3246 693d 15fc c23c fe08 d53c
000000b0: 39cc 50bd 7f5b 5a3d de97 17bd 842a 42bd
000000c0: d43a 853d f4ad cebc a320 43bd 4079 753c
000000d0: 767c 0a3c 9306 df3c cd2e 273d 6066 743d
000000e0: d43a 8c3a 3cdc 4bbd b975 293d 4063 163c
000000f0: 66a3 6fbd b30f 5b3d 47a2 99bb caf7 3cbc
00000100: db28 5dbc 5810 e53c 48cc 083d 53cb b9bc
00000110: f394 2f3d 440f b03c 208b d4bc a2ea 27bd
00000120: 9c9f e3bb ed2f 3f3d 89d3 233d bc17 3dbd
00000130: 2178 133d e841 3abc 219e 643c 0626 50bd
00000140: 0d8c e03c 66e0 0bbd 9a04 283d e0d2 41bc
00000150: 914d 14bc f430 573d 86ef 243d 4eb5 37bd
00000160: 05b9 0c3d 84d5 443d 0f18 a9bc 4c08 dfbc
00000170: 07e7 693d 2fd7 4a3d 885c 32bd aa45 2d3d
00000180: dac1 db3c 6fa4 f1bc d15a 1d3d 5795 383b
00000190: d505 febc 1fe8 bc3c 734b f43c f436 6dbc
000001a0: acd2 13bd ab62 fcbc b470 77bb ccfc 383d
000001b0: c4e2 5cbd bb26 443d aa68 00bb 8e44 4dbd
000001c0: 5903 e53c 3b74 37bd 51a9 53bd fd97 143c
000001d0: a7c2 493d 7149 0d3d 7201 343d d045 1a3c
000001e0: 7525 1cbc 8506 13bd a1ef 383d e243 3e3c
000001f0: 049b dfbc c8d1 043d 806c 643d 113e 343c
0.05593339 -0.056401223 0.036545143 0.0068139955 -0.058896054 0.070095465 -0.014170893 0.028898358
-0.060579494 0.0018317648 -0.023278626 -0.006225142 0.024842568 0.0035371117 -0.014597052 -0.0552508
0.014574677 0.036524996 0.00042984675 -0.03285619 -0.05538899 -0.046350133 -0.03514796 -0.014521215
-0.048747003 0.05632636 0.044400357 0.028835433 0.0137956245 -0.032650758 -0.04389239 -0.042487547
0.056550853 0.039682347 -0.0498664 -0.059835378 -0.03547011 -0.009199384 -0.030647641 -0.03883978
-0.047740318 0.05695171 0.023801843 0.026005264 -0.050976012 0.053309914 -0.037010066 -0.047403827
0.06505361 -0.025229432 -0.047638547 0.0149825215 0.008452525 0.027224815 0.040816117 0.059667945
0.0010698684 -0.04977058 0.041372035 0.0091789365 -0.05850544 0.05348177 -0.0046885344 -0.011533687
-0.01349851 0.027961895 0.033397943 -0.02267996 0.04286666 0.021491654 -0.025945246 -0.040995248
-0.006946517 0.046676565 0.039996658 -0.046165213 0.036003236 -0.011368252 0.0139537165 -0.050817512
0.027410531 -0.03414955 0.041020013 -0.011830062 -0.009051696 0.05253692 0.04026749 -0.04485064
0.034356136 0.048055187 -0.020641355 -0.027225636 0.05710509 0.04952162 -0.043545276 0.042302765
0.026825834 -0.029497353 0.038416687 0.0028165185 -0.03100864 0.023059903 0.029821133 -0.014478434
-0.036089584 -0.030808767 -0.0037756385 0.04516296 -0.053927198 0.0478885 -0.0019593635 -0.050114207
0.027955698 -0.04478858 -0.051675145 0.00906944 0.0492579 0.034493867 0.04394669 0.009416059
-0.009530415 -0.03589489 0.045150403 0.011612864 -0.027295597 0.032426625 0.055767536 0.011001126

actor.weight f4 [4, 128]
00000000: 8e34 98bd 722b 173d 2ded e1bc d983 babc
00000010: 198b 84bd 84d8 2dbd f7cd 1cbd d426 23bd
00000020: 27ef b33d e2b6 6fbd a81b 8d3d 1cfe cc3c
00000030: 874c 933d f24e 533c d8f4 b1bd 9c0f 193d
00000040: 5f52 693c 583d 8bbd 7916 93bd c1d9 eb3c
00000050: c0be 9abd 345a 8a3b de14 c93c 18ee 5d3d
00000060: 070d 83bd afe7 a53d db4d 2ebd 6261 9c3c
00000070: 5aa2 82bc 9004 88bd 6327 44bd c525 04bc
00000080: d09f 0fbd 53c9 63bd 8bae 6ebd 5eb6 b8bc
00000090: ab05 5a3d 0eae cf3b 65e3 71bd ef20 81bc
000000a0: 18f8 a23c aef3 dbbb 6b42 bbbc 4577 2bbd
000000b0: 88d2 9f3b e871 983d 8a00 a5bb 2447 70bd
000000c0: 8a8d 93bd 3d5a 56bc 83b4 523d 42c5 48bd
000000d0: ec28 583d 4701 603d 17d1 973d eede 7e3d
000000e0: 0442 463d 67a5 63bd 2c0a af3d df15 b2bd
000000f0: 0157 cb3c 3592 3abc 37f3 a33d 2b73 633d
00000100: 6014 b2bb f394 40bc 0f83 5d3d eb22 8dbb
00000110: 3acb 54bd 8a80 1a3d ae90 993b efcc a5bd
00000120: 9d2c 13bd ba03 a73d 2e74 533c c61b 3d3d
00000130: 174f 273d 4e8c 5f3d 6148 7a3c 6536 98bd
00000140: 2c8b 6fbc 3ed1 45bd 4481 8fbd 7b66 d7bc
00000150: 4eac 47ba 1771 83bd c01a 453d 6144 9ebc
00000160: a0f8 d7bc cc08 e13c 95d6 2cbd 73f9 673d
00000170: 928d 00bd ebe4 203d 2437 1abd 9882 a7bd
00000180: cef7 8fbd 373e 8f3d 2f1e 203d 4ec7 2f3d
00000190: 1c77 6ebd 4de7 04bd 560c 473d e945 183c
000001a0: a345 843d 09ce e5bc 05e5 8e3d 3488 d5bc
000001b0: 2bb0 053d 7c8e 1fbc 9605 b5bb 969a 873d
000001c0: 3a68 c63c d9b4 bd3b f208 8dbd 96b0 bf3c
000001d0: d706 723d c772 9ebc 80bc d7bc d053 31bd
000001e0: 1376 13bd 2647 c73c 7fa0 373c e764 abbd
000001f0: bd72 9b3d db24 ffbb 378a 7dbc e2c1 93bd
00000200: c9d7 2abd 9f77 053d 07bb 43bd a55f b3bd
00000210: 4b76 16bd aa2e 223d d5e6 3cbd 075d 9c3c
00000220: 1ef8 fcbb a3d0 36bd ac05 f33c 3377 803c
00000230: d171 833d cc95 783d 7a74 103d f981 1d3c
00000240: 64fa 9a3c 5bb3 973d 83d0 8abd 0eee 5f3c
00000250: c0a5 6cbd 953e 49bc 04f3 33bd 6f0c 9ebd
00000260: 7a85 37bd 4253 783d 1867 843d 9e8a 843d
00000270: d167 92bd 7786 723d ce0c 37bd bdc8 793d
00000280: 30ad a1bd 9c3a 25bd fc0e bdbc 6ce4 7b3c
00000290: 6442 d4bc 7698 a23b 3f3d a4bd f4a5 8a3d
000002a0: aca7 88bd 441d af3d 0fdc 99bd 00d0 583d
000002b0: 5028 e9bc f38e bdbc b4a5 61bc 744a 443d
000002c0: 26c7 afbd c9df c0bd a0f5 8a3c fdf5 293d
000002d0: af33 373d f7cd e5bc 099e 59bd 1a68 9d3d
000002e0: 3708 97bd 46df 9ebd 31d7 a2bd 883e 6a3d
000002f0: 307b 94bd f6a6 acba 18c8 22bd 9c90 963c
00000300: 8e3f a73d a2a7 eb3c 1a13 1bbc 8db2 84bc
00000310: 55b2 9cbc 9d33 1b3d 7219 4c3d d42b 40bd
00000320: fdcb 12bd ae3e 27bb 6365 07bd d7c6 8a3d
00000330: 91c5 41bd a188 973c b629 1e3d 7046 5b3d
00000340: e36a a1bd b951 f13c 0c7c 403d 733b a73d
00000350: fd4f 9f3c 252d 26bd f0a8 5fbd 4b4f 9e3b
00000360: 1a03 93bd 44d7 37bd c946 ff3c 8c56 2c3c
00000370: fc59 013a b581 763d 978c 29bd 0d99 62bd
00000380: ff22 01bd 04b0 1b3d 9372 b83c 5579 7f3d
00000390: e66c 9dbc 8966 70bc 793f 023c 0570 013d
000003a0: 44a2 2e3d cc16 90bd aa76 83bd af08 a33c
000003b0: 5e2e 573d f92a 943d 0465 6c3d 2a89 79bd
000003c0: 8688 a73c 9b1c 99bd d6ea 913d e4c4 62bd
000003d0: da66 44bc 6cdc 5a3d 4a12 943d c8d8 a03d
000003e0: 5b98 96ba 4afd 613d 5ca1 9e3d 7eef 903d
000003f0: c1a6 eebc 48f0 8fbd aef6 0b3d bb79 b1bd
-0.07431899 0.036906667 -0.027578915 -0.022767948 -0.06471843 -0.042442814 -0.03828236 -0.03983195
0.08785849 -0.05852402 0.06890041 0.025023513 0.07192331 0.01289724 -0.08689278 0.037368402
0.01424083 -0.0679881 -0.07182021 0.028790357 -0.07555914 0.004222179 0.024546083 0.054182142
-0.06398969 0.08100831 -0.042554718 0.019089404 -0.015946556 -0.06641495 -0.047889125 -0.008065646
-0.03506452 -0.05561192 -0.058271926 -0.022547897 0.05322806 0.0063378876 -0.05905475 -0.015762774
0.019893691 -0.0067123985 -0.022858819 -0.04186179 0.004877392 0.07443601 -0.0050354647 -0.058661595
-0.07204731 -0.013083038 0.05144168 -0.049016245 0.0527734 0.05468872 0.074129276 0.06222432
0.0484028 -0.05557766 0.08546862 -0.08695578 0.02482176 -0.011387398 0.08005374 0.055529755
-0.005434558 -0.011754262 0.054080065 -0.004307141 -0.051951624 0.03772024 0.0046864366 -0.080957286
-0.03593122 0.08155008 0.012906117 0.046169065 0.04084691 0.054577164 0.015276046 -0.0743225
-0.0146205835 -0.048295252 -0.07007077 -0.026293984 -0.0007616923 -0.064180546 0.048121214 -0.019319715
-0.02636367 0.027470015 -0.04219683 0.056634378 -0.031385012 0.039280813 -0.037650242 -0.08179206
-0.07029687 0.069942884 0.039091285 0.04291468 -0.05821906 -0.032447148 0.04859575 0.009294012
0.06458595 -0.028052347 0.06977276 -0.026065923 0.03263871 -0.009738561 -0.0055243475 0.06621282
0.024219621 0.005789381 -0.06886472 0.023399632 0.059088554 -0.01934184 -0.026335001 -0.04329282
-0.036001276 0.024325918 0.011207699 -0.08368855 0.07590244 -0.007786376 -0.0154748475 -0.072147146
-0.041709695 0.032584783 -0.047785785 -0.08758477 -0.036733907 0.039595284 -0.046118576 0.019087328
-0.0077200076 -0.044632565 0.02966579 0.015681839 0.06418193 0.060689732 0.03526733 0.009613507
0.018918224 0.07407256 -0.06778052 0.0136675965 -0.05777526 -0.012282987 -0.04393293 -0.07717215
-0.044805028 0.060626276 0.06464976 0.06471752 -0.07148708 0.059210267 -0.044689946 0.060982455
-0.07894361 -0.040339097 -0.023078434 0.015374284 -0.025910564 0.0049620224 -0.08019494 0.06769934
-0.06672606 0.08550504 -0.07512676 0.05293274 -0.028461605 -0.023139453 -0.013772417 0.047922567
-0.085829064 -0.09417684 0.016962826 0.04149436 0.044727024 -0.028052313 -0.05312923 0.076858714
-0.07374614 -0.0775743 -0.07951201 0.05718854 -0.07250059 -0.0013172317 -0.039741606 0.018379502
0.08166419 0.028766457 -0.009465003 -0.01619842 -0.019128004 0.03789102 0.049828954 -0.046916798
-0.03583907 -0.0025519538 -0.033055674 0.06776207 -0.047307555 0.018497767 0.038613997 0.05353397
-0.07881715 0.029457914 0.0469933 0.08165636 0.019447321 -0.040570397 -0.05460447 0.00483123
-0.07178326 -0.044883028 0.031161683 0.010518681 0.0004934368 0.060182292 -0.041393843 -0.05532174
-0.031527516 0.03800966 0.02251557 0.06237157 -0.019216966 -0.014672884 0.007949703 0.03160097
0.042635217 -0.07035598 -0.06419118 0.019901602 0.052534454 0.07234759 0.057713524 -0.060921825
0.020450842 -0.07476159 0.071248695 -0.05536355 -0.011987412 0.053432867 0.07230051 0.07853848
-0.0011489497 0.055173196 0.077456206 0.070769295 -0.029132249 -0.07028252 0.0341708 -0.08665796

actor.bias f4 [4]
00000000: 24ce be3b 8f4b 35bd 22df 763c 1e9e 34bd
0.0058229137 -0.04426151 0.015067847 -0.044096105

critic.weight f4 [1, 128]
00000000: b5ef 66bc 2ff9 b33d d4cb 993d a83c 87bb
00000010: 293a 9b3d 0044 b23d cb16 763d 11e8 32bd
00000020: d388 8ebb d865 c33d dfe8 603c c456 b83d
00000030: 381a 783d 28e4 9bbc 13fe 14bd c775 823d
00000040: 2b02 8a3c c3d1 023d 6aa2 11bd c50a 4cbd
00000050: 649a 96bd 31ec 933d c0e4 6b3d baa3 53bd
00000060: 6234 7abc e156 f0ba 062d ccbc 77e5 af3d
00000070: c024 693d f279 7c3d 5f96 973b d2bb 0fbc
00000080: dfe3 293b f739 b53d e6c1 3e3c fb9a 3dbc
00000090: 9630 53bd 5cef a63d 24b0 983d e2ee 9d3d
000000a0: b165 0d3d 065d 23bd a5df 89bc fd7a 673d
000000b0: a1c1 abbd 6893 b73d 2db4 ab3d a316 7b3d
000000c0: 13af c23d cb2b 1e3d fefa d4bc ea2c e8bc
000000d0: 3e17 0abd b2e3 6b3c 2525 43bd b46a 943d
000000e0: e33c 9fbc 5078 a0bd cb37 83bd 225e 22bd
000000f0: 464d bf3d 81ab 33bc 6a3d 6a3d 25ff ec3c
00000100: 434a a0bd 67f0 6abc 42b9 923d 0a91 a53d
00000110: 56a9 6ebd ba23 883d ba5a 22bd 13b6 49bd
00000120: 42f2 373d 4dcb 2cbb 1128 80bc 3d4b 5bbd
00000130: 48e5 1cbd e4b7 9dbd b17d 56bc f01c 28bd
00000140: b6b9 71bd a7e8 6f3d 4865 563c 2715 383d
00000150: dfd7 12bd 222a 6639 f0cc 8c3d ef6b 9e3b
00000160: e56a 9bbd 1364 69bd 6b4e 593d 7dd1 e43c
00000170: 9860 0d3d 5537 a83d 915b 183c 4cd3 ce3c
00000180: 065e 1b3c a6e9 9cbd 2e1a dfbc edb6 37bc
00000190: db3e ad3d ed15 c23d ce9c be3d f6ea 1bbd
000001a0: 5b4b 00bd 1f38 893d f00b a3bc 6fe3 89bd
000001b0: 1e44 adbd 5dcc 243d cf17 a63d c794 35bd
000001c0: a503 953d f3a0 6f3d 9e8b ba3d 7647 35bd
000001d0: bb2f 91bd 8d6d 56bd e8ae 8d3d a144 2a3d
000001e0: 5f3f 93bd bfcb 5d3d 4963 e1bc b142 82bb
000001f0: 51d0 f7bc 2cb1 21bc e747 ae3d 6a76 823d
-0.014095237 0.087877624 0.0750958 -0.004127104 0.075794525 0.08704376 0.06008033 -0.043678347
-0.004349807 0.095409095 0.013727396 0.09000924 0.06057188 -0.019029692 -0.036375117 0.063701205
0.016846737 0.031938326 -0.03555528 -0.049814958 -0.073536664 0.07222784 0.0575912 -0.051669814
-0.015271278 -0.0018336439 -0.024923813 0.08588689 0.056919813 0.061639734 0.00462608 -0.008772807
0.0025923175 0.088489465 0.011642909 -0.011572595 -0.051560007 0.08151123 0.07455471 0.07711579
0.03452081 -0.039883636 -0.016830275 0.056513775 -0.08386541 0.089636624 0.08383975 0.061300885
0.09506049 0.038615983 -0.025998589 -0.02834173 -0.03371357 0.0143975485 -0.047642846 0.072469145
-0.019438213 -0.07835448 -0.06407126 -0.039640553 0.093409106 -0.010966183 0.057187475 0.028930256
-0.07826664 -0.014339543 0.071642414 0.08084305 -0.05826696 0.06647439 -0.039637305 -0.049245905
0.04490877 -0.0026366294 -0.015644105 -0.05353855 -0.038304597 -0.0770109 -0.013091491 -0.041043222
-0.059015 0.058571484 0.013085671 0.044942047 -0.035850402 0.00021950205 0.06875026 0.004834644
-0.07588748 -0.056980204 0.0530533 0.027931923 0.034515947 0.08213679 0.009299175 0.025247239
0.009482866 -0.076617524 -0.027234163 -0.0112130465 0.08459254 0.09476838 0.09307252 -0.038065873
-0.031321865 0.067001574 -0.019903153 -0.06732833 -0.08460258 0.04023396 0.0811001 -0.04433134
0.07276086 0.058503103 0.09108661 -0.044257604 -0.07089182 -0.05235057 0.06918126 0.041569356
-0.071898215 0.054149386 -0.027513163 -0.0039752354 -0.0302507 -0.009868901 0.08509808 0.06370242

target.0.weight f4 [128, 256]
00000000: eae2 07bd 3cfb 4e3d f816 27bc b2a0 173d
00000010: e0b2 f7bb e491 25bd 60d2 9cbb 409c 2f3d
00000020: 4054 4bbc a464 d63c 28ca 52bc d422 bf3c
00000030: c4f8 0bbd 0024 a43b 8238 0a3d 66fb 443d
00000040: c886 17bd 00da be39 caa6 343d 4484 4cbd
00000050: 9090 8c3b c446 7fbd c8c1 8b3c 46dc 3bbd
00000060: 9091 a5bb ac0e e0bc 1a71 42bd 2ce4 3fbd
00000070: 0256 19bd 9ace 7ebd da5f 13bd 02ba 01bd
00000080: 704f 733d 9440 ff3c 342d 24bd 3ace 23bd
00000090: 2414 1d3d 44c1 cb3c b8f3 6a3c 60c3 80bb
000000a0: 9043 c6bb 0caf f8bc b603 163d 5041 fa3b
000000b0: b6d9 18bd 0016 0e3b 9070 343c 28fc 02bd
000000c0: 289b 69bd c078 463b 806e 99ba 7eb0 163d
000000d0: 387a fcbc a473 bdbc a859 cf3c 0c53 8c3c
000000e0: 5e8b 24bd a827 8f3c 58fd 3d3c 80ab 1dbd
000000f0: e069 43bc 2457 403d 74c8 c33c 7089 a5bb
00000100: f4f5 6d3d bcde 0ebd 401a ffbc 8641 03bd
00000110: dca3 103d c2dc 253d 0e3b 5e3d 3cbe 6dbd
00000120: 528c 1bbd 888d 7cbd 5c8a ab3c f860 843c
00000130: 2af8 30bd 887f 88bc 7062 af3c e0ae 35bd
00000140: a65f 2cbd c01f c13c d0c4 d13b d842 553c
00000150: cc5d 673d b076 dfbc 16ef 343d 40e2 debb
00000160: 8cc9 933c 54a2 7e3d c6a8 4cbd fa9e 32bd
00000170: 08ef 263d 3803 1f3c 5084 2abc 005d 1d3a
00000180: d6ad 363d fa89 02bd 9a95 6ebd aa10 643d
00000190: 8060 573b 60e6 b0bb 1c54 aebc 84d9 2b3d
000001a0: 3cf3 8d3c 00cc 92b9 a0e5 00bc 6e69 0a3d
000001b0: 2e8e 4f3d 3467 f8bc 8c19 e13c 84be 4ebd
000001c0: b49b 1c3d ac9e 29bd 5801 48bc ec8b 6fbd
000001d0: 3cae 853c 10c9 cc3c 88ce 423c 8cbf 0ebd
000001e0: bc2b 963c 3a6b 383d 1850 563c 36b6 7dbd
000001f0: 8835 72bc 582d 283c 4074 2ebb 2e97 12bd
00000200: 2037 62bd 10a7 ad3c f241 1e3d 20fc aa3c
00000210: 049e e03c 5436 7fbd d40c 59bd 22f5 28bd
00000220: 4484 9b3c 1818 193c c42d ac3c b4ad 97bc
00000230: 7496 d13c f0e8 533d 66fe 093d 782b 733d
00000240: 02ae 123d 8057 263a 2239 0c3d 2c2f 88bc
00000250: c050 653d b403 593d e035 c13c c65d 4b3d
00000260: 3249 33bd 7a89 5ebd 7037 ca3b da28 603d
00000270: 7a1a 39bd 2000 76bb 7a4a 463d d67f 673d
00000280: 9cdd 623d 8e9e 47bd 541d 3ebd d25c 373d
00000290: a673 0abd 1c49 9cbc 7000 d3bc 3c69 14bd
000002a0: 58cf 113d 60a5 65bb 9c44 a63c 7025 f63b
000002b0: e06c bfbc f007 2dbd 18af 43bd 40f5 88bb
000002c0: 70b2 08bd 3074 e83c 244e 7abd 4047 ab3a
000002d0: b0a5 2e3d 00bb d93a ca0e 743d 445a d63c
000002e0: 389c d03c ec10 ad3c 4c8e eebc 802b 8b3b
000002f0: c0c7 3d3b 00cf 903a 1028 9cbc 78f1 1dbd
00000300: 6c0d 7bbd f2ed 02bd fe8a 723d d6c9 7a3d
00000310: 18c7 e2bc b871 083d 40e2 193b 28cd e9bc
00000320: 4842 203d 0a67 613d f2e2 703d a8b2 153c
00000330: 48ea f6bc 1ce1 163d 04b7 82bc f424 0dbd
00000340: f801 5a3c 005a 06bc 606c 073c aea8 54bd
00000350: acfd 04bd 9a52 27bd b038 71bc 56d5 72bd
00000360: 2216 413d 6234 46bd 42d9 6f3d 5246 023d
00000370: a801 cb3c 82cd 123d c40f d23c 5a84 1f3d
00000380: c83a 373d 141f 703d 7e60 3fbd 801a 41bd
00000390: f2e8 7d3d 1888 1bbc ec49 16bd dcc2 c0bc
000003a0: 9606 3bbd fa9a 0dbd e2ae 133d 80fb 7fbc
000003b0: 1020 9e3b 30fb 06bc f0d2 053c 3678 2b3d
000003c0: a052 34bd d88d 463d 0ee8 4dbd 7086 223d
000003d0: aca1 063d 804d 76bc 60c0 dc3c d833 bcbc
000003e0: f86a 4d3d 6608 53bd 727a 68bd 32fe 5b3d
000003f0: c040 473b 3ecf 133d fcee 1abd 8cfd 693d
-0.033175386 0.050532565 -0.010198347 0.037018485 -0.0075591654 -0.040422335 -0.004785821 0.04287362
-0.0124102235 0.026171036 -0.012865581 0.023332037 -0.03417279 0.0050091743 0.033745296 0.048091315
-0.03699377 0.00036402047 0.044104375 -0.049930826 0.004289694 -0.062323347 0.017060176 -0.045864366
-0.005052753 -0.027350746 -0.047471143 -0.04684846 -0.03743554 -0.06220875 -0.035980083 -0.03167153
0.05940193 0.031158723 -0.04008217 -0.039991595 0.038349286 0.02487243 0.014340334 -0.0039295405
-0.0060505345 -0.030356906 0.036624633 0.0076371804 -0.037317 0.0021680593 0.011013165 -0.031978756
-0.057032734 0.0030284375 -0.0011705905 0.03678941 -0.030819997 -0.02312643 0.025311306 0.017129444
-0.040171973 0.017474964 0.011596046 -0.038493633 -0.011927098 0.046958104 0.023899294 -0.005051784
0.058095887 -0.034880385 -0.031140447 -0.03204491 0.03531252 0.040493734 0.054255538 -0.05804275
-0.037975617 -0.061658412 0.020939998 0.01615952 -0.043205418 -0.016662374 0.021409243 -0.044356227
-0.042083405 0.02357471 0.0064016357 0.013016425 0.056485936 -0.027278274 0.044173323 -0.0068018734
0.018040441 0.062166527 -0.049965642 -0.043608643 0.0407553 0.009705357 -0.010407522 0.0006002933
0.044599377 -0.031869866 -0.05824814 0.055679955 0.0032863915 -0.0053985566 -0.02128034 0.041955486
0.017327897 -0.00027999282 -0.007867247 0.03379195 0.050672702 -0.030322649 0.027478002 -0.05047466
0.038234428 -0.041411087 -0.012207352 -0.05848305 0.016318433 0.024998218 0.011890061 -0.034850642
0.018331401 0.045024134 0.013080619 -0.061941348 -0.014783271 0.010264717 -0.0026619583 -0.035788707
-0.055228353 0.021197826 0.03863711 0.020872176 0.027419098 -0.06230767 -0.05299075 -0.041249402
0.018983968 0.009344123 0.021017917 -0.018515445 0.025584437 0.05173582 0.03368988 0.059367627
0.035810478 0.0006345436 0.034234174 -0.016624056 0.055985212 0.052982047 0.02358526 0.049649976
-0.043770976 -0.054330327 0.0061711594 0.05472646 -0.045191266 -0.0037536696 0.04841087 0.0565184
0.055387124 -0.048735194 -0.04641469 0.044766255 -0.033801697 -0.01907783 -0.025757045 -0.03623317
0.03559813 -0.0035041198 0.020296387 0.007511787 -0.023367345 -0.042243898 -0.047774404 -0.0041796267
-0.033373296 0.028375715 -0.061109677 0.0013067499 0.04263848 0.0016611516 0.059584416 0.026166089
0.025465116 0.021126233 -0.029120587 0.004247129 0.0028958172 0.0011048019 -0.019062072 -0.03856036
-0.061292097 -0.031965204 0.059214585 0.061227642 -0.027682826 0.033311576 0.0023480803 -0.028540209
0.03912571 0.055029906 0.058810182 0.009136833 -0.03014101 0.036835775 -0.01595641 -0.03445907
0.013306133 -0.008200169 0.008265585 -0.051918678 -0.032468483 -0.04085026 -0.014722988 -0.059285484
0.047140248 -0.0483898 0.058556803 0.031805344 0.024781063 0.03584052 0.025642283 0.03894458
0.044733793 0.05862339 -0.04672288 -0.047144413 0.061989732 -0.0094928965 -0.03669159 -0.023530416
-0.045660578 -0.034571625 0.036055453 -0.015623927 0.0048255995 -0.008238599 0.008167967 0.04186269
-0.04402411 0.048475116 -0.050270133 0.03967899 0.032869026 -0.015033126 0.0269472 -0.02297394
0.05015084 -0.05152168 -0.056757398 0.053709216 0.0030403584 0.036086313 -0.03782557 0.057126567

target.0.bias f4 [128]
00000000: 4061 13bd 8c54 e4bc 3854 0d3d 4cc6 d6bc
00000010: 06f3 033d 60d8 10bc 209d 443d 1602 6c3d
00000020: a82b c73c f4b2 2b3d f8e9 193d f074 3f3c
00000030: 98d5 53bc a085 72bd d0d7 dc3b f8a0 72bc
00000040: e069 45bd 4cdb de3c ba6e 7a3d 7c0b 4f3d
00000050: e40c b93c f4b0 92bc 8c12 fc3c 826c 283d
00000060: 90dc e33c 0a82 3fbd 1466 57bd b2e5 2cbd
00000070: 1008 db3c 1ce0 2a3d 8893 1abc 5418 9ebc
00000080: dad2 4abd 30bd eb3b 9aea 603d f424 f93c
00000090: d6a1 70bd d055 d03c a88c bdbc 003c c1ba
000000a0: 9035 cfbc cc22 2e3d e8fe e5bc a8ab 4dbd
000000b0: 10b0 d23c cc48 2d3d 502d 973b c87a 7b3d
000000c0: d0b5 0b3d a419 f3bc 50d1 dfbc 80b0 8abc
000000d0: a4f2 b53c 4093 b33c 38d6 47bd 5033 cd3c
000000e0: 98bd 293d 6600 713d 2454 133d 6cf5 f23c
000000f0: d481 2e3d 9020 f2bb 60e5 ff3c 5436 79bd
00000100: e808 09bc c0a0 a8bb e6c8 03bd e8a7 25bc
00000110: b0ac 74bc c490 ecbc 4863 ee3c 108e 53bc
00000120: 7c1f f2bc a44a aabc 7027 233d cc03 4cbd
00000130: 282f 723c 7cfb b1bc 9c19 d7bc 7e5c 7a3d
00000140: 6ce8 bcbc 1823 68bc 723a 163d 14f9 02bd
00000150: 006a 3d3b 783c 6dbc f050 c8bb 38cd 14bd
00000160: 4670 0bbd 9a0e 7dbd a056 223d f86d 6cbc
00000170: 0c42 d93c 04fc 67bd 5059 cabb 90a1 babc
00000180: 70ef 11bd 0853 593d ca05 5bbd 287c 373c
00000190: 628d 133d 006f a5ba 78d6 c1bc 00fa 6a3b
000001a0: 00a2 f0b9 807f 4bbb b465 c33c a80d 6b3c
000001b0: 9eb2 0f3d bafe 30bd 9c50 5ebd 506a 9dbc
000001c0: 923a 6c3d 8875 4d3c 7876 573d 20d3 c33b
000001d0: 960e 67bd 9ac8 4e3d 009e 68bb 0a7a 003d
000001e0: 64b0 a73c 2406 523d 6ca5 e93c 34f3 77bd
000001f0: 80af 0ebb 309d ccbc 6a0c 3f3d e03b f63c
-0.035981417 -0.027872346 0.034504145 -0.026217602 0.032214187 -0.00884065 0.04800141 0.057619177
0.02431281 0.04191871 0.037576646 0.011685595 -0.012929343 -0.059209466 0.006739594 -0.014808886
-0.048196673 0.027204178 0.061140753 0.05054806 0.022589155 -0.017906643 0.030770563 0.041119106
0.027815133 -0.046754874 -0.052587584 -0.042211242 0.026737243 0.041717634 -0.009434588 -0.01929871
-0.04951749 0.0071941838 0.054911233 0.030413128 -0.05874809 0.025431544 -0.02313836 -0.0014742613
-0.025294095 0.042513654 -0.02807565 -0.050212532 0.025718719 0.042305753 0.004613556 0.06139639
0.034108937 -0.029675312 -0.027321488 -0.016929865 0.022210427 0.0219208 -0.04878828 0.025048882
0.041440576 0.05883827 0.035968915 0.029658042 0.042604282 -0.0073891357 0.031237304 -0.060842827
-0.00836394 -0.005146116 -0.032174014 -0.010110833 -0.01493375 -0.028877623 0.029100075 -0.012912288
-0.029556029 -0.020787545 0.039832532 -0.04980831 0.014781751 -0.021726362 -0.026257329 0.061123364
-0.023060046 -0.014168523 0.03667683 -0.03197582 0.0028902292 -0.014479749 -0.006113164 -0.036328524
-0.03404262 -0.061781503 0.039633393 -0.0144305155 0.026520751 -0.056636825 -0.0061751977 -0.022782117
-0.035628736 0.0530577 -0.053472318 0.011199035 0.036023505 -0.0012621582 -0.023661837 0.0035854578
-0.00045897067 -0.0031051338 0.023852207 0.014346518 0.035082452 -0.043211676 -0.054276094 -0.019215733
0.057673045 0.012540229 0.052603215 0.005976096 -0.056410395 0.050484277 -0.0035494566 0.031366386
0.020469852 0.051275387 0.028521262 -0.06053467 -0.0021772087 -0.024977297 0.0466427 0.030057847

target.2.weight f4 [128, 128]
00000000: acc3 56bb 1d9d 1b3c 52f8 043d 0403 5dbc
00000010: 7a52 8cbd 13b3 88bd d773 91bd d08d 993c
00000020: 6c1d 9f3d abe7 3b3d 976e b03d ce40 583d
00000030: a204 febb 65b2 f7bc abbe 58bc 9df6 313d
00000040: 25bf 60bd 1ddf 0bbd 01a2 443d ce11 87bd
00000050: b60d 0fbd 5b86 143d fe38 d63c 00d5 0abd
00000060: 060d 183d d436 b4bd 776e 58bd 46f1 143c
00000070: ecd5 b4bd 5141 94bc fabb 10bd 41db a33b
00000080: 50cd 1a3c a7d0 b3b9 39bb a3bd 73d5 b2bb
00000090: 0f20 d3ba 4501 443c a645 b53a a770 3d3c
000000a0: 3fc5 25bd e036 123d 9689 403b df7a 95bd
000000b0: 24b0 0abd 2cc1 f43c 788b 6d3d ae20 83bc
000000c0: c49e 89bd fad6 5ebd d2bd 25bd 824d c33c
000000d0: 4e63 113d 8178 98bd 23d7 a2bd 6c88 4b3d
000000e0: d403 4bbd f843 57bd 4147 7e3d 09a7 853d
000000f0: b836 753d 14ff a63c 9d4e 47bd ea3c 98bd
00000100: 861c 2bbd 6499 abbd ee8b b7bc 7c29 533d
00000110: 8a43 0b3d 4fdd 66bc 8de9 b83c f4cc 9ebd
00000120: 1a64 d2bc fa43 38bb 28fe cbbc 6b91 1ebd
00000130: 1d7c a6bd 7cb4 9fbd 540f 58bd 7c95 94bc
00000140: 66bb 7e3d 6dac 45bd 5a57 2cbc 62a6 b2bd
00000150: dcf5 773d ee09 98bd 82c7 0c3c 2696 873c
00000160: e109 acbc 6824 ac3d 3d8e a1bd 0536 dc3c
00000170: 3a6d 133d 34ce 883b 3274 7fbc 3135 d2bc
00000180: ba45 aebd b4ac 54bc 934b c53b 3798 b7bc
00000190: 7cf2 153c a661 a63d 5c89 c9bc af3d d9bb
000001a0: d131 533d 3491 2c3d 0fc4 843c c89e 84bd
000001b0: 3713 963d 529d 763a e74d aebd acbc 423d
000001c0: 7506 413d 7ecd 2abd 0a78 62bd 747f 79bd
000001d0: 6c4b 21bd a8ff 8c3d 5965 a13d 8e24 123d
000001e0: 1f47 bbbc 2fa1 ea3b 97f1 863d 4bac 52bd
000001f0: cd11 3bbd f497 d83b b71b 8b3d 04e1 933d
00000200: 4e82 aabd def8 463d 2d6e e33c 3f36 b13c
00000210: c51d 883d 77b0 ecbc fec2 4fbd ad26 a33d
00000220: 2fd1 ab3d 74c0 223c d52d 5a3b d917 a03d
00000230: fb89 713d f215 c53c f093 863d 7e6c 55bd
00000240: b575 4d3d cadc a5bb 8229 33bc b106 53bd
00000250: 3c9c 1c3d 6d0f 283c 1f5f 433c 713e 8c3d
00000260: ac8f e8bc cd76 623c 65ca a4bd 010a c73c
00000270: dfd6 b13c 248b 4b3c 0e5b a13b 6227 23bd
00000280: 2ae2 0bbd d26b 85bd 8684 14bd 750c 93bd
00000290: fe5c c03c 9298 8bbd 40d0 953d 6a50 83bd
000002a0: e2f3 9dbd d474 35bd 410d 77bd b880 98bd
000002b0: 56af 49bd 15a4 0bbd 2645 7fbd 1f8e 69bd
000002c0: 7d56 5d3d a896 0dbd e650 f83b ab25 3f3d
000002d0: 2708 b1bb e8ed 66bd da7c 97bc 678f 1bbd
000002e0: 2a8a f6bc 3f6d 423a f672 97bd 9c07 d53b
000002f0: e223 033d 96d2 28bc 9e4d 633d 6b1a 913d
00000300: f982 69bd 1ed2 84bd f34b 4ebc 90ce df3b
00000310: 382f 14bc 208e c2bc 568e 463d 6acb c83c
00000320: 0993 4a3b 8385 4a3d d248 8ebd fc9d f6bc
00000330: ac89 83bd 0403 8e3d df5e 9a3b bfba 2ebd
00000340: e4f4 b7bc d3ae 94bd 158e f9bc f2e7 19bd
00000350: 0425 2cbc ae01 ce3c 3cb7 9fbd 4c20 08bd
00000360: 05fb 973d 559e 793d 0322 ef3c d565 aa3d
00000370: 52c4 223d 85ec e9bb d428 9ebd 6d35 90bd
00000380: 7602 81bd 7a71 b03d d55e 93bd 36ec 0cbd
00000390: 47c2 0bbc c05c ddbc f544 8a3d 7da0 683c
000003a0: 4d78 323d 2f44 0cbd 2c60 8e3b cc16 23bd
000003b0: 5652 52bd 8674 92bd 3ab6 43bd e250 ab3a
000003c0: f439 cbbc e155 313d 3b28 b23c b3a8 26bc
000003d0: 30f3 ad3d 6b67 d2bc 7393 b43d ef7f 84bd
000003e0: 1804 343b a6be b1bd 823a 643c 1e63 90bd
000003f0: dbcd 183b 07b6 9a3d b882 73bd b865 533d
-0.0032770438 0.009497908 0.03246338 -0.0134894885 -0.06851669 -0.06674781 -0.07102173 0.01874438
0.07769284 0.045875233 0.08614843 0.052796178 -0.007752017 -0.030236432 -0.013229053 0.04344808
-0.05486979 -0.034148324 0.04800606 -0.06595193 -0.034925185 0.036260944 0.026150223 -0.03389454
0.037121795 -0.0879952 -0.052839722 0.009090727 -0.08829865 -0.018097552 -0.03533552 0.0050005023
0.009448364 -0.00034297 -0.07994694 -0.005457574 -0.0016107577 0.011963193 0.0013829961 0.011562503
-0.04047131 0.035696864 0.0029378883 -0.072988264 -0.033859387 0.029877268 0.057994336 -0.016006794
-0.06719735 -0.054404236 -0.04046423 0.02384067 0.035495095 -0.07444859 -0.0795119 0.04969065
-0.049564198 -0.052555054 0.06207967 0.06526 0.059866637 0.020385303 -0.048658956 -0.074334934
-0.04177525 -0.08378866 -0.02240559 0.051553234 0.033999957 -0.01409085 0.022572303 -0.077539355
-0.025682498 -0.002811669 -0.024901465 -0.0387129 -0.081291415 -0.077980965 -0.052748993 -0.018137686
0.062190436 -0.04826014 -0.010518873 -0.08723141 0.060537204 -0.07423769 0.008592488 0.016551089
-0.021000804 0.084053814 -0.07888458 0.026881227 0.03599284 0.004174972 -0.015591668 -0.02566013
-0.08509393 -0.012980629 0.006020972 -0.022411449 0.009152051 0.08124094 -0.02460163 -0.0066296677
0.05156118 0.042130664 0.01620677 -0.064755976 0.07327884 0.0009407598 -0.085109524 0.047543213
0.0471253 -0.04169988 -0.05529026 -0.060912564 -0.03937857 0.068847 0.07880659 0.035679393
-0.022861062 0.007160328 0.06589048 -0.051433843 -0.045671273 0.006609911 0.067923956 0.07220653
-0.08325635 0.048577182 0.027762497 0.021632312 0.06646303 -0.028892739 -0.05072307 0.07966361
0.08389508 0.00993358 0.0033291478 0.078170486 0.05896948 0.024058316 0.065711856 -0.05210542
0.050161082 -0.0050617205 -0.010935189 -0.051520053 0.038234934 0.010257584 0.011924534 0.06847847
-0.02838882 0.01382227 -0.08046416 0.024296762 0.021708904 0.01242331 0.0049241846 -0.03983248
-0.034151234 -0.06514706 -0.036259197 -0.0718011 0.023481842 -0.0681621 0.07315111 -0.06411822
-0.077125326 -0.04430087 -0.060315374 -0.07446426 -0.04923948 -0.034092028 -0.062321804 -0.057020303
0.05403756 -0.034567505 0.007578003 0.046666782 -0.005402583 -0.05637923 -0.018492151 -0.037978556
-0.030095179 0.00074167916 -0.07394974 0.0065011512 0.032016642 -0.010304114 0.055493943 0.07085117
-0.05700967 -0.06485389 -0.01259135 0.006830044 -0.009044461 -0.023749411 0.048475586 0.024511058
0.0030910394 0.049443733 -0.06947483 -0.03010463 -0.06422743 0.06934169 0.0047110165 -0.042658564
-0.02245564 -0.072599076 -0.030463258 -0.037574716 -0.010506872 0.025147285 -0.07798621 -0.033233926
0.07420925 0.060942013 0.029191023 0.08320204 0.039738007 -0.007138791 -0.07722631 -0.0704144
-0.062992975 0.08615394 -0.07195822 -0.034404956 -0.008530206 -0.027021766 0.06751434 0.01419842
0.04357176 -0.034244712 0.0043449607 -0.039816663 -0.051348053 -0.07151131 -0.047781207 0.001307037
-0.024807908 0.04329479 0.021747699 -0.010172057 0.0849365 -0.02568408 0.08817186 -0.06469714
0.002746826 -0.086789414 0.013929965 -0.07050155 0.0023316059 0.0755425 -0.059450835 0.05161068
