checkpoints/pc/seed0/final.pt (torch, 400859 bytes, 7 tensors)

fc1.weight f4 [256, 256]
0	0x3c9ed768	0.019389823
1	0xbc97ee60	-0.018546283
2	0x3c79c378	0.015244357
3	0xbd278788	-0.040900737
4	0x3c110cd8	0.00885316
5	0xbd2af508	-0.041737586
6	0xb9e79f00	-0.00044178218
7	0xbd6d45b4	-0.057927802
8	0xbc8b8b48	-0.017034188
9	0xbd3fc692	-0.04682023
10	0x3d4a907c	0.049454197
11	0xbcce823c	-0.025208585
12	0x3ca38d7c	0.019964926
13	0x3d73578e	0.05940967
14	0xbc8a9ae0	-0.016919553
15	0x3d647ec8	0.05578497
16	0xbb984c40	-0.0046477616
17	0x3d3c97c6	0.04604318
18	0xbca5a054	-0.020218052
19	0xbd12ee1e	-0.035871617
20	0x3d22290a	0.03958992
21	0x3cb5b458	0.022180721
22	0x3d63eaec	0.05564396
23	0xbd0fb9d0	-0.035089314
24	0xbcf94a7c	-0.030431025
25	0x3b91b430	0.004446529
26	0x3a667b80	0.00087922066
27	0x3d2d913e	0.042374842
28	0x3ccc726c	0.024956904
29	0xbd164fb2	-0.036697097
30	0x3cc50b04	0.024053104
31	0x3c922c34	0.017843343
32	0x3d68483e	0.05670952
33	0xbc7dc390	-0.01548852
34	0x3d692eba	0.056929328
35	0xbbe99120	-0.007127896
36	0x3c096fa8	0.008388437
37	0x3d307354	0.043078735
38	0xbcff3cb8	-0.031156883
39	0xbc8f94d4	-0.017527021
40	0x3d5542ba	0.05206559
41	0x3ba3c550	0.0049978867
42	0x3c9f6fdc	0.019462518
43	0x3cfb581c	0.030681662
44	0xbc2b1b08	-0.0104434565
45	0x3d17a5ec	0.03702347
46	0x3d59b202	0.053148277
47	0xbd7e42ba	-0.062075354
48	0x3d634f5e	0.055495612
49	0x3cb5c8c8	0.022190467
50	0x3c2dda30	0.010611102
51	0x3cd11040	0.025520444
52	0xbcce6c40	-0.025198102
53	0x3d08dff2	0.033416696
54	0x3cfe6718	0.031055018
55	0xba84f740	-0.0010144487
56	0xbd0c6a7a	-0.03428123
57	0x3c1f43c8	0.00972075
58	0x3d1757e0	0.03694904
59	0xbce13c14	-0.027494468
60	0xbcebecc4	-0.028799422
61	0x3d1a1cb6	0.037625037
62	0xbd070cbe	-0.032971136
63	0x3ceb1dd4	0.028700747
64	0xbd328f9c	-0.043593988
65	0xbd1f070e	-0.038825087
66	0xbc20ecc0	-0.009822071
67	0xbccd2690	-0.025042802
68	0xbd41bb16	-0.04729756
69	0xbd5a8eec	-0.053358957
70	0xbc8d5b98	-0.01725559
71	0xbbdb00a0	-0.006683424
72	0x3d65e0c6	0.056122564
73	0xbc604ff0	-0.013690934
74	0x3bd76900	0.0065737963
75	0x3c5efc88	0.013610013
76	0x3cb0c924	0.021580286
77	0x3d0fcd18	0.035107702
78	0xba8062c0	-0.0009795055
79	0xbd13d852	-0.03609497
80	0xbd712380	-0.058871746
81	0xbcb50008	-0.022094741
82	0x3ac99180	0.0015378445
83	0xbca0094c	-0.019535683
84	0xbce1ca5c	-0.027562313
85	0xbd387522	-0.04503358
86	0x3c6e0e18	0.014529727
87	0xbced2224	-0.028946944
88	0xbd6a27aa	-0.057166733
89	0x3d05f728	0.03270641
90	0xbced4e2c	-0.02896794
91	0xbd6e613e	-0.058198206
92	0x3c81ee80	0.015860796
93	0x3c807228	0.015679434
94	0x3d099324	0.03358759
95	0x3d19a7f0	0.037513673
96	0x3ce8c3fc	0.028413765
97	0x3d5ece76	0.054396115
98	0x3b88cd10	0.004174836
99	0x3d1ddd8a	0.038541354
100	0x3c89df38	0.016830072
101	0xbc04f548	-0.00811512
102	0x3cdbac60	0.026815593
103	0x3d00be46	0.03143146
104	0xbcee728c	-0.029107355
105	0xbb9452b0	-0.0045264587
106	0xbd79d4c6	-0.060993932
107	0x3d487cbc	0.04894708
108	0xbd77d7de	-0.0605086
109	0x3d614280	0.05499506
110	0x3d2a1e84	0.04153301
111	0xbd0a226c	-0.033724234
112	0xbd5f323a	-0.05449126
113	0xbd1eae76	-0.038740598
114	0xbd596f98	-0.05308494
115	0xbc49ac40	-0.012309134
116	0x3c002330	0.007820889
117	0x3c09edc0	0.0084185
118	0x3d69c23c	0.057070002
119	0xbcb54d8c	-0.022131704
120	0xbd5bff96	-0.053710543
121	0x3d5db896	0.054131113
122	0xbd73258c	-0.05936198
123	0x3b729260	0.0037013516
124	0x3c11d598	0.008901022
125	0xbb692e00	-0.0035580397
126	0x3d2fcb48	0.042918473
127	0xbd4671a4	-0.04844822
128	0x3d5e579a	0.054282762
129	0x3d381c48	0.044948846
130	0xbcc3c1c4	-0.023896106
131	0x3d4c294e	0.04984408
132	0x3d17516c	0.036942884
133	0x3c6232d8	0.013806067
134	0x39902300	0.00027491897
135	0xbd08a130	-0.033356845
136	0x3c6a8448	0.014313765
137	0x3d4a4666	0.049383543
138	0x3d4d9d26	0.050198697
139	0xbd101436	-0.035175525
140	0xbd7babf4	-0.061443284
141	0x3ca35f70	0.01994297
142	0xbc2ac210	-0.010422245
143	0xbd60efda	-0.05491624
144	0x3ca85314	0.020547427
145	0x3d549f38	0.051909655
146	0x3d120926	0.035653256
147	0xbb89a9f0	-0.0042011663
148	0x3b8a4f10	0.0042208508
149	0xbd2d04d4	-0.042240933
150	0x3ce8b1a0	0.02840501
151	0x3c54f2d0	0.012997344
152	0xbb8be810	-0.0042696074
153	0xbd581e86	-0.052763484
154	0x3d5f736a	0.054553427
155	0x3d3f1e2a	0.046659626
156	0x3c2f4500	0.010697603
157	0xbc859bdc	-0.016309671
158	0xbd5fc3c0	-0.05463004
159	0xbd74039e	-0.059573762
160	0xbd1986d4	-0.037482098
161	0xbd31d5ce	-0.04341679
162	0xbd6db004	-0.05802919
163	0x3d37311c	0.04472457
164	0xbd54a320	-0.05191338
165	0xbcb8f9fc	-0.02258014
166	0xbd14ebf6	-0.036357842
167	0x3b31bb00	0.0027119517
168	0x3d3e44b4	0.04645224
169	0xbcbab738	-0.022792444
170	0x3d0d4c12	0.034496374
171	0x3cb6b054	0.022300877
172	0x3c2c1798	0.010503672
173	0x3d38db52	0.045131035
174	0x3ae34a80	0.0017340928
175	0xbcade040	-0.021225095
176	0x3d3c04e4	0.0459031
177	0xbc4eb120	-0.012615472
178	0xbd78b91e	-0.060723417
179	0xbd7928a4	-0.060829774
180	0xba2a3e80	-0.00064942986
181	0x3d661b1c	0.056178197
182	0x3c8cbdac	0.017180286
183	0x3d25f78a	0.040519275
184	0x3c3de110	0.011589304
185	0x3d6bc8d8	0.057564586
186	0x3d6963d0	0.056979954
187	0x3d1aad04	0.037762657
188	0x3d4fc080	0.05072069
189	0x3c378e58	0.011203371
190	0x3c037ea0	0.008025795
191	0xbccfb004	-0.025352485
192	0x3c5045b8	0.012711935
193	0xbcb13bb8	-0.021634921
194	0xbd6d40ee	-0.05792325
195	0xbd7b0eb4	-0.06129332
196	0xbd5f9210	-0.054582655
197	0x3bd1c3a0	0.006401494
198	0x3c098a50	0.008394793
199	0xbb48da20	-0.003064759
200	0x3c63bbf8	0.013899796
201	0x3d15ed7e	0.036603443
202	0x3c6d4520	0.014481813
203	0xbd0db870	-0.03459972
204	0x3d21e288	0.039522678
205	0xbc4555e0	-0.0120444
206	0x3d07ac0a	0.033123054
207	0x3c0e6e40	0.008693278
208	0x3d7591a0	0.059953332
209	0x3c262b18	0.01014211
210	0x3c0e2ef0	0.008678183
211	0xbcbd74e4	-0.023127027
212	0x3aa20180	0.0012360066
213	0xbc695a18	-0.014242671
214	0xbcbb76e0	-0.022883832
215	0xbcdda37c	-0.027055494
216	0x3c94da38	0.018170461
217	0xbcb0fb94	-0.021604337
218	0xbd062a30	-0.032755077
219	0x3d1b62a4	0.037935868
220	0xbcfa5020	-0.030555785
221	0xbc1ed8a8	-0.00969521
222	0x3c8b2d28	0.016989306
223	0xbd4b17dc	-0.0495833
224	0xbc7db848	-0.015485831
225	0xbd1edb5c	-0.038783416
226	0xbcddb5f0	-0.027064294
227	0xbd723016	-0.05912789
228	0xbcb3be40	-0.021941304
229	0x3d012602	0.031530388
230	0x3d24316c	0.040086195
231	0x3c3603f0	0.011109337
232	0xbceb6d1c	-0.02873855
233	0xbc8753bc	-0.01651942
234	0x3c60fe90	0.013732567
235	0x3ce11a6c	0.02747842
236	0xbd4ce29a	-0.05002079
237	0xbc36db68	-0.011160709
238	0x3ce654c8	0.028116599
239	0x3d637688	0.055532962
240	0x3ccaffa4	0.024780102
241	0x3d0917e6	0.033470057
242	0x3b493ac0	0.0030705184
243	0xbd16f136	-0.03685113
244	0xbce9467c	-0.028475992
245	0x3b2ea5a0	0.0026649013
246	0xbcae6288	-0.021287218
247	0xbc96ae68	-0.01839371
248	0xbd546eb2	-0.05186338
249	0x3d11a7ba	0.035560347
250	0x3d0e4a8c	0.034739062
251	0x3cabeff0	0.020988435
252	0x3c57daa8	0.01317469
253	0xbc839af4	-0.016065098
254	0x3c4adb08	0.012381323
255	0xbd46d292	-0.04854066

fc1.bias f4 [256]
0	0xbc3bd048	-0.011463232
1	0xbc8efd18	-0.017454669
2	0xbd5d60b6	-0.05404731
3	0x3d06958f	0.032857474
4	0x3cf50706	0.029910576
5	0x3cb6ffe0	0.022338808
6	0x3d730d3d	0.059338797
7	0xbd1101ac	-0.035401985
8	0x3d491577	0.049092736
9	0x3ca13808	0.019680038
10	0xbd562638	-0.052282542
11	0x3d5be525	0.053685326
12	0x3d366352	0.044528313
13	0xbcb81ccd	-0.02247467
14	0xbd511352	-0.051043816
15	0x3cdfc10c	0.027313732
16	0x3cc48146	0.023987424
17	0xbc3bb071	-0.011455641
18	0x3c829b7a	0.015943278
19	0x3cdabf7e	0.026702639
20	0x3d214ea8	0.039381653
21	0x3bf01635	0.007326866
22	0x3c378761	0.01120171
23	0xbc80a100	-0.01570177
24	0xbd4d616c	-0.050141737
25	0xbd0f1a60	-0.034937263
26	0xbc8669db	-0.016407898
27	0x3cb6d44a	0.022318024
28	0x3d409ee9	0.04702655
29	0x3d373a66	0.044733427
30	0xbd6e0566	-0.058110617
31	0x3c634cf0	0.013873324
32	0x3d7b7c25	0.06139769
33	0x3cc357f8	0.023845658
34	0xbd610ff8	-0.05494687
35	0x3c6b6608	0.014367588
36	0x3d6e0bad	0.058116604
37	0xbd51e90a	-0.051247634
38	0x3c2fc7e0	0.010728806
39	0x3d54690a	0.051857986
40	0xbd583ea6	-0.05279412
41	0x3d57575b	0.052573543
42	0x3d7737fc	0.060356125
43	0xbd68479b	-0.056708913
44	0x3d63a605	0.05557825
45	0xbc2beb9d	-0.010493186
46	0xbca72920	-0.020405352
47	0x3d389b0e	0.045069747
48	0xbd013331	-0.03154296
49	0x3d53fada	0.051752903
50	0x3d0f3021	0.03495801
51	0x3d27c1b7	0.040956225
52	0xbd5b679a	-0.0535656
53	0xbca86998	-0.020558164
54	0x3ca922d2	0.020646486
55	0xbba503a4	-0.0050358344
56	0xbd0344e7	-0.032048132
57	0x3c60cc28	0.01372055
58	0xbc451259	-0.0120283
59	0xbb497360	-0.0030738935
60	0xbd5af838	-0.053459376
61	0x3bc27aa1	0.0059350287
62	0xbd712cf9	-0.05888078
63	0x3c65bb70	0.014021739
64	0x3c032f03	0.008006814
65	0xbc43dca5	-0.011954461
66	0x3d0d1271	0.034441415
67	0xbcdb53ec	-0.026773416
68	0xbcb0fb94	-0.021604337
69	0x3c181187	0.009281523
70	0xbd2f87f9	-0.042854283
71	0x3c55afe8	0.013042428
72	0xbd300dea	-0.04298202
73	0x3c08f1b1	0.008358405
74	0xbbb93a63	-0.005652712
75	0xbccf3dad	-0.025297964
76	0x3d75c5cd	0.06000309
77	0xbd3f19fa	-0.046655633
78	0xbd35086e	-0.044197492
79	0xbd67afe6	-0.056564234
80	0xbd5f4ff6	-0.054519616
81	0x3d10fdec	0.03539841
82	0x3ba35219	0.004984152
83	0x3c35ddc1	0.0111002335
84	0xbd217fbc	-0.039428458
85	0xbb961d8c	-0.004581159
86	0x3d029c52	0.03188736
87	0x3d4db530	0.050221622
88	0xbd3f2aa2	-0.046671517
89	0xbd109c1e	-0.035305135
90	0x3c0cf8fc	0.008604284
91	0xbcf65026	-0.030067515
92	0xbccf6c79	-0.025320278
93	0xbd18bbc2	-0.037288435
94	0xbc053458	-0.0081301555
95	0xbc9fe533	-0.01951847
96	0x3c655848	0.013998099
97	0x3c3e9cae	0.011634035
98	0x3a72378a	0.00092398433
99	0xbbd7f880	-0.006590903
100	0xbc8d5e10	-0.017256767
101	0xba00f428	-0.00049191946
102	0xbd19ec63	-0.03757895
103	0xbc942268	-0.018082812
104	0x3d294e6d	0.04133456
105	0xbcea6b36	-0.028615575
106	0x3bb9fa53	0.005675593
107	0x3d5f7666	0.054556273
108	0xbd3ea75b	-0.04654632
109	0xbd51074c	-0.05103235
110	0x3a99f1be	0.0011745018
111	0xbbd032d0	-0.0063537136
112	0x3cc3f60f	0.02392104
113	0xbd028004	-0.031860366
114	0x3b85dafb	0.0040849424
115	0xbd51434a	-0.051089562
116	0x3cf31d44	0.02967704
117	0x3d18eaf7	0.037333455
118	0xbc4f04d4	-0.012635428
119	0x3cd0fcfc	0.025511257
120	0xbc7fff89	-0.015624889
121	0x3d16da60	0.036829352
122	0x3ab5b8c0	0.0013864264
123	0xbb97e212	-0.004635104
124	0xbd546de0	-0.051862597
125	0xbd827fc0	-0.06372023
126	0x3bf19813	0.007372865
127	0xbc8bf72c	-0.017085634
128	0xbca19ab7	-0.019727094
129	0x3d40b8cc	0.047051236
130	0x3d416914	0.04721935
131	0x3d8686d3	0.065686844
132	0x3d66cdce	0.056348614
133	0xbd6023db	-0.054721694
134	0x3c89ff3f	0.016845344
135	0x3d16b23b	0.036791068
136	0x3af85e87	0.001894907
137	0xbd14e2b1	-0.036349002
138	0x3c54ae40	0.012980998
139	0xbd026585	-0.031835098
140	0x3c7fd330	0.015614316
141	0xbd37ff74	-0.044921353
142	0x3d739fa9	0.059478436
143	0xbd002b36	-0.03129121
144	0x3caca8cc	0.021076582
145	0x3d1c5678	0.0381684
146	0xbd668594	-0.056279734
147	0x3d1ec9dd	0.03876673
148	0x3d5900fd	0.052979458
149	0xbd5c9bfd	-0.0538597
150	0xbd34dcaa	-0.044155754
151	0xbadae0a6	-0.001669903
152	0x3c9338ef	0.017971484
153	0xbd89dccb	-0.06731566
154	0x3c82cdcc	0.015967272
155	0xbd42542d	-0.047443558
156	0x3c17bc68	0.009261228
157	0xbc8eec3c	-0.01744663
158	0xbcfbc1ab	-0.030731997
159	0xbcf29209	-0.02961065
160	0xbc0c37a0	-0.008558184
161	0x3b5a1df7	0.003328202
162	0x3d5f95ab	0.054586094
163	0x3bf97f1f	0.007614031
164	0xbd3522d9	-0.044222686
165	0xbd1de267	-0.038545992
166	0x39721351	0.00023086114
167	0xbd6d9037	-0.057998862
168	0xbcfd89cb	-0.030949494
169	0xbd34964c	-0.044088647
170	0x3c3ba1c3	0.011452141
171	0xbd291c78	-0.041286916
172	0xbd0cee10	-0.03440672
173	0xbd03c144	-0.032166734
174	0x3c6d2d3d	0.014476118
175	0xba0c91e2	-0.00053623144
176	0xbd379e15	-0.044828493
177	0x3d6f6a50	0.058450997
178	0xbc071c5f	-0.00824651
179	0x3c89751a	0.016779471
180	0xbca42316	-0.020036262
181	0x3d36c2a4	0.044619218
182	0xbd51d79a	-0.051231004
183	0x3ce85fcd	0.028365994
184	0x3a8a423b	0.0010548303
185	0x3d618da6	0.055066727
186	0xbd3af649	-0.045645032
187	0x3d522f40	0.051314592
188	0xbd4dc1ea	-0.05023376
189	0xbd1c6d22	-0.038190015
190	0xbd42d187	-0.047563102
191	0xbc904de6	-0.01761527
192	0xbc646977	-0.01394116
193	0xbd689cc6	-0.056790136
194	0x3c3711ba	0.01117366
195	0x3d11609d	0.03549253
196	0xbb8afecc	-0.0042418
197	0x3d12774e	0.03575831
198	0x3cf15ee4	0.029464193
199	0x3d463581	0.04839087
200	0x3ce9e47f	0.028551338
201	0x3d74bcb1	0.059750263
202	0xbd1a10bf	-0.037613627
203	0xbc24cd6b	-0.010058741
204	0x3d4d4d0d	0.05012231
205	0xbbd4cdd4	-0.006494263
206	0x3d09ba6d	0.033625055
207	0xbc8f5e07	-0.01750089
208	0x3cddcf4a	0.027076382
209	0xbcc54fb0	-0.02408585
210	0x3cdc154e	0.026865628
211	0x3c4060f4	0.011741865
212	0xbb9b46a6	-0.0047386466
213	0xbcab5724	-0.020915575
214	0x3c602cef	0.013682588
215	0xbd149f72	-0.03628487
216	0xbd151f8a	-0.03640703
217	0x3cdcf813	0.02697376
218	0xbc13fe7e	-0.009032844
219	0xbcc199b0	-0.023632854
220	0x3c73e86a	0.014886955
221	0x3cb0ac40	0.02156651
222	0xbd3399a5	-0.0438477
223	0x3c3e0bf8	0.011599533
224	0x3c7162b9	0.01473301
225	0x3cd3f8f2	0.025875542
226	0xbd4ddf9a	-0.05026207
227	0xbcb5c790	-0.022189885
228	0xbd00e605	-0.031469364
229	0x3c01f56c	0.007932048
230	0x3d401029	0.04689041
231	0xbb4791da	-0.0030451925
232	0xbd1c0681	-0.03809214
233	0xbd5fe3dd	-0.054660667
234	0xb9f0166f	-0.00045793082
235	0x3cc5cf25	0.024146626
236	0xbb4be072	-0.0031109122
237	0xbc09c520	-0.008408815
238	0x3d4e5bdb	0.05038057
239	0x3d31d190	0.043412745
240	0x3d2600dc	0.040528163
241	0xbccb5b94	-0.024823941
242	0x3cf1226e	0.029435363
243	0x3d7d8eda	0.061903812
244	0x3ca7ece8	0.020498708
245	0xbd54a009	-0.051910434
246	0x3ccb8bba	0.0248469
247	0x3c7a5b39	0.015280538
248	0x3c9dd2e0	0.019265592
249	0xbd5e5e64	-0.054289237
250	0xbcb4ab8d	-0.022054458
251	0x3af6c5b6	0.0018827233
252	0x3d023076	0.031784497
253	0xbcbff9dc	-0.023434572
254	0x3d4ab6dc	0.049490795
255	0xbd412f97	-0.047164526

fc2.weight f4 [128, 256]
0	0xbcd63234	-0.026146986
1	0xbd65a2b9	-0.056063388
2	0x3d533960	0.05156839
3	0x3d580aa2	0.052744515
4	0x3d1c1314	0.03810413
5	0x3be3c270	0.006950669
6	0xbd0e6aa7	-0.03476968
7	0x3d214b5e	0.039378516
8	0x3cebcf13	0.028785264
9	0x3cc037c2	0.023464087
10	0xbd082046	-0.033233903
11	0x3d5f4509	0.054509196
12	0x3d22ea36	0.039774142
13	0x3c39c741	0.01133901
14	0xbd62887e	-0.05530595
15	0xbccd36f2	-0.025050614
16	0x3d553f62	0.0520624
17	0x3d53191e	0.051537625
18	0x3d69efa1	0.057113294
19	0xbd2d8d9a	-0.04237137
20	0x3d0c823e	0.034303896
21	0xbd793956	-0.060845695
22	0x3bb6eb79	0.0055822697
23	0x3d3c3970	0.045953214
24	0xbba483e0	-0.0050206035
25	0xbd15a356	-0.036532722
26	0x3c808729	0.01568945
27	0x3c9929c7	0.018696679
28	0xbd654d97	-0.0559822
29	0xbca6f2c1	-0.020379426
30	0x3d54d8ee	0.051964693
31	0xbc34afae	-0.011028213
32	0xbd6a0c91	-0.05714089
33	0xbcd19de8	-0.02558799
34	0xbd4b1f19	-0.049590204
35	0xbc6dd4c0	-0.014516056
36	0x3d11ae31	0.035566512
37	0xbd7afb34	-0.061274722
38	0x3ce6db18	0.028180644
39	0xbbc2d566	-0.005945849
40	0x3d422276	0.047396146
41	0xbb68ff6d	-0.0035552636
42	0x3d7c6edc	0.06162916
43	0x3c9a2754	0.018817581
44	0x3d604ce2	0.05476082
45	0x3d56f5ce	0.05248051
46	0x3d54d812	0.051963873
47	0x3c1e7e00	0.009673595
48	0xbd212287	-0.03933957
49	0xbc2669dc	-0.010157075
50	0xbd29693b	-0.04136012
51	0xbbc80111	-0.0061036428
52	0x3cfab4ec	0.030603848
53	0xbbf728d0	-0.007542707
54	0xbd1103a7	-0.035403874
55	0xbd3bfd94	-0.045896128
56	0xbd5620b0	-0.052277267
57	0x3d3591c2	0.04432846
58	0x3bc58493	0.006027767
59	0xbbf201b0	-0.007385455
60	0x3c747ec8	0.014922805
61	0x3be84adc	0.007089002
62	0x3cbd93b4	0.02314172
63	0xbd44e10e	-0.04806619
64	0x3c8407ec	0.016117059
65	0xbd15c0ea	-0.03656093
66	0xbd2798c6	-0.04091718
67	0x3c41af78	0.01182162
68	0xbd1be264	-0.0380577
69	0xbcc32b4f	-0.023824362
70	0xbcb88b8c	-0.022527479
71	0x3c9b2f4b	0.01894345
72	0x3b970060	0.004608199
73	0x3b690f60	0.0035562143
74	0x3cf48872	0.029850218
75	0x3d7e9554	0.06215413
76	0xbd6f26ca	-0.0583866
77	0xbd7e4416	-0.06207665
78	0xbc84fc84	-0.01623369
79	0xbc7e1428	-0.015507735
80	0xbcd706d5	-0.026248375
81	0xbc9c5e2a	-0.01908787
82	0xbcad3a38	-0.021145925
83	0xbd65a9e7	-0.056070235
84	0x3d0c5372	0.034259267
85	0x39c37800	0.00037282705
86	0xbd0c84b0	-0.03430623
87	0xbd71cfe0	-0.059036136
88	0xbd524acf	-0.051340874
89	0x3d4819e5	0.04885282
90	0xbcccb558	-0.024988815
91	0x3bc1b22f	0.0059111337
92	0x3cd1ae8e	0.02559593
93	0x3c7e25c9	0.015511938
94	0xbacf26a4	-0.0015804362
95	0x3d1dc5ce	0.03851872
96	0xbd13fc92	-0.03612954
97	0x3d1ce762	0.0383066
98	0xbcf5bb3f	-0.029996512
99	0x3c0f6c8d	0.008753908
100	0xbbcd79c0	-0.0062706172
101	0x3ca2b0f9	0.019859778
102	0x3cc8fdb4	0.024535038
103	0x3d3c70c8	0.046005994
104	0xbc00aa42	-0.007853093
105	0x3d0ed06b	0.03486673
106	0xbd415623	-0.047201287
107	0x3c68a0b0	0.014198467
108	0xbd2e8c48	-0.04261425
109	0xbceaeb90	-0.028676778
110	0xbc835f83	-0.016036754
111	0x3b796360	0.0038053617
112	0x3d3bfa0c	0.04589276
113	0xbd27da18	-0.040979475
114	0xbd431d52	-0.047635384
115	0x3ca86cac	0.020559631
116	0x3d2cdc25	0.042202134
117	0xbba289b8	-0.004960265
118	0x3d18bdbc	0.03729032
119	0x3d050262	0.032472976
120	0x3ad92d4a	0.0016569283
121	0xbb488ea0	-0.003060259
122	0xbd737f5e	-0.05944764
123	0xbca99838	-0.020702466
124	0x3c7f5708	0.015584715
125	0xbc8aaa16	-0.016926806
126	0x3d3c5f98	0.045989603
127	0x3d62c9be	0.055368178
128	0xbc95d50a	-0.018290062
129	0xbd39fb02	-0.045405395
130	0x3b1d6120	0.002401419
131	0x3d376b93	0.044780325
132	0x3b885eb4	0.00416168
133	0x3d4c412f	0.04986685
134	0xbd44e54f	-0.04807025
135	0x3cfdac7e	0.03096604
136	0x3d7278ac	0.059197113
137	0xbc8ecc11	-0.01743129
138	0xbd595fa0	-0.05306971
139	0xbc02d5e3	-0.007985565
140	0xbd4fd17c	-0.05073689
141	0x3cc05870	0.02347967
142	0x3c9801d8	0.018555567
143	0xbc803497	-0.015650077
144	0xbd438195	-0.047731
145	0x3d69fb07	0.057124164
146	0xbcac9740	-0.021068215
147	0x3b9c4571	0.0047690202
148	0xbcd39a38	-0.025830373
149	0x3d564024	0.052307263
150	0xbd45be82	-0.048277386
151	0xbd01d84f	-0.03170043
152	0x3d2fb15b	0.04289375
153	0xbbb57a44	-0.005538257
154	0xbc17f1f8	-0.009273998
155	0x3d255fa9	0.04037443
156	0xbc5a1bc8	-0.013312288
157	0x3d5d14f5	0.053975064
158	0x3c4cdbee	0.012503607
159	0x3c96f900	0.01842928
160	0xbd2eac96	-0.04264506
161	0x3d77f69c	0.06053792
162	0x3d092c94	0.03348978
163	0xbd28bf3a	-0.041197993
164	0xbceaab1e	-0.028646048
165	0x3d083d08	0.03326133
166	0xb7e86a0e	-2.770594e-05
167	0x3c0a4cd0	0.008441165
168	0x3d6478f0	0.055779397
169	0x3d1aaa2b	0.03775994
170	0xbc559c50	-0.013037756
171	0xbb6767e0	-0.0035309717
172	0x3d73bd94	0.059506968
173	0xbd0ead5e	-0.034833305
174	0xbd6360cb	-0.05551223
175	0xbc2ecb03	-0.010668519
176	0xbce7bcdd	-0.0282883
177	0xbca73033	-0.020408725
178	0x3c1363dd	0.008995977
179	0x3cad790a	0.02117588
180	0x3ce54e58	0.027991459
181	0xbbca0a30	-0.006165765
182	0xbd43db08	-0.047816306
183	0x3c1db1d3	0.009624916
184	0xbcff45b6	-0.03116117
185	0xbc99e2c4	-0.018784888
186	0x3d02bb9e	0.031917207
187	0x3d6a01f8	0.057130784
188	0x3c12de00	0.008964062
189	0xbcce4fd8	-0.025184557
190	0x3c98ced4	0.01865331
191	0xbc61acb0	-0.013774082
192	0xbc6042c0	-0.013687789
193	0x3d234090	0.039856493
194	0x3d401100	0.046891212
195	0x3d1b43b2	0.037906356
196	0xbd129530	-0.035786808
197	0x3d62f894	0.055412844
198	0x3c9b18b2	0.018932674
199	0xbbc1bac4	-0.005912157
200	0x3a83c1c0	0.0010052249
201	0x3c9e0517	0.019289536
202	0x3c397036	0.011318257
203	0x3c9f65b8	0.019457683
204	0xbd46cb2d	-0.048533607
205	0x3cef5f0f	0.029220132
206	0x3ce46658	0.027880833
207	0x3c877688	0.016536012
208	0xbce737c4	-0.028224833
209	0x3d0ff057	0.035141315
210	0xbd3bcd48	-0.04585007
211	0xbd241d74	-0.04006715
212	0xbd774d52	-0.060376473
213	0x3a852d40	0.001016058
214	0xbd1f58a4	-0.038902894
215	0x3d40135c	0.046893463
216	0xbd57d08c	-0.05268912
217	0x3d0acc24	0.03388609
218	0x3d1b306a	0.037887968
219	0x3c650830	0.013979003
220	0x3d2f5226	0.042802952
221	0xbc3f6438	-0.011681609
222	0x3cfce640	0.03087151
223	0x3d4f7e7a	0.050657727
224	0x3d2edba1	0.042689923
225	0xbbe556e0	-0.0069988817
226	0x3d26fc42	0.040767916
227	0xbb0482d8	-0.002021959
228	0x3d55588e	0.052086405
229	0xbca8c68e	-0.02060249
230	0xbc695419	-0.014241242
231	0xbd0d24e5	-0.034459013
232	0x3d7a6d67	0.06113949
233	0x3d67a7ee	0.056556635
234	0xbd67a4de	-0.056553714
235	0x3d8169c6	0.06319003
236	0xbd65c962	-0.056100257
237	0x3d0f662a	0.03500954
238	0xbd67f5ba	-0.056630827
239	0xbd1e0827	-0.038581993
240	0xbcd45778	-0.025920615
241	0xbcd0cd8c	-0.025488637
242	0xbbf6a2a9	-0.007526715
243	0x3c4606a2	0.012086542
244	0x3b088360	0.0020830259
245	0xbd6976d9	-0.056998108
246	0x3bfcc905	0.007714393
247	0xbd70119a	-0.058610536
248	0x3ca8794c	0.020565651
249	0xbd3e5ca4	-0.046475068
250	0x3c9d21dc	0.019181184
251	0x3c03759a	0.008023644
252	0xbcca7290	-0.02471283
253	0xbd6516b5	-0.05592986
254	0xbcfe6e85	-0.03105856
255	0x3d1598ae	0.03652256

fc2.bias f4 [128]
0	0xbc6204f3	-0.013795125
1	0x3d01ab90	0.031657755
2	0x3d39edfa	0.045392968
3	0x3c953410	0.018213302
4	0xbd59943a	-0.053119875
5	0x3ca16799	0.01970272
6	0xbd27bf76	-0.040954076
7	0x3c7d9860	0.015478224
8	0xbd610816	-0.054939352
9	0x3d884be5	0.06655101
10	0x3c71710f	0.014736428
11	0xbb99a6b0	-0.00468906
12	0x3d3523fc	0.04422377
13	0x3d6438b2	0.05571813
14	0x3d27d27c	0.040972218
15	0xbcec4883	-0.02884317
16	0xbd59f5a9	-0.053212795
17	0x3d635b9d	0.05550729
18	0xbbcf53d8	-0.0063271336
19	0x3bb7e867	0.0056124213
20	0x3d1fb117	0.038987245
21	0xbd4abb36	-0.049494945
22	0xbcfdcef8	-0.03098248
23	0xbd399dfd	-0.045316685
24	0x3caf3e8c	0.02139213
25	0xbcebaeea	-0.028769929
26	0x3d18c40b	0.037296336
27	0x3d4609ec	0.048349306
28	0x3d1bf085	0.038071174
29	0x3d5859fd	0.052820195
30	0x3d22dc75	0.039761025
31	0x3d2db211	0.042406145
32	0xbbe019f6	-0.0068390323
33	0xbd8007ca	-0.06251486
34	0xbc92fa6b	-0.017941674
35	0xbc7b50cc	-0.015339088
36	0x3d3fdb4a	0.04683999
37	0xbd062ee7	-0.032759573
38	0x3ce405e3	0.027834838
39	0x3d35251f	0.044224855
40	0xbd18db30	-0.03731841
41	0x3c0b2cda	0.00849458
42	0xbd4edb72	-0.050502248
43	0x3cc6c773	0.024265027
44	0xbc355737	-0.011068157
45	0x3d409b47	0.047023084
46	0x3ca8509b	0.020546248
47	0x3c25b800	0.01011467
48	0x3c230d50	0.009951904
49	0x3d180031	0.037109558
50	0x3c8a288c	0.016865037
51	0x3c88fb54	0.016721405
52	0xbd3ea176	-0.0465407
53	0x3c8cc2dd	0.017182762
54	0x3b0fe5e0	0.0021957085
55	0xbcb83df4	-0.022490479
56	0x3d454aa6	0.048166893
57	0xbd6d142a	-0.057880558
58	0xbd320fb2	-0.043472
59	0x3d0fc7ac	0.03510253
60	0xbca182be	-0.019715663
61	0x3ad2fa99	0.0016096412
62	0xbbbe0527	-0.005798954
63	0x3d140653	0.036138844
64	0x3d60ef63	0.054915797
65	0x3b8da747	0.0043229195
66	0xbd0039d9	-0.031305168
67	0xbca553f7	-0.02018164
68	0x3a968b7d	0.0011485663
69	0xbd093d1e	-0.03350555
70	0x3cd405f0	0.025881737
71	0xbc87165c	-0.016490154
72	0x3d028842	0.031868227
73	0xbc9d7de2	-0.019225065
74	0xbcdb1943	-0.026745444
75	0xbc19e6e3	-0.009393427
76	0x3d156bee	0.036479883
77	0xbc23e938	-0.010004334
78	0xbd463af1	-0.048396055
79	0x3d3e66cc	0.046484753
80	0x3c7047d4	0.014665563
81	0x3c29514a	0.010334322
82	0xbd428008	-0.04748538
83	0x3ca9608c	0.02067592
84	0xbcaaf1b0	-0.020867199
85	0x3bd33ede	0.0064467033
86	0x3bb5bc26	0.0055461107
87	0xbd2dac5b	-0.0424007
88	0x3d08c71e	0.033393018
89	0x3d66997f	0.05629873
90	0xbc77755d	-0.015103665
91	0x3d3d6e82	0.046247967
92	0x3d2cf48f	0.042225417
93	0x3d297b67	0.04137745
94	0x3d2c68c6	0.042092107
95	0xbb8d1a69	-0.004306127
96	0xbd7ef391	-0.062244
97	0x3c3d81d9	0.011566603
98	0xbd6274c0	-0.055287123
99	0x3b56ae9c	0.0032757884
100	0xbd4d88d0	-0.050179303
101	0xbcb7dee8	-0.022445157
102	0xbd1f9be4	-0.03896703
103	0xbd37321a	-0.044725515
104	0x3d36018b	0.044435065
105	0xbd76fc08	-0.06029895
106	0x3c062130	0.008186623
107	0x3d0bce0d	0.034132052
108	0x3c1e4110	0.009659067
109	0x3d41ba09	0.047296558
110	0x3a445380	0.0007489249
111	0x3cc6553f	0.02421057
112	0xbd7fbef5	-0.06243797
113	0xbc81d360	-0.015847862
114	0x3d437160	0.047715545
115	0xbb09ed81	-0.0021046104
116	0xbc7c4fce	-0.015399886
117	0xbd4cfc41	-0.050045256
118	0x3a5442f8	0.00080971373
119	0xb92d80d5	-0.0001654656
120	0x3d0f35e0	0.03496349
121	0x3bab6fc0	0.0052318275
122	0x3d7404ae	0.059574775
123	0xbca648a7	-0.020298315
124	0xbbd4cfe6	-0.00649451
125	0xbd36561a	-0.044515707
126	0xbd2ca894	-0.042152956
127	0xbc555dc4	-0.013022844

actor.weight f4 [4, 128]
0	0x3ba9517b	0.005167184
1	0x3dabd01e	0.083893046
2	0x3d305bce	0.0430563
3	0xbcefc567	-0.029268933
4	0xbc89accf	-0.016806034
5	0xbd8a7a46	-0.06761603
6	0x3c6ef277	0.014584175
7	0x3c26f2c2	0.010189714
8	0x3d6219f3	0.05520053
9	0xbb7b58cd	-0.003835249
10	0x3cea716f	0.028618542
11	0x3d4d9df1	0.050199453
12	0xbdaab907	-0.083360724
13	0xbcb6e6c8	-0.022326842
14	0x3d37859c	0.044805154
15	0x3d1a228d	0.037630606
16	0x3d5b539b	0.05354653
17	0xbd949eea	-0.07256873
18	0x3d8790b6	0.06619398
19	0xbacbabd0	-0.0015538875
20	0x3d74820d	0.05969434
21	0x3c38bece	0.01127596
22	0x3da220bf	0.07916402
23	0xbd43a37c	-0.047763333
24	0xbd7c7378	-0.061633557
25	0x3da4d37d	0.08048151
26	0xbb20f0a7	-0.0024557502
27	0xbc5833a0	-0.013195902
28	0x3da0b538	0.07847065
29	0x3d83325c	0.0640609
30	0x3d989223	0.07449748
31	0xbcb63350	-0.022241265
32	0xbae5d4c1	-0.0017534719
33	0x3da83686	0.082135245
34	0xbd0f6543	-0.03500868
35	0xbd13e29d	-0.036104787
36	0xbd203fc1	-0.0391233
37	0x3cebf070	0.028801173
38	0x3d3d3495	0.046192724
39	0xbd1dcea5	-0.03852715
40	0x3cac2d07	0.021017564
41	0x3d4ce1bc	0.050019965
42	0x3cfa76d4	0.03057424
43	0x3da054cf	0.07828676
44	0x3dae80cb	0.08520659
45	0x3d9d49cb	0.076800905
46	0x3da61f9f	0.081115
47	0xbdb134a5	-0.08652619
48	0xbd2b4781	-0.04181624
49	0x3d1094b5	0.035298068
50	0x3d3aa3e1	0.045566443
51	0x3cd54ec2	0.026038531
52	0x3d826638	0.06367153
53	0x3b750ade	0.003739051
54	0xbdb28299	-0.08716316
55	0x3cea3ed0	0.028594404
56	0xbda0378d	-0.078230955
57	0xbd1df107	-0.03855994
58	0x3cf0e027	0.02940376
59	0x3c318308	0.010834463
60	0x3d80fcd9	0.06298227
61	0xbdb40f08	-0.087919295
62	0x3d96a49b	0.07355615
63	0x3d506fe7	0.05088797
64	0xbacb340d	-0.0015503183
65	0xbd60071f	-0.05469429
66	0x3d6afb95	0.057368834
67	0x3d9122e5	0.07086734
68	0xba1f1505	-0.0006068501
69	0xbcc99f2d	-0.024612034
70	0x3d97a555	0.074045815
71	0x3d8ca1d7	0.06866806
72	0x3d4a0fb1	0.04933137
73	0x3cf11b46	0.02943195
74	0xbbf5f19f	-0.00750561
75	0x3d58368f	0.052786406
76	0x3d6d6cf2	0.057965226
77	0xbd0e4567	-0.034734156
78	0xbc0f24ea	-0.008736828
79	0x3d80aeb5	0.06283323
80	0x3d84e0cb	0.06488188
81	0xbda5a224	-0.080875665
82	0xbc170766	-0.0092180725
83	0xbd899e68	-0.06719667
84	0xba85b815	-0.0010201955
85	0x3d1e327d	0.038622368
86	0x3c4cc00c	0.012496959
87	0xbd82470b	-0.063612066
88	0xbdab3c14	-0.08361068
89	0xbd7d2a9b	-0.06180821
90	0xbc1db6fa	-0.009626145
91	0x3d8cb0ed	0.068696834
92	0xbdb3b548	-0.08774811
93	0x3d797cc1	0.06090999
94	0xbcd0e687	-0.025500549
95	0x3c7dbcbc	0.015486892
96	0x3d778ebf	0.060438868
97	0xbd15d375	-0.036578614
98	0xbd024a46	-0.031809114
99	0xbc9cec54	-0.019155659
100	0x3d9422d4	0.072332054
101	0xbca78311	-0.02044824
102	0xbccdf338	-0.02514039
103	0x3cac0784	0.020999677
104	0x3dac8c05	0.08425144
105	0x3d723e9f	0.05914175
106	0xbd60e45b	-0.054905277
107	0x3d6e7dda	0.05822549
108	0xbcd0ece5	-0.025503585
109	0xbd776109	-0.060395274
110	0xbb2a9a46	-0.0026031896
111	0x3cb8e0fe	0.022568222
112	0x3da70092	0.08154406
113	0x3d689177	0.05677935
114	0x3c018b01	0.007906676
115	0xbd756eab	-0.059919994
116	0xbd26165c	-0.040548667
117	0xbd549525	-0.051900048
118	0xbbd70177	-0.006561454
119	0xbc047794	-0.00808515
120	0x3da3a793	0.079909466
121	0xbd65bfe4	-0.056091204
122	0xbd9f873d	-0.077894665
123	0x3d9355fd	0.07194135
124	0x3d869cc0	0.065728664
125	0x3da6beaf	0.08141839
126	0xbd6701e2	-0.05639828
127	0x3cdd5fa3	0.027023142
128	0x3db5cff2	0.08877553
129	0xbd51b34a	-0.051196374
130	0x3d9a356b	0.0752972
131	0x3da479a7	0.08031016
132	0x3d378fc4	0.04481484
133	0x3dbf76fe	0.09348868
134	0xbbc17fa5	-0.005905109
135	0x3bbdc11d	0.005790843
136	0x3d512adc	0.051066265
137	0xba89e4a8	-0.0010520415
138	0x3d4e8fac	0.050429985
139	0xbdaa522f	-0.083164565
140	0x3d2e23c4	0.042514578
141	0xbdb04101	-0.086061485
142	0x3d035384	0.03206207
143	0x3ce13784	0.027492292
144	0x3dae81a9	0.085208245
145	0x3cdbf31e	0.026849326
146	0x3ce73bd3	0.028226769
147	0x3d78d27c	0.06074761
148	0x3d058ff4	0.032607988
149	0xbd5915c1	-0.05299926
150	0x3d462a1e	0.04838001
151	0xbd7164bd	-0.058933962
152	0x3d81fc69	0.063469715
153	0xbd318821	-0.043342713
154	0x3d4f8888	0.050667316
155	0x3d9b7f2d	0.07592616
156	0x3d3435fa	0.04399679
157	0xbd245428	-0.04011932
158	0xbc91b541	-0.017786624
159	0xbb9774c9	-0.004622076
160	0xbd07838e	-0.033084445
161	0xbcebc930	-0.028782457
162	0xbdae9d4c	-0.08526096
163	0xbd83ea27	-0.064411454
164	0x3ce6a840	0.0281564
165	0xbd2f9e25	-0.042875428
166	0x3ab9b1ba	0.0014167347
167	0xbd55ccba	-0.052197196
168	0x3d6c1e63	0.057646167
169	0x3d696985	0.056985397
170	0x3d2213fd	0.039569844
171	0xbd848a33	-0.06471672
172	0xbd441011	-0.047866885
173	0xbce050f0	-0.027382344
174	0x3c2aedce	0.010432674
175	0xbcafd91d	-0.021465832
176	0x3c433660	0.0119148195
177	0x3c3e0657	0.011598191
178	0xbb05eeac	-0.002043645
179	0xbd9b076d	-0.07569776
180	0x3d9106f3	0.070814036
181	0x3d2c9fb0	0.042144477
182	0xbce640ff	-0.028107164
183	0xbdadc582	-0.08484937
184	0xbcc15759	-0.02360122
185	0xbc3ac361	-0.011399121
186	0xbd76eaac	-0.060282394
187	0x3d28f0b3	0.041245174
188	0xbd018bad	-0.031627346
189	0x3d9d52b2	0.076817885
190	0xbd0f7e0b	-0.035032313
191	0xbd895c42	-0.0670705
192	0xbc5253e7	-0.012837387
193	0xbcd68d0f	-0.026190309
194	0xbcb09f04	-0.0215602
195	0x3d6981b8	0.057008475
196	0xbcba0352	-0.022706661
197	0x3d82f8f5	0.06395141
198	0xb9f77448	-0.00047198148
199	0xbd27e2b5	-0.04098769
200	0xbcbde35b	-0.0231797
201	0x3d97b91d	0.074083544
202	0xbcd57bd7	-0.026060028
203	0x3d8cf6d2	0.06883015
204	0xbc6fd310	-0.014637724
205	0x3d1cbf7e	0.03826856
206	0xbc597b8d	-0.013274086
207	0x3d8afe3e	0.06786774
208	0x3c71a7f9	0.01474952
209	0xbd0351ef	-0.03206056
210	0x3d9e6c0b	0.07735451
211	0x3cf3883c	0.029728048
212	0x3cc55c12	0.024091754
213	0xbd0a3d1c	-0.033749685
214	0x3ce313d5	0.027719418
215	0xbd760905	-0.060067195
216	0x3dc1c796	0.09461896
217	0xbc0ae5ce	-0.008477641
218	0x3d913f6b	0.07092174
219	0x3d7c1fd0	0.061553776
220	0x3d50d340	0.050982714
221	0x3d5d66be	0.05405306
222	0xbd3a8628	-0.045538098
223	0x3a9ce37f	0.0011969655
224	0x3d9354b6	0.07193892
225	0x3d95c053	0.073120736
226	0xbd035c24	-0.032070294
227	0xbd0bba7c	-0.034113392
228	0x3d8ff2f0	0.070287585
229	0x3d2866b0	0.041113555
230	0x3dc957c9	0.09831197
231	0xbc942442	-0.018083695
232	0x3d0c7f9e	0.034301393
233	0xbcbc0670	-0.022952288
234	0x3c6f876a	0.014619688
235	0x3db26eff	0.08712577
236	0xbdac9dcb	-0.08428534
237	0x3c91b66e	0.017787185
238	0xbcef18dd	-0.02918666
239	0xbd995721	-0.07487322
240	0x3cacec28	0.021108702
241	0xbd417159	-0.047227237
242	0xbc5c39d5	-0.013441523
243	0xbcb81f11	-0.022475751
244	0xbcadd05d	-0.02121752
245	0xbda31add	-0.07964108
246	0xbd7463ff	-0.059665676
247	0xbc6ee0ab	-0.014579932
248	0xbc639d9f	-0.01389256
249	0x3d149dcd	0.036283303
250	0xbcaa9a42	-0.020825509
251	0x3ca2505b	0.019813707
252	0x3d7d4cd5	0.06184085
253	0x3d512745	0.05106284
254	0x3dad1cc6	0.08452754
255	0xb8b3ba1e	-8.570052e-05

actor.bias f4 [4]
0	0xbd5492a3	-0.051897656
1	0x3da5355e	0.080668196
2	0xbc0037b7	-0.007825783
3	0xbda83fe1	-0.08215309

critic.weight f4 [1, 128]
0	0xbd0544b5	-0.032536227
1	0xbd4d28b8	-0.05008766
2	0x3cc1fd92	0.023680482
3	0xbd1d0357	-0.038333263
4	0xbc945829	-0.018108444
5	0xba27bb9e	-0.00063985016
6	0xbbea9fd8	-0.007160168
7	0xbd9c1ebd	-0.0762305
8	0xbcaca54b	-0.021074912
9	0x3d308457	0.04309496
10	0x3b113087	0.0022154169
11	0x3d88fc20	0.06688714
12	0x3b6faf9b	0.0036573175
13	0x3b8c6911	0.004284986
14	0xbd40ad5a	-0.04704032
15	0xbc928da6	-0.017889809
16	0x3d10034c	0.035159394
17	0xbd91ebea	-0.07125075
18	0x3bf254c0	0.007395357
19	0x3d56eef2	0.05247397
20	0xbc9ff69d	-0.019526774
21	0xbcfa1837	-0.030529125
22	0x3d0d268f	0.0344606
23	0x3d9ac905	0.07557873
24	0x3da69903	0.081346534
25	0xbd596981	-0.053079132
26	0x3d886d87	0.06661516
27	0xbd8585de	-0.06519674
28	0xbd285505	-0.041096706
29	0x3ceb2117	0.028702302
30	0xbda64643	-0.0811887
31	0xbc876152	-0.016525898
32	0xbca88b66	-0.020574283
33	0xbda6b86c	-0.081406444
34	0x3dc524bc	0.09626147
35	0xbdace00e	-0.084411725
36	0xbd6cd2ac	-0.0578181
37	0xbcf0221d	-0.029313141
38	0x3d0c5bcd	0.034267236
39	0x3dbb4154	0.0914332
40	0x3d7c0db4	0.061536506
41	0x3d585dc3	0.052823793
42	0x3db37b0f	0.08763706
43	0xbda87e10	-0.082271695
44	0x3da8118d	0.082064725
45	0xbd21148b	-0.039326232
46	0xbd6674ca	-0.056263722
47	0x3da215ed	0.07914338
48	0x3b889b1d	0.0041688816
49	0x3c9c5a41	0.019086005
50	0x3d57cff4	0.052688554
51	0x3c22b92b	0.009931843
52	0x3d89ae5b	0.06722709
53	0xbda491c6	-0.080356166
54	0x3c76494f	0.015032127
55	0xbd4e764d	-0.05040579
56	0xbd910336	-0.070806906
57	0x3d10a8c9	0.035317216
58	0xbd3f7f8f	-0.04675251
59	0x3da915fd	0.08256147
60	0x3d6aecca	0.057354726
61	0x3c8632c2	0.016381625
62	0x3dac51db	0.0841405
63	0xbd465ceb	-0.048428457
64	0xbc9db3ad	-0.019250715
65	0xbd0a1d47	-0.033719327
66	0xbd9dfeb2	-0.07714595
67	0xbd12ee5d	-0.035871852
68	0x3b66b1a5	0.00352011
69	0xbd8434ee	-0.06455408
70	0xbd1af388	-0.037829906
71	0xbd9bdb55	-0.07610194
72	0x3caea1cf	0.02131739
73	0x3d6a8c0b	0.05726246
74	0xbd75eafc	-0.06003855
75	0xbd02277a	-0.03177593
76	0x3da71e44	0.081600696
77	0x3d1307bf	0.03589606
78	0x3db46988	0.08809191
79	0xbdb37cc1	-0.08764029
80	0x3a4aaf4e	0.0007731811
81	0xbd92e237	-0.07172053
82	0x3d201a8f	0.03908783
83	0xbd6fddc8	-0.058561116
84	0x3b794ebc	0.0038041314
85	0x3d786c01	0.060649876
86	0xbd4cef60	-0.050032973
87	0xbc5a8c64	-0.013339136
88	0x3bf68f30	0.0075243935
89	0xbd4bc220	-0.04974568
90	0xbcaa5584	-0.02079273
91	0x3ca338fe	0.019924637
92	0xbbe45efb	-0.0069693304
93	0x3d146efc	0.036238655
94	0xbc6a03ad	-0.014283103
95	0x3cde51be	0.027138587
96	0xbd3adf6c	-0.045623228
97	0x3d9a82b8	0.07544464
98	0xbd7d5508	-0.06184867
99	0x3d508e9c	0.050917253
100	0xbca02092	-0.01954678
101	0x3d657819	0.056022737
102	0xbd152f74	-0.036422208
103	0xbd57be27	-0.052671578
104	0xbcfb9fed	-0.030715907
105	0x3d44c945	0.048043508
106	0xbd81f316	-0.06345193
107	0xbc5cb25b	-0.013470258
108	0xbda7c32b	-0.08191522
109	0xbd7176b8	-0.05895111
110	0x3d4c74f9	0.04991624
111	0xbd9e835b	-0.07739898
112	0xbda8795e	-0.08226274
113	0x3d8fa4b4	0.070138365
114	0x3d01c67b	0.031683426
115	0xbd8f3381	-0.069922455
116	0x3d99ddb5	0.075129904
117	0xbd99c2cf	-0.0750786
118	0x3dac3883	0.08409216
119	0x3d65cb97	0.05610236
120	0xbd100481	-0.035160545
121	0x3da33da5	0.07970742
122	0x3d236dd3	0.03989966
123	0x3d3f1dcc	0.046659276
124	0x3d31a529	0.0433704
125	0x3caea38d	0.021318221
126	0x3cb416b9	0.021983491
127	0xbc519f51	-0.012794332
