checkpoints/pc/seed2/final.pt (torch, 400859 bytes, 7 tensors)

fc1.weight f4 [256, 256]
00000000: 1250 cebd ca9b 933d 8b19 623d ec69 173d
00000010: 39a2 0ebd 4158 843d 4aa4 6c3d 28a8 513d
00000020: 2997 c63c 007c b5bc 63f0 313d d4da 50bc
00000030: 9ede 313d bb03 613d c2b5 16bc 38c4 143d
00000040: 4694 5dbd 3626 223d cff3 51bc efb1 99bb
00000050: ff66 35bd 29e1 1ebd 9d82 01bd b197 5d3d
00000060: ce29 77bd 97e3 9f3c f683 18bd 77b2 083d
00000070: 5c46 1f3d 993e c13c 0817 253d ee90 be3c
00000080: f600 4ebd 442e 12bc 29c7 d93c 9bf3 17bd
00000090: cabe 7abb 4477 0abb 9d62 3bbd e41f be3c
000000a0: e4ad 6e3d 7978 563d fbc1 593d 82eb 08bd
000000b0: ff15 9d3c 7392 3dbb d15d f4bb 8aba db3c
000000c0: 1d18 4abd 6e46 003d 7701 c0bc 6e99 0abc
000000d0: 82f6 603c 0b9a 8ebc ac68 5ebd b93e 04bd
000000e0: abab f4bb e9b5 fb3c e310 173d be51 193c
000000f0: 43db d73b 93d1 6a3d 77f1 84bd 6f48 98bc
00000100: ab74 16bc e899 323d 29af 87bb 78d1 253d
00000110: 28cf 383d f274 95bc ec6d ebbc 9472 23bd
00000120: 2e17 d53c e6cf 253d 7008 63bd 3a6f e53c
00000130: 35a3 6a3c a8d8 0ebd 755a 833c 4e8f bbbc
00000140: 9c9c 0bbd 741b 833c 384d 5cbc ada0 e0bb
00000150: e4db 073d d251 723d 5200 76bc 8a52 c93c
00000160: ca69 b13c b5cd a53b 5603 e73c 4a97 d03c
00000170: fa9e 713d a3b2 70bd 9644 b1bc fe00 ddbc
00000180: 1681 4f3d ae9e d2bc 446f 47bd a63e 0abd
00000190: 5454 1f3d a03f 813c 66b4 f03c be87 4cbd
000001a0: e419 7b3c f8dd 653d f28f 853c e0af 9f3c
000001b0: 47e5 fe3c 5018 48bd 8b4a 4ebc 3c9c 663d
000001c0: 26ac b23b 4c16 17bd 9610 2c3d 523e 96bc
000001d0: 1d63 7dbd 454d 7cbd 151f 6e3c 2c8c 933c
000001e0: fabb e33c 7281 143d 26ee 03bd aad9 1bbd
000001f0: aaeb bdbc bb53 4ebc 27aa 75bd ce31 443d
00000200: 5ffe 3bbd 5efd 9a3c e969 27bd c364 43bd
00000210: d15f 14bd 0052 7cb9 488c f6bc c032 adbc
00000220: 8867 623d 3f72 4b3d 1ae4 693c da4d 7bbd
00000230: 8215 9c3c cf2d 083d 9f6e 8abd ba3f 2d3b
00000240: 8318 6bbd 54e1 df3b a87e 65bc de16 e5bc
00000250: 50fc af3c e564 43bd 60d4 073d c4c6 92bd
00000260: 3ac9 743c eae1 69bd 8958 1dbd 73de e0bb
00000270: 0e69 93bd e76c 2c3d ace2 fabc a1d8 87bb
00000280: bcca 933c a965 9dbb 8262 3a3d 175f 233b
00000290: 97f0 0fbc 2776 49bd a7e2 993c 396e 333a
000002a0: a190 6fbd c21f 7f3b 326c fe3a 2f97 4dbc
000002b0: 4eaa 55bd a911 653c 21ed 51bd 6fb0 823c
000002c0: 28e3 493c 6b0a 1ebd a519 833c 6cf3 da3b
000002d0: e521 37bd 4ce6 3f3a 9a7c 113d 22a1 79bc
000002e0: 403a 68bd 9b9a b8bb ed18 b9bc f7ed 2c3d
000002f0: 3759 efbc 95d9 70bd fc17 513d a1e3 a7bc
00000300: 1fdb 74bd e841 5ebc 8f15 1a3d fc7f 92bc
00000310: 805a 88bc a8ac 753b 542a 7ebd 8663 1bbd
00000320: 08d7 613c 7cbc 9bbc 64b8 d63c b223 713d
00000330: 2eac 253d 99e8 52bb 40f4 7ebb 5c76 c4bc
00000340: 4e16 533c 7859 0d3c 1c41 433d e0cd 2c3c
00000350: c446 11bd 82be 303d 7e63 80bc 8210 54bd
00000360: 0496 8c3c 7b94 333d 342f db3c df38 beb9
00000370: 6c1c afbc 49c0 13bc 72f2 7bbd 7c34 89bc
00000380: ceba 7f3d 014f 4cbd 6359 11bd b830 babc
00000390: a0ce 143c 801f 063b 449a 393d 64e3 db3c
000003a0: e40c 9a3c 40d9 13bd 313a 2d3d 463b 0fbd
000003b0: a0a9 c63b a272 36bd 7b47 3c3d 58a4 e73c
000003c0: 3097 afbb 95d6 213d c426 883c 60b4 b0bb
000003d0: 009a 493b 2549 313c 6c01 c3bb 1051 cb3b
000003e0: 3a4e 1bbd 88f2 ef3c 5089 2f3c cc37 dc3c
000003f0: 00f9 74bd d632 243d f0c9 61bd 88ae 84bc
-0.10073866 0.07207449 0.05520014 0.03696625 -0.034822676 0.064621456 0.057773866 0.051185757
0.024242 -0.022153854 0.04344214 -0.012747485 0.043425195 0.0549352 -0.009198608 0.03631994
-0.054096483 0.039587222 -0.012814476 -0.004690401 -0.044287678 -0.03878895 -0.031618703 0.054099742
-0.060342602 0.019517703 -0.037235223 0.033373322 0.03888546 0.02358942 0.040305167 0.023262467
-0.050293885 -0.008922163 0.026584225 -0.037097555 -0.0038260692 -0.0021128217 -0.04574834 0.023208566
0.058271304 0.052360985 0.05316351 -0.033427723 0.019175528 -0.0028926402 -0.007457473 0.026822347
-0.049339402 0.031317167 -0.023438198 -0.008459432 0.013730647 -0.017407438 -0.05429904 -0.03228638
-0.0074667535 0.03072639 0.03688134 0.009357868 0.0065874173 0.05732877 -0.06491368 -0.018589227
-0.009183089 0.043603808 -0.0041407538 0.040482968 0.045119435 -0.01824424 -0.028738938 -0.039904192
0.02601203 0.04048147 -0.05542797 0.028007139 0.014321138 -0.03487459 0.016034344 -0.022895481
-0.0340849 0.016004302 -0.013446145 -0.0068550915 0.03316869 0.05916006 -0.015014725 0.02457549
0.02165689 0.0050599226 0.028199833 0.025462765 0.058989502 -0.05876411 -0.02163915 -0.026978012
0.050660215 -0.02571043 -0.048690096 -0.033751152 0.03889878 0.01577741 0.029382896 -0.04993414
0.015325997 0.05611989 0.01630399 0.019493043 0.031115187 -0.04885131 -0.012591015 0.05630134
0.0054526506 -0.0368865 0.042008005 -0.018340264 -0.0618621 -0.061597127 0.014533778 0.018011175
0.027799595 0.03625626 -0.032209538 -0.038049378 -0.023183662 -0.012593205 -0.059976723 0.04789906
-0.045896884 0.018919643 -0.04087249 -0.047703516 -0.03622419 -0.0002406314 -0.030096188 -0.021142364
0.055274516 0.0496695 0.014275575 -0.061353542 0.019053224 0.03324681 -0.067593805 0.002643569
-0.057396423 0.006832281 -0.014007248 -0.027965005 0.021482617 -0.047703642 0.03316152 -0.07166818
0.014940554 -0.057100214 -0.03841451 -0.0068624555 -0.07197772 0.042096045 -0.030625664 -0.004145697
0.018041007 -0.0048033786 0.0455041 0.0024928504 -0.008785388 -0.049184944 0.018784834 0.00068447326
-0.05848754 0.0038928841 0.0019410907 -0.012548252 -0.05216437 0.013981261 -0.051251534 0.01595327
0.012322225 -0.038584154 0.01600344 0.00668185 -0.04471006 0.00073203887 0.03551922 -0.015236171
-0.056696177 -0.005633665 -0.022594893 0.04221913 -0.029217346 -0.058801252 0.051048264 -0.020494284
-0.059779283 -0.013565518 0.037618216 -0.017883293 -0.016644716 0.0037486944 -0.062052086 -0.03793671
0.013784178 -0.019010775 0.026210971 0.058871932 0.040447406 -0.0032182096 -0.0038902909 -0.02398222
0.012883736 0.008627288 0.047669515 0.010547131 -0.035467878 0.043150432 -0.015672442 -0.051773556
0.017161377 0.043842774 0.026755907 -0.00036281996 -0.021375857 -0.009018012 -0.06151051 -0.01674866
0.06243401 -0.04988003 -0.035485636 -0.022728309 0.009082466 0.0020465553 0.045313135 0.026841827
0.018804975 -0.036095858 0.042291824 -0.034968637 0.0060627013 -0.044542916 0.045966607 0.028276607
-0.005358599 0.039511282 0.016620047 -0.005392596 0.0030761957 0.010820662 -0.0059510972 0.0062047318
-0.0379164 0.029290453 0.01071389 0.026882075 -0.059807777 0.040087543 -0.055124223 -0.016196504

fc1.bias f4 [256]
00000000: 5da1 093d 1070 f1bb 4caa efbb 9467 293c
00000010: 9140 4bbd 9eb3 1e3d c052 53bc fc20 863d
00000020: b8bd 72bc 35ac 38bc 3b0b 34bd 5d12 bd3c
00000030: bdac 553b 671d 363c 62f8 0dbc b4d5 933c
00000040: b252 323d 56d3 cf3b 2861 7ebd c21c d4bb
00000050: f630 773d b75b 2d3d c3b0 80bd 4ccf acbc
00000060: 4b99 993c d15b 423c d170 393c 8b9e 713d
00000070: 4e59 bfbc 4f88 6cbd fb51 0d3d 5c46 2a3d
00000080: ae96 01bb 65b8 f63c 34d2 6dbb 0af9 733d
00000090: 1ed0 65bc 71eb a73c d278 543d d858 ee3c
000000a0: 3ac3 613d 9b5d 31bd 0de7 cf3c 8f37 273c
000000b0: 3fa1 f1bc 320f b43c b456 d93c c34a 503d
000000c0: 831a 60bb f729 2a3d 1e79 993c 0007 333c
000000d0: 5eaa 62bd 3d28 d8bc 161d 093c b60f e03c
000000e0: ed01 723c a84d bd3c c488 d93c 9d0e 2cbd
000000f0: 5a64 c4ba 5c0c c03b 54fa d9bc 0a38 dfbc
00000100: 0c0a 413d 24ec f23b 8201 13bd 32d2 b43c
00000110: dc9a c83c 0dbd a0bc 1203 413d de64 7b3d
00000120: f566 903c b2b0 b2bc 8065 34ba 873d 543d
00000130: 526d 32bc 94b3 9dbc 92e6 37bd e8e4 8c3c
00000140: b961 6d3d c4c9 1fbd 5b1c 21bc 9dfa 3fbc
00000150: 9c61 c33c 70b1 1b3d 1eea 1ebd 929f c43c
00000160: 628e 223d 5ecd 78bd 758b 4c3d 38d4 c23b
00000170: 0200 493d 0882 2b3d ad9a 3cbd 5e3c d8bc
00000180: 1793 81bc 6298 ca3c 0f9f 883c 42da 69bd
00000190: e705 533c a8f1 f13b 425b d2bc efd6 0cbd
000001a0: db0f 1bbc 556e 6f3c e294 033d 88db 43bd
000001b0: 6050 22bd 8d72 bd3c ccaf b33c 7918 66bd
000001c0: 2b28 46bd d320 843d 5101 1ebd 5f05 a0bb
000001d0: 71c2 6bbd a485 9fbc c639 eb3c 8edb 1d3d
000001e0: 44df bfbc c50c 19bc f5f7 4e3d 8570 5c3c
000001f0: dc7a 0fbd c706 4b3d d0eb bfbc 78bc 50bd
00000200: 0ff4 25bd b8f8 aabc 077d 91bc 7eb1 21bd
00000210: 0a26 4dbb ba4a 363d 337a b9bc acea e03c
00000220: e760 33bd e678 2d3d cfd8 07bd c6d4 203d
00000230: f3cb 0fbd 2ad0 4a3d 36e1 25bd 880c 833b
00000240: 1827 59bd 92ef c03a 22b0 073d 03c0 3b3d
00000250: f77b b7bb 220a 2d3d 342e 1d3d d9d3 81bd
00000260: cf0a 2a3d aa50 403d 528c 953c 7f65 47bc
00000270: a310 dcbc 2a4b 3f3d 4bed 723d 52cf 253d
00000280: 629c 36bd 7cb4 72bc 7d11 8b3c 68ad 2f3d
00000290: d721 3f3d a48a fb3c f663 47bd 46bb 29bd
000002a0: 3a24 c2bc b28c 4cbd 8f63 153d 9941 bd3c
000002b0: 0cc9 c13c 83b6 4a3d 2011 153c 4762 5dbc
000002c0: 59f0 48bb d495 d43c 688b 593c f4d9 9fbc
000002d0: f236 21bd 5809 1ebc 82d3 563d b630 603d
000002e0: d873 b43c ba76 343c f107 41bc 68ec 3fbd
000002f0: 3c87 4f3d 6e6f 40bc 40f1 19bd 05fc bcbc
00000300: 409e edbb cebb 52bd ce33 193b 6f0b b43c
00000310: 505c a2bb f18b dfbc ec4f 6bbb d3c5 c33c
00000320: 6bfa 68bc ff66 313d 2402 52bd 2f4d 3a3d
00000330: a6f5 b03c ef78 383d 7c19 31bd 02b1 803c
00000340: 9d84 273d b07b 163d 43f5 103d 5746 5ebd
00000350: b77b 20bb 0339 25bd 5325 5cbc f59c 6c3d
00000360: ee29 973c 1a99 66bd 2c3f c73c 8602 4bbd
00000370: cc47 37bd fc85 eabc 8639 bb3c e435 2cbc
00000380: 3761 8d3d 821d 233c 58e4 6c3c 03d6 bc3b
00000390: 34f9 5dbc e1f7 f9bb 8806 453d cc05 fdbc
000003a0: 1f70 4f3d ac67 ee3c 3a1f 8ebc 57f4 263d
000003b0: c2d5 273d a66d 233d ef49 efbc 81df 663d
000003c0: 959d 673d bd75 47bd ff71 393d 8bd7 1fbd
000003d0: fe66 10bd cf48 183c 701c 0dbd 955e 943c
000003e0: 05ed 373d 9ed8 25bd e9eb 4e3c 1f42 80bd
000003f0: 497b 103d c87c b4bc 2806 f13b bedd 573d
0.033601154 -0.007368095 -0.007314002 0.010339636 -0.049622122 0.038745515 -0.012898147 0.0654926
-0.01481574 -0.011271526 -0.043956023 0.023080045 0.003260418 0.0111154085 -0.008665176 0.018046238
0.043535896 0.006342332 -0.062104374 -0.0064731548 0.060349427 0.042323794 -0.062837146 -0.02109494
0.018749854 0.011862711 0.011318401 0.05898909 -0.023358013 -0.05774718 0.03450201 0.041571006
-0.001977365 0.030117223 -0.003628862 0.059563674 -0.01402667 0.02049801 0.051873036 0.029095098
0.055117823 -0.04330216 0.025378728 0.010206117 -0.029495833 0.021979902 0.026530601 0.05085255
-0.003419549 0.041543927 0.018734511 0.010926962 -0.055338256 -0.026386375 0.008368751 0.027351242
0.014770967 0.023108318 0.026554473 -0.042006124 -0.001498352 0.0058608484 -0.026608624 -0.027248401
0.047128722 0.007413404 -0.03589011 0.022072885 0.024487905 -0.019621396 0.04712207 0.06137549
0.017627219 -0.02181277 -0.000688158 0.05181649 -0.010890322 -0.019250669 -0.044897623 0.017198995
0.057954524 -0.039010778 -0.009833421 -0.011717466 0.023850255 0.038011014 -0.03879749 0.02400187
0.039686568 -0.06074273 0.049937684 0.0059457086 0.049072273 0.041872054 -0.046045948 -0.026395973
-0.015817208 0.024730865 0.016677408 -0.057092912 0.012879825 0.007383544 -0.02567828 -0.034384664
-0.009464229 0.014613708 0.032124408 -0.047816783 -0.039627433 0.023125911 0.021934412 -0.056175683
-0.04837815 0.06451573 -0.038575474 -0.004883453 -0.05755848 -0.019472905 0.028714072 0.03853946
-0.023421891 -0.009341423 0.05052944 0.013454561 -0.035029277 0.04956701 -0.023427874 -0.050960988
-0.040515956 -0.020870551 -0.017759813 -0.03947591 -0.003130319 0.04450486 -0.022641277 0.02745565
-0.043793585 0.042351626 -0.03316575 0.039265417 -0.03510661 0.049514927 -0.04049798 0.0039992966
-0.0530158 0.0014719835 0.033126958 0.045837414 -0.0055994946 0.04224599 0.03837414 -0.06339235
0.041514214 0.046951927 0.018255387 -0.012170195 -0.026863402 0.04670254 0.05930833 0.04048092
-0.044582732 -0.014813539 0.016976112 0.042889982 0.04666313 0.030705757 -0.048679315 -0.041438363
-0.023698915 -0.049938865 0.0364719 0.023102568 0.023655437 0.049490463 0.009098321 -0.013512201
-0.0030660836 0.02595035 0.013277866 -0.019513108 -0.03935904 -0.009645782 0.052447803 0.054733954
0.022027895 0.011014635 -0.011781679 -0.046856314 0.05066608 -0.011745317 -0.03758359 -0.023069391
-0.007251531 -0.051448636 0.0023376825 0.021978108 -0.004954852 -0.027288409 -0.0035905791 0.02389804
-0.014219861 0.043311115 -0.051271573 0.045483764 0.02160151 0.045037206 -0.043237194 0.015709404
0.040897954 0.03673905 0.03539015 -0.0542663 -0.0024487802 -0.040337574 -0.013436633 0.057766873
0.01845261 -0.056298353 0.024322115 -0.049562953 -0.044746205 -0.028628342 0.022854578 -0.010510895
0.06903308 0.009955766 0.014458738 0.005762817 -0.013548184 -0.0076284264 0.04810193 -0.030886553
0.050644036 0.029102169 -0.017348874 0.040760364 0.04097534 0.03989949 -0.029210059 0.056365494
0.056546766 -0.04869627 0.04527473 -0.039023917 -0.03525447 0.009294703 -0.03445095 0.018111506
0.044903774 -0.040489785 0.012629488 -0.062626116 0.035273824 -0.022032157 0.00735547 0.052701704

fc2.weight f4 [128, 256]
00000000: b4a4 c33c 764f 573d f0ba dcbc c8a1 433c
00000010: 26df 273d 7463 5ebd 4ed9 213d fa4d 1c3d
00000020: 0060 a8ba 8a47 7d3d 64ff 87bc 84a0 cabc
00000030: 447e c1bc 40e1 a3bc 8062 073d 3019 3a3d
00000040: b85d 3b3d 945f 1a3d 3eb1 0ebd 083e 65bd
00000050: 86f4 583d acd9 1c3d 0c7c 1dbd 029e 44bd
00000060: 8c3b 053d 6c97 78bd 1482 60bd 108f f03c
00000070: 2e97 013d ce78 6b3d 9495 eebc f61e 31bd
00000080: 4c9d 98bc 204c 9fbc 365e 5c3d 80ab 6bbb
00000090: ca22 0dbd 0c73 b5bc 84c8 213d 60c5 e93b
000000a0: 8066 77bd 0caf 99bc 208c ff3b 682c db3c
000000b0: 9425 b9bc b860 403c 026b 08bd 2017 b8bb
000000c0: 88f3 37bd 28bf eabc 4485 57bd bcd5 97bc
000000d0: 802f acbb 0c8f 4b3d 8098 5a3d 00ea 473c
000000e0: 928e 0e3d f495 26bd 40b1 75bb 40d2 3fbd
000000f0: 4866 063d f03b 34bd 7041 cfbb 2054 0dbd
00000100: 40ae 9dbb 441f a0bc faea 78bd 98e8 2a3d
00000110: 962b 293d a4b6 ddbc b85f af3c 8a84 733d
00000120: d00b c43c 000e 4c3b 80f2 233a 400f 383b
00000130: f807 f63c 347f dabc e058 86bb 8021 66bb
00000140: 7421 7cbd 64e7 be3c 18dc 883c 704b 9abb
00000150: aecc 58bd 1273 6d3d 78a2 47bc 7c29 dd3c
00000160: fa11 193d 7a04 183d f07c e8bb 5ecc 523d
00000170: 280e 7fbd 54f9 ecbc e00f b0bb 084b 293c
00000180: 8ee0 233d 00de 52ba 2695 4c3d a447 e43c
00000190: e0f5 7ebb aaa9 6fbd f840 eabc 5ce1 ba3c
000001a0: c082 35bb 3009 f6bb 6e58 27bd a412 8abc
000001b0: 3613 243d 6078 6ebd 2806 b6bc fc89 123d
000001c0: 8033 7eba c081 0abc bcbf 4c3d c011 51bc
000001d0: e4b0 2cbd 1cbd e83c 9e9f 73bd 2aec 633d
000001e0: 50d0 943b c0af 34bb b6b9 5a3d 58f5 59bc
000001f0: 00ca 30bd c230 40bd a87e 82bc f07e 8ebb
00000200: 8064 bcba b44c 813c 84cd de3c 78b8 083c
00000210: 5cec 34bd f09f f23b 288e c2bc 761a 3bbd
00000220: 701a dcbb 00ce 3e39 342d 073d b6d6 0f3d
00000230: 787d 5ebc d8c6 713c 7059 cabc a076 78bd
00000240: 8610 52bd fe59 4ebd c0a0 5dbb 24f5 3fbd
00000250: 00bd 7fba 70a4 c5bc ccef a8bc 3093 b9bc
00000260: d0b3 46bd a66d 533d b887 39bd e6d9 0dbd
00000270: eea0 6fbd ae1f 79bd ac05 103d ccec 013d
00000280: 6cfe c8bc cc24 783d 1ceb ce3c 80b0 12ba
00000290: 8445 de3c 4c42 3abd 4881 1c3d 78d1 013c
000002a0: f407 0dbd 1ce2 7e3d 80f9 dcba bc4b 893c
000002b0: 90f9 88bb f060 c6bc 5015 49bc 0ae6 13bd
000002c0: 5601 56bd d039 0b3c 423d 0f3d 42aa 47bd
000002d0: 8e8c 6a3d 5c50 223d 9cda f13c e6c8 48bd
000002e0: 7a0e 363d 9ef7 41bd 7e0c 543d cc4f 763d
000002f0: b0fc 8f3b 04df 643d 3019 87bb b8d9 453d
00000300: 703d 45bc f4f1 d23c 305a a6bb e40b ea3c
00000310: 18ef 04bc de93 7dbd fe54 523d a030 d5bc
00000320: aa39 7e3d b88d 3abc ecc5 a0bc 5485 60bd
00000330: d0c1 a23b 7c46 41bd 586c 60bd 2a83 6abd
00000340: e03b af3c 264c 743d 429d 4bbd f81a d8bc
00000350: 78fd 3abd b8c9 2c3c e837 94bc 64e2 24bd
00000360: 788f 52bd 402e 50bd 5463 c23c 16dc 2abd
00000370: e0fd 403c dafb 783d 78b9 da3c 004e e93b
00000380: cca1 6bbd 9805 28bd 240e 7d3d 08af fabc
00000390: c860 74bc 325a 76bd 8cbf 75bd 4c6d aabc
000003a0: b028 f23c 82c9 3d3d 54bf a0bc 1430 ddbc
000003b0: 50b6 4e3c 1ecb 5fbd a043 4c3d 4cc5 053d
000003c0: 162c 73bd 14f6 f43c 42b2 41bd dcfd a33c
000003d0: ccc5 5fbd 2868 33bc 3cef ea3c 700a 443d
000003e0: 64b6 34bd e032 9d3b 84cc fcbc ca63 5fbd
000003f0: ae26 3ebd 0cdb 41bd c8b9 4dbc 28c1 62bc
0.023882248 0.052566014 -0.026944607 0.011940427 0.040984295 -0.054294065 0.03951388 0.0381603
-0.0012845993 0.061835803 -0.016601272 -0.024734743 -0.023619778 -0.020004869 0.03305292 0.045434177
0.045743674 0.037688807 -0.034837 -0.05596736 0.05296757 0.038293526 -0.03844838 -0.04800225
0.03252749 -0.060691282 -0.054811552 0.029365093 0.031638317 0.057488255 -0.029124059 -0.043242417
-0.018629692 -0.019445479 0.053800784 -0.0035960376 -0.034457006 -0.022149585 0.039497867 0.0071341246
-0.060400486 -0.018760227 0.0077986866 0.026754573 -0.022600926 0.01174181 -0.033305176 -0.005617991
-0.044909984 -0.028655604 -0.052617326 -0.018534534 -0.005254686 0.049696967 0.05336809 0.012201786
0.034803934 -0.04067035 -0.0037489682 -0.04683137 0.032812387 -0.044002473 -0.0063249394 -0.034504056
-0.004812032 -0.019546159 -0.060770966 0.041725725 0.041301332 -0.027064629 0.021407947 0.05945257
0.023931414 0.0031136274 0.0006254092 0.0028085262 0.030033097 -0.026671983 -0.00409995 -0.0035115182
-0.06155534 0.023303695 0.016706511 -0.0047087 -0.052929573 0.057971068 -0.012184732 0.02699732
0.03737066 0.037113644 -0.007094972 0.05146443 -0.06226936 -0.028927483 -0.005372986 0.01033283
0.040009074 -0.0008043945 0.049946927 0.027866192 -0.0038903877 -0.058511414 -0.028595433 0.022812538
-0.0027696341 -0.0075084195 -0.040855817 -0.016854592 0.040057383 -0.058220267 -0.022219732 0.035776123
-0.0009697005 -0.008453786 0.04998754 -0.01276058 -0.042160884 0.028410487 -0.059478395 0.055645145
0.0045414343 -0.0027570575 0.053399764 -0.013303123 -0.043161392 -0.0469215 -0.015929535 -0.004348628
-0.0014373213 0.015783645 0.027197607 0.008344762 -0.044170722 0.00740432 -0.023749426 -0.045679532
-0.006717019 0.00018196553 0.033002093 0.035116874 -0.013579719 0.014756881 -0.02470085 -0.060660005
-0.05128529 -0.050378792 -0.0033817738 -0.046864644 -0.0009755641 -0.024126261 -0.020622157 -0.022653192
-0.048511326 0.05161824 -0.045295447 -0.034631632 -0.058503084 -0.060821228 0.03516166 0.031719968
-0.02453538 0.060581967 0.025258593 -0.00055957586 0.027132757 -0.045473382 0.03820923 0.007923476
-0.034431413 0.062227353 -0.0016859025 0.016759746 -0.004180141 -0.024216145 -0.012273148 -0.036108054
-0.052247368 0.00849767 0.03497053 -0.048746355 0.05726295 0.039627418 0.029523186 -0.049019717
0.0444474 -0.047355287 0.051769726 0.060134694 0.0043941364 0.055876747 -0.0041228756 0.048303336
-0.012038574 0.025750138 -0.005076669 0.028570123 -0.008113645 -0.061908595 0.051350586 -0.026024163
0.06206671 -0.011386327 -0.019625627 -0.05481465 0.004966952 -0.04718636 -0.054790825 -0.057253994
0.021390855 0.059642933 -0.04971052 -0.026380047 -0.045651883 0.01054614 -0.018093064 -0.040254965
-0.051406354 -0.050825357 0.023729004 -0.041713797 0.0117792785 0.06078706 0.026699767 0.007119894
-0.05752735 -0.04102096 0.061781064 -0.03060104 -0.014915653 -0.06014461 -0.059997126 -0.02080407
0.029560417 0.04633475 -0.019622482 -0.027000464 0.012616709 -0.054637067 0.04986918 0.03265886
-0.059368216 0.029902495 -0.04728914 0.02001851 -0.054631993 -0.010950126 0.028678529 0.047861516
-0.044119254 0.0047973245 -0.03085924 -0.054538526 -0.046423607 -0.04732804 -0.012556501 -0.013839997

fc2.bias f4 [128]
00000000: f0dd f03b 440f 6abd 71aa 8f3c 09d1 8cbc
00000010: d5f1 933c a56c 5a3d 65e0 713c 7fc6 0b3d
00000020: a189 16bc aa0e 3d3d 5d1e 873c 7cde cdbb
00000030: 1794 103b b178 5ebd 6d36 0abd 21b9 433d
00000040: a001 5c3d a93e fe3c eefa 983b 4f6e 3bbd
00000050: 09f5 063d 22fe 7fbb 7ea8 6ebd 15b5 723c
00000060: 620c c53c 8447 613d 7df1 cf3c 5583 753d
00000070: edd2 863a 2ad5 063d e4a9 493d 7b5a 4e3d
00000080: 05c6 4ebd 23b4 e93c ea31 843d ccfd 1f3c
00000090: f3b0 263c a15c fe3c 92cf 84bd eb2a 873d
000000a0: 6f30 10bb 88eb 6e3d 97f3 cdbc 6bfe 4a3d
000000b0: 483a 60bd 8cb4 653c 3451 83bd ee24 76bd
000000c0: 6ec0 6c3c eb22 343d 1429 3dbc 3e52 fd3c
000000d0: ad72 8a3c e7ef 603c 5443 aa3c 846e 29bc
000000e0: b154 bebc 9473 42bc eaa8 a1bc 77b0 14bd
000000f0: 0e3a 213c 3d80 773d 0d51 2ab8 ec27 b73b
00000100: 57b8 a1bc 5ada 6c3d 8039 2fbc 1f85 833c
00000110: b04a f2bc 7268 473d 8c98 493d 1d3e dbbc
00000120: a3d7 823d 14f2 61bd 7118 4b3d 92de c03c
00000130: bbb5 db3c f707 693c 8e74 ff3c 7b2a 1ebd
00000140: e6f2 4fbd b98c 983b 68ea 363d d252 343d
00000150: fea9 90b9 3e92 013c aaa3 c03b 4ffc 35bd
00000160: c006 bfbb c37f 06bd 3ea1 413b 5e6b 563d
00000170: a16c 0bbc cc5e 4cbd 66e2 863d 0cde 4b3d
00000180: 4c59 e43a 5758 45bd 91af b03b 6790 6abc
00000190: 6d03 4dbd 1afe c63c 1309 6abd 9f9e 313d
000001a0: e3b2 2f3d 4f76 8d3d d073 ecbc be93 9dbc
000001b0: 51b3 1cbc 67f4 2c3d 4cd0 6ebd 57aa 00bd
000001c0: 883e a9bc 1f67 abbc eaa4 80bd 70db 8ebc
000001d0: 7efa 3c3d e1fb 52bc 5e95 173d e3f5 213d
000001e0: 0521 4bbb 907f 0bbd c084 0b3d a957 0bbd
000001f0: fe19 e53b bd7c 33bd 8852 893d c77d 65bb
0.0073506758 -0.057143465 0.017537327 -0.01718952 0.01805965 0.053326268 0.0147629725 0.034124848
-0.009188087 0.046156563 0.01649397 -0.0062826257 0.0022060925 -0.05431432 -0.03374331 0.047783975
0.053712487 0.031035738 0.004668585 -0.045759495 0.032948527 -0.0039061387 -0.058266155 0.014813681
0.024053756 0.054999843 0.025383705 0.0599397 0.001028625 0.032918133 0.049234286 0.050379258
-0.050481815 0.028528279 0.06454833 0.0097651 0.010174024 0.031050028 -0.064849034 0.06599983
-0.0022001525 0.05833009 -0.025140567 0.049559038 -0.05474308 0.0140200965 -0.06411973 -0.060093813
0.014450176 0.043978613 -0.011545438 0.030923005 0.016900385 0.013729072 0.020784058 -0.01034129
-0.023233743 -0.011868376 -0.019733865 -0.036301102 0.0098405015 0.060425032 -4.0606643e-05 0.005589476
-0.01974122 0.057825424 -0.010694861 0.016054688 -0.02957663 0.04868359 0.049217746 -0.026763016
0.06388786 -0.055162504 0.049583856 0.02354363 0.026820054 0.01422309 0.031183507 -0.03861473
-0.050768755 0.0046554473 0.04465714 0.044024296 -0.00027592474 0.007908402 0.0058788853 -0.044430073
-0.005829662 -0.032836687 0.002954557 0.052348487 -0.008509786 -0.049895093 0.06586151 0.049772307
0.0017421632 -0.04817995 0.005392023 -0.014316655 -0.050052095 0.024291087 -0.05713756 0.043364163
0.04289521 0.06907331 -0.028863817 -0.019235488 -0.009564237 0.042225268 -0.058304116 -0.03141245
-0.0206597 -0.020923195 -0.06281455 -0.01743862 0.046137325 -0.012877435 0.037007682 0.039541136
-0.0030995023 -0.0340572 0.034062147 -0.034019146 0.006991624 -0.04382013 0.06705195 -0.0035017596

actor.weight f4 [4, 128]
00000000: e3d0 bdbc fbc5 9dbd af17 83bd f31f 093c
00000010: 25d0 fa3c 4c26 9c3d cecc 0ebd fa42 7cbd
00000020: 73c8 dabb 5088 2fbd 18a4 a03b 8e8d 65bd
00000030: 0d73 c8bc 04d9 e53b 95f3 a7bd 2e73 a1bd
00000040: e965 12bd 6312 5cba e036 2e3d 455a 9dbd
00000050: 74ce 4e3d cd9a 6d3d 55d7 3c3c 901e 01bd
00000060: f538 a4bd 32f1 50bd 26bc acbb f5ed c93b
00000070: a5b5 743c aceb 703c 7341 04bd 8762 2b3c
00000080: faea 0ebc c829 e23c 03a3 8a3a 0fe0 9bbd
00000090: 52ba a7bd 1ed4 703d 2368 053d 1383 783d
000000a0: f960 45bd 57f4 32bd 48e1 833d bbda 293d
000000b0: 67d9 94bd bb8e 783d 7e53 863b 2205 4d3d
000000c0: 0f8d 8f3d a0c6 8bbd 19e4 95bd bc02 83bd
000000d0: 52f6 1d3d e5d1 c63b c055 ce3c 3bc4 f63c
000000e0: bbcb 26bd 652e 8239 55c4 083d 3654 62bd
000000f0: 7fff 863d 6fc8 2c3b 99c4 18bc 6ff7 25bd
00000100: 61ed 49bd 919f c6bc 294a 09bd 1289 3abb
00000110: e70d 1fbd 3e49 acbd bd4e d93c 6350 533d
00000120: 70c0 96bd 10ed e239 db11 903d 55f0 303d
00000130: 4cb4 96bd f1a4 153d a9a5 3e3d 821c 48bc
00000140: 2455 e3bc dc1f d5bc 8ba3 c13c 4a9d 533d
00000150: bb72 afbd 432c 993d ba96 25bd a01e 5abd
00000160: ecf8 44bb a98a 70bd 3556 87bd 9943 9d3c
00000170: 4930 523d 53f0 92bd 49bb a5bc ac54 b9bc
00000180: 03ad 923d c59f db3b a250 713d e92e 693c
00000190: 0e00 3c3d 3489 70bd 0a65 903d 7738 31bd
000001a0: e23d 1e3d 8f9e 963d 7f3e 52bd 4ff5 643d
000001b0: 1dd1 44bd a2c9 163d be4a 093b 59d8 64bd
000001c0: 8776 ac3d 7775 1e3d d386 eb3c a274 5abc
000001d0: 3469 693d c2a7 81bd 72d1 813d ce4f 82bd
000001e0: b741 b7bc 43fd 9bbd 5dd7 a23d d809 89bd
000001f0: a451 6cbd 3ed6 44bd 9dd5 a33d 91a8 e4bc
00000200: 47c6 b13b 0e87 6c3d df5a 88bd 5330 46bd
00000210: d4e1 2abd a191 85bd 2f45 cfbc 8ca7 a73c
00000220: b4ee 9abd aa37 6d3d 5e68 c63c 2745 abbc
00000230: a067 813d f586 41bc 9902 b7bd 46f6 633d
00000240: b0a2 a63d deba 4b3d dcc2 233d 55f7 ab3d
00000250: 583d 38bc 3900 983d 81b9 6b3d d938 673d
00000260: fa2c 883d f32d 663d 5021 e33b 2278 973b
00000270: 8a35 893d e65f a5bd 2c8a f6bc cd54 96bd
00000280: ec7f a9bd 050e b03c 043a a63c 9e82 973d
00000290: 2ffb 60bd 9b99 4a3d 8985 09bb a45d 02bd
000002a0: cc3c 693d 5637 f33c 40e7 973d 927b a4bd
000002b0: bddd a8bd 556f 1e3c 7351 0f3d df0d a53c
000002c0: ea81 8bbd 2d8e 65bd 8904 29bd c8e2 223d
000002d0: 9302 c0ba 97be 90bc f752 21bd 4460 0fbd
000002e0: d679 d93c 18a3 393d 4d0e adbd 1b0e 8ebd
000002f0: fda2 71bd 5caf 9bbd d821 5cbd e044 ad3d
00000300: 70c1 803d 5db1 9abd 9847 d239 7375 0bbd
00000310: 0800 9a39 e517 373d 3066 983d a50a a13c
00000320: 2f99 95bd a55e 5a3d 818d 593b 91b2 b43c
00000330: a748 df39 7a62 64bc c35d 993c 976f 203d
00000340: a4a1 4cbd be53 f63a d4eb 5bbd 27ed 663d
00000350: 7b0a 4bba 0fac e3bb 71b8 72bd ccbe 8fbd
00000360: 4510 813d 00cb 3f3d 2699 153b 1014 733c
00000370: fbed 2fbd e249 673d 8340 9abd 7fe8 943d
00000380: 755e 333c 9033 89bd f07b 8bbc 10a5 603a
00000390: 84d1 f6bc 2edc 63bd f6c2 5c3d 8f07 813c
000003a0: a37f 21bd 263c 49bd 5cc3 8e3d 62a6 cabb
000003b0: 0f36 3ebd c72a 913d 9e03 c33c bc4c 54bc
000003c0: dde3 a4bd c859 473d 9f8b ffbc 1d94 533d
000003d0: 27e2 42bd 9232 523d c0bd 7ebd 1792 283b
000003e0: bd01 98bc 89fa 9c3d 8052 65bc 643f 7a3d
000003f0: 1ab2 7c3c ceb4 f73b 738d 803c 8692 d8bb
-0.023170894 -0.077037774 -0.06401002 0.008369434 0.03061683 0.07624492 -0.034863286 -0.06158731
-0.0066767274 -0.042854607 0.004902374 -0.0560432 -0.024468923 0.0070143957 -0.082007565 -0.07883297
-0.03574172 -0.0008395074 0.0425328 -0.07683233 0.050489858 0.058008958 0.0115259485 -0.031523287
-0.08018676 -0.05101127 -0.0052714525 0.0061624 0.014935886 0.014704626 -0.03228898 0.0104605025
-0.008723015 0.027607813 0.0010577146 -0.07611095 -0.08189835 0.05879604 0.032570016 0.060671877
-0.048188183 -0.043690052 0.06439453 0.041468363 -0.07268029 0.060682993 0.0040993085 0.050053723
0.07009327 -0.06824994 -0.07318897 -0.06397006 0.038564987 0.006067502 0.025187373 0.030122867
-0.040721636 0.000248301 0.03339036 -0.05525609 0.06591701 0.0026364585 -0.009324216 -0.040519174
-0.049298648 -0.024246009 -0.03351799 -0.0028463048 -0.038831618 -0.08412407 0.026526803 0.051590335
-0.07360923 0.00043282704 0.07034656 0.04319795 -0.07358608 0.036534254 0.046544705 -0.012213828
-0.02775056 -0.026016168 0.023637554 0.051663674 -0.08566805 0.074791454 -0.040426947 -0.053251863
-0.0030055596 -0.058725987 -0.066082396 0.019197272 0.05131558 -0.071747445 -0.020230906 -0.022623383
0.071619056 0.0067023956 0.058914788 0.014232376 0.04589849 -0.058724597 0.07050522 -0.04326674
0.038633235 0.073544614 -0.051329132 0.055898007 -0.04805099 0.036813386 0.002094909 -0.055870388
0.08421045 0.038686242 0.028750813 -0.0133334715 0.056985095 -0.063308254 0.06338777 -0.06362878
-0.022370202 -0.07616665 0.079512335 -0.06691331 -0.057695046 -0.04805588 0.07999728 -0.02791241
0.005425248 0.057745986 -0.06657957 -0.04838593 -0.041719273 -0.06521917 -0.025301544 0.020465635
-0.0756506 0.057914414 0.024219688 -0.020906998 0.06318593 -0.011811961 -0.08936042 0.055654787
0.08136499 0.049738757 0.039980754 0.08396784 -0.011245094 0.074219175 0.057549957 0.0564507
0.066492036 0.056196164 0.0069314614 0.0046224752 0.06699665 -0.08074932 -0.030095182 -0.07340393
-0.08276352 0.02149106 0.020291336 0.0739796 -0.054927047 0.049462896 -0.0020984134 -0.031827584
0.056942746 0.029689472 0.07417154 -0.08031382 -0.08245418 0.009670098 0.034989785 0.020148216
-0.068118885 -0.056043793 -0.04126409 0.039767057 -0.0014649205 -0.017669005 -0.039385762 -0.035003915
0.026547354 0.045321554 -0.08449993 -0.06936284 -0.05899333 -0.076018065 -0.053743213 0.084604025
0.06286895 -0.075533606 0.00040107663 -0.034047555 0.00029373192 0.044700522 0.07441366 0.019658396
-0.07304608 0.053312916 0.0033195915 0.022057803 0.00042588005 -0.013939494 0.018721467 0.03916892
-0.04995884 0.0018793268 -0.0536917 0.05637851 -0.0007745397 -0.006948001 -0.05925793 -0.070188135
0.06301931 0.046824455 0.002282688 0.014836326 -0.042951565 0.056466945 -0.07531836 0.072709076
0.010947813 -0.06699288 -0.017026871 0.0008569518 -0.030129202 -0.0556299 0.053896867 0.015750675
-0.039428364 -0.049129628 0.069708556 -0.006184385 -0.046438273 0.07088237 0.023805436 -0.012957748
-0.08051274 0.048669606 -0.031194506 0.051654924 -0.047578957 0.05131776 -0.06219268 0.0025721842
-0.018555516 0.07664973 -0.01399672 0.06109561 0.015423322 0.0075593954 0.015692448 -0.006609264

actor.bias f4 [4]
00000000: f579 553d df92 99bd 195e 9abd 9346 3d3c
0.05211826 -0.074987166 -0.07537479 0.011552471

critic.weight f4 [1, 128]
00000000: 5933 8b3d 5113 e2bb f81e 363d 2d62 27bc
00000010: 8ed0 8c3d 830d 013d c17e b93c 644e b23c
00000020: 299e 92bd 85e6 403d 9679 8cbd f62f 193d
00000030: af7f 9fbc b9d1 5b3d 984e 52bd cf5a 6e3d
00000040: 956f 87bc 7c90 b93d 15d8 a83c 89ad 933d
00000050: 398a a63d 0171 043d 0c52 32bd 2cbc 6fbd
00000060: 8b6f 923d 24bf 55bc 6277 fdbc a29d db3c
00000070: 3864 9dbc 3253 4d3d 592f fbbc 0068 953d
00000080: 03cd 8d3d 6899 d739 48ad ee3c 0f1f 27bd
00000090: df85 06bd beb4 edba 5192 92bd 1be6 f63c
000000a0: 4f52 debc c866 a8bd 3d65 3ebd fdaa 8f3d
000000b0: 055b 563b 7e0c 933c fe0c aa3a 535e b0bd
000000c0: 8521 ab3d 5adf 4e3d 1c47 a3bc 1c6a 17bd
000000d0: e549 483d 4d81 2a3d 896b 313d 8ae6 aa3d
000000e0: 9c04 123d e0cc 90bd e366 12bd b108 87bd
000000f0: fe87 9f3d 1f4e b03d 360d 5cbb 72db 72bd
00000100: 59f7 f33c 0d39 9a3c e0cf 78bc 4928 a7bd
00000110: b434 97bc 8b1c 94bd 4b03 b83c 7967 cdbc
00000120: eb80 543d 45a1 cd3c 5c6c 96bd af20 22bd
00000130: 9964 893d 8958 a73d c662 603d 6c43 ce3c
00000140: bf69 22bd 80d9 a7bd f679 c3bb f920 16bc
00000150: 087e 73bc 118e 69b9 d051 b43c 85c7 793d
00000160: aa84 be3d ac39 873c 3c4d dfbc c0e8 7bbc
00000170: 25af 0ebd 0686 96bd 9d59 513d 2407 58bd
00000180: 9fdf 613c 29dc abbd 29d6 2a3c 10c9 5bbc
00000190: d4bb 99bd 5bb6 a63d 7726 773d 267e a73d
000001a0: 4644 f2bc bdc7 973d c56c 853c 77a4 21bc
000001b0: 253a 3fbd 542e 37bc 9c2b 67bd e3eb 8d3b
000001c0: 1e52 b33d e978 e63c a9ff 3dbd 78ed d03c
000001d0: 50b4 1dbd cac1 af3d 48d5 be3d 6e01 463d
000001e0: cc79 493d 81e7 933b 8f90 8abd c680 213d
000001f0: c652 9a3b 7e7d 143d 257c b23d 96a2 153d
0.06796903 -0.0068992754 0.044463128 -0.010216278 0.06875716 0.031507026 0.022643449 0.021765895
-0.07159073 0.04709484 -0.06859128 0.037399255 -0.019470064 0.053666804 -0.051344484 0.05819207
-0.016532699 0.09060761 0.020610848 0.072108336 0.08131833 0.03233433 -0.043535277 -0.058529064
0.071501814 -0.01304606 -0.030940715 0.026808564 -0.019212827 0.05012817 -0.030662226 0.07295227
0.069238685 0.00041122292 0.029135361 -0.040801104 -0.032842513 -0.001813553 -0.07156814 0.03013902
-0.027138857 -0.08222729 -0.046483267 0.07015035 0.003270806 0.017950293 0.0012973843 -0.08611741
0.08356003 0.050505973 -0.019931369 -0.03696643 0.048898596 0.041627217 0.043315444 0.08344753
0.035648927 -0.07070327 -0.03574265 -0.06593455 0.0778961 0.086086504 -0.003357721 -0.05929131
0.02978103 0.018826032 -0.01518628 -0.08161981 -0.018457748 -0.07232007 0.022462508 -0.025073754
0.05188076 0.025101313 -0.07344887 -0.03958195 0.067086406 0.081711836 0.054781698 0.025178634
-0.03965163 -0.08195782 -0.0059654666 -0.009163135 -0.014861591 -0.00022273535 0.022011667 0.060981292
0.093026474 0.016506992 -0.027258508 -0.015375316 -0.034835 -0.07349782 0.051110853 -0.052741185
0.013786226 -0.083916016 0.010427036 -0.013414636 -0.075065285 0.0814025 0.060339417 0.08178358
-0.029573571 0.07411144 0.016287217 -0.009865872 -0.04668631 -0.011180479 -0.056438074 0.0043310984
0.08755897 0.028133826 -0.046386395 0.025503859 -0.038502038 0.08581884 0.09318024 0.048341207
0.04918842 0.0045136814 -0.067658536 0.03942945 0.0047095744 0.03625249 0.08715085 0.036532007
