checkpoints/pc/seed1/final.pt (torch, 400859 bytes, 7 tensors)

fc1.weight f4 [256, 256]
00000000: 59b5 6c3c f422 f43c 12b8 7dbd ef69 313c
00000010: fc56 b9bc 0683 c13c b8d1 4fbd 489b a33c
00000020: 628e 17bd 6ca3 033d 3808 753c 26ca bd3c
00000030: 80d6 ca3b b07e 01bc a614 373d d650 313d
00000040: db5c 7a3d 303a a0bc 9092 3ebd f2fe 77bd
00000050: cc87 01bd 5ae5 403c 42e6 61bd 0b9b 433d
00000060: cf9b 683d 6455 12bd bedb c93b 2814 373d
00000070: a09c 663b 74f5 063d a09f f73c 0a28 7a3d
00000080: 20b1 ee3c a454 0a3d 570e 443d a0ca 173d
00000090: d360 4b3d 610b 603d fe0d 5c3d 56cb 513d
000000a0: 4e9a 65bd caaf 2dbd b889 1f3c c81e 7ebd
000000b0: 1eaf 42bd 723b 693d 0859 0ebd a892 2abc
000000c0: cd2a 453b 6893 513d b604 78bd 0898 603b
000000d0: 5040 2a3d 16aa 623d 5212 583d 8e30 36bd
000000e0: bebc 6c3d 04ce 54bd 00bb 95ba 11c1 1dbd
000000f0: 6040 e13b bac4 54bd e7f7 363d 1273 26bd
00000100: 9461 55bd 15b6 1cbd eb98 81bd a2ed e23c
00000110: a621 d23c 800a 7d3b 1c8a 4dbd 1e08 9cbc
00000120: 7978 61bd 0340 33bd 853f 79bd 98c0 443d
00000130: 2208 ba3c 644d 17bd d05f 0a3d c6b5 3b3d
00000140: 1ed6 233d c9be 06bd 8247 c6bc 5642 963c
00000150: 947c 333d 400a 2dbd d051 193c a677 323d
00000160: b06a 21bd 7ac9 3fbd bac9 733d fbe3 eabb
00000170: 0455 99bc 6ef6 f5bc f867 323d d89d 2abc
00000180: 228f 4fbd a446 1fbb 3b6b 853a 3c1e c03c
00000190: d30b 0bb9 6c76 973c ca69 46bd 0c2f 3ebd
000001a0: b8e2 57bc f840 0b3c 9eb3 2cbd 8149 f53c
000001b0: 5f4b 563d a016 6d3d 9027 63bd 6066 36bd
000001c0: 2585 ba3b e6f1 cc3c de11 5d3d b09b 743c
000001d0: a597 64bb 7c3f 7cbd f4f4 42bd 4071 24bd
000001e0: be52 abbc 786c 5bbd f87f 32bc 8e34 6fbd
000001f0: 7d44 6ebd 63ee 35bd f049 83bc 7813 15bd
00000200: 00a9 553a d618 3b3d d3cc fdbc cacd 993c
00000210: fa88 ccbc c042 d6bc 0014 49ba 40da 803a
00000220: 0023 fc39 65b3 033b 9b98 6a3d 8634 40bd
00000230: 28e5 313b d231 a63c 087f 0c3d 300b 9dbb
00000240: b835 31bc 05b7 b73b 3936 b03c f218 b0bb
00000250: 96aa debb caa1 5bbd f82a 6bbd c089 2b3d
00000260: 64a7 773c 5e32 453d cbc9 35bd 805c 53bc
00000270: 6dac 983b f226 37bd f47c 963b c4bd f5bc
00000280: e0f8 6dbb 34e6 dabc 7d4a 433c 0eda 67bd
00000290: 3bd7 b9bc 1ce5 4f3d 3a13 7cbd d09e 8fbc
000002a0: 3d52 403c 6e7a 503c 1038 943c b2eb 0ebd
000002b0: b1ba 6d3d aa9d 10bd af07 63bc 72e0 c53c
000002c0: 36f2 05bd 9e17 cb3c ce63 97bb 009f 643d
000002d0: 9493 333d d5a2 a8bc aacd c53c 29ae 763c
000002e0: eecb 643d 020c c53c 1a24 933c 08f8 4f3d
000002f0: 03c1 c03c f512 3a3d 9161 303d 7510 ed3c
00000300: 48c1 57bd 94fa 58bd 44d0 d7bc 98c9 c9bc
00000310: 809c 263a c43c c4bc a00a 36bb ec1d de3c
00000320: 9c81 37bd 196b 0d3d 6630 683d 626f 1b3d
00000330: d047 683d 401b fb3b 7054 69bd 7d0e 82bd
00000340: 78d3 183c 283c 43bc 000a 053c 04a3 1d3d
00000350: aeb1 6abd e630 763d 68cd 03bc 4ce6 3c3d
00000360: 30e1 3fbd b2bc 3cbd 9f64 323c 00a3 e73a
00000370: 58c5 6b3d fe5b 083c ce7b 753d 7e75 203d
00000380: 4b0b bfbc daf9 45bd b022 a93b e8fb 9a3c
00000390: 540a e8bc 98e2 c3bc e01c b9bc 5840 4fbc
000003a0: 806d 1cbc 387b 81bc ca2f 303d 96f8 023d
000003b0: 30dc 87bb ea70 163d 2ad1 1f3d 5caf 153d
000003c0: 1c59 b73c 08ea ee3c 3e10 493d 0e16 3a3c
000003d0: 003f a5b9 74d8 a3bc 58a8 943c 0a0e 56bd
000003e0: 30d8 a9bc 663d 5abd de97 63bd 08aa 633d
000003f0: b087 a63b 6ef0 4f3b b0d7 413d 2c02 18bd
0.0144475335 0.029801823 -0.06194312 0.010828479 -0.022624485 0.023622047 -0.050737113 0.019971505
-0.03700102 0.032138273 0.014955573 0.023167681 0.006190121 -0.00790374 0.044697426 0.04328998
0.06112371 -0.019558996 -0.04652649 -0.06054587 -0.031623647 0.011773432 -0.05515123 0.047755282
0.056789216 -0.035725966 0.0061602285 0.044696957 0.003518857 0.032948926 0.030227482 0.06107334
0.029137194 0.033772126 0.047865238 0.037058473 0.049652886 0.05469835 0.05372428 0.051219307
-0.05605536 -0.042403974 0.009737425 -0.062041074 -0.047530286 0.056941457 -0.034752876 -0.010410942
0.0030085326 0.05116597 -0.060551368 0.0034270305 0.04156524 0.055337988 0.052751847 -0.0444799
0.057797186 -0.051954284 -0.0011423528 -0.0385142 0.006874129 -0.051945426 0.04467001 -0.040637083
-0.05209501 -0.038259584 -0.06327995 0.027701203 0.02565081 0.0038610995 -0.05018054 -0.01904684
-0.055046532 -0.04376222 -0.060851593 0.048035234 0.022708956 -0.03693904 0.03378278 0.04582765
0.03999912 -0.03289679 -0.02420402 0.018342178 0.04381998 -0.042246103 0.0093578845 0.043571137
-0.039408386 -0.046823002 0.059518553 -0.0071682907 -0.018717296 -0.030024733 0.043556184 -0.010413609
-0.05067361 -0.002430358 0.0010179052 0.023451917 -0.00013260478 0.018489085 -0.048440732 -0.046431586
-0.013176613 0.0084993765 -0.042163484 0.029942276 0.052317973 0.057882905 -0.05545765 -0.044531226
0.0056921416 0.02501769 0.053972118 0.014929697 -0.0034880426 -0.06158398 -0.047596887 -0.040147066
-0.020913478 -0.05357024 -0.010894768 -0.05839973 -0.058170784 -0.044416796 -0.016026467 -0.03639552
0.0008150488 0.045677982 -0.030981457 0.018774886 -0.02496766 -0.026154876 -0.0007670522 0.0009830669
0.00048091263 0.002009594 0.057274442 -0.04692509 0.0027144644 0.020287428 0.034300834 -0.0047925934
-0.01081603 0.0056065344 0.02151023 -0.0053740675 -0.006795238 -0.05362109 -0.057414025 0.041879416
0.015115593 0.048143737 -0.044381898 -0.012900472 0.0046592266 -0.044714876 0.0045925323 -0.029997714
-0.003631167 -0.026721098 0.011919615 -0.056604438 -0.022685638 0.050755605 -0.061541773 -0.017531782
0.011738357 0.012724502 0.018093139 -0.034892745 0.05803937 -0.03530661 -0.013856812 0.024154875
-0.032701693 0.024791535 -0.004620052 0.055815697 0.043841913 -0.020585457 0.02414592 0.015056171
0.055858545 0.024053577 0.01796155 0.05077365 0.023529535 0.045428235 0.043061797 0.028938511
-0.05267456 -0.052973345 -0.026344426 -0.02463226 0.0006355718 -0.023954757 -0.002777733 0.027113877
-0.04480134 0.034525964 0.05668678 0.03794802 0.05670911 0.0076631606 -0.05696529 -0.0635042
0.009327762 -0.011916198 0.00812006 0.038485542 -0.057298355 0.060105227 -0.008044578 0.046118066
-0.046845615 -0.04607839 0.010888248 0.0017672479 0.05756125 0.008322714 0.059932522 0.03917455
-0.023320815 -0.04833398 0.005161606 0.018918946 -0.028325237 -0.02391176 -0.022596776 -0.012649618
-0.009547591 -0.015805826 0.043014325 0.03197535 -0.0041461214 0.036728777 0.039017834 0.03654419
0.022381358 0.02916433 0.049087755 0.011357797 -0.0003151819 -0.020000674 0.018146679 -0.052259482
-0.020732969 -0.05328121 -0.055564754 0.055582076 0.005082093 0.0031729 0.047324836 -0.037111446

fc1.bias f4 [256]
00000000: f940 043c f073 4b3c 6446 9dbc 3502 113d
00000010: 10a6 83bc 56cf 08bd 97a8 333c f21d 7dbd
00000020: d45c 083d bf57 38bd ac23 893d 4641 923c
00000030: 0b5e 41bc e19d 163d d263 8e3c b608 013d
00000040: 2fcd 39bd f17a b5bc 8ed5 0abd ea5c 7d3d
00000050: af30 5c3b 531e 9abc fbe7 4fbd 1c2e 5b3d
00000060: 4aa4 0b3d a524 24bd eda3 0dbd 149d f3bc
00000070: 47cf 483d 32fe 623c e44e 8bbc b8dd e33c
00000080: 7acf e23c 9ee0 b73c f678 21bd a76d 043d
00000090: 491d 763d a0f4 d63c c997 bebc b5ee 953c
000000a0: ed60 47bd 3370 33bd 8cf8 2ebd e40c 573d
000000b0: d5a5 ef3c 475d 803d 7a0b 103d 7491 653d
000000c0: d728 303d 24a2 20bc a616 313d f62e 41bb
000000d0: c11e a7bc a8c1 603c 1b4b 5abc 2898 2d3b
000000e0: c443 eabc 63b7 39bd c8d2 c13c 09a3 aabc
000000f0: 48d1 203d 7f69 1e3c 920e e7bc ca09 2d3d
00000100: 205b 543b 5ca5 203d 1bc7 26bd c2c6 52bd
00000110: a290 773d e7f8 c1bc 1966 553d a1f2 4abd
00000120: f3d0 613d f413 66bd fd9a 873d 5e11 15bd
00000130: b9e9 7a3d 8293 753d 5ae8 18bd 52e0 2dbd
00000140: 46a2 66bd 94ff febc f4b7 dfbc a2b9 08bd
00000150: 40e2 cc3b 5479 273d 33c0 1dbd 716d 2a3d
00000160: 79b1 1d3d cca6 1bbd bfcb c7bc 0a65 cb3c
00000170: 8088 613a d02d fabc 70aa afbb a0a1 22bd
00000180: 008a d9bc 89ec 1b3d b662 3cbd 8c2e cc3c
00000190: 1727 a0bc fa70 b73c b6ce 55bd ac9c f8bc
000001a0: 2aac 95bc e2d1 3c3d 1954 3b3d f6bd 8e3d
000001b0: 8768 3d3d 3c92 2dbd 0a78 013d 6279 61bd
000001c0: 3b27 7bbd 96f6 233d 3891 41bc 7b97 37bd
000001d0: fc58 62bd b5b8 163d e7a5 c7bc c51f 03bd
000001e0: 65e8 81bd 063c 573c 4309 21bc 3f3f 073d
000001f0: 40c4 a43b 002f 1a3d 9980 27bd eaf4 51bd
00000200: 102b 31bc 2366 9bbc 29f0 2cbd 68d8 7dbd
00000210: ffe7 8fbc b242 58bd acbf febb 4fab 1fbc
00000220: 43b6 793d 93be 473d 26b3 a23c 6a29 7f3c
00000230: b8ac afbc d4f9 70bd c59e e83c 80e8 16bd
00000240: 3aab 4d3c 7ffc 743d 7c8e 2e3c 78fd 0fbd
00000250: 4f59 1ebc 846b 24bc da3b cb3b c033 0c3d
00000260: e57d 0b3d e194 6abd f8f8 e83c affc 77bd
00000270: a071 e6ba f7c5 f03c d5fd 86bc 448c 17bc
00000280: f0d9 84bb 76a4 c23c ec33 6d3d b30e 1dbd
00000290: d406 16bd 56c5 fcbc d15d 29bd 2285 26bd
000002a0: 4a16 18bd 7fa0 55bd e45e 4e3d 3f9f 6dbd
000002b0: 4858 20bc c55b 95bc 0d71 43bc b489 233d
000002c0: b20c 81bd e0ae 14bd 147a 8c3c 8db5 6a3b
000002d0: b1ae 12bd 585d 583b 6461 2abd a2e6 d6bc
000002e0: 6d4e 1bbd 71d4 2cbd ac39 b53c d411 3f3c
000002f0: e088 d6bc bdb5 1b3d 3784 433d 6e63 22bc
00000300: 523e 37bd 0b83 703d e4f0 fe3c 1f8b 70bd
00000310: 3c0d 3abd 1600 753b cf6a 9c3c 0ecc 263d
00000320: 2d3a 0fbd 49ef 723d 3a28 55bd 8002 ca3b
00000330: 5f71 4f3d 6d92 f5bc 630f 993b fbf7 1cbc
00000340: 6b47 063d c65b d63c 4cf6 54bd 9c2f 05bd
00000350: 5fea ad3b d6a7 043d 5f1a f5bc 2e32 6dbd
00000360: ea6d 763d e2f4 75bd ca9a 70bd 88df 063d
00000370: c17d 53bd d060 0e3c 8f20 05bd f21a 3c3d
00000380: e8d7 f1bb 0980 a33c 0d96 1a3d bb6f d7bc
00000390: 7279 573d 3dee 17bd d225 053b 0868 d73c
000003a0: d6b0 183c 4261 cabc 32aa 84bd f0e0 eabc
000003b0: a0ab 05bb 4012 233d 59c1 7b3d 8645 2fbd
000003c0: e7bc 8b3b 50f8 aebc 69c1 5c3d 75b9 61bc
000003d0: fc66 9b3c fec7 3cbc a4c0 04bd d7e0 86bc
000003e0: 1c45 3e3d 1d3b f33c 1a4c 453d a7d0 043d
000003f0: bfa6 ef3c 7898 363d 410f 5c3d c247 d3bc
0.008072131 0.012417778 -0.019198604 0.035402495 -0.016070396 -0.033400856 0.010965488 -0.061796136
0.033291653 -0.045005556 0.06696257 0.01785339 -0.011802207 0.03677166 0.017381582 0.031502448
-0.045361694 -0.02215335 -0.033895068 0.061856188 0.0033598354 -0.018813288 -0.050758343 0.05351077
0.034092225 -0.04007401 -0.03458016 -0.029737987 0.0490258 0.01385455 -0.017005391 0.027815685
0.027686823 0.022445973 -0.039421998 0.032331135 0.060086522 0.026239693 -0.023265736 0.018302301
-0.04867642 -0.043808173 -0.0427175 0.052502528 0.02925388 0.06267791 0.035167195 0.056046918
0.043007698 -0.009804282 0.04323449 -0.0029477454 -0.020400407 0.013718046 -0.013323571 0.0026488397
-0.028596766 -0.045340907 0.023660079 -0.020829694 0.039262086 0.009668707 -0.02820519 0.042245664
0.0032402948 0.0392202 -0.040717226 -0.05145908 0.060440667 -0.023678256 0.05209932 -0.049547795
0.05513091 -0.056171373 0.066213585 -0.036393516 0.06125805 0.059955128 -0.037330963 -0.042450257
-0.0563071 -0.031127729 -0.027309395 -0.03338016 0.006252557 0.040887192 -0.038513374 0.041608278
0.03849933 -0.038000867 -0.024389146 0.024828453 0.0008603409 -0.030539423 -0.005360894 -0.03970492
-0.026555061 0.038067374 -0.045992576 0.024924539 -0.01954989 0.022392739 -0.052199088 -0.030348144
-0.01827057 0.046098597 0.0457345 0.06969826 0.046242263 -0.042375788 0.03160862 -0.0550474
-0.06131671 0.040030085 -0.011814408 -0.044822197 -0.055260643 0.036797244 -0.0243711 -0.03201272
-0.06343154 0.013136869 -0.009828868 0.0330193 0.0050282776 0.03764248 -0.040894125 -0.05125896
-0.01081349 -0.018969601 -0.042221222 -0.06197396 -0.017566679 -0.05279798 -0.007774314 -0.009745433
0.060964834 0.04876573 0.019860815 0.015573839 -0.021444663 -0.058832005 0.02839602 -0.036842823
0.012553031 0.05981111 0.010654088 -0.035153836 -0.0096648475 -0.010035399 0.006202203 0.03422904
0.03405561 -0.05727089 0.02843903 -0.060543712 -0.001758147 0.029391272 -0.016478458 -0.0092497505
-0.0040543005 0.023760062 0.057910845 -0.038344096 -0.036627606 -0.030855816 -0.041349236 -0.04065431
-0.03713063 -0.052155014 0.050383464 -0.058013197 -0.009786673 -0.018232236 -0.011928809 0.039926246
-0.063012496 -0.036299586 0.017148055 0.003581378 -0.03581113 0.0033014622 -0.041596785 -0.026233021
-0.03791659 -0.042194787 0.022122227 0.011661965 -0.026188314 0.038015116 0.04773351 -0.009911401
-0.044737168 0.058718722 0.031120725 -0.058726426 -0.045422778 0.0037384084 0.019093899 0.040721945
-0.03496759 0.05931023 -0.052040316 0.006164849 0.05064523 -0.029977048 0.0046710237 -0.0095806075
0.032782953 0.026166808 -0.0519927 -0.032516107 0.00530748 0.032386623 -0.029919801 -0.057909183
0.060163416 -0.06004799 -0.05874137 0.03292802 -0.0516336 0.008690074 -0.032501753 0.045924135
-0.0073804744 0.019958513 0.037740756 -0.026298394 0.052606054 -0.037092436 0.0020316732 0.026294723
0.009319505 -0.02470458 -0.06477775 -0.028671712 -0.0020396486 0.039812326 0.061463688 -0.042790912
0.0042644623 -0.021358639 0.053895388 -0.013777127 0.018970005 -0.011522291 -0.03241028 -0.016464634
0.046452627 0.029691273 0.04816828 0.03242555 0.029254315 0.044579 0.053725485 -0.025791053

fc2.weight f4 [128, 256]
00000000: ccac debc 1815 8fbc 4ebb c7bc 60df 46bd
00000010: 2219 bdba 7a77 57bd aefc 0c3d 0ed3 573d
00000020: 1f3d 04bd b077 10bc ff92 24bb 8b54 67bd
00000030: afbe e83c 8721 e13c ec6b 7c3c f0db 06bc
00000040: 14af 0d3d 7989 203d 6ff1 f3bc 5068 893c
00000050: 9eb7 da3c 85af 3f3d 4c4f 6dbd edb4 913b
00000060: 405c bdba 10cc e23c 0d98 4dbd d8ab abbc
00000070: 6e28 1d3d 7822 633d 0833 103c 1abf 0d3d
00000080: 8dd4 d2bc 4c6f 4cbd ec45 14bd abd8 e8bb
00000090: 3a32 00bd 1467 6abd fcac 52bd ade1 933c
000000a0: 3b8b 1fbd 4bd4 523d 808c c03c 001d 8b39
000000b0: 2896 633d e1db 14bd 0805 febc f0ea 76bc
000000c0: 9290 86bc ebfe 6cbd 6573 76bd f540 6cbc
000000d0: 952f 023d c8ae a93c e27b 48bd 2969 bf3c
000000e0: a7f6 223d 9157 e7bc b51e 813c d969 3e3d
000000f0: e50b bd3c 3bc8 5e3d 069f 863c 9c06 583d
00000100: 0e53 67bd 0364 3f3d 19a0 133c 024f 223d
00000110: de1f 7fbd 30e8 c5bc 3be7 133d 6992 be3c
00000120: 9909 113d b504 5d3d 2686 5f3d 306d 70bd
00000130: e3d9 06bd 7d8c 663d 7452 373d 9565 8dbc
00000140: a0b9 463d be35 23bd 8831 80bc 5016 d73c
00000150: 1263 31bd d282 7bbd 7a32 71bd d4ed 3bbd
00000160: c32a 4d3c 0220 1f3d d223 09bd f933 4abc
00000170: 56dd 1fbd 7b96 1bbd c02d b73c 6e4b 5c3d
00000180: 60b0 0b3d 8ffc 11bd a0fc 07bd 1b26 fcbc
00000190: 0b22 4c3d ebd3 353d 6cbb 41bd 3cff 34bd
000001a0: 0af2 55bd 2acb 16bc 694c 12bd 1f76 173d
000001b0: a078 66bd dfbe 0e3d faea 6a3c ca23 2c3d
000001c0: 3ea7 09bd 4224 1e3d b484 f03c ccc7 60bd
000001d0: f890 c6bc 3b91 7abd 9fa4 063d bf34 603d
000001e0: 864c 34bd e474 2f3d 5412 d63c c8aa d8bc
000001f0: 7236 d3bc f0fd 5b3d c732 f03a 77b9 2c3d
00000200: 546f b63c cf33 123d 83da 233c 4437 4abd
00000210: 870d 6739 d879 633c 8090 f43b e09a 9c3c
00000220: 784c 0ebd 6282 77bc 6d47 80bd 206d 7ebd
00000230: 00a7 753d 07f7 f9bc 9f2a e33c da52 aabc
00000240: f850 48bd 4c34 d2bc bf1b 313d ee87 e53b
00000250: b9dd 6dbd b812 6fbc 8c93 503d 8ba6 8e3c
00000260: d981 5cbc adc4 fc3b 79bd 03bd c638 063d
00000270: a64c 81bd 7391 5abd 82ac 1d3d 00b5 44bc
00000280: 78a7 1bbd d8e6 48bd b73d bcbb e193 133b
00000290: be25 62bd d36e 50bd 9039 753c dc86 37bd
000002a0: e8ae d3bb 8995 843c 251f 07bd 4bb8 11bc
000002b0: dccd b73c 9752 023b a04c 723d fddc d23c
000002c0: 25d3 c0bc 7966 2dbd 4ce0 383d e545 4e3d
000002d0: e562 68bc 0de7 313d 574b 973c 7aee 56bd
000002e0: 178b 4a3c 2c52 213c 4927 7fbd 4302 933c
000002f0: e5fe dc3c 2f13 2fbd 3a38 2cbc dfeb 0e3c
00000300: 20e1 2abb 56a1 583d 4535 6dbd b13e 23bd
00000310: b444 7f3d f483 283d 9439 5dbd 0aba e2bc
00000320: 40b1 11bb ca4a b2bc bcda 203c 541f 913c
00000330: 9845 5b3d 3b63 203d ae8e 06bd db84 06bc
00000340: 9601 ea3c 40fd b7bc 20de 473b 83e9 9bbb
00000350: 36b9 553d 2371 35bd 38d6 83bd 650a 18bd
00000360: 0f16 75bc b621 6b3d d7f9 e73b d811 48bc
00000370: 5a5c 1dbd 2578 00bc 9cb4 1d3d 1975 3bbc
00000380: 9177 46bd 79e9 a23c 4ad1 81bc 8a78 9dbc
00000390: f0e0 6bbd ef4b 3cbd 553c 1abd e052 bf3c
000003a0: b5d8 4fbb 28d8 0ebd ab73 6dbd f4a0 69bd
000003b0: ba22 703d 47e6 36bc 15eb 1a3a a1f9 b8bc
000003c0: 2586 9ebc 7439 46bd 72f3 6b3d fa9f 233c
000003d0: 65ec f93c c4c6 003c 242c 8a3c 5e36 83bd
000003e0: c5ec 533d cecd 2c3c 8c74 f3bc e90b b13c
000003f0: 12c0 c73c f953 36bd 0ca0 1a3d 77d2 c03c
-0.027182005 -0.017466113 -0.024381306 -0.04855287 -0.0014427046 -0.052604176 0.03442066 0.05269151
-0.032284852 -0.008817598 -0.002511203 -0.05647711 0.028411238 0.027481807 0.01540659 -0.008231148
0.034590796 0.039193604 -0.02977821 0.016773373 0.026698884 0.046798248 -0.05793695 0.004446617
-0.0014447048 0.027685195 -0.050193835 -0.020955965 0.038368635 0.055452794 0.008801229 0.034606077
-0.025736118 -0.04991083 -0.036199495 -0.007105907 -0.0312979 -0.05722721 -0.051434502 0.018051947
-0.03895114 0.05147199 0.023504496 0.00026533753 0.055563122 -0.036342505 -0.031008258 -0.015070662
-0.016426358 -0.057860296 -0.060168643 -0.014419784 0.03178366 0.020713225 -0.04894627 0.023365574
0.039786007 -0.028239997 0.015761713 0.046487663 0.02307696 0.054390173 0.01643325 0.05274068
-0.05647569 0.046726238 0.009010338 0.03962613 -0.06228625 -0.024158567 0.03610919 0.023263173
0.035409544 0.053959567 0.054571293 -0.05869788 -0.032922637 0.056286324 0.044756368 -0.017260352
0.04851687 -0.039846174 -0.015648618 0.026255757 -0.04330737 -0.061404057 -0.05888603 -0.045881107
0.012522402 0.038848884 -0.033481427 -0.012341493 -0.03902944 -0.037985306 0.022360682 0.053782873
0.03410375 -0.03564125 -0.033199906 -0.030779889 0.049837153 0.044391554 -0.04729788 -0.044188723
-0.05223278 -0.0092037115 -0.0357174 0.036977883 -0.05626738 0.034849998 0.014338249 0.04202632
-0.03360676 0.038608797 0.029360153 -0.05487804 -0.024239048 -0.06117366 0.03287184 0.054737803
-0.04401829 0.042836085 0.026131786 -0.026448622 -0.025782797 0.05370897 0.001832568 0.04216906
0.022269882 0.03569394 0.010000828 -0.04936911 0.00022034916 0.01388403 0.007463515 0.019116819
-0.034740895 -0.015106769 -0.062636234 -0.06211579 0.059973717 -0.0305133 0.027730284 -0.02079146
-0.048905343 -0.025659703 0.04323935 0.0070047295 -0.05807278 -0.014591865 0.05092196 0.017413398
-0.0134586925 0.0077138753 -0.032163117 0.032768987 -0.06313448 -0.053361367 0.038494594 -0.012006044
-0.038001508 -0.049048275 -0.0057446617 0.0022518563 -0.055211775 -0.05088694 0.014967337 -0.044806346
-0.0064600594 0.016184585 -0.032988686 -0.0088940365 0.022437029 0.0019885653 0.059155107 0.025740141
-0.023538182 -0.042334054 0.04513578 0.050359625 -0.014183735 0.043433238 0.018468542 -0.052473523
0.012362263 0.009846251 -0.062293325 0.017945414 0.026977012 -0.042742904 -0.010511452 0.008723228
-0.0026074126 0.052888237 -0.05791213 -0.03985471 0.06232138 0.041141465 -0.05400999 -0.027676601
-0.0022230893 -0.021764178 0.009817775 0.017715134 0.053533167 0.039157134 -0.032850914 -0.008210386
0.02856521 -0.022459626 0.0030497387 -0.0047580614 0.052178584 -0.04429735 -0.06437343 -0.037119288
-0.014958872 0.057405196 0.007079344 -0.0122112855 -0.03841815 -0.007841145 0.03850232 -0.0114414925
-0.04845387 0.019886719 -0.015846867 -0.019222517 -0.057587564 -0.045970853 -0.037655193 0.023354948
-0.003171486 -0.03487411 -0.057971638 -0.057038262 0.058626868 -0.011163301 0.0005909664 -0.02257997
-0.019351074 -0.048394635 0.057605214 0.009986872 0.03050823 0.007859889 0.016866751 -0.06406854
0.051739473 0.010547115 -0.02971866 0.021612125 0.024383578 -0.044513676 0.03775029 0.023537857

fc2.bias f4 [128]
00000000: e820 a43c 6fca b8bb f06d 5a3d ff33 853d
00000010: b5fa cdbc c05a b23c b943 d5bc 731d cdbc
00000020: bc4e 26bd a45e a0bc 6e73 12bd 5c5a 1a3d
00000030: ca2c 51bd 8649 a93c 8ca5 6c3d a15e 753d
00000040: fc2e c9bb 471d be3c f1df 1fbb 55f7 4b3d
00000050: bda8 7f3d dcf2 6ebc c60f 233d 395d 803d
00000060: d2f8 4c3b 58a6 09bc f6bc ac3c 3632 7dbd
00000070: daeb 6bbc f4c8 053d 2d6e 0cbb 7c27 443d
00000080: e4d8 403d c62f a3bc 02cf 45bd 75f6 0c3d
00000090: d08e c3bb 8afa 6bbd 6ac6 3c3c 609f 7fbd
000000a0: bd76 163d a63b 5d3d fab5 223d 7b03 403b
000000b0: 654e 143d 36e6 61bd a37f 96bc 2174 873d
000000c0: bded 8f3c 5e3f 1bbd 8a16 7d3a 68d2 ffbc
000000d0: f438 42bd 250d d4bc 620f 21bc 105f c1bb
000000e0: e49a 3b3d 00b3 3f3d 1fd4 1d3c bcde 8ebb
000000f0: c82b 033d aec1 36bc 9229 24bd c0ff 1b3b
00000100: 1034 9e3c e558 093d 3091 373d 0a8f 90bc
00000110: 62c1 1dbd ddb8 28bd 5945 10bd 98a7 bd3a
00000120: 9fb2 b43b fb44 edbc 8497 89bc c323 553d
00000130: fb18 63bd 7de8 22bd db22 a6bc 9c94 183d
00000140: 6441 2e3a 1a47 503a 9148 473d d4ce 273d
00000150: 79f9 783d 491d c4bc 7f2d 043d c66d 8e3c
00000160: 3305 403d e081 1c3d b957 633d 8812 223b
00000170: e18d 02bd c54c 143d 28d3 723c 4b6f 31bd
00000180: edcd 113c a7b4 f8bc fc0f 263d 1e4b abbc
00000190: 1c18 373d fa66 733d 77b4 b73c 05d6 133c
000001a0: 2838 5e3d 4abd 29bd 4dbe 0d3b 930c e33c
000001b0: 4d9a 2e3d 72d9 913c f8ab b7bc a820 363d
000001c0: cd0c 79bc 75a9 003d 817d 51bd 8927 353d
000001d0: 067c 0c3d bc5e 6a3d 984b 11bc 32cf 51bd
000001e0: d6c0 80bd 5f58 49bc b7e0 2d3d 27c8 273c
000001f0: 0de9 203d 5821 d33c 7f9e 14bb 1748 3a3d
0.020035222 -0.0056393663 0.0533275 0.06504058 -0.02514396 0.021771789 -0.02603327 -0.025038457
-0.04060243 -0.019576378 -0.035754614 0.03768383 -0.051068105 0.020664942 0.057775065 0.0599047
-0.006139634 0.02320732 -0.0024394954 0.04979642 0.06241678 -0.014584269 0.039809965 0.06267781
0.0031276238 -0.008401476 0.021086197 -0.061815463 -0.014399493 0.032662347 -0.0021427975 0.047889218
0.047081843 -0.019920241 -0.04829312 0.034414727 -0.0059679523 -0.05761198 0.011521915 -0.06240785
0.03673433 0.054011963 0.039724328 0.002929895 0.036207575 -0.055151187 -0.018371409 0.06613947
0.017569417 -0.03790223 0.00096545427 -0.03122826 -0.047417596 -0.025885174 -0.009830328 -0.005901225
0.045802012 0.046801567 0.009633093 -0.004360048 0.032024175 -0.011154575 -0.040078707 0.0023803562
0.019311935 0.033532042 0.044816196 -0.017646331 -0.038514502 -0.041191924 -0.035222385 0.0014469502
0.0055144574 -0.028963557 -0.016795881 0.05203606 -0.055443745 -0.0397725 -0.020280292 0.0372511
0.0006647317 0.0007945165 0.04865319 0.04096873 0.06078479 -0.023939746 0.03226995 0.017386328
0.04687996 0.038209796 0.05550358 0.0024730284 -0.031873588 0.036206026 0.014820851 -0.043319028
0.008899194 -0.03035958 0.040542588 -0.020909842 0.044700727 0.059424378 0.02242492 0.009023194
0.054252774 -0.041440286 0.002162832 0.027715957 0.04262762 0.017803881 -0.022420868 0.044464737
-0.015200806 0.031411607 -0.05114508 0.044227157 0.034297965 0.057219252 -0.008868121 -0.051222987
-0.062867805 -0.012289136 0.042450633 0.010240591 0.039284755 0.025772735 -0.002267748 0.045478906

actor.weight f4 [4, 128]
00000000: 7d2e 2ebb bc4e af3c 9623 b8bd b26e b93d
00000010: b2fd 293d 76a2 013d 5036 673d 41bf 25bd
00000020: 63ed 34bd c75c 043c ce48 a8bd 15e6 21bb
00000030: e655 4cbd 0678 ca3c 2165 18bd 875b 963d
00000040: f112 813d d80d 57bd 5882 6e3d b39f 32bd
00000050: 953b 8f3d f7fa 9fbd a179 943d c9ea 9dbd
00000060: 22f1 c6bc 3451 9d3d f6eb a5bd 14ab 30bc
00000070: 6cc7 2b3c 1110 a43d dae4 843d a40f a83c
00000080: 662d 3e3c 8379 b5bd f142 b3bc b885 8fbd
00000090: c96a 653d b79d abbc 157f 61bd 0497 5e3d
000000a0: 57f0 56bd 8896 503c 44db 343d 526d 0ebd
000000b0: 860f 5fbd 8efc 3abd 8805 b13d a43a 83bd
000000c0: 7450 8bbc 3835 5cbc a377 c8bc 2559 9d3d
000000d0: 80d2 95bd 7ca1 b0bd 3754 913d de5f a63a
000000e0: 72dd d9bc 7dc9 023c e813 b2bd fa75 19bd
000000f0: 4c74 173d 7d20 46bb 3c2a 123d 0ee8 1dbc
00000100: e5b6 2a3d ce65 7a3d 039e 573d bd16 2abd
00000110: aaf1 95bc d1be b5bc 7786 86bd e176 b0bd
00000120: da9b 953d 9b65 78bc 27f4 56bc 6bfd 0b3d
00000130: c919 adbd 5b30 933d e259 9c3c 4647 ccbc
00000140: 9d9e aebd 4af9 d53c ac4d ae3d 96ec 9ebd
00000150: fe25 873c ea51 a4bc 9ba7 843d 9164 abbc
00000160: fb9f 01bd adf3 febc 5bd0 af3c 8f42 09bd
00000170: e884 07bd a3fe 29bc 3c26 af3c b524 1a3d
00000180: 7e4a 3abd e750 283d 04fd 87bd 78e2 b53d
00000190: c74a 493d d330 b63b 3031 ac3d 5dd0 dc3d
000001a0: 77f1 89bb 8948 973d bd16 8b3c ca44 90bb
000001b0: e916 3abd 30e0 1b3d 4eec 05bc 6d9b 45bd
000001c0: ff76 54bc 884e 74bd 8680 1c3d 69a4 863d
000001d0: f40f ce3c 7c1e 8c3b 8ec0 0d3d 4ecd 623d
000001e0: 7e38 833d ddff 213d 52ac c8bd bac1 803c
000001f0: 5ff1 793d e1f5 2b3c a594 0f3c bd37 4d3d
00000200: de15 973d 5766 8bbd 52d9 10bc 81a3 e93c
00000210: d904 f63c fb8e 793c e758 973d 5b9a 9fbd
00000220: 8f4d 2f3d 9ab3 42bb ef9c a1bd d0ab a3bd
00000230: 79a4 1abd bf6a 06bc 9c4d 4abd 4a3a 143c
00000240: 4fcd 4e3d 030c 9e3d 0cac e83b 759e 43bd
00000250: 51b6 cb3c 68f4 b53d 5d0a 5dbd e4d5 dbbc
00000260: b637 f0bc 0452 bdbc fc44 293c 9bb5 2a3d
00000270: ea99 52bc 308b 59bd f03a 9bbc db30 973d
00000280: 86ec 683d 0915 553d 32b1 603d a0a5 673d
00000290: e05c 8bbd e7ab a93d d47f 9bbd a43c 30bd
000002a0: 5e27 863d 05df fdbb 13aa 32bd d80b 9fbd
000002b0: 8351 a03c 2e2f 893d 96a5 4bbd fd1b d5ba
000002c0: ea73 88bd f86e 8e3d 2dd9 aa3d 8025 cebc
000002d0: 58f6 a33d 2b2f 19bd 5e5b 5abc b096 af3b
000002e0: d0f4 90bd d345 fdbb dbbe fc3c da1f 85bd
000002f0: cfbe b5bc 51ba 203d dc26 043c a861 aebd
00000300: 79e6 1f3d b4da 8b3d 5035 9e3d e290 92bd
00000310: 95b7 81bd 9560 bc3c bcd3 fe3c f1de a5bc
00000320: 7d89 11bd 8eb2 22bd 8483 103c cde2 8fbc
00000330: 766e 893d 641d c03c 1d93 0d3d 3dde 1abb
00000340: 3ce8 10bc 5e4d 50bc f174 813d 73e3 8ebd
00000350: 938d b6bd e5db 983c 9f30 b0bd ea0d 9a3d
00000360: 1b22 cebc cb5a fe3c 4754 923d beae 79bc
00000370: f9e6 bcbc 7b9e 323d 9374 3d3d 5401 913d
00000380: 5ee7 91bb 1067 b5bd ab86 1a3d 5374 14bd
00000390: a1d6 d2bc 108f 82bc 0d1b 933b 191f 193d
000003a0: 865f 513c e57e 32bb ea21 1e3d 29ad 5bbd
000003b0: 1df4 6d3d 24dc 8c3c 6250 853d 2ee0 313d
000003c0: 4747 233d 4a39 1b3d 7cfa 30bd c9de cc3a
000003d0: 66a8 80bd 6f71 d3ba 7b46 033d 192d 72bd
000003e0: 94a8 82bd b6db 24bb 5ea2 433b 007c 06bc
000003f0: ea71 b0bd f02b 923c acea 55bb 734a 873d
-0.0026578002 0.021399848 -0.089911625 0.090543166 0.04150171 0.031649075 0.05644828 -0.040465597
-0.044171702 0.0080787605 -0.082170114 -0.002470379 -0.049886607 0.024715435 -0.03720582 0.07341676
0.06302441 -0.052503437 0.058229774 -0.043609332 0.06993786 -0.078115396 0.072497614 -0.07710797
-0.024284903 0.07681504 -0.081016466 -0.010782976 0.010484558 0.08010877 0.064889625 0.02051527
0.0116075035 -0.08861067 -0.021882506 -0.07007927 0.05601004 -0.020949228 -0.055052835 0.05434324
-0.0524753 0.012731202 0.04415442 -0.034772225 -0.054458164 -0.04565101 0.08643633 -0.06407669
-0.017006136 -0.013440423 -0.02447111 0.076830186 -0.0731554 -0.08624551 0.07096141 0.0012693366
-0.026594851 0.007982609 -0.08695203 -0.037466027 0.036976144 -0.0030231767 0.03568481 -0.009637846
0.041678328 0.061132245 0.052640926 -0.04152559 -0.018303711 -0.022185715 -0.06568616 -0.08616424
0.07305117 -0.015160943 -0.013119734 0.034177225 -0.08452184 0.071869574 0.019085828 -0.02493633
-0.08526347 0.026119847 0.085109085 -0.07759969 0.016497608 -0.02005859 0.06477281 -0.020921977
-0.03164671 -0.031122053 0.021461656 -0.03351074 -0.033085734 -0.0103756515 0.021380536 0.037632663
-0.045481198 0.04109278 -0.06640056 0.08881086 0.04914358 0.0055600195 0.08407819 0.1078193
-0.004209693 0.07386882 0.016978616 -0.0044027315 -0.045432005 0.0380556 -0.008174015 -0.04824393
-0.012967824 -0.059645206 0.038208507 0.065743275 0.025154091 0.004276095 0.034607463 0.055371575
0.064072594 0.03955065 -0.097984925 0.015717376 0.061021205 0.010495634 0.008763467 0.050101984
0.07377218 -0.06806629 -0.008840876 0.028520348 0.030031608 0.015231843 0.07390004 -0.07793113
0.042798575 -0.0029709102 -0.07891261 -0.07991755 -0.03775451 -0.008204161 -0.04939042 0.0090471
0.050488766 0.07717135 0.0071005877 -0.04775854 0.024867209 0.088845074 -0.05396496 -0.02683539
-0.02932344 -0.023110397 0.010331389 0.0416771 -0.012854079 -0.053111255 -0.018949002 0.07382365
0.05686619 0.052022014 0.054856487 0.056554437 -0.06804824 0.08284741 -0.07592741 -0.04302658
0.065504774 -0.0077475333 -0.043619227 -0.07765931 0.019570118 0.06698452 -0.049718462 -0.0016258952
-0.06662734 0.06954759 0.08342204 -0.025164366 0.08005971 -0.0373985 -0.013327448 0.0053585395
-0.07077944 -0.007729271 0.030852726 -0.06500216 -0.022185711 0.039240185 0.008065905 -0.0851472
0.039038155 0.06828824 0.07725012 -0.071565405 -0.063338436 0.022995273 0.031106822 -0.020247908
-0.03553151 -0.039721064 0.008820418 -0.017564202 0.06710522 0.023451515 0.034564126 -0.0023631
-0.0088444315 -0.012713758 0.06321133 -0.06976976 -0.08913722 0.018659541 -0.08603024 0.07522185
-0.025162747 0.031049153 0.07144981 -0.015239416 -0.023059355 0.04360817 0.046253752 0.070803314
-0.00445263 -0.08857548 0.037726086 -0.036243748 -0.025737109 -0.015937358 0.0044893087 0.037383173
0.012779122 -0.002723628 0.03860656 -0.053631935 0.058094133 0.017194815 0.065094724 0.043426685
0.039862897 0.037896432 -0.04320763 0.001563036 -0.062821195 -0.0016131828 0.032049637 -0.05912504
-0.0637981 -0.0025155372 0.0029851417 -0.008208275 -0.086154774 0.017843217 -0.0032641096 0.06605997

actor.bias f4 [4]
00000000: 47df 073d 8e55 d2bb 8f52 8dbd 10ad 833d
0.03317192 -0.0064188903 -0.069005124 0.064294934

critic.weight f4 [1, 128]
00000000: 9ba6 82bd 5efb 80bd bcf1 033e 4c69 793c
00000010: f150 e83c 6f06 a1bd bc16 c8bb 9298 3a3d
00000020: 41b1 a4bd 972e 033d 1fad 573d c432 a73d
00000030: 44d9 9f3c 7f45 f6bc 0821 923d dc9e 343d
00000040: 9746 19bc 2e43 5ebd 9e97 78bb d17e e73d
00000050: 0f79 d53c 4c3c a33d 1fd6 8bbc 2260 823d
00000060: 614a ba3d 2714 64bd 1f1d c43d aec5 4e3d
00000070: 977a b83c 370c a9bd 6450 613d 3233 d13c
00000080: a319 a63c 573a 723d f274 c03d 944d 3dbd
00000090: 0d5e c5bc 2d14 c1ba 720f 97bc b23b 7abd
000000a0: ed27 b7bc ce53 ce3c 4f6e 473d dcc1 cf3c
000000b0: 498f ad3d 835d 84bd 68d3 103d cb47 9c3d
000000c0: a676 00bd 53d9 f83c ca24 b03d fa4a 13bd
000000d0: 2d48 8d3d 1094 713d 0107 7cbd 3df7 21bd
000000e0: 1d4d 30bd b91d 95bd 0931 f03d 2c52 553c
000000f0: ecc0 18bd 518b ad3d b921 9cbd 0f55 de3b
00000100: aa1f cf3d 2426 abbc 8f80 95bd ce4e 973d
00000110: 7480 1fbd 3969 7c3c d619 7a3d 966f 1b3d
00000120: 61e3 b73d e93a 0bbd 965c a4bd fcc0 cb3c
00000130: 22e2 99bc 69ca 383c 826b 4fbd 3c20 4dbd
00000140: 19e1 28bd eea9 a93c e461 3f3d 1ee0 8b3d
00000150: b723 c13d b47b 6cbd ba81 aa3d 3c0a 1b3d
00000160: 9a3b 9cbd 542d d7bc 567f 7cbd 7b65 04bd
00000170: 8e34 aa3d 5990 2ebd 4490 20bc ba6b 89bc
00000180: 184d 1dbb b331 b53d 46e5 a13c b56a 123d
00000190: 1170 b83b 31ff c9bb bba6 5fbd 9bfb 8cbd
000001a0: 35af b1bc 5460 35bb 4338 a13d fd1b b6bd
000001b0: 16f1 c43d 65d6 aa3d 4974 73bd d810 b13c
000001c0: d60a b43d c879 32bd 9a32 5c3d 3aa3 00bc
000001d0: ce52 7abd 3b5f 6abc eccd ef3d 03fb 3dbd
000001e0: 7939 1dbd 0b59 7c3d b7a6 973d 9be0 053c
000001f0: e215 523c 4755 a4bd 5fa2 883d ec25 b63d
-0.06379434 -0.062979445 0.12885183 0.015222859 0.028358908 -0.07862555 -0.006106226 0.04555566
-0.08041621 0.032026853 0.052655336 0.0816398 0.01951278 -0.030062435 0.071352065 0.044096813
-0.009355209 -0.054263286 -0.0037932168 0.11303485 0.026058702 0.07970485 -0.017069874 0.06365992
0.09096218 -0.05568328 0.09575867 0.05048149 0.022519393 -0.08254283 0.055008307 0.025537107
0.020275896 0.05913767 0.093973055 -0.046216562 -0.024092698 -0.0014730744 -0.018439982 -0.061092086
-0.022357905 0.025186446 0.048689183 0.025360994 0.08474595 -0.064631484 0.035357863 0.07630881
-0.031363152 0.030377066 0.08600767 -0.035960175 0.06898532 0.058979094 -0.061530117 -0.039542425
-0.04304229 -0.0728106 0.11728103 0.01302008 -0.03729336 0.08473838 -0.076236196 0.006785042
0.10113461 -0.02089221 -0.07299911 0.07388078 -0.03894086 0.015405946 0.061059795 0.037948214
0.08978916 -0.033991728 -0.08025472 0.024872296 -0.018784586 0.011278727 -0.050639637 -0.05007957
-0.041230295 0.020710912 0.046724215 0.06829856 0.0943064 -0.05773516 0.08325525 0.037851557
-0.076285556 -0.026266731 -0.061644875 -0.03232334 0.08310805 -0.04261813 -0.009800021 -0.016775
-0.002400225 0.0884737 0.019762646 0.035746295 0.0056285937 -0.0061644544 -0.054602366 -0.068839274
-0.02168999 -0.0027675824 0.07872059 -0.08892057 0.09616296 0.08341674 -0.05943707 0.021614477
0.08791129 -0.04357317 0.053759195 -0.007851416 -0.061114125 -0.014304931 0.11709198 -0.04638196
-0.03838489 0.061608355 0.07404845 0.008171226 0.0128226 -0.08024078 0.06671595 0.08893952
