checkpoints/icm/seed4/final.pt (torch, 869915 bytes, 19 tensors)

fc1.weight f4 [256, 256]
00000000: 9bfb 79bd adbf bd3b cbec ff3c 53b9 62bd
00000010: a948 753c 9f89 c03c 4f76 dc3c 534a c73c
00000020: 9093 e8b7 3a80 843c 4529 523d cb6a c2bb
00000030: 150b 16bd 5ff1 02bb ba72 f73c 2d1f ce3c
00000040: 9c38 8abc 8b5e dcbc eefb 03bd f732 2e3c
00000050: 07af 2bbc 8ac9 803d 51f3 d5bc 0cef 443d
00000060: dc07 463d 5d34 00bd 8d90 3fbc 339b adbc
00000070: e185 713d 911c 183d 3249 23bd e323 41bd
00000080: 4363 36bd 79c0 013d d303 24bd 98ab b63b
00000090: dd75 2dbd a4de d13c 937d 9e3c d257 cebb
000000a0: 97b1 0d3d f343 04bc 6036 803d 5053 163d
000000b0: b71b 853c fce6 3cbd 31a0 8bba 18bb 473d
000000c0: 5197 aabc fea5 5cbc 6a0f 50bd 8ce3 62bd
000000d0: 8b07 53bc 8884 b9bc 1b7f debb 00f9 9fbc
000000e0: 1043 02bd 83cd 36bd 87c5 253d d748 4fbb
000000f0: 4bed 4dbd 990e 35bc cb79 943c 90df cc3c
00000100: 3d25 923c 2fb4 1d3d fd20 e93b b9ec 13bd
00000110: df9c c7bc 2f3a 91bb 299a 2dbc 17fb 5f3d
00000120: f5fb 473d 65d7 023b 3fa3 193d d89e 6cbc
00000130: 073f 6a3d 47bd 06bd 52bc c63b 4760 48bc
00000140: 8f56 4fbd 6fea 0abd 2b54 343d 54cc b73b
00000150: 3f17 88bc 3571 07bd 9853 123d 3b2a 53bd
00000160: 8e59 fe3a 7fbe 5abd 578d 94bc 7fde c0bc
00000170: 3085 133d 4425 7d3d 618a 45bb 19de 1f3d
00000180: e9af 273d dbf8 4dbd 411d 04bd 4935 b83c
00000190: 4066 6dbc 394a 043d a77c 0b3d e717 a2bc
000001a0: 8d30 03bd 0a90 3e3a 896c 08bc 8d1f 6bbd
000001b0: b0af 7c3d d56c 1ebd 04ca 893d a522 1f3b
000001c0: ff4d acbc 8ea5 ffbb 2bc1 e8bc 2b3c 13bc
000001d0: 9ebd 133d b548 723d e1a4 dd3c 8312 bd3a
000001e0: 48ed 50bc ff58 5bbd 2b64 4b3d 81c2 603b
000001f0: f904 8f3c 03ce 503d 75d0 333d e107 51bd
00000200: d4b2 ab3c 3c27 75bd b006 673d 78cf 153d
00000210: cdbe 463d 51ee 51bd 534a 043c 3228 32bd
00000220: 528d 403d 184a f23c 6aec 853b 2413 debc
00000230: 8abc ae3c a56f be3c d90a 6d3c 7c0c 013d
00000240: 7f1e f1bc aeff 4f3c 9501 9dbc 91c3 043d
00000250: 7fe5 c5bc a368 ccbc 9946 22bd dbda 383d
00000260: 80f6 3abd a39a e53a 39e5 54bd b01c 063d
00000270: 34dd cfbc b8b8 5a3d 8915 34bd 3f21 3cbd
00000280: 46cc 78bd 5be5 673d 5e43 35bd 4f1b 4fbd
00000290: e748 583d c088 373d cb4e 3c3d 7a26 433d
000002a0: c435 c13c ec44 d5bc d966 2cbd 1b30 4b3c
000002b0: b73e 46bc 7157 fe3a 6092 e8bc 131f 6a3d
000002c0: b436 5fbd 780b 5c3d 1e48 66bd c4e0 32bd
000002d0: d034 163d 621e 0c3a 4bbe 1fbd 3bb7 533d
000002e0: 1c1a e63c 86c5 053d a030 1bbc 9a93 5bbd
000002f0: 1163 6fbb dade 7e3d 2374 b23c e220 4d3d
00000300: 3817 f33c 1f2b 41bd 481e ef3b 166f 3dbd
00000310: e066 663b 5cba d3bc f058 133d 5cfe c6bc
00000320: b547 4c3d 8057 f9bb d04d 803d 3ee9 583d
00000330: 6905 dabc f835 e23c e8b7 0dbd a091 98bb
00000340: 34c4 46bb 686f 4dbc b04d 5cbd f42a 673d
00000350: a6b2 65bd 96af 753d 563b 54bd 0090 41b9
00000360: 6e0b 4c3d 8e76 023d 0329 8cbc b3aa 233d
00000370: c02c d43b cf5e b83b a868 2d3c 40d9 00bc
00000380: ce6a 1cbd 7888 fb3c e6b7 263d f4ff 3e3d
00000390: 6f92 a43b e858 723b 0c22 d2bc d4bd febc
000003a0: c810 f5bc a0b0 c0bc 6859 993c 4cb2 3cbd
000003b0: ec23 dbbc 7853 b1bc 9f55 043d a2af 4c3d
000003c0: 0b7a 5dbd b8c4 78bc de2e 533d 0cf4 5abc
000003d0: 9073 4fbd 7b54 08bd 6a93 6dbd d2c4 63bd
000003e0: d002 e4bb 5623 7f3d bedc 7cbd d351 dc3c
000003f0: 5966 f63c 34dc be3c 0458 483d 51c7 793d
-0.061030965 0.005790672 0.031240841 -0.05535252 0.014970937 0.023503123 0.026911883 0.024327433
-2.772527e-05 0.016174424 0.05130889 -0.005933141 -0.036631662 -0.0019980294 0.030206073 0.02516135
-0.016872697 -0.02690055 -0.03222268 0.010632268 -0.0104787415 0.062884405 -0.026116999 0.048079535
0.04834734 -0.031299938 -0.011692178 -0.021192169 0.058965567 0.037136618 -0.039864726 -0.047153365
-0.044528257 0.031677697 -0.04004271 0.005574655 -0.04234873 0.025618859 0.019346988 -0.00629709
0.03459319 -0.008072841 0.06260371 0.036700547 0.016248567 -0.04611872 -0.0010652599 0.04876241
-0.020824106 -0.01346731 -0.05079595 -0.055392787 -0.012880216 -0.022646204 -0.0067900545 -0.019527912
-0.031802237 -0.044629585 0.04047158 -0.003162911 -0.05027513 -0.011050844 0.018124482 0.025008947
0.017840022 0.038501915 0.007114528 -0.03611443 -0.024366794 -0.004431985 -0.010595837 0.054682817
0.04882427 0.001996481 0.0375092 -0.014442168 0.057189014 -0.032895353 0.00606493 -0.012229986
-0.050619658 -0.03391498 0.04402558 0.0056090746 -0.016612647 -0.033066947 0.035724252 -0.051553946
0.0019405351 -0.053404327 -0.018133802 -0.023543594 0.03601569 0.061803117 -0.0030142295 0.03903017
0.040939245 -0.050286155 -0.03225446 0.022486346 -0.01448971 0.032297347 0.034054425 -0.019786788
-0.032028724 0.00072693883 -0.008326658 -0.057403136 0.061690986 -0.03867801 0.067279845 0.0024282124
-0.021033285 -0.007801718 -0.028412422 -0.008986513 0.036069505 0.05915137 0.02705616 0.0014425073
-0.012751885 -0.05355167 0.049656074 0.003429562 0.017458426 0.050977718 0.043899972 -0.051032905
0.020959295 -0.05985187 0.056402862 0.03657481 0.048521806 -0.051252667 0.008074361 -0.043495364
0.047009774 0.029576346 0.0040870206 -0.027108736 0.021330137 0.023246596 0.014467918 0.031506047
-0.029433487 0.012695236 -0.019165793 0.03241307 -0.024157284 -0.024952238 -0.03961811 0.04513059
-0.045645237 0.0017517399 -0.051976416 0.032742202 -0.025374033 0.053398818 -0.04396585 -0.045930143
-0.060741685 0.056615215 -0.0442537 -0.050563153 0.0528039 0.04480815 0.04597358 0.047644116
0.023585208 -0.026033841 -0.04209027 0.012401606 -0.012099913 0.0019404722 -0.02839011 0.05715854
-0.05449553 0.053721875 -0.05622112 -0.043671384 0.03667146 0.00053451036 -0.038999837 0.051688414
0.028088622 0.032659076 -0.009472042 -0.05360756 -0.0036527554 0.062224247 0.021783894 0.050080188
0.029674158 -0.047160264 0.007297311 -0.046248518 0.0035156533 -0.025845699 0.03597349 -0.02429121
0.049873073 -0.0076093078 0.062648416 0.052956812 -0.026613908 0.027613625 -0.034599215 -0.0046560317
-0.0030329349 -0.012538768 -0.053785026 0.056437448 -0.056078576 0.059981905 -0.0518144 -0.00018459558
0.049815588 0.031851344 -0.0171094 0.039957713 0.006475061 0.0056265364 0.010584034 -0.007864296
-0.038187794 0.030704722 0.040702723 0.046630815 0.005022339 0.0036979262 -0.025651 -0.031096376
-0.029915228 -0.023521721 0.01871939 -0.046068475 -0.026750527 -0.021646246 0.032308217 0.049972184
-0.054071467 -0.01518362 0.051558368 -0.013363849 -0.05064732 -0.03328369 -0.058001913 -0.055607624
-0.006958343 0.06228956 -0.061733954 0.026894486 0.0300781 0.02329836 0.048912063 0.0609811

fc1.bias f4 [256]
00000000: 2b78 163d 106e 35bd 187e cdbb 9358 c83b
00000010: 0ed5 123d e8f6 313d e2b5 4cbd b23d 43bd
00000020: 9a50 dd3c 1fbd 9d3c aa2b 5bbd 91b2 05bd
00000030: 25ef 18bd bc78 6f3b b8cd 68bd 0242 0bbd
00000040: fce4 25bd d95f 153d 768b 2fbd 3e82 123d
00000050: 716e febb d73e 503c 3c0b 41bd 1dd3 04bb
00000060: 5e92 16bd f266 d0bb a447 dd3c 8ead 4fbd
00000070: 8672 6ebd 588a cf3b dab2 f33c 0d05 b73b
00000080: 1ba4 d7bc 0aff 2e3d c7b1 083d 3964 513d
00000090: 8ba6 013c 06b2 49bd 4ea6 6a3d eaf2 76bd
000000a0: 9be0 333c cc28 80bd dd11 5b3d f94a 9b3c
000000b0: 80c0 f3bb a1ea 943a 50cf a6bb b062 be3c
000000c0: ea52 263b c113 d43c 684d 973c 1830 50bc
000000d0: 4caa 93bc 2dd4 203b 1e8b 05bd f7aa d63c
000000e0: c6c2 6fbd f4fe 563d 602e 3abd b490 1a3d
000000f0: 5a2e ab3c 52dd 893c 0ff2 603d e78c 09bd
00000100: 4cf7 2abd 94de b4bc a056 aabc a3e2 5ebc
00000110: ffa6 8bbb 6e5c 4f3d b8ce 293c aaf2 65bd
00000120: 04f5 c1bc 0ec9 0bbd 36ac 6cbd c0a3 783d
00000130: c14e 8038 5411 493d 0a70 50bb fee3 b83c
00000140: 20ce 47ba f954 28bd 4f59 d43c d7c9 4f3d
00000150: 4741 8e3c 0eb2 0ebb d53f 853c bb75 33bc
00000160: fb70 17bd 0db6 1bbd 0e62 713d 2aea 19bd
00000170: a084 123d 660d f43c d00f 11bc 0557 833d
00000180: d4dd 96bc d07b 823d fc97 6fbc 2476 75bb
00000190: faa3 693d a8ad 09bd 98c3 c73b 83a1 6d3d
000001a0: bed7 793d 7856 863d 40c2 ad3b baf6 90bc
000001b0: 4a22 00bd 4c21 15bd 0b56 abb9 fa16 ba3b
000001c0: 56d4 5a3d 70c1 d6bc 6418 423d f3f6 363d
000001d0: 6409 33bd d1e1 683d 1c55 c63c 7574 223c
000001e0: aec1 7f3d 021c 56bd 641c 2b3c 0b7a d7bc
000001f0: 9f4f 283d 3ffa 333c e46f f3bc a551 93bc
00000200: 7418 7d3d 29ea 473d 80ae 7cbc b271 353d
00000210: 0427 6ebd 3778 c4bc cf94 babb 757c 79bd
00000220: 1bf8 263d c7b4 5f3d 3468 423c 9ce2 fb3c
00000230: b9ae 583d f001 e63c fa5a 46bc 596d 48bd
00000240: 5a91 78bc 727f ae3c d4c7 38bb 6c3f 39bd
00000250: 47d0 113d e670 163d eb43 1dbc ab1b a83c
00000260: 294c ebba e2e0 273d c42d c4bc f3eb 54bc
00000270: 1d0b 6b3d ff19 02bd 8914 ea3b 1121 46bd
00000280: c339 18bd 7af5 173d 5024 73bc 4cf5 a73c
00000290: 7276 29bd 2211 1bbd 08d9 4b3d 5c6e 6cbb
000002a0: 6281 73bc 4012 18bb 0df8 0d3d 4fbb e93c
000002b0: 5853 05bd 7abc 9f3b ada7 28bd 1508 363d
000002c0: 2680 523d 1fc9 3fbc 9cd1 343d b773 8d3c
000002d0: c797 14bd 47e9 6cbd 7949 10bd 68f9 a43c
000002e0: c981 5c3d 7b40 7ebb 40bb 14bc 9a99 893d
000002f0: 6047 863c f9eb 96bb aff4 443d 4414 9f3c
00000300: 2a93 91bc 3cfc 223d c1a6 37bd e2c2 9c3c
00000310: 66d6 5c3d 9771 403d c90d 573c 7749 993c
00000320: 8a5d 71bd 1171 383d bfa1 883c 7ede 083c
00000330: 5efd dcbb 5f28 ec3c 57f5 c43c f941 4f3d
00000340: d489 5bbd 5a91 40bd 3fe2 8bbc 2a70 4bbd
00000350: caf7 00bb 0c04 b23c 6299 333d 56cb 483d
00000360: 09fd 473d aa37 e2bb 3592 913a 6d82 92bc
00000370: 97f7 cdba 4065 07bc 1a2b 05bd 47ef 7c3d
00000380: 950d 213c d1fd 333c 25f1 eabc e041 e9bc
00000390: c452 ad3c 580b 6a3c b611 03bd 47df 66bd
000003a0: 81b1 bd3c d6c4 0bbd 4288 6fbd 5770 903c
000003b0: 9d3e 8f3c e066 b3bc cf27 56bd 2288 8a3d
000003c0: 6a36 38bd d8f0 ab3c 208f 7f3d 2ee6 763c
000003d0: 223f 573d 03de d9bb dcb3 e5bc 768f 7c3d
000003e0: 7eee 0bbd 59ca 0bbd 919b 1cbc 3c15 673d
000003f0: f8f4 023d 7eeb 483d eff6 44b9 dfcb 3e3d
0.036735695 -0.044294417 -0.006271135 0.0061140745 0.035847716 0.04344836 -0.049978144 -0.04766626
0.027015973 0.019255219 -0.05350844 -0.032640997 -0.03733744 0.003654047 -0.056836814 -0.033998497
-0.04050158 0.03646836 -0.04285761 0.03576874 -0.0077646305 0.012710295 -0.047129855 -0.0020267435
-0.03676068 -0.0063599283 0.0270117 -0.050702624 -0.058214687 0.0063336305 0.029748369 0.005585319
-0.026323369 0.042723693 0.033372667 0.05112097 0.007913242 -0.049242042 0.057287507 -0.060290255
0.010978843 -0.062577814 0.053483833 0.018956648 -0.0074387193 0.0011361429 -0.0050906315 0.023240417
0.002537901 0.025888326 0.018469527 -0.012706779 -0.01802554 0.002454053 -0.032603376 0.02620457
-0.05853536 0.052489236 -0.045454383 0.037735656 0.020896126 0.016829167 0.054918345 -0.03358164
-0.041739747 -0.02207879 -0.02079326 -0.013603839 -0.004261851 0.050625257 0.010364227 -0.056139626
-0.023676403 -0.034127288 -0.05778142 0.06070304 6.118185e-05 0.04908879 -0.0031805062 0.022569653
-0.00076219626 -0.04109666 0.025921492 0.0507296 0.017365111 -0.002177361 0.016265789 -0.010953362
-0.03697298 -0.038015414 0.058931403 -0.037576832 0.035771012 0.029791545 -0.008853868 0.06413082
-0.018416323 0.063712716 -0.014623638 -0.003745445 0.057041146 -0.033612877 0.0060963146 0.058015358
0.060996763 0.06559461 0.0053026974 -0.017695773 -0.0312827 -0.036408707 -0.0003267977 0.0056790086
0.053425156 -0.026215285 0.047386542 0.044669103 -0.043710127 0.05685598 0.024210505 0.009915461
0.062440567 -0.052272804 0.010443781 -0.026303312 0.041091558 0.010984956 -0.02971644 -0.017983267
0.0617909 0.048807297 -0.015422463 0.04429788 -0.058142677 -0.023983104 -0.005694009 -0.060909707
0.040763956 0.054615762 0.011865664 0.030747704 0.052901004 0.028077096 -0.012106651 -0.048932407
-0.015171373 0.021301005 -0.0028195279 -0.0452265 0.03559902 0.036728762 -0.009598712 0.020521006
-0.0017951775 0.04098595 -0.023947604 -0.012995708 0.057383645 -0.031763073 0.0071435613 -0.04837138
-0.03716446 0.03709934 -0.014840201 0.020502709 -0.041372724 -0.037858136 0.049767524 -0.0036076522
-0.01486239 -0.0023204237 0.034660388 0.028531699 -0.032550186 0.004874763 -0.041175533 0.0444413
0.051391743 -0.011705666 0.04414521 0.017267091 -0.03627756 -0.057839658 -0.03522632 0.020138457
0.05383471 -0.0038795758 -0.009077847 0.0671875 0.016391456 -0.004605767 0.04808491 0.019418843
-0.017770369 0.03979133 -0.044836763 0.019135896 0.053915404 0.046983328 0.013125845 0.018711789
-0.058927096 0.045029704 0.016678689 0.0083538275 -0.006744071 0.028827844 0.024042768 0.050600026
-0.05359824 -0.047013618 -0.017075656 -0.049667515 -0.0019678944 0.021730445 0.04384745 0.04902204
0.048825298 -0.0069036083 0.0011106195 -0.017884457 -0.0015714046 -0.008263886 -0.032511808 0.06175163
0.009829898 0.0109858075 -0.02867944 -0.028473794 0.02115763 0.014284931 -0.031999312 -0.056365278
0.02315593 -0.034123264 -0.058479555 0.017631693 0.017485911 -0.02189964 -0.05228406 0.067642465
-0.04497377 0.020988867 0.062392354 0.015069528 0.052550443 -0.0066487803 -0.028039865 0.061660253
-0.03416299 -0.03412852 -0.009558574 0.056416735 0.0319719 0.049052708 -0.00018784007 0.046581145

fc2.weight f4 [128, 256]
00000000: 2902 22bc 065b 2cbd f4d2 f73c 6b09 4e3d
00000010: 0e66 0dbd 7ccb febc 0494 7e3d bc40 2bbd
00000020: 9d4c 373c 69a6 3f3d ce92 49bd 24a4 553d
00000030: 1cf5 ea3c d828 403d eb23 cc3c 74c8 923c
00000040: 10c2 0bbd e4ed 123d 5810 5dbc 8e1b 4b3b
00000050: ab7c d53c 4dfa 4f3c c8b1 453d 8cc3 43bd
00000060: 4d94 50bd 768e 78bd b8ed 0e3b a814 6d3d
00000070: 8ce2 0c3d 72c4 52bd c932 fdbc a785 4fbd
00000080: c008 4a3b 104d 3b3c d7ed 423d 42ac 223d
00000090: e5b3 4fbd 1dde 673d 7172 0f3d 98d1 f3bc
000000a0: 6a68 223d b968 31bc 4c3c a5bc 2000 4e3d
000000b0: 8028 893c fea3 79bb 2cd7 213d d65f 003c
000000c0: c2b6 20bd cc83 a8bb d8f4 b0bc 8328 97bb
000000d0: 465d b73c 029e 2f3d 38dc 763d 51f1 59bc
000000e0: 8c38 04bc 6eb1 4cbc b00c 2ebd e121 75bc
000000f0: 60d9 b5bc f059 983c d4fc 603d 8aec a83b
00000100: 26f2 0abc 22e3 3fbd b43f c5bc 2b87 443d
00000110: 2c2a 47bc 500c 8f3c d0f1 eabc cf40 6cbd
00000120: ac93 9b3c 347d 2d3c 4885 e7bc 7215 71bd
00000130: 34c0 873b 0003 05bc 3c97 093c 8fdf 043d
00000140: 034f 33bc 1426 4d3d 9421 9b3c d6a6 6f3d
00000150: 5494 b5bc e051 dcbb 245d 423c 0f59 06bd
00000160: a817 003c 8ac6 7cbd 66e4 443d b68d e3bc
00000170: b2c6 943c 15df eebc 0c95 cb3c 5e96 6ebd
00000180: fd5b 04bc 093d 843c 4e4f 5ab9 2292 4f3d
00000190: 1e49 873c b056 f63b 0668 f6bc 358f cf3c
000001a0: 4fc4 52bd 5bc4 613d 5c1a 4fbd 7cc6 6a3d
000001b0: 67c8 79bc a621 1cbd 320f 653d a09e efbc
000001c0: 99a4 003d 1180 7d3c 5b9f b73c 2daf edbc
000001d0: a4da 01bc 9ca1 823c f915 c5bc 1d68 8e3c
000001e0: e9ad 76bd 297b 273a 7979 d0bc 18c1 df3c
000001f0: cb05 62bd 791b 443d c100 9bbc b477 963c
00000200: 09ca 6c3d d919 76bd 74ec 033d ae77 3e3d
00000210: 2580 1ab9 003e 5b39 a257 77bd 3803 85bd
00000220: 4d3c 85bd 41dd 03bd 9d69 aabb ac53 1fbd
00000230: 4639 ce3c 80d0 f23a 569a e73b ec33 633d
00000240: 527e 70bd c2d7 45bd 7e24 113c 579a 213d
00000250: a464 153d d215 54bd 8bcb 673d 2a64 353d
00000260: fa31 443d e82c 26bc 7956 b8ba cf21 21bd
00000270: ba7d 75bd a68b b2bb 6ad3 523d 616c 7c3d
00000280: 9df0 6cbc 272c 0ebd e01c 7d3d b931 3a3d
00000290: dee3 2abd cea7 753d b1ac c3bc 3eb5 fd3a
000002a0: 7197 40bd e290 51bd 4bd3 593d 86fe cbbc
000002b0: 1084 febc ad7e 163d 0a90 b43b 62a6 83bd
000002c0: 942a 933c df7c 0d3d dc87 923c 41fc 493d
000002d0: e77b fe3c 2429 91bc 9539 233d 8b1d 12bb
000002e0: a44c 2b3c 9c43 c13c 1a7e 5f3d eca7 4a3c
000002f0: c2f7 2bbd f654 2f3b 6e39 57bd dcdd e43c
00000300: e652 85bd 5cd2 1abc 520d 83bd 6c60 11b8
00000310: 6494 8f3c 2c6d a5bc 170a 38bd 6463 b5bb
00000320: f981 353d 6d3f 95bc 44a6 cbbc c4c8 883c
00000330: c868 52bd 35f8 f33c c158 45bc 60e7 0b3d
00000340: b0dd d03c b01f 12bd 7d28 e1bc 8302 e73c
00000350: c211 d93c c268 eb3c 0316 8b3c 1cfa 6b3d
00000360: 2999 62bc e7a8 44bc b731 dc3b 36bc 4b3c
00000370: 64a4 8a3c 8762 cb3c 31ea 473d 9ac1 1a3c
00000380: 933d 453d 1ed1 9bbc a105 093d dc88 053d
00000390: 4efd aabc 4b0f 59bd 9011 2bbd 33a4 5d3d
000003a0: d9ed f8bc b016 62bd 806a b4bb 4efa e23b
000003b0: 1272 1ebd 48cc 48bd 5524 82bd a3bc 543d
000003c0: fa08 afbc 4f87 63bd 49e1 91bc ba6f 953c
000003d0: a9dd 6e3d 3556 2ebd fedb 44bd f071 063d
000003e0: 21e7 63bd 1151 123c 8432 b03c b954 313d
000003f0: a9fa 613d c3af 023d a89b 3bbd 0019 85bd
-0.00988821 -0.042078994 0.030251957 0.05030195 -0.034521155 -0.031102888 0.062152877 -0.041809782
0.0111877 0.04678956 -0.04921227 0.05215849 0.02868133 0.04691395 0.02491947 0.01791785
-0.03412062 0.0358714 -0.013492666 0.0030991766 0.026060423 0.012693954 0.04826525 -0.04779391
-0.05092268 -0.060682736 0.0021809172 0.057881027 0.03439574 -0.051456876 -0.030908005 -0.05066457
0.003082797 0.011431947 0.047590103 0.03971506 -0.05070867 0.056608308 0.03502125 -0.029763028
0.03965036 -0.0108281905 -0.020170353 0.050293088 0.016742945 -0.0038092132 0.039511845 0.007835349
-0.03923679 -0.0051426645 -0.021601126 -0.0046129837 0.022383343 0.042875297 0.06026861 -0.013302163
-0.008070122 -0.012493474 -0.04249257 -0.014961691 -0.022198379 0.018597573 0.054928616 0.005155151
-0.008480584 -0.04684747 -0.024078228 0.04798047 -0.012156051 0.017461926 -0.028679758 -0.057678994
0.018991314 0.010588933 -0.028261796 -0.058858342 0.0041427854 -0.008118391 0.0083978735 0.032439765
-0.010944131 0.050085142 0.01893691 0.058508717 -0.022165455 -0.0067236274 0.011863027 -0.032799777
0.00781814 -0.06171278 0.04806938 -0.027777534 0.018161152 -0.029159108 0.024851345 -0.05824887
-0.008078572 0.016142385 -0.00020819643 0.050676472 0.016514357 0.007517658 -0.0300789 0.025336841
-0.051456746 0.0551189 -0.050562248 0.057318196 -0.015245534 -0.038118027 0.055922695 -0.029250443
0.031406973 0.015472428 0.022414854 -0.029014194 -0.007925663 0.015946202 -0.024058329 0.01738363
-0.060224447 0.0006388897 -0.025448548 0.027313754 -0.055181306 0.047877762 -0.018921258 0.018367626
0.057809863 -0.060083244 0.03220792 0.046500854 -0.00014734322 0.00020908564 -0.060386308 -0.064947546
-0.06505642 -0.032193426 -0.0052005784 -0.038898155 0.025173794 0.0018525273 0.007067959 0.05546944
-0.05871422 -0.048301466 0.008858798 0.03945383 0.03647293 -0.051778622 0.056590598 0.044284977
0.047899224 -0.010142542 -0.0014063857 -0.039338883 -0.059934355 -0.0054487763 0.05147115 0.061626796
-0.014461664 -0.034710076 0.061795115 0.045457575 -0.041721217 0.059974484 -0.023886057 0.0019356383
-0.047019426 -0.05116356 0.05318002 -0.02490164 -0.031068832 0.0367419 0.005510335 -0.064282194
0.017964639 0.034542914 0.017887048 0.049312834 0.03106494 -0.017719813 0.039849836 -0.002229544
0.010455284 0.023591809 0.05456362 0.012369137 -0.041984327 0.0026753522 -0.052545004 0.027937822
-0.06509952 -0.009449568 -0.06399025 -3.4660494e-05 0.017526813 -0.020193659 -0.044931497 -0.00553553
0.044313405 -0.01821872 -0.024859555 0.016697295 -0.05136946 0.02978144 -0.012045086 0.034156203
0.025496334 -0.03567475 -0.027485127 0.02819944 0.026497725 0.028736476 0.01697827 0.05761157
-0.013830462 -0.01200316 0.0067197937 0.01243501 0.01692409 0.024827255 0.048807327 0.009445572
0.048154425 -0.019020613 0.033452634 0.032601222 -0.020872738 -0.0529931 -0.041764796 0.05411167
-0.030386852 -0.055197418 -0.00550586 0.0069268113 -0.038683005 -0.049022943 -0.06354586 0.05193771
-0.021366585 -0.055548962 -0.01780762 0.018241752 0.05831686 -0.042562682 -0.048061363 0.032823503
-0.055640344 0.008930461 0.021508463 0.04329369 0.05517069 0.0319059 -0.045802742 -0.06498909

fc2.bias f4 [128]
00000000: 5731 033c 6739 efbb ce14 3bbd c737 713d
00000010: 6e8f 4a3d 9988 d73c 445f 8c3d 3fa8 a4bc
00000020: cca2 3abb ce25 35bd 55a6 863d b67d 30bd
00000030: 9e60 a73c 4019 2d3d cb69 69bb 2e09 873d
00000040: c817 8f3b 1a57 11bd d3e7 203d b7ff 20bd
00000050: d0c8 36bc f94d 01bd 3086 363d e6ba 3839
00000060: 3f09 db3c ad4d 203d 0a6d 22bd a49c 1fbd
00000070: 4800 1bbc 9cea 293d 71da 64bd c163 4e3d
00000080: 80d0 26bd 94dc 00bd e46a 1ebc c7c8 5d3d
00000090: 3c97 5bbc 4076 9c3a b037 2a3d 543e 2abd
000000a0: 38eb 753d 58db 78bd 216a 47bd 9409 78bd
000000b0: 2b22 1e3d 8250 cbbc f9ca 513d 8db3 2c3d
000000c0: b41c e7bc 5d8b ed3c 02d9 4abd d216 6d3d
000000d0: a77b 893c 6441 123d 18c7 68bc 71ba 7fbd
000000e0: 633b 23bc 597c 40bd d86a 9bbc b1f1 923c
000000f0: 0b76 413c 07e1 8b3c 8753 1b3c 4091 6cbc
00000100: edbf 593d 6113 e53c 3c32 5c3d 0668 473d
00000110: 6860 283c 2ba9 fcbc 4752 35bd 5482 493d
00000120: 8c2d 86bd d181 47bd 783f cfbc e3f2 013d
00000130: f5d5 c0bc fefd 19bd e0af 31bd d052 8abb
00000140: 9d93 debc 56f6 44bd 1ab5 66bd 6343 65bd
00000150: 8eae 89bc a046 4bbd 50f4 4fbc 263b 4f3c
00000160: 2023 1e3c dff4 42bd 7bfe e43a b9cf 5d3d
00000170: 146f 833d b83b e0bc ee61 3dbd 1908 debc
00000180: a827 62bd 8621 f7bb 44d2 dabc 23d2 293d
00000190: df42 033d a767 02bd fb65 5cbd 82e6 9d3c
000001a0: f167 82bd f2b3 96bc 7068 bebb a1ab d13c
000001b0: 0bfb cd3c aa49 363d 747b 633d 7f14 113d
000001c0: fd5a afbc 1664 043d 71ac c4bb f1fe 003d
000001d0: 8012 423d 9581 993c 23f9 383d 7a8f 10bc
000001e0: ff30 16bd 0672 b63b e982 b23c 7caf 37bd
000001f0: 8628 54bc db9f 873c 948e 4c3d 352f a43c
0.008007369 -0.007300544 -0.045674138 0.058891084 0.04945319 0.026310252 0.06854108 -0.020099757
-0.0028478382 -0.044225506 0.06574694 -0.043088637 0.020431813 0.04226041 -0.0035616036 0.06593548
0.0043668486 -0.035483457 0.039283585 -0.03930637 -0.011156276 -0.0315685 0.044561565 0.00017617233
0.026737807 0.039136577 -0.03965477 -0.038967744 -0.009460516 0.041483507 -0.055872384 0.0503881
-0.040726185 -0.03146036 -0.009669039 0.054146554 -0.013402756 0.0011937097 0.041557014 -0.041563347
0.060038775 -0.060756058 -0.048685197 -0.06055601 0.038606804 -0.024818663 0.05121896 0.04216342
-0.028211929 0.028997118 -0.04952336 0.05788309 0.016782595 0.035706893 -0.014207624 -0.062433664
-0.009962889 -0.046993587 -0.018971846 0.017937513 0.011807929 0.017075075 0.009480364 -0.014438927
0.05316155 0.027963342 0.053758845 0.04868319 0.010276891 -0.030842384 -0.04426792 0.049196556
-0.06551656 -0.048707787 -0.025298819 0.031725775 -0.023539523 -0.03759574 -0.043380618 -0.004221298
-0.027169997 -0.048086487 -0.056325056 -0.055972468 -0.016806867 -0.0496279 -0.012692526 0.012648379
0.009651929 -0.04759681 0.0017470861 0.054153178 0.06417671 -0.027372226 -0.04623597 -0.02710347
-0.0552136 -0.007541838 -0.02671159 0.041460168 0.032046195 -0.03183713 -0.053808194 0.019274954
-0.063674815 -0.018396351 -0.0058107898 0.025594534 0.02514412 0.044503845 0.055537656 0.035419937
-0.021405691 0.032322012 -0.006002002 0.03149313 0.047380924 0.018738547 0.04515947 -0.00882327
-0.03666782 0.005567792 0.021790938 -0.04484509 -0.012949115 0.016555717 0.04994066 0.020042041

actor.weight f4 [4, 128]
00000000: 59ab 9fbd 303a db3c 56ae 81bd 176c c53b
00000010: d68e 86bc 0dc8 88bc ee9d 12bc 6045 d43c
00000020: 448b 24bd f3ee 503c d552 a43d 9476 833d
00000030: 1639 5e3c 0352 63bd c4e4 2bbd b79a c3bb
00000040: e9db 803d 14c1 b3bd 75ac f93b 60d9 a73c
00000050: 1010 563c a387 633c cc42 b13c 0110 0d3c
00000060: 6159 bfbc b311 363d e322 0a3d b3a8 5fbd
00000070: e7a7 5d3d 3570 70bd e513 823b 71f0 90bd
00000080: 0b91 533d 792d a03c e70c 0b3d 78f5 80bd
00000090: 2694 55bc 4b2a a4bc bc81 2abd a125 7fbd
000000a0: 096f d83b b50b 56bd dc18 59bd 9a08 583c
000000b0: 9a56 123d ab3f 4a3d 6b67 85bd 7854 853d
000000c0: b5b5 9dbc 66a5 4f3c 3324 71bd 9f61 893d
000000d0: 3f21 d63c b11d 363d 033f 95bd ce93 25bd
000000e0: 6431 403c 4aed 893d e1b3 413d 684b 0d3d
000000f0: 413d 97bd bcaa 6c3d 7861 8abd ddb5 b03a
00000100: 8c01 723b 7c92 a6bd 8181 ae3d ac9f 58bd
00000110: b4e3 21bc 82df 7a3c a7ad 973d 1cbf 47bb
00000120: 434b 333d 24c1 8cbc 3cd1 533d dfd4 93bc
00000130: e2f7 a3bd 89d9 273d 4179 7f3d 6351 a83c
00000140: 954d 16bd fded 82bc 4766 803d 7da6 2dbd
00000150: 546f c63c 62f1 cfbc 7973 73bd 0335 50bb
00000160: 55d0 97bd d91d 853d b6cf 813d 037f 973d
00000170: 0630 29bd eb74 41bd 10cb 0f3d 9e8a 8d3d
00000180: 89d5 87bd 1981 643d 1739 173d c543 98bd
00000190: 02e7 4c3d 815d a13d 4422 413d 9b8a ab3c
000001a0: 18e4 aa3c 64d9 443c 8dec 4e3c 016b 533c
000001b0: bb42 6bbd 170c 8ebd 08cc 87bd a078 72bd
000001c0: 6c42 19bb 04c2 a03b 8779 423d c670 953d
000001d0: 4a0d b0bc 23d3 493d 103a a7bd 4f2c 943d
000001e0: 2508 59bd 82ad 48bd fd04 f9bc 0fc6 9b3c
000001f0: acfa 7bbd 25be 033c 461b 203c 1f5b 043d
00000200: 6657 2e3d c890 353d 0b1b c3bb 01fa f73c
00000210: dcb1 52bb 6991 9bbc 91ef 5b3d d154 afbd
00000220: e6bc 89bd 35ed a43d c430 abbb feb9 f9bc
00000230: 7122 dbba fdcf e8bc d48a 023d e65d 8abd
00000240: c00d b8bd 1f79 b5bc 805e 7dbd ed5f ce3b
00000250: 09e4 913d a549 803d 1021 1f3d d88b 23bd
00000260: e6c4 4bba b7e2 8c3d e948 d83c 567f 16bd
00000270: e37b b1bd ffc6 283d 1c8d 5f3d 85a9 9ebd
00000280: d27e 8b3d 5142 493d 596b b2bd 265e a8bd
00000290: c46e 7b3c f773 743c f458 0e3d 0825 383d
000002a0: ab47 94bd db90 8f3d fafa 0f3c a482 5c3d
000002b0: 9f56 ad3d 8ef2 643d c1c7 08bd f1ef 24bd
000002c0: 8468 093d a947 4c3d 6a7d 773d 5ad9 873d
000002d0: e1e9 f6bb 400f 993d 272e a93d bf9c 853c
000002e0: 4343 a23b 2ff0 8bbd b9ae 94bd 5f1d adbd
000002f0: 2780 8dbd 23ec 7a3d 0b1c 66bd dd92 713d
00000300: 57f4 87bd c407 b5bd 4b1f f13c 7773 18bc
00000310: 05f9 963c 6896 aebd 2a52 2f3d fabe b23d
00000320: 20fe 32bd 6e38 1fbd f685 46bd 1193 aebb
00000330: 5cf7 4c3d afd0 a93c e549 b93c 8809 92bd
00000340: 4201 89bd b3f5 ecbc 0c39 f1bb eb1e ed3c
00000350: d27d 8bbd 7b20 2d3c 7b2c ad3c 692b 053d
00000360: 347a 893d e071 873d 7379 24bd 750b 9cbd
00000370: 390f 84bd c84b 4c3d 2d8d 91bd 4966 233d
00000380: 9dbd d3bc e535 40bc 8205 913d 567a aabd
00000390: 859c 08bd 0a2c 30bd aaac 8e3c 376d 9ebd
000003a0: 73f1 f2bc 04f7 743c 33f9 4c3d 7494 233d
000003b0: 3ef3 613d 83cc 86bd f61d 953c 1cce 233d
000003c0: 12ce f13c 201e 963d caa3 7fbd 4480 e3bc
000003d0: cd6b 4fbc 23cc bc3c 2437 54bd 9022 263d
000003e0: 6edd 6eba b4fa 76bd 9ffd 91b9 5422 3bbd
000003f0: c7c8 2fbd 38e9 77bd e5e0 8d3c 1bf9 9f3d
-0.07796354 0.026761144 -0.0633208 0.006024848 -0.016425531 -0.016696954 -0.008948786 0.025911987
-0.040171877 0.012752282 0.080236115 0.06419101 0.013563415 -0.055498134 -0.041966215 -0.005969371
0.062919445 -0.08777061 0.0076194354 0.020489395 0.013065353 0.013887319 0.021638297 0.008609773
-0.023358049 0.044450473 0.033724677 -0.054604243 0.054115202 -0.05870076 0.003969657 -0.070771106
0.051651996 0.019552933 0.03394785 -0.062968194 -0.01303581 -0.020039698 -0.04162763 -0.062291745
0.0066050333 -0.05225726 -0.053002223 0.0131856445 0.03572712 0.049377125 -0.06513866 0.06510252
-0.019251684 0.012673711 -0.058872413 0.06708073 0.0261389 0.04446191 -0.07287409 -0.04042416
0.011730526 0.067347124 0.047290687 0.03449574 -0.0738473 0.057780012 -0.06756872 0.0013481934
0.0036927192 -0.081334084 0.08520795 -0.05288665 -0.009880949 0.0153120775 0.074061684 -0.00304789
0.043772947 -0.01718194 0.051713213 -0.01804584 -0.08006264 0.040978942 0.062371496 0.02054662
-0.03669508 -0.015982622 0.06269508 -0.042395104 0.024223007 -0.025383655 -0.059436295 -0.0031769879
-0.07412783 0.064998336 0.06338446 0.073972724 -0.041305564 -0.047230642 0.035105765 0.06911205
-0.066325255 0.05578718 0.03691968 -0.07434801 0.050024994 0.078791626 0.04715182 0.020940116
0.020860717 0.012014721 0.01262964 0.01290393 -0.057436686 -0.069359 -0.06630713 -0.05919707
-0.0023385538 0.004905941 0.04747918 0.072969005 -0.021490712 0.04927362 -0.081653714 0.07235014
-0.052986283 -0.048993595 -0.030397886 0.01901534 -0.061518356 0.008040939 0.0097721275 0.032313462
0.04256382 0.044327527 -0.0059541515 0.030270578 -0.003214947 -0.018990235 0.053695265 -0.08561099
-0.06725483 0.08053056 -0.005224319 -0.030484196 -0.0016718638 -0.028419489 0.031870678 -0.06756191
-0.089869976 -0.022152482 -0.0618577 0.0062980563 0.071235724 0.062640466 0.03884989 -0.039928287
-0.00077731756 0.0687918 0.026401954 -0.03674253 -0.08666208 0.041205402 0.05457793 -0.07747177
0.068112984 0.04913551 -0.08711881 -0.082210824 0.015346233 0.014920226 0.0347528 0.04495719
-0.07240232 0.07010051 0.008787865 0.053835526 0.08463787 0.05589538 -0.033393625 -0.04026789
0.03354694 0.049873028 0.06042234 0.066332534 -0.0075352048 0.07473612 0.08260756 0.016310094
0.004951866 -0.06832921 -0.07259888 -0.08452868 -0.06909209 0.061260354 -0.056179088 0.05897795
-0.06638401 -0.08839372 0.029433867 -0.009304873 0.018429289 -0.085247815 0.042802967 0.08727832
-0.043699384 -0.038872175 -0.0484676 -0.0053275903 0.050040588 0.02072939 0.022618243 -0.07130724
-0.06689693 -0.028925752 -0.007361537 0.028945407 -0.06811108 0.010566826 0.021139374 0.032512102
0.067127615 0.06613517 -0.040154886 -0.07619373 -0.06448216 0.049876958 -0.07107005 0.03989247
-0.02584725 -0.011731599 0.07081129 -0.08324115 -0.033352394 -0.04301075 0.017416317 -0.07735675
-0.029656148 0.014951471 0.050042342 0.039936498 0.055163614 -0.06581976 0.018202763 0.039991483
0.029517207 0.07329965 -0.06241206 -0.027771123 -0.012659979 0.023046559 -0.0518104 0.040560305
-0.0009111975 -0.060297683 -0.00027845518 -0.045687035 -0.042916086 -0.06052515 0.017319152 0.07811185

actor.bias f4 [4]
00000000: 0226 61bc 491d 9fbc 48e8 91bd b87c 52bd
-0.013741972 -0.019423144 -0.07124382 -0.051388472

critic.weight f4 [1, 128]
00000000: bed8 86bc c611 a73d b45f 5c3d e726 c03d
00000010: e1c9 313d 2b58 853d 81d1 753d 06bd ac3d
00000020: 6d71 8d3c f3b5 92bb d3ec 093d 15ce 793b
00000030: 7e71 b83d f4a5 713d 0e0e 8cbd 42cc 7c3d
00000040: c796 98bd 22df 21bb 0267 a93d 0d90 4bbd
00000050: 927b 20bd 12ac 1fbd 988d cbbc 1a26 793d
00000060: 53bb 163d fafa 763d 77a3 fcbb 2dad 57bd
00000070: af8a 52bb cfe7 b33d c422 cabb 9d84 17bd
00000080: d25f 593d 4ab8 21bd 8f57 0dbd 47d9 883d
00000090: c304 273d f6b5 b2bd 39c9 84bd 4ddd 0bbd
000000a0: 0271 243d 0c6e 5e3b bbc2 44bd c8de ecbb
000000b0: 781c e4bc 2909 ea3c 87dd 693d 8048 7f3d
000000c0: a5c1 94bd 54a4 a23d c87a 623b 6b7e a4bc
000000d0: 9b7f fdbc df9c 49bd 0b92 2c3c 5234 8cbd
000000e0: 1796 3abd 096d 8abd efe7 6ebc caa2 be3d
000000f0: ed65 20bd 49f4 1c3d d9d8 3a3d 1df0 b43c
00000100: c56d b23d 6ea0 fdbc b876 49bd 1f77 243d
00000110: 9edc 7a3d 866b 9fbd 1d73 63bc ba22 563d
00000120: fc34 ccbc ce4a 343d d745 043c 3f4c a2bc
00000130: 3593 ab3d bbdd 78bd 0b48 363d 12e3 e33c
00000140: 30a1 8a3d 7099 a9bc 78db 4ebd 04ce 9e3c
00000150: 56b2 b5bc 955d 7e3d 50df c6bc 027e 563d
00000160: d920 5d3d 6d86 5cbd 4266 0dbd 25fa 9c3d
00000170: 9eb6 c23d cc00 e3bc dedd a43c 5209 f2bc
00000180: 09f6 3a3d 0fa3 313d 7c16 17bd 4101 89bd
00000190: ba41 bc3d be5c a23d 9d1a a13d 4764 923d
000001a0: 3e17 3ebd 74af 53bd 6816 8abd cdf8 f73c
000001b0: 8848 a73d 5b04 b23d fc04 ec3b be76 99bd
000001c0: 7715 14bd 3400 bb3a c3bb ac3c 6d8c 0e3d
000001d0: a486 8e3c 5353 853c cc57 a9bc 2273 63bd
000001e0: dbf6 82bd fa14 a5bd 751f 8a3c e8dc e33c
000001f0: 1381 503d a5fd d7bc 67df b43d 30d1 5b3c
-0.016460773 0.08157687 0.053802207 0.0938242 0.043405417 0.06510957 0.06001425 0.08434491
0.017266 -0.0044772564 0.03367312 0.003811722 0.09006022 0.058996156 -0.06838618 0.061718233
-0.074506335 -0.0024699648 0.082716 -0.049697924 -0.039180346 -0.03898246 -0.02484779 0.060827352
0.03679974 0.060297944 -0.007709916 -0.052655388 -0.003212612 0.08784448 -0.006168695 -0.036991704
0.053069897 -0.039482392 -0.03450733 0.06682067 0.040776026 -0.087261125 -0.06483693 -0.034146596
0.040146835 0.0033940105 -0.048037272 -0.007228706 -0.027845606 0.028568821 0.05709603 0.062325
-0.07263497 0.07941499 0.0034558047 -0.020079812 -0.030944636 -0.04922187 0.010532866 -0.06845917
-0.045553293 -0.06759078 -0.014581664 0.09308393 -0.039159704 0.038318906 0.04561696 0.022087151
0.08712343 -0.030960288 -0.049185485 0.040152665 0.061245553 -0.0778418 -0.013882426 0.05227921
-0.024927609 0.04401665 0.008073292 -0.019811748 0.08377687 -0.060758334 0.0445023 0.027818237
0.06769025 -0.020703048 -0.05050227 0.019385345 -0.022179764 0.062100966 -0.024276406 0.052366264
0.053986404 -0.053839136 -0.03452135 0.07664899 0.09507488 -0.02771034 0.020125326 -0.02954546
0.045644794 0.043368395 -0.036886677 -0.06689692 0.09192224 0.079278454 0.07866404 0.07148033
-0.046408884 -0.051680997 -0.06742555 0.030270005 0.08168131 0.08692237 0.0072027426 -0.074933514
-0.036153283 0.0014267028 0.021085626 0.03480189 0.017398186 0.016275084 -0.020671748 -0.05552972
-0.0639474 -0.080606416 0.016860703 0.027815297 0.050904345 -0.026366064 0.08831673 0.013416573

encoder.0.weight f4 [128, 256]
00000000: a047 f43b e00a f23b 922c 51bd 767a 14bd
00000010: fe50 7cbd 300d 6cbd ae5c 7c3d 9083 533d
00000020: 90d9 723c 12e3 723d 186f b9bc 0802 12bd
00000030: ce3e 5a3d 60f2 58bb f072 423c 6e56 173d
00000040: 6ee7 063d 8e95 12bd 6002 c6bc b842 6cbd
00000050: 4076 343b 508f b7bc 30e9 5b3c c08f 3e3b
00000060: d43f 5a3d 4063 b03b 064b 003d 0090 a13c
00000070: 6e21 633d acd7 d4bc 2ac1 553d 929d 373d
00000080: 6859 ccbc faeb 1c3d ccab 6c3d 90bf 10bd
00000090: f8b4 c7bc 5c21 2f3d ea6a 4e3d 7810 873c
000000a0: 203a 9d3c 629c 3d3d 845a 603d 8ce8 21bd
000000b0: a49a d2bc 408b 573d 5045 0a3d 343c f0bc
000000c0: 58b9 adbc 5a6f 783d be56 20bd 40ae 243d
000000d0: fc8c 143d 2684 75bd c88c 7fbd 0cf8 a93c
000000e0: c835 fb3c e6ea 623d f06c fc3b c4ac 2d3d
000000f0: 42ef 35bd 72cf 183d 029e 76bd 64c4 263d
00000100: 1009 de3b e021 1e3d 443f ca3c 4e1a 31bd
00000110: 8024 2a3a d885 013c 8035 133c 6824 60bd
00000120: d24e 01bd 382e f1bc 4426 0bbd 2cfc 593d
00000130: 86cf 103d f8d2 d23c 087d 99bc 6ab5 4fbd
00000140: b8e8 593c 7088 6c3d c8dd e33c 74ae 4ebd
00000150: 9091 b5bb a05d 263b d477 223d 1c4b d83c
00000160: 6e88 34bd 5c6c 71bd dc06 983c d4f2 f93c
00000170: e6d3 123d e039 303d aa4c 623d 88b8 d5bc
00000180: 6201 79bd 90bc fa3c b6ef 763d 8a77 3abd
00000190: 2adf 00bd 6630 5b3d 10f2 473d 70e0 c3bb
000001a0: b61e 12bd 40ba 3b3c 8abc 7abd 183c cabc
000001b0: 1884 04bc 500e 74bc 9cf7 d23c 0058 ad3a
000001c0: c4b2 49bd c0e7 c8bb 6043 be3b 96f4 1f3d
000001d0: 00a1 663b 7088 b2bc 7c68 c73c a0ec eb3c
000001e0: 885c 423c 6477 09bd 2480 8a3c e863 123c
000001f0: 6ab4 0f3d f0e4 8bbc 2004 85bb e494 053d
00000200: 280a 08bc 0699 053d e087 24bc 4ed7 603d
00000210: 00ca fbb9 d001 58bc a088 b13c 8060 4fbb
00000220: c0ed 4c3d e8ad 0fbc d61b 2c3d 2c65 84bc
00000230: 60e9 b33b b00b a63c 0444 70bd 5017 453c
00000240: 2236 0b3d 6c20 ca3c 40d8 c83a 408c d3bb
00000250: ac22 a13c 5801 9b3c 04a6 f6bc 3cd8 c73c
00000260: e63a 5bbd 0000 213b d809 b0bc 603a d6bc
00000270: 129f 4fbd ea3b 493d e0a7 bc3b 70d8 8c3b
00000280: 0822 1abc 6854 d4bc 62eb 45bd 400f 433c
00000290: 8ab5 47bd 301b dbbc 68b0 003d 8033 563d
000002a0: a4a4 a3bc 1c30 7cbd c25c 7a3d 5c95 0a3d
000002b0: 54bf 383d 40c4 3abc 4000 53bc 1043 c83b
000002c0: f89c 7a3c 00bf d33a badd 04bd 3cab 643d
000002d0: 041d ef3c d007 b9bb 5413 5abd 242a fcbc
000002e0: d892 b2bc 60cb 2abc 40b3 8d3c c81f 2bbc
000002f0: cc2a b13c ec47 26bd c810 60bc a468 e73c
00000300: ac6b 7b3d 1444 58bd f0e8 d43b 5232 073d
00000310: d0ef dcbb 5092 6e3c c4d4 1f3d d25e 7ebd
00000320: cc96 173d f2db 64bd 483b 3e3c 68f4 1a3d
00000330: 90bd e8bc 80e5 133a 1ac3 75bd 0048 7cbb
00000340: 4a43 103d 8030 ff3c 64d4 883c b00d a8bb
00000350: 64c8 d1bc 0a18 503d 2437 973c 282d b63c
00000360: 604e f93c 38b8 90bc 303e 9cbb ba8f 713d
00000370: 4824 653d 8614 7ebd fc77 5abd b421 93bc
00000380: 406b 813c 3af6 05bd 58b0 fd3c c8ad 65bd
00000390: 7090 f7bb 9803 253d c0b1 82bc 3411 83bc
000003a0: 601e 5e3c 981b 443d d8b4 653c 00fd ca3a
000003b0: 00b6 caba b4f1 58bd 04c6 cabc 9efa 7e3d
000003c0: 4c56 2bbd cc96 f13c 08cb b1bc 1c4a ad3c
000003d0: 6c4c e33c e60b 353d 4eda 1ebd 98ed 01bc
000003e0: 9e81 2ebd 20b0 503c 605a f2bc 3070 ca3b
000003f0: e89c 52bd 0021 67bc 1cda 55bd 189c 58bd
0.0074548274 0.0073865503 -0.051067896 -0.0362496 -0.061600678 -0.057629764 0.061611824 0.05163914
0.014822379 0.059298582 -0.022635981 -0.03564647 0.05328255 -0.003310345 0.011868224 0.03694766
0.032935552 -0.035787158 -0.024171054 -0.057680815 0.0027536303 -0.022407204 0.013422295 0.002907738
0.053283527 0.0053829253 0.031321548 0.019721985 0.055451803 -0.025981747 0.05218617 0.044828005
-0.024944976 0.038310982 0.057781026 -0.03533894 -0.024378285 0.042756423 0.05039493 0.016487345
0.019192755 0.046291716 0.054773822 -0.039528415 -0.025708504 0.052623034 0.033757508 -0.029325582
-0.021206543 0.060653068 -0.039145224 0.04020524 0.036267266 -0.05994048 -0.06239012 0.02074816
0.030665293 0.055399798 0.007703416 0.04240109 -0.044417627 0.03730721 -0.06020928 0.040714636
0.0067759827 0.038606524 0.02468837 -0.043237977 0.0006490424 0.007905446 0.008984923 -0.05472222
-0.03156931 -0.029440984 -0.03397204 0.053219005 0.03535416 0.025735363 -0.018736377 -0.05071012
0.013300113 0.057747304 0.027815714 -0.05045934 -0.005541034 0.0025385395 0.03966506 0.026403002
-0.044075422 -0.05894123 0.018557958 0.030511297 0.035846613 0.043023944 0.055248894 -0.026088968
-0.060792334 0.030607492 0.0602872 -0.045524158 -0.031462826 0.053512953 0.048814833 -0.005977683
-0.03567382 0.01145798 -0.06121496 -0.024686858 -0.008088134 -0.0148959905 0.025752835 0.0013225079
-0.04924275 -0.0061311424 0.0058063716 0.039051615 0.0035191178 -0.021793574 0.024341814 0.028799355
0.0118628815 -0.033561125 0.016906805 0.008934952 0.035084166 -0.01707694 -0.0040593296 0.032612696
-0.008303203 0.032616638 -0.010042161 0.05489283 -0.00048024952 -0.013184026 0.021671593 -0.0031643212
0.050031424 -0.00876949 0.042018734 -0.016161524 0.005490467 0.020269245 -0.058658615 0.012029484
0.033987172 0.024673663 0.0015323237 -0.006455928 0.019669853 0.01892154 -0.03010846 0.0243951
-0.053522967 0.002456665 -0.021489069 -0.026150882 -0.05068881 0.049129404 0.005757317 0.0042982623
-0.009407528 -0.025919154 -0.04832018 0.011905491 -0.048757114 -0.026746362 0.031418234 0.052295208
-0.019975968 -0.06156932 0.061123617 0.033833846 0.04510434 -0.011399329 -0.012878478 0.00611151
0.015296213 0.0016154945 -0.032438017 0.055827364 0.02918864 -0.0056466833 -0.05324109 -0.030781813
-0.021798536 -0.010424465 0.017297387 -0.010444589 0.021626852 -0.040595934 -0.013675876 0.028248139
0.06138198 -0.0527993 0.006497495 0.033006974 -0.006742455 0.014561251 0.03902127 -0.062102146
0.037009045 -0.05587382 0.011610813 0.03783074 -0.028410703 0.0005641803 -0.060000516 -0.0038495064
0.03522042 0.031151056 0.016702838 -0.005128585 -0.025608249 0.050804175 0.01845891 0.022238329
0.03043288 -0.017665967 -0.0047681555 0.05897496 0.055942804 -0.06203129 -0.053337082 -0.017960407
0.015798211 -0.032705523 0.030967876 -0.056073934 -0.00755506 0.04028663 -0.015953898 -0.015999414
0.013557047 0.047877878 0.014020167 0.0015486777 -0.0015465617 -0.05296488 -0.024752624 0.062250726
-0.041830346 0.02949085 -0.021703258 0.021153502 0.027746402 0.0442008 -0.03878241 -0.007930182
-0.04260408 0.012737304 -0.02958411 0.0061779246 -0.05141917 -0.014106989 -0.05220996 -0.052883238

encoder.0.bias f4 [128]
00000000: 48e6 43bd 70af 953b c873 eabc 500f a4bb
00000010: f8e0 1ebc f0e1 6b3d b893 82bc f013 1e3c
00000020: 9658 233d 101b 963c 223a 5bbd 0044 79b9
00000030: ee8b 2abd d079 463c d435 6dbd f059 49bd
00000040: a0ff 4ebc 9e09 3b3d 14fb 67bd aa2d 50bd
00000050: b0b9 a5bb 0c1c 26bd 84ce 4a3d 1c89 2fbd
00000060: eafd 54bd 807b daba 3a12 603d a016 8fbb
00000070: d059 993b 30bf f7bc bca8 f8bc ecdc b33c
00000080: e452 813c a023 3f3c c830 1e3c e08e 6bbd
00000090: 26e3 583d 68a6 b43c 3072 d6bb a625 523d
000000a0: 260f 51bd 52c7 70bd a4b3 8abc a2cb 3abd
000000b0: be3b 01bd c8e9 8e3c 4490 94bc 704f 75bd
000000c0: f4b5 e5bc ae0e 573d bcc6 133d 6016 12bd
000000d0: e87b 20bc c4ac 90bc bc05 de3c 84b2 d5bc
000000e0: e20d 35bd e6db 0c3d 9437 6ebd ee56 133d
000000f0: 148c 70bd c60c 423d f8f7 ea3c c405 c8bc
00000100: 3830 0d3d 0836 6cbd 40e9 4b3b a488 33bd
00000110: 148d c6bc ecea fa3c 0815 f03c 2052 19bd
00000120: 0461 f83c b0b2 c43c c8d3 4b3d d062 983b
00000130: 9697 7a3d e05c f7bb 902b 973c 00d6 2aba
00000140: f0b6 bcbc 8087 36ba f82e 793c 8c60 a6bc
00000150: b0ce 41bd 7617 733d 24cd 0cbd 8ebd 56bd
00000160: 9295 0ebd 44b1 26bd 8cd6 5fbd 88f3 593d
00000170: 78bb 653d e07d e93c 2cd2 a2bc b8e3 9d3c
00000180: 24d0 6f3d c0a3 c3bc 0040 7737 5cf3 a13c
00000190: 0a96 4a3d 046f 79bd 98a7 85bc 38a6 43bd
000001a0: 9c83 54bd 8489 953c ba77 783d 06d4 2cbd
000001b0: 7ac1 2e3d 6e19 52bd 3aec 23bd 0c04 12bd
000001c0: 4c74 923c a04e 0bbd bc4f f73c 4056 fd3a
000001d0: 3076 0abc 2aad 673d 7047 3a3d e22b 0bbd
000001e0: 7c5d eb3c 0093 d73a d435 673d 0aab 24bd
000001f0: 36ca 583d 7c27 eebc 2086 82bb 467e 143d
-0.047827035 0.004568033 -0.028619662 -0.005006708 -0.009697191 0.057588518 -0.015939578 0.009648308
0.039879404 0.018323451 -0.053522237 -0.00023771822 -0.041637354 0.012114003 -0.057912663 -0.049158037
-0.012634188 0.04566347 -0.05663593 -0.0508248 -0.005057536 -0.04055409 0.049513355 -0.042855367
-0.051999964 -0.0016668886 0.054704882 -0.004366711 0.004679896 -0.030242532 -0.030353896 0.02195593
0.015786596 0.0116662085 0.009655185 -0.057509303 0.052951 0.022052005 -0.006544374 0.051305436
-0.051039837 -0.058783837 -0.016931362 -0.045604356 -0.031551115 0.01744546 -0.018135197 -0.05989021
-0.028040864 0.052504234 0.0360782 -0.03566587 -0.009795167 -0.017660506 0.027102344 -0.0260861
-0.044202693 0.0343894 -0.058158472 0.035971574 -0.05872734 0.047375463 0.028682694 -0.024416812
0.034469813 -0.057668716 0.003111437 -0.043831483 -0.024237193 0.030629598 0.029306903 -0.037431836
0.030319698 0.024010986 0.049762517 0.0046504512 0.06117972 -0.0075489134 0.01845339 -0.0006516874
-0.02303645 -0.000696294 0.015208952 -0.020309709 -0.047316253 0.059348546 -0.034375325 -0.052426867
-0.03481061 -0.040696397 -0.054647967 0.053210765 0.056086987 0.028502405 -0.019875608 0.019273624
0.058548108 -0.023881793 1.4737248e-05 0.019769363 0.049459495 -0.06089689 -0.016315266 -0.04776594
-0.051883325 0.01825405 0.060661055 -0.04219439 0.042664982 -0.051293783 -0.040020205 -0.03564839
0.01787772 -0.03401053 0.030189388 0.0019328073 -0.00845103 0.056561626 0.045478284 -0.033977397
0.0287311 0.0016447008 0.05644782 -0.040202178 0.05292722 -0.029071562 -0.003983274 0.036253236

encoder.2.weight f4 [128, 128]
00000000: d37c 8bbd 5de7 adbd 40b8 06bb bbaa 68bd
00000010: 66b1 9dbd 07d3 8f3c e7bc f5bc 219c 133d
00000020: 9248 9fbc 5f7f 85bd 78d3 503d 22d8 783b
00000030: e369 20bc 0d85 843d 22f6 19ba a89e 88bd
00000040: 6f74 473d 8f72 963c 412c 993c 59d6 0e3d
00000050: 12b6 8f3d 051d 53bd 6db1 3cbc 3296 063d
00000060: 8009 9bbd 2a60 35bb c022 9cbd 1bb5 a9bc
00000070: 69e2 da3b b110 163d e0d6 d23a b184 98bd
00000080: 63c2 b93c 7ce3 a1bd 8a35 293c f441 a1bb
00000090: 0e7d e23c 7ff4 34bd c150 9ebd 8674 4fbd
000000a0: a257 99bd 3918 8a3d 0058 a0bd 31fe 5dbd
000000b0: 5f4f a23d 3e81 123d 7ba6 8b3c cb46 9abd
000000c0: 1c4c abbc 334a 03bc d147 e73c 450f b9bb
000000d0: 15d0 ae3d c04a 423d 6715 7a3d b533 a03d
000000e0: b1e4 973d 5aaf 893c 1686 13bd 5b31 503d
000000f0: 8db1 4ebd 45f8 053b 2ce5 983d ebe8 953d
00000100: 8d34 73bd 8003 16bc c662 1c3d d406 a43c
00000110: 6136 5b3c cf2b 693d 0ba2 2ebd f16f 7bbd
00000120: 69e8 71bd d3fc 223d f1a5 433d 6b0e 3bbc
00000130: ea81 91bd 9ea3 09bc 8583 7bbd e72e 4ebd
00000140: c85e 86bd 5ee0 a5bd e974 603b b02b a4bb
00000150: e1e3 d4bc 40e7 a13d 7ffa 693d 7d1f 70bd
00000160: e005 6c3c 95ca 903d fefe a63d 9234 7cbd
00000170: b811 6e3d 0a4f 9c3d 4590 fdbc e44f ab3c
00000180: ff69 77bd b471 30bd e005 0b3c 0d6a 83bd
00000190: 1cd3 493d e054 63bc 9212 85bc 798b 793d
000001a0: db5e cb3a 520d fdbc 7c72 0f3d 6c58 5fbd
000001b0: eeb3 47bd 6d33 34bc 0c5f 853d b4bd 463c
000001c0: 60cd 303c 8767 d63c 504b 943d 9bd7 8a3b
000001d0: 946f ee3b 0008 4a3d 49e5 cd3c be51 6dbd
000001e0: abff 063b 409a 99bc c8f9 42bb 6b22 a6bd
000001f0: b97f ebbc f0ff aa3d 0fe5 e73b 6f3b b23d
00000200: 2cef 603d 32cd 78bd 6740 8e3d 33dc 913d
00000210: 7ac1 88bd f424 b83c 38fc 26bd af1c a2bd
00000220: c22c 203d 55bf 983d abcd 8539 9a9d a6bd
00000230: 5347 253c 9e17 403d 5976 42bc 2315 8d3d
00000240: b0f5 5dba fb74 88bd c2d0 60bd 9a68 e43c
00000250: b99f 32bd 3bc3 8a3c 5108 5b3d aa3f 673d
00000260: 5a71 babc 30c0 03bd 48be a13d 8f3e 833d
00000270: 4365 84bc 225d 41bd 2bf5 223d 4f7b b8ba
00000280: d5f5 633c c1b6 00bd e27e a13d e17c f73c
00000290: 4037 3cbd 243c 003b 7d8a 4dbd eaa9 7d3d
000002a0: d53e 9ebd 0aa5 963d ca47 a5bc e747 d73c
000002b0: 62ff 993d 5fe4 573d 5f7a 793d a462 db3c
000002c0: 40dd 5cbd db11 37bd 1c67 733d 7aa0 4dbd
000002d0: d0a0 febc 323b dbbc 87ac 713d 9f92 0ebd
000002e0: 3627 d9bc 9d6e e4bc ed84 ccbb d876 8f3d
000002f0: db8b bd3c cbcd ef3c 368e 4f3c 12b0 b53b
00000300: 7ae9 57bc 95fe a2bd 24e3 2e3d a4ae c0bc
00000310: d268 41bd 9965 643d 6852 a43d b6cd 8bbd
00000320: 7ccd c13c 7e8b 56bd 1165 36bd 75f4 9e3d
00000330: c5c6 a3bc 7151 133d 240d 5abd 4e02 62ba
00000340: e43e 99bd 85c0 313d 66b2 97bd 22c4 5fbc
00000350: 5107 823d b33d 693d 0c04 af3d d2e6 babc
00000360: 1c85 b13c dbb7 77bc 5f2d 813c d6a3 963d
00000370: 9d17 113d 0300 70bd 9912 9dbd fb80 803d
00000380: 145f 87bd 91fc 873d b0c7 cbbc dce2 ee3c
00000390: 6b3f 9b3d cf79 a33d 106c 7f3c 468d 8dbd
000003a0: 359b 64bc f5d9 6f3d 3925 313d ae91 9b3d
000003b0: a411 833d b275 94bd 34df 893d 7a0e 8abc
000003c0: a8b6 4e3d f242 6dbd d42a 8dbd 6df8 4abd
000003d0: 0e9d e1bc cb16 923d a113 23bd b8ff a53d
000003e0: 9bfc 963d b427 3cbd f753 0ebd 02e0 6e3a
000003f0: ad73 6c3d cec0 e23c 6e46 0abc e9fe 6ebd
-0.06810918 -0.08491395 -0.00205566 -0.056803446 -0.07699852 0.01755668 -0.029997302 0.036037568
-0.019443784 -0.06518435 0.050982922 0.0037970622 -0.00979087 0.0647069 -0.00058731635 -0.06670886
0.048695024 0.018365173 0.01869786 0.034872387 0.07017149 -0.051541347 -0.011516911 0.03285808
-0.07570171 -0.0027675726 -0.076238155 -0.02071624 0.006679822 0.036637012 0.0016085766 -0.07447184
0.022675699 -0.07904717 0.010327706 -0.0049211923 0.027647521 -0.044178482 -0.07730246 -0.050648235
-0.07487418 0.06742901 -0.07829285 -0.054197494 0.07925295 0.035767786 0.017047158 -0.07533034
-0.020910315 -0.008013296 0.028232487 -0.005647572 0.08535782 0.04743457 0.061055567 0.07822362
0.07416666 0.016807247 -0.036016546 0.05082832 -0.050462294 0.002044217 0.07465586 0.07319816
-0.05937629 -0.009156108 0.038180135 0.020022787 0.013379664 0.056926545 -0.042635005 -0.061386053
-0.059059534 0.039791893 0.047765676 -0.011417012 -0.07104857 -0.008400826 -0.061404724 -0.0503377
-0.06561047 -0.08099435 0.0034249371 -0.005010091 -0.025987567 0.079054356 0.057123657 -0.05862378
0.014405698 0.070698895 0.08154105 -0.061573572 0.058122367 0.07632263 -0.030952582 0.020912118
-0.06040382 -0.043077186 0.008485287 -0.06416712 0.049273595 -0.013875216 -0.016244207 0.060924027
0.001551594 -0.03089014 0.03502129 -0.054527685 -0.04875558 -0.010998589 0.065122694 0.01213019
0.010791153 0.026172413 0.07240927 0.004237128 0.0072764847 0.049324036 0.025133746 -0.057939284
0.0020599167 -0.01875031 -0.0029750932 -0.081120335 -0.028747426 0.083495975 0.0070768665 0.08702742
0.054915592 -0.060742564 0.069458775 0.07122078 -0.06677528 0.022478558 -0.04076788 -0.07915627
0.039105184 0.07458369 0.0002552097 -0.08135529 0.010087806 0.046897523 -0.011869037 0.06888797
-0.0008467091 -0.06662937 -0.054886587 0.02788191 -0.043609355 0.016938796 0.053474728 0.0564572
-0.022759128 -0.032165706 0.078976214 0.064084165 -0.016161567 -0.04720796 0.03978459 -0.0014074835
0.013913591 -0.031424288 0.07885529 0.030210914 -0.045951128 0.0019567097 -0.0501809 0.06192962
-0.07726828 0.073556975 -0.020175833 0.026279403 0.075194135 0.052708026 0.060907718 0.026780434
-0.053921938 -0.044694763 0.059424505 -0.05020187 -0.03108254 -0.026761625 0.059002426 -0.034807798
-0.026507955 -0.027884776 -0.006241432 0.070050895 0.023137977 0.029272934 0.012668183 0.005544671
-0.013178224 -0.07958714 0.042697087 -0.023520775 -0.047219105 0.055760954 0.0802353 -0.068263456
0.023657553 -0.052379124 -0.04452998 0.0776147 -0.019992242 0.03596634 -0.053235188 -0.0008621559
-0.074826986 0.04339649 -0.07407074 -0.013657602 0.06349052 0.056943607 0.08545694 -0.022815142
0.021669917 -0.015119518 0.015768705 0.07355468 0.03542291 -0.05859376 -0.07669563 0.06274601
-0.066099316 0.0663997 -0.024875492 0.02916091 0.075804554 0.079822175 0.015589729 -0.069117114
-0.01395302 0.05855747 0.04324839 0.075961456 0.06399849 -0.07249011 0.06732026 -0.016852606
0.050467163 -0.057925172 -0.068929344 -0.049553324 -0.02754071 0.07133254 -0.03981364 0.08105415
0.073723994 -0.0459363 -0.034748044 0.0009112359 0.057727505 0.027679827 -0.008439643 -0.05834857
