checkpoints/rnd/seed0/final.pt (torch, 798559 bytes, 15 tensors)

fc1.weight f4 [256, 256]
000000 92 d8 cd bc d6 56 a0 bc 61 96 e5 bc 40 8e c0 3b
       -0.025127683 -0.019572657 -0.028025808 0.0058763325
000010 a0 7b 03 3c 88 f2 1e 3c 8a d1 46 3d d4 1e b6 bc
       0.00802508 0.009701379 0.048539676 -0.022231497
000020 4c a1 c0 3c 47 de 6a 3c e1 cb 3c bb 8a de ae bb
       0.023514412 0.014335222 -0.0028808045 -0.0053365873
000030 5c 29 b6 3c 2b 0e 38 ba f7 19 cf bc e8 86 d9 bc
       0.022236519 -0.0007021154 -0.025280936 -0.026553586
000040 34 90 0f 3b 18 d9 48 bd 75 89 f5 36 40 bb 21 bc
       0.002190602 -0.04903516 7.317571e-06 -0.009871304
000050 d2 cb 48 3d b3 69 06 3c fb cc 72 bc a4 3a 46 3d
       0.049022503 0.008203912 -0.014819379 0.048395768
000060 72 e6 86 3d c0 f0 21 3d 8b ec 9c 3c f5 9c af 3b
       0.06586923 0.039536238 0.019155761 0.005359287
000070 d7 1b 74 39 a0 c9 bd 3c 53 57 9a 3c 0e 35 8d bc
       0.00023280024 0.023167431 0.018840468 -0.017237213
000080 89 4a 1e 3c 99 76 18 bd 63 dc 13 ba cf d9 da bc
       0.009661325 -0.03722248 -0.0005640445 -0.026715187
000090 ff 00 61 bd 27 26 23 bd 02 84 48 3d 59 12 29 3d
       -0.05493259 -0.039831307 0.048954017 0.041277263
0000a0 1b bd 7c bb f8 64 c3 bc 41 7a a0 bb f4 56 6b 3d
       -0.0038564864 -0.023851857 -0.0048973863 0.05745597
0000b0 2c 98 08 bd dc e0 59 3d 56 9a 3a 3d 92 cc fb 3c
       -0.033348247 0.05319296 0.045557342 0.030737195
0000c0 25 f5 37 3c 0a d5 3d bd 20 03 18 3d a3 01 1e bc
       0.011227881 -0.046345748 0.037112355 -0.009643945
0000d0 ab 36 d8 3c 82 c1 36 3d cf 7b f6 3c b4 b6 77 bd
       0.026393255 0.044618137 0.030088333 -0.060476974
0000e0 e3 b4 cd bc 29 f1 ae bc a6 51 95 bc 0a 94 23 3d
       -0.025110668 -0.021355228 -0.01822741 0.039936103
0000f0 4e be 43 bc 24 59 96 bc fd 6e 6c 3c 60 c0 46 3d
       -0.011947228 -0.018353052 0.014430759 0.048523307
000100 19 9b 4e 3b 88 b4 f3 bb c4 c6 28 3d a0 e9 68 bd
       0.003152555 -0.0074372925 0.041205183 -0.056863427
000110 2d 1b 1a bd 3b ec 84 bd c0 fa 35 3d 48 0f 4d 3d
       -0.037623573 -0.0649037 0.044428587 0.0500634
000120 fc c4 17 3d 8d d9 b8 bc e6 08 95 3c 10 64 7d 3c
       0.037053093 -0.022564674 0.01819272 0.015465751
000130 0c 4b ef 3a e8 85 6a 3d 48 16 92 bc 57 32 f7 bc
       0.0018256619 0.05725661 -0.01783289 -0.030175371
000140 4e 09 a4 ba 51 c7 c0 bb 21 ce df bc 02 3b 9b 3c
       -0.001251498 -0.0058831354 -0.02731997 0.018949036
000150 6c 92 39 3c e4 e5 65 bc 94 1d 59 bd d4 af 36 bd
       0.011326414 -0.014031861 -0.053006724 -0.044601277
000160 37 60 66 3c d8 f2 14 bc a8 16 11 3d b1 6d ae bc
       0.014061025 -0.009091102 0.035421997 -0.02129254
000170 53 25 6d 3d 9e ad 2c 3d 32 68 1f 3d 92 87 28 bd
       0.057896923 0.04215776 0.038917728 -0.041144915
000180 6b 75 a9 3c d5 5b 28 3c b0 9c 14 bc ad 21 4a 3c
       0.020685872 0.010275801 -0.00907056 0.0123371305
000190 46 36 81 3c fb 28 fa 3c c7 e9 78 3c a0 f4 5d bd
       0.01577295 0.03053712 0.015192456 -0.05418837
0001a0 a7 72 81 bd 1b 3d 5e bc 1b 24 f4 ba 04 d1 0a bd
       -0.06320696 -0.013564373 -0.0018626483 -0.03389074
0001b0 4a f0 2e 3d 6b 47 c8 3a 3b a6 24 bc 28 33 53 3d
       0.042709626 0.0015280073 -0.010049398 0.05156246
0001c0 c2 38 2d 3d 82 a6 6e bd e7 b9 a3 3c a1 a2 f3 bc
       0.042290457 -0.058264263 0.019986106 -0.029740633
0001d0 6d 55 83 bc 18 2c 20 3d 2f cf 99 3c e3 64 c4 3c
       -0.016031945 0.03910455 0.01877555 0.023973888
0001e0 7b cd a8 3c e6 d2 6d bd 31 d9 d9 bc d3 5e b8 bb
       0.020605793 -0.058062457 -0.026592823 -0.0056265383
0001f0 c2 0c 02 bc 88 5c 12 3d ee 79 8b 3b dd 40 cc bc
       -0.007937612 0.035732776 0.0042564785 -0.024933273
000200 44 40 27 bd 00 02 af ba 04 6b cc bc 25 93 1c bc
       -0.040832773 -0.0013352036 -0.024953373 -0.009556566
000210 c4 a5 28 bd 09 c1 08 3d 64 97 e8 3c 36 8f 18 3d
       -0.04117371 0.033387218 0.028392501 0.03724595
000220 90 4a a5 3c 20 81 4b 3b 9f 40 a0 3c 10 a5 80 bc
       0.020177156 0.0031052306 0.019562064 -0.015703708
000230 23 d1 41 3d dd b2 1c 3d 8e be 08 bd 4a 01 25 3d
       0.04731859 0.038256515 -0.033384852 0.040284432
000240 38 92 3c 3d 39 99 1b bd 9a 99 fe bc b8 98 16 bb
       0.046037883 -0.03798792 -0.031079102 -0.002297921
000250 3c 68 65 3d d4 50 b5 3c 58 0e db 3b 87 a8 d5 39
       0.05600761 0.022133268 0.0066850595 0.00040752089
000260 0d b2 e7 3c 87 65 de 3b f1 e0 8e bd 21 11 d6 3c
       0.028283143 0.0067870053 -0.06976498 0.026131215
000270 5a 7a 0f bc 4a fc 35 3d 32 9a 8c bc 2b 23 37 3d
       -0.008757198 0.044430055 -0.01716337 0.044711273
000280 2c 62 b6 3c 52 60 45 bd 31 7c 85 bd 25 22 0f 3c
       0.022263609 -0.04818756 -0.06517828 0.008736168
000290 3e 6e bf bc 97 d3 b7 ba 00 22 45 bd 09 82 03 bd
       -0.023367997 -0.0014024851 -0.048128128 -0.032106433
0002a0 d4 c1 97 3c fa 4c 31 3d 28 cc 73 bd 91 3f 0b 3d
       0.018525042 0.0432863 -0.05952087 0.03399617
0002b0 4b 8a 62 39 d2 4b 9a 3c ea 96 b4 bc 4e ff 98 bc
       0.00021604558 0.018834982 -0.022044618 -0.018676426
0002c0 56 20 f0 b8 67 40 6d 3d 9a 88 b2 ba 3b 9d 54 bd
       -0.00011450115 0.057922747 -0.0013621033 -0.05190776
0002d0 29 0a bd bc 61 4d 4b bd 6f 44 71 bd e4 da 97 3b
       -0.023076134 -0.04963434 -0.058903154 0.004634248
0002e0 7e ab 46 3d 01 d6 f0 3c 64 8b 01 bd d8 19 9f bc
       0.04850339 0.02939892 -0.031627074 -0.019421503
0002f0 0e 7b 20 bd 3e b1 ae bc f0 14 c6 39 44 ba 85 3b
       -0.039179854 -0.02132475 0.00037781103 0.0040810425
000300 7d b8 4e 3d 80 02 fa 3a e2 d0 e6 3c a3 d2 a7 3b
       0.05046891 0.0019074231 0.028175775 0.0051215454
000310 40 77 ca 3a 0c 5b cc bc 08 b3 e1 bc 74 72 35 3d
       0.0015446916 -0.024945758 -0.027551189 0.044298604
000320 12 f8 0d 3d f8 81 52 3c 98 cc 4e bd d1 2f 13 3d
       0.034660406 0.01284837 -0.050488085 0.035934273
000330 30 69 39 3d 59 45 44 3d e4 85 87 bc 3f e9 7b bd
       0.04526633 0.047917698 -0.016543336 -0.061501738
000340 98 e5 14 bd 56 21 47 bd e9 9d 72 bd bc 9a 55 bd
       -0.03635177 -0.048615776 -0.059232626 -0.05214952
000350 25 68 f2 3c 60 0d fd 3b fd b5 a6 3c 5c a7 bd 3c
       0.029590676 0.0077225417 0.02035045 0.023151092
000360 cf 84 7f bd 54 e7 70 bd 22 74 58 3d a4 f2 22 bd
       -0.062382516 -0.05881436 0.052845128 -0.03978218
000370 df e9 08 3d 2d b1 6b 3d 9e f0 25 bd 57 ff 02 3c
       0.03342616 0.057542015 -0.040512674 0.007995448
000380 58 8e 36 bc 24 23 97 bc de ad 5c bd 92 a2 78 bd
       -0.011142336 -0.018449374 -0.05387675 -0.060701914
000390 b8 20 5d 3c 46 24 20 3d a4 19 f1 3c e4 f8 e9 bc
       0.01349657 0.039097093 0.029431172 -0.028561063
0003a0 6e 5c 07 3d 88 6f 14 bc 2c 6a 43 3d c0 71 09 3c
       0.033047132 -0.009059794 0.047708675 0.0083889365
0003b0 59 14 5f bd 74 f8 b5 bc d0 cc f2 bc 29 e0 26 bd
       -0.054462764 -0.022213198 -0.029638678 -0.04074112
0003c0 22 bc 4e bd 49 d2 68 bd 3a a0 6c bd 92 ba 55 bd
       -0.050472386 -0.05684117 -0.05776999 -0.05217988
0003d0 20 b1 cd 3b 22 2d 69 3c 02 0f 8b 3b ef 0f 3f 3d
       0.0062772185 0.014231952 0.0042437324 0.046646055
0003e0 50 5d a0 3c 58 fd 0a bc f2 e9 68 bd 10 c2 c1 bc
       0.019575745 -0.008483253 -0.056863733 -0.023652107
0003f0 e0 e9 42 3d 4a 8e 0b 3d d8 b2 d2 bc c0 24 9f bb
       0.04758632 0.034071244 -0.025720045 -0.004856676

fc1.bias f4 [256]
000000 4a 77 64 3c 2a 80 6e bb 10 e7 bb bc 3f f3 90 3c
       0.013944456 -0.003639231 -0.022937328 0.017694114
000010 aa 15 f6 bc 62 29 58 bd c8 ae 06 3d 79 4e 3c 3d
       -0.030039627 -0.05277384 0.03288153 0.045973275
000020 48 9b ad bc 4f 1d ec 3c 24 5f 47 bd 1b 68 f3 3c
       -0.021192208 0.02882257 -0.048674718 0.029712727
000030 33 0d 69 bc 59 14 75 3b d7 f7 11 bc 36 ae a7 bc
       -0.014224338 0.0037396161 -0.008909187 -0.020468812
000040 30 88 c1 3c 68 96 93 3c 08 01 64 3d 5a d6 01 bd
       0.02362451 0.018016055 0.055665046 -0.031698562
000050 2e d4 2c 3d 71 cb 0d bd c0 5a 2c bd eb ed d9 3c
       0.042194538 -0.034617845 -0.042078733 0.026602706
000060 a2 6e cc bc 6c 68 7d bc d8 c9 57 3d 94 88 b9 bc
       -0.024955098 -0.015466791 0.052682728 -0.022648133
000070 94 18 b8 bc 45 27 6f 3d fe 00 f7 bc 81 a6 37 3d
       -0.022472657 0.05838706 -0.03015184 0.044836525
000080 46 a8 4f bb 81 f2 70 bd b2 55 0d 3d 3a d7 18 3d
       -0.0031685992 -0.05882502 0.034505554 0.03731463
000090 d8 c4 36 3d 57 63 58 bd cb 08 f0 bc f8 d9 cb bc
       0.04462132 -0.052829113 -0.029301068 -0.024884209
0000a0 4c 3e f5 3c 14 7b 4d 3d 2c 88 d4 3c c4 1d 4d bd
       0.029936932 0.050166205 0.025943838 -0.050077215
0000b0 10 85 3e 3d dd 87 2a 3c 48 02 31 bc 5e 18 86 3d
       0.046513617 0.010408369 -0.010803767 0.065476164
0000c0 e7 23 3d bd c1 89 2e bd 6e 3d 2a bd 06 31 6f 3c
       -0.046176817 -0.04261184 -0.04156249 0.01459909
0000d0 be 96 08 3d 94 8a cd 3c 61 ef d7 bc a3 84 07 3d
       0.033346884 0.025090493 -0.026359262 0.033085477
0000e0 3d d1 42 bd c8 66 c8 3a 0e 4c e0 3c 64 af 41 bd
       -0.047562826 0.001528942 0.027380016 -0.047286406
0000f0 90 0f 83 bc 54 00 82 3d 77 c6 ed 3c 1c e8 a4 bc
       -0.015998632 0.06347719 0.0290253 -0.02013021
000100 f2 05 d9 3c b2 a0 e4 39 f4 0b 5f 3d 4a 86 29 3d
       0.026492093 0.00043607276 0.05445476 0.041387834
000110 22 2e 38 bd a2 e7 19 3b e9 22 88 3c 06 e9 22 bd
       -0.04496587 0.0023484011 0.016618209 -0.03977301
000120 ee 9d 85 bd 5b 97 99 3b 66 60 4e bc 02 4b 63 3c
       -0.06524263 0.0046872324 -0.012596225 0.013872864
000130 a3 da b0 bc 94 1d 2f bd e8 ee 6b 3d c0 bd 35 3d
       -0.02158863 -0.042752817 0.057600886 0.044370413
000140 03 fd f0 bb 42 2e 6f bd 0a 29 14 3b ae f9 c8 3b
       -0.00735438 -0.058393724 0.002260747 0.0061332798
000150 9e 12 0f 3d 4e 91 0e bc 02 9f a7 bc 04 a6 70 bc
       0.034929864 -0.0087016355 -0.020461563 -0.014688019
000160 17 bf d5 3c c8 63 9f 3c 2f 8c 5d 3d 4e 56 68 bc
       0.026092095 0.01945676 0.054088768 -0.014180733
000170 e0 6e 0a bb e2 3d 9f bc dd 9d f4 3c 82 bd 4a bd
       -0.0021123216 -0.019438688 0.029860431 -0.049497135
000180 69 2f 30 3d 47 76 70 3d 82 25 6a bd 72 0c 2c 3d
       0.043013964 0.058706548 -0.057164676 0.042004056
000190 3a dd 19 3d 7e 03 00 bd e9 20 e3 bc f4 fb bd 3b
       0.037564494 -0.03125333 -0.027725654 0.0057978574
0001a0 1a 59 2f bd de e1 f9 bb 1a d0 54 3d 39 28 84 3d
       -0.042809583 -0.0076258024 0.051956274 0.06452984
0001b0 6a 1c 92 3a 8a 76 07 bd 4d a9 4f 3d 31 37 ca bc
       0.0011147384 -0.033072032 0.050698567 -0.02468452
0001c0 a4 7b 3d bd 4f 4c bd bc 7f f5 c5 3c 29 ed 04 bd
       -0.04626049 -0.023107676 0.024164913 -0.032452736
0001d0 62 73 7a bd 5a f7 67 3c 1f 5e d6 3a 7d 09 00 3b
       -0.061145194 0.014158094 0.0016354955 0.0019536905
0001e0 0b c1 36 bd 89 48 1b 3c f4 88 3d 3c 46 41 15 bd
       -0.044617694 0.009477743 0.011568297 -0.036439203
0001f0 34 7a 1b bd a5 97 47 3d c5 af 40 3d 90 55 48 3d
       -0.03795834 0.048728604 0.047042627 0.048909724
000200 d8 8e 1f bc 41 31 76 bc 7e fa 44 bd f6 55 88 3c
       -0.009738646 -0.0150263915 -0.04809045 0.016642552
000210 16 87 15 3d c0 fb 1b bd c4 e7 44 3c 3d 51 5f bd
       0.03650578 -0.038081884 0.012018148 -0.054520834
000220 5d 00 bb 3c e6 3e 57 bc eb 44 03 3d 60 f1 51 3c
       0.022827322 -0.013137555 0.032048147 0.012813896
000230 99 99 9e bc b0 d5 5c 3d 8e d5 cc bc 48 79 6f 3d
       -0.01936035 0.053914726 -0.025004175 0.058465272
000240 b0 a9 4b bd 6b bb 3c bd 6f f5 34 bd 35 08 22 bd
       -0.049722373 -0.046077173 -0.044179376 -0.039558608
000250 7d fb 1e bd 0f 08 1d bd 94 4e 32 3d cd ae 53 bd
       -0.038814057 -0.038337763 0.04353197 -0.051680375
000260 08 92 56 bd ee 66 9f bc 0b 87 47 bc 6a 78 70 3d
       -0.05238536 -0.01945826 -0.012178193 0.058708586
000270 41 6a 6b 3b 98 03 67 3d 57 98 6a bd 28 3a d2 bc
       0.0035921487 0.05639991 -0.05727419 -0.025662497
000280 da ce 1f 3d 92 ba 26 3c 00 9b 81 39 6e 8e bc bc
       0.03901563 0.010176318 0.0002472028 -0.023017135
000290 66 c2 6c bd 18 13 17 bd 19 28 26 bd f0 4b 2f bd
       -0.05780258 -0.036883444 -0.040565584 -0.04279703
0002a0 b0 ba 41 3d 5c 42 f9 3c 7b a8 2e 3d 23 fe 22 bb
       0.04729718 0.03042715 0.042641144 -0.0024870716
0002b0 dc dc 30 3d 7d 85 37 bd 4d 02 44 bd 7e ff b9 3c
       0.043179378 -0.04480504 -0.047853757 0.022704836
0002c0 4a ce 05 bc fe 61 21 bd 7a c6 30 bd d8 d0 46 3d
       -0.008166859 -0.039400093 -0.043158032 0.048539013
0002d0 3b 4a b8 3c 1b 5c 70 bd a5 ba 34 3d 83 f7 d5 3c
       0.022496333 -0.05868159 0.04412331 0.026119
0002e0 40 03 ef bc 53 7c 6b bd 54 a3 7d 3c 6c 73 73 bd
       -0.029176354 -0.05749161 0.015480835 -0.059436247
0002f0 17 f5 4c 3d 33 de 47 3d 42 0c 8b 3c 32 a9 0f 3d
       0.050038423 0.04879589 0.016973618 0.035073467
000300 93 6a 3a bd e0 dd 13 3d 70 5d 3c bb 96 8e 6f bd
       -0.045511793 0.03610027 -0.0028742217 -0.05848559
000310 03 2c 0a bb 2a be c8 3b c8 60 be 3b ab 13 1d 3d
       -0.0021083362 0.006126185 0.005809877 0.038348835
000320 7e c5 03 3d 91 5f c7 3c 21 b3 b3 3c 28 4b 1f 3d
       0.032170765 0.024337562 0.021936001 0.038890034
000330 be d1 62 bd dc a6 6d 3d 55 0c 2a 3d ca cd 26 bc
       -0.055375807 0.058020458 0.041515667 -0.0101809
000340 fe 69 7c 3d 59 68 20 3d 94 66 e6 bc 06 b6 0f bd
       0.06162452 0.039162014 -0.028125085 -0.0350857
000350 a1 07 85 bc c0 62 73 bc 3f 68 c0 3c 28 47 11 bd
       -0.01623899 -0.014855087 0.023487208 -0.03546825
000360 6b 28 83 bd 7b 37 47 3d df df 7d bd e9 c7 59 bd
       -0.064041935 0.048636895 -0.06198108 -0.053169165
000370 10 18 80 3c 38 3c 79 3d b2 fd b8 3b a5 36 66 3b
       0.015636474 0.060848445 0.005645477 0.0035127786
000380 14 ea 04 bd b2 86 1e 3d 80 b3 a4 3c 76 f4 05 3d
       -0.032449797 0.038702674 0.020105124 0.03270384
000390 27 31 04 3d 1c ad 27 bd 88 bb 15 bd d1 bb 76 bb
       0.032273438 -0.040936574 -0.036555797 -0.0037648568
0003a0 5a cc 1c bd 62 7c 44 3c 00 96 55 3d 48 2a 0b 3d
       -0.038280822 0.011992546 0.052145004 0.03397587
0003b0 04 14 57 3d da 43 f5 bc 70 5c 1c bd 56 f8 6c 3d
       0.052509323 -0.02993958 -0.038174093 0.05785402
0003c0 42 b1 4b 3d 58 18 7d 3d ae 48 e5 3c 9d 95 50 bd
       0.049729593 0.061790794 0.027988758 -0.050923932
0003d0 80 45 1c ba 51 c7 2e bd 1a 22 c2 bc a5 63 81 3d
       -0.0005961284 -0.04267055 -0.023697902 0.06317834
0003e0 2c 23 5a 3d 11 3b 18 3d 69 9e aa 3c 33 4e 82 bb
       0.0532562 0.037165705 0.020827489 -0.003976607
0003f0 0d 54 5f bd 70 4b 47 bd 71 00 88 bd a8 44 d9 3a
       -0.054523516 -0.048655927 -0.06640709 0.0016576247

fc2.weight f4 [128, 256]
000000 2e 7d 56 bd 6a 20 bc 3c 0d 07 4a bd 9e c7 18 3d
       -0.052365474 0.022964675 -0.04932313 0.037299745
000010 9d 73 07 bc d6 12 50 3d 8c 67 a5 3c 71 87 35 3c
       -0.00826731 0.050799213 0.020190977 0.011079655
000020 b0 ce 48 3d 1e dc 2f 3d 80 8b be bb 52 c8 6a bb
       0.049025238 0.04293453 -0.0058149695 -0.0035824967
000030 67 13 ad bc 30 a6 af bc c9 9e b4 bc 93 86 89 bc
       -0.021127416 -0.021441549 -0.02204837 -0.016787803
000040 70 cf e2 bc b1 4f 7d 3d 92 e5 5e 3d 12 88 8a 3c
       -0.027686805 0.061843578 0.054418154 0.016910587
000050 4e 79 80 bd 5d bb d5 3c 25 7e f0 3b ae 98 f6 3c
       -0.06273137 0.026090318 0.0073392563 0.0301021
000060 98 d6 9e 3c 9e 18 54 3b 43 f7 41 bd c5 54 06 bd
       0.019389436 0.0032363306 -0.047354948 -0.032795686
000070 ce 57 28 bd 0a 76 34 3c 38 e3 58 bd 46 b7 20 3d
       -0.041099362 0.011014471 -0.052951068 0.039237283
000080 c0 53 7a bd fe 6c 7b bd 1e 28 03 bd f4 59 8e bc
       -0.061115026 -0.06138324 -0.03202068 -0.017376877
000090 77 4b 0e bd 48 93 29 bd 98 79 c6 3c 60 8e b7 3b
       -0.034739938 -0.041400224 0.024227902 0.005601689
0000a0 7c 68 7e 3d 4c 8e 63 3d 72 26 56 bd e2 8c a6 bb
       0.062111363 0.055555627 -0.052282758 -0.0050827125
0000b0 52 ad 12 bd 94 15 c8 3b 38 22 12 bc 2a b8 67 3b
       -0.035809822 0.006106088 -0.008919291 0.0035357573
0000c0 38 53 0a 3d fb 8b 70 bd 0b 24 82 bd fb 4e bd ba
       0.03377077 -0.058727246 -0.06354531 -0.0014443094
0000d0 60 49 25 ba 5f fe 5c 3d 44 fe 65 bd b0 88 25 bd
       -0.0006305184 0.053953525 -0.05615069 -0.04041356
0000e0 77 dc ef 3c ce 76 24 bd 33 99 30 3d 1f ab ad bc
       0.02927993 -0.040152363 0.043114852 -0.021199761
0000f0 9a 30 6f 3d 7f a5 ca 3c b3 39 45 bd 34 69 f9 bc
       0.05839596 0.024737118 -0.04815073 -0.030445673
000100 07 0d 11 bd 5a bb 66 3c b8 1a 7a 3d 2d 5f 22 3c
       -0.035412814 0.014082754 0.061060637 0.009910387
000110 d5 b7 3a 3c ea b8 58 bd f8 e6 b8 bc 65 6e ee 3c
       0.011396368 -0.052910723 -0.022571072 0.029105375
000120 90 fc 41 bd c8 c4 2f bd aa 99 a8 bc 11 ff f3 bc
       -0.047360003 -0.042912275 -0.020581085 -0.029784711
000130 d3 0b 59 bc af 15 81 b8 50 a6 ae bc 2e 86 61 3d
       -0.013247448 -6.155238e-05 -0.021319538 0.055059604
000140 24 20 f2 3c 90 3b 8f bc c9 28 fb 3b f1 a0 bb bc
       0.029556341 -0.017484456 0.007664774 -0.022903891
000150 00 de df 39 b0 e7 29 3c 08 25 49 3d c7 d4 6a 3d
       0.00042699277 0.01037018 0.04910758 0.057331827
000160 5e 52 e7 3b 52 57 7a bd fc 9d a5 3c a2 89 da 3b
       0.0070593795 -0.06111843 0.020216934 0.006669239
000170 0e a7 2e bd 9b c8 70 3d f7 06 0c ba 6a 23 64 3b
       -0.042639785 0.058785062 -0.0005341614 0.0034811147
000180 d6 e0 56 3c 9e 82 b0 bc 8d 1a 0e bd b9 db 48 bc
       0.0131151285 -0.021546658 -0.03469329 -0.012259417
000190 6d 1d 04 bd ba 03 a9 bc 58 4e 77 3d 1f a8 91 bc
       -0.032254625 -0.02063166 0.06037745 -0.017780362
0001a0 11 94 9a 3c 7c 27 13 3d 1d 81 62 bc 06 ad f2 bb
       0.018869432 0.035926327 -0.013824728 -0.00740588
0001b0 b2 32 df 3c 30 ce 5f 3d 05 ad 1a bd 1b 70 00 bd
       0.027245853 0.054639995 -0.03776266 -0.031356912
0001c0 f1 c3 66 bd c2 97 91 3c a0 a3 64 bc 84 b7 c0 3c
       -0.056339208 0.01777256 -0.013955027 0.023525007
0001d0 84 7b 90 3c 6b e1 2e bd 7a 50 88 bd b0 3d 4d 3d
       0.017637022 -0.042695444 -0.06655975 0.050107658
0001e0 bd 65 26 bd 3e fc 6b 3d 22 b9 5a 3d d0 43 34 bc
       -0.04062437 0.057613604 0.053399213 -0.011002496
0001f0 a7 44 51 bd 55 97 75 bb 84 f0 7a bd 85 cd 0d 3d
       -0.051090863 -0.0037474234 -0.06126453 0.034619827
000200 14 7f 54 bd d0 f3 0d bc 66 b5 3d bd 4d e3 2b bd
       -0.051879004 -0.008664086 -0.046315573 -0.041964818
000210 b2 0d 11 bd 68 e6 b0 bc 0c 37 01 3d c4 53 1e 3d
       -0.03541345 -0.021594241 0.031546637 0.038654104
000220 7f 93 7e bc c5 88 66 3d 81 55 15 bc b6 b8 44 3d
       -0.0155380955 0.056282777 -0.009114624 0.048027717
000230 d3 da 6f bd 56 67 e7 bc f0 d2 fc bc 94 1e 5f bb
       -0.058558296 -0.028247517 -0.030862302 -0.0034045326
000240 59 c6 21 bd 25 fe 56 bd b6 bf 17 bd 10 df 0b 3c
       -0.0394958 -0.052488465 -0.037048064 0.008537069
000250 be b7 68 3d 3b c7 7e 3d fc dd 80 bc 10 7d 2c 3d
       0.056815855 0.06220172 -0.01573085 0.042111456
000260 b7 ec 92 3c 49 9a 6c 3d a0 18 7e 3c e8 66 8d 3c
       0.01793514 0.057764325 0.015508801 0.017260984
000270 5b a2 4f 3d 14 52 ca 3c 42 86 5d bd 97 da 42 bd
       0.050691944 0.024697341 -0.054083116 -0.047571745
000280 55 89 18 3c 27 9b 0c bd a2 59 3e bd fe cc 27 bd
       0.009310086 -0.034327652 -0.0464722 -0.04096698
000290 74 7a 2f bd 79 4a 82 bd 6c 87 70 bd d7 00 58 bd
       -0.04284139 -0.06361861 -0.0587229 -0.052735176
0002a0 e7 9f 57 bc a7 30 f0 3c 8e 3b ee 3c f0 96 58 bd
       -0.013160682 0.029320074 0.029081132 -0.05287832
0002b0 4a 59 41 bd 69 83 68 bd bb 80 73 3c 7f 33 33 bc
       -0.047204293 -0.056765947 0.014862235 -0.010937571
0002c0 a7 34 ec 3c 82 04 6b 3d 95 3f 65 bd 23 6e 42 3d
       0.0288337 0.057377346 -0.05596884 0.047468316
0002d0 3f 59 22 3d fc 2a ce bc df 1c 06 bd ba b8 41 bd
       0.039635893 -0.02516698 -0.032742377 -0.04729531
0002e0 48 db 75 3c ad 1b 59 bd 77 07 34 3b a6 a8 2c 3d
       0.015005894 -0.05300491 0.002747027 0.042153023
0002f0 8f e0 50 bd 78 87 44 bc 8d ca 27 bd 75 b1 14 bd
       -0.050995406 -0.011995189 -0.04096465 -0.03630205
000300 91 aa 52 3d 58 65 d6 bc 4e ac ed 3b 26 19 93 3c
       0.051432196 -0.026171371 0.0072532063 0.017956328
000310 51 c8 c8 bc a4 2a 8b bc ef 3d d5 3c 26 e0 2c bd
       -0.02450958 -0.016988106 0.026030509 -0.042205952
000320 62 42 b0 bc b4 79 c4 3c cd 33 4c 3c 50 99 5b 3d
       -0.021516029 0.023983814 0.012463522 0.053613007
000330 cd a0 91 3c f1 07 d6 3c 09 be f2 bc ef f9 c6 3c
       0.017776871 0.026126834 -0.029631631 0.0242891
000340 cc 66 64 bd 4b 94 76 3c ec b6 be 3c df d0 3b 3d
       -0.055762097 0.015050004 0.023280583 0.045853492
000350 e4 ca 2b 3d 1c 6f 60 bd 12 af dc 3a 10 c9 09 3c
       0.04194154 -0.054793462 0.0016836843 0.008409753
000360 da b3 84 bc e0 77 f0 bc c9 91 0c 3d 6d b6 2b bd
       -0.016199041 -0.029354036 0.03431872 -0.04192202
000370 28 76 31 bd 0d f7 0b 3d f6 75 f0 bc ce 0f 74 bd
       -0.043325573 0.034171153 -0.029353123 -0.059585385
000380 fc e8 eb 3c a2 56 5f 3d f8 e6 ac bc fe 63 63 3d
       0.028797619 0.05452598 -0.021106228 0.05551528
000390 84 67 b1 3c a7 ed 5d 3d ff 83 f4 3c 65 03 fe 3c
       0.021655805 0.05418172 0.029848097 0.031007478
0003a0 46 51 13 bd 47 34 da 3b e1 f8 b2 bc ab 41 54 bd
       -0.03596618 0.006659064 -0.02184719 -0.05182044
0003b0 23 85 00 bc 29 5e 59 3b b8 c9 1d bd 41 58 a2 3b
       -0.007844242 0.0033167696 -0.038522452 0.0049543683
0003c0 10 5c 0a 3b 41 a2 39 3d d1 2d 74 3b 90 1d 01 3c
       0.0021112002 0.045320753 0.0037258754 0.007880583
0003d0 44 ac a7 bc 3e 30 15 3b 14 1d 23 bd 8f 48 61 3d
       -0.020467885 0.002276435 -0.039822653 0.055000838
0003e0 94 6b 69 bd 6b 66 49 3d ce 52 5b bd 8c f3 0a bd
       -0.05698736 0.04916994 -0.053545766 -0.03392367
0003f0 bd 5e 66 bd f0 50 a8 3c 7d 16 e1 3a 93 aa ee bc
       -0.056242693 0.020546407 0.001717284 -0.02913407

fc2.bias f4 [128]
000000 d0 cc 22 bd b1 68 dc bb 91 bb c5 39 5d e6 08 bd
       -0.039746106 -0.0067263474 0.00037714516 -0.033422817
000010 65 13 83 bd 79 29 dc 3a af 87 cf 3c c6 60 34 3d
       -0.064001836 0.0016797028 0.025333254 0.044037603
000020 e3 f0 26 3c ac a8 fc 3b 24 f3 23 3b 24 a3 49 bd
       0.010189268 0.007710537 0.002501675 -0.04922785
000030 28 71 87 bc f6 72 73 3d eb 9e da bb 8a 6c 05 bd
       -0.01653345 0.059435807 -0.0066717765 -0.032574214
000040 9c 26 07 3d 54 55 4b bd d0 40 cc bb 96 51 96 bc
       0.032995805 -0.049641922 -0.006233312 -0.01834945
000050 1f 69 4e bd f2 76 4b 3d 6b 67 66 3d 8b 09 35 3d
       -0.05039322 0.049673982 0.05625097 0.044198554
000060 85 94 cc bc 76 a9 18 3c 6b b8 4d 3c 6b 13 2d 3d
       -0.024973163 0.009317746 0.012556176 0.042254847
000070 3a 42 80 3c 8e 40 42 bd 7d c1 4b 3d 16 27 37 3d
       0.01565658 -0.047424845 0.04974507 0.04471501
000080 6e b5 0f bd a3 a5 47 3d cc 48 3f bd 16 ac 99 bb
       -0.035085134 0.048741948 -0.046700284 -0.0046897037
000090 83 4c f8 3b ab ce 26 3d 48 ca e0 3c d0 a6 f5 bc
       0.0075774803 0.040724438 0.027440205 -0.029986769
0000a0 ec 02 f7 bc e0 48 49 bc 64 df 72 bd c2 b7 80 bc
       -0.03015276 -0.012285441 -0.059295073 -0.015712623
0000b0 50 65 dc 3c ca dc 55 bd cd 21 32 bc 4c 9b 31 3c
       0.026903778 -0.052212514 -0.010872317 0.010840248
0000c0 11 95 00 bd c2 8c 7c bd e3 71 9b 3c 5c 27 5c 3c
       -0.03139216 -0.061657675 0.018975204 0.013437118
0000d0 20 f7 33 3d dc 27 79 3d de 99 fc 3b 5c 12 4d bc
       0.04393685 0.06082903 0.007708772 -0.012516584
0000e0 27 21 5d 3d 51 34 88 3d 5c 31 81 bd a8 ad d0 3c
       0.053986695 0.066506036 -0.06308243 0.02547343
0000f0 a7 26 56 3d c9 b3 25 3d 9e 53 68 3c a6 e0 62 3d
       0.052282955 0.04045466 0.014180092 0.055390023
000100 b2 0f 14 bd e7 b2 1b 3d 34 a5 2a bd 96 10 78 bd
       -0.03614778 0.03801241 -0.041661456 -0.060562693
000110 60 69 3e bd b0 65 1c bd 85 9e 2c bd b0 f6 03 3d
       -0.046487212 -0.038182914 -0.042143364 0.03221768
000120 8e 6d b7 bc 1c 89 31 3c 8a b8 67 bd ff 65 54 3d
       -0.022391107 0.010835912 -0.056572475 0.051855084
000130 48 5e dd 3c d1 bd 5d 3d 10 2b 0d 3d 25 3d 05 3d
       0.027022496 0.0541361 0.034464896 0.032529015
000140 36 48 23 bd 46 d5 a7 3c da 1a fb 3c bb 93 64 3d
       -0.039863788 0.020487439 0.030652452 0.05580495
000150 72 b4 dc 3c 1c 8c 54 ba c8 1e 66 3d ee 3e 24 bb
       0.026941512 -0.0008108036 0.0561817 -0.0025061923
000160 60 d7 12 bd da 70 55 bd 00 4f 99 3c e9 3e 27 bd
       -0.03584993 -0.052109577 0.018714428 -0.04083148
000170 49 a5 b2 bc 44 ff 68 bc 08 cf 92 3b 38 23 15 bc
       -0.02180733 -0.014221016 0.0044802465 -0.009102635
000180 4d 4d 65 3d 14 1e 53 bd 82 08 0b bc 1c 8b 83 bc
       0.055981923 -0.051542357 -0.008485915 -0.016057543
000190 64 94 00 3d 0d f2 5b 3d 47 7d 13 3c d5 0d 38 bd
       0.031391516 0.053697634 0.009002036 -0.044935066
0001a0 ab 26 d8 bb 3d 12 25 3d a5 89 5a 3d 7b 89 6b 3d
       -0.0065964065 0.040300597 0.053353924 0.05750416
0001b0 25 22 70 3c 8a d9 66 3d 2a 8e b5 bc 43 38 1b 3d
       0.014656578 0.056359805 -0.022162516 0.037895452
0001c0 d6 04 f0 bc e3 b3 4d bd d0 21 f1 bc 3b 28 aa bc
       -0.029299181 -0.05022038 -0.029435068 -0.020771137
0001d0 c4 5e 69 3d d8 40 88 3c 87 bf 4b bd d7 a3 06 3d
       0.05697514 0.016632482 -0.0497432 0.032871094
0001e0 ef c9 f8 bc ad 30 88 3c f0 d4 00 bc d1 99 4e bd
       -0.030369727 0.016624773 -0.007863268 -0.05043966
0001f0 00 2d 3d 3c d0 3f 07 bd b4 66 96 bc 8d b1 8f 3c
       0.011546373 -0.03301984 -0.01835952 0.017540717

actor.weight f4 [4, 128]
000000 06 6e 2f 3d fd df 87 bd eb 7f a1 bd 23 be 2a 3c
       0.042829536 -0.06634519 -0.078857265 0.010421309
000010 f5 49 f4 3b 9f 3d 1c bd 98 d5 e3 bb db 87 bb bc
       0.0074551054 -0.038144704 -0.0069529526 -0.02289193
000020 66 38 59 bd de 42 86 3c ce f8 9b bd 1b 5e 9e 3d
       -0.0530323 0.016389307 -0.07615815 0.07732793
000030 6c 18 87 bd 98 57 17 3d 74 48 50 3d 08 5f a6 3d
       -0.06596455 0.03694877 0.050850347 0.081235945
000040 68 9a a9 3d 78 c5 8a bd 34 c3 c6 bc cf 21 ae 3d
       0.08281404 -0.067759454 -0.024263002 0.08502542
000050 75 52 b6 bc 9c 39 2c 3c aa 2d 56 bd 09 ee a5 3b
       -0.022256115 0.010511782 -0.052289642 0.0050637764
000060 70 d2 8d bd 01 04 24 3d 9a 63 88 3d bb 56 9b bd
       -0.069249034 0.04004288 0.066596225 -0.07584902
000070 f9 01 03 bd bf 72 b5 bc 89 3f 9e 3d a6 71 af 3c
       -0.031984303 -0.022149442 0.07726962 0.021416496
000080 89 00 08 bd c7 96 b7 3d 0a cf e8 bc 59 a8 b4 bc
       -0.033203635 0.08964305 -0.028419036 -0.02205293
000090 4e 44 8d 3d 46 7e a0 3d 64 e2 10 3c f0 72 ae bd
       0.06897794 0.07836585 0.008843038 -0.08518016
0000a0 7e f2 59 3b ae 63 a9 bc 43 35 5a 3c 33 58 77 bc
       0.003325611 -0.020677414 0.013318363 -0.015096712
0000b0 1c df a5 3d d1 bb 93 bc 5b 3f ff 3c b1 02 d6 3b
       0.08099195 -0.018033894 0.03115814 0.0065310826
0000c0 db 3a e7 bc 08 09 f5 bc d9 d9 6c 3d 20 69 4c 3d
       -0.028226307 -0.029911533 0.057824943 0.049904943
0000d0 c6 3f 63 bb d2 5d 3e bd 37 e6 75 3d 8d 67 86 bd
       -0.0034675463 -0.046476193 0.060034003 -0.065627195
0000e0 de 8a 0f bc 04 6e 52 3d 0d 9a 21 3d 1e dd 02 bd
       -0.008761136 0.05137445 0.039453555 -0.031949155
0000f0 63 eb a0 3c 12 37 0d 3c 45 4d 08 3d 3f 63 00 3d
       0.019643491 0.008619087 0.033276815 0.03134465
000100 15 e5 0a bd f1 ae b1 3d 11 db 83 bd d9 ed 72 bd
       -0.033909876 0.086759456 -0.06438268 -0.05930886
000110 4e d7 c7 3c 3a 42 2a bd 24 2f 03 bd 9d bc ff bc
       0.024394657 -0.041567065 -0.03202738 -0.031217868
000120 e4 fb 8e bd 20 2e 5c bd a5 14 02 bd e0 7a 5e 3d
       -0.06981638 -0.053754926 -0.03175797 0.0543164
000130 bd cb 60 3d 46 71 f9 bb f3 25 96 3d 3b 1d 9f bd
       0.0548818 -0.00761238 0.07331457 -0.07769247
000140 1b 06 c0 bc 7b 20 41 bd 01 d7 bd bc 5a a7 97 bd
       -0.023440411 -0.047150116 -0.02317381 -0.07404967
000150 42 af 84 bb fe 15 a2 bd d8 f6 9a bd 9a 9b 6e bd
       -0.0040492127 -0.07914351 -0.07566613 -0.058253862
000160 d1 e4 75 bd 39 8d b2 3d b4 8a 31 3d 06 dd 65 3d
       -0.06003267 0.08718342 0.04334517 0.056118988
000170 da 80 83 3d 3f 8a 84 bd d4 7e ae 3c d2 7d b4 3d
       0.06421061 -0.06471681 0.02130071 0.08813061
000180 f9 40 9f bd c5 f3 a5 3d 7e d0 37 bd 3e cf 97 3d
       -0.077760644 0.08103136 -0.044876568 0.07412575
000190 1b 56 84 3d 17 f2 9b 3c 79 d4 da bc 63 f9 21 3d
       0.06461736 0.019036336 -0.026712643 0.039544474
0001a0 28 9b b8 3d af 89 1c 3c 26 4d be 3b 81 a7 ce bb
       0.09013969 0.009554311 0.0058075367 -0.006306589
0001b0 0e 8c a2 bd 96 1c d8 ba b0 89 13 bc 42 14 6a 3c
       -0.079368696 -0.0016488011 -0.009004995 0.014287056
0001c0 ae 68 76 bb 2e 2d 87 bd 7f 59 41 bd aa 1e 16 bd
       -0.0037599015 -0.06600414 -0.04720449 -0.036650337
0001d0 e3 b7 e7 3b 18 0a a4 3d 23 81 8e 3d 85 69 a0 3c
       0.0070714816 0.08009738 0.069582246 0.019581566
0001e0 64 29 16 bd 1e 3f 13 3d b4 e3 23 bd ba 3c 2a 3d
       -0.036660567 0.035948865 -0.040012076 0.04156182
0001f0 97 33 36 3d f9 fc 0e bb 53 b2 b2 3d f7 27 0c 3d
       0.044482794 -0.0021818264 0.08725419 0.0342178
000200 a4 c0 8b 3d 12 5a 5b 3d 34 7a d8 3b 79 cc 98 bd
       0.06823853 0.053552695 0.0066063646 -0.07460875
000210 1e eb 4c bc 63 7f 92 bd 4e a2 24 bc 1b 6d 2a 3c
       -0.012507228 -0.07153203 -0.010048462 0.010401989
000220 aa c4 df 3c 84 3e 0c ba f1 90 43 3d c0 f3 a4 3d
       0.027315456 -0.0005349892 0.04774565 0.08054304
000230 5b ea 3a 3c e4 1c b1 3d 16 a3 45 3d 1d b0 ad 3d
       0.011408414 0.086480886 0.048251234 0.084808566
000240 4f d8 29 bd f3 51 91 bb ca e5 95 3d d6 6f 90 3d
       -0.041466054 -0.004434818 0.073192194 0.07052581
000250 60 6c 25 3a 9d 24 e6 bb 99 38 1b 3d e2 bc a7 3d
       0.00063103996 -0.0070234076 0.037895773 0.081903234
000260 fc 64 50 3b 10 56 3b 3d 6e af 5c 3d ad 6e ae 3d
       0.0031798473 0.045736372 0.05387824 0.085172035
000270 93 17 49 bd e8 24 5a bd 57 3d 42 bd 9f 0d c3 bc
       -0.049094748 -0.053257853 -0.04742178 -0.023810206
000280 84 d7 1f bd 12 ef db 3a 6c ee ac bc ae d4 93 bd
       -0.03902389 0.0016779623 -0.021109782 -0.072183
000290 6b 88 cf ba de d8 b5 3d fa 7b 49 bd df bb b9 3c
       -0.0015833502 0.08879255 -0.0491905 0.022672592
0002a0 40 5e 14 bd d4 6e 8e 3d b1 88 c4 3b 10 13 cf bd
       -0.036222696 0.069547325 0.00599774 -0.10111058
0002b0 1a 80 4a bd 9f fa 9c 3d 58 7f ca bc 0e 3c 0c bb
       -0.049438573 0.0766499 -0.024718925 -0.00213981
0002c0 41 d5 ba 3c 03 a3 97 3b 85 34 b0 3d 33 f3 f7 bc
       0.022806766 0.004627587 0.08603767 -0.030267334
0002d0 fe 7e 95 3c a1 c9 99 3d a8 14 7b bd 1e a6 96 bd
       0.018249031 0.07509161 -0.061298996 -0.07355903
0002e0 d4 fc 7c bd c0 e0 67 bd 17 97 4d 3d 89 43 25 3d
       -0.061764553 -0.056610823 0.05019292 0.04034761
0002f0 e8 76 cd 3c 7b f2 ba 3c 0b 91 af 3a c3 e1 43 3d
       0.025081113 0.022820702 0.0013394667 0.047822725
000300 f6 16 6b bc cd ef a5 3d 0b 19 fb bb 4c 81 f5 bc
       -0.014348736 0.08102379 -0.0076628975 -0.02996888
000310 78 a4 8e 3c ae 12 2a bd 30 d5 b8 bd c2 f1 d2 3c
       0.01741241 -0.04152172 -0.09025037 0.025750045
000320 d6 5c 99 bd 74 38 3b 3d f4 62 13 bd 7c 5e 54 bb
       -0.0748841 0.045708135 -0.03598304 -0.003240495
000330 d2 9a 2f bd af f6 83 bc 4f 69 74 3d 52 99 03 bd
       -0.042872258 -0.016108839 0.059670743 -0.03212864
000340 14 4a 96 bc b0 51 33 3d b9 b9 52 bd 2a d2 1a 3d
       -0.01834587 0.043779075 -0.05144665 0.037798084
000350 a6 3b 52 3c d7 b1 b1 3d 80 20 af 3a bb 77 c9 3b
       0.012831604 0.086764984 0.0013361126 0.006148306
000360 0c c2 ad bd b3 a0 af bd 66 1b 59 3d ae 0b 51 3d
       -0.08484277 -0.08575573 0.053004645 0.05103653
000370 df 1c 96 bc b9 39 0f 3c f8 40 26 ba 0b 25 0b bd
       -0.018324314 0.0087417895 -0.00063420786 -0.033970874
000380 e6 6a 9a bd 9a 3c 44 bd ab 8c 6b 3d f9 87 88 bd
       -0.075399205 -0.047909357 0.0575072 -0.0666656
000390 a8 e3 0c bb 6c 2d a1 bd 4a c4 86 bd 99 14 64 bc
       -0.0021497998 -0.07869992 -0.06580408 -0.0139209265
0003a0 54 d4 fe bc bc 21 99 3d 85 43 a2 bd 0e f8 31 3d
       -0.031107105 0.074771374 -0.079230346 0.043449454
0003b0 d6 f9 93 bd 25 06 f7 bc d7 74 a9 bd 7c d0 7d bd
       -0.07225387 -0.030154297 -0.082742386 -0.061966404
0003c0 2c 52 a0 3d 33 5c e9 bc f9 a9 24 bb 54 00 ad bd
       0.07828173 -0.028486347 -0.0025125726 -0.08447328
0003d0 41 c8 93 3d 81 dc 09 3d 61 1b 93 3d 23 ae 9c 3d
       0.0721593 0.033657555 0.071829565 0.076504014
0003e0 79 84 a8 3d e5 04 a6 bd 33 3d 0c 3c c2 ba b4 bc
       0.08228392 -0.08106402 0.008559513 -0.02206171
0003f0 81 58 64 bd b8 a4 83 3d 08 2c 82 3d c8 e7 b3 3d
       -0.055748466 0.06427902 0.063560545 0.08784443

actor.bias f4 [4]
000000 00 06 b6 bc 79 ab 9e 3c 13 c7 d7 bb c3 42 b2 bc
       -0.022219658 0.019368874 -0.006585011 -0.02176035

critic.weight f4 [1, 128]
000000 9a f7 d6 bc ed c8 17 3c a5 93 1d bd 90 f1 60 bd
       -0.026241113 0.009264213 -0.038470883 -0.054917872
000010 9c 13 a4 bd 76 aa cf bc b5 1e 35 bd 6c d5 4f 3d
       -0.08011553 -0.025349837 -0.044218738 0.050740644
000020 52 b1 c3 39 91 4d 63 bd 0d 3c af bd 53 fc 55 3c
       0.00037325412 -0.055493895 -0.08556376 0.013060647
000030 93 66 8a 3d d3 20 98 bc 5f 7c 2d bd 4d 85 9c 3d
       0.06757846 -0.01857034 -0.042354938 0.076426126
000040 16 fb cb bc 5b ec 86 bd 65 25 7d 3d 5b b6 6d 3d
       -0.0249 -0.0658805 0.06180324 0.058035236
000050 db 92 8c 3d 09 b9 12 bd 6e 63 af 3c 39 ea ad 3c
       0.06863948 -0.035820995 0.021409716 0.02122985
000060 fc c0 24 3d 0f 75 32 bc ed b2 ba 3c eb f6 19 bd
       0.040223107 -0.010892167 0.022790397 -0.037588995
000070 08 51 0e bc 84 6b be bc fc 8e 8c 3d 37 aa 3a bd
       -0.008686312 -0.023244627 0.068632096 -0.045572486
000080 ed fa a7 3d 3d 4a fb bc 9d 4e ad 3d 1e de f9 bc
       0.08202157 -0.030675048 0.0846226 -0.030501422
000090 82 16 15 3d 82 c4 61 3c d4 0c 92 3d 87 52 29 bb
       0.03639842 0.013779761 0.07131353 -0.0025836544
0000a0 4e 44 bd 3d ad 4b f6 bc 78 fb 91 bd 65 33 3d 3d
       0.09241544 -0.030065382 -0.07128042 0.04619159
0000b0 ee 0f a2 bd 0f d8 04 3d 78 bd 73 bd 93 cc 22 3d
       -0.079131946 0.032432612 -0.059506863 0.03974588
0000c0 c3 d7 e4 3c e0 7b 4a 3a 2a ed 54 3d 3d a2 82 bd
       0.027934914 0.0007724147 0.05198399 -0.06378601
0000d0 dc 2e 9d bd 1e e9 41 bd d5 b2 bb 3d a6 1e 7d 3d
       -0.07674953 -0.04734146 0.09164969 0.061796807
0000e0 6a 74 db bc c9 04 0d 3d fa 41 24 bc 33 9e 68 bd
       -0.026788909 0.03442839 -0.010025496 -0.056791496
0000f0 1a bc a2 bd e4 24 ac 3d 69 f2 b0 bd 44 5c 2c bd
       -0.07946034 0.08405474 -0.08639986 -0.04208018
000100 80 e3 c2 3c 4e 3e 80 3d b6 44 33 bd 05 10 92 3d
       0.023790121 0.06261884 -0.0437667 0.07131962
000110 cc fa 89 3d 56 ba 8d 3d 89 14 a7 bd 6b c6 88 3c
       0.06737289 0.069203064 -0.08158214 0.016696176
000120 14 ee 63 3d fc 97 07 3d 47 f6 21 3d 65 27 f6 bb
       0.05564697 0.033103928 0.03954151 -0.0075120204
000130 1d c4 1f 3d 97 1e 7f 3d 16 b5 bf 3d d5 0d 2f bd
       0.039005388 0.062285032 0.09360711 -0.0427378
000140 1a 16 1b bd d4 32 b2 3d 6a ce 8a bc df b6 70 bc
       -0.037862875 0.08701101 -0.016944129 -0.014692037
000150 44 9f 75 3c 41 8d ad 3d 2d 91 7d 3c 45 36 38 3d
       0.014991585 0.08474208 0.015476507 0.04497363
000160 98 ec be 3d e3 ea 23 bd 09 95 92 bd 49 cd 5a 3c
       0.093224704 -0.040018927 -0.071573325 0.013354608
000170 92 ae a4 bc dc 08 4c bd aa 99 25 3d 5d c8 85 bd
       -0.020102773 -0.049813136 0.04042975 -0.06532357
000180 d5 d4 96 ba 44 db a6 bd 8b 7e 60 3d 2f 3a ac bc
       -0.0011507521 -0.0814729 0.05480818 -0.021023838
000190 1a 3e 1d 3d 6c a1 a8 3d 02 64 14 bb ac 6d bb bd
       0.038389303 0.08233914 -0.0022642617 -0.091517776
0001a0 0a fa 84 3d a6 30 61 3d 31 02 4e bd e8 7d a7 3d
       0.06493004 0.054978035 -0.05029506 0.081783116
0001b0 04 48 ab 3d 85 2f f0 bc 26 40 54 3d c2 09 5f bb
       0.08363345 -0.029319534 0.05181899 -0.0034032916
0001c0 ed ff 35 3c 78 d6 68 bd 22 e4 ca bc 84 a5 a5 3d
       0.011108381 -0.05684516 -0.024766985 0.0808821
0001d0 aa 4d 04 3b fd b9 68 ba 9e c2 a1 bd 2b 5e 06 3c
       0.0020187893 -0.0008877812 -0.078984484 0.008201162
0001e0 5f 96 e7 3c c7 79 d2 3c 0b ab 95 bc a7 8f 40 3d
       0.028269945 0.025692834 -0.018270036 0.047011998
0001f0 26 8a 9b bd 0a 3a 99 3c 2f a4 39 bd 2b 96 52 3d
       -0.07594709 0.018704433 -0.045322593 0.051412743

target.0.weight f4 [128, 256]
000000 ac 84 fe bc 20 c0 35 3c 64 32 68 bd 80 f0 80 3a
       -0.031069122 0.011093169 -0.05668868 0.00098373
000010 00 ab 82 39 10 dc f3 bb 80 1a fc ba 8a 6e 51 3d
       0.00024922937 -0.007442005 -0.0019233972 0.05113081
000020 d8 d7 55 3d 70 29 9b 3c f8 81 27 bc c8 93 2b 3d
       0.052207798 0.018940657 -0.010223858 0.041888982
000030 60 ee 04 bb f4 3f 27 3d 7e 4c 39 3d 30 14 d9 bb
       -0.0020283684 0.040832475 0.045238964 -0.006624721
000040 68 55 52 3c 60 9c 2c 3d 4e 7c 70 bd 40 b7 b4 bb
       0.012837745 0.04214132 -0.058712296 -0.005515009
000050 8e 6c 3d bd b6 41 6e 3d 18 04 2e bc a0 16 dd 3c
       -0.046246104 0.058168136 -0.010621093 0.026988328
000060 24 79 41 bd ea 57 5d 3d 88 b2 7b bc 48 92 0d 3d
       -0.04723467 0.05403892 -0.015362389 0.034563333
000070 78 e3 13 bd f0 22 c6 3b 30 16 de 3b 5e b4 2a bd
       -0.036105603 0.0060466453 0.0067775473 -0.041675918
000080 3a 49 1d bd c0 eb e1 bb 2a 31 1c 3d 1a b8 7a bd
       -0.038399912 -0.0068945587 0.038132824 -0.06121073
000090 ba 62 1b 3d 7c 63 02 bd 2c 23 7c bd 6a d1 2e 3d
       0.03793595 -0.031833157 -0.06155698 0.04268018
0000a0 08 76 3c bc c0 68 f6 3b b2 05 2c bd f4 63 28 3d
       -0.01150275 0.0075198114 -0.04199762 0.041110948
0000b0 96 d0 33 3d b0 4e 04 3c 60 a0 91 bc 98 c5 6c bd
       0.043900095 0.008075401 -0.017776668 -0.057805628
0000c0 60 7a e1 bc 2a de 54 3d 0a b0 7b bd a6 f1 25 3d
       -0.027524173 0.051969685 -0.06144718 0.040513657
0000d0 50 b9 e8 3c 6c 28 00 3d c4 9e c9 3c 10 a4 99 bc
       0.028408676 0.03128855 0.024611838 -0.018754989
0000e0 f8 9a eb 3c 40 1f db bb 0a fb 67 bd ec f5 fe 3c
       0.028760418 -0.006687075 -0.056635894 0.031123124
0000f0 d0 b5 5b 3c 12 6b 4c 3d 5c 1f a4 bc 00 f4 f4 38
       0.013410047 0.049906798 -0.020034485 0.00011680275
000100 b8 c4 01 3d 26 2f 39 bd 98 8c 76 3d c6 2f 51 3d
       0.031681746 -0.04521098 0.060192674 0.05107095
000110 34 70 03 bd 80 83 39 bd d6 e8 4c bd 60 6a 85 bc
       -0.032089427 -0.045291424 -0.050026737 -0.016286075
000120 26 6a 11 3d 20 c5 49 bd f0 3b 15 3d 28 c9 6d bd
       0.03550162 -0.04926026 0.036434114 -0.058053166
000130 f4 8a f4 bc 06 52 6f 3d 14 6b 3e 3d 8c df 21 bd
       -0.029851414 0.058427833 0.046488836 -0.03951983
000140 f8 c9 6c 3d d6 98 51 3d d4 7c 64 3d 56 a3 14 3d
       0.0578098 0.051171146 0.055783108 0.03628858
000150 fe f4 3c 3d 12 6f 03 bd 00 87 3a bc 64 58 1c bd
       0.04613208 -0.032088347 -0.011384726 -0.038170233
000160 f0 f2 26 bd 80 3c 66 bd 02 19 58 bd ec ff e6 bc
       -0.040759027 -0.05621004 -0.052758224 -0.028198205
000170 38 70 46 3d a2 0a 4c bd 6a 0f 1d bd d8 85 3b bd
       0.048446864 -0.049814828 -0.038344778 -0.04578194
000180 58 05 c9 bc b0 da d6 bb 30 ed a9 bb 28 e4 22 3d
       -0.02453868 -0.0065568313 -0.0051857457 0.039768368
000190 bc 30 8a bc 80 97 26 bd 54 6a 45 3d 68 11 06 bc
       -0.016868941 -0.040671825 0.048197106 -0.008182861
0001a0 60 21 46 bc 00 1f 84 ba 6e c0 36 bd bc a7 99 3c
       -0.012092918 -0.001008004 -0.04461711 0.01875674
0001b0 26 3d 71 bd 44 60 26 3d ca 81 2f bd 50 ee c3 3b
       -0.058896206 0.04061915 -0.042848386 0.005979337
0001c0 38 03 08 bc 50 e2 02 bd f6 67 5f bd 9c b6 c7 3c
       -0.008301549 -0.03195411 -0.054542504 0.024379067
0001d0 7c 68 16 bd 60 0d 28 bd dc e7 1b 3d ae 48 63 bd
       -0.036720738 -0.04102838 0.038062915 -0.055489235
0001e0 4c 8a 9f 3c a4 31 37 bd ba 14 22 3d 60 fc 9d 3c
       0.019475125 -0.044725075 0.039570548 0.01928538
0001f0 c0 a7 89 bb 64 bf 60 3d d4 96 f7 bc 80 4d f0 bc
       -0.0042009056 0.054870024 -0.030223288 -0.02933383
000200 8c 38 3a 3d 7c e0 cb 3c 14 7f ea 3c 84 24 7f bd
       0.045464084 0.024887316 0.028625049 -0.062290683
000210 b8 71 23 bc f4 29 5b 3d 9c f6 ef 3c d4 1b 33 3d
       -0.009975843 0.053506806 0.029292397 0.04372771
000220 1c 6e 43 3d 44 6b 01 3d 50 92 07 3d 54 89 59 3d
       0.04771243 0.031596437 0.03309852 0.053109482
000230 a8 20 a6 3c be 5b 23 bd 98 d6 c9 3c 08 c8 c2 bc
       0.020279244 -0.039882414 0.02463846 -0.023777023
000240 04 88 42 bd b4 cd 58 bd a8 b8 79 bd 24 32 cf 3c
       -0.047492996 -0.05293055 -0.060967118 0.025292464
000250 bc 38 d5 bc 86 49 0c 3d a0 cb c1 3b 20 f3 2c bb
       -0.02602803 0.034249805 0.0059141666 -0.002639003
000260 90 8b 07 3d 80 5a ed 3a 74 e5 c8 3c d0 a7 0a bd
       0.03309208 0.0018108636 0.024523474 -0.033851445
000270 80 d0 ae ba 88 45 58 3d 68 a3 f7 3c 70 cb 16 bc
       -0.0013337284 0.052800685 0.030229285 -0.009203777
000280 74 95 b8 3c 18 e9 1e bc a8 d7 5f 3d 20 e7 23 3d
       0.022532202 -0.009699129 0.054649025 0.04001534
000290 28 38 f4 bc 8e bc 47 3d 46 cc 1e bd dc 49 03 bd
       -0.029811934 0.048763804 -0.03876903 -0.03205286
0002a0 70 05 3d bd 20 a9 28 3d 5c 70 81 bc 20 1c 4a 3c
       -0.046147764 0.041176915 -0.015800647 0.012335807
0002b0 24 90 62 3d 60 f8 84 bc 2c 2d 99 3c 06 d4 64 3d
       0.055313244 -0.016231716 0.018698297 0.055866264
0002c0 6c f2 b7 bc 24 0f c4 3c 30 d2 cf 3c b0 9d 37 bd
       -0.022454463 0.023933 0.02536878 -0.044828117
0002d0 88 63 8f bc 1c da ca 3c 04 89 7d bd a4 5d 2b 3d
       -0.017503515 0.024762206 -0.061898246 0.04183735
0002e0 64 ba e0 3c 70 4e 92 bc c0 b6 c5 3a 00 aa 5b 3d
       0.027432628 -0.017859668 0.0015084371 0.05362892
0002f0 b2 59 5b 3d 96 5a 15 3d 08 c2 09 bc 4a 31 47 3d
       0.053552337 0.036463343 -0.008408077 0.04863099
000300 10 8f 56 3d d8 f8 6d 3c 8c 5b 46 3d 8c 11 0d bd
       0.05238253 0.014524661 0.04842715 -0.034440562
000310 32 06 22 3d 00 0d e4 b9 d0 44 d5 3b 90 ec be bb
       0.03955669 -0.00043497235 0.006508447 -0.0058265403
000320 18 d3 23 3c 52 1b 73 bd dc 37 08 3d f0 7a 59 bd
       0.009999059 -0.059352227 0.033256397 -0.053095758
000330 a0 75 63 3d 40 ee b7 bb c0 db ac 3b 1a 87 66 bd
       0.055532098 -0.0056131184 0.0052752197 -0.056281187
000340 80 a4 1a bd fc f2 37 bd ce b3 6a bd 76 43 0b bd
       -0.037754536 -0.044909462 -0.05730038 -0.033999883
000350 80 5f e2 3c f0 e1 fd bb 32 34 4e 3d 60 39 c9 3c
       0.027633429 -0.007747881 0.050342746 0.024563491
000360 36 2c 3b 3d 58 cd 74 bd f0 f0 2e bd d8 b4 fc bc
       0.04569646 -0.059766144 -0.042710245 -0.030847952
000370 38 cc 7e bd d0 a6 ea bc 1a fb 0c 3d 90 8c 2f 3d
       -0.062206477 -0.028643996 0.034419157 0.04285866
000380 90 40 34 3d 9e 2f 76 bd 10 c2 96 bb 50 50 c3 bc
       0.044006884 -0.060104005 -0.004600771 -0.023842007
000390 e0 0c dc 3b 54 e4 df 3c 00 20 d0 b8 74 e2 db bc
       0.006715402 0.027330555 -9.924173e-05 -0.02684138
0003a0 d2 44 05 3d b0 bc 22 bc 10 10 9f 3b a8 d2 98 3c
       0.032536335 -0.009932682 0.0048542097 0.018655136
0003b0 ec af 59 3d c0 6d 57 3d c6 4b 7f 3d 98 d2 6e bc
       0.053146288 0.0525949 0.062328123 -0.014576577
0003c0 d8 2d 6f 3d 80 d5 1f bb 92 9a 32 bd 78 0a f0 bc
       0.05839333 -0.002438873 -0.04360444 -0.029301867
0003d0 8a c3 14 bd bc bb b8 bc 10 51 43 3d d8 20 ce 3c
       -0.036319293 -0.022550456 0.04768473 0.025162145
0003e0 40 d7 ad ba 40 f4 24 bd 9a 35 3d bd 18 16 06 3c
       -0.0013263002 -0.040271997 -0.046193697 0.0081839785
0003f0 f4 f9 9a 3c a8 a4 ab bc 8c e3 58 3d 18 08 bb bc
       0.018918015 -0.020952538 0.05295138 -0.022831008

target.0.bias f4 [128]
000000 5e 38 36 bd 7c 91 21 3d c2 2e 5e bd 80 ce a8 3a
       -0.04448735 0.039445385 -0.05424381 0.0012878925
000010 98 ac 63 3d 34 4d 4e 3d 4c 88 e0 bc c6 cd 4f bd
       0.05558452 0.050366595 -0.027408741 -0.05073335
000020 ac 35 df bc 64 e9 b6 3c 9c f6 d5 3c a0 6b 05 3d
       -0.027247272 0.022328086 0.02611857 0.032573342
000030 e0 dc 00 3c 66 49 4b 3d ec a1 4d bd e0 2a 80 3c
       0.007865161 0.049630545 -0.05020325 0.015645444
000040 28 c0 3a bc 70 ea c4 3b 52 f5 2f bd 90 f0 0f bc
       -0.011398353 0.0060093924 -0.042958565 -0.008785382
000050 ce 81 19 bd 60 a7 e6 bb 08 ef e0 3c 5e d0 1e 3d
       -0.037477307 -0.0070389956 0.027457729 0.038772933
000060 18 a2 62 bd f0 bf 0e 3c 0c 39 cf 3c 5c d9 f9 bc
       -0.055330366 0.008712754 0.025295757 -0.030499153
000070 be 97 12 bd 88 82 31 bd 90 ae ec 3b c8 11 58 3c
       -0.035789244 -0.043337375 0.007222958 0.013187833
000080 40 b2 0c bb 74 0e 84 3c c0 b8 b3 3a 10 22 81 bc
       -0.002146855 0.016120173 0.0013711676 -0.015763313
000090 d2 16 2c bd 40 e8 d3 3b 9e 21 1f 3d d8 50 fe bc
       -0.04201395 0.0064668953 0.03885042 -0.031044409
0000a0 5c 03 4b 3d a4 75 e5 bc d2 25 13 bd 20 b7 0b bc
       0.04956375 -0.028010197 -0.03592474 -0.008527547
0000b0 44 d9 a7 3c c0 fd 36 3c d8 1d 17 3c 68 ce c3 3c
       0.020489343 0.011168897 0.009223424 0.023902133
0000c0 5a 49 1b 3d fc 3b af bc 08 24 52 bc a0 db 9e 3c
       0.03791175 -0.021390907 -0.012825973 0.019391835
0000d0 c0 f4 78 3c d0 0e 83 3b c0 16 32 3d 06 b2 54 bd
       0.015195072 0.0039995685 0.043478727 -0.05192759
0000e0 f0 41 a7 3b 40 4c 71 3d 16 ec 3a 3d ce ad 12 3d
       0.005104296 0.05891061 0.045635305 0.035810284
0000f0 88 0b 1f bd 90 b4 d5 bb ca 29 37 bd 16 19 7a bd
       -0.038829356 -0.006521769 -0.044717588 -0.06105908
000100 fc 4d 0e bd 08 65 4d 3c 00 5c 68 bb 9c 96 7d 3d
       -0.03474234 0.012536295 -0.0035455227 0.06191121
000110 82 a4 27 3d 64 35 f8 bc 9a 87 34 3d 5a d3 0b bd
       0.04092837 -0.030298896 0.044074632 -0.034137107
000120 72 36 45 3d f0 ba a5 3c 66 e4 31 bd 80 6b 0d bb
       0.048147626 0.02023074 -0.04343071 -0.0021578968
000130 96 8d 09 bd e0 24 ea 3c 9e 70 58 bd 58 95 4e bc
       -0.033582292 0.028582036 -0.052841775 -0.0126088485
000140 fe 37 2e bd f0 27 38 3c 4c 7e 8c 3c 12 96 60 bd
       -0.042533867 0.011239991 0.017150067 -0.05483062
000150 f4 18 e5 bc 40 57 63 3d 2e af 7d 3d a8 40 dd bc
       -0.027966 0.05550313 0.061934642 -0.02700837
000160 fc 97 3b bd 8a 97 59 3d c0 83 87 bc dc cc 72 3d
       -0.04579924 0.053123035 -0.016542315 0.0592774
000170 a8 4c 0a 3d 38 0e 78 bd 74 15 85 bc 0c 6a d1 3c
       0.03376451 -0.060560435 -0.016245581 0.025563262
000180 b8 10 2a bc 84 a4 3f 3d 48 b7 5e bc e0 76 d3 3c
       -0.010379963 0.046787754 -0.013593502 0.02581352
000190 44 13 c9 bc 9c 03 6e bd 50 a5 63 3c 58 6c 42 3d
       -0.02454532 -0.05810891 0.013894394 0.047466606
0001a0 b4 57 d3 bc 3c 64 1c bd d8 12 d2 3c 28 a3 39 bc
       -0.025798656 -0.03818153 0.025643751 -0.011330403
0001b0 00 a6 68 bc 94 56 1c bd 6c 30 27 3d 4c 34 89 bc
       -0.014199734 -0.038168505 0.040817663 -0.01674857
0001c0 28 51 58 bd 40 52 9b bc 54 e8 7c 3d ac f6 ed bc
       -0.05281177 -0.018960118 0.061745003 -0.029048286
0001d0 d6 45 2a bd 88 a2 fa 3c d8 bf 00 3d ac 76 f1 3c
       -0.041570507 0.030595079 0.031432956 0.029475532
0001e0 a8 a4 61 bd 14 d6 a4 bc 0c 6b a7 bc 48 73 1d 3c
       -0.05508867 -0.020121612 -0.020436786 0.009610005
0001f0 e8 64 bb 3c f8 f0 40 3d d0 e4 69 bd 00 09 a3 39
       0.022875264 0.047104806 -0.05710298 0.00031096488
