checkpoints/icm_planner/seed1/final.pt (torch, 870123 bytes, 19 tensors)

fc1.weight f4 [256, 256]
0.07512509 0.0036379895 0.026193613 -0.002388879 0.01011737 -0.05945733 0.05651668 -0.013382829
0.0038456668 -0.07095831 0.044645138 -0.045591883 0.04848948 -0.03440334 0.0041684206 -0.0476978
-0.031576946 -0.0019882536 0.037797146 0.018220626 -0.0077739684 0.010102384 0.0355519 -0.032490034
0.0009881039 0.025503159 0.05864927 0.03023687 -0.052692104 -0.021590745 0.05322111 0.0037298824
0.0067058424 -0.012090475 -0.012585857 0.03401959 0.053720333 0.019846838 -0.03415716 -0.01899797
-0.0016487315 -0.051592268 0.06324167 0.023730962 0.030214846 0.01924187 -0.043534465 0.016147671
0.019618914 0.04643591 -0.016145647 -0.057076152 0.010074062 0.00746911 -0.03778506 -0.014549749
-0.058763508 -0.012740828 0.0027975396 -0.029747581 -0.030322306 0.0054910393 0.054547343 0.02307561
-0.007367178 0.0021233289 0.053292055 -0.003929108 -0.047320668 0.023204342 -0.02229748 0.028480962
0.0006814052 0.04885442 -0.0052210498 0.0016146526 -0.014083364 0.038883906 0.0388409 0.0636905
-0.018155873 0.04460357 0.04900733 -0.029980483 0.057178404 -0.015467711 -0.0017630017 -0.040905986
0.059614 -0.027525514 0.0035857644 0.037962217 -0.04526402 -0.042724986 0.022236146 0.029614352
0.004958779 0.046054292 0.0552611 0.027952552 0.042407226 -0.005576234 0.04195035 -0.03673939
-0.00498095 0.007104651 -0.0024500855 0.005655505 -0.0023772453 -0.032046285 -0.055438858 -0.0033164911
0.008551591 0.00813704 0.04237577 -0.007482393 0.03741284 0.04435698 0.04334331 0.0424912
-0.016041389 -0.04582863 0.021585755 -0.018148527 -0.063053474 -0.03904933 -0.006981416 0.0056220074
-0.018677495 0.04916074 0.04025332 0.0037122236 -0.064001724 -0.006414324 0.030882157 0.026746534
-0.03325195 0.0041218563 -0.04889328 0.0478022 -0.034749575 0.027647156 -0.037963577 -0.033547036
-0.044481024 -0.025506265 0.0459991 0.0053568813 -0.038278352 -0.031438503 -0.027313367 0.046547882
-0.0028738542 -0.036631443 0.053689267 -0.065197 0.024666686 0.034326136 -0.027200958 0.046051614
-0.060969725 -0.007239191 0.019108314 0.04479503 -0.03136237 -0.02838011 0.024459515 0.0055284724
-0.051135853 -0.0644097 0.018910563 -0.030245129 0.028059445 -0.01755183 0.022345329 -0.019145587
0.031042412 -0.017412012 -0.011526983 -0.025595179 -0.055668622 -0.059361607 -0.056215327 -0.05451853
0.021162853 -0.0588509 -0.0064537534 -0.02409011 -0.033844326 -0.04902486 -0.022081872 0.027082669
0.012817964 0.055812165 -0.012057029 -0.022219114 -0.0010498241 -0.040711515 0.050215013 -0.034305677
-0.031180613 0.04483639 -0.023475692 0.05797905 -0.004477967 -0.027314976 -0.03888546 -0.02971942
-0.044471085 0.02790869 -0.037106715 0.043280788 0.035611004 -0.015927285 -0.022088729 -0.03196124
-0.014617749 0.053556845 0.056068223 0.0032819659 -0.0157725 -0.0074245497 -0.04756116 0.028086327
-0.0076023224 0.041018426 0.040785164 0.006506279 0.03911007 0.04066222 0.019923903 -0.005344741
0.010126606 0.038080566 0.025455706 0.0076826066 0.021940097 -0.050999828 -0.03965795 -0.0275443
0.015094845 -0.045722082 -0.05797708 -0.043795843 -0.013035402 -0.04831993 0.0019434169 -0.041608788
0.037385304 -0.020946428 0.021581031 -0.054829977 -0.022815473 0.031197738 -0.04967374 0.0051316023
00000000: 2fdb 993d 566b 6e3b fd93 d63c bd8e 1cbb
00000010: 53c3 253c 8789 73bd 097e 673d a743 5bbc
00000020: 9507 7c3b 9752 91bd d2dd 363d 8ebe 3abd
00000030: e89c 463d 84ea 0cbd 3f97 883b c55e 43bd
00000040: d456 01bd 5c4d 02bb 2ed1 1a3d 6c43 953c
00000050: c6bc febb 7884 253c de9e 113d 4514 05bd
00000060: 4483 813a 00ec d03c 383a 703d 50b3 f73c
00000070: add3 57bd 13df b0bc 61fe 593d 0b71 743b
00000080: afbc db3b 2117 46bc e934 4ebc 2058 0b3d
00000090: da09 5c3d d695 a23c 61e8 0bbd a1a1 9bbc
000000a0: 401a d8ba 6a52 53bd d984 813d 6f67 c23c
000000b0: 2085 f73c 20a1 9d3c 3251 32bd 1f48 843c
000000c0: d8b7 a03c 9533 3e3d e043 84bc afc8 69bd
000000d0: ae0d 253c 70bf f43b 82c4 1abd 1262 6ebc
000000e0: 01b2 70bd e8be 50bc ed56 373b 33b1 f3bc
000000f0: 7c66 f8bc 2dee b33b 096d 5f3d 1009 bd3c
00000100: 5e68 f1bb 8c27 0b3b c548 5a3d bfbf 80bb
00000110: 51d3 41bd 0817 be3c 34a9 b6bc e850 e93c
00000120: 54a0 323a 931b 483d 5715 abbb c0a2 d33a
00000130: e9bd 66bc bb44 1f3d a317 1f3d 2a70 823d
00000140: a0bb 94bc 3cb2 363d e9bb 483d a199 f5bc
00000150: e733 6a3d 486c 7dbc 8514 e7ba 098d 27bd
00000160: cf2d 743d 307d e1bc 25ff 6a3b 457e 1b3d
00000170: c466 39bd 6500 2fbd 9428 b63c cc99 f23c
00000180: 417d a23b 6da3 3c3d 7759 623d c0fc e43c
00000190: 33b3 2d3d d7b8 b6bb 21d4 2b3d 0b7c 16bd
000001a0: 3d37 a3bb 22ce e83b 9d91 20bb d151 b93b
000001b0: 8fcb 1bbb f742 03bd db13 63bd 7d59 59bb
000001c0: f91b 0c3c 3851 053c 3792 2d3d dd2e f5bb
000001d0: 353e 193d aaaf 353d c188 313d 410b 2e3d
000001e0: 3b69 83bc cdb6 3bbd 9cd4 b03c 38ac 94bc
000001f0: 2e22 81bd 31f2 1fbd 5dc4 e4bb d138 b83b
00000200: 8c01 99bc c65c 493d aae0 243d c748 733b
00000210: 5613 83bd 402f d2bb 94fc fc3c 8c1b db3c
00000220: 3233 08bd a310 873b 5244 48bd 3dcc 433d
00000230: 9255 0ebd 4a7c e23c b27f 1bbd 9e68 09bd
00000240: bc31 36bd 84f2 d0bc 8d69 3c3d c788 af3b
00000250: c3c9 1cbd a9c5 00bd 48c0 dfbc fea8 3e3d
00000260: 4657 3cbb da0a 16bd 47e9 5b3d 0186 85bd
00000270: ca11 ca3c 9099 0c3d 8bd4 debc 9ea0 3c3d
00000280: 64bb 79bd bc36 edbb 0a89 9c3c fe7a 373d
00000290: d475 00bd 687d e8bc 525f c83c 3028 b53b
000002a0: d473 51bd 3ce9 83bd 53ea 9a3c a2c4 f7bc
000002b0: ecdc e53c dbc8 8fbc 8d0d b73c 35d7 9cbc
000002c0: a84c fe3c a3a3 8ebc acdb 3cbc fbac d1bc
000002d0: c804 64bd 2825 73bd 0b42 66bd d24e 5fbd
000002e0: b85d ad3c a40d 71bd 027a d3bb 9f58 c5bc
000002f0: 59a0 0abd 4bce 48bd 0be5 b4bc 79dc dd3c
00000300: 7002 523c 4c9b 643d d88a 45bc dc04 b6bc
00000310: 409a 89ba 1ec1 26bd 42ae 4d3d 1c84 0cbd
00000320: 7c6e ffbc 5da6 373d 1850 c0bc 717b 6d3d
00000330: e9bb 92bb a8c3 dfbc 5c46 1fbd 2476 f3bc
00000340: 5027 36bd c4a0 e43c 36fd 17bd 3247 313d
00000350: d8dc 113d f079 82bc 6cf3 b4bc cae9 02bd
00000360: 487f 6fbc 6c5e 5b3d cba7 653d 4016 573b
00000370: 5435 81bc a349 f3bb 7ecf 42bd 4c15 e63c
00000380: e71c f9bb f002 283d 580e 273d a032 d53b
00000390: e131 203d 6e8d 263d 7437 a33c f022 afbb
000003a0: 10ea 253c 5efa 1b3d 7c88 d03c 60be fb3b
000003b0: b8bb b33c 32e5 50bd 6070 22bd 95a4 e1bc
000003c0: 5e50 773c 1447 3bbd 6079 6dbd 4563 33bd
000003d0: 7092 55bc 1eeb 45bd 40ba fe3a fa6d 2abd
000003e0: 5521 193d d897 abbc b4ca b03c 6695 60bd
000003f0: 84e7 babc 6692 ff3c b176 4bbd 0027 a83b

fc1.bias f4 [256]
0.013525561 -0.010084811 -0.0026091163 0.047514625 -0.020957332 -0.05153422 0.06415303 0.043371435
0.068267964 -0.020299125 0.0687219 -0.01752493 0.044050526 0.008117208 -0.017341375 -0.059076276
-0.037096027 -0.012017264 -0.044658154 0.050034482 -0.007827977 -0.0124259 0.057375696 0.008199611
0.020521458 0.018695984 -0.0320174 0.045509882 0.011987767 0.008444281 -0.018296424 0.042236015
0.039998632 0.06078781 -0.06006699 0.058413815 0.04121758 0.066792116 0.018630177 -0.019927101
-0.057273306 0.03803296 -0.0026846393 -0.015434747 0.018415047 -0.00094321684 0.009108658 0.0046594813
0.04147366 0.06617331 -0.002708897 -0.0051875785 -0.045450073 0.03588156 0.0051982324 -0.04455305
-0.04569959 0.027124926 0.048658166 -0.04029958 -0.040579777 0.031652305 -0.048875757 0.013634067
0.038896117 0.068523265 -0.039552897 -0.038935322 0.061688725 -0.06530033 0.025380762 -0.01852295
0.043031015 -0.0118930545 0.0373234 0.020859575 0.021217793 -0.012715287 0.008189149 0.03663758
0.05210266 0.03341114 -0.041727792 -0.04669944 0.0025823796 -0.009508475 0.061203152 0.036001135
0.009974418 0.06436265 0.0024030386 -0.051619016 0.041288674 -0.004855394 -0.037250012 0.043990694
0.060440242 -0.040358316 0.0413407 -0.009997931 -0.030710727 -0.048236728 -0.045438703 -0.05441384
-0.016045645 -0.05262072 0.011916218 -0.05668767 0.0053647654 -0.055737913 -0.025077207 -0.028967552
0.03915076 0.030285055 -0.013879166 -0.010633968 0.0134484125 -0.03955751 0.010880696 -0.051163428
0.03550999 -0.039214794 0.051456522 0.03620322 0.055961516 0.049591027 0.006655199 -0.060573563
0.00473382 -0.04547723 -0.028792407 0.0033825652 0.045725472 0.037176892 -0.042237535 0.021385416
-0.014449445 0.032592494 -0.0074080285 0.051329028 0.048482157 -0.026670823 -0.005466093 0.019306513
-0.050728977 -0.008775204 0.0492804 0.040277377 -0.016844744 -0.023178285 0.033099532 -0.030878909
0.04324492 -0.0016785365 -0.015172829 -0.022856088 0.046488132 0.010062645 0.0572613 0.006278655
0.031659283 -0.054035485 -0.0058743013 0.012788035 0.00053429 -0.032447785 -0.007477197 -0.038568486
-0.039077275 -0.023851968 -0.037050605 0.019963745 -0.009411637 0.0045175822 -0.007973127 0.040938433
-0.048807777 -0.04354725 0.008065524 -0.05170053 -0.028957376 0.050643004 0.054237112 -0.014042128
0.018439718 0.041357845 0.031876594 -0.03818343 0.043554973 0.02946727 -0.003515077 -0.02265249
-0.053697508 0.027940473 -0.011900358 -0.04370892 -0.02364616 0.002421549 -0.0010124885 0.011982378
0.0045680013 -0.05310121 -0.047352914 0.0018391758 0.059734225 -0.02948458 0.023968162 0.037317708
-0.028147057 -0.022232462 -0.029797733 -0.011809493 0.01283327 -0.033969156 0.032881327 -0.052674998
0.022690121 0.0024659676 0.028796686 0.025899453 0.039778326 0.0632272 0.0010772524 -0.023564711
0.010261707 0.055830006 -0.011738707 -0.05156361 -0.0056688697 0.012863047 -0.050618824 -0.009557001
0.011266064 -0.03949605 0.01930462 0.032464325 0.023621125 0.045578755 0.039143004 0.043245558
-0.06521825 -0.03122749 -0.051142234 0.0223958 0.016666133 0.025324607 0.058346163 -0.04423684
-0.034867313 -0.03959521 -0.010099624 -0.036279313 0.034534484 -0.057109565 0.065980755 -0.05411184
00000000: 519a 5d3c c33a 25bc b5fd 2abb b29e 423d
00000010: b6ae abbc 8c15 53bd aa62 833d 3fa6 313d
00000020: 13d0 8b3d 5a4a a6bc 11be 8c3d 7190 8fbc
00000030: 536e 343d 0afe 043c 800f 8ebc f7f9 71bd
00000040: 01f2 17bd 0fe4 44bc 78eb 36bd f5f0 4c3d
00000050: ea40 00bc 0196 4bbc c702 6b3d a957 063c
00000060: 9e1c a83c 5228 993c ad24 03bd 9268 3a3d
00000070: 5768 443c e259 0a3c 62e2 95bc acff 2c3d
00000080: 9bd5 233d a3fc 783d ce08 76bd 5343 6f3d
00000090: c4d3 283d 4eca 883d 509e 983c 293e a3bc
000000a0: 6a97 6abd 73c8 1b3d c6f0 2fbb 05e2 7cbc
000000b0: 27db 963c 3642 77ba 7b3c 153c 90ae 983b
000000c0: 49e0 293d df85 873d c087 31bb 90fc a9bb
000000d0: db29 3abd 8bf8 123d ef55 aa3b 427d 36bd
000000e0: 7e2f 3bbd 1835 de3c c94d 473d 2c11 25bd
000000f0: fb36 26bd d9a5 013d f231 48bd 6c61 5f3c
00000100: 8951 1f3d ed55 8c3d 3802 22bd a57a 1fbd
00000110: 51ad 7c3d 2ebc 85bd 51eb cf3c 71bd 97bc
00000120: 4a41 303d 16db 42bc 6ce0 183d b3e1 aa3c
00000130: f0d0 ad3c c753 50bc c82b 063c 4911 163d
00000140: 9969 553d 1fda 083d c3ea 2abd e947 3fbd
00000150: 243d 293b 6fc9 1bbc 28b0 7a3d ed75 133d
00000160: be6b 233c 91d0 833d 4c7c 1d3b 766e 53bd
00000170: 501e 293d ff19 9fbb 7893 18bd 962f 343d
00000180: 3090 773d c34e 25bd de54 293d 5dce 23bc
00000190: 1095 fbbc e093 45bd ef1d 3abd 0ce1 5ebd
000001a0: 2872 83bc d388 57bd 3e3c 433c 5531 68bd
000001b0: eaca af3b 704d 64bd b76e cdbc 5c4d edbc
000001c0: 8c5c 203d 5d18 f83c 7165 63bc 183a 2ebc
000001d0: bb56 5c3c 0e07 22bd f244 323c be90 51bd
000001e0: ec72 113d b19f 20bd 13c4 523d d449 143d
000001f0: e737 653d f61f 4b3d db13 da3b fc1b 78bd
00000200: 291e 9b3b 5546 3abd 0ede ebbc 07ae 5d3b
00000210: a24a 3b3d cc46 183d 4401 2dbd 7830 af3c
00000220: 5dbd 6cbc b57f 053d 0cbf f2bb 633e 523d
00000230: 3a95 463d c57c dabc e91c b3bb b128 9e3c
00000240: 30c9 4fbd e0c5 0fbc 3fda 493d e4f9 243d
00000250: fdfd 89bc 63e0 bdbc 6093 073d c4f5 fcbc
00000260: 9621 313d 5702 dcba 7597 78bc b13c bbbc
00000270: 576a 3e3d cbdd 243c d38a 6a3d 2dbd cd3b
00000280: 2aad 013d 5054 5dbd 367d c0bb e884 513c
00000290: 980f 0c3a f8e7 04bd 4603 f5bb fdf9 1dbd
000002a0: 7e0f 20bd 3465 c3bc 60c2 17bd 028b a33c
000002b0: 4433 1abc 3a08 943b b8a1 02bc 0faf 273d
000002c0: aaea 47bd 9a5e 32bd 4225 043c efc3 53bd
000002d0: 0538 edbc 0a6f 4f3d bc27 5e3d f410 66bc
000002e0: e40e 973c d866 293d 0891 023d 3a66 1cbd
000002f0: b366 323d 5865 f13c 355d 66bb b791 b9bc
00000300: ebf1 5bbd 6be3 e43c b8f9 42bc 2008 33bd
00000310: 97b5 c1bc dab2 1e3b 7ab5 84ba bc51 443c
00000320: 2caf 953b a880 59bd 21f5 41bd 8010 f13a
00000330: e0ab 743d a589 f1bc e158 c43c 74da 183d
00000340: a894 e6bc da20 b6bc 601a f4bc 9b7c 41bc
00000350: a342 523c 3e23 0bbd 92ae 063d bdc1 57bd
00000360: a2e0 b93c 129c 213b 07e7 eb3c 172b d43c
00000370: 99ee 223d 437d 813d 9832 8d3a c80a c1bc
00000380: b820 283c 01ae 643d b553 40bc 5d34 53bd
00000390: edc1 b9bb 88bf 523c af55 4fbd f894 1cbc
000003a0: 4c95 383c 9cc6 21bd b924 9e3c 50f9 043d
000003b0: 1781 c13c cab0 3a3d 6a54 203d 4122 313d
000003c0: 2591 85bd cbd0 ffbc 857a 51bd 6677 b73c
000003d0: 6a87 883c 8d75 cf3c 63fc 6e3d b031 35bd
000003e0: 07d1 0ebd 962e 22bd e578 25bc 9e99 14bd
000003f0: 0874 0d3d b8eb 69bd eb20 873d 60a4 5dbd

fc2.weight f4 [128, 256]
-0.0029081688 -0.0057647205 -0.011225386 -0.026335843 0.015657213 -0.038195714 0.050143946 0.064557545
0.056638055 0.058828298 0.039940074 0.012855603 -0.042398036 -0.00039651955 -0.034232102 0.019480271
0.061759695 0.04024298 -0.03414686 0.061876833 -0.03955332 -0.05903853 -0.010612758 -0.06298118
-0.031429403 0.019432783 0.029612515 0.053420827 0.0019145259 0.012678331 -0.039487362 0.017366016
0.023387719 -0.03481075 0.05344443 -0.0044630338 0.06638681 -0.036850255 0.040628087 -0.040658377
0.024326589 -0.060806744 -0.0625576 -0.049686722 0.006088596 0.0020915268 -0.018679434 -0.04253925
0.02856781 -0.033454757 0.0007390976 0.027509995 0.020004308 0.05310895 0.027743395 0.03580766
-0.042289928 -0.05296867 0.0075460128 -0.052236114 0.03681893 0.06614779 -0.021505842 0.039577954
-0.007947822 -0.03489128 0.0012245409 -0.05993365 0.0537598 -0.034518067 0.05916932 -0.030399857
-0.017447151 -0.05109701 0.038904436 0.010065671 -0.041762017 0.013635806 0.035906866 0.061638117
0.055142105 -0.03791042 -0.01908782 -0.0026045556 0.0003421466 -0.050791908 -0.011592656 0.03142164
0.058965493 0.03887541 0.0683914 0.04769623 0.010963492 0.011671223 -0.034828022 -0.030631071
0.020953134 -0.029989328 0.018472742 0.05884447 -0.038235333 0.061677437 -0.05533606 0.019620085
0.042875603 -0.010753891 0.048046812 -0.055249233 0.04522977 0.046046115 -0.008224486 -0.058707803
-0.036290254 -0.015822325 -0.037119966 -0.022251152 0.043920852 0.016178258 0.0398542 -0.052529983
0.030259423 0.071470045 0.03758726 -0.032322045 -0.03585217 0.031513736 0.054606143 -0.04390025
0.029885571 0.05874631 -0.033004124 -0.012948445 -0.04557965 0.035547778 -0.009855739 -0.05603939
0.01123302 0.06531608 -0.041415647 0.047547292 -0.014579311 0.06460814 -0.008483779 0.061098795
0.039411023 0.019708794 0.055904027 -0.026330587 0.041400947 0.043001585 0.0137056885 0.04446395
0.018394234 0.01912689 -0.013832588 -0.04577594 0.060635168 -0.03450825 0.0013420745 0.009314188
-0.012450851 -0.031442266 0.013308462 -0.039524227 0.011876254 0.023983348 0.010986736 0.024262372
0.06915361 0.0334003 0.0041218256 0.06177414 0.05179682 0.066041924 -0.01678016 -0.016834319
-0.02195061 -0.018126061 -0.0022053707 0.012439608 -0.0068030753 0.056618687 0.058544576 -0.027732633
-0.04756462 0.00491482 0.03486491 0.04621052 -0.03459985 0.039294817 -0.021204568 0.023238217
0.053315785 0.017028967 0.04817134 -0.04583415 0.044403348 0.021390658 0.030978449 -0.03227545
0.018126389 0.04373353 0.055161726 -0.054063857 0.042782426 0.0042683296 -0.02600258 -0.04841547
-0.020455107 -0.02619647 0.005870551 -0.010515141 0.03913955 0.020417526 0.02319584 0.03030997
-0.030461196 -0.014419465 -0.0033592111 0.032574903 0.042929087 0.036429986 -0.037123162 0.012879863
-0.03765327 0.037862413 0.07843978 -0.015650272 0.0058605373 -0.02138839 0.04127498 -0.050930493
-0.064845204 0.05861065 0.03817586 0.018418523 0.013782403 0.01348086 0.03337755 -0.041132633
0.028326614 -0.05496184 0.06332983 0.019768137 0.014678829 -0.018876487 -0.0673071 0.035032377
-0.028671492 0.040986776 0.006311779 -0.0022771913 0.048108548 0.042354744 -0.0355674 -0.06323927
00000000: fa96 3ebb fbe5 bcbb aeea 37bc 44be d7bc
00000010: 8e43 803c 1c73 1cbd bd63 4d3d bf36 843d
00000020: 4efd 673d f1f5 703d 3498 233d 4fa0 523c
00000030: 90a9 2dbd f4e3 cfb9 f636 0cbd 1795 9f3c
00000040: bcf7 7c3d d3d5 243d 94dd 0bbd 9072 7d3d
00000050: a902 22bd 63d2 71bd 22e1 2dbc 47fc 80bd
00000060: 1ebc 00bd 8031 9f3c f295 f23c cccf 5a3d
00000070: d4f0 fa3a c6b8 4f3c 80bd 21bd 2d43 8e3c
00000080: 9a97 bf3c b895 0ebd 8ce8 5a3d a43e 92bb
00000090: cff5 873d 4bf0 16bd a369 263d 6689 26bd
000000a0: 8e48 c73c 7e10 79bd 331e 80bd 4e84 4bbd
000000b0: d882 c73b ff11 093b 9d05 99bc a33d 2ebd
000000c0: 0a07 ea3c db07 09bd 00c0 413a a45c e13c
000000d0: 13e0 a33c c588 593d 1e46 e33c 0eab 123d
000000e0: 3438 2dbd adf5 58bd 8b44 f73b 89f5 55bd
000000f0: 72cf 163d 7e78 873d 052d b0bc 7e1c 223d
00000100: 9537 02bc 29ea 0ebd c680 a03a fd7c 75bd
00000110: 3c33 5c3d d162 0dbd 875b 723d 1f09 f9bc
00000120: 54ed 8ebc 194b 51bd 425a 1f3d 7cea 243c
00000130: a60e 2bbd b768 5f3c 1413 133d 4078 7c3d
00000140: b0dc 613d f547 1bbd 0f5e 9cbc 31b1 2abb
00000150: 2462 b339 2d0b 50bd 20ef 3dbc fab3 003d
00000160: cd85 713d d23b 1f3d ca10 8c3d 1f5d 433d
00000170: 38a0 333c a838 3f3c d4a7 0ebd 03ee fabc
00000180: e8a5 ab3c 2eac f5bc 2654 973c e606 713d
00000190: a79c 1cbd 7ba1 7c3d 10a8 62bd 4dba a03c
000001a0: 549e 2f3d 1731 30bc bccc 443d 054d 62bd
000001b0: da42 393d da9a 3c3d ffbf 06bc 9877 70bd
000001c0: 17a5 14bd d29d 81bc 1b0b 18bd 0c48 b6bc
000001d0: 5ae6 333d 4488 843c 283e 233d ae29 57bd
000001e0: 9ce2 f73c e35e 923d 19f5 193d 1f64 04bd
000001f0: bad9 12bd 8c14 013d b1aa 5f3d c0d0 33bd
00000200: 96d2 f43c f99f 703d 552f 07bd b725 54bc
00000210: bab1 3abd 8c9a 113d f779 21bc 8f89 65bd
00000220: b30a 383c 70c4 853d 74a3 29bd f3c0 423d
00000230: 10de 6ebc 4651 843d 8cff 0abc bb42 7a3d
00000240: 746d 213d 5674 a13c 9ffb 643d 3eb3 d7bc
00000250: 0a94 293d 6e22 303d d38d 603c d51f 363d
00000260: 81af 963c ffaf 9c3c 14a2 62bc 8d7f 3bbd
00000270: 955c 783d 8658 0dbd 8ce8 af3a 899a 183c
00000280: a7fe 4bbc 9bc9 00bd bc0b 5a3c 28e4 21bd
00000290: 9f94 423c ba78 c43c b601 343c e2c1 c63c
000002a0: 68a0 8d3d c1ce 083d 6110 873b e106 7d3d
000002b0: e728 543d fd40 873d 8c76 89bc 20e8 89bc
000002c0: c4d1 b3bc 1b7d 94bc fb87 10bb 7fcf 4b3c
000002d0: 55ec debb ffe8 673d 70cc 6f3d 8c2f e3bc
000002e0: 1ed3 42bd 800c a13b 82ce 0e3d 3e47 3d3d
000002f0: 93b8 0dbd 9af3 203d 34b5 adbc 135e be3c
00000300: a761 5a3d 5580 8b3c 504f 453d 97bc 3bbd
00000310: 49e0 353d 763b af3c 84c6 fd3c 4333 04bd
00000320: cb7d 943c ee21 333d 43f1 613d 1072 5dbd
00000330: a03c 2f3d 58dd 8b3b 5d03 d5bc 4d4f 46bd
00000340: 7891 a7bc fb99 d6bc c05d c03b b347 2cbc
00000350: cb50 203d a842 a73c 3405 be3c 9d4c f83c
00000360: c289 f9bc 9f3f 6cbc 3626 5cbb 436d 053d
00000370: 69d6 2f3d 9c37 153d 750e 18bd 1006 533c
00000380: 513a 1abd 9e15 1b3d 09a5 a03d 0035 80bc
00000390: c009 c03b b436 afbc f40f 293d 7e9c 50bd
000003a0: 90cd 84bd b911 703d 4a5e 1c3d 71e2 963c
000003b0: 97cf 613c d3de 5c3c e6b6 083d b17a 28bd
000003c0: 370d e83c ab1f 61bd 12b3 813d caf0 a13c
000003d0: 797f 703c dda2 9abc 4ed8 89bd 1c7e 0f3d
000003e0: 7ae0 eabc c0e1 273d 0ad3 ce3b ee3c 15bb
000003f0: 780d 453d 2b7c 2d3d 1faf 11bd 9783 81bd

fc2.bias f4 [128]
0.056989495 -0.024483226 -0.019221306 0.007784278 -0.056818403 0.0012927204 0.015908126 -0.054367676
0.060264107 0.064251475 -0.040961802 0.014185902 0.04256003 -0.008440275 -0.031349473 0.051962752
0.040973816 0.00877952 -0.046129838 0.023297824 0.042947337 -0.01770457 -0.0080360705 -0.0525297
0.020702709 0.034808274 0.057304554 -0.061178565 0.040052354 0.0041904883 0.015691925 0.056585796
-0.013295664 -0.010952496 0.020691441 -0.012605405 0.041912466 -0.030313665 -0.008553124 0.025750266
0.013008124 -0.025055163 -0.014163695 -0.0074019036 -0.05589381 0.026262091 0.015190087 0.028769461
-0.032010324 0.060287632 0.052686222 -0.0014804256 0.035310395 0.0013268329 -0.030241217 0.004234694
-0.036402076 0.0389235 0.01951228 -0.03067976 -0.031466983 0.051702816 0.043229867 0.045679532
0.042360038 0.05506151 -0.011541862 -0.012002088 -0.029958177 0.064782895 -0.039095607 -0.060571335
-0.022473952 0.0020066865 -0.05190026 0.023539258 -0.02976014 0.042074107 -0.018611994 -0.050489146
0.016396828 -0.0019601267 -0.03131947 0.0429784 0.018082783 -0.0028101283 -0.061215945 -0.041032583
-0.021837031 -0.039199755 0.041810773 0.040210616 -0.045179747 -0.026794298 0.03210876 -0.0062409416
-0.03770753 -0.012086718 0.065581396 0.014110297 -0.015547544 -0.016238533 -0.026211862 -0.039479956
-0.0068849023 -0.010688796 0.036642134 -0.060481124 0.013192077 0.023137514 0.045822598 -0.051100805
0.040408976 -0.0584568 -0.011960307 0.05958737 -0.0032247007 0.044036876 0.026656821 -0.005629778
0.062946044 -0.018171925 -0.01915694 -0.06248317 0.025901211 -0.05776821 -0.028457828 -0.0550126
00000000: d16d 693d 0c91 c8bc 0076 9dbc 4213 ff3b
00000010: 6aba 68bd 8070 a93a c251 823c a4b0 5ebd
00000020: 7fd7 763d 4796 833d 90c7 27bd fc6b 683c
00000030: 6d53 2e3d 1449 0abc 4e68 00bd e5d6 543d
00000040: 29d4 273d fad7 0f3c a4f2 3cbd 14db be3c
00000050: 8ce9 2f3d 2d09 91bc b9a9 03bc 6229 57bd
00000060: ba98 a93c 1f93 0e3d 2eb8 6a3d 6096 7abd
00000070: f00d 243d 5d50 893b 5a8c 803c 82c6 673d
00000080: 0fd6 59bc 1972 33bc 1981 a93c e786 4ebc
00000090: 68ac 2b3d 5d54 f8bc 6722 0cbc 39f2 d23c
000000a0: 0720 553c 7c40 cdbc d80e 68bc ab8b f2bb
000000b0: e8f0 64bd 9923 d73c d8df 783c efad eb3c
000000c0: 421d 03bd 2af0 763d 82cd 573d d70a c2ba
000000d0: a2a1 103d 20e9 ad3a 6ebc f7bc 30c3 8a3b
000000e0: 581a 15bd 3f6e 1f3d 38d8 9f3c 1f54 fbbc
000000f0: 86e3 00bd 55c6 533d cd11 313d 761a 3b3d
00000100: b881 2d3d 2e88 613d 141a 3dbc 68a4 44bc
00000110: da6a f5bc e5ac 843d b722 20bd a619 78bd
00000120: 4b1b b8bc 9d82 033b 5e95 54bd 67d5 c03c
00000130: 8acb f3bc e655 2c3d 2e78 98bc b5cd 4ebd
00000140: a452 863c 7875 00bb d848 00bd 1e0a 303d
00000150: 5822 943c 212a 38bb 92bd 7abd c811 28bd
00000160: 93e3 b2bc ec8f 20bd c641 2b3d e3b3 243d
00000170: 660e 39bd b77f dbbc 7a84 033d d080 ccbb
00000180: 3673 1abd 5f07 46bc 8a4f 863d e02e 673c
00000190: 20bb 7ebc ac06 85bc 42ba d6bc bcb5 21bd
000001a0: bf9a e1bb 0f20 2fbc 1016 163d 0ebb 77bd
000001b0: 9523 583c e28a bd3c 7ab0 3b3d 144f 51bd
000001c0: e283 253d 6670 6fbd 2af5 43bc e311 743d
000001d0: 8055 53bb 0360 343d 685f da3c 007a b8bb
000001e0: dbe9 803d 4add 94bc 04ef 9cbc 5aee 7fbd
000001f0: c72e d43c 5c9e 6cbd 6420 e9bc e454 61bd

actor.weight f4 [4, 128]
0.0019079666 -0.0883226 -0.044246037 -0.053381883 -0.085818425 0.046167098 0.003971356 0.032192156
0.047495004 0.07443049 -0.008682471 -0.048393454 -0.042275462 -0.08914595 -0.083730355 0.04905466
0.074300654 0.008305225 -0.04917412 -0.0623845 -0.009592425 -0.052610356 0.01435643 -0.07074541
0.08044752 -0.06597235 0.05391752 -0.025324786 -0.022683924 -0.08151151 0.05161887 0.05692007
-0.03867163 -0.0034286561 -0.07969576 -0.024940126 -0.029121492 0.028635165 -0.049869515 0.0049842983
-0.07845077 -0.065938756 -0.033896383 0.08673646 -0.022665458 -0.012720952 0.012497734 -0.075859345
-0.016812367 0.04082937 0.0051687555 -0.04688956 -0.07042518 0.069725566 -0.0736334 -0.012419327
0.0034134942 0.05417384 -0.063098 0.08455969 -0.055826902 0.031770002 -0.08395745 0.07529942
-0.0026960606 0.06889633 -0.039686937 -0.080404885 -0.07685418 0.06351112 0.05678932 0.078811616
-0.017149419 -0.05217319 0.08092124 -0.055025984 0.08087848 -0.073381774 0.049291465 -0.082873635
0.010145874 -0.024946263 -0.0039292243 0.09031962 -0.056695033 -0.07052788 -0.06956059 -0.066097975
-0.060608953 0.02464985 0.0958301 -0.016627708 0.049089823 -0.049514513 -0.039537016 0.07916521
0.028060578 -0.04026487 0.08542819 0.016586745 0.027186507 0.062255893 -0.08325144 0.03610441
0.017812787 -0.06036258 -0.0683716 0.010581135 0.036139753 0.022134302 -0.051101085 0.022492688
0.09138809 -0.005069444 -0.048424345 0.020943796 -0.07068985 -0.0024301077 -0.056399025 -0.060703356
-0.003522471 0.056970123 0.084442645 0.052580602 -0.074479245 -0.070964165 0.046560194 -0.052718922
0.0522254 0.044871457 0.070480466 -0.040088337 0.08785085 -0.042214073 -0.045920838 0.025965044
0.040716343 0.0132460985 0.018559186 -0.05303863 0.06522626 0.0730274 -0.029439922 0.014875466
0.0313374 -0.07553413 0.05956417 0.020334769 -0.07938442 0.08142019 -0.0011294251 -0.07726241
0.050530184 0.037942596 -0.080668315 -0.010041649 -0.07020342 0.022245836 -0.070277795 0.00166656
0.083328255 -0.03260686 -0.03694828 0.05684246 0.015334624 0.041316867 -0.03834706 -0.0375951
0.07007624 -0.08650325 -0.08489382 -0.06336073 -0.065108344 0.08177704 -0.08402548 0.07506251
0.030518679 0.007840703 -0.06939504 -0.015238034 0.004128684 -0.020847335 -0.028135413 0.074130945
0.01787707 0.0013087976 -0.072640486 -0.04327823 0.011842411 -0.05629973 -0.08334419 0.0729468
-0.06722365 0.049454976 -0.066866614 -0.070291564 0.043353632 0.04084004 -0.027877703 0.016549688
-0.08955986 0.0020645806 0.04915571 0.058727082 0.029890532 -0.03046924 -0.00065283565 0.026952824
-0.056051046 0.075100005 -0.07004125 -0.08437649 -0.08991648 -0.08031261 -0.070580214 0.0027493476
-0.04864632 0.00575334 0.00035782362 -0.048391614 0.013460766 -0.061703373 -0.033238735 0.055136353
-0.01921988 0.07118304 0.045351528 -0.0060752993 0.086262606 0.04651349 0.03890338 -0.042700846
0.03454356 -0.048151147 0.03375517 0.03478392 0.022727301 0.028879108 0.04946433 -0.07959509
0.0196686 0.032447256 0.009210088 0.056704484 -0.032682437 0.06727364 0.025843952 0.03904524
0.06313115 0.040143404 -0.039517686 0.06563566 -0.004910497 -0.012410181 0.021219172 0.08118437
00000000: bc14 fa3a 7be2 b4bd 553b 35bd f6a6 5abd
00000010: 92c1 afbd b619 3d3d 2622 823b ecdb 033d
00000020: 1f8a 423d 036f 983d ec40 0ebc 3738 46bd
00000030: 0929 2dbd 2792 b6bd d27a abbd 8aed 483d
00000040: f12a 983d a312 083c cd6a 49bd e486 7fbd
00000050: 8c29 1dbc f57d 57bd 3b37 6b3c f8e2 90bd
00000060: abc1 a43d 831c 87bd 9ed8 5c3d ed75 cfbc
00000070: a3d3 b9bc 82ef a6bd 4f6e 533d 0525 693d
00000080: 2566 1ebd 4eb3 60bb 8837 a3bd 3c4f ccbc
00000090: 3290 eebc 4b94 ea3c fa43 4cbd 5353 a33b
000000a0: ccaa a0bd e60a 87bd efd6 0abd e3a2 b13d
000000b0: e9ac b9bc 8a6b 50bc 4cc3 4c3c 255c 9bbd
000000c0: 17ba 89bc b33c 273d aa5e a93b 440f 40bd
000000d0: 143b 90bd 47cc 8e3d 1ccd 96bd 6f7a 4bbc
000000e0: eeb4 5f3b 63e5 5d3d 8639 81bd a12d ad3d
000000f0: c0aa 64bd 4321 023d e2f1 abbd 9536 9a3d
00000100: 64b0 30bb 8519 8d3d c58e 22bd 51ab a4bd
00000110: b965 9dbd 1e12 823d eb9b 683d fc67 a13d
00000120: f07c 8cbc 8eb3 55bd 09ba a53d ed62 61bd
00000130: 9ea3 a53d 2f49 96bd d9e5 493d a7b9 a9bd
00000140: e13a 263c 1b5c ccbc b9c0 80bb 7ef9 b83d
00000150: 0d39 68bd ec70 90bd c875 8ebd 605e 87bd
00000160: 1841 78bd 7bee c93c 9242 c43d d536 88bc
00000170: 6912 493d bbcf 4abd 91f1 21bd 5f21 a23d
00000180: 4cdf e53c c7ec 24bd faf4 ae3d ede0 873c
00000190: 3db6 de3c 0900 7f3d bb7f aabd 38e2 133d
000001a0: 1fec 913c c13e 77bd 6906 8cbd 7f5c 2d3c
000001b0: 4707 143d ff52 b53c 5f4f 51bd 9642 b83c
000001c0: ae29 bb3d 941d a6bb 9b58 46bd 5392 ab3c
000001d0: d7c5 90bd 7142 1fbb aa02 67bd 15a4 78bd
000001e0: 42d9 66bb 8159 693d 44f0 ac3d c25e 573d
000001f0: 9388 98bd a955 91bd e7b5 3e3d ccef 57bd
00000200: 4dea 553d 22cb 373d 1058 903d ab33 24bd
00000210: 25eb b33d aae8 2cbd 7d17 3cbd a5b4 d43c
00000220: 2ec6 263d 2a06 593c 6f09 983c 093f 59bd
00000230: 5895 853d 648f 953d fe2b f1bc 3ab8 733c
00000240: a55b 003d a3b1 9abd 8ff9 733d 1a95 a63c
00000250: 4c94 a2bd a1bf a63d 3809 94ba c13b 9ebd
00000260: bdf8 4e3d b269 1b3d 6e35 a5bd bb85 24bc
00000270: d0c6 8fbd e63c b63c ceed 8fbd 7970 da3a
00000280: 01a8 aa3d c58e 05bd 1457 17bd a4d3 683d
00000290: 133e 7b3c e03b 293d cf11 1dbd 52fd 19bd
000002a0: 2284 8f3d 9e28 b1bd d0dc adbd 45c3 81bd
000002b0: 8657 85bd b97a a73d 8d15 acbd 60ba 993d
000002c0: 4f02 fa3c 4b76 003c fd1e 8ebd f2a8 79bc
000002d0: e949 873b 08c8 aabc 3d7c e6bc f7d1 973d
000002e0: ef72 923c f68b ab3a 89c4 94bd 8344 31bd
000002f0: ac06 423c 8c9a 66bd 5cb0 aabd 2265 953d
00000300: 8eac 89bd 4d91 4a3d 5df1 88bd 06f5 8fbd
00000310: 9493 313d e347 273d c85f e4bc 3693 873c
00000320: 296b b7bd ea4d 073b 7f57 493d cf8b 703d
00000330: fddc f43c a19a f9bc 0f23 2bba 2bcc dc3c
00000340: c895 65bd 08ce 993d c971 8fbd 95cd acbd
00000350: 2226 b8bd f07a a4bd 5c8c 90bd 662e 343b
00000360: 5d41 47bd 8486 bc3b 469a bb39 4936 46bd
00000370: 8b8a 5c3c adbc 7cbd 5725 08bd a8d6 613d
00000380: 0373 9dbc 6ac8 913d 86c2 393d 4e13 c7bb
00000390: 73aa b03d ee84 3e3d 2759 1f3d 15e7 2ebd
000003a0: 8c7d 0d3d 233a 45bd dc42 0a3d 9579 0e3d
000003b0: 9b2e ba3c e193 ec3c 1c9b 4a3d c002 a3bd
000003c0: 0b20 a13c 6ae7 043d e9e5 163c f642 683d
000003d0: 05de 05bd c3c6 893d b2b6 d33c e7ed 1f3d
000003e0: e84a 813d 696d 243d 4cdd 21bd fd6b 863d
000003f0: 3ce8 a0bb 1254 4bbc d4d3 ad3c fe43 a63d

actor.bias f4 [4]
0.02515683 0.07990736 -0.03116173 0.03425565
00000000: b215 ce3c 78a6 a33d e246 ffbc a74f 0c3d

critic.weight f4 [1, 128]
0.05217702 -0.041333143 -0.012732531 0.08590272 0.054550845 -0.027773982 0.09295216 0.08967637
0.036452625 0.055756763 0.05685696 -0.007199947 0.061478615 -0.06935488 -0.0014775256 0.0742013
-0.0037806055 -0.028916502 -0.017808255 -0.066334315 0.048606124 -0.04516996 -0.051736727 -0.032228567
0.038031016 0.062297832 -0.046636086 -0.06918202 -0.0044321767 0.027638597 -0.047419097 -0.06085686
0.10467685 -0.0019382037 0.09784537 -0.0062429965 -0.07007455 -0.07003981 0.10138818 0.08527892
0.0577068 -0.04244222 0.04894012 -0.042818505 0.033073485 -0.07795391 -0.021640908 0.08760118
-0.08417491 0.07886553 -0.035252172 -0.058386892 0.04697542 -0.06484017 -0.0023545825 0.016890043
-0.07413882 0.011709794 -0.05231482 0.041747164 -0.022219807 0.05098595 -0.0549168 0.03981321
-0.019824963 0.05813536 0.04096528 0.09289926 0.0095332945 0.04633981 -0.010122205 -0.008722988
0.08025149 -0.0033094157 -0.07004746 -0.036026634 0.03515516 0.060160838 0.011163447 0.030956283
0.0014847155 0.04943252 0.08672309 -0.034998506 0.08084884 -0.06733022 0.06971964 0.07222346
-0.082362846 -0.035296794 0.007343666 0.008659602 0.019286957 -0.074361965 0.040741287 -0.03858108
0.030988462 -0.057515595 -0.09434081 -0.0105388295 0.0012142718 0.02587295 0.04676319 0.013863636
0.025847891 0.079192124 0.052412283 0.0163403 0.057947394 -0.052526087 0.023336586 0.062139235
-0.016879648 0.067671165 -0.07882569 0.10618171 -0.059294365 -0.014080398 0.042424425 0.05336891
0.033895258 0.028051682 -0.027492937 -0.009043809 0.05625604 0.053519435 -0.07922642 0.006574213
00000000: 92b7 553d f14c 29bd 1b9c 50bc c4ed af3d
00000010: b570 5f3d 4386 e3bc b45d be3d 3fa8 b73d
00000020: 594f 153d 3461 643d d8e2 683d 88ed ebbb
00000030: 00d1 7b3d ee09 8ebd 88a9 c1ba daf6 973d
00000040: 09c4 77bb 4de2 ecbc 9ee2 91bc 49da 87bd
00000050: 3717 473d 2304 39bd e4e9 53bd 1a02 04bd
00000060: 69c6 1b3d 032c 7f3d 7b05 3fbd 4eaf 8dbd
00000070: cb3b 91bb 576a e23c 873a 42bd 0b45 79bd
00000080: d160 d63d 530b feba 2763 c83d 0d92 ccbb
00000090: 3f83 8fbd 0871 8fbd 9ba4 cf3d b7a6 ae3d
000000a0: f75d 6c3d e5d7 2dbd 6f75 483d 7562 2fbd
000000b0: 1078 073d 4da6 9fbd 4648 b1bc 3f68 b33d
000000c0: e563 acbd 4084 a13d 9564 10bd 1827 6fbd
000000d0: 4c69 403d ecca 84bd 574f 1abb fd5c 8a3c
000000e0: 18d6 97bd 70da 3f3c 1148 56bd 13ff 2a3d
000000f0: 5006 b6bc a5d6 503d 70f0 60bd 2d13 233d
00000100: f667 a2bc 581f 6e3d 36cb 273d f841 be3d
00000110: 8931 1c3c d0ce 3d3d 9bd7 25bc ddea 0ebc
00000120: e55a a43d c8e2 58bb 0b75 8fbd aa90 13bd
00000130: dbfe 0f3d 366b 763d e4e6 363c 0898 fd3c
00000140: c99a c23a c179 4a3d e09b b13d 985a 0fbd
00000150: 1494 a53d 6de4 89bd 2cc9 8e3d e5e9 933d
00000160: daad a8bd 5f93 10bd 23a3 f03b 01e1 0d3c
00000170: aeff 9d3c 164b 98bd 56e0 263d 3207 1ebd
00000180: 84db fd3c 7995 6bbd c135 c1bd 0eab 2cbc
00000190: 3328 9f3a 82f3 d33c c28a 3f3d 4e24 633c
000001a0: f5be d33c 7b2f a23d 43ae 563d 18dc 853c
000001b0: 3f5a 6d3d 9825 57bd 5e2c bf3c b685 7e3d
000001c0: 3047 8abc 2e97 8a3d 5d6f a1bd cc75 d93d
000001d0: a6de 72bd 78b1 66bc 3cc5 2d3d 5c99 5a3d
000001e0: c1d5 0a3d a4cc e53c de38 e1bc 7c2c 14bc
000001f0: bc6c 663d 3237 5b3d 7641 a2bd 7f6c d73b

encoder.0.weight f4 [128, 256]
0.03220395 -0.02758614 -0.012116343 0.029335558 -0.058839805 0.03748233 -0.012857832 0.031796493
0.008688562 -0.0076527596 0.017335057 0.0030832365 0.022826761 -0.024356313 -0.0045567974 -0.0056267083
0.009058997 -0.0002496764 0.05463542 0.019449383 -0.02327539 -0.037747584 -0.010475978 -0.026958793
-0.020028032 0.0029926002 0.037257984 0.03397104 -0.06109693 0.03874503 0.017460242 0.059284717
0.041253738 -0.056946106 -0.059425525 -0.030145757 0.054881983 -0.010410562 0.026747465 -0.029044464
0.061326124 -0.026443653 0.0468703 0.0007401034 -0.03292609 0.032125928 -0.03317626 0.018381543
-0.018047325 -0.00685215 -0.060086757 -0.029798858 0.033914626 -0.01519233 0.062253095 0.050099276
-0.0029264763 -0.041717693 0.038060136 0.019397318 -0.040401235 0.040596537 0.037943862 0.055430934
-0.035034977 -0.010287873 -0.0012107417 0.009128593 -0.047432393 -0.0443514 0.034000285 -0.0146557465
0.030529588 0.003563121 0.020521551 0.013743043 0.022724964 0.03098192 -0.057882003 0.031459466
-0.0439452 -0.04715681 0.0038008988 -0.0106504485 0.03670775 -0.03619598 -0.05556137 0.04548555
-0.009267613 0.035153575 0.020092785 -0.046867207 0.012556143 0.015012287 -0.041847415 -0.029654518
0.021310978 0.01119516 -0.026585788 -0.018919744 0.05724267 -0.01156383 0.035236977 0.0270627
-0.040400445 -0.053151846 0.059993044 0.003263548 0.04284113 0.012951963 0.02010142 0.046684913
0.059263416 -0.041473813 0.0078143105 0.04664108 0.045277193 0.038827404 -0.04523243 -0.045006514
-0.037798226 0.007851772 0.062291555 -0.039479725 0.033305056 -0.03459301 -0.05876348 -0.01328373
0.036010683 0.05802343 -0.038814925 0.013563201 0.053928763 0.041415848 0.03895144 0.044414535
0.039532274 0.016143523 -0.042738758 -0.052484907 -0.028638788 -0.0072778687 -0.038309515 0.022865854
0.019342989 -0.0141522065 0.024021298 0.020199046 0.038158685 0.04209023 -0.021165796 0.0610641
-0.0072254837 -0.0021472499 -0.058992505 -0.040226012 -0.036512718 -0.026732683 0.044435598 -0.020423815
-0.046705075 0.024046868 0.020010598 0.040480666 -0.03234201 0.013550937 -0.022753164 -0.014042169
-0.0498074 -0.02848506 -0.019141108 0.026727207 0.011418089 0.015438527 0.062381573 0.06091422
0.042627946 0.0019902214 -0.043236963 0.048844352 -0.015628964 -0.0050528347 -0.053843684 -0.012345538
-0.04031174 0.057431623 -0.054032564 -0.04871767 -0.002122268 -0.033794716 0.02236323 -0.02405785
-0.029355474 0.0035398528 0.04524362 -0.043963984 0.029350393 0.040152587 0.061137326 -0.04374568
0.015136868 -0.04621418 0.05335939 -0.024244145 0.037647046 0.0018607154 -0.0048676655 -0.0019942373
0.010624655 0.029462256 0.010023743 0.019065931 -0.056220293 0.04553359 0.054491498 0.051662862
0.046201415 -0.045101963 -0.02316875 0.055107832 -0.04760366 0.056701325 -0.049156003 -0.044025533
0.030554876 -0.044905566 -0.014318794 0.04546824 0.049505554 0.059109733 -0.012682341 -0.0485788
0.061538182 -0.013314135 -0.025714695 0.015235864 -0.04370778 0.041080013 0.039170794 -0.049592577
-0.051335774 -0.005474776 0.026251592 -0.0018101335 -0.03169235 0.0014289021 -0.058745764 -0.044172563
-0.041605584 0.051470645 0.055094115 -0.02122917 0.0028031468 0.02787362 0.007488586 -0.031297036
00000000: 4ae8 033d 54fc e1bc a083 46bc 2051 f03c
00000010: 0202 71bd 1287 193d a8a9 52bc 0a3d 023d
00000020: 785a 0e3c 00c4 fabb 4002 8e3c 2010 4a3b
00000030: 30ff ba3c e486 c7bc 3051 95bb 4060 b8bb
00000040: 306c 143c 00e7 82b9 64c9 5f3d 5054 9f3c
00000050: 08ac bebc 369d 1abd 70a3 2bbc b0d8 dcbc
00000060: d411 a4bc 801f 443b d49b 183d 3825 0b3d
00000070: c640 7abd 1cb3 1e3d c808 8f3c 88d4 723d
00000080: aef9 283d 5240 69bd 2e68 73bd 3cf4 f6bc
00000090: eecb 603d 1091 2abc 801d db3c a8ee edbc
000000a0: 1a31 7b3d 5ca0 d8bc 12fb 3f3d 8003 423a
000000b0: 82dd 06bd 7a96 033d d4e3 07bd e494 963c
000000c0: fcd7 93bc 0088 e0bb 881d 76bd bc1c f4bc
000000d0: 10ea 0a3d 40e9 78bc 1afd 7e3d e634 4d3d
000000e0: 20ca 3fbb 2ce0 2abd f2e4 1b3d 20e7 9e3c
000000f0: c47b 25bd 8e48 263d 066b 1b3d 8c0b 633d
00000100: d680 0fbd 788e 28bc c0b1 9eba 1890 153c
00000110: 7848 42bd d0a9 35bd e243 0b3d a81e 70bc
00000120: 3019 fa3c 4083 693b d01c a83c 802a 613c
00000130: b429 ba3c cccd fd3c ae15 6dbd a4db 003d
00000140: e2ff 33bd 8027 41bd 8018 793b 387f 2ebc
00000150: de5a 163d 3c42 14bd 5294 63bd 0e4f 3a3d
00000160: 30d7 17bc 32fd 0f3d a099 a43c d4f7 3fbd
00000170: 48b8 4d3c 18f6 753c 3268 2bbd 08ee f2bc
00000180: 5c94 ae3c e86b 373c 70ca d9bc 94fd 9abc
00000190: 4a77 6a3d 3876 3dbc a654 103d 98b2 dd3c
000001a0: f07a 25bd c0b5 59bd 44bb 753d 40e1 553b
000001b0: 2e7a 2f3d 7834 543c bcab a43c ae38 3f3d
000001c0: 32be 723d 72e0 29bd 9807 003c b80a 3f3d
000001d0: 9474 393d 7c09 1f3d a445 39bd c058 38bd
000001e0: 50d2 1abd b8a4 003c 6e25 7f3d 7eb5 21bd
000001f0: e26a 083d 66b1 0dbd fab1 70bd 00a4 59bc
00000200: f07f 133d faa9 6d3d 66fc 1ebd 3038 5e3c
00000210: 68e4 5c3d aaa3 293d 8c8b 1f3d 04ec 353d
00000220: 98ec 213d 6c3f 843c d60e 2fbd 6afa 56bd
00000230: e49b eabc 307b eebb 70ea 1cbd 2c51 bb3c
00000240: 3075 9e3c a8de 67bc 50c8 c43c 7878 a53c
00000250: 484c 1c3d ce66 2c3d e463 adbc 5a1e 7a3d
00000260: c0c3 ecbb e0b8 0cbb 20a2 71bd 08c4 24bd
00000270: 5c8e 15bd 80fe dabc 1a02 363d d84f a7bc
00000280: d24d 3fbd f0fd c43c 44ed a33c 0ecf 253d
00000290: 0e79 04bd c004 5e3c d864 babc 2011 66bc
000002a0: d802 4cbd 8059 e9bc d0cd 9cbc 04f3 da3c
000002b0: f012 3b3c e0f1 7c3c d283 7f3d 3081 793d
000002c0: a49a 2e3d 606e 023b 3e19 31bd 0411 483d
000002d0: 5008 80bc 4092 a5bb 328b 5cbd f044 4abc
000002e0: ec1d 25bd 6c3d 6b3d 4051 5dbd 2e8c 47bd
000002f0: c015 0bbb 546c 0abd 1833 b73c f814 c5bc
00000300: e47a f0bc e0fc 673b 6051 393d 9413 34bd
00000310: 3c70 f03c 0a77 243d 226b 7a3d ac2e 33bd
00000320: a000 783c 144b 3dbd 608f 5a3d a89b c6bc
00000330: ca33 1a3d 40e3 f33a f080 9fbb c0b1 02bb
00000340: 0813 2e3c d45a f13c a03a 243c 2830 9c3c
00000350: 4047 66bd 6e81 3a3d 7a32 5f3d 709c 533d
00000360: b23d 3d3d d6bc 38bd 64cc bdbc c0b8 613d
00000370: 0efc 42bd a63f 683d ce57 49bd 1e54 34bd
00000380: 384e fa3c e6ee 37bd 6099 6abc e83c 3a3d
00000390: 56c6 4a3d 0c1d 723d 98c9 4fbc 90fa 46bd
000003a0: 760f 7c3d 8823 5abc a0a7 d2bc d89f 793c
000003b0: ee06 33bd 8443 283d 8e71 203d 9621 4bbd
000003c0: 7645 52bd c065 b3bb 940d d73c 0042 edba
000003d0: d6cf 01bd 004a bb3a 669f 70bd 4aee 34bd
000003e0: 9e6a 2abd e2d2 523d 5eaa 613d cce8 adbc
000003f0: 00b5 373b 3857 e43c d062 f53b 5231 00bd

encoder.0.bias f4 [128]
0.017006852 0.028124206 -0.016274609 0.015504919 0.020036235 0.012289882 -0.058795236 0.022049092
-0.05087897 -0.03274379 -0.028877065 0.055600233 -0.04410223 -0.0078513995 -0.05545275 0.050706968
-0.006006032 0.057659015 -0.025358751 -0.008759119 -0.042538665 0.007370442 -0.026797235 0.0036800578
0.034719154 -0.043768533 0.039357282 0.026778057 0.01055029 0.054430626 0.045965396 -0.0015049651
0.044764563 0.033829093 0.046081387 0.022574782 0.017161004 -0.00039892644 -0.0054377615 0.04167372
0.006181821 0.022663489 0.03304185 -0.032133102 -0.056877024 0.056356557 0.02499009 -0.04671596
0.05962316 -0.053919874 0.042819567 0.00689739 0.034702532 0.053593405 0.0031339377 0.054695256
-0.022603288 -0.014960296 -0.03173233 -0.041600384 -0.010164462 0.025110587 -0.03372448 0.01919812
0.03271939 0.0001789257 0.046246953 0.0136481 0.016800962 0.033091255 -0.06035565 -0.059444204
-0.028176889 0.04552745 -0.034310497 -0.004156612 0.0366375 -0.05280342 -0.05647508 -0.03907772
0.019221924 -0.018872723 -0.0575113 0.051867522 0.0056747273 -0.006181024 -0.03508514 -0.05411099
0.051578112 -0.021005765 -0.055930898 0.031275846 0.043915816 -0.014740847 -0.014806613 0.018792152
0.009542555 -0.052107133 0.017658405 -0.023859255 0.04521434 0.059866905 0.03214944 0.020746559
0.052297622 0.033692487 -0.031971186 0.013761915 -0.024563827 -0.05776518 -0.032000534 -0.037681736
-0.022943057 0.047024652 -0.029824637 0.034475192 -0.004205562 0.0065062046 0.019267075 -0.0065392777
0.019234195 -0.037588857 0.021257594 -0.024473935 -0.016793832 0.0071744323 0.029204078 0.032886215
00000000: f451 8b3c bc64 e63c 5452 85bc 5808 7e3c
00000010: 0823 a43c 805b 493c 46d3 70bd 4ca0 b43c
00000020: 7866 50bd 5a1e 06bd 988f ecbc 12bd 633d
00000030: 8aa4 34bd 28a3 00bc 6c22 63bd 1cb2 4f3d
00000040: 40ce c4bb dc2b 6c3d 28bd cfbc 6882 0fbc
00000050: 063d 2ebd c083 f13b e085 dbbc 202d 713b
00000060: ac35 0e3d a246 33bd 1a35 213d a85d db3c
00000070: 20db 2c3c a6f2 5e3d 3646 3c3d 4042 c5ba
00000080: 0c5b 373d 6090 0a3d d6bf 3c3d c0ee b83c
00000090: 3c95 8c3c 0027 d1b9 402f b2bb 10b2 2a3d
000000a0: e090 ca3b c8a8 b93c e456 073d 009e 03bd
000000b0: e2f7 68bd 22d6 663d 04b8 cc3c 3c59 3fbd
000000c0: 6a37 743d 16db 5cbd 9263 2f3d 8003 e23b
000000d0: 3e24 0e3d c284 5b3d c062 4d3b 2208 603d
000000e0: 882a b9bc 081c 75bc c2f9 01bd 2a65 2abd
000000f0: d888 26bc b8b4 cd3c ae22 0abd 6045 9d3c
00000100: c404 063d 009e 3b39 726d 3d3d 489c 5f3c
00000110: 2ca2 893c b28a 073d 7c37 77bd c47b 73bd
00000120: 38d3 e6bc fe7a 3a3d 2a89 0cbd 3034 88bb
00000130: 3411 163d 6648 58bd 6a52 67bd f60f 20bd
00000140: 4c77 9d3c f89a 9abc f890 6bbd 0a73 543d
00000150: 10f3 b93b 308a cabb 70b5 0fbd 7ca3 5dbd
00000160: 9243 533d 4814 acbc cc17 65bd 1a1b 003d
00000170: 12e1 333d 9883 71bc 7097 72bc 00f2 993c
00000180: 6058 1c3c 4a6e 55bd 5ca8 903c 7c74 c3bc
00000190: ac32 393d 0037 753d 22af 033d b0f4 a93c
000001a0: 0836 563d 2201 0a3d 38f4 02bd a879 613c
000001b0: 143a c9bc 2e9b 6cbd fe12 03bd 2a58 1abd
000001c0: 14f3 bbbc ec9c 403d cc52 f4bc dc35 0d3d
000001d0: d0ce 89bb 0032 d53b fcd5 9d3c 7047 d6bb
000001e0: 0891 9d3c c6f6 19bd 6824 ae3c 907d c8bc
000001f0: 3893 89bc 8017 eb3b 643d ef3c b2b3 063d

encoder.2.weight f4 [128, 128]
-0.06647034 -0.062786594 0.041608434 0.0793628 -0.021775916 -0.02904197 -0.05873023 0.060608853
0.062361255 0.07943374 0.06594613 -0.058940522 0.06646492 -0.002784716 0.082373105 0.021143883
0.07140411 -0.014930521 -0.07810183 0.026751488 0.053035792 0.07490289 0.020174315 0.052171424
0.07095188 -0.025297856 -0.046235945 -0.074332476 0.064830475 0.08391593 0.07624708 0.045704823
0.0034546717 -0.06366981 0.019807806 0.021348538 -0.027231857 -0.02954573 0.046074923 -0.03509881
-0.05007293 0.05808531 -0.031787436 -0.020419095 0.07032726 -0.06091446 0.04574425 0.0036232907
0.016644128 0.027449515 -0.0065136477 -0.022200104 -0.028177517 -0.06794477 0.050151788 -0.06177358
-0.04123066 0.0054724733 -0.008517404 0.08117813 -0.017651131 -0.0022472383 0.020461442 0.0861171
-0.060808975 -0.026805712 -0.022609202 0.07957207 0.07562495 0.038248707 -0.05359918 0.07232817
-0.016487436 -0.052246224 -0.05852878 -0.04786819 -0.06828259 0.039469186 0.05339999 -0.031417158
0.0057904604 0.0118339285 0.007744873 0.03652015 -0.011835183 -0.0791648 -0.07977905 0.060810074
-0.027266756 0.04581254 0.053750772 -0.034329146 -0.024476087 -0.0049310233 -0.078875475 0.042677563
0.08812766 -0.065745056 0.05485702 -0.080793925 0.05657466 0.02696255 -0.008623035 0.075650126
-0.0556749 0.046368204 0.056646038 0.08624091 -0.010579713 -0.07210737 -0.0013725859 0.08646367
0.024584604 0.013393941 0.028363712 -0.0848708 -0.02027314 0.08648509 0.029888574 -0.046299607
0.048270985 -0.03759049 -0.063116945 -0.02393468 0.023128588 -0.045311518 0.03691689 -0.030465659
0.038786963 0.00523231 0.02150287 -0.017253086 0.022214254 -0.046894774 0.0340477 -0.06116424
0.04517748 0.04905044 0.016645275 -0.00026658934 -0.059324153 -0.029928098 -0.06390619 0.07149038
-0.028942082 0.07110049 -0.018806377 -0.0009840236 -0.0661309 -0.00980106 -0.0060173688 0.020760369
-0.0126310205 0.051547606 -0.01784367 -0.03302193 0.07323468 0.037875675 -0.06549404 -0.03922941
0.033339307 -0.041530967 0.082558036 0.082028575 0.04590425 0.05775825 -0.08404175 0.037482318
0.0703355 -0.058164116 0.040041033 -0.042381607 0.009122 0.08785197 -0.007230376 0.08158615
-0.07525343 0.061230067 0.06959316 0.035146352 -0.007045288 -0.009655674 0.06538157 -0.051774904
0.07543486 0.039226145 0.025438983 -0.016738579 -0.037631392 0.057527013 0.07534701 0.0019360787
0.01982102 0.053578507 -0.036656905 -0.08548289 0.04354918 -0.061986003 -0.08724996 -0.025301974
-0.08832441 -0.07146943 -0.087573975 0.06447987 0.046269633 -0.06330551 0.011025067 0.020684471
0.02612957 -0.013983797 -0.029080408 -0.076122425 0.073307686 0.03465397 0.0789136 0.024703057
-0.0016539898 -0.01400642 0.01772923 -0.036815368 -0.07924187 0.07110972 -0.02553156 0.085320264
0.08309272 0.007137084 0.026599698 0.033226173 -0.018345479 0.07474477 -0.0055505503 0.05354131
0.0022702927 -0.030439245 -0.0744009 0.006956896 0.0104517015 0.057581812 -0.036837924 0.06416631
0.08567566 0.036394805 0.07903928 -0.07764266 -0.069408484 0.02149465 -0.085515894 0.018880596
0.022841811 0.039317627 -0.061103225 -0.014890702 0.08076372 0.08331344 0.07187713 0.044171162
00000000: 9a21 88bd 4296 80bd 9b6d 2a3d f788 a23d
00000010: 6863 b2bc 6de9 edbc 1c8f 70bd fd40 783d
00000020: 846e 7f3d 28ae a23d c40e 873d 9e6b 71bd
00000030: c31e 883d c87f 36bb 3bb3 a83d f035 ad3c
00000040: 513c 923d 259f 74bc daf3 9fbd f025 db3c
00000050: 0f3c 593d b066 993d 9b44 a53c b4b1 553d
00000060: 384f 913d 733d cfbc e761 3dbd a03b 98bd
00000070: d7c5 843d 1ddc ab3d 6e27 9c3d fb34 3b3d
00000080: c667 623b 5165 82bd fb43 a23c 21e3 ae3c
00000090: 5815 dfbc e309 f2bc 0fb9 3c3d c5c3 0fbd
000000a0: 4619 4dbd ddea 6d3d 8b33 02bd f245 a7bc
000000b0: bd07 903d 7181 79bd 535e 3b3d bb74 6d3b
000000c0: 4459 883c cedd e03c 7070 d5bb fedc b5bc
000000d0: 89d4 e6bc a126 8bbd f66b 4d3d 4b06 7dbd
000000e0: 7be1 28bd 6f52 b33b 958c 0bbc b840 a63d
000000f0: 1b99 90bc 6746 13bb c19e a73c 2a5e b03d
00000100: d512 79bd a797 dbbc ef36 b9bc aef6 a23d
00000110: 41e1 9a3d adaa 1c3d d08a 5bbd cb20 943d
00000120: a910 87bc 2300 56bd e0bb 6fbd 6f11 44bd
00000130: bed7 8bbd 71aa 213d f3b9 5a3d 47af 00bd
00000140: e7bd bd3b 18e3 413c b4c8 fd3b 2796 153d
00000150: 5be8 41bc 2821 a2bd 3363 a3bd fc13 793d
00000160: 885e dfbc eea5 3b3d c529 5c3d b89c 0cbd
00000170: 1382 c8bc 6c94 a1bb 7789 a1bd abce 2e3d
00000180: 467c b43d 58a5 86bd c1b1 603d 4977 a5bd
00000190: d5ba 673d 91e0 dc3c a147 0dbc 74ee 9a3d
000001a0: 5d0b 64bd 96ec 3d3d ad05 683d 139f b03d
000001b0: 8856 2dbc 07ad 93bd 57e8 b3ba dd13 b13d
000001c0: a765 c93c 4372 5b3c 045b e83c bed0 adbd
000001d0: db13 a6bc 181f b13d e2d8 f43c a8a4 3dbd
000001e0: ccb7 453d 7cf8 19bd 7543 81bd a912 c4bc
000001f0: 2a78 bd3c 9298 39bd 2a36 173d 1e93 f9bc
00000200: 14df 1e3d cc73 ab3b c926 b03c 5856 8dbc
00000210: abfa b53c bc14 40bd 9a75 0b3d 5b87 7abd
00000220: 050c 393d 1de9 483d ac5b 883c 04c5 8bb9
00000230: e2fd 72bd c52b f5bc 40e1 82bd 8c69 923d
00000240: f217 edbc 229d 913d d50f 9abc 5afa 80ba
00000250: a36f 87bd a094 20bc 592d c5bb a611 aa3c
00000260: 57f2 4ebc 9523 533d e32c 92bc 0142 07bd
00000270: 10fc 953d 8623 1b3d bd21 86bd 05af 20bd
00000280: cc8e 083d 601c 2abd 3014 a93d 99fe a73d
00000290: 1806 3c3d ea93 6c3d 151e acbd 0f87 193d
000002a0: 0f0c 903d 7f3d 6ebd 1102 243d 5698 2dbd
000002b0: 7174 153c bceb b33d caec ecbb a416 a73d
000002c0: 781e 9abd 61cc 7a3d dc86 8e3d 9ff5 0f3d
000002d0: 29dc e6bb d532 1ebc c6e6 853d ec11 54bd
000002e0: 987d 9a3d 98ab 203d 6a65 d03c 581f 89bc
000002f0: 6023 1abd 72a1 6b3d 884f 9a3d 05c4 fd3a
00000300: b15f a23c 2375 5b3d 8d25 16bd a711 afbd
00000310: a060 323d 09e5 7dbd 1bb0 b2bd 1646 cfbc
00000320: 6ee3 b4bd 915e 92bd fc59 b3bd 060e 843d
00000330: 3a85 3d3d 52a6 81bd 7ca2 343c 7b72 a93c
00000340: ae0d d63c 4c1c 65bc 093a eebc 13e6 9bbd
00000350: 5722 963d 52f1 0d3d 749d a13d 115e ca3c
00000360: b0ca d8ba 2f7b 65bc e43c 913c b6cb 16bd
00000370: 9049 a2bd f9a1 913d 9027 d1bc 64bc ae3d
00000380: 842c aa3d 33de e93b 9ce7 d93c 2b18 083d
00000390: 4249 96bc c913 993d 64e1 b5bb 224e 5b3d
000003a0: 31c9 143b b95b f9bc 805f 98bd acf6 e33b
000003b0: 9d3d 2b3c e8da 6b3d 5de3 16bd a069 833d
000003c0: b876 af3d b812 153d 59df a13d 1d03 9fbd
000003d0: 0926 8ebd 8c15 b03c f522 afbd 7bab 9a3c
000003e0: c01e bb3c 850b 213d 6047 7abd 22f8 73bc
000003f0: 7367 a53d 3da0 aa3d 5134 933d d2ec 343d
