checkpoints/pc/seed4/final.pt (torch, 400859 bytes, 7 tensors)

fc1.weight f4 [256, 256]
0	0x3cf7fd74	0.030272223
1	0x3d1123ea	0.03543464
2	0x3d3123f5	0.043247182
3	0xbd53e6f9	-0.051733945
4	0xbc62e4da	-0.013848508
5	0xbc30f8bf	-0.010801493
6	0xbd722ad5	-0.05912288
7	0xbd271927	-0.04079547
8	0xbd851ee7	-0.06500035
9	0xbc00b302	-0.007855179
10	0xbd31b7b1	-0.043388072
11	0x3bfa2382	0.0076336274
12	0x3cab5374	0.020913817
13	0xbce41bff	-0.02784538
14	0xbad16586	-0.0015975691
15	0x3b444d2d	0.0029953227
16	0xbd291093	-0.041275572
17	0xbcf6b112	-0.03011373
18	0xbd01322c	-0.03154199
19	0xbd285650	-0.04109794
20	0xbc8cb797	-0.017177386
21	0x3d1e8343	0.0386994
22	0x3c071f62	0.008247228
23	0x3d4c50d5	0.049881775
24	0x3cdcb227	0.026940418
25	0x3c9c44f4	0.019075848
26	0xb9413b01	-0.00018427895
27	0x3c1adab7	0.00945156
28	0xbca3c38b	-0.019990703
29	0xbc8725d7	-0.016497536
30	0x3d583f4f	0.05279475
31	0x3d252d88	0.040326625
32	0xbcaf7b74	-0.021421172
33	0xbcf12340	-0.029435754
34	0x3d1209e3	0.03565396
35	0xbd0d6453	-0.034519505
36	0xbd814b81	-0.06313229
37	0xbccbe456	-0.024889152
38	0xbceb9daf	-0.028761713
39	0xbc84d332	-0.016213987
40	0xbbd92729	-0.0066269827
41	0xbd100fe7	-0.035171416
42	0x3ca73feb	0.02041622
43	0x3b97d602	0.004633666
44	0x3cda9977	0.026684506
45	0xbd352ef4	-0.04423423
46	0xbc185ca1	-0.009299428
47	0xbd229679	-0.039694283
48	0x3ceccf71	0.02890751
49	0xbcc9b72a	-0.024623472
50	0x3d37e05a	0.044891693
51	0x3d32a911	0.043618266
52	0xbb71843e	-0.0036852504
53	0xbce94b87	-0.028478397
54	0xbbc4ef72	-0.0060099894
55	0xbca763f8	-0.020433411
56	0x3c4537d5	0.012037237
57	0xbd336c2e	-0.04380434
58	0xbb66a792	-0.0035195095
59	0xbd6155e2	-0.055013545
60	0xbd2ab450	-0.041675866
61	0xbc8a6f70	-0.01689884
62	0xbd3f6a14	-0.046732023
63	0x3c2bde39	0.010489994
64	0xbd4eb702	-0.0504675
65	0xbcbc7c02	-0.02300835
66	0xbade47cf	-0.0016958656
67	0x3d2578a6	0.040398262
68	0xbc3a01c0	-0.011352956
69	0x3d15ab78	0.03654048
70	0xbcfd4938	-0.030918702
71	0xbca62386	-0.02028061
72	0xbc6f84ff	-0.014619111
73	0xbcf85f32	-0.03031883
74	0x3d68b7bc	0.056815848
75	0x3d04e4c0	0.032444715
76	0x3c999bda	0.018751074
77	0x3d22bdf0	0.03973192
78	0xbcdd222a	-0.02699383
79	0xbd42caac	-0.047556564
80	0x3c662d7f	0.014048933
81	0xbca72c9a	-0.02040701
82	0x3ba6371a	0.0050724866
83	0xbbc89d05	-0.006122234
84	0x3d254cb0	0.040356338
85	0x3ca93daa	0.020659287
86	0x3d142ed8	0.036177486
87	0x3c1a7ba9	0.009428897
88	0x3d17b714	0.03703983
89	0xbcb2b1aa	-0.021813232
90	0x3c984ef2	0.018592332
91	0x3cb06d4a	0.021536488
92	0xbc37fda0	-0.0112299025
93	0x3d276c24	0.040874615
94	0xbd0f2950	-0.034951508
95	0xbca30f39	-0.01990472
96	0xbcbeffca	-0.02331533
97	0xbc29c5d8	-0.010362111
98	0x3bdb8649	0.0066993576
99	0xbb227f2a	-0.0024795034
100	0xbb265d4a	-0.0025385194
101	0xbba4bde7	-0.005027521
102	0xbcc22482	-0.023699049
103	0x3d55a592	0.052159853
104	0xbc731ea7	-0.014838851
105	0x3d46233a	0.04837344
106	0xbd13f402	-0.036121376
107	0xbd01215b	-0.03152595
108	0x3c272e51	0.010203914
109	0xbd6be9ba	-0.057595946
110	0xbd2ca6a2	-0.0421511
111	0xbd0a9225	-0.03383078
112	0xbc19ca27	-0.009386576
113	0x3d2abd1e	0.041684262
114	0xbcbfd8d0	-0.023418814
115	0xbc2b3e21	-0.010451824
116	0x3d2817c0	0.041038275
117	0xbbb08b07	-0.005387667
118	0xbd7be6cc	-0.061499402
119	0xbd81c6c4	-0.0633674
120	0x3d0dd548	0.03462723
121	0xbd5f3408	-0.05449298
122	0x3d651f90	0.055938303
123	0x3c93da00	0.018048286
124	0x3b93a13a	0.0045053037
125	0xbb06bb89	-0.0020558557
126	0x3c92e2b6	0.01793037
127	0xbcd3695a	-0.025807071
128	0xbb09dc80	-0.002103597
129	0xbcd2d7f0	-0.025737733
130	0xbcabdab4	-0.02097831
131	0x3caa07a5	0.020755598
132	0x3c00e460	0.007866949
133	0x3d1441d7	0.036195602
134	0xbcbef972	-0.023312304
135	0xbd303ef8	-0.0430288
136	0xbcc5e514	-0.024157085
137	0x3c88fa87	0.016721023
138	0xbd1dbaef	-0.038508352
139	0x3c2486a7	0.010041869
140	0x3d09cfc2	0.0336454
141	0x3d25e9f5	0.040506322
142	0xbd16f72d	-0.03685682
143	0x3d1c064b	0.03809194
144	0x3bf8d079	0.0075932113
145	0x3c95d609	0.018290536
146	0xbd7fd25c	-0.062456474
147	0x3a44a836	0.0007501872
148	0x3d03f45b	0.032215457
149	0x3c1e6d14	0.009669561
150	0xbd540a3f	-0.051767584
151	0x3c6c271f	0.014413624
152	0xbc7f8330	-0.015595242
153	0xbd0236a0	-0.031790376
154	0xbd3940b2	-0.045227714
155	0x3c433934	0.011915494
156	0xbcd2e897	-0.025745673
157	0x3c97e738	0.01854287
158	0xbcc7a7a0	-0.024371922
159	0xbd78ad89	-0.06071237
160	0xbc3bb4c0	-0.011456668
161	0xbd7b323d	-0.061327208
162	0xbd2f6d59	-0.04282889
163	0x3c6b15bc	0.014348444
164	0x3d646801	0.05576325
165	0x3d02e0cb	0.03195266
166	0xbbd2030c	-0.0064090546
167	0x3cd080cf	0.025452046
168	0xbc935cf8	-0.017988667
169	0xbb4234c0	-0.0029633492
170	0x3d298fd3	0.041396927
171	0x3d662ff5	0.05619808
172	0xbcfe7694	-0.031062402
173	0x3d5912ef	0.052996572
174	0x3d31e08c	0.043427035
175	0xbcc4781e	-0.023983058
176	0x3ac1bf00	0.0014781654
177	0xbd1309b6	-0.035897933
178	0x3c07bc00	0.008284569
179	0xbd0a9c4e	-0.03384047
180	0x3d5fdd82	0.054654606
181	0x3d34936b	0.0440859
182	0x3d35db1c	0.044398412
183	0x3cc20dad	0.023688162
184	0x3c958a4c	0.018254422
185	0xbd6c6276	-0.057711087
186	0xbd7d3b4a	-0.06182412
187	0xbd490e84	-0.04908611
188	0x3ce4c6b6	0.027926784
189	0xbd5364a8	-0.051609665
190	0xbd0c8a77	-0.034311738
191	0xbd502537	-0.05081674
192	0xbd17c2f8	-0.03705117
193	0xbd10da5c	-0.035364494
194	0xbd18d0b1	-0.0373084
195	0xbd02c472	-0.031925626
196	0xb8a7d800	-8.003414e-05
197	0x3d34541c	0.044025525
198	0xbd10cb8a	-0.03535036
199	0x3cfd952a	0.030954916
200	0xbd4fd609	-0.05074123
201	0xbd637100	-0.055527687
202	0xbcf456f8	-0.029826626
203	0x3d4af4b0	0.04954976
204	0xbc072100	-0.008247614
205	0x3d0bdfc8	0.03414896
206	0x3d5636ac	0.052298233
207	0x3d2e39ac	0.04253547
208	0x3c8b6c30	0.017019361
209	0x3d7b83ba	0.06140492
210	0xbc382ad0	-0.011240676
211	0x3d595d28	0.053067356
212	0xbd249c32	-0.040188022
213	0xbcd929f0	-0.026509255
214	0x3cc5a7b0	0.024127811
215	0xbbf350a0	-0.0074253827
216	0x3d65b38f	0.056079444
217	0x3d522ad2	0.051310368
218	0x3cc960dc	0.024582319
219	0x3d054423	0.032535683
220	0x3d55146a	0.05202142
221	0xbc1ae028	-0.009452857
222	0x3c189ac0	0.009314239
223	0x3ce3b698	0.027797028
224	0xbcb39f88	-0.021926656
225	0x3d547f52	0.051879235
226	0xbd68ccfa	-0.056836106
227	0x3d6e8c8e	0.058239512
228	0x3cb53384	0.022119291
229	0xbd0e2748	-0.03470543
230	0x3d0e744e	0.034778886
231	0x3d657616	0.05602082
232	0xbd3a7b46	-0.04552772
233	0xbc07c338	-0.00828629
234	0xbd6782d6	-0.05652126
235	0xbd75a4b0	-0.05997151
236	0x3cba89f8	0.022770867
237	0xbcd8985c	-0.026439838
238	0x3ad5c9d5	0.0016310761
239	0x3cf7a128	0.030228212
240	0x3c0a5ff9	0.008445733
241	0x3c653a00	0.013990879
242	0xbcc0d5f0	-0.023539513
243	0x3d10b419	0.035328005
244	0xbb2a12ad	-0.0025951073
245	0xbd182e21	-0.037153367
246	0xbd152590	-0.036412776
247	0xbc1fbf28	-0.009750165
248	0x3a0d4280	0.00053886324
249	0x3cc961a4	0.024582691
250	0xbb9ae9c0	-0.004727572
251	0xbb687c78	-0.003547458
252	0xbd72b783	-0.05925704
253	0x3d6492f0	0.055804193
254	0x3d62c1b6	0.05536052
255	0xbd2f43d9	-0.042789314

fc1.bias f4 [256]
0	0x3d56c5bb	0.052434664
1	0x3d2d53cd	0.042316247
2	0xbd065807	-0.032798793
3	0x3d079362	0.03309954
4	0xbd4aa8fd	-0.049477566
5	0x3b856a99	0.0040715453
6	0x3d74a72f	0.05972975
7	0xbd65f6ea	-0.05614368
8	0x3d24c238	0.040224284
9	0xbd0639fa	-0.032770135
10	0xbc941115	-0.018074552
11	0xbce35aba	-0.027753223
12	0x3ca6dc76	0.020368796
13	0xbce2fec0	-0.027709365
14	0xbb1b93d5	-0.0023739238
15	0x3d843c13	0.06456771
16	0xbd3a80df	-0.045533057
17	0xbd7c513a	-0.0616009
18	0xbd012096	-0.031525217
19	0x3be05930	0.0068465695
20	0x3d78e095	0.060761053
21	0xbd18de62	-0.037321456
22	0xbd57a744	-0.05264975
23	0xbd625933	-0.05526085
24	0xbd890057	-0.06689518
25	0x3d5637e0	0.05229938
26	0x3d42fa57	0.047602024
27	0xbc50b4d8	-0.012738429
28	0x3c10d623	0.008840117
29	0xbd1b31b1	-0.037889186
30	0xbc6d3714	-0.014478464
31	0x3d110bfb	0.035411816
32	0xbd6a7b98	-0.057246774
33	0x3ca62470	0.020281047
34	0x3d2c38c8	0.04204634
35	0xbcb8ba9d	-0.022549922
36	0xbd4d34fa	-0.05009935
37	0x3cf47142	0.029839162
38	0x3d4cbf0e	0.04998689
39	0xbc955e2e	-0.018233385
40	0xbd0a022c	-0.033693478
41	0x3d82ec2b	0.06392702
42	0x3d8cc600	0.06873703
43	0xbd333540	-0.043751955
44	0xbc2bf1f4	-0.010494698
45	0x3d76295a	0.06009803
46	0xbc45687d	-0.012048838
47	0x3cfa4069	0.030548291
48	0x3d1f80ce	0.038941197
49	0xbbac6b91	-0.0052618464
50	0xbce655cc	-0.028117083
51	0x3d6df14e	0.058091454
52	0xbb7e0446	-0.0038759871
53	0xbca3cb4e	-0.019994404
54	0xbd05d00c	-0.032669112
55	0xbbe463ec	-0.0069699194
56	0x3ce94a95	0.028477946
57	0x3ad23104	0.0016036336
58	0x3d2ec9fc	0.042673096
59	0xbcddd55e	-0.02707928
60	0xbcaa9dce	-0.0208272
61	0xbc3243d8	-0.010880433
62	0xbce54ffe	-0.027992245
63	0x3ccdd3c7	0.025125397
64	0x3bd565df	0.006512388
65	0xbd2a95fe	-0.04164695
66	0x3c5d500e	0.013507856
67	0x3d202cf0	0.039105356
68	0xbd3fc09c	-0.046814546
69	0x3c7b6ead	0.015346211
70	0xbd75ce6c	-0.060011312
71	0x3c8bd781	0.017070534
72	0x3ca143dd	0.01968568
73	0xbcc5bc02	-0.0241375
74	0xbd0b0cbb	-0.033947688
75	0xbbb7a705	-0.005604627
76	0xbd6052e8	-0.054766566
77	0x3a38a2fb	0.0007043329
78	0xbd2a090d	-0.041512538
79	0xbc99fcb2	-0.018797252
80	0xbd2575af	-0.040395435
81	0xbd4cd345	-0.05000617
82	0x3c81822c	0.015809141
83	0xbc8773cf	-0.016534714
84	0xbd106cac	-0.035259888
85	0x3c0491e3	0.008091423
86	0x3cd46fa2	0.025932137
87	0x3c59c3c8	0.013291307
88	0xbd39787c	-0.04528092
89	0x3cfb6b42	0.030690793
90	0xbd3f0561	-0.04663599
91	0x3d796e92	0.060896464
92	0xbd2bb877	-0.041923966
93	0xbd724692	-0.059149332
94	0x3cd5ac75	0.02608321
95	0x3cf98cd6	0.030462664
96	0x3d0d4cb0	0.034496963
97	0xbc890502	-0.01672602
98	0x3d50fbd1	0.0510214
99	0x3cada41e	0.021196421
100	0xbd78da3e	-0.060755007
101	0xbd5452de	-0.05183684
102	0x3d7c560b	0.061605494
103	0x3c495ff8	0.012290947
104	0x3c9f9508	0.019480243
105	0xbce0f5ec	-0.027461015
106	0xbd5dd9d8	-0.05416283
107	0x3ccadb38	0.024762735
108	0x3d3b2fa5	0.045699734
109	0xbc811be0	-0.015760362
110	0xbc188fa3	-0.009311589
111	0xbbf57825	-0.007491129
112	0x3ba6b006	0.0050869016
113	0xbd21820c	-0.039430663
114	0xbc2e2ba7	-0.010630525
115	0x3d1b2067	0.0378727
116	0xbcdf85fb	-0.027285567
117	0xbc87330c	-0.016503833
118	0x3d8d0559	0.068857856
119	0x3d331e1e	0.043729894
120	0x3d5c734f	0.053820904
121	0xbd29da77	-0.04146811
122	0xbd5f0fce	-0.054458432
123	0xbd5afb8c	-0.05346255
124	0x3d6b9cc9	0.05752257
125	0xbd1fac9a	-0.038982965
126	0x3d88dafb	0.06682392
127	0xbc616aa6	-0.013758337
128	0xbd002fa9	-0.031295452
129	0x3b664147	0.0035134123
130	0xbcc82ffc	-0.024436943
131	0xbd5c0b46	-0.05372169
132	0xbc1fb99e	-0.009748844
133	0xba3fdfe6	-0.0007319435
134	0xbc92b406	-0.017908107
135	0x3d32fa8e	0.04369598
136	0x3cab00d5	0.02087442
137	0xbd848f2b	-0.064726196
138	0xbd480974	-0.04883714
139	0x3d4d8c52	0.050182648
140	0x3cb1b173	0.02169106
141	0xbc5f5cd2	-0.01363297
142	0x3cecc78c	0.028903745
143	0xbc89f3bc	-0.016839854
144	0xbd36b9a1	-0.044610623
145	0xba14c215	-0.00056746724
146	0xbb10670c	-0.0022034077
147	0x3d4d8d61	0.050183658
148	0xbd3293b5	-0.043597896
149	0x3aac195b	0.0013130115
150	0xbc6c9bc8	-0.014441438
151	0xbc66bd52	-0.014083223
152	0xbafd2dce	-0.0019316019
153	0xbd79c8fe	-0.060982697
154	0x3d169604	0.03676416
155	0x3d834e9c	0.06411478
156	0x3d014751	0.031562153
157	0x3a7e495a	0.0009700261
158	0x3d6d9124	0.057999745
159	0x3cc6ab79	0.024251686
160	0xbd39c7fc	-0.045356736
161	0x3d2df0c7	0.04246595
162	0xbc90fc96	-0.017698567
163	0x3d526da0	0.051374078
164	0xbd027df3	-0.031858396
165	0xbd865421	-0.06559015
166	0x3d7d4aee	0.061839037
167	0xbd4c31a7	-0.04985204
168	0xbd231074	-0.039810613
169	0x3bb4e20b	0.0055201105
170	0x3d05f6d5	0.0327061
171	0xbbc168fc	-0.0059024077
172	0xbd14d682	-0.036337383
173	0xbc694ae2	-0.014239045
174	0xba191ea9	-0.00058410555
175	0x3c8cd97d	0.01719355
176	0x3d1ac735	0.037787635
177	0xbd3555ca	-0.044271268
178	0x3b510591	0.0031894187
179	0x3a9fb61b	0.0012185009
180	0x3c45720f	0.0120511195
181	0xbcc6bb48	-0.024259225
182	0x3d219523	0.03944887
183	0xbc954358	-0.018220589
184	0x3d636a29	0.055521164
185	0x3d407d5a	0.046994545
186	0xbc727b38	-0.014799885
187	0xbcf6b38e	-0.030114915
188	0xbd06321d	-0.032762635
189	0xbd823ed6	-0.06359641
190	0x3cd5b678	0.026087984
191	0xbc310f48	-0.010806866
192	0x3bdbcb80	0.0067076087
193	0xbced1588	-0.028940931
194	0xbd493dfd	-0.049131382
195	0x3d14b887	0.03630879
196	0xbb12ee40	-0.002241984
197	0x3d059286	0.03261044
198	0x3c134366	0.008988237
199	0x3cd8a26d	0.026444638
200	0xbd12b200	-0.035814285
201	0x3b2b66bb	0.0026153761
202	0xbce2ea46	-0.0276996
203	0xbce08258	-0.027405903
204	0x3c9fbb60	0.019498527
205	0x3d5aa2ba	0.053377844
206	0x3cbefc78	0.023313746
207	0xbc503f41	-0.012710393
208	0x3d56f74b	0.05248193
209	0x3be6fcc8	0.007049177
210	0xbd0bcd48	-0.03413132
211	0xbd5b928b	-0.05360655
212	0xbc7e8d52	-0.015536623
213	0xbcc7fd6b	-0.024412831
214	0x3d673bd1	0.05645353
215	0x3c2a9422	0.010411294
216	0xbd59d116	-0.053177916
217	0x3bc6d910	0.0060683563
218	0xbcb1cad2	-0.021703158
219	0x3d6ddb4f	0.058070477
220	0xbd5e1faa	-0.054229416
221	0xbd31f217	-0.043443765
222	0xbc77cc45	-0.015124385
223	0x3c0ef499	0.008725309
224	0xbd7a18c6	-0.061058782
225	0xbd207297	-0.03917178
226	0x3d545709	0.051840816
227	0x3c24b8a9	0.010053792
228	0xbc130d15	-0.008975287
229	0xbd70c570	-0.05878204
230	0xbc71b989	-0.014753708
231	0x3d1e8a06	0.03870585
232	0x3d0ff71e	0.03514778
233	0xbd3a90c6	-0.045548223
234	0x3d3c48f9	0.04596803
235	0xbc58e7e8	-0.0132388845
236	0xbc71eebb	-0.01476639
237	0x3d8142d8	0.063115776
238	0xbc5533fe	-0.013012884
239	0xbc1ac525	-0.009446417
240	0x3d39fce7	0.045407202
241	0xbd807b6c	-0.06273541
242	0x3c6c1bc8	0.01441092
243	0x3d56f7a3	0.05248226
244	0x3d6bb578	0.05754611
245	0x3d61a7f8	0.055091828
246	0xbd85aae7	-0.06526738
247	0xbd247168	-0.040147215
248	0xbc95b98a	-0.018276948
249	0x3d318310	0.04333788
250	0xbbc6999f	-0.0060607935
251	0x3c15a79a	0.009134198
252	0x3bd8ec90	0.0066199973
253	0xbd309156	-0.043107353
254	0x3d2bc7bd	0.041938532
255	0xbd486a83	-0.048929702

fc2.weight f4 [128, 256]
0	0xbd36e78a	-0.044654407
1	0x3d0b8e94	0.03407152
2	0xbd4a429c	-0.04937993
3	0x3c203850	0.009779051
4	0xbd197df0	-0.03747362
5	0x3d5dd400	0.054157257
6	0xbc975e74	-0.018477656
7	0x3c1539a8	0.009107985
8	0xbccc79d8	-0.024960443
9	0x3c44f9d0	0.012022451
10	0xbd5b1522	-0.05348695
11	0x3b87d220	0.004144922
12	0x3d440eb4	0.047865584
13	0xbb34ec80	-0.0027606785
14	0x3b656020	0.0034999922
15	0x3d4ca00e	0.049957328
16	0x3d45da58	0.048303932
17	0xbc2cfeb0	-0.010558769
18	0x3d098936	0.03357812
19	0x3c8af8a4	0.016964264
20	0xbd138908	-0.036019355
21	0xbd0c1144	-0.034196153
22	0x3d69715e	0.05699288
23	0x3d1843e2	0.037174113
24	0x3c560ab8	0.013064079
25	0x3cc46618	0.023974463
26	0x3d0c8e1e	0.03431522
27	0x3b1ad120	0.0023623183
28	0x3d4d69d6	0.05014976
29	0xbc373668	-0.011182405
30	0xbc4de240	-0.012566149
31	0xbd251410	-0.040302336
32	0xbcb11c44	-0.021619923
33	0xbc2de020	-0.010612518
34	0xbd4bac94	-0.04972513
35	0xbd7dc57c	-0.061955914
36	0xbb8064e0	-0.0039182752
37	0xbcfbf204	-0.03075505
38	0x3d622ad8	0.05521664
39	0x3cee5680	0.02909398
40	0x3c5a9860	0.013341993
41	0x3d4fdca4	0.05074753
42	0xbb2d63c0	-0.002645716
43	0x3d51b248	0.051195413
44	0x3caa51bc	0.020790927
45	0x3bc5ad10	0.0060325935
46	0x3d1f7010	0.03892523
47	0xbd4d5678	-0.05013129
48	0xbd6c6564	-0.05771388
49	0x3d2d0a6c	0.042246267
50	0xbce1d810	-0.027568847
51	0x3c9ca428	0.019121245
52	0x3ce92cf0	0.02846381
53	0xbc4d29f0	-0.012522206
54	0xbd659914	-0.05605419
55	0xbb940760	-0.0045174807
56	0x3d1ac180	0.037782192
57	0xbd5f6f20	-0.054549336
58	0x3bfe2950	0.0077563897
59	0x3d1f628a	0.038912334
60	0x3c3e0f98	0.0116003975
61	0x3d22edda	0.039777614
62	0xbaa2a280	-0.0012408048
63	0xbc7d1af8	-0.015448324
64	0x3cd08d30	0.025457948
65	0xbd62b088	-0.055344135
66	0x3c8f3984	0.01748348
67	0x3cd6ea60	0.026234806
68	0x3d1b5b62	0.037928946
69	0x3c615ef8	0.0137555525
70	0xbca26874	-0.019825198
71	0x3d393df0	0.045225084
72	0x3d647c92	0.055782862
73	0x3d0a8e6e	0.033827238
74	0x3d20fe7a	0.039305188
75	0x3bc00d50	0.005860962
76	0xbd610f72	-0.05494637
77	0xbd58f218	-0.052965254
78	0xbd6a8c70	-0.057262838
79	0xbd2d0e44	-0.042249933
80	0xbc7494b8	-0.014928035
81	0x3ce5f854	0.028072514
82	0xbbd6a3f0	-0.0065503046
83	0x3c90db3c	0.017682664
84	0xbc966f4c	-0.018363617
85	0x3d575c24	0.052578107
86	0x3a28aa80	0.0006434098
87	0xbccd3054	-0.025047459
88	0x3d6db5ee	0.05803483
89	0xbd022610	-0.03177458
90	0x3bd19770	0.0063962266
91	0x3d2d1bfa	0.04226301
92	0xbd212da8	-0.03935018
93	0x3cd68fbc	0.026191585
94	0xbd28f84c	-0.04125242
95	0xbc694b00	-0.014239073
96	0x3bf9be50	0.007621564
97	0xbd5f546e	-0.054523878
98	0xbd13e788	-0.036109477
99	0x3bc5d010	0.006036766
100	0xbd3819c0	-0.044946432
101	0xbc8d9a9c	-0.017285638
102	0xbd24a502	-0.040196426
103	0x39890200	0.00026132166
104	0xbd213c5e	-0.03936421
105	0x3d235e5c	0.03988491
106	0x3c31b050	0.010845259
107	0xbcf02da8	-0.029318646
108	0xbcfc10d8	-0.03076975
109	0x3b4d96a0	0.0031370297
110	0xbd0dc80e	-0.034614615
111	0xbd555028	-0.052078396
112	0xbd4d4caa	-0.05012194
113	0x3cef5f88	0.029220358
114	0x3bb456b0	0.005503498
115	0x3c46aa20	0.012125522
116	0x3ce278b8	0.027645454
117	0x3d3e2f56	0.04643186
118	0x3c85289c	0.016254716
119	0xbcf7ff24	-0.030273028
120	0xbcc2f580	-0.023798704
121	0xbbaceb20	-0.0052770525
122	0xbd4e9304	-0.050433174
123	0xbc09c068	-0.00840769
124	0xbd2cd102	-0.042191513
125	0xbd347454	-0.04405625
126	0x3d51cd06	0.051220916
127	0x3c94dbe8	0.018171266
128	0x3d6ef1e0	0.05833614
129	0x3b89b5a0	0.0042025596
130	0x3d4f488a	0.050606288
131	0xbaa224c0	-0.0012370571
132	0x3c9760e8	0.018478826
133	0x3d5b65ac	0.05356376
134	0x3d5763a4	0.05258526
135	0xbd64d4d2	-0.055867024
136	0xbb9e6620	-0.0048339516
137	0xbcaff070	-0.021476954
138	0x3d24f174	0.04026933
139	0xbd3725ae	-0.04471367
140	0x3d5b3ca8	0.053524643
141	0xbcb93944	-0.022610314
142	0xbc8550ac	-0.016273819
143	0xbd1f0750	-0.038825333
144	0x3d3cb6d6	0.046072803
145	0xbd46c0f8	-0.048523873
146	0xbd1d5c46	-0.038418077
147	0xbc01da38	-0.007925563
148	0xbbf640f0	-0.0075150654
149	0xbc11d9d0	-0.008902028
150	0x3d5b2482	0.053501613
151	0xbafc1740	-0.0019233003
152	0xbd3d20c0	-0.04617381
153	0x3d537006	0.051620506
154	0xbd0751d4	-0.03303702
155	0xbd3aecda	-0.045636036
156	0xbc4f83a0	-0.012665659
157	0xbd50c064	-0.050964728
158	0x3b838390	0.004013486
159	0x3bb95950	0.005656399
160	0xbd77c6be	-0.06049227
161	0xbd328dee	-0.043592386
162	0x3ba2f710	0.0049733
163	0x3bc0c820	0.0058832318
164	0x3cca1f98	0.024673268
165	0x3d410944	0.047127977
166	0xbb1481e0	-0.002266042
167	0x3bd5d490	0.0065255836
168	0xbc0528a8	-0.008127369
169	0xbd2364f0	-0.039891183
170	0xbc3485a8	-0.011018194
171	0xbd3e5440	-0.046467066
172	0xbd763286	-0.060106777
173	0x3d1e5c66	0.038662337
174	0xbcfd1dd8	-0.03089802
175	0x3ce335b8	0.027735576
176	0xbd6d8aca	-0.057993688
177	0x3d22f368	0.03978291
178	0x3b763d40	0.003757313
179	0x3cf1075c	0.029422455
180	0x3d3ff180	0.04686117
181	0xbc9d1d7c	-0.019179098
182	0xbc51bb20	-0.012800962
183	0xbce7631c	-0.028245501
184	0x3d740206	0.059572242
185	0xbd2ad0ea	-0.041703142
186	0x3c843f68	0.016143516
187	0xbd132e2c	-0.035932705
188	0x3c7a6af8	0.015284292
189	0x3c854270	0.016267031
190	0x3d029b30	0.03188628
191	0x3cdd816c	0.027039252
192	0x3d17ec58	0.03709063
193	0xbd6fad12	-0.058514662
194	0xbcdbb8e4	-0.026821561
195	0xbd5474ca	-0.05186919
196	0xbd660090	-0.05615288
197	0xbd45846c	-0.04822199
198	0xbc51ac18	-0.012797378
199	0xbbb8ca80	-0.0056393743
200	0xbd657882	-0.05602313
201	0xbd292420	-0.041294217
202	0x3d00772c	0.03136365
203	0xbd77ae5c	-0.060469016
204	0x3d483796	0.048881136
205	0x3bd7e600	0.0065886974
206	0x3cd4fd64	0.025999732
207	0xbcf01ff4	-0.029312111
208	0xbd2a5c7e	-0.041592114
209	0xbd382d92	-0.044965334
210	0x3d73ed16	0.059552275
211	0x3d39fb1c	0.045405492
212	0x3d683644	0.056692377
213	0x3cb445dc	0.022005968
214	0xbd7f6558	-0.06235251
215	0x3ce61f94	0.02809123
216	0x3bffca50	0.0078061
217	0xbc8eb070	-0.017418116
218	0x3c486910	0.01223208
219	0xbd0917e0	-0.033470035
220	0x3d367b8c	0.044551417
221	0xbd15a0d0	-0.036530316
222	0xbcb11ae4	-0.021619268
223	0x3ca0c250	0.019623905
224	0x3d43773e	0.04772114
225	0xbca18324	-0.019715853
226	0xbd16bf1e	-0.036803357
227	0x3d5a598a	0.053308047
228	0xbb99bd60	-0.0046917647
229	0x3d07a1f4	0.033113435
230	0x3c9f9460	0.01947993
231	0xbc4a7bf8	-0.012358658
232	0xbd698af2	-0.057017274
233	0xbd57490e	-0.052559905
234	0xbcd2f084	-0.025749452
235	0xbd6457b6	-0.05574771
236	0xbd6aa302	-0.057284363
237	0xbc8e938c	-0.01740434
238	0x3ca81070	0.02051565
239	0xbc97bc8c	-0.018522523
240	0xbd152e56	-0.036421143
241	0xbce5fc68	-0.028074458
242	0x3cd390f4	0.025825955
243	0x3cfc5544	0.030802377
244	0xbd78230a	-0.06058029
245	0x3a4f8500	0.0007916242
246	0x3c76b9e0	0.0150589645
247	0x3d7446fc	0.05963801
248	0x3b891740	0.00418368
249	0xbd78c70e	-0.06073671
250	0xbc1aa448	-0.009438582
251	0xbca6d094	-0.02036313
252	0x3d78c066	0.06073036
253	0xbceffeb4	-0.029296257
254	0x3d36c84e	0.04462462
255	0x3d58cea0	0.052931428

fc2.bias f4 [128]
0	0xbd2ab4ea	-0.04167644
1	0x3bfa4b38	0.0076383613
2	0xbd40b2a0	-0.04704535
3	0x3c38f179	0.01128804
4	0x3d44b9f0	0.048028886
5	0x3d105e7b	0.035246354
6	0x3d75cf5d	0.06001221
7	0xbbc4e030	-0.0060081705
8	0xbd752f58	-0.059859604
9	0x3d3330e4	0.043747798
10	0x3d222126	0.039582394
11	0x3cefabd3	0.029256737
12	0xbd0c741b	-0.034290414
13	0xbc9d82aa	-0.019227345
14	0xbc473212	-0.012157934
15	0xbd629a70	-0.055323064
16	0xbd75109a	-0.059830286
17	0xbd256a3d	-0.04038452
18	0xbc85fc3d	-0.016355628
19	0x3d1e2faf	0.038619693
20	0xbd42ff5e	-0.04760682
21	0xbcac6dcc	-0.021048449
22	0xbd3e88a0	-0.046517015
23	0xbd351825	-0.04421248
24	0xbd7bf278	-0.061510533
25	0x3d5cf718	0.053946584
26	0xbbb5f18b	-0.005552476
27	0x3d58f52e	0.052968197
28	0x3cb05881	0.021526577
29	0xbd093170	-0.033494413
30	0x3a9e249a	0.0012065351
31	0xbc0fe3a9	-0.008782306
32	0x3d561bdc	0.052272663
33	0xbd5587e2	-0.05213154
34	0xbd5890b2	-0.052872367
35	0x3c75f327	0.015011585
36	0xbd12d31b	-0.035845857
37	0x3cb2e762	0.021838848
38	0xbbc31ac6	-0.0059541194
39	0xbd34c24a	-0.0441306
40	0xbd22e828	-0.039772183
41	0xbd2d5b73	-0.04232354
42	0x3bf26637	0.007397439
43	0xbcfd54e2	-0.030924264
44	0xbc7acb67	-0.015307284
45	0xbcca1d2a	-0.02467211
46	0xbcc208cd	-0.023685837
47	0x3bcb7d80	0.006210029
48	0xbc1e53a5	-0.009663497
49	0xbc6a1ac0	-0.014288604
50	0x3aeebecb	0.001821482
51	0xbcbb9bab	-0.022901377
52	0xbcf6c928	-0.030125216
53	0xbc6f17cc	-0.014593076
54	0xbd5d47e3	-0.054023635
55	0xbd32843c	-0.04358314
56	0xbceb4c99	-0.028723048
57	0x3d76752e	0.060170345
58	0x3c3b2fce	0.011424972
59	0xbd84bd5a	-0.064814284
60	0x3d5998dd	0.053124297
61	0xbc9e1506	-0.019297134
62	0xbb664293	-0.0035134896
63	0xbd5d6182	-0.05404807
64	0xbc843cf5	-0.016142348
65	0x3d6c9098	0.057755083
66	0x3ca1d993	0.019757068
67	0xbd689cab	-0.056790035
68	0xbd680305	-0.056643505
69	0x3ce46a6e	0.02788278
70	0x3d4808f7	0.048836675
71	0xbd822dfc	-0.06356427
72	0xbb89ff64	-0.004211353
73	0xbae9727e	-0.0017810611
74	0x3d01c6dd	0.03168379
75	0x3cf504ee	0.029909577
76	0x3c335819	0.010946297
77	0x3d3c0331	0.04590148
78	0xbd80bb19	-0.06285686
79	0x3d0de345	0.03464057
80	0x3d40dbed	0.047084738
81	0x3d6ed6c6	0.058310293
82	0xbd374572	-0.044743963
83	0x3cd3f777	0.025874836
84	0xbc906b8b	-0.017629405
85	0xba38d6be	-0.0007051042
86	0x3b8c5cca	0.0042835223
87	0xbc16ec5c	-0.009211626
88	0x3c6a80aa	0.014312902
89	0xbca5b010	-0.020225555
90	0xbcdcedde	-0.026968893
91	0xbd2466cc	-0.040137097
92	0x3d3c1217	0.04591569
93	0xbc180b1a	-0.009279991
94	0x3d084e05	0.03327753
95	0x3b13ecaa	0.0022571483
96	0xbd4f00a8	-0.050537735
97	0x3d32541d	0.043537248
98	0x3bf1b82a	0.0073766904
99	0xbc3a0909	-0.011354693
100	0xbd0350d9	-0.032059524
101	0x3d68c5cb	0.056829255
102	0x3d2b83f1	0.041873876
103	0x3d403dbd	0.04693388
104	0xbd7f16d8	-0.062277645
105	0x3ce8875a	0.028384853
106	0x3c2697d4	0.010168035
107	0x3d13ba74	0.036066487
108	0x3cc644bd	0.024202699
109	0xbd57e2f7	-0.052706685
110	0x3b8388a9	0.004014094
111	0x3bfd2b0f	0.0077260802
112	0xbd1cdba2	-0.038295396
113	0x3ce319f0	0.027722329
114	0xbd4f5ffd	-0.05062865
115	0x3d8ba583	0.06818678
116	0xbc9d0a7c	-0.019170038
117	0x3d522b11	0.051310603
118	0x3c2e87b6	0.010652473
119	0xbcb1e8b4	-0.021717407
120	0xbd0f88c3	-0.035042536
121	0x3d619752	0.05507595
122	0x3c00ead4	0.007868487
123	0x3c7f05a3	0.015565309
124	0x3d3e8769	0.046515856
125	0x3d237fc5	0.039916772
126	0x3a09bf76	0.0005254665
127	0xbd43e8e4	-0.047829524

actor.weight f4 [4, 128]
0	0x3d48ec18	0.04905328
1	0xbce76c56	-0.0282499
2	0x3ca7452c	0.020418726
3	0xbd9c5245	-0.07632879
4	0xbd0c75c7	-0.03429201
5	0x3ca7850b	0.020449182
6	0x3d912fe6	0.07089214
7	0x3d740189	0.059571777
8	0xbd456e56	-0.048200928
9	0x3d34de42	0.044157274
10	0x3d35c661	0.044378642
11	0xbd9084f5	-0.070566095
12	0x3d24a869	0.04019967
13	0xbdac86be	-0.084241375
14	0xbc582a34	-0.013193656
15	0xbd4dfd51	-0.05029041
16	0x3d9987d7	0.074966125
17	0x3d5be084	0.05368091
18	0xbd29ee91	-0.04148728
19	0xbd8521e6	-0.06500606
20	0xbdafcbe6	-0.085838124
21	0x3daf1f92	0.085509434
22	0xbcb7f4d3	-0.022455608
23	0x3d05b455	0.03264268
24	0xbd4638f1	-0.048394147
25	0x3cbd0acc	0.023076437
26	0xbce2db34	-0.027692415
27	0x3cef732b	0.029229721
28	0xbcd40452	-0.025880966
29	0xbd440898	-0.04785976
30	0xbcb6c183	-0.02230907
31	0x3dad1fd2	0.08453335
32	0x3d68f102	0.056870468
33	0xbca9b52d	-0.020716274
34	0xbd8ce70e	-0.06880008
35	0xbd45efbf	-0.048324343
36	0xbdac2bc4	-0.08406785
37	0x3d39c0f2	0.045350023
38	0xbd53a936	-0.051675044
39	0x3d41c7a1	0.04730952
40	0xbd96ac05	-0.07357029
41	0x3c709aec	0.014685374
42	0xbd823174	-0.06357089
43	0xbd846e42	-0.064663425
44	0x3cd39a18	0.025830314
45	0x3d212594	0.039342478
46	0xbb28f4ff	-0.0025780795
47	0xbda5e005	-0.08099369
48	0xbd8d06ed	-0.068860866
49	0xbd8180ae	-0.06323372
50	0x3d8ed417	0.06974047
51	0xbcdd9252	-0.02704731
52	0x3c76c998	0.015062712
53	0x3cf240b2	0.029571865
54	0xbc5e6837	-0.013574651
55	0xbd86e824	-0.06587246
56	0xbd308e79	-0.043104623
57	0xbd47e629	-0.048803482
58	0x3d302ff3	0.043014478
59	0xbd92f890	-0.07176316
60	0xbdb121c5	-0.08649019
61	0xbcba9a89	-0.022778766
62	0xbd5cfdbc	-0.053952917
63	0x3d959fe8	0.0730589
64	0x3da0ccb6	0.078515455
65	0x3bd4cd94	0.0064942334
66	0xbbf1130b	-0.0073570064
67	0x3d019f9b	0.031646352
68	0xbd26cc23	-0.040722024
69	0x3d8c5753	0.06852593
70	0xbbe86f81	-0.0070933704
71	0x3c72ee63	0.014827344
72	0xbda79dbe	-0.08184384
73	0xbd64a7dd	-0.05582415
74	0x3cd1c83b	0.025608173
75	0xba1e5d02	-0.0006041081
76	0x3db7c21f	0.089725725
77	0x3cd71ee0	0.02625984
78	0xbdb0bc18	-0.08629626
79	0xbd29192f	-0.041283783
80	0xbd97c10a	-0.07409866
81	0x3d9c8e3e	0.07644318
82	0x3d24f525	0.04027285
83	0xbc1e10c4	-0.009647552
84	0x3d5417c7	0.05178049
85	0x3cc14dde	0.0235967
86	0xbd9b9b56	-0.07597987
87	0x3a9af0fc	0.0011821087
88	0xbca148aa	-0.01968797
89	0x3d3dc34c	0.046328828
90	0xbcee766c	-0.029109202
91	0x3cf8c1dc	0.030365877
92	0x3d0f9d6a	0.03506223
93	0x3d85b2e2	0.0652826
94	0x3ceeafc8	0.029136553
95	0x3ce627c5	0.028095135
96	0xbb8b980d	-0.004260069
97	0x3da1511f	0.07876801
98	0xbd2affed	-0.041747976
99	0xbd7590e5	-0.059952635
100	0x3db224f7	0.08698457
101	0x3c883f1d	0.016631657
102	0x3c20c71e	0.009813098
103	0xbc5411b8	-0.012943678
104	0xbcccbb21	-0.024991574
105	0xbd316669	-0.043310557
106	0xbd9778c5	-0.07396082
107	0xbce3e279	-0.027817952
108	0xbd59428e	-0.053041987
109	0x3b65bce1	0.0035055208
110	0x3c9a634d	0.018846178
111	0x3d52370c	0.051322028
112	0xbd9986af	-0.07496392
113	0xbcf682ea	-0.030091722
114	0xbd048fbd	-0.032363642
115	0xbd9ba9ae	-0.07600723
116	0x3d38a35f	0.045077678
117	0xbd28fbb2	-0.04125566
118	0xbd95c7be	-0.073134884
119	0xbdac3fd4	-0.08410612
120	0xbd9ebc53	-0.07750764
121	0xbd3244c4	-0.04352261
122	0xbd07e5d7	-0.033178177
123	0x3da105b5	0.07862417
124	0xbd94c8ae	-0.07264839
125	0x3b3c5b5e	0.0028740983
126	0x3c3d18e9	0.011541584
127	0xbccf189c	-0.02528029
128	0x3d90716a	0.07052882
129	0xbcc82770	-0.024432868
130	0x3d3f79a3	0.04674686
131	0xbd0675f0	-0.032827318
132	0x3cb5af5a	0.02217834
133	0xbcde8073	-0.027160859
134	0x3db4899f	0.08815312
135	0x3cf1e654	0.029528774
136	0x3d7fa664	0.06241454
137	0x3da283df	0.07935309
138	0xbda8c687	-0.08240991
139	0x3d9797df	0.07402014
140	0xbc3f523d	-0.011677322
141	0xbce7babb	-0.028287282
142	0xbcb3c8ed	-0.021946395
143	0x3d4b48af	0.049629863
144	0xbd9794fa	-0.07401462
145	0xbd751dc7	-0.05984285
146	0xbc10edf5	-0.008845796
147	0xbda30f0a	-0.07961853
148	0xbdb0973f	-0.08622598
149	0x3d942417	0.07233446
150	0x3d7c0012	0.061523505
151	0xbd489ee0	-0.04897964
152	0xbd179ef0	-0.03701681
153	0x3c9470cc	0.018120192
154	0xbda47bc2	-0.080314174
155	0x3db19ce7	0.08672505
156	0xbd79a03e	-0.060943834
157	0x3a63588b	0.0008672557
158	0xbdb19ed3	-0.086728714
159	0xbcff3469	-0.03115292
160	0x3d11fb7d	0.03564023
161	0xbd138c23	-0.036022317
162	0x3d8e29ad	0.06941543
163	0xbd0d5765	-0.034507174
164	0xbc8be1c4	-0.017075427
165	0xbd2eeb7a	-0.042705037
166	0xbb491436	-0.0030682213
167	0xbd8c76cd	-0.06858597
168	0x3d766753	0.06015713
169	0x3caf4e93	0.021399772
170	0x3d710303	0.058840763
171	0xbd4cc775	-0.049994905
172	0xbd61c3c8	-0.055118352
173	0x3d219620	0.03944981
174	0x3b43a219	0.0029851256
175	0xbce0e727	-0.027453972
176	0xbd7caf53	-0.06169064
177	0xbca88f2b	-0.02057608
178	0x3d07675d	0.03305756
179	0x3d628ad7	0.05530819
180	0x3c1b3aea	0.009474495
181	0x3c99a981	0.018757584
182	0x3d462986	0.048379444
183	0xbd9a8968	-0.075457394
184	0xbd3666a2	-0.044531472
185	0x3d490849	0.049080167
186	0xbc1c90ca	-0.009556005
187	0x3d74fdbf	0.059812304
188	0x3d54c28e	0.051943354
189	0xbb7973a3	-0.003806331
190	0xbd677e79	-0.056517098
191	0xbc162aa9	-0.009165444
192	0x3d5619d4	0.052270725
193	0x3d1f93a6	0.038959168
194	0x3db3296f	0.08748137
195	0xbc99907f	-0.018745659
196	0x3cad9e88	0.021193758
197	0xbdaa5070	-0.083161235
198	0xbcef95ae	-0.029246178
199	0xbc2ed127	-0.010669983
200	0xbd347d3b	-0.04406474
201	0x3da4d872	0.08049096
202	0xbcb98f2b	-0.022651276
203	0x3d984169	0.07434351
204	0x3c837399	0.016046332
205	0x3da1b61a	0.07896061
206	0x3d90175a	0.07035704
207	0x3d0030fc	0.031296715
208	0x3d0f126d	0.03492968
209	0xbd447f35	-0.047972877
210	0xbd835561	-0.06412769
211	0xbd86ec34	-0.06588021
212	0xbd29f495	-0.041493017
213	0x3d46d2b4	0.048540786
214	0xbc5db068	-0.013530828
215	0xbd2d0aa5	-0.04224648
216	0xbcfc66fc	-0.030810826
217	0x3cca1f77	0.024673207
218	0xbda8352d	-0.082132675
219	0x3d5bc33d	0.05365299
220	0xbd004611	-0.03131682
221	0x3d84e69d	0.064892985
222	0xbdb1a06e	-0.08673178
223	0xbcd2a087	-0.025711311
224	0xbd5efa69	-0.05443803
225	0xbd8a98a3	-0.067673944
226	0x3ce46916	0.02788214
227	0xbd082ada	-0.03324399
228	0x3b3bdf83	0.002866716
229	0x3cedbb01	0.029019834
230	0x3d885de3	0.066585325
231	0xbdb06a4e	-0.08614026
232	0xbc964c0b	-0.018346807
233	0xbd58689b	-0.052834135
234	0xbd9c0ee6	-0.07620029
235	0x3da7a65d	0.08186028
236	0xbc5c9ffa	-0.013465876
237	0xbd733c83	-0.05938388
238	0xbd9a7e1f	-0.07543587
239	0x3d813bf2	0.06310262
240	0xbd8a0091	-0.06738389
241	0x3ced7bd3	0.028989708
242	0xbda09240	-0.07840395
243	0xbd3514fc	-0.044209465
244	0x39fa3ba1	0.00047728143
245	0x3bd9f68b	0.0066517047
246	0xbd71b15b	-0.05900703
247	0xbd60f92c	-0.05492513
248	0x3d924c73	0.07143488
249	0xbbca095b	-0.006165666
250	0x3d09914e	0.03358584
251	0xbd5adab9	-0.053431246
252	0x3b06175e	0.0020460705
253	0xbd7b3287	-0.061327484
254	0x3d9ecc1a	0.07753773
255	0xbc173aa4	-0.00923029

actor.bias f4 [4]
0	0x3d52ed0b	0.051495593
1	0x3d096a5b	0.033548694
2	0x3d7afcba	0.061276175
3	0x3d2adb17	0.041712847

critic.weight f4 [1, 128]
0	0x3d4d88cf	0.0501793
1	0xbbcbb7d8	-0.0062169842
2	0x3d6f5e54	0.058439568
3	0x3d16d750	0.03682643
4	0xbd93111e	-0.07180999
5	0xbd814049	-0.063110895
6	0x3d3126dd	0.043249954
7	0xbd3392df	-0.04384124
8	0xbd368384	-0.044559017
9	0xbcb257e3	-0.021770423
10	0x3d160b94	0.036632136
11	0xbd0720a0	-0.032990098
12	0xbcaca339	-0.021073924
13	0x3d4a399b	0.049371343
14	0xbc5eb48e	-0.013592852
15	0x3d4f1626	0.05055823
16	0xbbfba2e0	-0.0076793283
17	0xbd81a156	-0.063296005
18	0x3d7846df	0.060614463
19	0x3d868f12	0.06570257
20	0x3d322485	0.04349186
21	0xbdaacb87	-0.08339601
22	0x3d7671c7	0.0601671
23	0x3c8ba969	0.017048554
24	0xbd5a1006	-0.053237937
25	0x3c9f0804	0.019413002
26	0x3d1efa1c	0.03881274
27	0xbd944430	-0.07239568
28	0x3d8503e4	0.06494883
29	0x3d338f60	0.043837905
30	0x3b69cb1d	0.0035674043
31	0xbcbca244	-0.023026593
32	0x3d797a5e	0.060907714
33	0x3d110dc6	0.035413526
34	0x3c9d5764	0.01920671
35	0x3d6fd58b	0.05855326
36	0x3b4d1eab	0.0031298797
37	0xbc7ca0cf	-0.015419199
38	0x3db0f821	0.08641077
39	0xbd9f05d8	-0.077647865
40	0xbd295b11	-0.041346613
41	0xbcbcea16	-0.02306084
42	0xbd004c03	-0.03132249
43	0x3d77d707	0.0605078
44	0xbd861207	-0.06546407
45	0xbb0bbe6e	-0.0021323222
46	0x3d0b7146	0.034043573
47	0x3cdeeded	0.027213061
48	0x3d323a94	0.043512896
49	0xbd9ec9d0	-0.077533364
50	0x3da20e05	0.0791283
51	0xbd20760a	-0.03917507
52	0xbc36cd0b	-0.0111572845
53	0x3bc4dd74	0.0060078446
54	0xbd932048	-0.071838915
55	0x3da0406b	0.07824787
56	0x3d061bd4	0.032741383
57	0x3d8d07d8	0.06886262
58	0x3c898371	0.016786309
59	0xbd000782	-0.03125716
60	0xbd0ba8c9	-0.034096513
61	0x3cb59f3b	0.022170654
62	0xbb62d024	-0.0034608925
63	0x3c8fece4	0.017569013
64	0xbc00b7f7	-0.007856361
65	0x3d9c513e	0.07632683
66	0xbcaa6f80	-0.02080512
67	0xbd79a63d	-0.060949553
68	0x3d93214f	0.071840875
69	0xbd44a9d3	-0.04801352
70	0xbd9ced76	-0.076624796
71	0xbd9779e6	-0.07396297
72	0x3c943a1c	0.018094115
73	0x3d840d89	0.06447894
74	0x3d30d117	0.043168154
75	0xbd83ce9f	-0.06435894
76	0x3dba8937	0.09108203
77	0x3cb2f1a4	0.021843739
78	0xbd1a1dc7	-0.037626054
79	0xbd3b2cb1	-0.045696918
80	0x3c3a8835	0.011385013
81	0x3d376f9f	0.044784185
82	0xbdaac708	-0.083387434
83	0xbcdc9f64	-0.026931472
84	0xbd9f1037	-0.077667646
85	0xbca1f37c	-0.019769423
86	0xba6a3521	-0.00089343084
87	0xbbbd0ba4	-0.00576921
88	0xbdab649e	-0.083688006
89	0xbd2eeb73	-0.04270501
90	0x3d4763bd	0.048679102
91	0xbd7c5ad2	-0.06161005
92	0x3d433d51	0.047665898
93	0x3d8b7f38	0.068113744
94	0x3d179783	0.037009727
95	0xbc058a95	-0.008150716
96	0xbda04c96	-0.078271076
97	0xbd02119d	-0.03175508
98	0xbd28f312	-0.041247435
99	0xbd9f6f31	-0.0778488
100	0x3c62e21b	0.013847853
101	0xbd70daaa	-0.058802284
102	0xbd9e270c	-0.07722291
103	0xbd8c327d	-0.068455674
104	0x3cfceab2	0.03087363
105	0xbae42b7e	-0.0017407981
106	0xbd9af704	-0.07566646
107	0xbd26fd13	-0.040768694
108	0x3d968345	0.073492564
109	0x3db0127d	0.08597276
110	0xbca2f11f	-0.019890366
111	0xbc13f7bb	-0.0090312315
112	0x3d5dd341	0.054156546
113	0x3dabe8df	0.08394026
114	0x3bf686ff	0.007523417
115	0x3c69aacd	0.0142619135
116	0xbce05daa	-0.027388413
117	0xbb50b5b4	-0.0031846585
118	0xbd1bf0e4	-0.038071528
119	0xbc193c1e	-0.009352712
120	0x3ab4d105	0.0013795203
121	0x3d410a68	0.047129065
122	0xbd34c974	-0.044137433
123	0xbd3ce0a7	-0.046112683
124	0x3dc20ae2	0.09474732
125	0xbc0c00a2	-0.008545073
126	0x3da0870d	0.07838259
127	0xbd816bca	-0.06319387
