checkpoints/only/seed3/final.pt (torch, 400887 bytes, 7 tensors)

fc1.weight f4 [256, 256]
000000 f8 6b 1e 3c a9 b3 1b 3c ce 35 b7 3a 52 3e 29 3d
       0.009669296 0.009503284 0.0013977827 0.0413192
000010 12 ed 29 3b ea 53 bf 3c 78 e2 84 bc 8a ec 58 bc
       0.0025928658 0.023355443 -0.01622127 -0.013239989
000020 fa 42 07 bd db 94 99 bd 46 8e b4 ba 93 76 8e 3d
       -0.03302286 -0.07499095 -0.0013775311 0.0695621
000030 ad d0 02 bd 86 a0 21 3d 79 d6 d5 3c 82 c9 37 3d
       -0.03193729 0.039459728 0.026103245 0.044869907
000040 c6 3b 28 bd 8e 43 d8 ba 48 bc 3f 3d 0f 0d 80 3d
       -0.04107263 -0.0016499625 0.04681042 0.06252491
000050 bb 92 4b bd d7 59 61 bd d4 6a c4 bc c5 82 67 3a
       -0.04970048 -0.05501732 -0.02397672 0.0008831437
000060 99 2a 2c 3c 90 4a 3f 3d ca 1c df bc c1 68 3e bd
       0.010508203 0.046701968 -0.027235407 -0.04648662
000070 e2 4e 67 3d 1e 01 6a bd 64 89 9e bc 4c 65 63 bd
       0.056471713 -0.05712997 -0.019352622 -0.055516526
000080 81 8d 73 3d b1 41 1c bd 11 c8 9a bc a0 d0 48 bd
       0.05946112 -0.038148586 -0.018894227 -0.049027085
000090 fc b7 c7 bc 2b 05 b7 3c 23 d6 c5 b9 36 89 b9 bc
       -0.024379723 0.022341331 -0.00037734312 -0.022648435
0000a0 e6 da c6 3c 12 d5 ec 3c 20 08 1c bb f6 d5 b8 bb
       0.0242743 0.028910194 -0.0023808554 -0.0056407405
0000b0 4e c2 13 3d fe 33 27 3d 81 96 ac bc c6 d6 11 3d
       0.036073975 0.040821068 -0.02106786 0.035605215
0000c0 a1 59 df bc c6 cb d8 3c 28 c5 09 bd 13 b8 57 bd
       -0.027264418 0.026464354 -0.03363529 -0.05266578
0000d0 ed 7a 4c 3c 65 9e 4e bd 6a 16 8d 3c 19 45 6b bd
       0.01248048 -0.050444026 0.017222602 -0.057438944
0000e0 c5 d7 21 3b e7 a8 6f 3d 10 24 2b 3d e3 48 16 3d
       0.002469526 0.058510687 0.04178244 0.036690604
0000f0 49 bb 5a 3d f7 36 08 bc 05 9b 02 bd 89 57 a8 3b
       0.053401265 -0.008313886 -0.03188612 0.005137388
000100 74 0b 0d bd 85 3f 62 3c 20 bd 09 3d 94 b9 56 bd
       -0.03443475 0.01380909 0.03362763 -0.052423075
000110 cc 33 72 bc f8 7b ec bc 94 4f 0d bd d4 62 80 3d
       -0.014782857 -0.028867707 -0.03449972 0.0626885
000120 3a c2 60 3d 40 1a cb bc 3f 36 c3 bb 62 58 25 3d
       0.05487273 -0.02479279 -0.0059573944 0.04036749
000130 fe 5f 73 3d fa dd 7f 3c f2 3e 08 3d e0 0a 5b 3d
       0.059417717 0.015616888 0.033263154 0.053477168
000140 64 9d ee 3c de fd 2c bd e0 fa 71 3d 93 d9 ec bc
       0.029127784 -0.042234294 0.059077144 -0.028912341
000150 45 6b 77 bd 25 f1 02 3c 74 c3 0b 3d 11 65 bc 3b
       -0.060405035 0.007992064 0.034121946 0.0057493527
000160 32 bc 60 3d ec 31 1e bd 84 25 f2 3c 92 bd 17 bd
       0.054866977 -0.038621828 0.029558904 -0.037046023
000170 8d f5 0e 3d 76 fc 41 bd d0 04 56 bd 20 7e 8a 3c
       0.034902144 -0.047359906 -0.052250683 0.016905844
000180 aa 7c 81 3c b4 4d 33 bd ab ec 3d bc b8 c8 bc 3c
       0.015806515 -0.043775275 -0.011592071 0.023044929
000190 04 8f 18 bc 02 c4 03 bd 5c 15 41 bd 9c c8 9a 3c
       -0.009311441 -0.03216935 -0.04713951 0.018894486
0001a0 12 49 69 bd b9 75 e3 3a 21 ed a2 bb d4 7c ad bc
       -0.05695445 0.001735381 -0.0049721156 -0.021177687
0001b0 cd 6c 35 3c ae db 74 3d e8 47 61 3d 58 92 51 bd
       0.011073303 0.059779815 0.055000216 -0.051164955
0001c0 00 54 e4 3c 50 07 f8 bc 20 48 37 3d d4 ed 97 3c
       0.027872086 -0.030276924 0.044746518 0.018546022
0001d0 0e ee 0e 3d f8 f1 3f 3d fc 82 c0 bc 94 42 1a bd
       0.034894995 0.04686162 -0.023499958 -0.03766115
0001e0 b3 5e 9c 3a ec 77 71 3d 84 82 bd bc fc 9b ce bc
       0.0011930078 0.058952257 -0.023133524 -0.025220864
0001f0 7d 12 2a 3b 33 47 6a bc 96 fd 0d bd d4 91 29 bd
       0.0025950961 -0.014299202 -0.034665667 -0.04139884
000200 34 e6 e0 bc 05 0f 15 3d 5b c8 16 bc 77 ed 22 bd
       -0.02745352 0.036391277 -0.009203042 -0.039777245
000210 0a 97 aa 3b a1 74 8b bc 96 67 98 bb b5 39 33 bd
       0.0052059935 -0.017023386 -0.0046510203 -0.043756206
000220 3a ca 10 3d d3 ed 47 bc 99 7f c1 bc 5b c7 67 3c
       0.03534911 -0.012202698 -0.023620414 0.014146651
000230 89 c0 99 3c 12 56 11 3c d9 cb ca 3c 5a ce 52 3b
       0.018768566 0.008870618 0.024755405 0.0032166452
000240 f6 bb c7 3c 1f 08 4f bd d4 a7 be 3c ca e8 24 3c
       0.024381619 -0.050544854 0.023273386 0.010065267
000250 22 73 5d 3c 40 7f 35 3d a9 3a 79 3d 0a 8f 4e bd
       0.013516219 0.04431081 0.06084696 -0.05042938
000260 13 6a 19 bd 23 19 71 3d 9f 11 9b 3c 4d e5 08 bd
       -0.037454676 0.058861863 0.0189293 -0.033421803
000270 52 4b 17 3d 72 d6 c4 3c b4 69 88 3d 4d 56 c7 bc
       0.036937065 0.024028037 0.06660786 -0.024333144
000280 8a 25 47 3d 33 31 42 bd 25 87 31 3d 29 7a 26 3d
       0.048619784 -0.0474102 0.043341774 0.040643845
000290 ca d8 4a 3d 0c 6c 41 bd 3a 4f 3e bd 5a b5 1e bc
       0.049523152 -0.047222182 -0.046462275 -0.009686792
0002a0 e0 cb 74 3d bd 6a b8 3b 0e 28 12 bd c7 6d b0 bc
       0.059764743 0.0056279586 -0.03568273 -0.02153672
0002b0 16 fd 77 bd c0 a2 fe bc a6 68 43 3d 74 4e 80 3c
       -0.060544096 -0.031083465 0.047707222 0.01566241
0002c0 e0 79 af bc e0 95 95 bc ae da 31 3d 01 b3 ff b9
       -0.02142042 -0.018259943 0.04342144 -0.00048770758
0002d0 4c dc 4f 3d 70 60 34 bd 50 c1 36 3c 70 34 37 3d
       0.0507472 -0.044037282 0.011154488 0.044727743
0002e0 62 fe 26 3d 04 78 80 3c 0a a8 44 3d 88 c4 83 3c
       0.040769942 0.015682228 0.048011817 0.016084924
0002f0 a2 94 29 bd 08 a6 52 3d b4 9f d8 bc c4 cc ae 3c
       -0.041401513 0.05142787 -0.02644334 0.021337874
000300 b0 b2 8c 3c ba 76 3d 3d 7a f2 48 3d 5c bd b7 3c
       0.017175049 0.046255805 0.04905937 0.02242916
000310 4c 41 6d bd a7 e0 e7 3c 72 47 6b 3d 04 b7 f8 3c
       -0.0579236 0.028305365 0.057441182 0.030360706
000320 f8 b9 24 3c 7d 0c a4 bc 9f 09 53 bd 12 64 73 bd
       0.010054104 -0.020025486 -0.051522847 -0.059421606
000330 08 7f 03 3d c4 5e 70 3d 6e c5 15 bd 74 0b 78 bd
       0.03210357 0.058684126 -0.036565237 -0.060557798
000340 76 93 b7 3c fc 56 de bc 38 6c 6f 3d 7e e9 11 bd
       0.022409182 -0.027141087 0.058452815 -0.035623066
000350 f1 a0 c4 bc d0 54 c6 bc f4 46 3a 3d a8 61 c7 3c
       -0.024002524 -0.024210364 0.045477822 0.024338558
000360 42 b1 32 3d b6 e3 f0 bc dc 42 08 3d fa 93 6b bd
       0.043626077 -0.029405456 0.033266887 -0.05751417
000370 d7 d4 3f 3d 3e 54 d9 bb 12 59 73 3d c0 f6 38 bc
       0.04683384 -0.006632357 0.059411116 -0.011289299
000380 dc ea 46 3d f0 5c a1 bb 66 16 11 3d 57 d3 04 3d
       0.048563823 -0.004924409 0.03542175 0.032428112
000390 6c 1d e0 bc 00 d2 6a 3d 9b 0a 5e bc 9f 1f a7 3c
       -0.02735778 0.057329178 -0.013552333 0.02040082
0003a0 12 56 ed 3c fc 3c 3e bd 38 e2 75 3d 92 74 13 3d
       0.028971706 -0.046444878 0.060030192 0.035999842
0003b0 00 e8 4b 3d 40 74 6d bc 2a 0c 05 bd 94 54 28 3d
       0.0497818 -0.014493048 -0.032482304 0.041096285
0003c0 86 c3 48 bd d4 70 21 3d 30 8a 96 3b 3f 37 f9 3c
       -0.04901459 0.039414242 0.00459411 0.030421851
0003d0 dc d3 2c 3d d0 bf 0c bd f0 40 6e bd b8 bb fe bc
       0.042194232 -0.034362614 -0.058167398 -0.03109537
0003e0 f6 ce 45 3d 10 f7 56 3d 85 ab 4b 3c 3e a9 52 3d
       0.048293076 0.05248171 0.01243103 0.051430933
0003f0 26 0b 1e 3d c0 86 4d 3c 18 c3 71 bd ec 4a 41 3d
       0.03858485 0.012544334 -0.059023947 0.04719059

fc1.bias f4 [256]
000000 59 05 f2 3c cb a7 25 bd 96 70 43 3d e0 30 6b bd
       0.029543566 -0.040443223 0.047714792 -0.057419658
000010 47 9f 10 3d 44 46 cd 3b c9 ef c2 bc c8 4e 5f 3c
       0.03530815 0.00626448 -0.02379598 0.013629623
000020 69 8e 5a 3d e0 6a 58 bc ca 0f b6 bc 04 60 bc 3c
       0.05335847 -0.013209075 -0.022224326 0.022995003
000030 04 61 18 bd 22 37 53 bd 08 9b 81 3c 6a be 62 3d
       -0.037201896 -0.05156625 0.015820995 0.055357374
000040 ec 86 0b bd 54 22 2d bd 56 dc 81 bb 53 d5 88 3c
       -0.03406422 -0.042269066 -0.0039630337 0.016703283
000050 68 c0 46 bd 31 d5 42 3d 4c ab 3f bd ba 50 06 bd
       -0.048523337 0.047566596 -0.04679422 -0.03279183
000060 0b 92 7d 3c ab 46 ad 3c 06 fe 31 3d 48 10 ae 3b
       0.015476714 0.021151861 0.043455146 0.0053119995
000070 16 10 3d 3d 41 5f a9 bc 06 40 0b bd 4c f1 72 bd
       0.04615792 -0.020675303 -0.033996604 -0.05931215
000080 8b 06 47 bd 51 c9 6e bd 11 96 e6 3c a4 1c b3 3c
       -0.048590224 -0.05829746 0.02814773 0.021864243
000090 1c e0 bf bc 4e 11 a5 bc de 4c 0e bd c3 3e 05 3d
       -0.023422293 -0.020149853 -0.034741275 0.032530557
0000a0 85 ee c3 bb 94 ea ed 3b 3b 4f 96 3c 91 07 d2 ba
       -0.0059793615 0.00726063 0.018348327 -0.0016023983
0000b0 a9 b3 47 bd 8c 3e 55 bd 03 94 2a 3a fe d6 b4 bc
       -0.04875532 -0.052061602 0.0006507041 -0.022075173
0000c0 54 cc 82 3d a8 4e 42 3d 46 18 a2 bc 57 9f 39 bd
       0.06386629 0.047438294 -0.019786965 -0.045317974
0000d0 53 77 0d bc 31 8d 6f 3c 4d 2d 06 bd 55 2b 1c bd
       -0.008634406 0.014621065 -0.032758046 -0.038127262
0000e0 87 39 57 bd 9f e1 e2 3c d2 23 06 bd 01 3b 72 bc
       -0.052545097 0.027695475 -0.032749005 -0.014784575
0000f0 14 21 6c 3d 57 8d bf bc da 27 1b 3b 67 3d 54 3d
       0.057648733 -0.023382826 0.0023674876 0.05181637
000100 53 b9 78 3d 69 49 2e bc 44 d9 b8 bc 6a 5e 43 3d
       0.060723614 -0.0106376195 -0.022564538 0.047697462
000110 b3 53 18 3d a5 59 48 3d 23 8c 69 bd 0a 13 e2 bc
       0.037189197 0.048913617 -0.05701841 -0.02759697
000120 3c 72 5f bd cf 44 4a bc 6d 29 56 3b 84 28 87 ba
       -0.0545523 -0.012345507 0.00326785 -0.0010311757
000130 2b fd c2 bc 78 10 ae 3c ba 18 09 3d fe 98 e9 bc
       -0.02380236 0.021248087 0.033470847 -0.028515335
000140 4c 2e f2 bc 6d 01 00 bd ea d2 0d bd 5c 41 8a bc
       -0.029563092 -0.03125136 -0.03462497 -0.016876869
000150 80 0c 84 3d 3d f2 33 bd 9d 04 2a 3d 88 51 0b 3c
       0.06447697 -0.04393219 0.041508306 0.008503325
000160 45 9b b8 bc 3d 31 35 bc 0b 9f 01 3d 40 80 37 bc
       -0.022534976 -0.011059103 0.031645816 -0.011200011
000170 e4 b1 71 3d c8 c7 1c 3d 01 22 36 bd 61 a1 b8 3c
       0.05900754 0.038276464 -0.044466022 0.022537889
000180 92 9b 1d 3c 68 80 4a 3d 0e bf df 3c f8 56 52 3d
       0.00961961 0.049438864 0.027312782 0.05135247
000190 80 3d 42 3b 61 de 1e 3b d7 ce d2 3b d2 ff 1a bd
       0.0029638708 0.0024241435 0.0064333486 -0.037841626
0001a0 a0 37 51 3b a7 af 6a 3c cf 15 6d bd 64 e8 10 bd
       0.0031924024 0.014324105 -0.057882126 -0.035377875
0001b0 0c b6 bf 3c 2b 27 15 bd 60 50 18 3d d4 26 f4 3c
       0.023402236 -0.036414307 0.037186027 0.029803671
0001c0 5d 7f 63 bd 0f 5b f9 3b 7d be 87 3c 10 c8 31 bd
       -0.055541385 0.007609732 0.016570324 -0.043403685
0001d0 4b f9 15 bc 20 93 b5 3c bf 01 09 3d 86 3a 45 bd
       -0.009153674 0.022164881 0.03344893 -0.048151515
0001e0 e1 fd 9b 3c ec d8 5d bd 32 13 18 3d d4 4b 59 bd
       0.019041957 -0.05416195 0.03712768 -0.05305083
0001f0 f2 84 54 3d 7f a2 75 3d 66 85 44 3d b5 2b 42 bd
       0.0518846 0.05996942 0.04797878 -0.047404964
000200 de ed 11 3d 44 20 21 3d 39 73 e2 bc 65 21 cf 3b
       0.03562724 0.03933741 -0.027642833 0.0063211196
000210 bb ae 4d 3d de 82 27 3c 42 94 12 3d 23 8d 2c bd
       0.050215464 0.010224072 0.03578592 -0.042126786
000220 0f 74 37 3d 9c b2 c7 3c 12 25 f9 bc 53 97 eb bc
       0.044788416 0.02437716 -0.030413184 -0.02875868
000230 13 12 bb bb 0f e3 4e bd fd 18 bf 3b c9 2c 3a bd
       -0.0057089417 -0.05050951 0.0058318363 -0.045452867
000240 69 25 08 bd 87 94 04 3b 2e 51 56 bd a7 12 30 bb
       -0.033238802 0.002023013 -0.052323513 -0.0026866586
000250 3b 27 37 bd 0d e7 56 bd 81 53 74 bb 33 da 5e bd
       -0.044715147 -0.05246644 -0.0037281218 -0.05440731
000260 b3 96 dd 3c 4c bc eb bb fb 2f 8f 3c 23 0c 62 3d
       0.027049398 -0.0071940776 0.017478934 0.055187356
000270 a5 f8 c3 bb e5 b2 8d bb 39 dc 57 bd 04 95 85 bc
       -0.0059805685 -0.0043243044 -0.052700255 -0.016306408
000280 d0 a9 19 bd 60 13 e6 bc ac fe 95 3c d3 f7 7e 3d
       -0.03751546 -0.02808541 0.018309914 0.062248062
000290 c3 50 81 3d 9b 1d 1b bd 35 dc 7a bd 9a df 58 bd
       0.06314232 -0.03787003 -0.061245162 -0.052947618
0002a0 58 50 5d bd fc 73 b1 3c 03 3b 90 3b 78 db 95 3c
       -0.0540317 0.021661751 0.004401566 0.018293127
0002b0 58 eb 0f bd c2 fc 12 bd 15 a5 48 3d 25 52 51 3d
       -0.03513655 -0.03588558 0.04898556 0.05110373
0002c0 59 5b c9 bc 5f 7d 1d bc 8e 95 bb bc ac 64 fe 3c
       -0.02457969 -0.00961241 -0.022898462 0.031053863
0002d0 d9 76 68 bd e0 0b cf 3c 96 30 01 bc cf 8e 6c bd
       -0.056753967 0.025274217 -0.007885119 -0.05775338
0002e0 95 69 0a 3d de 34 24 bd a6 ce 36 3c 03 53 b4 bc
       0.033792097 -0.04008948 0.011157667 -0.02201224
0002f0 77 eb 15 bd ef e9 80 bd b9 cc 4d 3d 24 5b 77 3c
       -0.03660151 -0.06294619 0.050244067 0.015097413
000300 83 d2 4f bc ab 53 f8 bc 58 d9 70 3d a6 1d 55 bc
       -0.012684467 -0.030313333 0.058801025 -0.013007557
000310 b6 fa e6 3a 35 77 77 bd 67 1b b9 bb 7b 44 63 bd
       0.0017622325 -0.06041642 -0.0056490186 -0.05548523
000320 82 03 56 bd 42 84 75 3c 82 2d ab bc ff 8e 94 bc
       -0.05224944 0.014985146 -0.020895723 -0.018134592
000330 c2 39 1b 3c 04 de c9 bc c6 65 90 bc f4 8d 7e 3d
       0.00947422 -0.024641998 -0.017626654 0.062147096
000340 b0 9f d3 3c 16 45 89 bc cb 88 4f 3d a0 9d 8a bc
       0.02583298 -0.016756576 0.050667565 -0.016920865
000350 6d 0f 04 bc 10 07 1b bd 4c 54 f4 bc 49 d6 46 bc
       -0.008060318 -0.037848532 -0.029825352 -0.0121360505
000360 45 39 79 bd 56 ed 26 bd 67 a2 65 3d 07 bd 69 bd
       -0.060845632 -0.040753685 0.056063082 -0.057065036
000370 91 da 3e bd 6b 9c 6b 3d 03 7b 5f 3d e6 b9 46 3c
       -0.04659516 0.05752222 0.054560672 0.012129283
000380 cc 27 6f 3d 88 8d 80 bd 1b 1f b2 bc 7e bd 1d bd
       0.058387563 -0.06276995 -0.021743348 -0.038510792
000390 15 45 7c 3d 16 93 73 3d 4c d8 28 3d ee 3b 3e 3c
       0.06158932 0.059466444 0.0412219 0.011610968
0003a0 60 80 b2 bc b9 e7 0c 3d 8d af 6e b9 8b 51 ca bc
       -0.02178973 0.034400675 -0.00022762846 -0.024697086
0003b0 e2 be 57 3d 47 fb e8 bc 80 f5 d9 3a 30 ad 6b 3d
       0.052672274 -0.02844013 0.0016628951 0.05753821
0003c0 d4 31 26 bd 0a 31 78 bd 14 83 01 bd 64 d5 30 3d
       -0.040574864 -0.060593642 -0.031619146 0.043172255
0003d0 a5 e4 bc 3c fc 0e ef 3c 0f b7 58 3d 36 65 0e 3b
       0.023058245 0.02918195 0.052908953 0.0021727807
0003e0 7d 06 79 3d a2 ae 4e 3d 30 c3 49 bd 0d fa 6a 3d
       0.060797203 0.05045951 -0.04925841 0.057367373
0003f0 4d 91 6a bd 05 b3 d5 ba f1 8d 29 bd ff 03 48 bd
       -0.057267476 -0.0016303962 -0.04139513 -0.048831936

fc2.weight f4 [128, 256]
000000 db 55 f2 3b 2d 62 8f bb 3e d3 67 3d b6 e0 3d bd
       0.0073954887 -0.004375717 0.05659794 -0.04635688
000010 10 f4 1a 3d 28 d5 e3 3c 12 32 5e 3d 2c b9 ad 3c
       0.037830412 0.027811602 0.05424697 0.02120646
000020 20 ea 49 bd 90 c7 16 bd 3f 29 31 bd ee a8 20 3d
       -0.049295545 -0.03681141 -0.043252226 0.039223604
000030 28 0e 48 3d 44 9a 2a 3d 02 16 f6 3c 56 6f 9e 3b
       0.048841625 0.041651025 0.030039791 0.0048350496
000040 82 b8 e2 3c 5f 18 52 3d 02 89 f7 3c 8b d7 40 3d
       0.02767587 0.051292773 0.030216698 0.047080558
000050 86 2a 8d 3b be c0 2d bd 92 4e 2a 3d ce af 1f bd
       0.0043080477 -0.04242014 0.041578837 -0.03898602
000060 3b 0b c2 bb 2b 49 84 3d f6 1a 55 bc a9 1c 1e bc
       -0.005921749 0.06459268 -0.013006916 -0.009650388
000070 8f c8 0d bd 05 d8 d1 3c 27 b8 a3 3b 9b 4a 64 bd
       -0.034615096 0.025615701 0.004996318 -0.05573521
000080 81 73 16 bd a3 89 32 3d e0 55 c5 3c 4e 0b d0 bc
       -0.036731247 0.04358829 0.0240888 -0.025396015
000090 1f 81 fd bb 61 40 08 3d b6 63 7a 3d 71 f8 be 3c
       -0.0077363397 0.03326452 0.061130248 0.023311825
0000a0 ec 68 be 3c 93 99 28 bc cf 5c 96 b9 cf 73 4c 3d
       0.02324339 -0.010290521 -0.00028679377 0.04991513
0000b0 a8 88 0a bb 80 05 21 bc b5 bf 40 3d 63 98 24 bd
       -0.0021138582 -0.009827971 0.047057826 -0.04018439
0000c0 87 7f 2d 3d 28 33 0d 3d 6d 14 31 3d bc 44 a2 bc
       0.042357948 0.034472615 0.04323237 -0.019808166
0000d0 38 a7 66 3d 3e b5 69 bd 72 19 c0 3c 6e 05 82 3d
       0.056311816 -0.05705761 0.023449633 0.06348692
0000e0 d5 64 b2 3b 4d d2 5b 3c 54 38 e8 3c 4f 0e 69 3d
       0.005444149 0.013416839 0.028347172 0.05689841
0000f0 90 06 3b bd cd d4 49 bd 9d a4 5e bd b8 bd cc bc
       -0.045660555 -0.04927521 -0.054356206 -0.024992809
000100 a6 a2 03 3d c0 da ab 3c f8 02 29 3d 2e d7 12 bd
       0.032137536 0.020978332 0.041262597 -0.035849743
000110 21 10 b4 bc 03 6c 4b 3d 4a 3e 59 3d 3c 7b 80 3c
       -0.021980347 0.049663555 0.05303792 0.015683763
000120 93 26 77 3c fb 7b f1 bc 54 3b 1a 3d 8b 24 4c 3c
       0.01508488 -0.029478064 0.037654236 0.012459884
000130 cc 16 8a bc bc 88 50 3d 0e 03 8a 3d 45 e1 d6 3c
       -0.016856574 0.05091165 0.06738864 0.026230464
000140 fb e0 f3 3c 5b 61 ba bc 14 81 a7 3c 47 64 53 bd
       0.029770365 -0.0227515 0.020447291 -0.051609304
000150 aa 2e 7c bc 7e b4 a3 3c 34 ae 0b bd 2c 5d b5 bc
       -0.015391985 0.019983526 -0.03410168 -0.022139154
000160 8a 72 66 b9 85 bf d7 3c 6c c3 31 3d e8 45 de 3c
       -0.00021977178 0.02633644 0.04339926 0.027132943
000170 24 55 89 3d 9a 9d 2b 3d fb 6d 6d 39 f6 88 28 3c
       0.067056924 0.041898347 0.00022643052 0.01028656
000180 43 92 b1 3c 20 39 a3 bc b9 88 c4 3c 83 79 2a 3d
       0.021676188 -0.0199247 0.023990976 0.04161979
000190 34 0c 98 bc 02 89 32 3d be 04 45 3c b7 8d d6 bc
       -0.018560506 0.043587692 0.012025056 -0.026190622
0001a0 68 15 34 bd 12 5b 3a bd 47 15 df 3c 08 cc 0e bd
       -0.043965727 -0.045497008 0.027231826 -0.034862548
0001b0 f0 3b bc 3c 45 ad 41 3d 00 3d 93 ba 57 5e e1 bc
       0.0229778 0.047284383 -0.0011233389 -0.027510805
0001c0 be 02 f5 bc 11 c7 10 bd b9 37 55 bc 60 0c 6d 3b
       -0.029908534 -0.035346095 -0.013013774 0.0036170706
0001d0 1b a9 60 bd 61 aa 3f 39 04 1a cc bc b0 ef 8b 3c
       -0.05484877 0.0001827865 -0.024914749 0.017082065
0001e0 55 e7 03 3b 0c e8 b8 bc 69 4b e7 3c 85 7c 30 3d
       0.0020126898 -0.022571586 0.0282342 0.0430875
0001f0 f7 7b 08 bd fd b1 c6 3c 80 82 0d bd 26 a2 ff bc
       -0.033321347 0.024254793 -0.034548283 -0.031205248
000200 f6 65 13 3d 39 af 8b 3d e8 3b 7f 3d 5e df e4 3c
       0.03598591 0.068205304 0.06231299 0.027938541
000210 a5 f5 08 3d cf ee 27 bd 10 ed 39 3d b5 7e c2 3c
       0.03343739 -0.04099923 0.045392096 0.02374206
000220 26 5f ed 3c 73 a2 62 3d d8 ef ff bc 47 f9 11 3d
       0.028976034 0.055330705 -0.031242296 0.03563812
000230 47 3a b2 bc f1 e5 ed 3b 8a 93 6f bc 45 c5 48 3d
       -0.021756304 0.007260077 -0.014622578 0.049016256
000240 60 14 8f bc 5e 2b 2c 3d 08 d9 74 3c da bf 2e bd
       -0.01746577 0.042033546 0.014944322 -0.042663433
000250 e1 a3 82 bc 02 c2 f9 bc 15 97 9e 3c 4e f4 21 bd
       -0.015947284 -0.030488018 0.01935915 -0.039539628
000260 39 13 2e 3d 4d 8b 22 bc 72 4f 6c 3d a9 7a 23 3d
       0.0424988 -0.009920907 0.057692952 0.0399119
000270 42 60 71 bc b5 6f 55 bc 7d c1 d2 3b 14 98 3b 3d
       -0.014732422 -0.013027121 0.006431757 0.04579933
000280 f4 62 37 3d 07 85 9c 3c 76 36 33 bd 92 aa c8 3c
       0.044772103 0.019106401 -0.04375311 0.024495397
000290 47 49 32 3d f0 d0 44 bd 1c e7 5f bc 34 23 2e 3d
       0.043526914 -0.04805082 -0.013665941 0.04251404
0002a0 42 76 ed 3c 54 2b c3 bc f4 fb 7b 3d c8 df 4c 3c
       0.028987054 -0.023824371 0.061519578 0.0125045255
0002b0 29 7b 51 3d cc 93 99 bc 7f a1 00 3d f6 ad cb 3c
       0.051142845 -0.018747233 0.031404015 0.024863224
0002c0 24 a4 f3 3b 25 91 91 bc 41 89 20 3d 85 09 04 bd
       0.0074353386 -0.017769406 0.039193396 -0.03223564
0002d0 65 31 bc 3b dc 1d 5e bd e7 b0 eb 3c 7c 0a c7 3c
       0.005743193 -0.054227695 0.028770877 0.024296992
0002e0 75 2c fc bb ce 09 cd bc 5a a1 07 3d 72 da 13 bd
       -0.0076957294 -0.02502909 0.03311286 -0.036096998
0002f0 2d 90 fa bc bc 84 95 3b 64 44 38 bd a9 a7 e7 b9
       -0.030586326 0.0045629423 -0.044987097 -0.0004418467
000300 c6 87 f2 3c 81 5c dd 3c 80 19 cd 3b 29 16 d8 bb
       0.029605757 0.027021648 0.0062591434 -0.0065944386
000310 e2 7d 32 3d 8a a3 57 3d 94 e9 e2 bb 92 6d 54 bd
       0.043577082 0.052646197 -0.0069248173 -0.051862307
000320 04 0e b2 bc a8 81 5c bc 23 63 82 bc 5a 20 5f 3d
       -0.021735199 -0.013458647 -0.015916413 0.054474212
000330 c2 ba f4 ba 16 dd dc 3b 65 a4 54 bc 40 e2 dd ba
       -0.0018671381 0.0067402227 -0.012978648 -0.001692839
000340 d8 bc 79 3d b8 b2 4b 3d e4 0a 2a bd 5b 0f fa bc
       0.06097111 0.049730986 -0.041514292 -0.0305249
000350 88 44 4b 3d e9 f3 4e bd 80 f9 14 bb 1c 39 20 3d
       0.049625903 -0.05052558 -0.0022731721 0.039116964
000360 38 a5 7a 3d dc 3e 27 bd 66 d0 e0 bc da 1c 49 3d
       0.06119272 -0.04083143 -0.027443122 0.04909978
000370 75 77 9e 3b 6a 36 73 bc bc 27 06 3d 98 af 23 bd
       0.0048360177 -0.014844516 0.032752737 -0.03996238
000380 08 cd b7 3c 6b 58 6a 3d 6c e8 84 3d e4 b5 20 3d
       0.022436634 0.05721323 0.064896435 0.039235964
000390 05 9c 5a bd 15 61 8c 3b 74 c9 fb bc c0 55 7a 3d
       -0.053371448 0.004284034 -0.030735709 0.061116934
0003a0 40 33 7e bc 68 0f 02 3d c3 c8 16 bd 91 11 0a bc
       -0.015515149 0.031752974 -0.036812555 -0.00842704
0003b0 74 ef 68 3d 6a b5 df bc e2 7b 0a 3d 34 d8 82 3d
       0.056868985 -0.027308185 0.03380955 0.06388894
0003c0 a3 32 4e bd f4 a9 3b 3d c1 fe 24 bc fa 3b 9d bc
       -0.05034126 0.045816377 -0.010070504 -0.019193638
0003d0 53 70 74 3d 22 12 55 bd cf e8 19 bb 38 f3 86 3d
       0.059677433 -0.052019246 -0.0023484712 0.06589359
0003e0 7a 67 f3 3c 7c 26 99 3c 12 0b 33 3c 5c 09 c5 3c
       0.029712427 0.018695109 0.010927932 0.024052314
0003f0 68 2c c6 3c c8 e5 65 3d 8e f9 d5 bc 58 fa 85 3c
       0.024191096 0.05612734 -0.026119974 0.016354725

fc2.bias f4 [128]
000000 49 ef b3 3c a7 85 10 bd 36 3c c8 bc 4f 68 32 bd
       0.021964686 -0.03528371 -0.024442773 -0.043556508
000010 7c 4f 17 3d 0e 85 9c 3b 23 f6 61 ba 34 22 a1 bc
       0.036941037 0.0047766035 -0.0008619746 -0.01966963
000020 74 37 6f 3c a6 39 b7 3c bc f1 71 3d d8 63 29 bd
       0.014600623 0.022366356 0.059068426 -0.041354984
000030 50 b8 be 3c cd 4e f6 3b 25 4d 54 bb 54 27 f9 bc
       0.023281246 0.007516718 -0.0032394615 -0.03041426
000040 c4 60 d7 3c d5 bf 15 3d 19 1c 86 bc c2 57 0d bd
       0.026291259 0.0365599 -0.01637082 -0.03450752
000050 30 74 52 bd 57 f4 d6 bc e2 4a 80 3d d4 87 43 3d
       -0.051380336 -0.026239557 0.06264283 0.047736958
000060 8a 57 b5 3b e2 16 b2 3c 58 16 13 3c 8b c9 67 bc
       0.005534117 0.021739427 0.008977495 -0.014147173
000070 10 04 20 3d 67 d4 0b bd 46 b5 18 bd 1e a7 62 3d
       0.039066374 -0.03413811 -0.03728225 0.055335157
000080 e4 1a 69 3d a6 67 37 3c 8c c6 c2 3c c6 b6 4d 3c
       0.05691041 0.011194145 0.023776315 0.012555784
000090 1e b0 0c 3d d8 f7 78 bd 24 11 ea bb 88 d4 3c 3c
       0.034347646 -0.060783237 -0.0071431566 0.011525281
0000a0 d4 ad 67 3d 6e a6 62 bd 7b 29 27 3d ab 7b c3 3c
       0.05656226 -0.0553345 0.040811043 0.02386268
0000b0 5b 45 56 3d a3 75 35 bd 58 af 96 3c 4a 4f 8e bc
       0.052312236 -0.04430164 0.018394157 -0.017371792
0000c0 78 5f 3d 3d 6d db 1c bc e8 3e ff 3c 50 ec 7d 3c
       0.046233624 -0.0095738 0.031157926 0.015498236
0000d0 49 15 8b bc cd 3d ec 3c 5f 37 b9 3c 9a d9 80 bc
       -0.016977923 0.028838063 0.02260941 -0.01572876
0000e0 bd 32 5f bb a8 00 52 3d 53 65 e9 3c d3 2c 58 3c
       -0.0034057342 0.051270157 0.028490698 0.013194281
0000f0 fe 25 25 3d f0 ed ba bc d8 6c 78 bd 50 97 5a 3d
       0.040319435 -0.022818536 -0.060650676 0.05336696
000100 c5 dc ee ba b6 dd 18 3d 58 c4 32 3c 88 9d 13 bd
       -0.0018223753 0.037320815 0.01091107 -0.036038905
000110 70 7d da bc 32 5e 8c 3c e2 e5 ce 3b f7 70 49 3d
       -0.026671141 0.01713476 0.0063140253 0.049179997
000120 13 54 1c bd 21 08 bd 3c ea 90 59 bd 52 9f 0c bd
       -0.038166117 0.023075165 -0.053116716 -0.034331627
000130 39 25 26 bd 2b 4e 1c 3d 78 00 47 3d 10 ee 8c bc
       -0.040562842 0.038160484 0.04858443 -0.01720336
000140 38 2f 8c 3c cd d5 31 3d 88 e8 0c bd 38 98 1d 3c
       0.01711236 0.043416787 -0.034401447 0.009618811
000150 fe fe 65 3d f1 02 2a bc 8e 82 a2 bc 40 12 09 3c
       0.056151383 -0.010376678 -0.019837644 0.008366168
000160 3e 10 09 3d f2 d2 ce bc 1e 24 3c 3b 1d 4e 83 3d
       0.033462755 -0.025247071 0.002870805 0.06411383
000170 79 e4 e8 bc 4a 80 c6 3c 1c bf 32 bc e4 94 07 bb
       -0.028429257 0.024231095 -0.010909822 -0.002068811
000180 9a 7b b4 bc d6 a7 64 3d f4 bd c0 3c 74 d6 6d bd
       -0.022031594 0.055824123 0.023528077 -0.058065847
000190 5d 04 e7 3c e9 22 28 3c 83 4f 38 3d 6a a3 95 bb
       0.028200323 0.0102622295 0.044997703 -0.0045665996
0001a0 30 c7 59 3d 4b 37 55 3d 98 53 9b 3c 06 70 0f bd
       0.053168476 0.052054685 0.018960759 -0.035018943
0001b0 a0 1d 01 bd 39 a5 15 3d 72 93 21 bd b0 fb ca 3b
       -0.031522393 0.03653452 -0.039447255 0.0061945543
0001c0 73 55 51 3d 2f a0 41 bc e9 50 89 3c c6 d0 78 bd
       0.05110688 -0.011817976 0.016762214 -0.060745977
0001d0 75 ed 5c 3c 4e 47 0b bd 83 55 e2 3c ea b6 73 3d
       0.013484349 -0.03400355 0.027628666 0.059500612
0001e0 36 ce 63 3d 17 51 78 bb 5d af 15 3d d8 c0 1b bd
       0.05561658 -0.003789013 0.036544193 -0.038025707
0001f0 be b8 2d bd 1c 28 d8 3c f0 65 99 bb f0 51 f2 bc
       -0.042412512 0.026386313 -0.0046813414 -0.029580086

actor.weight f4 [4, 128]
000000 6a e6 a4 bd 5d 96 a5 bd 85 4b 36 3d bc 1d d6 bc
       -0.080517605 -0.0808532 0.044505615 -0.026137225
000010 f8 3e 27 3b 65 40 b0 bc 1c 63 80 bd 6f a6 8d bd
       0.002551971 -0.02151508 -0.062689036 -0.0691651
000020 d5 ab bd bb 64 15 88 3d a2 0f db bc fa c1 9e bc
       -0.0057883062 0.06644705 -0.026740853 -0.019379605
000030 f5 03 22 bd c4 57 28 3c 5e f4 d9 3c ca ab b1 bc
       -0.039554555 0.010274831 0.026605781 -0.02168836
000040 9f 27 4d 3d 92 58 5f 3d b3 02 10 3b 59 6b 8a ba
       0.050086614 0.054527827 0.0021974265 -0.0010560557
000050 2b 53 9e bd dd ff 54 3d 26 3c 3e bd b6 96 92 3d
       -0.07730707 0.052001823 -0.04644408 0.07157652
000060 ef 34 23 3d 55 eb 0c 3d 7c 43 08 bd 07 ce 62 bd
       0.039845403 0.034404118 -0.033267483 -0.055372264
000070 9c ef a6 3d 45 aa 85 3d 1d 61 ad bd b8 0e ac 3d
       0.081511706 0.06526617 -0.084657885 0.08401245
000080 c9 41 f1 bb f3 c9 f4 bc ef 25 b3 3d 84 5d 8c bd
       -0.0073625785 -0.029881453 0.0874747 -0.06853774
000090 44 b9 14 bd 63 fa d4 3c 05 e8 6f bd 21 f2 b4 bd
       -0.036309496 0.0259983 -0.05857088 -0.08835245
0000a0 70 97 cc 3c f1 5a aa 3c d9 5a 99 3c 62 41 5b 3d
       0.024974555 0.020795317 0.018720077 0.05352915
0000b0 1b f5 50 3d fc 5e ab bc 12 e4 a2 3d 68 6e 91 3d
       0.051015 -0.020919316 0.07953657 0.071011364
0000c0 c3 47 43 3d c3 5d dd 3c 6c 9a 2b bc ca 0a 89 3d
       0.04767586 0.027022248 -0.010473829 0.06691511
0000d0 4b 90 34 bc 85 fe a6 3d c0 33 06 3d 0b 17 df bc
       -0.01102073 0.081540145 0.032764196 -0.027232667
0000e0 5c 8c 34 3d 09 3f d0 3a d1 5a ad bd 4a cd 44 bd
       0.04407917 0.0015887927 -0.084645875 -0.04804734
0000f0 eb 0e 36 3d d1 a9 b1 3b 7a 68 ad bd e6 91 bf bd
       0.04444782 0.005421855 -0.08467193 -0.09354
000100 90 52 b7 3d c8 c9 16 bd a4 69 75 bc a3 02 cf b9
       0.089512944 -0.036813527 -0.0149788 -0.0003948408
000110 c1 11 d5 3c 41 f0 38 3d 76 f4 b4 3c 3e fd b3 3c
       0.026009442 0.045151 0.022089224 0.021971341
000120 09 4c 36 3b 16 4d 88 bd f6 33 87 3d bc 48 95 3d
       0.0027816317 -0.06655328 0.06601708 0.072892636
000130 2c b3 0c bd 3c 38 18 3d df 97 6d bd 8e ac 70 bd
       -0.03435056 0.037163004 -0.058006164 -0.05875831
000140 98 48 19 3d 3f c9 50 3d 7e 3c ce 3c ff df 19 bd
       0.037422746 0.050973173 0.02517533 -0.037567135
000150 0a 0e 18 bd b6 34 da 3c 78 9b 2b 3d 1d 93 76 3d
       -0.037122764 0.026636463 0.041896313 0.060198892
000160 04 32 5a 3d 90 93 87 3d 6a ed 4f 3d 86 80 05 3d
       0.053270355 0.06619942 0.050763525 0.032593273
000170 40 24 d7 bc ab ea a4 bd 50 b0 97 3c 2f 49 30 3c
       -0.026262403 -0.08052572 0.01851669 0.010759636
000180 13 3e 5e bb e2 39 07 bd 3a 7f 7e 3c 24 2e 8f 3c
       -0.003391151 -0.033014186 0.015533263 0.017478056
000190 65 b5 9e 3d 01 4c 68 3d 6d dd 8b 3d a0 d5 a2 bd
       0.07749442 0.056713108 0.06829343 -0.07950902
0001a0 a2 e6 fe 3c 43 a5 87 bd c1 28 d4 bc ce ef fd bc
       0.031115834 -0.06623318 -0.02589834 -0.030998137
0001b0 1a cc 45 3d 38 02 90 3d 30 7e 3e bc 5d 3f 8d 3d
       0.04829035 0.07031673 -0.011626765 0.06896851
0001c0 de f6 9d bc f4 3e f2 3c ca 26 41 3d c3 65 b4 3c
       -0.019282755 0.029571034 0.047156133 0.02202118
0001d0 b0 0b 72 3d 3b 24 41 bd 70 eb 91 bd 49 da 97 bd
       0.059093177 -0.047153693 -0.07124984 -0.074146815
0001e0 f8 a7 8b bd f5 6f b3 3d 0a dd cf 3b e3 5c 2d 3d
       -0.06819147 0.087615885 0.0063434886 0.04232491
0001f0 e0 41 c2 3d fa be 76 bd b5 15 3a bd 8c c9 9b bd
       0.09485221 -0.060240723 -0.045430858 -0.076068014
000200 65 1f d2 bc b7 82 56 bd 89 0b 9c 3c c2 9b b3 3d
       -0.025649736 -0.052370753 0.01904847 0.08769943
000210 c6 ea 91 bd 0c 61 32 bc a8 38 a4 bd f5 fa 24 bd
       -0.071248576 -0.010887396 -0.08018619 -0.040278394
000220 49 e9 ad bd 80 ff f2 3c ec 43 55 bd 71 a1 ae bd
       -0.08491761 0.029662848 -0.05206673 -0.08526886
000230 de 55 69 3d 7a e1 0d 3c 09 bc 2a 3d fe dd 78 3b
       0.056966655 0.008659715 0.04168323 0.0037974115
000240 b7 67 89 3d f5 f3 5b bc 80 08 f7 bc f7 15 45 bc
       0.06709235 -0.013424863 -0.03015542 -0.012029163
000250 df 58 91 bd 73 60 73 bc 0b 72 a8 bd 9d 7b 0a bd
       -0.07097029 -0.014854538 -0.08224877 -0.033809293
000260 35 38 a2 bc fc fc 42 3d 6e 60 4a bd fb 21 83 3d
       -0.019802192 0.047604546 -0.04940837 0.06402966
000270 ae c0 01 bd 5f cf 93 3d be f1 67 bd 62 ed 8b 3d
       -0.031677894 0.07217287 -0.056627028 0.068323866
000280 b3 4a 59 bd 0a e6 3b bd 0f 3c e8 3c 58 16 a8 3d
       -0.053049754 -0.04587368 0.02834895 0.08207387
000290 3d bb 99 3d 8d 61 73 bd d7 37 52 bc 6b 89 95 3d
       0.07506416 -0.059419204 -0.012830696 0.07301601
0002a0 0b 2f 2f bd 51 d6 79 3d 03 8a 95 bd 5c 36 c3 3c
       -0.042769473 0.060995404 -0.07301714 0.023829632
0002b0 e9 57 6a 3d a0 be a2 bd d9 27 b1 3c 22 51 73 3c
       0.057212744 -0.07946515 0.021625446 0.014850887
0002c0 80 3e 97 3d 2d 10 83 bd 53 a3 71 bd d6 2f 98 bc
       0.07384968 -0.0639957 -0.05899365 -0.018577497
0002d0 24 ff 84 bc 2c 39 0c b9 0f 80 a1 3d 5a 4a 83 bd
       -0.016234942 -0.00013372739 0.07885753 -0.06410666
0002e0 42 e6 4b bd db 96 b4 3d ef 5f f6 bc 14 51 c3 3a
       -0.049780138 0.08817836 -0.030075042 0.0014901483
0002f0 bc 8a 14 3c 11 6f ea 3c 95 38 5a 3d b2 dc 8c 3d
       0.00906628 0.028617414 0.053276617 0.06878032
000300 df d4 69 bd c5 f4 27 3d 2b 07 5d bd 9a 1f 16 3d
       -0.057087775 0.041004915 -0.053961914 0.03665123
000310 8f 01 b5 bd 29 dd 3e 3c c7 88 a0 ba ba 79 ab 3d
       -0.08838188 0.011649408 -0.0012247794 0.08372827
000320 fd 08 04 bd e6 79 95 3d e8 e9 2d 3d 0b 2e ae bd
       -0.032235134 0.07298641 0.0424594 -0.08504876
000330 4a 03 5b bc 24 24 84 bb 3e d7 f1 bc 56 a4 78 3a
       -0.013367483 -0.0040326286 -0.02952158 0.0009484937
000340 d5 c2 91 bd e1 ce 6b bd 01 4e 7a bd 6a 0f b1 3d
       -0.071172394 -0.057570342 -0.061109547 0.08645518
000350 f0 97 8a 3d 21 5c 06 bc 84 6d 66 bd c0 73 f7 3b
       0.06767261 -0.008200676 -0.056256786 0.0075516403
000360 e6 ba d0 3c cf b5 f5 3c 15 3f 53 bd 04 2b 70 bd
       0.025479745 0.02999392 -0.05157383 -0.058634773
000370 9e 4b 47 3d 79 8e 05 bd 4f c7 25 bd f6 a9 ac bd
       0.0486561 -0.032606576 -0.04047328 -0.08430855
000380 4d 0b 8a 3d 15 ad 96 3c 68 f1 98 3c ec 67 f0 bc
       0.06740437 0.018393079 0.018669799 -0.029346429
000390 9e 22 90 bc 17 98 4d 3d 4e 47 47 bd c1 59 15 bd
       -0.017594632 0.050193872 -0.048651986 -0.03646255
0003a0 16 2b 94 3d 79 c9 08 bd 55 85 30 3d 1b 30 26 bc
       0.072347805 -0.033395264 0.043095905 -0.010143305
0003b0 46 76 26 3d ee eb 6a bb 18 4d 45 bd 46 81 94 bc
       0.040640138 -0.0035846191 -0.048169225 -0.018128049
0003c0 b3 d6 06 bd df 85 fd 3c 2f 5d 6c bd 79 71 73 3d
       -0.032919597 0.030947624 -0.057706054 0.059434388
0003d0 a6 3e a8 bd 2c f9 c5 b9 df e8 26 bd 5f 1a 16 bd
       -0.08215074 -0.00037760416 -0.040749427 -0.036646243
0003e0 0b 2d b1 bd dd 22 4b 3d 9b 41 13 bd df dc ab bd
       -0.086511694 0.049593795 -0.035951238 -0.08391737
0003f0 fb 84 d1 bd 39 ec 60 bd 94 b9 1a 3d 41 bd 94 bd
       -0.10230442 -0.05491278 0.037774637 -0.0726266

actor.bias f4 [4]
000000 94 d0 27 bd aa e5 7c bd 3d 4d 3c bd 62 6e 63 3c
       -0.0409704 -0.061742462 -0.045972098 0.013881298

critic.weight f4 [1, 128]
000000 d5 b2 82 3d 71 30 10 3c d6 f7 eb 3c 79 a1 26 3d
       0.06381766 0.008800612 0.0288047 0.040681336
000010 fa db 3e bc f6 72 02 bd 81 c1 83 3d 0f 73 d1 3c
       -0.011649126 -0.031847917 0.06433392 0.02556756
000020 8b a4 b3 3d 27 21 ae bb 59 c0 bd 3d 2f 09 14 bd
       0.087716185 -0.0053140107 0.09265203 -0.03614157
000030 89 ba a1 3d 5a d8 79 3d 96 15 ab bc a8 b7 60 bd
       0.07896907 0.060997345 -0.020884316 -0.05486265
000040 b3 80 98 3d 34 56 ab 3d e5 ca 14 bd fd fb 7c bd
       0.074464224 0.08366051 -0.036326308 -0.061763752
000050 af f1 9d bd 75 5a b3 bb 87 b7 f4 3c db 0a d3 bc
       -0.07712113 -0.00547343 0.029872669 -0.025762012
000060 ce c1 68 3d 51 cf 39 bd 17 c2 c3 3c ba 9a 0a 3b
       0.05682545 -0.045363728 0.02389626 0.0021149353
000070 6b 6b 02 bd e7 c4 3c 3d e9 0c cf bc 48 7e 85 bc
       -0.031840723 0.04608622 -0.02527471 -0.016295567
000080 79 7f 66 bd 07 ca 9b 3c ec 57 4d bd 8e 5a 79 bd
       -0.05627391 0.019017233 -0.050132677 -0.060877375
000090 96 1c 8f 3d 26 62 bf bc a8 22 30 bd 1b e3 7f bd
       0.06987874 -0.02336223 -0.0430018 -0.062472444
0000a0 d0 5d 1a 3d f0 88 39 bd ea 3f 91 3d 08 43 8e bd
       0.037687123 -0.04529661 0.07092269 -0.06946379
0000b0 57 74 89 3c 6b 98 a8 bd a9 06 e5 3c de d0 37 3d
       0.016779108 -0.082321964 0.027957277 0.044876926
0000c0 9f 56 31 bc 87 b0 60 3d 00 8b 96 3d 3e 11 2b bd
       -0.010823875 0.05485585 0.07350731 -0.04176449
0000d0 ae 08 08 3d cd 84 47 bd c7 1f 97 bd 3d fb a8 3d
       0.033211403 -0.048710633 -0.07379108 0.08251045
0000e0 c0 46 0d bd 0e 5f 40 bd a7 5f 1d 3d 2e 11 3a bc
       -0.0344913 -0.04696565 0.0384213 -0.011356635
0000f0 fa 89 22 3a 68 7b cb 3b c2 a7 79 bc 52 da b9 bc
       0.00062003697 0.0062097795 -0.0152377505 -0.022687111
000100 b4 5f 8e 3d a7 d6 ff 3c d7 36 8e bd 28 0f e1 bc
       0.06951848 0.031230284 -0.069440536 -0.027473047
000110 a6 c8 e2 3b 89 ef 28 3d 5e bd e9 3c 31 9a 9f bd
       0.006920892 0.041244064 0.02853268 -0.077930816
000120 3b 3d 6a bc 9d 4d ad 3d 4d 57 b4 bc 37 d4 32 bb
       -0.014296825 0.08462069 -0.022014285 -0.0027287134
000130 6d 06 ac bd 10 6f b9 3d 95 28 8d 3d 7b 88 ea 3c
       -0.08399663 0.090543866 0.06892506 0.028629532
000140 64 6d 31 3d 32 b1 33 bd 0c f4 55 3d c5 9b 3c 3d
       0.043317214 -0.04387016 0.052234694 0.04604699
000150 eb 6a 97 3d 68 2b 4b 3d 42 af 9e bd bf f2 2f 3c
       0.0739344 0.049601942 -0.077482715 0.0107390275
000160 84 c3 81 3d 88 b3 5b bd 48 6f 98 3c e4 e8 9e 3d
       0.0633612 -0.05363801 0.01860775 0.07759264
000170 b5 cc a6 3c 24 68 3d 3c ba 88 92 3d bf a8 3e bc
       0.020361284 0.011560474 0.07154985 -0.011636912
000180 7a a2 be 3c a7 15 8a 3d 0d a3 a6 bd 8b 14 8d bd
       0.023270834 0.06742411 -0.08136568 -0.06888684
000190 5d 2f f4 3c d6 99 84 3d 8d a3 e4 bc 5d b1 14 3d
       0.02980774 0.064746544 -0.027910018 0.03630196
0001a0 85 c2 c3 3c 2a 6e b4 3d 06 f5 55 3d 87 60 9d 3d
       0.023896465 0.088100746 0.052235626 0.07684427
0001b0 60 7c ad bd d0 0b 6c bd 45 84 b9 bc 73 ea 24 bd
       -0.08470988 -0.057628453 -0.022646079 -0.04026265
0001c0 71 43 d8 bc 34 5e c1 3d ec af 1b 3d 13 e2 70 bd
       -0.026399346 0.09441796 0.03800957 -0.05880935
0001d0 fb d4 48 bd 38 73 86 3d b3 a2 4b 3d 79 32 a2 3d
       -0.04903124 0.06564945 0.04971571 0.07919783
0001e0 5c b9 3a 3c eb cf b0 3d ad 0d 9a bd 77 f5 96 bc
       0.011396732 0.08633407 -0.0752214 -0.018427594
0001f0 84 f5 4b bd 5d e4 d4 3c 89 fb eb bc 85 6f 52 3d
       -0.04979469 0.025987798 -0.028806465 0.051375885
