checkpoints/icm/seed0/final.pt (torch, 869915 bytes, 19 tensors)

fc1.weight f4 [256, 256]
0.043619342 0.033085942 -0.03223192 -0.0012952089 0.039046466 0.013464265 0.025027566 -0.05446727
0.032774948 -0.014122024 0.021574832 -0.011461042 0.025421247 0.03633517 0.045627512 -0.028308444
-0.005441323 0.0035864562 -0.02223669 0.04403308 -0.016160138 -0.030483909 0.044947512 -0.020728357
-0.008400798 0.018888459 -0.052108794 0.03464932 0.0011927113 0.017343782 0.02686207 -0.0123331025
0.054654732 0.053660937 -0.03815437 -0.04104215 -0.0333836 -0.03983076 0.012626074 -0.0487059
-0.056054927 0.057592466 0.05377435 0.020120472 0.002398625 -0.038794562 -0.032979958 -0.0066767856
0.06043692 -0.004799269 -0.0035414472 -0.058644637 -0.042026527 -0.027592003 -0.018013433 -0.0093511045
-0.018214665 0.023132756 -0.0017972067 -0.007849261 0.05892252 0.034380667 -0.051580213 -0.05596509
-0.026100025 -0.028488211 -0.042625755 -0.059516057 0.058814347 0.0149602 -0.047573753 0.05729653
0.021149889 -0.04055568 -0.017737612 -0.041648783 -0.014296681 -0.033621393 0.0026497766 0.0036943704
0.030355237 -0.01510106 -0.051665723 0.043091126 0.026955903 -0.0042272136 -0.023407057 0.05278021
0.023432352 -0.054156363 -0.051298037 0.057713807 -0.008450441 -0.0436233 0.03517866 0.031877078
0.014905818 -0.03196334 -0.023598604 -0.05717221 -0.007087238 0.053340912 0.04324904 0.038118586
-0.03311032 0.058358274 0.033368096 0.0027867705 -0.03204129 -0.02654501 -0.0178814 0.030854225
-0.0058837235 -0.022839084 0.045778185 -0.054845005 0.043861434 0.040583216 -0.032024987 -0.0039942786
-0.061223246 -0.029703945 0.046054296 -0.054227628 -0.020722255 0.027590394 0.057219505 -0.023036852
0.026045434 -0.01991491 -0.038918592 0.025117412 -0.04864546 -0.06008274 -0.040745065 -0.0045775548
0.017659418 0.035371594 -0.007140562 -0.050109304 -0.029765666 0.011390626 -0.046413086 -0.012249701
0.062275916 -0.058639526 0.046493523 -0.029385842 0.05427759 -0.004307866 -0.005652912 0.04267571
0.025870688 -0.0114951655 0.031155914 0.0052994117 -0.036033504 -0.0045852736 0.013149902 0.037331536
-0.060385086 0.03654536 0.02867677 -0.03725615 -0.0029670522 -0.025909968 0.03741826 -0.024339959
-0.03290119 0.038732514 0.022062898 -0.012512147 0.02630163 0.013563916 0.02359423 -0.0057944953
-0.00097381324 0.04914943 -0.041458115 -0.039223872 -0.022043161 -0.060497284 0.009863384 0.0053895116
-0.02907271 0.02759917 0.042682685 0.011387706 -0.062120512 -0.0069817305 0.023700006 -0.052583262
-0.043772936 -0.044962488 -0.0052238926 -0.031521976 -0.06184119 0.00079742074 -0.00355687 -0.05622296
-0.019399993 0.0006608814 0.03077364 0.026409566 -0.053834237 -0.04320032 0.008773692 -0.024893917
-0.06196241 0.043759763 -0.02921009 -0.032816 -0.011557326 0.05854141 0.03462167 -0.008898981
-0.025551103 -0.0034751296 0.007008992 -0.0065838173 0.01121068 -0.018892698 0.055692136 -0.03540065
-0.03529694 0.0062217936 0.013745159 -0.010087609 -0.04399012 -0.040363707 -0.009075239 -0.00899183
0.048680596 0.005658135 0.009774953 0.00424397 0.059928015 -0.012116693 0.009780467 -0.00026975572
-0.010505602 -0.032914244 0.055463783 -0.048479915 0.045076385 -0.03619267 0.03811185 0.028179236
0.031680115 -0.013941005 -0.0041718334 0.04600949 0.04337567 0.023775741 0.048048012 0.036760613
00000000: 32aa 323d 2085 073d 9e05 04bd 00c4 a9ba
00000010: 30ef 1f3d 3899 5c3c 9c06 cd3c 1219 5fbd
00000020: 063f 063d 1060 67bc b4bd b03c 18c7 3bbc
00000030: 3840 d03c 30d4 143d eae3 3a3d 1ce7 e7bc
00000040: 204d b2bb c00a 6b3b b829 b6bc 085c 343d
00000050: 4462 84bc 64b9 f9bc e21a 383d 84ce a9bc
00000060: 80a3 09bc f8bb 9a3c 0870 55bd 72ec 0d3d
00000070: c054 9c3a 8c14 8e3c d80d dc3c c810 4abc
00000080: a4dd 5f3d 92cb 5b3d c247 1cbd d01b 28bd
00000090: 3ebd 08bd 9425 23bd 98dd 4e3c d67f 47bd
000000a0: da99 65bd 14e6 6b3d 7e42 5c3d b0d3 a43c
000000b0: 4032 1d3b 0ce7 1ebd fe15 07bd f0c8 dabb
000000c0: b48c 773d 3043 9dbb a017 68bb 5c35 70bd
000000d0: 0224 2cbd a008 e2bc e890 93bc 6035 19bc
000000e0: ec36 95bc e880 bd3c 4090 ebba 309a 00bc
000000f0: be58 713d bed2 0c3d c645 53bd a63b 65bd
00000100: b8cf d5bc 1c60 e9bc 5898 2ebd 1cc7 73bd
00000110: 50e7 703d a01b 753c b2dc 42bd c4af 6a3d
00000120: 8842 ad3c b61d 26bd 784e 91bc ea97 2abd
00000130: a03c 6abc 96b6 09bd e0a7 2d3b 401d 723b
00000140: 8cab f83c 706a 77bc 709f 53bd 5280 303d
00000150: a0d2 dc3c 7084 8abb 28c0 bfbc 1030 583d
00000160: 34f5 bf3c 10d3 5dbd e41d 52bd 5065 6c3d
00000170: b873 0abc 58ae 32bd 8017 103d 8a91 023d
00000180: 8837 743c feeb 02bd dc51 c1bc 682d 6abd
00000190: 103c e8bb 007c 5a3d e825 313d 3c22 1c3d
000001a0: b09e 07bd 1609 6f3d fcac 083d 40a2 363b
000001b0: ba3d 03bd ec74 d9bc 047c 92bc 00c2 fc3c
000001c0: 40cc c0bb 0819 bbbc e881 3b3d 28a5 60bd
000001d0: 0ca8 333d 963a 263d a22c 03bd 70e2 82bb
000001e0: 3ac5 7abd b055 f3bc 6ea3 3c3d ca1d 5ebd
000001f0: b8c1 a9bc 4005 e23c 005f 6a3d c8b7 bcbc
00000200: 3c5d d53c 9824 a3bc 1a69 1fbd 08c3 cd3c
00000210: 7640 47bd 5219 76bd 4ce4 26bd 50ff 95bb
00000220: 7caa 903c cee1 103d 60fb e9bb 6a3f 4dbd
00000230: 20d7 f3bc c09f 3a3c a61b 3ebd f8b2 48bc
00000240: 0815 7f3d 0030 70bd fe6f 3e3d 94ba f0bc
00000250: 2e52 5e3d 0029 8dbb 103c b9bb bacc 2e3d
00000260: c4ee d33c 3856 3cbc b03a ff3c b0a6 ad3b
00000270: de97 13bd 1040 96bb b072 573c f4e8 183d
00000280: 5a56 77bd 96b0 153d 8ceb ea3c e899 18bd
00000290: e072 42bb 2441 d4bc e443 193d 9864 c7bc
000002a0: 66c3 06bd fca5 1e3d 40bd b43c c0ff 4cbc
000002b0: 8476 d73c 303b 5e3c b048 c13c c0df bdbb
000002c0: 8047 7fba ea50 493d fccf 29bd 36a9 20bd
000002d0: dc93 b4bc 00cc 77bd 089a 213c 809a b03b
000002e0: e429 eebc a817 e23c 0ad4 2e3d 8093 3a3c
000002f0: 1472 7ebd 00c7 e4bb 8426 c23c 8c61 57bd
00000300: 404b 33bd 962a 38bd 302d abbb 301d 01bd
00000310: 304d 7dbd 000a 513a 601a 69bb 0c4a 66bd
00000320: bcec 9ebc 003f 2d3a 0019 fc3c e058 d83c
00000330: 4a81 5cbd d2f2 30bd 88bf 0f3c 54ee cbbc
00000340: 4ccc 7dbd 703d 333d 004a efbc 126a 06bd
00000350: f05a 3dbc 1ec9 6f3d 74cf 0d3d 08cd 11bc
00000360: 8c50 d1bc 00bf 63bb b0ab e53b 10bd d7bb
00000370: 00ad 373c dcc4 9abc 701d 643d 4600 11bd
00000380: 8693 10bd 30e0 cb3b 6033 613c 8046 25bc
00000390: fc2e 34bd 6a54 25bd 50b0 14bc 7852 13bc
000003a0: 4e65 473d e067 b93b 2027 203c 0011 8b3b
000003b0: 1477 753d 1885 46bc 403e 203c 006e 8db9
000003c0: b01f 2cbc 16d1 06bd fe2d 633d e092 46bd
000003d0: 04a2 383d c43e 14bd 2c1b 1c3d 24d8 e63c
000003e0: 02c3 013d d068 64bc e0b3 88bb 7274 3c3d
000003f0: b0aa 313d 58c5 c23c fecd 443d 4c92 163d

fc1.bias f4 [256]
0.04109887 0.040919796 0.054684967 0.044188008 -3.496601e-05 -0.062444 0.031891167 -0.030340033
0.0010400116 -4.720254e-05 -0.05447955 -0.037005134 -0.009821784 -0.005705835 0.023525566 0.06515096
0.0560338 -0.040938366 -0.042832546 -0.0076122736 -0.04557722 -0.042400718 0.026255706 -0.04736817
0.03489426 0.04847462 -0.04654935 0.06403683 -0.042447336 -0.027373549 0.017631955 0.018253999
0.039824978 -0.016849384 -0.040988147 -0.0066110673 0.035791453 -0.04851681 0.04238791 0.0045723827
0.025358057 0.009792725 0.005993955 -0.0452909 -0.005348969 0.048646864 -0.010875791 0.039326586
0.026116505 -0.048216492 -0.058555663 0.0013768533 -0.00987175 0.020709867 -0.037214167 0.029168645
0.04604184 -0.03997246 -0.038622394 0.009534948 0.04819647 -0.03845372 -0.02447596 -0.019168872
-0.06105956 0.009976357 0.054263916 0.06254958 0.032256532 -0.03895952 0.06501438 0.05355636
-0.049289275 -0.019277746 0.060674656 -0.050938245 0.0058183894 0.025443193 0.03583108 -0.060960267
0.045429394 -0.023885021 0.057323284 -0.038048957 -0.056434773 -0.048168346 -0.0049016494 0.05956418
0.049063105 0.015444248 -0.017733572 -0.029433502 -0.05289173 0.022002254 -0.031910524 0.03511676
0.041906364 -0.012518057 -0.04296723 -0.016867295 0.04288907 -0.0063595697 -0.038132936 -0.019292545
-0.02376037 0.0107867895 -0.017800545 0.03622969 -0.027510133 0.023490002 0.014255688 -0.03467667
0.008032924 0.019536728 -0.023226127 -0.036816068 -0.003481891 0.0015665116 0.051180687 -0.04115437
0.055465203 -0.040205855 -0.0029652133 -0.006336813 0.005665891 0.011739338 -0.03594585 -0.0068942886
-0.042766485 -0.00010128974 0.04717415 0.05227938 -0.004911625 -0.06595829 -0.008704945 0.03241076
-0.052539103 0.048554674 0.015157096 -0.015773676 0.039388083 0.02403008 0.016184663 0.022225581
-0.037523657 0.039743543 -0.04415239 0.03668881 -0.050933916 0.039640576 0.008024224 -0.042000227
-0.051088404 0.042221136 -0.05011654 0.060060266 0.033157807 0.04768911 -0.01716772 0.0016616434
-0.019221775 -0.016292455 0.022115912 -0.003487182 0.045204666 -0.04599505 0.013853624 0.02890579
0.038476847 0.019749964 -0.025204733 0.042682778 0.00036750734 -0.031103134 0.031038268 0.019529272
-0.007385207 -0.058912534 0.03605893 0.0015754253 0.054548174 0.024469508 -0.052310213 -0.011945525
0.05577543 -0.00732003 0.044746384 0.027257277 -0.026509669 -0.009790978 -0.0077236556 -0.039354287
0.06047198 0.05206099 0.03272469 -0.055033185 -0.045729823 -0.043257207 0.040318634 -0.002435349
-0.05404615 -0.060638778 0.05219607 0.02288405 0.05916602 0.022329547 0.04725287 0.03467251
-0.036428865 0.027722796 -0.03099421 0.024882859 -0.05269864 0.04526632 0.0052443007 0.024078475
0.021594124 -0.041806474 0.02740249 0.053946864 0.033625133 -0.0045338967 -0.055499844 -0.040903654
-0.004435592 0.027137324 0.018098002 -0.009083581 0.038370036 0.002644457 0.01971631 0.04850486
-0.026506662 -0.048160717 -0.037637107 -0.005216567 0.026113618 0.01594456 0.015724799 0.03274841
0.016648518 -0.02473972 0.04348404 0.059962872 0.048139624 -0.038002063 -0.02200443 -0.0464048
0.049409803 0.05851775 0.06321442 -0.058440447 -0.011595838 0.02426352 0.035625808 0.054034855
00000000: 4a57 283d 849b 273d 58fd 5f3d 7cfe 343d
00000010: 78a8 12b8 48c5 7fbd 50a0 023d a98b f8bc
00000020: 0051 883a 57fb 45b8 f325 5fbd b292 17bd
00000030: 8ceb 20bc 03f8 babb b0b8 c03c de6d 853d
00000040: b383 653d fdae 27bd 2e71 2fbd 6170 f9bb
00000050: 2eaf 3abd 60ac 2dbd 3516 d73c 2005 42bd
00000060: 49ed 0e3d 538d 463d 88aa 3ebd be25 833d
00000070: 42dd 2dbd 7e3e e0bc e470 903c 6989 953c
00000080: 841f 233d b807 8abc 30e3 27bd a7a1 d8bb
00000090: 0f9a 123d 90b9 46bd f29e 2d3d edd3 953b
000000a0: b3bb cf3c aa71 203c f068 c43b f382 39bd
000000b0: 6746 afbb ef41 473d 6030 32bc ea14 213d
000000c0: 48f2 d53c a87e 45bd 10d8 6fbd 8877 b43a
000000d0: 1fbd 21bc bda7 a93c e26d 18bd 15f3 ee3c
000000e0: 5e96 3c3d 2aba 23bd 8432 1ebd 7838 1c3c
000000f0: a969 453d a681 1dbd cf81 c8bc 0a08 9dbc
00000100: 9719 7abd e073 233c d743 5e3d ff19 803d
00000110: 6d1f 043d 0594 1fbd 4226 853d ea5d 5b3d
00000120: 8de3 49bd 5dec 9dbc fd85 783d 9fa4 50bd
00000130: 30a8 be3b 3e6e d03c 9cc3 123d 79b1 79bd
00000140: 2c14 3a3d 85aa c3bc d2cb 6a3d 39d9 1bbd
00000150: 2628 67bd 2c4c 45bd 049e a0bb 92f9 733d
00000160: 65f6 483d df09 7d3c ff45 91bc 871e f1bc
00000170: 00a5 58bd 123e b43c 9cb4 02bd 97d6 0f3d
00000180: 02a6 2b3d 8918 4dbc 68fe 2fbd 482d 8abc
00000190: 73ac 2f3d f063 d0bb 4831 1cbd 660b 9ebc
000001a0: 1ca5 c2bc 13bb 303c 73d2 91bc 9565 143d
000001b0: ee5c e1bc 1b6e c03c b090 693c 2009 0ebd
000001c0: 869c 033c 7d0b a03c b844 bebc 72cc 16bd
000001d0: 7030 64bb 6853 cd3a d7a2 513d 7c91 28bd
000001e0: 7b2f 633d e5ae 24bd 0654 42bb 0aa5 cfbb
000001f0: f0a8 b93b 5a56 403c f53b 13bd 7ce9 e1bb
00000200: e92b 2fbd 846b d4b8 ae39 413d e722 563d
00000210: b2f1 a0bb 2415 87bd 309f 0ebc 25c1 043d
00000220: 3e33 57bd 44e1 463d 7855 783c cc37 81bc
00000230: 6655 213d bbda c43c b395 843c 6c12 b63c
00000240: 68b2 19bd 20ca 223d 23d9 34bd 0147 163d
00000250: 15a0 50bd 285e 223d 0978 033c 6e08 2cbd
00000260: 1342 51bd 12f0 2c3d 0047 4dbd c101 763d
00000270: 7bd0 073d a855 433d 51a3 8cbc 80cb d93a
00000280: fc76 9dbc c177 85bc 6e2c b53c 3589 64bb
00000290: 8728 393d 4e65 3cbd 50fa 623c d6cb ec3c
000002a0: e699 1d3d adca a13c 287a cebc 23d4 2e3d
000002b0: 00ae c039 00cc febc f743 fe3c dafb 9f3c
000002c0: 9bff f1bb 454e 71bd 87b2 133d 807e ce3a
000002d0: e86d 5f3d 4774 c83c 3c43 56bd 2ab7 43bc
000002e0: c774 643d dddc efbb fc47 373d a74a df3c
000002f0: ce2a d9bc 576a 20bc b816 fdbb f631 21bd
00000300: 78b1 773d e83d 553d 530a 063d 7a6a 61bd
00000310: 324f 3bbd 782e 31bd 2725 253d 609a 1fbb
00000320: 7f5f 5dbd 5e60 78bd 8ccb 553d 5577 bb3c
00000330: 1258 723d 74ec b63c 3a8c 413d c304 0e3d
00000340: 6f36 15bd eb1a e33c 92e7 fdbc 23d7 cb3c
00000350: 87da 57bd 2d69 393d 62d8 ab3b 3940 c53c
00000360: 29e6 b03c 443d 2bbd 307b e03c 63f7 5c3d
00000370: 82ba 093d 1591 94bb ce53 63bd 978a 27bd
00000380: 7158 91bb 184f de3c 4342 943c 4dd3 14bc
00000390: e629 1d3d a04e 2d3b 1984 a13c 08ad 463d
000003a0: 8024 d9bc 2c44 45bd 5e29 1abd bcef aabb
000003b0: 3aec d53c 2a9e 823c 4bd1 803c 3223 063d
000003c0: 7962 883c f4aa cabc 521c 323d a19b 753d
000003d0: 0e2e 453d 0da8 1bbd a242 b4bc f612 3ebd
000003e0: ef61 4a3d 4fb0 6f3d 9076 813d 405f 6fbd
000003f0: 78fc 3dbc 4ac4 c63c 5eec 113d a753 5d3d

fc2.weight f4 [128, 256]
0.029677786 -0.0032941252 -0.058575187 -0.03710699 -0.019698597 -0.054510213 0.020633735 0.05703219
-0.023361951 -0.014762181 0.046653043 -0.018954512 0.029588144 -0.0010961199 0.038644746 -0.032222122
-0.033933215 -0.049044095 -0.059223883 -0.06519159 0.034917958 0.04294464 0.057843048 0.034426525
0.01579446 -0.0043597496 -0.006703362 0.029285215 0.03987568 -0.019563707 -0.00735821 0.013502567
0.026987728 0.025110371 -0.007643871 -0.05519117 0.015509138 0.044794254 -0.03630793 0.04768479
0.037417214 0.03320649 -0.042169258 -0.00012765838 -0.06304132 0.046217404 -0.0005663426 0.046393003
-0.052734546 0.043071628 0.028806217 0.0035895237 0.04358707 0.043331064 0.032823935 -0.039261147
-0.055070877 -0.0011795163 0.05506619 -0.012198554 -0.023704035 -0.02004616 -0.011468103 -0.017207483
0.027429879 0.038057633 -0.067072526 0.038206387 -0.00866149 0.033792015 -0.0031351591 0.038248423
-0.0411129 0.021216068 0.045667935 -0.059824236 -0.0022316948 0.03394926 -0.03409245 -0.0022772022
-0.061991856 0.014629454 -0.04427724 -0.046020605 -0.05889847 -0.03438266 0.012316121 0.013931569
0.025962126 -0.05166364 0.021094054 0.022700706 0.007112466 0.03691526 -0.023693725 -0.047693886
0.011984326 0.0050917454 0.033137888 0.029258803 0.013320073 0.039472833 -0.038275197 0.011576038
-0.008905531 -0.037073866 0.047616422 -0.017105784 -0.04008258 -0.06096698 -0.011499618 0.039839864
0.04673101 0.035046667 0.05652137 0.041101936 0.052754775 -0.057014056 0.0036458466 0.01715648
0.04961906 -0.037718922 0.009612965 0.002620003 0.05557857 0.01078237 -0.007462168 -0.016167097
0.018633131 -0.024056014 -0.0063961525 0.04513942 0.036053956 -0.026332242 -0.01665292 0.014906519
-0.034412395 -0.025144981 -0.02530694 -0.06554943 0.050797682 0.03634067 0.053100567 -0.0074972003
-0.028564027 0.014728904 -0.0266827 -0.06520747 0.046522986 0.05942909 0.044251043 0.013017729
0.004845384 -0.007013466 -0.04592154 -0.050479665 -0.011623225 -0.0030140507 -0.022078592 -0.017713286
-0.036104225 0.009018786 -0.0253755 0.053367663 0.032078024 0.058587328 -0.02587659 0.013388807
0.031901095 -0.013664782 0.06033214 0.0033720485 -0.02836226 -0.030013844 -0.0064135646 0.025617614
-0.00141902 -0.003920732 -0.06672743 -0.04416675 0.027573364 -0.047282886 -0.053896226 0.050545886
-0.032576546 0.046326846 0.015660428 -0.04019451 0.050030418 0.04259099 0.053495917 0.016366199
-0.03365858 -0.040411294 -0.043468095 -0.010200962 -0.044278417 -0.0013813518 0.012541384 -0.039834075
-0.055130307 0.0027885288 -0.03198369 -0.031024711 -0.03983895 0.0070014056 0.0075937253 -0.006920336
0.007350648 0.0038063524 0.003620036 0.04006675 -0.053520076 0.00016994207 0.030491415 -0.04928249
-0.005336116 0.029048428 -0.018530939 -0.02120689 -0.01188368 0.005926546 0.011754095 0.050364465
-0.058918077 0.021660153 0.02473194 0.03249545 0.037137467 -0.038493246 0.0014855842 -0.005674079
-0.0075728297 -0.04998313 -0.02407819 -0.013958185 -0.020661274 0.04715548 -0.054827634 -0.023626216
-0.06369694 0.052595355 0.024823194 0.03720305 -0.04152801 -0.0113387285 -0.027597072 -0.067283794
-0.05198916 0.038011618 -0.013060397 -0.0074764863 0.018729083 -0.0024393739 0.026041776 0.042464525
00000000: d41e f33c 40e2 57bb 89ec 6fbd 80fd 17bd
00000010: f45e a1bc 1a46 5fbd 1408 a93c 969a 693d
00000020: 9061 bfbc 13dd 71bc 4317 3f3d 7e46 9bbc
00000030: d662 f23c aeab 8fba f449 1e3d 58fb 03bd
00000040: 8efd 0abd 76e2 48bd be94 72bd 2b83 85bd
00000050: 2206 0f3d b8e6 2f3d d5ec 6c3d d402 0d3d
00000060: 6263 813c 3bdc 8ebb e0a7 dbbb 8ce7 ef3c
00000070: ae54 233d 1144 a0bc 241d f1bb df39 5d3c
00000080: 5e15 dd3c 44b4 cd3c 7079 fabb 2310 62bd
00000090: 0a1a 7e3c 2e7a 373d a0b7 14bd 2051 433d
000000a0: cb42 193d 8703 083d acb9 2cbd 09dc 05b9
000000b0: cf1b 81bd 764e 3d3d 9c76 14ba 9706 3e3d
000000c0: 2e00 58bd e06b 303d 04fb eb3c 373e 6b3b
000000d0: 5b88 323d ea7b 313d 6472 063d 4cd0 20bd
000000e0: 0092 61bd 009a 9aba 168d 613d 72dc 47bc
000000f0: f72e c2bc d837 a4bc b6e4 3bbc b5f6 8cbc
00000100: a0b4 e03c 52e2 1b3d 525d 89bd 4d7e 1c3d
00000110: ece8 0dbc 7f69 0a3d 3e77 4dbb 61aa 1c3d
00000120: 0066 28bd 52cd ad3c 4d0e 3b3d 420a 75bd
00000130: a041 12bb 610e 0b3d 86a4 0bbd 1d3d 15bb
00000140: 2ceb 7dbd 61b0 6f3c 0d5c 35bd 1a80 3cbd
00000150: 863f 71bd d5d4 0cbd 8ec9 493c 3c41 643c
00000160: 86ae d43c 419d 53bd 70cd ac3c d5f6 b93c
00000170: b00f e93b 7534 173d 5819 c2bc aa5a 43bd
00000180: e859 443c a8d8 a63b 98bb 073d 28b0 ef3c
00000190: 6f3c 5a3c 44ae 213d 74c6 1cbd 6ca9 3d3c
000001a0: 81e8 11bc c4da 17bd 7009 433d 6e21 8cbc
000001b0: a22d 24bd 83b8 79bd e568 3cbc 202f 233d
000001c0: 0469 3f3d 188d 0f3d f482 673d 815a 283d
000001d0: 6415 583d 9287 69bd 28ef 6e3b bf8b 8c3c
000001e0: 5b3d 4b3d 287f 1abd b37f 1d3c 5bb4 2b3b
000001f0: 5ba6 633d 8aa8 303c 3485 f4bb dc70 84bc
00000200: 82a4 983c 1e11 c5bc d196 d1bb 1de4 383d
00000210: 50ad 133d b7b6 d7bc b46b 88bc 793a 743c
00000220: 03f4 0cbd d9fc cdbc 8050 cfbc c83e 86bd
00000230: 3b11 503d f4d9 143d fb7f 593d 13ab f5bb
00000240: 1bff e9bc 8051 713c ad95 dabc 7e8b 85bd
00000250: e38e 3e3d eb6b 733d 9540 353d 5048 553c
00000260: 07c6 9e3b 38d1 e5bb 3a18 3cbd c4c3 4ebd
00000270: 576f 3ebc 6187 45bb 2ade b4bc 741b 91bc
00000280: 06e2 13bd 88c3 133c 48e0 cfbc 0d98 5a3d
00000290: 3f64 033d 44f9 6f3d 24fb d3bc ba5c 5b3c
000002a0: b9aa 023d 40e2 5fbc d61e 773d 96fd 5c3b
000002b0: f857 e8bc 98df f5bc e128 d2bb 08dc d13c
000002c0: 69fe b9ba 7c79 80bb 64a8 88bd 32e8 34bd
000002d0: 89e1 e13c b3ab 41bd 4ac2 5cbd 3409 4f3d
000002e0: fc6e 05bd 38c1 3d3d 4c4a 803c 00a3 24bd
000002f0: b2ec 4c3d e473 2e3d 891e 5b3d 6812 863c
00000300: 94dd 09bd 5086 25bd 9a0b 32bd f021 27bc
00000310: 495d 35bd 7a0e b5ba 617a 4d3c 0e29 23bd
00000320: 51d0 61bd c0bf 363b 5401 03bd 8927 febc
00000330: 2b2e 23bd 0c6c e53b c9d4 f83b fcc3 e2bb
00000340: b4dd f03b ff73 793b 203e 6d3b 081d 243d
00000350: de37 5bbd 7a32 3239 22c9 f93c 70dc 49bd
00000360: 96da aebb f8f6 ed3c 32ce 97bc 12ba adbc
00000370: c4b3 42bc 7933 c23b 3f94 403c f84a 4e3d
00000380: 1554 71bd a270 b13c a39a ca3c f319 053d
00000390: 751d 183d 18ab 1dbd efb7 c23a a0ed b9bb
000003a0: 8025 f8bb 1cbb 4cbd a03f c5bc dfb0 64bc
000003b0: d541 a9bc 1b26 413d f192 60bd c48b c1bc
000003c0: 8b73 82bd 3a6e 573d 035a cb3c 3a62 183d
000003d0: 4619 2abd 13c6 39bc 4113 e2bc 16cc 89bd
000003e0: 96f2 54bd 12b2 1b3d 46fb 55bc 50fd f4bb
000003f0: bc6d 993c e7dd 1fbb 9055 d53c 48ef 2d3d

fc2.bias f4 [128]
-0.06749103 0.052350853 -0.06234195 0.027154552 -0.06115551 0.0013072924 -0.05877962 -0.015907276
0.049473308 0.033898514 -0.017203089 -0.0052410415 0.01943245 0.013407974 -0.031379957 -0.05771379
0.051125124 -0.0104984585 -0.0011677376 0.0060413303 -0.026100213 0.004844919 0.025899703 -0.04768634
0.051107794 -0.02857575 -0.0070912275 -0.007977106 0.0058771316 0.042847127 0.015937056 0.067602195
-0.026800245 -0.005581263 -0.057977468 -0.057176463 -0.01855306 -0.016903566 0.0032684137 0.06551674
-0.039584354 0.038912673 -0.015904235 0.0024764761 0.0056572095 0.007512119 -0.003448631 0.009542674
-0.026426487 -0.006654517 -0.051979974 -0.03667549 0.049327217 -0.0129971495 0.035204872 -0.024128735
0.04330375 0.047836326 -0.040958248 -0.04527623 0.060177002 -0.06044413 -0.030476848 -0.027405115
0.02774139 0.031404473 0.024862606 -0.02771449 0.0232298 0.064379916 0.05263761 0.006867828
-0.04808546 0.0555426 0.0064692097 0.009465304 -0.055639915 -0.049765814 -0.008934998 -0.03692868
-0.016612064 0.052243583 -0.020627197 0.02713452 0.03568002 -0.029172271 -0.015090356 0.030181052
-0.028928574 0.009953674 0.064834245 0.023963317 -0.012489609 0.0070506753 0.04692924 -0.025868587
-0.055319425 -0.035081998 -0.04657074 -0.024544954 -0.023168067 0.0019107424 0.017878745 0.025379118
0.043904103 -0.03380948 -0.017488599 -0.01968735 -0.04541877 0.0054801395 -0.0071475017 0.05622862
0.04469905 -0.04881076 0.055723693 0.029258465 0.011685699 0.06256584 -0.028322406 0.05094174
0.027638374 0.049379922 -0.0054504327 -0.0037177056 -0.037831865 0.0054430002 0.0063738646 -0.038421087
00000000: bd38 8abd d96d 563d 465a 7fbd 3973 de3c
00000010: 337e 7abd 7459 ab3a e6c2 70bd fa4f 82bc
00000020: 86a4 4a3d 2bd9 0a3d 7eed 8cbc 0bbd abbb
00000030: cd30 9f3c 1ead 5b3c 4588 00bd 4c65 6cbd
00000040: 9468 513d ba01 2cbc c60e 99ba 5af6 c53b
00000050: 1dd0 d5bc 20c2 9e3b 9d2b d43c c052 43bd
00000060: 6856 513d b117 eabc 875d e8bb 68b2 02bc
00000070: f494 c03b 7880 2f3d 6e8e 823c 0573 8a3d
00000080: 308c dbbc 07e3 b6bb c879 6dbd de31 6abd
00000090: 96fc 97bc 5979 8abc e232 563b a42d 863d
000000a0: 3423 22bd e562 1f3d 9949 82bc 604c 223b
000000b0: 1d60 b93b 3928 f63b 6d02 62bb e058 1c3c
000000c0: 5c7c d8bc 220e dabb f4e8 54bd 0a39 16bd
000000d0: 560b 4a3d fff1 54bc fc32 103d a0a9 c5bc
000000e0: 465f 313d 06f0 433d d6c3 27bd 9173 39bd
000000f0: 297c 763d 4494 77bd 95aa f9bc b180 e0bc
00000100: e941 e33c faa1 003d aaac cb3c 8009 e3bc
00000110: 6c4c be3c 9ed9 833d 899a 573d 840b e13b
00000120: 42f5 44bd a380 633d aafb d33b 5d14 1b3c
00000130: aee6 63bd 3dd7 4bbd 1964 12bc 8742 17bd
00000140: 0616 88bc 5efd 553d 5efa a8bc 3649 de3c
00000150: 3625 123d b0fa eebc 8a3d 77bc 413e f73c
00000160: 9efb ecbc bc14 233c d1c7 843d b84e c43c
00000170: 38a1 4cbc 5a09 e73b e038 403d 5cea d3bc
00000180: 9f96 62bd 24b2 0fbd f6c0 3ebd 8012 c9bc
00000190: f5ca bdbc e071 fa3a 7276 923c dee7 cf3c
000001a0: cad4 333d cf7b 0abd 4044 8fbc 5e47 a1bc
000001b0: 0809 3abd be92 b33b 9735 eabb fb4f 663d
000001c0: 5a16 373d cbed 47bd 873e 643d 73af ef3c
000001d0: 6075 3f3c 8522 803d 6404 e8bc 49a8 503d
000001e0: df69 e23c 9a42 4a3d 8b99 b2bb c0a4 73bb
000001f0: 96f5 1abd 325b b23b dadb d03b 6e5f 1dbd

actor.weight f4 [4, 128]
-0.009178342 -0.017444592 -0.046106882 -0.0350994 0.021202397 0.08719986 -0.04716483 -0.07478551
-0.02075985 -0.040345013 0.019098327 -0.006414609 0.07711474 -0.0053672353 0.044398982 -0.0083992435
-0.08179791 -0.074237645 -0.0067210617 -0.013557255 0.0053630644 0.058261864 -0.037850134 -0.059469577
0.015378232 0.0673336 0.07362686 0.07840741 -0.04220653 -0.06734761 -0.03845973 0.024862522
-0.0033884356 0.043885153 0.08555776 0.041307345 -0.003381971 -0.08022362 -0.07064195 -0.007884707
-0.04892245 -0.06345058 0.027288692 -0.07237445 -0.039905302 0.048551857 0.020941522 -0.060489714
-0.060979225 0.023399562 0.08614267 -0.010779211 0.04413378 -0.02056672 0.07217035 0.07076669
0.054202534 0.0058472976 0.0064497744 -0.082001366 -0.0234186 -0.0178933 0.06346982 0.016908564
-0.06355162 -0.072230764 0.042290065 -0.028072076 0.05740834 0.069643475 0.04881965 -0.0055024256
-0.044839118 -0.008677936 -0.017109498 -0.08447112 -0.06383811 0.090565115 -0.024235222 -0.025731158
0.07930308 0.002253139 0.049183056 0.077507704 0.070987105 -0.07883643 -0.045760777 0.017183453
-0.026030146 -0.056724023 0.040045124 -0.03392338 0.012793108 0.09757771 0.0534714 0.08065458
0.07421429 -0.038240973 -0.041629873 0.07526576 -0.027690891 -0.045911767 0.035181567 0.08025667
0.03979995 0.023194687 0.017848654 0.041953076 0.08601939 0.06393769 -0.028219452 -0.077394865
0.036261782 -0.055756293 -0.066906765 -0.033728916 -0.047874946 0.046868667 0.046671644 0.04888848
0.03454064 0.045736704 -0.041263264 -0.0720791 -0.034311064 0.07980823 -0.067183524 -0.07161222
-0.047837354 0.070970476 0.0805268 0.01505151 -0.06683592 0.020461857 0.05311544 0.033780247
0.05392115 0.058114287 -0.037942052 -0.04029722 -0.037655324 -0.07391973 0.026005672 0.0071360157
0.024929024 0.046400536 -0.0120008 -0.056312047 -0.04871642 -0.02603337 -0.08464801 0.05986595
-0.04137851 -0.06394533 0.04498123 0.07247665 0.043283746 -0.0834001 -0.032091126 -0.052574314
-0.079897515 -0.092367716 0.026004834 -0.03637061 0.028005848 0.029544627 -0.010423573 0.07843399
0.012820738 0.036625024 0.08006643 -0.0574092 0.0061047236 0.07569399 -0.078666985 -0.0854413
-0.046141192 -0.06041484 0.016469788 -0.08308134 -0.07661426 0.010050184 0.016574072 0.019337501
0.005036068 -0.012769235 0.019745978 -0.009037389 0.0339681 0.057303403 0.08492072 0.076885134
-0.053873353 0.07941028 -0.07020988 0.032017864 0.07356025 0.0667028 0.06957281 -0.047172196
-0.074140824 -0.056851227 0.036851823 0.043839972 -0.024876492 0.035432454 -0.004311004 -0.01760551
-0.009258021 0.06101952 0.0039243735 0.030477514 -0.026504371 -0.022019105 -0.016058048 -0.07032304
0.041626673 0.09057202 -0.015683332 0.07525473 -0.02333987 -0.051151857 -0.06527927 -0.0671363
-0.054899648 0.06606129 -0.024764119 0.08363171 0.07021242 -0.03633297 -0.04675521 0.033935715
-0.014420455 -0.025046315 0.010375135 -0.005128582 -0.016428947 -0.00082524354 0.07317877 -0.032493316
-0.009210224 0.0051016547 0.043842204 0.07189722 -0.024137395 0.08226406 0.048179224 -0.070057645
0.061658837 0.003765315 0.08415722 -0.041246675 0.020949265 0.082369104 -0.01289956 -0.026306272
00000000: c260 16bc f6e7 8ebc 92da 3cbd 63c4 0fbd
00000010: a6b0 ad3c d795 b23d e92f 41bd 2529 99bd
00000020: 9010 aabc d040 25bd 1874 9c3c a431 d2bb
00000030: 55ee 9d3d a2df afbb b5db 353d fb9c 09bc
00000040: aa85 a7bd e809 98bd 5a3c dcbb 401f 5ebc
00000050: a5bc af3b fea3 6e3d be08 1bbd 5f96 73bd
00000060: fbf4 7b3c 33e6 893d aec9 963d 1094 a03d
00000070: c1e0 2cbd 8bed 89bd f387 1dbd 7dac cb3c
00000080: 8410 5ebb ebc0 333d e838 af3d e431 293d
00000090: 0fa4 5dbb 484c a4bd baac 90bd dc2e 01bc
000000a0: e862 48bd 61f2 81bd 898c df3c 0e39 94bd
000000b0: be73 23bd 50de 463d 8e8d ab3c 10c4 77bd
000000c0: 5ac5 79bd 70b0 bf3c 916b b03d 4a9b 30bc
000000d0: 9fc5 343d 8a7b a8bc 0cce 933d 20ee 903d
000000e0: 7a03 5e3d b09a bf3b a158 d33b 55f0 a7bd
000000f0: 5dd8 bfbc f894 92bc 77fc 813d d483 8a3c
00000100: 5a27 82bd b9ed 93bd 5938 2d3d 69f7 e5bc
00000110: 0225 6b3d 3da1 8e3d 1df7 473d b14d b4bb
00000120: 39a9 37bd e72d 0ebc 3829 8cbc 32ff acbd
00000130: 8ebd 82bd 347a b93d f288 c6bc 26ca d2bc
00000140: a769 a23d 66a9 133b 2c74 493d 5cbc 9e3d
00000150: b061 913d ff74 a1bd a76f 3bbd 50c4 8c3c
00000160: 2c3d d5bc 7357 68bd 5b06 243d 3ef3 0abd
00000170: 2f9a 513c d3d6 c73d d404 5b3d 3a2e a53d
00000180: a9fd 973d 91a2 1cbd 1684 2abd ef24 9a3d
00000190: 02d8 e2bc fa0d 3cbd 8c1a 103d 9c5d a43d
000001a0: 4605 233d c902 be3c 5737 923c fdd6 2b3d
000001b0: ef2a b03d c3f1 823d 7b2c e7bc 3381 9ebd
000001c0: 3c87 143d b660 64bd 6a06 89bd 5527 0abd
000001d0: 8518 44bd 5cf9 3f3d c42a 3f3d 493f 483d
000001e0: 7c7a 0d3d 6956 3b3d ab03 29bd 359e 93bd
000001f0: c289 0cbd 7f72 a33d 8497 89bd 6da9 92bd
00000200: 1af1 43bd f858 913d 3ceb a43d 9c9a 763c
00000210: 45e1 88bd a09f a73c 938f 593d 285d 0a3d
00000220: 6cdc 5c3d 3f09 6e3d 2069 1bbd b30e 25bd
00000230: 783c 1abd 3a63 97bd d909 d53c 3dd5 e93b
00000240: f437 cc3c 7d0e 3e3d 019f 44bc 76a7 66bd
00000250: de8a 47bd ef43 d5bc f05b adbd 0036 753d
00000260: 837c 29bd c5f5 82bd 3d3e 383d a36e 943d
00000270: 4c4a 313d accd aabd fc71 03bd 2a58 57bd
00000280: 4fa1 a3bd 492b bdbd 1708 d53c 59f9 14bd
00000290: 856c e53c 9307 f23c a2c7 2abc 00a2 a03d
000002a0: 130e 523c 1f04 163d def9 a33d e925 6bbd
000002b0: 220a c83b 7305 9b3d 281c a1bd d9fb aebd
000002c0: 8cfe 3cbd 8d75 77bd a6eb 863c 8d26 aabd
000002d0: f0e7 9cbd 87a9 243c 59c6 873c ae69 9e3c
000002e0: 9a05 a53b 0e36 51bc 51c2 a13c 8f11 14bc
000002f0: 2222 0b3d f9b6 6a3d eaea ad3d f475 9d3d
00000300: 4eaa 5cbd dba1 a23d 33ca 8fbd 2a25 033d
00000310: c2a6 963d 7a9b 883d 307c 8e3d a237 41bd
00000320: 25d7 97bd d5dc 68bd f0f1 163d 8b91 333d
00000330: c9c9 cbbc 9f21 113d 5343 8dbb 6e39 90bc
00000340: f4ae 17bc 9bef 793d 0898 803b fbab f93c
00000350: b21f d9bc 6961 b4bc 2b8c 83bc 8705 90bd
00000360: bb80 2a3d d37d b93d 557a 80bc 271f 9a3d
00000370: 4133 bfbc 9c84 51bd 23b1 85bd c27e 89bd
00000380: 74de 60bd 244b 873d 1fde cabc 1a47 ab3d
00000390: 87cb 8f3d e1d1 14bd 6482 3fbd 2d00 0b3d
000003a0: c643 6cbc ee2d cdbc 78fc 293c aa0d a8bb
000003b0: 0096 86bc 2855 58ba c0de 953d b617 05bd
000003c0: 7be6 16bc c82b a73b e293 333d da3e 933d
000003d0: c9bb c5bc 0f7a a83d 9457 453d 627a 8fbd
000003e0: fa8d 7c3d 81c3 763b 9f5a ac3d 46f2 28bd
000003f0: cb9d ab3c 22b1 a83d ad58 53bc 4080 d7bc

actor.bias f4 [4]
-0.079992756 0.08283483 0.06433823 0.05823547
00000000: 3ed3 a3bd 4fa5 a93d c3c3 833d 5188 6e3d

critic.weight f4 [1, 128]
-0.05726681 -0.08256939 -0.008360059 0.048373252 0.08499445 0.04446997 -0.0068923268 0.042757902
-0.026715245 -0.03925154 -0.05375314 -0.037081055 -0.05225375 0.09605838 0.038945597 0.068568535
0.09639861 -0.025239708 0.02973781 -0.0682941 0.032695837 -0.010868977 0.042088274 -0.05653588
0.078151755 -0.047048304 9.3586925e-05 -0.0319226 0.0053804684 0.0033924489 0.058427185 0.027019469
0.029073657 0.04312462 0.051001772 -0.046280738 -0.067342415 -0.07903799 0.090623364 0.035388798
0.073925905 0.049888458 0.06245373 0.00836203 -0.05583891 0.07924767 -0.021419037 0.028689286
0.090730235 -0.013666938 0.07505735 0.03349195 0.053710278 0.03332616 0.0031902757 0.035105523
-0.0447974 0.078829706 0.0059113484 -0.06417107 0.08667953 0.04961869 0.077828415 -0.06948319
0.05725786 -0.05567754 0.07987414 -0.00019377013 -0.06699314 0.05978879 0.029734245 -0.06000495
0.04572223 0.05221545 -0.008085405 0.012572311 0.052699924 0.08547472 -0.069564275 0.07020753
0.08484528 0.048026208 0.08570758 -0.057075556 -0.08750244 0.011765427 -0.005507755 0.08917563
0.04643948 0.0909965 0.09033427 -0.07354627 0.044666942 -0.005158089 0.027442506 -0.07598158
0.07688985 0.09268565 -0.06934774 0.030487975 0.04370144 0.071976066 0.033759605 0.039057728
-0.03885867 0.046303958 0.00077151746 -0.009517971 -0.05200826 0.074488945 -0.062876314 -0.017047497
-0.042907216 0.06490667 -0.012851888 -0.06223866 -0.035691384 0.023535093 0.0045348373 0.016328638
-0.028831141 0.0017162196 -0.03126668 -0.08378252 -0.0028900867 -0.014221961 -0.006208118 -0.0028348076
00000000: 9a90 6abd 241a a9bd a1f8 08bc 0823 463d
00000010: 9211 ae3d 2526 363d 07d9 e1bb e922 2f3d
00000020: eed9 dabc 39c6 20bd 412c 5cbd 4ee2 17bd
00000030: 0708 56bd 42ba c43d 6b85 1f3d a96d 8c3d
00000040: a26c c53d 81c3 cebc b59c f33c c7dd 8bbd
00000050: 12ec 053d cb13 32bc c164 2c3d 2b92 67bd
00000060: 070e a03d b9b5 40bd 1944 c438 46c1 02bd
00000070: a44e b03b d953 5e3b 5851 6f3d ef57 dd3c
00000080: e12b ee3c 71a3 303d 3ce7 503d df90 3dbd
00000090: d2ea 89bd abde a1bd be98 b93d d8f3 103d
000000a0: 7766 973d d757 4c3d 7bcf 7f3d e500 093c
000000b0: 57b7 64bd 9a4c a23d fa76 afbc cb05 eb3c
000000c0: c6d0 b93d 4beb 5fbc abb7 993d db2e 093d
000000d0: 4fff 5b3d 0381 083d f213 513b cfca 0f3d
000000e0: 7a7d 37bd 7871 a13d fcb3 c13b 1f6c 83bd
000000f0: 0a85 b13d f83c 4b3d 8164 9f3d 344d 8ebd
00000100: 3887 6a3d 220e 64bd 0e95 a33d c62e 4bb9
00000110: b333 89bd 17e5 743d 3b95 f33c c0c7 75bd
00000120: 3c47 3b3d dedf 553d a678 04bc 18fc 4d3c
00000130: e0db 573d 5f0d af3d b777 8ebd f7c8 8f3d
00000140: 5dc3 ad3d 21b7 443d 7587 af3d 0fc8 69bd
00000150: 7b34 b3bd c7c3 403c 667a b4bb b6a1 b63d
00000160: 5337 3e3d 5f5c ba3d 2c01 b93d 6d9f 96bd
00000170: aff4 363d 3005 a9bb 1bcf e03c 3b9c 9bbd
00000180: 6d78 9d3d f9d1 bd3d 3006 8ebd ebc1 f93c
00000190: 4800 333d 3068 933d 8347 0a3d fffa 1f3d
000001a0: 452a 1fbd 38a9 3d3d a93f 4a3a 44f1 1bbc
000001b0: 9d06 55bd a98d 983d 4cc5 80bd 31a7 8bbc
000001c0: 7abf 2fbd caed 843d ba90 52bc f7ed 7ebd
000001d0: 2131 12bd abcc c03c f998 943b a3c3 853c
000001e0: 492f ecbc c6f2 e03a 7e11 00bd 2b96 abbd
000001f0: 9c67 3dbb 3a03 69bc 786d cbbb 2ec8 39bb

encoder.0.weight f4 [128, 256]
-0.00046792626 0.033527724 -0.05144032 -0.04599619 -0.024072148 0.016759835 -0.0012383237 0.049555592
-0.005546503 0.016538285 -0.018888317 -0.012285337 -0.05970928 -0.04139263 -0.025763944 0.0023152232
0.02470845 0.037501425 -0.042371318 -0.027216427 0.02270107 0.051899247 -0.012862511 0.046769485
-0.01007396 0.006613381 0.056592263 -0.057979397 -0.03934612 -0.015822828 -0.024362497 0.05400005
-0.04051123 -0.028770804 -0.04366503 -0.05853506 -0.03648378 0.053724878 0.027888648 0.030292034
0.0032869726 -0.03204272 0.010574043 -0.05835592 -0.04516039 -0.032220624 0.03943362 0.036645077
-0.02771844 -0.0022551492 0.039972544 0.06213332 0.024805136 0.008443303 0.041905396 -0.036800146
0.011646502 -0.048456594 -0.043317884 -0.032286473 0.028279565 0.025135025 -0.03702203 0.018881693
0.03431075 -0.007888585 0.0023863465 0.0144815445 0.038773537 0.060012132 -0.048163973 -0.022904359
0.024563119 0.051784337 0.054387957 0.055147298 0.012438409 -0.054348916 0.005749531 -0.039100334
-0.058247134 0.05553078 0.047522485 -0.062345497 0.011698253 -0.010528751 -0.010285072 -0.028609805
0.02403476 -0.03701897 0.022911958 0.031606756 0.044741973 0.023369446 -0.061858453 -0.040543556
0.031207189 0.0130813345 -0.04875525 -0.03598872 0.05879683 0.042113617 -0.027251571 -0.015730299
-0.05953738 -0.0011233836 -0.047066182 -0.048209794 -0.0034437254 0.009384066 -0.025595643 0.0370861
-0.038033694 0.05671063 0.042831242 -0.052705184 -0.01555527 0.002820164 0.009118818 0.014823392
0.024526767 0.0037437603 -0.030495547 0.029574312 -0.059953056 -0.037044168 -0.015645616 -0.030444585
-0.021864586 -0.051226355 -0.013294697 0.013359778 -0.04071661 -0.00320746 0.044740677 -0.0064250156
0.0017370135 -0.0053918064 0.012648836 0.039739966 0.059202887 0.039690994 0.059338346 -0.0045201033
-0.056145094 -0.029629827 0.042556576 -0.00040515512 -0.031065397 -0.047894485 -0.058490753 -0.052750513
-0.012677297 0.034275375 0.033790067 -0.060276993 0.038986377 -0.04890684 -0.013213143 -0.02534204
-0.012038454 -0.012271419 -0.056084372 -0.05396487 -0.009779967 0.00080826133 -0.02839218 0.0235437
-0.05625365 -0.0042179525 0.054963715 -0.02549325 0.056437694 0.02263461 -0.05640381 0.039543584
-0.0072121546 -0.027900428 0.04997833 -0.05050595 0.006706558 -0.013085544 0.04463204 0.017446533
0.030031584 0.022072434 -0.015029669 -0.013144091 -0.05150509 0.033865258 0.04962363 0.042764053
-0.044086143 0.0027874932 -0.044058383 -0.03440526 -0.036419094 0.021359064 -0.037244573 -0.0013635755
0.0026292577 0.04028894 -0.047245003 -0.042907014 -0.036291346 0.043745838 -0.022466563 0.052718043
0.022600472 0.007914126 -0.0004652515 -0.012355097 0.007841647 -0.014271542 -0.00043915212 0.007974565
-0.04888782 -0.032758214 0.050468296 -0.050721668 -0.004487887 0.06182742 0.022577316 0.001769565
-0.05416312 0.030961119 -0.044517547 -0.017741516 -0.02096977 -0.009255461 0.0006836429 0.05155047
0.007802427 0.0559808 0.03823203 -0.039513372 0.028031506 -0.044181004 -0.026489072 0.018382668
0.020637006 0.046889253 -0.020119742 0.00010005385 0.032176472 -0.06044326 0.04518629 -0.05168265
0.0008614063 -0.010626048 -0.03291706 0.00826069 0.05168242 -0.018269971 -0.03710588 -0.023114927
00000000: 0054 f5b9 5e54 093d 16b3 52bd 8066 3cbd
00000010: f432 c5bc ec4b 893c 404f a2ba cefa 4a3d
00000020: 70bf b5bb 4c7b 873c acbb 9abc 7048 49bc
00000030: b891 74bd 528b 29bd e80e d3bc 00bb 173b
00000040: 6069 ca3c 189b 193d 8c8d 2dbd fcf4 debc
00000050: 98f7 b93c 4e94 543d 48bd 52bc 5c91 3f3d
00000060: 400d 25bc 10b5 d83b 4acd 673d ce7b 6dbd
00000070: 6629 21bd e09e 81bc dc93 c7bc 282f 5d3d
00000080: 1aef 25bd c0b0 ebbc 1ada 32bd 76c2 6fbd
00000090: 0470 15bd 9e0e 5c3d bc76 e43c 0027 f83c
000000a0: 406a 573b 3a3f 03bd c03e 2d3c 9e06 6fbd
000000b0: 1afa 38bd c6f9 03bd 2685 213d 2619 163d
000000c0: c811 e3bc 20cb 13bb 40ba 233d 827f 7e3d
000000d0: 2434 cb3c c855 0a3c fea4 2b3d c0bb 16bd
000000e0: f8d0 3e3c 6c7a 46bd 186e 31bd d23e 04bd
000000f0: 8caa e73c f8e7 cd3c 6aa4 17bd c8ad 9a3c
00000100: 6e89 0c3d 203f 01bc 4064 1c3b 0044 6d3c
00000110: 00d1 1e3d 48cf 753d 9647 45bd eca1 bbbc
00000120: 9838 c93c d01b 543d e8c5 5e3d 22e2 613d
00000130: 78ca 4b3c f89c 5ebd 9066 bc3b ac27 20bd
00000140: 8c94 6ebd 3e74 633d f0a6 423d fe5d 7fbd
00000150: 08aa 3f3c c880 2cbc b882 28bc 1c5f eabc
00000160: 8ce4 c43c 34a1 17bd dcb1 bb3c 1676 013d
00000170: 5c43 373d 4871 bf3c 4a5f 7dbd 0011 26bd
00000180: 38a6 ff3c 1853 563c 96b3 47bd e868 13bd
00000190: f2d4 703d 547f 2c3d b03e dfbc d4dc 80bc
000001a0: 78dd 73bd 803e 93ba 78c8 40bd a277 45bd
000001b0: 20b0 61bb a0bf 193c f4ad d1bc 98e7 173d
000001c0: 38c9 1bbd 6849 683d d06f 2f3d 64e1 57bd
000001d0: 88db 7ebc 80d2 383b 1867 153c d0dd 723c
000001e0: 5cec c83c e059 753b ccd1 f9bc d445 f23c
000001f0: 5691 75bd a0bb 17bd 3c2b 80bc ec66 f9bc
00000200: 5c1d b3bc bad2 51bd 00d2 59bc f8e2 5a3c
00000210: 76c6 26bd 4034 52bb 0042 373d f088 d2bb
00000220: 80ac e33a c0ad b0bb 103d 4f3c 60c6 223d
00000230: ba7e 723d 0693 223d c40c 733d 601d 94bb
00000240: 66f8 65bd 40ba f2bc ce4f 2e3d 006b d4b9
00000250: dc7c febc 022d 44bd 0094 6fbd ec10 58bd
00000260: 70b4 4fbc 5664 0c3d 7467 0a3d 02e5 76bd
00000270: 2eb0 1f3d 8a52 48bd f07b 58bc 1c9a cfbc
00000280: f03c 45bc 100e 49bc bab8 65bd 440a 5dbd
00000290: 283c 20bc 80e1 533a b896 e8bc b8de c03c
000002a0: 3a6a 66bd c036 8abb a221 613d 38d7 d0bc
000002b0: 362b 673d 386c b93c ae07 67bd 74f8 213d
000002c0: f053 ecbb 708f e4bc 14b6 4c3d 54df 4ebd
000002d0: b0c2 db3b c064 56bc 16d0 363d 08ec 8e3c
000002e0: cc04 f63c 40d1 b43c 003f 76bc 505a 57bc
000002f0: 00f7 52bd 4cb6 0a3d 2642 4b3d 5c29 2f3d
00000300: ac93 34bd 60ae 363b 9076 34bd 88ec 0cbd
00000310: 302c 15bd 34f9 ae3c c48d 18bd 00ba b2ba
00000320: a04f 2c3b 0406 253d fa83 41bd 44bf 2fbd
00000330: 3ca6 14bd d62e 333d cc0b b8bc e0ee 573d
00000340: a024 b93c 40aa 013c 00ed f3b9 086d 4abc
00000350: 407a 003c 30d3 69bc 003e e6b9 c0a7 023c
00000360: 983e 48bd 7a2d 06bd d8b7 4e3d 86c1 4fbd
00000370: 200f 93bb c03e 7d3d 10f4 b83c c0f0 e73a
00000380: 26da 5dbd 2ca2 fd3c 0858 36bd a856 91bc
00000390: ccc8 abbc 38a4 17bc 8036 333a 9626 533d
000003a0: 80ab ff3b 204c 653d 3099 1c3d c6d8 21bd
000003b0: 54a2 e53c 24f7 34bd 9cff d8bc 4097 963c
000003c0: f00e a93c f20e 403d 28d2 a4bc 00d4 d138
000003d0: 7acb 033d 5a93 77bd 4215 393d 30b1 53bd
000003e0: 00d0 613a e018 2ebc 0ad4 06bd d857 073c
000003f0: f2b0 533d e8aa 95bc 56fc 17bd 845b bdbc

encoder.0.bias f4 [128]
0.02092763 -0.032485925 0.045184843 0.054728694 0.06101375 0.05949378 -0.0012006834 0.04975304
-0.016933255 -0.05019839 -0.010498889 0.031019002 0.0105966255 -0.057899363 -0.024120413 0.014529578
0.042533234 -0.056809053 -0.028901257 -0.017929375 0.040675983 -0.028498553 -0.03129179 -0.061355762
0.030089803 -0.048865907 -0.022316128 0.057625204 0.047985867 -0.003038749 0.032641537 0.024761036
0.018158972 -0.015453182 0.026586324 0.056161977 -0.05670178 -0.056628413 -0.05523894 -0.03092897
-0.033061706 0.0034460425 0.043712236 0.050614603 0.01740893 0.054243565 0.03781806 -0.056922592
0.024848163 0.048042975 0.007887036 -0.05639817 -0.03255643 0.0036672056 0.04045175 0.0198059
-0.05905044 -0.05456067 0.061505303 -0.01713276 -0.006091155 -0.059938528 0.047765136 0.011401497
0.025206558 0.0476847 0.01979211 -0.03347288 0.054699205 -0.05948721 -0.04724597 0.044967137
-0.008802168 0.02921614 -0.04372534 0.01643344 0.055433184 0.019257851 0.005659662 0.018222094
-0.029733367 0.054916434 -0.0546361 0.044227995 -0.037889175 -0.0036905333 0.007340893 0.047553696
0.050543234 0.0341819 -0.021314383 0.041571483 0.04703147 0.049229614 0.016305782 -0.0016829297
0.020934895 0.050671153 -0.030355029 -0.025632493 -0.019896656 0.053449266 0.04346299 0.040937833
0.010727584 -0.04602231 -0.010544151 -0.01874715 0.049809143 0.021871343 -0.040690973 -0.03524328
0.021497741 -0.04597102 0.057842627 0.021038473 -0.03364841 0.042316817 0.059270076 -0.053842224
0.0088028535 -0.03978592 -0.05389116 0.0045848414 0.033481665 -0.0346822 0.03698705 -0.0037898943
00000000: 6c70 ab3c f60f 05bd be13 393d 322b 603d
00000010: 8ee9 793d c0af 733d 4060 9dba d8c9 4b3d
00000020: 9cb7 8abc d49c 4dbd 8803 2cbc 901b fe3c
00000030: 789d 2d3c e227 6dbd 2c98 c5bc 780d 6e3c
00000040: 5437 2e3d 9cb0 68bd 54c2 ecbc a0e0 92bc
00000050: dc9b 263d cc75 e9bc d22b 00bd 2e50 7bbd
00000060: e47e f63c 9e27 48bd 50d0 b6bc 6808 6c3d
00000070: d48c 443d c025 47bb 22b3 053d a8d7 ca3c
00000080: 20c2 943c 582f 7dbc 90cb d93c 1a0a 663d
00000090: 2040 68bd 32f3 67bd 3a42 62bd c05e fdbc
000000a0: b66b 07bd 00d7 613b 9a0b 333d 4251 4f3d
000000b0: 2c9d 8e3c 802e 5e3d 1ce7 1a3d aa27 69bd
000000c0: 608e cb3c b6c8 443d a038 013c c401 67bd
000000d0: e459 05bd 8055 703b bcb0 253d fc3f a23c
000000e0: e0de 71bd 027b 5fbd fcec 7b3d 005a 8cbc
000000f0: 5098 c7bb 1a82 75bd 60a5 433d 58cd 3a3c
00000100: fc7d ce3c 0851 433d 1023 a23c dc1a 09bd
00000110: 460c 603d dca8 73bd fe84 41bd 762f 383d
00000120: f836 10bc b056 ef3c 5819 33bd 6c9f 863c
00000130: e80d 633d a4c2 9d3c b074 b93b 8046 953c
00000140: 6493 f3bc 0ef0 603d 1aca 5fbd 6a28 353d
00000150: ae31 1bbd e0dc 71bb e08b f03b aac7 423d
00000160: 6c06 4f3d 5202 0c3d 809b aebc dc46 2a3d
00000170: 12a4 403d fea4 493d b493 853c c095 dcba
00000180: a87f ab3c 8e8c 4f3d 1cab f8bc 3cfb d1bc
00000190: 50fe a2bc 9eed 5a3d 4006 323d 6eae 273d
000001a0: c0c2 2f3c e481 3cbd 60c1 2cbc a093 99bc
000001b0: ac04 4c3d 882b b33c 94ab 26bd 425b 10bd
000001c0: 081c b03c 1c4c 3cbd 64ec 6c3d e058 ac3c
000001d0: ead2 09bd 6654 2d3d 2ec5 723d aa89 5cbd
000001e0: d839 103c 90f6 22bd fabc 5cbd 703c 963b
000001f0: 1224 093d ec0e 0ebd bc7f 173d e05f 78bb

encoder.2.weight f4 [128, 128]
0.043734476 -0.0317084 -0.0774194 -0.06545729 -0.021964524 0.08027481 -0.0693616 0.08023403
0.00596576 -0.07932939 -0.015057625 0.03593299 0.04636874 -0.086916946 -0.039362404 0.010513584
0.03882791 0.000723419 -0.061648298 -0.021284632 -0.038484402 -0.0263467 -0.010839463 -0.041668396
-0.081331395 0.0075557074 0.08377901 -0.041901395 0.08759152 0.052413724 0.060782455 0.030106315
-0.018166356 -0.011538995 0.009492429 -0.061420042 0.028504018 0.048959147 0.004408023 -0.06470282
-0.03539685 -0.071007706 0.07389273 -0.061846454 0.059727952 0.0317209 -0.00018307538 0.01880684
0.03110154 0.05626011 -0.08698985 0.08190101 0.07064088 -0.026166491 0.028857442 0.023757651
-0.05063905 0.046693787 0.07463409 -0.028503997 -0.023740435 0.080151774 -0.00906114 -0.06782453
-0.059265137 0.07219895 0.072697125 -0.011336606 -0.015008587 0.03937546 -0.0749873 0.08438366
-0.062340487 -0.030274924 -0.0032624821 0.04193745 -0.059139404 -0.023357773 0.0024108628 -0.0028662279
0.046099346 0.055843234 0.040982235 -0.041623298 0.08506218 -0.0020476414 -0.0062449407 0.07042519
0.08476724 -0.021105645 -0.045168396 -0.0138051575 0.02185588 0.07112786 0.055981677 0.052934892
-0.05230428 0.038548496 -0.024855029 -0.031401373 0.018988557 0.012988067 0.061188415 0.0649437
0.01722529 -0.08296095 -0.021161532 0.05441333 -0.041664194 -0.006108669 0.054277785 0.0877317
-0.02148266 0.01133236 0.005476951 0.0524115 0.035708886 0.06528012 -0.045213442 0.06555739
-0.01798603 -0.058776487 0.06658049 0.055159066 -0.02268552 0.027897105 -0.065904826 0.063293874
-0.01414719 -0.07354515 0.05400533 -0.041225635 0.025159465 -0.043833658 0.0025315399 0.048621066
0.030487513 -0.009904983 0.058178782 0.020140482 -0.0018824573 0.04563178 0.045373704 0.0736543
-0.08046436 0.05497734 -0.003003458 -0.027994547 -0.026977692 0.004062303 -0.008319524 -0.08753046
0.03133009 -0.014449393 0.00982109 0.01838909 -0.088051595 0.059579406 -0.03236685 -0.050463844
-0.020470714 -0.044629518 0.072776616 -0.019484203 0.058688633 0.05187749 -0.076312944 0.024248978
0.05485718 -0.052875023 -0.07170487 0.0046942737 -0.035828486 -0.020132927 0.033282626 -0.0039323117
-0.075983234 0.012461928 -0.0050934465 0.073565826 0.0066170655 -0.0039791367 -0.03943173 -0.0029332836
-0.010050759 -0.0284516 -0.08480198 0.013534849 -0.015362473 0.07686499 0.009165485 0.068493694
0.04051705 -0.045665488 -0.00044381685 0.027198035 0.0620474 0.0600524 0.083299905 -0.058589533
0.06958848 0.009546619 0.040373076 0.07079668 0.02366871 0.010060421 0.011316492 -0.03377325
-0.017839244 0.05310914 -0.059998207 0.024207663 0.006251663 -0.058316495 -0.0008410825 -0.03408094
0.08493375 -0.07533108 0.04278705 -0.020903919 -0.026206857 -0.05676916 -0.057906777 0.01810694
-0.024921315 -0.041482225 0.015363421 0.00893352 0.08272155 -0.036655124 -0.07495865 0.009169374
-0.033567235 0.018018303 0.06862788 -0.015031547 -0.06083237 -0.02703893 -0.07282773 0.055706576
-0.08175788 -0.046254702 0.0057303277 -0.026227646 0.05313134 -0.059593704 -0.026957724 -0.057326782
0.08237479 0.05575695 0.007895084 0.029406087 -0.08836028 0.07177841 -0.04831541 -0.08607833
00000000: ec22 333d abe0 01bd 108e 9ebd 790e 86bd
00000010: f2ee b3bc 1f67 a43d 740d 8ebd bd51 a43d
00000020: 6c7c c33b 7277 a2bd 42b4 76bc 792e 133d
00000030: 26ed 3d3d 8301 b2bd 793a 21bd 2b41 2c3c
00000040: 040a 1f3d d4a3 3d3a ed82 7cbd 1c5d aebc
00000050: d2a1 1dbd 09d5 d7bc 0198 31bc 7bac 2abd
00000060: 1391 a6bd de95 f73b 5494 ab3d cca0 2bbd
00000070: 2f63 b33d c6af 563d 06f7 783d 85a1 f63c
00000080: 9cd1 94bc 0e0e 3dbc 2286 1b3c 9593 7bbd
00000090: 4281 e93c 6389 483d 2d71 903b e982 84bd
000000a0: 4afc 10bd 7d6c 91bd 1255 973d b552 7dbd
000000b0: 4ca5 743d c6ed 013d ecf7 3fb9 cd10 9a3c
000000c0: a8c8 fe3c 0071 663d bc27 b2bd b7bb a73d
000000d0: 2aac 903d 1c5b d6bc 7166 ec3c 689f c23c
000000e0: e46a 4fbd fc41 3f3d c2d9 983d 3781 e9bc
000000f0: 4d7b c2bc 9d26 a43d 2d75 14bc 96e7 8abd
00000100: 00c0 72bd 0bdd 933d 3be2 943d 2cbd 39bc
00000110: 94e6 75bc 2a48 213d f192 99bd 57d1 ac3d
00000120: bd58 7fbd 1e03 f8bc 5ecf 55bb 9bc6 2b3d
00000130: 293c 72bd cd58 bfbc 91ff 1d3b 53d7 3bbb
00000140: abd2 3c3d e0bb 643d fddc 273d 317d 2abd
00000150: 1535 ae3d b931 06bb 5ca2 ccbb 153b 903d
00000160: 729a ad3d bfe5 acbc 7f02 39bd 072f 62bc
00000170: 1a0b b33c 7cab 913d 0b4d 653d 42d2 583d
00000180: 033d 56bd 07e5 1d3d c69c cbbc ba9e 00bd
00000190: e48d 9b3c e7cb 543c b4a0 7a3d 3401 853d
000001a0: 0d1c 8d3c 6ee7 a9bd f35a adbc 83e0 5e3d
000001b0: 13a8 2abd 3b2b c8bb 6252 5e3d adac b33d
000001c0: 67fc afbc 5dab 393c ff77 b33b 71ad 563d
000001d0: 7b43 123d 95b1 853d bb31 39bd f442 863d
000001e0: 7057 93bc 9dbf 70bd 5a5b 883d 79ee 613d
000001f0: fcd6 b9bc 7888 e43c 1cf9 86bd 38a0 813d
00000200: 9ec9 67bc d79e 96bd b134 5d3d 36dc 28bd
00000210: 391b ce3c ec8a 33bd 31e8 253b e226 473d
00000220: f3c0 f93c 8348 22bc e04c 6e3d a7fd a43c
00000230: c9bc f6ba 64e8 3a3d c7d9 393d 11d8 963d
00000240: 80ca a4bd eb2f 613d aad5 44bb d254 e5bc
00000250: 5200 ddbc 111d 853b 9d4e 08bc 2b43 b3bd
00000260: fb53 003d 26bd 6cbc a3e8 203c b8a4 963c
00000270: 6554 b4bd 8909 743d 1a93 04bd 2db3 4ebd
00000280: 33b2 a7bc 71cd 36bd e80b 953d 569d 9fbc
00000290: 7e63 703d 7e7d 543d f649 9cbd cba5 c63c
000002a0: ecb1 603d 7b93 58bd 01da 92bd 6cd2 993b
000002b0: e4c0 12bd cfed a4bc 5d53 083d 9fda 80bb
000002c0: 199d 9bbd 1d2d 4c3c ede6 a6bb aea9 963d
000002d0: f8d3 d83b 6b63 82bb 2a83 21bd 553c 40bb
000002e0: f0ab 24bc 5413 e9bc a9ac adbd 45c1 5d3c
000002f0: e2b2 7bbc 646b 9d3d d52a 163c 6c46 8c3d
00000300: 35f5 253d bc0b 3bbd 17b0 e8b9 6ace de3c
00000310: 6a25 7e3d 81f9 753d 2499 aa3d 94fb 6fbd
00000320: 6884 8e3d 6c69 1c3c 3d5e 253d dafd 903d
00000330: e2e4 c13c 77d4 243c cf68 393c d255 0abd
00000340: 9b23 92bc f888 593d aec0 75bd 264f c63c
00000350: c0da cc3b 47dd 6ebd 177c 5cba 7598 0bbd
00000360: bff1 ad3d 2e47 9abd 7941 2f3d b23e abbc
00000370: c3af d6bc c786 68bd a82f 6dbd 0155 943c
00000380: c927 ccbc 44e9 29bd dcb6 7b3c e65d 123c
00000390: ea69 a93d af23 16bd ec83 99bd 243b 163c
000003a0: cc7d 09bd 1f9b 933c c68c 8c3d e146 76bc
000003b0: 5d2b 79bd bf80 ddbc b426 95bd 942c 643d
000003c0: ad70 a7bd 9275 3dbd 79c5 bb3b 5cdb d6bc
000003d0: 3fa0 593d 8718 74bd 72d6 dcbc 7dcf 6abd
000003e0: 1db4 a83d 6661 643d 625a 013c 09e5 f03c
000003f0: 3cf6 b4bd 8f00 933d 61e6 45bd d649 b0bd
