checkpoints/only/seed1/final.pt (torch, 400887 bytes, 7 tensors)

fc1.weight f4 [256, 256]
00000000: edb3 253d fe07 013d 7b67 823c 6b36 853d
00000010: c663 333d 0435 a0bc 205b 39bd f31f 44bd
00000020: 2758 853c 1fed 81bd 9542 333d 226c 5f3d
00000030: f8e6 5d3a 9c0e 8abc 2c15 a5ba c838 5c3d
00000040: cc26 2b3d c62f 233d b2ce 863d d1bf 683c
00000050: b212 fc3b 36be a23b df3f 0ebd 42fe 7f3d
00000060: c10b bbba 24eb a2bc 2877 edbc 5eb0 9bbc
00000070: 84a3 fc3c e4d8 a5bb a3f8 43bd 241b d63c
00000080: ecf9 d43c 5066 adbb c93a 74bc f193 f43c
00000090: 7b19 173d 3e3c 67bd b8d6 b6bc 0d7a 31bc
000000a0: 1a26 febc 383a 37bd c7f1 133c b2a1 ff3c
000000b0: c6be abbb 2e18 33bc 0afd 583d 9040 a63c
000000c0: 10f8 623d 5097 07bd 56af 32bd 2402 293b
000000d0: 0bcc f1bc a902 d9bc 690a 683d 309d babc
000000e0: aff3 88bc 8eba 5cbd a0d1 343d 4a3d 693d
000000f0: e82e 24bd 6fe8 be3c d0a7 743c 8597 613d
00000100: 213e 703d 63d8 483c b79a 653d 4372 b9bc
00000110: 258b 033d bf17 1d3d 236f 3b3d e50e e43b
00000120: e7f6 523d fe22 5abd 7bba 6a3d 0fdf 5d3d
00000130: f903 1bbd b969 603d f16e 8c3c 3bd6 8bbc
00000140: b9cc 6f3c f4d7 d83c 523a 82bc 0ffe cbbc
00000150: 9721 babc 29b8 46bd 7b29 263c 0f82 fe3c
00000160: 1166 4fbc 7713 f0bc 70bb aa3c c1f6 acbb
00000170: cc61 bcbc e3fd 843c 79d6 463d 31cc e73c
00000180: a05e 6fbc fb3b 263d 5789 4bbd 8f4a 353d
00000190: 781d 68bd 8016 833d 8efe 853c 4a23 0f3c
000001a0: 60f1 2fbc 6b1a 61bd c7b5 4a3d 335f 723d
000001b0: 334b 283d 3949 813d 7dec 7f3d df55 0f3d
000001c0: 7ddc 5cbd 9d51 393d 098c 17bd dd28 2dbd
000001d0: f2b5 133c 709b d93c cf1c 863d c14d 8abb
000001e0: fdb8 753d d905 11bd 2743 29bc e543 23bd
000001f0: d970 dcba fe14 f0bc 63fd ac3b 6112 c23c
00000200: da32 54bd 6c10 4ebd 9844 6d3d 6389 903c
00000210: d170 783d a2fe 613d 14d6 2a3d a0c9 fe3c
00000220: 803e ec3b 1f24 a33c 6739 623d 7f5f 693b
00000230: b73a 813d 9f07 58bc 1031 f2bc 2c03 e0bc
00000240: 1419 433d 1887 3b3d 0c30 4b3d c962 363d
00000250: 8e13 013d c895 673d d63c 19bd 809d 39bc
00000260: 1665 a0bc d5eb 3b3d 1c7b 6fbd ea92 53bd
00000270: 4bed 323d 0d06 683d 33f2 39bd 841b dfbc
00000280: 24b9 743d 9f14 073d 1e77 153d d469 553d
00000290: 8d38 d03c 3fc8 a63a 56ad 3cbd 78e7 03bd
000002a0: 4def 2cbd 1618 05bd e157 9abc 787b a03b
000002b0: 4fda d6bc 3227 943b a89f bf3c 6358 41bd
000002c0: 3cf1 08bd f2e3 af3c e445 fb3c da1e d7bc
000002d0: fd7f 8f3c aa78 82bc 63f9 633d 731c 2d3d
000002e0: 30c1 603d e803 9d3a fdd1 21bc 602b 1c3d
000002f0: 58a2 703d 4c99 1f3d ed24 193c cca3 1c3b
00000300: 504a f63c 0828 39bd dce5 2c3d d027 353c
00000310: 7243 543d 4866 74bd 48ba 2ebc 00fd 383d
00000320: acfe e83c 9b81 ffbc 60e9 08bd 75c4 073b
00000330: cbe0 cdbc 7a2c 283d b49c 70bd 325c 84bb
00000340: 9e73 403d b06a 9cbb 7202 113d c010 993c
00000350: a401 663d d13e 323d 00d3 cf3c 2499 abbc
00000360: 00ac 9eb8 08de 49bd d420 90bb 5623 25bd
00000370: a0ad 29bd d10c 8c3d c059 543d d887 54bd
00000380: e82d 20bd f889 f23c c6b4 0f3d ae44 293d
00000390: 7c59 493d c43d 33bd e4da d23c 0000 4bb9
000003a0: 5c8c dcbc fa64 723d 606e febc 848a 38bd
000003b0: c849 5c3c b095 2bbd a825 383c 5103 87bc
000003c0: 512e 833d 60c8 5abc 18f8 b03c cec3 3ebc
000003d0: 503f 743d 8265 53bd c02a 983a d4bc a5bc
000003e0: 0903 d33c 026b 033d 4aca 253d 86a4 623d
000003f0: 362e 623d dad4 26bd bd73 71bc de37 43bd
0.040454794 0.031501763 0.015918484 0.0650452 0.043796323 -0.01955653 -0.04525292 -0.04788203
0.016277386 -0.063440554 0.04376467 0.054546483 0.0008464898 -0.01685267 -0.0012594811 0.05376509
0.041785046 0.039840482 0.06582393 0.014205889 0.0076926583 0.0049665226 -0.03472888 0.06249834
-0.0014270471 -0.019887514 -0.028987482 -0.019004997 0.03083969 -0.005061256 -0.04784454 0.026135989
0.025998078 -0.0052917376 -0.014906594 0.0298557 0.036889534 -0.056453936 -0.022319183 -0.010832322
-0.031024028 -0.044733256 0.009029812 0.031205032 -0.005241248 -0.010931058 0.05297569 0.020294458
0.055412352 -0.033103287 -0.043624245 0.002578863 -0.02951624 -0.026490526 0.056650553 -0.022780031
-0.01671776 -0.05388885 0.044145226 0.056943215 -0.040083796 0.023304192 0.014932588 0.05507614
0.058653 0.012258622 0.05605575 -0.022637492 0.03211512 0.038352724 0.045760285 0.0069597834
0.051504996 -0.053256027 0.057306748 0.054167803 -0.037845585 0.054788325 0.017142745 -0.017069926
0.014636212 0.026470162 -0.01589695 -0.024901418 -0.022721095 -0.048515473 0.010141726 0.031067876
-0.012658612 -0.029306157 0.02084133 -0.005278439 -0.022995852 0.016234344 0.04854438 0.028295608
-0.014609963 0.040584546 -0.049691524 0.044260558 -0.05666873 0.06400776 0.016356733 0.008736441
-0.010738701 -0.054956835 0.049489763 0.05917282 0.04108734 0.06312794 0.062481392 0.034994002
-0.05392121 0.045243848 -0.036998782 -0.0422753 0.009015547 0.026563376 0.065484636 -0.004220695
0.05999087 -0.035405967 -0.010330952 -0.03985967 -0.0016818299 -0.029306885 0.0052792295 0.023690404
-0.05180631 -0.05030863 0.057926744 0.017643636 0.060654465 0.055174477 0.041708067 0.031102002
0.007209599 0.019914685 0.055230524 0.0035609899 0.06310027 -0.013185411 -0.02956441 -0.027345262
0.04763134 0.045783132 0.049606368 0.044527803 0.03151279 0.056539327 -0.037411533 -0.011329055
-0.019579452 0.045879204 -0.058467016 -0.05165378 0.04368333 0.056646395 -0.045396995 -0.0272348
0.059746876 0.03297865 0.036490552 0.05210288 0.02541759 0.0012724473 -0.046063744 -0.032203168
-0.042220403 -0.032493673 -0.018840732 0.004897531 -0.026227145 0.004521274 0.02339156 -0.047203433
-0.033433184 0.021470997 0.030672975 -0.026259828 0.017517084 -0.015926678 0.055657756 0.04226346
0.054871738 0.0011979314 -0.009876725 0.038127303 0.058748573 0.038964555 0.009347183 0.0023901341
0.030064732 -0.045204192 0.0422114 0.011056855 0.051822133 -0.059667856 -0.01066453 0.045163155
0.02844175 -0.03118973 -0.03342569 0.0020716463 -0.025131604 0.04105804 -0.058743194 -0.004039311
0.04698526 -0.0047734603 0.035402723 0.018684745 0.05615391 0.043516938 0.025369167 -0.020947047
-7.5660646e-05 -0.04928401 -0.0043984447 -0.040316902 -0.041425347 0.06838382 0.051843405 -0.051887363
-0.03910628 0.029606804 0.03508451 0.041325264 0.049157605 -0.043760076 0.02573914 -0.00019359589
-0.026922397 0.05917833 -0.03105849 -0.045053974 0.013445325 -0.0418908 0.011239447 -0.016481074
0.064053185 -0.013353437 0.021602675 -0.011643363 0.059630692 -0.051610477 0.001160942 -0.020231642
0.025758283 0.032084472 0.04047612 0.055332683 0.05521985 -0.040730335 -0.014737067 -0.0476607

fc1.bias f4 [256]
00000000: fe81 203d 00ae e939 5603 54bd 3b45 043d
00000010: fee4 083d 1fb7 093d 5640 7dbd 5c6d 48bd
00000020: 98b6 32bd 7946 5bbc f010 dc3b 2aca 82bd
00000030: 458a 9cbb 1e08 03bd 63e7 26bb db9e 7b3c
00000040: 6e79 443d 4bd1 8f3d b2b0 163d 01a0 c2bc
00000050: 1886 243b 8231 6a3d b847 1dbd 1379 0c3d
00000060: 5ad7 f0bc 05d2 d0bc 2009 3bbd a5fe d7bb
00000070: acb7 52ba 47f0 2f3d 28ba 073d f68e 1ebd
00000080: 9aab 3fbd 2cea 6d3d dc88 82bb 4414 d7bc
00000090: 8e98 73bc 2830 253d a0b3 663d 0458 01bd
000000a0: e7bb 30bc ce4b 17bd 442f fa3c e712 04bc
000000b0: e53f 0ebd bff0 46bd cff4 81bd c418 953c
000000c0: 5e99 44bd 97fc d03c 2cd6 763d 4b48 e5bc
000000d0: 9f72 89bc c3ac 52bd f67e debc c27b 09bd
000000e0: 7f91 6c3d 7831 6b3d 784b a63c 1518 cdbc
000000f0: d30c be3c df7c 7dbd 3cd9 203b 7816 83bd
00000100: 4d34 5e3d b185 583d 7257 50bd a6dc 443c
00000110: d66e 333d d164 c0bc f807 8dbc f28e 153d
00000120: 4b7b 2d3c 2041 b43b 0433 a43c 91fe 66bd
00000130: 5f43 32bd 5464 de3a d276 303d ebd8 1b3d
00000140: 0351 3e3d 7633 42bd 0cec af3c 5ed5 81bd
00000150: 7c54 e43c 3527 85bd 2fe1 ce3b f2e2 74bd
00000160: 43ac 633c dcca 683b 486e a3bc 0a07 7f3d
00000170: 6876 383d df07 5ebd a898 41bd d3d4 113d
00000180: 833b e2bc 31bc 5d3d 1dc0 87bc 0ba7 bf3c
00000190: a1e6 29bd 48c3 9d3b a68e d439 79e5 4f3d
000001a0: f03e b83c 7506 f63c a70f cf3b f6df 0bbb
000001b0: 860e 563d 9b10 223d e029 cfbc d200 ae3a
000001c0: 62a1 adbc 1e68 6c3c ce85 c33c f652 11bd
000001d0: f023 00bc 0f45 573d 9a74 5e3c 4a72 23bd
000001e0: ba9e 8b3c e5a7 f23c 541e 3a3c 2e9f 9e3c
000001f0: d0b7 8b3d a8e1 08bc 4e7f a83c e59e 1fbd
00000200: 66f3 a4bc d96f 053d 3afe 3abd a442 053d
00000210: 285e d93c 0651 73bd 9b9e 51bd ea3d 783c
00000220: bed9 62bd 1a1b 753d 4227 29bd 38b4 59bd
00000230: cad8 2c3c 1cba d13c 984d c43c 8095 4dbd
00000240: 5a32 62bd 3b4c 2b3d 75f9 0a3d 790c 01bc
00000250: 68f2 003d f3de 0a3d 9484 f33c 6aee 3a3d
00000260: 9758 2b3d bed3 373d da13 643d 10ed 3f3b
00000270: eba7 80bd 651e 09bd 9f20 113d 7920 63bd
00000280: 5881 11bd cba2 13bd 8882 dfbc 1f79 073d
00000290: 1ce3 7b3d 1cf7 da3c df34 7c3d a16a 16bd
000002a0: 4a4c fd3c d3ec a33c 75b8 523d 49dd 6e3d
000002b0: a113 653d 6dec 033c 79f8 a0bc f29b 31bc
000002c0: d8e9 37ba 3160 3f3d 2b36 13bd c13e 86bc
000002d0: cc81 04bd 2127 45bd d569 0e3c 963c 463b
000002e0: fd54 723d ca8b abbc 6e43 b8bc 7e68 863b
000002f0: c2d7 f5bc 9973 08bd 72dd 1c3d c33e 28bd
00000300: 85a1 a2bb 2b29 643d 495f 1fbd 6c33 64bd
00000310: f3f7 59bd d682 f8bc d985 8c3d 809f d3bc
00000320: 217e 58bd 8ef9 61bd 1678 813c 0df4 2a3d
00000330: 3a48 05bd 68bd 3ebd 16dd f03c 7386 c4bb
00000340: fe63 85ba b4de da3b 7474 6f3d c5bd ba3b
00000350: c19c 5c3d 9a71 78bd f73a 843b 8877 60bc
00000360: 6018 6abb b0b7 533d a34a 64bd 8309 733d
00000370: ec16 323d eacc 54bd b4ef c1bc 1e49 7bbd
00000380: 5dc5 873b 8581 58bd 9596 31bd 88f7 333c
00000390: 34e3 513d fa2a 7bbc 4955 d13b 3f39 3d3c
000003a0: cc9c 3abd 78b1 ca3c 9ba6 29bd fcdc be3c
000003b0: 5959 61bc 7d50 09bc 7b6c 20bd 04f6 d9bc
000003c0: 4c84 5e3d 4987 7fbd f2c3 343d 1563 c83c
000003d0: 0a6c fd3c 10d1 823b e307 373c fa34 de3c
000003e0: a0b4 8d3d 4ff3 763d e82c 403c 5c44 84bc
000003f0: ae29 91bc 777b 563c 84ce 0ebd 5edf 233d
0.03918647 0.00044570863 -0.051760994 0.032292586 0.03342151 0.033621904 -0.061828934 -0.04893242
-0.043631166 -0.013383501 0.0067158863 -0.06386216 -0.004777225 -0.031990163 -0.0025467507 0.015357698
0.047967367 0.07022341 0.036789604 -0.023757936 0.002510434 0.05717612 -0.038398474 0.034295153
-0.029399563 -0.02549077 -0.045663 -0.0065916353 -0.00080382335 0.042953756 0.033136517 -0.038710557
-0.04679451 0.05808465 -0.0039836 -0.02625478 -0.014867915 0.04032913 0.056323647 -0.03157808
-0.010786987 -0.036937527 0.030540116 -0.008061147 -0.034728903 -0.048569437 -0.06345522 0.018200286
-0.047997825 0.02551107 0.060262844 -0.027988574 -0.016778288 -0.05143429 -0.027160149 -0.03356529
0.057755943 0.057420224 0.020299658 -0.025035897 0.023199474 -0.061886664 0.0024543544 -0.0640077
0.054249097 0.052861873 -0.050864644 0.012015497 0.043806873 -0.023485573 -0.017215714 0.036513276
0.010588477 0.0055009276 0.020043857 -0.056395117 -0.04352128 0.0016967156 0.043082066 0.038048666
0.046463978 -0.04741236 0.02147486 -0.06339525 0.027872317 -0.06501619 0.006313465 -0.059786744
0.013896051 0.0035521304 -0.019950047 0.062262572 0.045034796 -0.054206725 -0.047264725 0.035603356
-0.027616268 0.05413455 -0.016571099 0.023395082 -0.04147971 0.004814539 0.00040542072 0.05075595
0.022490948 0.030032376 0.0063190046 -0.0021343208 0.052259944 0.039566617 -0.025288522 0.0013275391
-0.021195117 0.01442912 0.023867514 -0.03547951 -0.007821068 0.052556094 0.013577605 -0.039903916
0.01704346 0.029621074 0.01135977 0.019363012 0.06822169 -0.008354582 0.020568516 -0.038969893
-0.020135593 0.03257737 -0.045652606 0.032534257 0.026534155 -0.05940344 -0.05117665 0.01515148
-0.055383436 0.0598403 -0.041297205 -0.053150386 0.010549733 0.02560144 0.02396278 -0.050191402
-0.0552238 0.041820746 0.033929307 -0.007876509 0.031481177 0.033904027 0.029726304 0.045637526
0.041832533 0.044879667 0.055682994 0.0029285587 -0.06282028 -0.033476252 0.0354315 -0.05545089
-0.035523742 -0.036043923 -0.027283922 0.033074494 0.061495885 0.026729159 0.06157386 -0.036722783
0.030920167 0.020010388 0.051445443 0.058316503 0.055926923 0.008051974 -0.019649731 -0.010840403
-0.00070157414 0.046722595 -0.03594033 -0.016387345 -0.032350346 -0.04813302 0.0086922245 0.0030248514
0.059163082 -0.02094068 -0.02249309 0.004101812 -0.030010108 -0.033313368 0.038297124 -0.04107548
-0.0049631023 0.055703323 -0.03890923 -0.055713102 -0.05321498 -0.030335825 0.06861467 -0.025832891
-0.05285466 -0.055169635 0.015804332 0.04173665 -0.032539584 -0.04656735 0.029402297 -0.005997473
-0.0010176895 0.0066793803 0.058460668 0.005698892 0.05386043 -0.060655214 0.0040353495 -0.0137003735
-0.0035720095 0.05168885 -0.05573524 0.059335243 0.04347889 -0.051953234 -0.02367387 -0.061349027
0.0041434006 -0.052857894 -0.043356497 0.010984309 0.05124207 -0.015330071 0.0063883406 0.011549293
-0.04555969 0.024742827 -0.041418653 0.023298733 -0.013754212 -0.008381006 -0.039165955 -0.026606567
0.054325387 -0.062384877 0.04413218 0.024461308 0.030935306 0.0039922073 0.011171314 0.02712487
0.06919217 0.06029063 0.0117294565 -0.016145878 -0.01772007 0.01309096 -0.034864917 0.04000794

fc2.weight f4 [128, 256]
00000000: a81c f9bc ece4 d13c 2c84 d63c 7c95 2fbd
00000010: 30b8 fcbc 9496 1fbd 1cc9 27bd 401c 443c
00000020: c071 8cba c067 f23b c2e4 353d 7cf6 5fbd
00000030: 0097 2f3b 74d6 b63c 701b 60bc 284f 6bbd
00000040: d2c0 553d d898 233c 142b 2abd f6cf 2a3d
00000050: ce59 61bd a061 413b e005 4f3d 0031 dc3c
00000060: 980f 08bd 2c00 62bd 76bf 4abd 2eaa 71bd
00000070: 60c2 5cbb 68d6 223d 10ae 17bd 6421 babc
00000080: 107d 413c 3a96 353d 70a6 9f3b a8f4 a83c
00000090: 7447 003d e2f0 553d 80dd 31bc 742a d83c
000000a0: 281c 8b3c 7418 af3c 80e2 7bba 460f 6a3d
000000b0: f4af f63c b0ff 32bd 0078 353d fcd6 bdbc
000000c0: 0604 323d 825e 70bd c8cf 66bd 64ac 333d
000000d0: eed9 6ebd 4a66 5f3d d8ca d83c 3ed4 32bd
000000e0: f840 003d e47b 15bd 308f 72bd 8650 193d
000000f0: 967a 66bd 389c 3dbd 487d 4bbd bc2c 383d
00000100: c089 533c 5a94 6ebd c661 3c3d e861 073c
00000110: 4237 5d3d 503b ccbc 30e9 1dbc 24f9 a33c
00000120: 467b 53bd d0c0 f03c 8027 4dba 6091 7dbc
00000130: 0099 463c 44af 8abc c43c 28bd d01a a4bc
00000140: 9038 9b3b 4e4b 313d 005f 7e3c 0427 613d
00000150: bc38 2f3d b8c4 1cbd 866d 453d 1e20 30bd
00000160: 307a 84bc 1a48 0dbd a075 10bd b037 543c
00000170: 2238 0c3d 4e22 28bd 4838 b9bc bc31 b6bc
00000180: ccee 9c3c 48db 6b3d 16f4 03bd 4033 d03a
00000190: c814 aabc 0ab6 123d 40a7 113c caf9 573d
000001a0: fcd2 6a3d 34da 23bd 3498 013d 7e88 233d
000001b0: e0c3 8c3b 14c5 023d ee5e 693d f8f3 a7bc
000001c0: 5c11 5bbd 40c5 9ebb 1c6f 79bd de83 46bd
000001d0: 5afd 43bd e849 d73c ce15 503d 20d0 31bc
000001e0: 461b 353d 94ae 3bbd d0b5 acbb 5201 24bd
000001f0: e454 bdbc 44fb 393d 8463 f83c d081 91bb
00000200: 28ac 083c a612 183d aa30 0d3d 40f7 6dbd
00000210: 08a6 c43c 384b 8ebc 3485 ea3c 80d4 a73c
00000220: 4c02 383d 4a9b 673d 6a97 763d 9c23 cf3c
00000230: 9821 283d e23e 6d3d f606 633d 544b c23c
00000240: 20db edbb b07a 8dbb f009 153c 2082 6a3c
00000250: 78ab 223d 10f5 023d 9023 92bc 5057 b4bc
00000260: 56fb 28bd 10f4 96bc 404a 6dbd 885f 7a3d
00000270: f402 c43c 92a1 7fbd 864a 7e3d 52b1 1f3d
00000280: ba5b 0fbd 423e 65bd 8023 1c3a 902c 04bc
00000290: 18d9 f43c 1cff 183d 00eb 0ebb 2462 ccbc
000002a0: f023 39bd c2b1 253d 9abe 01bd 4639 7cbd
000002b0: 80d7 b2bb caf0 28bd 8604 7d3d 3835 063d
000002c0: 16f8 4ebd 0044 41bc aa09 1c3d 8aa1 183d
000002d0: 7c25 d33c f487 a8bc f411 6a3d ceaa 4bbd
000002e0: a2b5 71bd 809d 22bd 14ee 7d3d a45d b9bc
000002f0: 44b7 12bd 7086 78bd 7c01 bc3c fa29 753d
00000300: 0894 2b3d 064e 593d 2016 c8bc 9c3c e8bc
00000310: 1cbd c43c ee6a 603d c0d7 7e3b e0b1 283d
00000320: 60bc 75bc 006d 4cbc 1840 4abc 8898 d3bc
00000330: a2b8 76bd 90f0 2d3d c0e2 fd3a d45f 103d
00000340: 24ea cd3c 6a07 143d 802f c33c dc05 2e3d
00000350: a608 293d dad8 77bd 9886 403c 00c9 cfbc
00000360: 965d 433d 308f 2bbd 805f 153c 709c 09bc
00000370: 08b9 0b3c 20b8 0a3b 8037 893c d64a 53bd
00000380: 14dd 4bbd faf7 65bd e0c2 ddbb f095 b6bb
00000390: b894 cb3c d409 77bd 8e8a 703d 9808 61bd
000003a0: d634 193d 7a18 6ebd 6869 edbc d019 15bc
000003b0: b040 bf3c 1c0f 55bd 6448 e03c 9030 8fbb
000003c0: 3081 05bc 6882 0e3d 269e 74bd aa1f 1a3d
000003d0: 206c 623b 1c19 0dbd 2afa 76bd 9095 91bb
000003e0: 92d7 7bbd a27e 55bd 3ca7 1e3d 5ae3 0b3d
000003f0: aab7 3ebd 36c6 2b3d 00b9 46bc e84b 9dbc
-0.030409172 0.025621854 0.026186071 -0.04286717 -0.030849546 -0.038961962 -0.040963277 0.011969626
-0.0010715052 0.007397622 0.044407614 -0.054678425 0.0026792884 0.022319056 -0.013678417 -0.057448536
0.05218584 0.009985171 -0.04154499 0.041702233 -0.055017285 0.0029507652 0.050542712 0.026878834
-0.033217996 -0.055175945 -0.049498998 -0.059000187 -0.0033685192 0.039755255 -0.037031233 -0.022721
0.011809602 0.04433272 0.004872136 0.020624474 0.031318143 0.052231677 -0.010856032 0.02638743
0.0169812 0.021373965 -0.0009608641 0.057143472 0.030113198 -0.043700874 0.044303894 -0.023173802
0.04346087 -0.05868388 -0.0563505 0.043865576 -0.058313303 0.05454091 0.026463911 -0.04365944
0.03131196 -0.036495104 -0.059218585 0.03743031 -0.05626925 -0.04629156 -0.049680024 0.044964537
0.01291126 -0.058246948 0.04599168 0.008263089 0.054007776 -0.024930626 -0.009638116 0.02001626
-0.051631235 0.029388815 -0.00078260154 -0.015476555 0.012121439 -0.016929276 -0.041073576 -0.020032316
0.0047369674 0.043284707 0.015525579 0.05496885 0.042778715 -0.038273543 0.048200153 -0.04299938
-0.016171545 -0.03449259 -0.035268426 0.01295273 0.03423322 -0.04104834 -0.022609845 -0.022240512
0.019156836 0.05758217 -0.0322152 0.0015884414 -0.020761862 0.035818137 0.008889973 0.05272845
0.057330117 -0.040003017 0.031639293 0.03992509 0.004295811 0.03192623 0.056975298 -0.020502076
-0.053483352 -0.0048452914 -0.060896978 -0.048465602 -0.047849037 0.026280358 0.050802045 -0.0108528435
0.044215463 -0.045820788 -0.005270697 -0.04004032 -0.023111768 0.04540564 0.03032089 -0.0044405237
0.0083418265 0.03712716 0.034470238 -0.058097124 0.024004951 -0.017369851 0.02862797 0.02048707
0.044924065 0.05654458 0.060202993 0.025285535 0.041047662 0.057921298 0.05542656 0.02371756
-0.0072587878 -0.004317604 0.009096608 0.014313251 0.039714307 0.03197199 -0.017839223 -0.02201429
-0.041255318 -0.018426925 -0.05793214 0.061126262 0.02392719 -0.062409945 0.06208279 0.038987465
-0.034999587 -0.055967577 0.00059562176 -0.008067265 0.029888675 0.037352666 -0.0021807551 -0.02494914
-0.04520029 0.040452726 -0.031675912 -0.061578058 -0.0054578185 -0.04124526 0.061771892 0.032765597
-0.050529562 -0.011795998 0.038095154 0.03726343 0.02577471 -0.02057264 0.057146028 -0.04972344
-0.05901111 -0.039700985 0.061994627 -0.02262766 -0.035819307 -0.060675085 0.022949927 0.059854485
0.04188922 0.053052925 -0.024424613 -0.028349213 0.024015956 0.054789476 0.0038885921 0.04118526
-0.014998525 -0.0124771595 -0.012344383 -0.025829569 -0.060234673 0.042465746 0.0019369945 0.03524764
0.025136061 0.036139883 0.02382636 0.042486057 0.041268013 -0.06050954 0.01175084 -0.025364399
0.047696672 -0.0418846 0.009117007 -0.008399114 0.008528002 0.0021166876 0.016750097 -0.05158504
-0.049771383 -0.056144692 -0.0067676157 -0.005572073 0.024851188 -0.060312107 0.058725886 -0.054939836
0.037403904 -0.05812881 -0.028980926 -0.009100392 0.023346275 -0.052016363 0.027378269 -0.004369803
-0.0081484765 0.034792334 -0.059721135 0.037627853 0.003454931 -0.034447774 -0.06029717 -0.004442878
-0.06148488 -0.05212272 0.038733706 0.034152366 -0.046561874 0.041937076 -0.012129068 -0.019201234

fc2.bias f4 [128]
00000000: 706e 37bd cb3a 1abd 8249 9c3c 218a 73bc
00000010: d89b fbbb 5ed7 563d eacd 0abd 19dc d53c
00000020: fe70 8a3c e94d a33c 3354 ad3c e42a 003d
00000030: 5b6c 85bd a09f 2abd 0041 823d 909c ee3c
00000040: da2c 203d 8e68 a8ba 2870 2fbd 40d0 393d
00000050: 214b 6d3b 4eec 723c cad8 203c fc81 223d
00000060: c114 90bc e684 f2bc dcc2 883d 1508 3a3b
00000070: bc3a 673c 2be1 45bc 9f6b bc3c 29f5 673d
00000080: 68ca 62bd b8c3 18bd 537d bebc 3e3a 573d
00000090: abc1 66bc 18e7 aebc 39ae a2bc 08f1 46bd
000000a0: 2d94 e83c c5f3 0b3d d099 0f3c e34f d73b
000000b0: 1ccf 153d b278 703b 2f94 66bc d3da 6fbd
000000c0: 240e f43c 531f ed3c 870d 6e3d 2549 2bbd
000000d0: 6a80 e53c e670 893d 3d30 edbc 2448 8dbc
000000e0: f4e2 e7bc 7bdb cfbb 38a0 64bd 8c0d 043d
000000f0: 58c1 91bc 7b31 90bb 53f9 b83c fe8b ac3c
00000100: b1ae db3c 3400 46bd 1861 853b 06bf 2a3c
00000110: 6c4c 35bc 9bc9 173d 9bc8 82bd c071 183b
00000120: bede 883d 52bc e2bc c184 853d dc47 b83c
00000130: 32b8 5cbd bb8d 3abd 2fc2 7ebc 879a 8b3c
00000140: f6dd f4bc 9895 fabc eec0 ea3c 7cdb 0cbd
00000150: 2a43 c53c b5e4 63bd ca48 50bc c27e 6c3c
00000160: 1008 543c b030 1c3d 1f77 37bd 368b 243a
00000170: 81a3 b73c a254 e83c e4a9 39ba 69b2 74bc
00000180: 8a1d f1bc 30ff 7ebd 1399 f03b 9bcc b3bb
00000190: aefb 0f3c 0b2f 103d f374 c33c 1275 ba3c
000001a0: 6975 de3c 8d24 7abd 73dc 343d 11a7 38bd
000001b0: 942e 3bbd 568a 373d 3e32 843c acb6 793d
000001c0: bf70 4bbd 0aa1 a83c 793e 86bc 2fe8 863c
000001d0: d6db 7fbb b466 b5bc 9368 b4bc ce04 e93c
000001e0: 2106 12bd aa31 1b3c 7e46 3ebd 1660 c9bc
000001f0: c17b 38bd e758 30bd 64a5 613c 217d 833d
-0.044783056 -0.037653726 0.01907802 -0.0148644755 -0.00767849 0.052451484 -0.03388778 0.026105927
0.016899582 0.019934611 0.021158313 0.031290904 -0.06514808 -0.041656137 0.06360054 0.02912739
0.039105274 -0.0012848543 -0.04283157 0.04536462 0.003620811 0.014826847 0.009817312 0.039674744
-0.017588021 -0.029604387 0.066777915 0.0028386165 0.014113124 -0.01207761 0.023000536 0.056630287
-0.05536881 -0.037296027 -0.023253119 0.05254578 -0.01408426 -0.021350428 -0.019858466 -0.04856971
0.028390968 0.034168024 0.008764699 0.0065708025 0.036574468 0.0036693034 -0.014073416 -0.058558296
0.029791899 0.0289456 0.05811837 -0.041817803 0.028015334 0.06710987 -0.028953666 -0.017246313
-0.028306462 -0.006343303 -0.05581686 0.03223948 -0.017792389 -0.00440043 0.022579825 0.021062847
0.026816698 -0.048340037 0.0040704124 0.01042152 -0.011065584 0.0370575 -0.06385919 0.002326116
0.0668311 -0.027677689 0.065194614 0.022495203 -0.0538866 -0.04554532 -0.015549227 0.017041458
-0.029890995 -0.03058891 0.02865645 -0.034389004 0.024079878 -0.055638034 -0.012712667 0.014434518
0.012941375 0.03813237 -0.044791337 0.00062768476 0.022416832 0.028360669 -0.00070825056 -0.014935114
-0.02943303 -0.062255085 0.0073424666 -0.0054870374 0.008788032 0.035201114 0.023859477 0.022760902
0.027155595 -0.061070014 0.04415555 -0.045081202 -0.045698717 0.04480966 0.016137239 0.060965225
-0.04966807 0.020584602 -0.016387211 0.016468136 -0.0039040945 -0.0221437 -0.022022521 0.028444674
-0.035650376 0.00947229 -0.046453945 -0.02458195 -0.045039896 -0.043053534 0.013772342 0.06420351

actor.weight f4 [4, 128]
00000000: cc2c 923a b87c 03bc ed46 593d 38ea 69bd
00000010: 4d3c c23c aeec 92bd b376 9d3c 2dce d63c
00000020: b086 913d 7985 84bc abfa 833c d705 983d
00000030: 8d96 a6bc 1f0a 3dbd dd35 00bd 9009 9d3c
00000040: d994 4d3d 942b 213b 94aa 56bd b388 0bbd
00000050: 9ca5 8ebd 21f2 d83b 40ef 973d ecf3 863d
00000060: 29cf 733d 1783 32bd 205d 75bd 320f af3d
00000070: 6d9b 01bd e2a3 55bd e56c 533c f3f0 643d
00000080: 1a18 e03c 93ec 5a3c ff8e 393d cbfe 87bd
00000090: 0255 0c3d 5eb9 47bd f9d9 913d 1939 0d3d
000000a0: ef8c aabc 3b37 9bbd 3b7a b8bc 09af 9f3d
000000b0: 866b 8bbd c9b8 173d d590 6dbc 3eac 02bd
000000c0: 0d3f dbbc 17cf 7dbd b60c 12bd 07bc 68bd
000000d0: 6e25 05bc aa88 7b3d c8ca 9cbc e66d c4bb
000000e0: 7c78 233c cf1d fc3c 6de8 88bd c612 843d
000000f0: d658 9b3d cec0 743d 8cae 8dbd 81f6 2a3c
00000100: 5ea7 2a3d 2902 0e3d 359d 473d 2aa7 dd3a
00000110: 749d 28bd a37f e43c a397 b4bd e903 22bd
00000120: a2ca 88bd 3381 0b3c 87fb 163d 6977 87bc
00000130: 39ac 153b 2e3e 7ebd 3451 523d 28ab a23d
00000140: 74f6 eebc c095 983d 18da 80bd 6733 5e3d
00000150: ef19 27bd 5a5a 503b 5c9d 033c 3a58 57bd
00000160: 6333 143d 23cf 44bd 8d4e 2cbd abea 1abd
00000170: f343 983d b176 41bd dc39 853d c185 303c
00000180: b646 96bd e7bf 8c3d 7e26 7abd efc2 183c
00000190: ec55 6abd ffd8 c7bc 852b 8bbc e208 52bd
000001a0: 3866 983d f411 293d 9f63 8f3d 656b 72bd
000001b0: 48fa ddbc 570e a63d 9b42 cdbc 28df 2b3a
000001c0: 7722 073c f591 99bd ead1 91bd 68ee d9bc
000001d0: cd9a 113d 8b0e 3f3d 79a3 9f3d cb56 443d
000001e0: 6f91 903d 453f 60bd 3543 85bc c11e 82bc
000001f0: 4557 a03d f790 86bc fd5b 7dbd f88f af3c
00000200: 07d3 4c3d 1a12 64bd efe0 24bd c7a7 ac3b
00000210: 630e a2bc 9ca2 2ebd a4ac be3c fa66 28bd
00000220: 2000 fdbc 505d 63bd 22e1 4a3d 416e 78bd
00000230: af62 5a3d 80f0 983a 3d40 833d f57b 783c
00000240: ff6d c0bc 1531 90bd f037 a8bd 6c11 913b
00000250: 3e3b 59bd ee02 e93c 74a7 5abd 5719 1e3b
00000260: 3bc3 903d a98f 643d 598c 57bd a66b 7dbd
00000270: fa5a 883d 12a4 2cbd 8283 b1bd 8c68 7f3d
00000280: c74d 73bd 6f93 243d c52b 2fbd e54f 953d
00000290: 59a0 5bbd 8b7e 4abd 9178 98bd c7c5 233d
000002a0: 602b 7fbd f5f4 44bc 0f28 833d bfd6 62bc
000002b0: a030 cd3c 0d24 87bc 9ca5 063c 3425 4a3c
000002c0: 2630 0dbd a882 85bd 4100 b0bb 6ee9 c7bc
000002d0: 6879 a83d 9e45 37bd 948f 763c ee44 8dbd
000002e0: 0769 5f3d ba4f a13c e0b1 a63d dc5d e0bc
000002f0: f1ce db3c c3f6 7bbd be2a 753d 72e7 9a3d
00000300: ca6e 263d 58a8 843d 390d 2b3d f9be 333c
00000310: 4a2e 8a3d e07d f5bc e567 8d3d ecf4 98bb
00000320: 388b 2fbd ddd5 2dbd ceec 9cbd 11f0 8abc
00000330: 3252 19bd c366 383d b96b 0cbd ab49 71bd
00000340: 3481 a03d 13e4 8c3d 3d48 743d ff8e b2bd
00000350: adc9 1bbd 3adb 5f3d f715 c73c 19a6 a6bd
00000360: 01c1 0fbd 341e 1d3d a356 a53d 1560 bd3c
00000370: 3894 27bb 9367 a9bd 6db6 a53d ce1e 6f3c
00000380: 2cc6 dd3c be79 1a3d 0d71 813d 604a 4ebd
00000390: 44b9 a2bd 6b96 a03d 8dfc 9e3d e32d 4ebd
000003a0: 825a 7c3d a065 43bc 8be2 34bd aa9e 9d3d
000003b0: 86a0 8dbd 60c7 873d 5392 33bd 1f33 863d
000003c0: eb5d 923d 0d83 8bbb 3b08 e13c afa9 2bbd
000003d0: 85a8 d23c 73ff 623a 3aef 763d bdbd 0d3d
000003e0: 048e 8ebd e403 17bd 9224 8d3d 39db 4c3d
000003f0: da98 f0bc c6d4 a83c 08b1 363d bb21 1abd
0.0011152267 -0.008025341 0.053046156 -0.057108134 0.023710394 -0.07174049 0.01922164 0.02622136
0.07105768 -0.016176926 0.016110739 0.07422989 -0.02033546 -0.04615223 -0.031301368 0.019169599
0.05019078 0.0024592625 -0.05240877 -0.034065913 -0.06965181 0.006620661 0.0741868 0.06589493
0.059523735 -0.04358205 -0.059903264 0.0854782 -0.031642366 -0.052158244 0.01290438 0.05589385
0.027355243 0.013362068 0.045302387 -0.06640395 0.034260757 -0.048760764 0.07121653 0.03447828
-0.020819155 -0.07578894 -0.022519222 0.07797057 -0.06807618 0.03704146 -0.014499863 -0.031902544
-0.026763463 -0.061965074 -0.035656653 -0.05681994 -0.0081266 0.06140963 -0.019139662 -0.005994546
0.009977456 0.030775933 -0.06684957 0.06448893 0.075853035 0.059754185 -0.06918058 0.010434748
0.04166352 0.03467003 0.04873391 0.0016910781 -0.041165784 0.027892893 -0.08817985 -0.03955451
-0.06679274 0.00851469 0.03686097 -0.016536431 0.0022838248 -0.062071018 0.051346973 0.07942802
-0.029170252 0.074504375 -0.06291598 0.05424824 -0.040796217 0.0031792135 0.008033123 -0.052574374
0.03618182 -0.048049103 -0.0420671 -0.037821453 0.07434835 -0.047232334 0.065051764 0.010774077
-0.07337706 0.0687254 -0.061071865 0.00932382 -0.057210848 -0.024395464 -0.016988525 -0.051278003
0.07441372 0.041276887 0.07001423 -0.05918445 -0.027096882 0.08108204 -0.025056174 0.0006556385
0.008247963 -0.07498542 -0.07120116 -0.026602939 0.03554802 0.04664473 0.07794852 0.047934335
0.07058989 -0.05474784 -0.016267398 -0.015883805 0.07829145 -0.016426546 -0.061855305 0.021430954
0.05000594 -0.055681325 -0.040253576 0.005269024 -0.01978225 -0.042635545 0.02327568 -0.04111383
-0.030883849 -0.05550891 0.04953111 -0.06065202 0.05331677 0.0011668354 0.06408737 0.015166272
-0.02348995 -0.07040612 -0.08213794 0.0044271257 -0.053035013 0.02844378 -0.053382352 0.002412399
0.07068487 0.055801068 -0.05262408 -0.06187024 0.066579774 -0.042148657 -0.08667661 0.062355563
-0.059400346 0.040179666 -0.04276635 0.07290629 -0.053619716 -0.049437087 -0.07444871 0.039983537
-0.062297225 -0.012021293 0.06404125 -0.013845145 0.0250476 -0.016496683 0.008218195 0.0123379715
-0.034469746 -0.06519061 -0.005371124 -0.0244033 0.082262814 -0.044744126 0.01504888 -0.06897913
0.05454352 0.019691337 0.08139396 -0.027388506 0.026832076 -0.061514627 0.059855215 0.07563676
0.040633 0.064774215 0.041760657 0.010970824 0.0674711 -0.029967248 0.06904582 -0.004667869
-0.04285738 -0.042440284 -0.076623544 -0.016960176 -0.037431903 0.045019876 -0.03428242 -0.058908146
0.078371435 0.06879439 0.059639204 -0.087186806 -0.03803413 0.05465243 0.024302466 -0.08137149
-0.035096172 0.038358882 0.08073165 0.023117105 -0.0025570523 -0.08271708 0.080914356 0.014594747
0.027072035 0.03771376 0.06320391 -0.0503639 -0.07945493 0.0784119 0.07763014 -0.05033673
0.061609752 -0.011926085 -0.04416136 0.076962784 -0.06915383 0.06629825 -0.043840718 0.06552719
0.0714682 -0.004257566 0.027469745 -0.04190987 0.025715122 0.0008659281 0.060286738 0.034604777
-0.06960681 -0.036868945 0.06891741 0.050013755 -0.02936976 0.02060927 0.044602424 -0.037629824

actor.bias f4 [4]
00000000: 3b95 8fbd c4a5 103d 4bcc a1bd e2ea 50bd
-0.07010885 0.035314336 -0.07900294 -0.05100525

critic.weight f4 [1, 128]
00000000: 8d77 81bc 390e d73c d9ef 6cbd 6d17 e4bc
00000010: 5a5d 263d 7fd9 65bc ef5d 70bc 9e40 81bd
00000020: 97c1 c73b 4416 683d d0bd 0dbd 9e56 96bd
00000030: 86d6 33bd 3baa 643c b239 143d 247e 46bd
00000040: 7e54 1ebc c428 fbbc ced1 493c 2d06 173d
00000050: 66c4 25bd cdf7 8a3d ecd7 9a3d 062e e4bb
00000060: 8351 bbbc 6833 0abd 7dbf 493d f04c 863d
00000070: c1d4 19bd 8fc5 a73d e3ea 8dbd 694e 3dbd
00000080: 342c b1bd f448 b7bc 6ada 023d 2d65 2abb
00000090: 25e6 a9bb 4f51 b0bd 6ca5 4ebd 9509 a7bd
000000a0: 6f4e de3b 3c2c 613d 3e6f b73d 4836 6f3d
000000b0: 8cf2 86bd d607 4aba a63d 1a3d da2d 6b3c
000000c0: 9da7 d13d ff74 2bbc a380 97bd 792b 9dbc
000000d0: ba5a 6e3d 9e0d 443d 0dbb b93d caf0 1cbd
000000e0: 9f0c 303d 9811 6a3d 0d79 5cbd b763 253d
000000f0: 4559 bd3c 2c02 fa3c 6fec 603d 6b14 41bd
00000100: de0c f9bc 0a0f af3d 3e12 a23d 9313 a73d
00000110: a0b7 64bd f507 903d 7af1 1fbd 5181 acbd
00000120: 673a 3a3d 4a90 93bd 9f23 a23d fb83 013d
00000130: 75d4 40bd 9f70 3ebd 4d70 61bd 5dba 9dbd
00000140: 4997 d3bc 1742 9ebd e694 6ebd 5fe3 e9bc
00000150: 7ebd 3b3d dbb6 2ebd 4df1 90bd 5c20 9f3d
00000160: f217 13bd cc33 dfbc e397 84bd b937 903c
00000170: 2ee7 03bd 61dd 4b3d ffb7 113d ea94 b3bd
00000180: caa8 7ebd 4eb9 a0bc 11d6 7d3d 1b14 cd3d
00000190: e736 a23d a3ce 82bc 041a 633c afbe de3c
000001a0: 1e2c cfbc 768b 923d fc4d 093d b5d9 05bb
000001b0: f5df 97bc 66f5 50bd 2edc a53d 8868 4c3d
000001c0: c815 1d3d 9c84 9fbd be68 afbc ab7c 2f38
000001d0: 35a5 1b3d e015 b4bd 4e47 3cbd e762 26bd
000001e0: 8091 5bb7 272f 55bd ddcd 16bc 64a9 123d
000001f0: 398a 683d e92e 5a3b 303a a7bd 8d58 4c3d
-0.015804077 0.0262519 -0.057845924 -0.027843202 0.04061637 -0.014028906 -0.014670833 -0.06311153
0.0060960758 0.05666186 -0.034604847 -0.0734074 -0.043905757 0.013956602 0.036187835 -0.04846014
-0.009663699 -0.030659087 0.012318088 0.036871124 -0.040470503 0.067855455 0.07560715 -0.0069634942
-0.022866016 -0.03374043 0.049254883 0.065576434 -0.037556414 0.08191978 -0.06929567 -0.046217356
-0.08651009 -0.022373654 0.031946577 -0.0026000247 -0.005184906 -0.086092584 -0.050450727 -0.081561245
0.0067842524 0.054973826 0.08956765 0.058401376 -0.06589231 -0.0007706856 0.03765645 0.014354194
0.10237048 -0.010464906 -0.073975824 -0.019185768 0.058191992 0.04786455 0.0906888 -0.03831557
0.042980786 0.057145685 -0.05382638 0.0403783 0.023113856 0.030518614 0.05491298 -0.047138613
-0.030401643 0.0854779 0.07913636 0.0815803 -0.05583918 0.07032768 -0.03904865 -0.08423103
0.045465853 -0.07205255 0.079169504 0.031620007 -0.047077615 -0.046494123 -0.05503874 -0.077015616
-0.025828974 -0.077274494 -0.05824747 -0.028550802 0.04583501 -0.042654853 -0.070772745 0.07769844
-0.035911508 -0.027246378 -0.064742826 0.017604696 -0.032202892 0.04977167 0.035575863 -0.087686375
-0.06217269 -0.01961961 0.061971728 0.100136004 0.07920628 -0.015967673 0.013861183 0.027190534
-0.025289591 0.07155506 0.033521637 -0.0020423953 -0.018539408 -0.05101528 0.080986366 0.049904376
0.03835085 -0.07788965 -0.02141225 4.1839357e-05 0.03799935 -0.08793235 -0.04596644 -0.040621664
-1.3087294e-05 -0.05204692 -0.009204355 0.035806075 0.056772444 0.003329212 -0.08165395 0.049889136
