checkpoints/icm/seed3/final.pt (torch, 869915 bytes, 19 tensors)

fc1.weight f4 [256, 256]
0	0x3d4e3ad1	0.05034906
1	0xbbc4ef65	-0.0060099834
2	0xbc3901ee	-0.011291964
3	0xbcbe3c00	-0.02322197
4	0xbc79ecc4	-0.015254203
5	0xbccad8bf	-0.024761556
6	0xbd5c4cf8	-0.05378434
7	0xbc63ecc3	-0.013911429
8	0xbbcfd651	-0.006342687
9	0x3cd9e020	0.026596129
10	0x3ce12003	0.027481085
11	0xbcaba3cc	-0.020952128
12	0x3d30c34a	0.043154992
13	0x3d66cf97	0.056350317
14	0xbcf3c01f	-0.029754696
15	0x3c90f8f3	0.017696833
16	0xbd4c6f4e	-0.049910836
17	0x3d42c9bd	0.047555674
18	0xbd5860d2	-0.05282671
19	0x3c6e065d	0.014527884
20	0xbd1c88cf	-0.03821641
21	0x3bd85249	0.006601606
22	0x3caa0215	0.020752946
23	0xbd2fc45a	-0.042911865
24	0x3d563cbb	0.05230401
25	0xbd470874	-0.048592046
26	0xbd559d3a	-0.052151896
27	0xbd7b9d32	-0.06142921
28	0x3ca32d58	0.019919083
29	0x3d40a3b8	0.047031134
30	0x3c2e61d0	0.0106434375
31	0x3cc8af3c	0.02449762
32	0xbce46e8d	-0.027884746
33	0x3bbddd0c	0.005794173
34	0xbc92c5d4	-0.017916597
35	0x3b3243ca	0.002720105
36	0x3d000a7b	0.031259995
37	0xbc920742	-0.017825726
38	0x3c814877	0.015781624
39	0x3c365b4c	0.011130165
40	0xbc184a45	-0.009295051
41	0xbc93dbf5	-0.01804922
42	0x3cd84035	0.026397804
43	0x3c143a2c	0.009047072
44	0xbc8c798f	-0.017147807
45	0x3baeadbc	0.0053307693
46	0x3c9c4af1	0.019078704
47	0x3be33d1f	0.0069347764
48	0x3d26f9fd	0.04076575
49	0xbd0ec93a	-0.034859873
50	0x3baad63a	0.005213526
51	0x3c55ca4f	0.013048722
52	0x3cc3ef79	0.0239179
53	0x3befeb1f	0.00732173
54	0x3c9cac81	0.019125225
55	0xbd575d3e	-0.052579157
56	0xbbd6859e	-0.00654669
57	0xbc89a787	-0.016803516
58	0x3d293082	0.041306026
59	0xbd5c8506	-0.0538378
60	0xbd25a126	-0.040436886
61	0x3c3212e7	0.0108687645
62	0xbcdc6633	-0.026904201
63	0x3c8e252e	0.017351713
64	0x3d66b26c	0.0563225
65	0x3d3108c4	0.04322125
66	0x3ac516d3	0.0015036709
67	0xbc698c34	-0.014254618
68	0xbcc14e60	-0.023596942
69	0xbd21d0fa	-0.039505936
70	0xbd4e7ede	-0.05041396
71	0x3d34259e	0.043981187
72	0xbcd6b704	-0.026210316
73	0xbce41ac3	-0.027844792
74	0x3d7f70e9	0.06236354
75	0xbcf188c7	-0.029484166
76	0xbce42a1b	-0.027852109
77	0xbcbe9318	-0.0232635
78	0xbb874dc6	-0.0041291444
79	0xbd0bf504	-0.034169212
80	0x3cbf5cc2	0.02335966
81	0xb9581f22	-0.00020610963
82	0x3d484146	0.048890375
83	0x3cd786a1	0.026309313
84	0x3c0b7409	0.008511552
85	0x3c9bde04	0.019026764
86	0xbd0ab846	-0.033867143
87	0x3cec9cc8	0.028883353
88	0xbd2511aa	-0.04030005
89	0x3d216d8e	0.03941112
90	0xbcf31be3	-0.029676383
91	0x3d73320d	0.059373904
92	0x3ce6da0a	0.028180141
93	0xbc98b167	-0.01863928
94	0xba7f2de3	-0.00097343157
95	0x3d81e67b	0.06342789
96	0x3d31d590	0.04341656
97	0xbc8097f1	-0.015697451
98	0xbd118e00	-0.035535812
99	0x3d816620	0.06318307
100	0xbd24000b	-0.040039103
101	0xbd47a1a2	-0.04873813
102	0x3c9ca08b	0.019119522
103	0xbd3fce3c	-0.04682754
104	0x3c91e0a7	0.017807318
105	0xbccac1b4	-0.024750568
106	0x3ac3c852	0.001493702
107	0xbd536d34	-0.051617816
108	0x3d371a74	0.044702962
109	0x3c8a01a4	0.016846485
110	0xbc93d5b4	-0.018046238
111	0xbcb06da8	-0.021536663
112	0xbcca4218	-0.02468972
113	0x3ce144b0	0.027498573
114	0xbd49d0bc	-0.04927133
115	0x3c0b754b	0.008511852
116	0x3d1fabce	0.038982205
117	0xbd36b058	-0.04460177
118	0xbd03026a	-0.031984724
119	0xbd3041fa	-0.04303167
120	0xbd1a1a04	-0.037622467
121	0x3d3d8f0c	0.046279
122	0x3a99c5d3	0.001173193
123	0xbd2e8328	-0.04260555
124	0x3d0655fe	0.032796852
125	0x3d366782	0.044532306
126	0xbd44d5ee	-0.04805558
127	0xbc145748	-0.009054013
128	0xbc858e93	-0.016303336
129	0xbba64c42	-0.0050750086
130	0xbaebd665	-0.0017992972
131	0xbd3141ef	-0.04327577
132	0x3d1f82f0	0.03894323
133	0xbb42a426	-0.002969989
134	0xbcc43b30	-0.023954004
135	0x3c45c45c	0.0120707415
136	0x3c403713	0.011731881
137	0xbcd2a4a3	-0.02571327
138	0xbc899685	-0.016795406
139	0xbd3941b8	-0.04522869
140	0x3d4f5d41	0.050626043
141	0x3bb5b687	0.0055454406
142	0xbd5bff97	-0.053710546
143	0xbd63cc66	-0.05561485
144	0xbbb28d6a	-0.005448987
145	0x3bb9197e	0.005648791
146	0x3cfff0e7	0.0312428
147	0x3d614ad4	0.055003002
148	0x3d017fe8	0.03161612
149	0xbd5de3e7	-0.054172423
150	0xbcdbaf56	-0.026817005
151	0xbc06ecf1	-0.008235202
152	0xbc6f72c3	-0.014614764
153	0x3d58a670	0.052893102
154	0x3d81e2f6	0.063421175
155	0x3d74f3f9	0.059802983
156	0xbd533716	-0.051566206
157	0xbca1c151	-0.0197455
158	0x3d376961	0.04477823
159	0xb9d94ddb	-0.00041447472
160	0xbcb67cbb	-0.022276273
161	0xbc627e27	-0.013824022
162	0xbba5dc21	-0.005061642
163	0xbb3f847b	-0.0029223252
164	0x3d8631fe	0.06552504
165	0x3c9b7cb0	0.018980354
166	0xbc40de39	-0.011771732
167	0xbcc6c18f	-0.024262218
168	0x3d744564	0.05963649
169	0xbd25dbe3	-0.040492903
170	0x3c3cf344	0.011532608
171	0xbd38805f	-0.0450443
172	0x3d40e17c	0.04709004
173	0xbc552918	-0.013010286
174	0x3cd15807	0.02555467
175	0xbb3418e0	-0.0027480647
176	0xbd49f4e6	-0.04930582
177	0xbcc08c54	-0.023504414
178	0x3d3d9e56	0.04629358
179	0xbc9d625b	-0.019211939
180	0xbb792aa0	-0.0038019791
181	0x3ceef9a8	0.02917178
182	0xbd26d396	-0.040729128
183	0x3c1357b0	0.008993074
184	0x3d138b8a	0.036021747
185	0xbd62b0ac	-0.05534427
186	0xbd3b835c	-0.04577957
187	0x3bfc95d0	0.0077082887
188	0xbb8fca10	-0.0043881014
189	0xbce21cec	-0.027601682
190	0xb9a9f700	-0.0003241822
191	0xbc80ea8c	-0.01573684
192	0xbcf61470	-0.030039042
193	0xbca1d158	-0.019753143
194	0xba015280	-0.0004933253
195	0x3d64dc56	0.05587419
196	0x3cf04aac	0.029332481
197	0xbd5ac76f	-0.05341285
198	0xbd39e39e	-0.04538309
199	0x3bbf7ad0	0.005843498
200	0x3c25cf88	0.01012028
201	0x3d67ed15	0.056622583
202	0xbd217bac	-0.039424583
203	0x3d2d7652	0.042349167
204	0x3d5ac28a	0.053408183
205	0xbae902c0	-0.0017777309
206	0x3caa92e4	0.020821996
207	0x3b9c8e20	0.004777685
208	0x3d906234	0.07049981
209	0x3d1880d4	0.037232235
210	0x3d864864	0.06556776
211	0x3d389436	0.04506322
212	0xbcb1970c	-0.02167847
213	0x3cf90ebc	0.030402534
214	0xbd194304	-0.037417427
215	0xbce96f28	-0.028495386
216	0xbd44af1d	-0.048018564
217	0xbccdf6ff	-0.025142191
218	0xbd775b88	-0.060390025
219	0xbd07b0b6	-0.03312751
220	0x3c5967bd	0.013269362
221	0x3d87260f	0.06599056
222	0xbba516a0	-0.0050380975
223	0x3c668018	0.014068626
224	0x3bd52475	0.00650459
225	0xbcf08774	-0.029361464
226	0xbd28ad24	-0.041180745
227	0x3d1790c2	0.037003286
228	0xbd789fb6	-0.060699187
229	0xbd2af9cc	-0.04174213
230	0x3cce56a9	0.025187807
231	0x3cdf630d	0.02726891
232	0x3c6bba1f	0.014387636
233	0x3d75a902	0.05997563
234	0x3c8b2478	0.016985163
235	0xbbd72570	-0.006565742
236	0x3cca5118	0.024696872
237	0x3ceccf24	0.028907366
238	0xbbf61fd0	-0.0075111166
239	0x3c6cd1d8	0.0144543275
240	0x3d4d066e	0.05005496
241	0x3d57d6da	0.052695133
242	0x3d409ad2	0.04702265
243	0xbc44ed31	-0.012019441
244	0xbc30e9a0	-0.010797888
245	0xbd14d0b8	-0.036331862
246	0x3c09e510	0.008416429
247	0x3cc4f26c	0.024041377
248	0xbd1b924a	-0.03798131
249	0x3d53e7f2	0.051734872
250	0x3cca9dbd	0.024733419
251	0xbc82cf04	-0.015967853
252	0x3d3441d6	0.0440081
253	0x3cb84e68	0.022498325
254	0x3d015f42	0.031584986
255	0xbd6b3e28	-0.057432324

fc1.bias f4 [256]
0	0xbc986578	-0.018603072
1	0xbd620e6d	-0.05518954
2	0xbcb2bb81	-0.021817924
3	0x3d4ed283	0.05049373
4	0xbd35517e	-0.04426717
5	0xbc9b13b8	-0.018930301
6	0x3d361497	0.04445323
7	0x3cadf619	0.021235513
8	0xbc41c030	-0.011825606
9	0xbd738ef4	-0.059462503
10	0xbc4913f8	-0.012272827
11	0x3d0ccaeb	0.034373205
12	0x3d892464	0.06696394
13	0x3ceba669	0.028765874
14	0x3caecdc9	0.02133836
15	0xbc9efd48	-0.019407883
16	0xbd4a8c34	-0.049450114
17	0xbd5973e7	-0.05308905
18	0xbd1d2558	-0.038365692
19	0x3d08e073	0.033417176
20	0xbd1bfb7e	-0.03808164
21	0xbd134e92	-0.035963602
22	0x3d4a1711	0.049338404
23	0x3cbd298a	0.023091096
24	0x3cd97453	0.026544726
25	0x3d26f472	0.040760465
26	0x3d7740e0	0.060364604
27	0x39665e41	0.00021969622
28	0xbd6ebfe5	-0.058288474
29	0xbcf69bac	-0.030103527
30	0xbc678cf8	-0.014132731
31	0x3b49e6ba	0.003080769
32	0xbb6e6af3	-0.0036379665
33	0x3cd73fd7	0.026275558
34	0xbc7a8ba8	-0.015292086
35	0xbd790804	-0.06079866
36	0x39f0347e	0.00045815477
37	0xbd4d18a1	-0.050072316
38	0x3d66c1dd	0.056337226
39	0x3d39b4b2	0.04533834
40	0xbadb4f40	-0.0016731992
41	0x3bedb3b0	0.0072540864
42	0xbd25b403	-0.040454876
43	0x3d2d6447	0.04233196
44	0x3d10fa3c	0.035394892
45	0x3d4d9554	0.05019124
46	0xbd50d524	-0.050984517
47	0x3d1f637c	0.038913235
48	0xbb98bb16	-0.0046609743
49	0xbce72238	-0.028214559
50	0x3adb1fc0	0.0016717836
51	0x3d0ca37b	0.034335595
52	0xbca8c467	-0.020601464
53	0x3d6ef392	0.058337756
54	0xbd0a7456	-0.033802353
55	0x3c37eb3e	0.01122552
56	0x3d8b1786	0.06791596
57	0x3bb60391	0.0055546244
58	0x3be60886	0.007020059
59	0xbc4ca5bd	-0.012490687
60	0x3d76e2a5	0.06027474
61	0x3cbebc11	0.023283036
62	0xbd0c95c5	-0.03432252
63	0x3beee0a8	0.0072899647
64	0xbcdd5fa1	-0.027023138
65	0x3be5b9e8	0.007010687
66	0xbd04ba04	-0.03240396
67	0x3d02fd49	0.031979833
68	0x3b946347	0.0045284363
69	0xbc64ef75	-0.013973107
70	0x3d6eff77	0.0583491
71	0xbd5f0490	-0.05444771
72	0x3cc77be3	0.024351066
73	0x3cd28746	0.025699269
74	0xbcbcd3a2	-0.023050133
75	0x3d16cf63	0.036818873
76	0xbb406260	-0.002935551
77	0x3d8f310e	0.06991778
78	0x3c591a31	0.013250873
79	0x3d508256	0.050905548
80	0xbd08baed	-0.03338139
81	0xbd3490ee	-0.04408353
82	0xbc4008ac	-0.011720818
83	0x3d0dc2e0	0.034609675
84	0xbc83aead	-0.016074503
85	0xbbea9ba2	-0.007159666
86	0x3c31d550	0.01085408
87	0xbb336d7b	-0.0027378488
88	0xbcbe7ebc	-0.023253791
89	0x3c2f58b3	0.0107023
90	0xbd72df22	-0.059294827
91	0x3c0536a3	0.008130702
92	0xbd4bfaf4	-0.049799874
93	0x3c12636d	0.008934838
94	0x3cbdfb78	0.023191199
95	0xbc920698	-0.01782541
96	0x3be47c20	0.0069728047
97	0xbd2f5f89	-0.04281572
98	0x3d589ddb	0.052884918
99	0xbd36e3ac	-0.04465072
100	0x3c422daf	0.011851712
101	0x3d0c5a6f	0.03426593
102	0xbc61879d	-0.013765243
103	0xbd528f92	-0.05140645
104	0xbd37f2c1	-0.044909243
105	0xbd823762	-0.0635822
106	0xbc101a8f	-0.008795395
107	0x3c818c81	0.015814068
108	0x3d828c9f	0.063744776
109	0xbc88a3bc	-0.016679637
110	0xbc8c9297	-0.017159743
111	0xbc3e81a5	-0.011627589
112	0xbcac0ce9	-0.02100225
113	0xbd660502	-0.05615712
114	0xbc1caefe	-0.009563206
115	0xbcaeb4dd	-0.021326477
116	0xbc8dc592	-0.017306123
117	0x3d0f2ee5	0.03495683
118	0xbcd52347	-0.026017798
119	0xbd6195e0	-0.055074573
120	0x3d761279	0.06007621
121	0x3d2b26df	0.041785117
122	0x3b75eaf9	0.0037524088
123	0x3d0bb45f	0.034107562
124	0xbd81a67f	-0.06330585
125	0xbd866df3	-0.0656394
126	0x3cb83844	0.022487767
127	0xbc64d483	-0.013966682
128	0x3b1f80f1	0.002433833
129	0xbd060de3	-0.032728087
130	0x3d54ae47	0.051924016
131	0xbd63a968	-0.05558148
132	0xbd8149eb	-0.06312927
133	0xbd7d47a8	-0.061835915
134	0x3d1c31c8	0.038133413
135	0xbc770237	-0.015076212
136	0xbb68b5c0	-0.0035508722
137	0xbd36480c	-0.044502303
138	0x3ce17bb8	0.027524814
139	0x3d209f8e	0.039214663
140	0xbcd8fd95	-0.026488105
141	0x3c5946e5	0.0132615315
142	0x3c9a7834	0.018856145
143	0xbd0175f9	-0.031606648
144	0xbc10b4f3	-0.008832204
145	0x3d0e1c06	0.034694694
146	0x3d04a22b	0.032381218
147	0x3c032650	0.00800474
148	0xbd57a557	-0.052647915
149	0xbbadf4fa	-0.0053087445
150	0xbd3211b0	-0.0434739
151	0x3d5d05d6	0.053960644
152	0x3c8b7d3d	0.017027492
153	0xbd798dc2	-0.060926206
154	0x3d25c2ca	0.04046897
155	0xbbb08ef4	-0.005388135
156	0x3cf38f3f	0.029731391
157	0x3d085582	0.03328467
158	0x3c4ddf68	0.012565471
159	0x3a953cfc	0.0011385973
160	0x3d695a0d	0.056970645
161	0x3c659175	0.01401173
162	0xbc8df3f3	-0.017328238
163	0xbcf29cbc	-0.029615752
164	0xbd3408f4	-0.04395385
165	0xbc8d7a09	-0.017270105
166	0xbd498139	-0.049195502
167	0xbbb09111	-0.005388387
168	0x3cad6e2f	0.021170704
169	0xbd7b0cc7	-0.061291482
170	0x3be300a5	0.006927567
171	0xbcba3a45	-0.022732863
172	0xbd150566	-0.0363821
173	0x3cac1f61	0.021011056
174	0x3cd273d3	0.025689995
175	0xbc9338a7	-0.01797135
176	0xbd38bf5c	-0.04510437
177	0xbc6f474e	-0.014604403
178	0xbd6970df	-0.056992408
179	0xbc6cc6e4	-0.014451716
180	0x3c0766d1	0.008264259
181	0x3d0fc1ef	0.03509706
182	0xbc43f79f	-0.011960893
183	0xbce9cfb2	-0.02854142
184	0x3c158359	0.009125554
185	0x3d72f49e	0.059315316
186	0xbc30a351	-0.010781125
187	0x3c5b3adb	0.013380731
188	0xbaa778aa	-0.001277705
189	0xbc04fb35	-0.008116533
190	0xbcd6d010	-0.026222259
191	0x3d494e3c	0.049146876
192	0x3d362de1	0.044477347
193	0x3d25cfbb	0.04048131
194	0x3d621cf7	0.055203404
195	0xbd25093e	-0.040292017
196	0x3d208624	0.039190426
197	0xbb6f10d2	-0.0036478532
198	0xbd5102fc	-0.051028237
199	0x3c33de12	0.010978239
200	0x3cbc0fd4	0.022956766
201	0x3cbe1831	0.023204895
202	0x3ccfdb7e	0.025373217
203	0x3ce0ff78	0.027465567
204	0xbd596843	-0.053077947
205	0x3d807263	0.062718175
206	0xbbde45b8	-0.0067832135
207	0xbc57f221	-0.013180287
208	0xbbf0b8af	-0.0073462348
209	0xbd5d039b	-0.053958517
210	0x3cbbfe01	0.022948267
211	0x3c92389c	0.01784926
212	0x3d2a32d5	0.041552383
213	0xbcff134c	-0.031137131
214	0x3c7ceff0	0.015438065
215	0xbd1692eb	-0.036761206
216	0x3bb37270	0.0054762885
217	0x3d7856f6	0.060629807
218	0x3d102856	0.035194717
219	0xbc8a252b	-0.016863426
220	0x3d08f750	0.03343898
221	0xbd10364e	-0.03520804
222	0x3c99fd48	0.018797532
223	0xbce87bf0	-0.02837941
224	0x3d256fe6	0.040389918
225	0xbd544bdb	-0.051830154
226	0xbca25552	-0.019816075
227	0x3cd98132	0.026550863
228	0xbd0d04a7	-0.034428265
229	0xbd206b0d	-0.03916459
230	0x3c4e722a	0.012600461
231	0xbd7b1fd5	-0.061309654
232	0xbd01e097	-0.031708326
233	0xbc56cba7	-0.013110078
234	0x3d7ccd2e	0.061719112
235	0x3d5acafc	0.053416237
236	0xbd2a8cf6	-0.041638337
237	0x3d554efe	0.052077286
238	0x3c9b997e	0.01899409
239	0xbd6a712b	-0.05723683
240	0x3cf5a74c	0.029987
241	0x3d32b6ce	0.043631367
242	0xbc23b8dd	-0.009992805
243	0x3d059056	0.032608353
244	0xbb8f8331	-0.004379653
245	0x3d5871d8	0.052842945
246	0x3c2e91fd	0.0106549235
247	0x3cbe900c	0.023262046
248	0x3d829b00	0.0637722
249	0x3d044cb5	0.032299716
250	0xbc5c6b7e	-0.0134533625
251	0xbc122a80	-0.008921266
252	0x3b5909a7	0.0033117326
253	0x3cf43b89	0.029813545
254	0xbd728188	-0.059205562
255	0xbc8d45d3	-0.017245209

fc2.weight f4 [128, 256]
0	0xbd5f6de2	-0.05454815
1	0xbc9d76e8	-0.019221738
2	0xbd2ee0b8	-0.042694777
3	0x3aa24080	0.0012378842
4	0x3b8d5e40	0.004314214
5	0xbd3f0240	-0.046633005
6	0x3c9a1090	0.018806726
7	0xbcdeabe0	-0.027181566
8	0xbd2265ce	-0.03964787
9	0xbbd14300	-0.006386161
10	0x3d3d52d4	0.04622157
11	0xbcd0bc30	-0.02548036
12	0xbd5e1948	-0.05422333
13	0xbc732620	-0.014840633
14	0xba8337c0	-0.0010011122
15	0x3cd1f794	0.02563075
16	0xbcf0d794	-0.02939967
17	0x3d1564a4	0.03647293
18	0x3d19d636	0.037557803
19	0x3d39253e	0.045201533
20	0xbd570580	-0.05249548
21	0x3d471964	0.0486082
22	0xbd4c6640	-0.0499022
23	0xbd5924b8	-0.053013533
24	0xbcedb748	-0.02901806
25	0xbd25e72e	-0.040503673
26	0x3baba3e0	0.0052380413
27	0x3cc2694c	0.02373185
28	0xbd67cb22	-0.056590207
29	0x3b82e730	0.003994845
30	0x3d29ca46	0.04145267
31	0xbcadcb94	-0.021215238
32	0xbcabeca8	-0.02098687
33	0xbcc16008	-0.023605362
34	0x3c3b5ea8	0.011436142
35	0xbc827310	-0.015924007
36	0x3d7826fa	0.060584046
37	0x3c364618	0.01112511
38	0xbc69b960	-0.014265388
39	0xbd76e7c6	-0.06027963
40	0xbd169ba2	-0.036769517
41	0x3cf0fe00	0.029417992
42	0xbd275492	-0.040852137
43	0x3c4cd1d0	0.012501195
44	0x3cb62774	0.02223561
45	0xbca46104	-0.020065792
46	0x3c805f4c	0.015670441
47	0x3cb11e1c	0.021620803
48	0x3d39fb30	0.045405567
49	0xbcfc1ac4	-0.030774482
50	0x3c263788	0.010145076
51	0x3d4e6d0e	0.05039697
52	0xbd4b24a8	-0.049595505
53	0x3d48acfe	0.048993103
54	0x3d62cbd2	0.05537016
55	0xbd7b0782	-0.061286457
56	0x3d77811c	0.060425863
57	0xbd08ccdc	-0.033398494
58	0xbc810318	-0.015748546
59	0x3d67b812	0.056572028
60	0x3c2494a0	0.010045201
61	0xbc40abd8	-0.011759721
62	0x3d2c2294	0.042025164
63	0x3bae2930	0.0053149685
64	0x3d03f236	0.032213412
65	0xbcabd458	-0.020975277
66	0x3c939b00	0.018018246
67	0x3d05f9f2	0.03270907
68	0xba9ba900	-0.0011875927
69	0x3c841f08	0.016128078
70	0x3d7ef9e4	0.062250033
71	0x3d5163ca	0.051120557
72	0xbd230c5e	-0.039806716
73	0xb9ba9c00	-0.00035592914
74	0xbd19dc2e	-0.037563495
75	0xbd03c1a4	-0.032167092
76	0x3ab65900	0.0013912022
77	0x3bf00730	0.0073250756
78	0x3cdc3580	0.02688098
79	0xbd2821f8	-0.04104802
80	0x3cda0dfc	0.026617996
81	0xbc244130	-0.010025308
82	0xbd1b1912	-0.037865706
83	0x3bf561b0	0.007488452
84	0x3cfe6dc0	0.031058192
85	0x3d0719b2	0.03298349
86	0x3d142862	0.036171325
87	0x3d1a5612	0.03767974
88	0xbd5d9854	-0.05410035
89	0xbc1617a8	-0.0091609135
90	0xbd33dec8	-0.043913633
91	0xbd794c98	-0.06086406
92	0xbc8ad098	-0.016945168
93	0xbc7926d0	-0.0152070075
94	0x3d4576a8	0.048208863
95	0xbc1ba758	-0.009500347
96	0xbce55264	-0.027993388
97	0xbb37c140	-0.002803877
98	0xbbb695b0	-0.0055720434
99	0x3c554ca0	0.013018757
100	0xbbc34990	-0.005959697
101	0x3c9d6d44	0.019217141
102	0xbc868838	-0.016422376
103	0xbbd85330	-0.0066017136
104	0x3d36d99c	0.044641122
105	0x3d40b03e	0.047043078
106	0xbd3f54f2	-0.04671187
107	0xbd76feb8	-0.060301512
108	0x3c655760	0.013997883
109	0xbd2d07b4	-0.042243674
110	0xba76b480	-0.0009411052
111	0x3d5beee8	0.053694636
112	0xbd4b03ca	-0.04956416
113	0xbc739e90	-0.014869347
114	0xbc2d3268	-0.0105711
115	0x3bc41ab0	0.0059846267
116	0x3c041130	0.008060738
117	0xbcfe1c60	-0.03101939
118	0xbd29a4d8	-0.041416973
119	0xbbb88e00	-0.005632162
120	0x3b971400	0.0046105385
121	0x3d5efeac	0.054442093
122	0xbd4a0768	-0.04932347
123	0xbc83797c	-0.01604914
124	0x3d1104ac	0.035404846
125	0x3d7e8d1c	0.06214629
126	0x3b8a6ee0	0.004224643
127	0xbc3b9288	-0.01144851
128	0x3ccaf170	0.02477333
129	0xbba191a0	-0.00493069
130	0xbc81d6f4	-0.015849568
131	0x3d1d6a90	0.038431704
132	0x3c97a960	0.018513381
133	0xbd6a2cb0	-0.057171524
134	0xbcd310b4	-0.0257648
135	0x3c377f58	0.011199795
136	0x3cc937d8	0.024562761
137	0xbcb99dc0	-0.022658229
138	0xbc234ca8	-0.009967007
139	0x3d282102	0.041047104
140	0x3d146532	0.03622932
141	0xbcd5d204	-0.02610112
142	0xbd3f7d52	-0.046750374
143	0x3d284fbe	0.041091673
144	0xbb402ac0	-0.0029322356
145	0x3d2121aa	0.039338745
146	0x3d5297c2	0.05141426
147	0x3d53c6b0	0.051703155
148	0x3d4ed796	0.050498568
149	0xbd2c1cfa	-0.04201982
150	0xbc554dc8	-0.013019033
151	0x3c4af4d8	0.012387477
152	0xbd63696e	-0.055520467
153	0x3b27b540	0.002559021
154	0xbc1cacb0	-0.009562656
155	0x3b1efe60	0.0024260506
156	0x3d52fb38	0.051509112
157	0x3cc8b2b4	0.024499275
158	0x3d790caa	0.060803093
159	0x3d3da6a0	0.046301484
160	0xbd468b28	-0.048472553
161	0xbd6b5f4e	-0.057463937
162	0xbc962b08	-0.018331066
163	0x3c8e2148	0.017349854
164	0x3c0b0da0	0.008487135
165	0x3ac19c80	0.0014771372
166	0x3d3e6c50	0.046490014
167	0xbc459b88	-0.012061007
168	0xbd754936	-0.059884273
169	0xbd4f4bb8	-0.05060932
170	0xbd1b1b18	-0.037867635
171	0xbd4ebc80	-0.050472736
172	0xbd45cd34	-0.0482914
173	0xbd30d1ce	-0.043168835
174	0xbd41df66	-0.04733219
175	0xbd7df3e0	-0.062000155
176	0x3d6f3466	0.05839958
177	0x3d0b8768	0.03406468
178	0x3d50435e	0.050845496
179	0xbd6475b0	-0.055776298
180	0xbd475d66	-0.048673056
181	0xbcb7f1b4	-0.02245412
182	0x3b5bbd00	0.00335294
183	0xbd417e42	-0.04723955
184	0xba8e5280	-0.0010858327
185	0xbd1fbd1c	-0.038998708
186	0x3d4e8c98	0.05042705
187	0x3b59de00	0.0033243895
188	0xbcb8779c	-0.022517972
189	0x3c94e208	0.018174186
190	0xbd531dee	-0.051542215
191	0x3d39302c	0.045211956
192	0xbd0854cc	-0.033283994
193	0x3be58c10	0.007005222
194	0xbd42c852	-0.04755432
195	0xbd156746	-0.036475442
196	0x3b81f230	0.0039656386
197	0xbc896bec	-0.016775094
198	0xbd3730de	-0.044724338
199	0xbc7c3250	-0.015392855
200	0x3d1d927e	0.038469784
201	0x3d63f9fc	0.055658326
202	0xbd3861ca	-0.045015134
203	0x3c7bd2e0	0.015370101
204	0x3c488878	0.012239568
205	0xbd6d1392	-0.05787999
206	0xbd4329a0	-0.04764712
207	0xbd08a7c4	-0.03336312
208	0x3d19aa3c	0.037515864
209	0xbd58f4d2	-0.052967854
210	0x3d3ae632	0.045629688
211	0x3c8fb9cc	0.01754465
212	0xbb404600	-0.0029338598
213	0x3d30a03c	0.04312156
214	0xbce414fc	-0.027842037
215	0x3d154132	0.03643913
216	0xbd455bc6	-0.048183225
217	0x3c34e8f8	0.011041872
218	0x3d35ecbc	0.04441522
219	0xbd517366	-0.051135443
220	0x3ccd8ef4	0.02509258
221	0xbd68b662	-0.05681456
222	0x3c8ff560	0.017573059
223	0xbd5d02ec	-0.053957865
224	0xbcbd2ea0	-0.023093522
225	0x3c910800	0.01770401
226	0x3d72fac0	0.059321165
227	0xbcadb69c	-0.021205239
228	0xbccbea20	-0.024891913
229	0xbd643d9c	-0.055722818
230	0x3c25b3c8	0.010113664
231	0xbcbe7a30	-0.023251623
232	0xbabffa80	-0.0014646798
233	0x3c8c76e8	0.017146543
234	0x3d1ee41e	0.03879177
235	0x3d4c2fbe	0.049850218
236	0xbd1d7d1e	-0.0384494
237	0x3bab8050	0.005233802
238	0xbd0f8a1a	-0.035043813
239	0x3c4238c0	0.011854351
240	0x3c81e61c	0.015856795
241	0x3c18b8d8	0.009321414
242	0x3c139a88	0.009009011
243	0x3cf47bd8	0.02984421
244	0x3bc11cf0	0.005893342
245	0xbd70e2a8	-0.058809906
246	0xbb625660	-0.0034536347
247	0xbd3cbc06	-0.04607775
248	0xbd18a0ea	-0.037262835
249	0x3d3ec1de	0.046571605
250	0x3d7ab56e	0.06120818
251	0x3b9df860	0.0048208684
252	0x3ceaaf90	0.028648168
253	0x3d156acc	0.036478803
254	0xbd7c419a	-0.061586
255	0xbbe46fa0	-0.0069713145

fc2.bias f4 [128]
0	0xbc78c7c0	-0.015184343
1	0xbd1d1a60	-0.03835523
2	0x3d3e7430	0.046497524
3	0x3d381677	0.0449433
4	0xbbb0d2c0	-0.005396217
5	0x3c542886	0.012949115
6	0xbd07f8aa	-0.03319613
7	0xba9ef624	-0.0012127799
8	0xbd3693be	-0.04457449
9	0xbd665c18	-0.05624017
10	0x3d700681	0.058599953
11	0xbd1f97b6	-0.038963042
12	0x3d655c59	0.055996273
13	0x3d8b7032	0.06808509
14	0xbd28f426	-0.041248463
15	0xbcabb06b	-0.020958146
16	0x3d78a20c	0.060701415
17	0x3bd6bd29	0.0065533114
18	0xbce73ba2	-0.028226677
19	0xbd3a0d59	-0.045422886
20	0xbd143772	-0.03618569
21	0xbc977565	-0.018488595
22	0xbd2c24e6	-0.042027377
23	0x3d28336d	0.04106467
24	0xbc7bc0d2	-0.015365796
25	0x3d4c2aea	0.049845614
26	0x3b9b76a2	0.0047443667
27	0xbcc6101c	-0.024177603
28	0xbd3d7af9	-0.046259854
29	0xba0c718a	-0.0005357495
30	0xbb3f0799	-0.0029148816
31	0xbd21e642	-0.03952623
32	0x3d3cf181	0.046128754
33	0x3d3a3fc9	0.045470987
34	0xbd84932f	-0.064733855
35	0xbd262f35	-0.040572364
36	0xbd6e8bf1	-0.058238927
37	0x3d2830f2	0.041062303
38	0x3d45ab9e	0.04825937
39	0xbd2eee3f	-0.042707678
40	0xbb00b0be	-0.0019636597
41	0x3d222861	0.03958929
42	0x3c367200	0.011135578
43	0x3c95ea4d	0.0183002
44	0xbd29f85a	-0.041496612
45	0x3cb80ec7	0.022467984
46	0x3d748d24	0.059704915
47	0xbad33340	-0.0016113296
48	0xbd7c2096	-0.061554514
49	0x3b3e0942	0.0028997217
50	0x3ba42773	0.0050095855
51	0x3c875a89	0.016522663
52	0xbd4f8294	-0.05066164
53	0xbce84d27	-0.028357102
54	0xbc446160	-0.011986107
55	0xbd3ac7d2	-0.04560072
56	0x3d3faab4	0.046793655
57	0xbce77c55	-0.028257528
58	0xbd759f3c	-0.05996631
59	0xbcd928a7	-0.026508642
60	0x3b7d99c0	0.0038696378
61	0x3ac68d9f	0.0015148408
62	0xbc5f886d	-0.013643366
63	0xbd5dc47c	-0.05414246
64	0xbd492c04	-0.049114242
65	0x3c9b2099	0.018936442
66	0xbd275975	-0.040856797
67	0x3c22d362	0.009938093
68	0x3d25cdd7	0.040479507
69	0x3c3e7cc9	0.011626431
70	0xbd6d874b	-0.057990354
71	0xbc4c5608	-0.012471683
72	0x3cbfb3dc	0.023401193
73	0xbcc5816e	-0.024109568
74	0x3bab8ed4	0.0052355323
75	0xba16cb48	-0.0005752337
76	0x3d0230e3	0.031784903
77	0x3d32bba6	0.043635987
78	0xbcd03457	-0.025415583
79	0x3d7df30a	0.06199936
80	0xbc0e9bfd	-0.008704183
81	0x3d33564d	0.043783475
82	0xbd5e9fe8	-0.054351717
83	0xbd7aaeae	-0.061201744
84	0x3d6db826	0.058036946
85	0x3d4b5619	0.049642656
86	0xbd3b114c	-0.045670792
87	0x3c78008d	0.01513685
88	0x3d1687e9	0.036750708
89	0xbd1a2734	-0.037635043
90	0xbd3d8814	-0.046272352
91	0x3d4ecf72	0.050490804
92	0xbcf803dc	-0.030275278
93	0xbc21ef32	-0.009883689
94	0x3d538e23	0.051649224
95	0xbd464240	-0.048403025
96	0x3d159ce4	0.036526576
97	0x3cd3b8f9	0.025845038
98	0x3d36bd18	0.044613928
99	0x3c9a87ed	0.018863643
100	0x3d056105	0.03256323
101	0x3c8c9224	0.017159529
102	0xbd07bcae	-0.033138923
103	0x3d15e64b	0.036596578
104	0x3d60bc74	0.054867223
105	0xb932b318	-0.0001704212
106	0xbd7624a4	-0.060093537
107	0x3d44f8d5	0.048088867
108	0xbd2c1a7a	-0.042017438
109	0xbd597106	-0.053086303
110	0x3d16a92c	0.03678243
111	0x3d1495b3	0.036275577
112	0x3b87ebc0	0.0041479766
113	0x3d4572bf	0.048205134
114	0xbd29390a	-0.041314162
115	0xbd515062	-0.05110205
116	0x3d4a404b	0.04937772
117	0xbd5972bc	-0.053087935
118	0x3d5404af	0.05176228
119	0x3c25bb10	0.0101154
120	0xbcbf7a20	-0.023373663
121	0x3cdf6943	0.027271872
122	0x3d4a229c	0.049349412
123	0x3ca7084b	0.020389697
124	0x3d2a7751	0.041617695
125	0xb8536800	-5.0403178e-05
126	0x3c97e526	0.018541884
127	0x3cda7765	0.02666826

actor.weight f4 [4, 128]
0	0x3d6c2a12	0.05765731
1	0x3d8293c1	0.06375838
2	0x3ce619db	0.0280885
3	0x3da4e672	0.080517665
4	0xbc58ca13	-0.013231772
5	0x3d0c812a	0.034302868
6	0xbc80bfd6	-0.015716475
7	0xbd4a97d0	-0.049461186
8	0xbd2324f7	-0.039830174
9	0x3cc8d32b	0.024514755
10	0xbc434ca7	-0.011920131
11	0x3da0fe0d	0.07860956
12	0x3c899e59	0.016799139
13	0x3d08a152	0.033356972
14	0xbd6c7128	-0.0577251
15	0x3d1e5ca7	0.03866258
16	0x3db0668d	0.0861331
17	0xbda6480e	-0.08119212
18	0x3d7e9c5e	0.062160842
19	0xbda6b1f1	-0.081394084
20	0x3d6dff0a	0.058104552
21	0xbda5de31	-0.0809902
22	0xbd252186	-0.040315174
23	0xbd7c0f39	-0.061537955
24	0x3bb4926f	0.0055106203
25	0xbd8520bb	-0.065003835
26	0xbd91fda4	-0.07128456
27	0xbdb41e61	-0.08794857
28	0x3da23cd1	0.07921756
29	0xbda929cb	-0.082599245
30	0x3b3456a6	0.0027517467
31	0xbd9cbc0d	-0.07653055
32	0xbc38a09b	-0.01126876
33	0xbd5fe85f	-0.054664966
34	0x3d583e0a	0.05279354
35	0x3bc8c28e	0.0061267084
36	0x3ca144fe	0.019686218
37	0xbd3d6a0a	-0.046243705
38	0x3d1c1cba	0.038113333
39	0x3d983d55	0.07433573
40	0xbd25751e	-0.040394895
41	0xbd815610	-0.06315243
42	0x3d889b6e	0.06670271
43	0x3c8031d8	0.015648767
44	0x3c62f25c	0.013851728
45	0x3c9f8596	0.019472878
46	0xba990e1f	-0.0011677182
47	0x3d89e732	0.0673355
48	0x3cc59c41	0.02412236
49	0xbd1c653d	-0.038182486
50	0xbd91226c	-0.070866436
51	0xbcc1fd72	-0.023680422
52	0xbd8ca98a	-0.068682745
53	0x3bbbf1d2	0.0057356143
54	0xbdaa305b	-0.08310004
55	0x3ca0d4f3	0.019632792
56	0x3c0bb610	0.008527294
57	0xbaa1b536	-0.001233733
58	0x3d2370f4	0.039902642
59	0xbcd32fb7	-0.025779588
60	0x3d1f6620	0.038915753
61	0x3c7510f3	0.014957654
62	0xbd480793	-0.04883535
63	0xbd5d3524	-0.054005757
64	0xbdafd525	-0.08585576
65	0x3aa2b7c0	0.0012414381
66	0xbda82fdf	-0.08212256
67	0x3d91edfa	0.071254686
68	0x3d6ec625	0.058294434
69	0x3d07f8b0	0.03319615
70	0xbd509ff9	-0.05093381
71	0xbd306ee3	-0.0430745
72	0x3d7ebff7	0.06219479
73	0xbd419209	-0.04725841
74	0x3d594a52	0.053049393
75	0xbd155a4f	-0.036463078
76	0xbda22424	-0.079170495
77	0xbd811791	-0.06303323
78	0xbd285383	-0.041095268
79	0x3ba82cd2	0.005132296
80	0xbd0c8c9e	-0.03431379
81	0x3d00ee38	0.031477183
82	0xbcdb9494	-0.026804246
83	0xbd98e941	-0.07466365
84	0xbaf1fa69	-0.0018461469
85	0x3db17516	0.086649105
86	0x3d8d4886	0.068985984
87	0x3d842bbb	0.064536534
88	0xbd801659	-0.062542625
89	0xbd3a30fa	-0.045456864
90	0x3da6a2ee	0.08136545
91	0x3d8cfdd7	0.068843536
92	0x3cb9350a	0.022608299
93	0xbd2889ca	-0.04114703
94	0x3d94717f	0.0724821
95	0x3c764b79	0.0150326425
96	0x3d1c8870	0.038216054
97	0xbc8f5a3a	-0.017499078
98	0x3b842525	0.0040327483
99	0xbd9e7fff	-0.07739257
100	0x3d2f253a	0.04276011
101	0xbb1b8967	-0.0023733021
102	0x3d8f8417	0.07007616
103	0x3c355484	0.011067513
104	0xbcf127b0	-0.02943787
105	0x3d991ac6	0.0747581
106	0x3cd3001e	0.025756892
107	0x3b919bab	0.004443606
108	0x3da08e24	0.07839611
109	0xbc2336e5	-0.009961818
110	0xbcff8fa9	-0.031196432
111	0xbc7d5ac8	-0.0154635385
112	0xbbcc9e1e	-0.006244435
113	0x3d1c2c1b	0.038128
114	0xbd6aac83	-0.057293426
115	0x3d6cb23b	0.05778716
116	0x3d9d61e1	0.076846845
117	0x3cedcc1f	0.029027997
118	0xbcd9f90f	-0.026608018
119	0x3c8a64c4	0.016893752
120	0x3d6d482f	0.057930168
121	0xbda82134	-0.08209458
122	0xbda4026e	-0.08008276
123	0x3d305752	0.043052025
124	0x3c482696	0.012216231
125	0x3d805ad1	0.06267322
126	0x3b232e58	0.002489945
127	0x3d4f1384	0.05055572
128	0xbcceb998	-0.025234982
129	0xbd82ba0c	-0.06383142
130	0x3d813488	0.06308848
131	0x3d8ace8b	0.06777676
132	0x3c891883	0.01673532
133	0xbcc97953	-0.024593985
134	0x3d63cff2	0.055618234
135	0x3d84ffaf	0.0649408
136	0x3d06060e	0.032720618
137	0xbd5ef932	-0.05443687
138	0xbd346d86	-0.044049762
139	0x3b9bfd97	0.004760455
140	0x3b867d43	0.004104288
141	0xbc23bc68	-0.00999365
142	0x3d1f425d	0.03888165
143	0x3d821b6f	0.06352889
144	0x3d094b4f	0.033519085
145	0x3d9e0814	0.077163845
146	0x3d103d81	0.035214905
147	0xbd849eee	-0.06475626
148	0xbcada48e	-0.02119663
149	0x3c3857b9	0.011251383
150	0x3d871e5d	0.06597588
151	0x3d9aa34b	0.07550677
152	0x3d3af438	0.04564306
153	0x3d19d9f3	0.03756137
154	0xbcbb75c0	-0.022883296
155	0x3d5ccc51	0.05390579
156	0xbd9e825b	-0.07739707
157	0xbd31f80c	-0.043449447
158	0x3bd93310	0.0066284016
159	0xbd6f5f04	-0.058440223
160	0xbc3c103b	-0.011478479
161	0x3c2be53f	0.010491668
162	0x3c6843ef	0.014176353
163	0x3dae1e37	0.08501857
164	0x3d13c0ef	0.036072668
165	0xb8e696f3	-0.00010995371
166	0x3d608f02	0.054823883
167	0xbdb4e178	-0.08832067
168	0x3d51d07d	0.05122422
169	0x3d18633a	0.037204005
170	0xbda5d5e2	-0.080974355
171	0xbcda8482	-0.026674513
172	0x3d270234	0.040773585
173	0xbd846f5d	-0.06466553
174	0xbc58721f	-0.013210802
175	0x3cf06545	0.029345164
176	0x3d07ef5b	0.03318725
177	0x3cac4c89	0.021032589
178	0x3d01ab39	0.03165743
179	0xbcfa98ee	-0.0305905
180	0x3cf71cb6	0.030165058
181	0xbc6b09e1	-0.014345617
182	0xbc0e29db	-0.008676971
183	0xbca378a2	-0.019954983
184	0x3d81e62f	0.06342732
185	0x3d42488c	0.047432467
186	0x3d34c7dd	0.044135917
187	0x3d0795a4	0.033101693
188	0x3ca6fcbd	0.020384187
189	0xbd1ae467	-0.037815478
190	0xbd834201	-0.064090736
191	0xbbfddf3f	-0.0077475603
192	0x3db11814	0.08647171
193	0x3db64795	0.08900372
194	0xbd871961	-0.065966375
195	0x3d17c456	0.037052475
196	0x3d6421fa	0.055696465
197	0x3b7bb456	0.003840705
198	0x3ccbb118	0.024864718
199	0xbc826b5a	-0.01592033
200	0xbc6f014e	-0.014587713
201	0x3da1329a	0.078709796
202	0xbd3a8b14	-0.04554279
203	0xbca23a4c	-0.019803189
204	0x3c03cd6c	0.008044582
205	0xba44104a	-0.0007479234
206	0xbd278ba3	-0.040904652
207	0x3d0165b9	0.03159115
208	0x3d6f98bd	0.058495272
209	0xbcefe04f	-0.029281763
210	0xbd84edc6	-0.06490664
211	0xbd8e998d	-0.06962881
212	0x3d1907c9	0.03736094
213	0x3c6cd8f1	0.01445602
214	0xbcf02b55	-0.029317537
215	0xbdafb05d	-0.085785605
216	0xbcd9fd12	-0.026609931
217	0x3d8c40f2	0.06848325
218	0x3db8a820	0.09016442
219	0xbd1cec72	-0.03831143
220	0x3d5a9c5b	0.05337177
221	0xbd6d6fac	-0.057967827
222	0x3d9445d4	0.07239881
223	0xbd6178f3	-0.055046987
224	0x3d8714cf	0.06595766
225	0x3d210826	0.03931441
226	0xbd25169f	-0.040304776
227	0xbd5a56fd	-0.053305615
228	0xbd99c98e	-0.07509147
229	0xbc52d321	-0.01286772
230	0x3d7f888f	0.06238609
231	0xbd2ce67f	-0.042212006
232	0xbd012249	-0.031526837
233	0xbd04e295	-0.032442648
234	0x3cbdb228	0.02315624
235	0x3d988b0c	0.07448396
236	0x3cb268fa	0.021778572
237	0xbd5d57ef	-0.054038938
238	0xbd81dc37	-0.06340831
239	0x3d8a3f99	0.067504115
240	0xbcb695f8	-0.022288308
241	0xbc9b881e	-0.018985804
242	0x3dbcdc9d	0.09221766
243	0x3d98d8c2	0.07463218
244	0x3d481d98	0.048856348
245	0x3c5472c0	0.012966812
246	0xbd714c5e	-0.05891072
247	0x3d963505	0.073343314
248	0x3cde1b6d	0.027112687
249	0xbd34cbf8	-0.044139832
250	0x3d55b690	0.05217606
251	0xbdb335a5	-0.08750466
252	0x3d6ff1f5	0.058580358
253	0xbd980019	-0.074218936
254	0xbdaaab59	-0.08333463
255	0x3c434b45	0.011919801

actor.bias f4 [4]
0	0xbd47e740	-0.04880452
1	0xbceb7295	-0.02874116
2	0xbcb25b87	-0.02177216
3	0x3d9b5bb9	0.07585854

critic.weight f4 [1, 128]
0	0xbd43d67d	-0.047811974
1	0x3d234d69	0.039868746
2	0xbcf7bf1a	-0.030242492
3	0xbaf2b0d0	-0.0018515829
4	0xbbcc1eb0	-0.006229244
5	0x3da6476f	0.081190936
6	0xbdb3d723	-0.087812684
7	0xbd74e7f4	-0.05979152
8	0x3d75544f	0.059894856
9	0x3d162535	0.036656577
10	0x3cdd47de	0.027011808
11	0x3d6b3ff4	0.057434037
12	0x3c95b174	0.018273093
13	0x3d8c93db	0.06864139
14	0xbcbf856d	-0.023379052
15	0x3d132f88	0.035934
16	0x3d85e408	0.06537634
17	0x3cfe4017	0.03103642
18	0xbd203039	-0.03910849
19	0xbda1305a	-0.078705505
20	0xbd3c81d1	-0.04602224
21	0x3db05eda	0.086118415
22	0x3d8084d4	0.06275335
23	0xbd5129e0	-0.051065326
24	0xbd3f9f23	-0.046782624
25	0xbd27d417	-0.04097375
26	0xbd7d1e5d	-0.061796535
27	0xbd83030d	-0.06397066
28	0xbd6e4123	-0.058167588
29	0xbd59568a	-0.053061046
30	0xbcf94469	-0.030428128
31	0x3cbf6e1d	0.023367936
32	0xbc031342	-0.008000197
33	0x3d969d80	0.073542595
34	0xbcb048c8	-0.02151908
35	0xbbcdda24	-0.006282108
36	0xbd99f271	-0.07516945
37	0xbba6df7e	-0.0050925603
38	0xbd7d8ecf	-0.06190377
39	0xbd7f7bcb	-0.062373918
40	0x3d41ce22	0.047315724
41	0x3d38318c	0.044969127
42	0x3d8cbf7b	0.068724595
43	0x3d955528	0.07291633
44	0xbd6a04ae	-0.05713337
45	0x3da43e88	0.080197394
46	0xbd2d573b	-0.042319518
47	0xbd923bb1	-0.071402915
48	0x3cf8d2b8	0.030373916
49	0x3d1a846f	0.037723955
50	0xbd30b151	-0.043137852
51	0xbd343e72	-0.044004865
52	0x3db14dee	0.08657442
53	0xbd173fd4	-0.036926106
54	0xbd6a0bb0	-0.057140052
55	0xbdad824e	-0.08472119
56	0x3d182efb	0.03715418
57	0x3dbb3394	0.09140697
58	0x3c2ae70a	0.010431061
59	0x3d2cec2f	0.04221743
60	0xbd9625d1	-0.07331432
61	0x3d640a5b	0.05567394
62	0x3b7a0540	0.0038150102
63	0x3daf384e	0.08555661
64	0xbd801e24	-0.06255749
65	0x3d535a95	0.051600058
66	0x3dad19e8	0.08452207
67	0x3d9e7e0f	0.077388875
68	0x3cca93ea	0.024728734
69	0x3d839da3	0.06426551
70	0xbd4b8edc	-0.04969679
71	0x3cb1e695	0.021716395
72	0xbd5d1763	-0.05397738
73	0xbba070ff	-0.0048962827
74	0x3dbe0cb6	0.09279768
75	0x3c90ed67	0.017691327
76	0xbd335463	-0.04378165
77	0x3c8b369d	0.016993815
78	0xbd6b1e39	-0.05740187
79	0x3d523b90	0.051326334
80	0x3ca7516f	0.020424573
81	0x3d511d87	0.05105355
82	0x3b5407a3	0.0032353185
83	0xbda69e21	-0.081356294
84	0xbd901804	-0.070358306
85	0xbd30a00d	-0.043121386
86	0xbc51a7b4	-0.012796331
87	0x3d01a3a1	0.03165019
88	0x3ba8c533	0.005150461
89	0x3d4957d4	0.049156025
90	0xbd4ead2d	-0.050458122
91	0x3d7d9c4b	0.06191663
92	0xbdbe357b	-0.09287544
93	0x3cf4ae40	0.029868245
94	0x3d858621	0.06519724
95	0xbd32522f	-0.043535408
96	0xbaf72a09	-0.0018857132
97	0xbd3a2ad3	-0.045450997
98	0xbd974daf	-0.07387864
99	0xbd81bd91	-0.06334985
100	0x3c99a5b2	0.018755767
101	0x3d757514	0.059926108
102	0xbc1bce6f	-0.009509667
103	0x3dacc1dd	0.08435414
104	0x3d828e70	0.06374824
105	0x3d1caa88	0.03824857
106	0xbd3719ac	-0.044702217
107	0xbcd56409	-0.026048677
108	0x3da7a6aa	0.081860855
109	0xbd6bbaef	-0.05755132
110	0xbc79cede	-0.015247075
111	0x3d5da535	0.05411263
112	0xbcfe1f64	-0.031020828
113	0x3cb1cffe	0.021705624
114	0xbd29b950	-0.041436493
115	0xbd80fb5b	-0.06297942
116	0x3cefadd5	0.029257694
117	0x3d93951f	0.07206177
118	0xbd1de5f7	-0.03854939
119	0xbdaad14a	-0.083407
120	0xbd8715d4	-0.0659596
121	0xbd9f5e5f	-0.07781672
122	0xbcee7cc9	-0.029112237
123	0xbc88325f	-0.016625581
124	0xbd0cc2b7	-0.034365382
125	0xbd3e89c8	-0.046518117
126	0x3d1fe1d3	0.039033722
127	0xbd5b4b26	-0.053538464

encoder.0.weight f4 [128, 256]
0	0xbd7dd12c	-0.06196706
1	0xbd49f2d0	-0.04930383
2	0xbcdb4c1c	-0.02676969
3	0xbd7232fa	-0.059130646
4	0xbb688900	-0.003548205
5	0xbd613870	-0.054985464
6	0x3d0b3200	0.03398323
7	0x3cf98c54	0.030462421
8	0x3c415fe8	0.011802651
9	0x3d469526	0.048482083
10	0xbbc89360	-0.006121084
11	0x3d1956d6	0.03743633
12	0xbd33480e	-0.04376989
13	0xbc49cab8	-0.012316398
14	0xbd6442ec	-0.055727884
15	0xbba646b0	-0.0050743446
16	0xbd261712	-0.040549345
17	0x3d65fb4c	0.05614786
18	0x3d31d3c0	0.04341483
19	0x3d3fed28	0.04685703
20	0x3c97deb0	0.018538803
21	0xbd120b46	-0.035655282
22	0x3d660b4e	0.056163125
23	0xbd79cce4	-0.060986415
24	0xbd236410	-0.03989035
25	0xbd1fe3cc	-0.039035603
26	0xbcd43abc	-0.025906913
27	0x3c4c2ed0	0.012462333
28	0xbd41ead4	-0.04734309
29	0xbd45397c	-0.048150524
30	0xbcf4dbf8	-0.029890046
31	0x3d1c3f7e	0.03814649
32	0xbd38a588	-0.045079738
33	0xbd659afe	-0.056056015
34	0xbd5de09a	-0.054169275
35	0xbcfbf298	-0.030755326
36	0xbc8686ec	-0.016421758
37	0xbd7dc930	-0.061959445
38	0xbcefb648	-0.029261723
39	0x3a9d9840	0.0012023523
40	0x3c28cce8	0.01030276
41	0xbc12ccb0	-0.008959934
42	0xbbe83680	-0.007086575
43	0xbd268c0a	-0.040660895
44	0x3d03267c	0.032019123
45	0xbc76afc8	-0.015056558
46	0xbd2f0810	-0.0427323
47	0xbc769aa8	-0.015051521
48	0xbc0f0ef8	-0.008731596
49	0x3d6cb2f6	0.057787858
50	0x3d056a9e	0.03257238
51	0xbccebd40	-0.025236726
52	0xbc1146d8	-0.008866988
53	0x3d623828	0.055229336
54	0x3d2476bc	0.040152296
55	0x3c7f5188	0.015583403
56	0xbcb7a9ac	-0.022419773
57	0x3d5502fe	0.052004807
58	0x3cdb5b38	0.026776895
59	0xbce40830	-0.027835935
60	0x3d35ac38	0.044353694
61	0x3b91f770	0.0044545457
62	0xbd3d5394	-0.046222284
63	0xbce2f000	-0.027702332
64	0xbd3fba80	-0.04680872
65	0xbd54082e	-0.051765613
66	0x3ac84480	0.0015279204
67	0xbd377518	-0.044789404
68	0x3d086f7e	0.033309452
69	0x3ce4fa94	0.027951516
70	0x3c5c45c0	0.013444364
71	0x3d52ef70	0.051497877
72	0xbce840e4	-0.028351255
73	0x3a745280	0.0009320155
74	0x3d1d4dfa	0.038404442
75	0x3cb0fab8	0.021603927
76	0x3bf82210	0.00757242
77	0x3d5610e2	0.052262194
78	0x3c696008	0.014244087
79	0x3d2c3eaa	0.04205195
80	0xbd5c9f16	-0.053862654
81	0xbd5c9912	-0.053856917
82	0xbd67106c	-0.056412145
83	0x3b67dd60	0.0035379753
84	0x3d593ef8	0.053038567
85	0xbd5f6838	-0.05454275
86	0x3ccbb98c	0.02486875
87	0xbd61ea4a	-0.055155076
88	0xbd2a20e0	-0.04153526
89	0xbcae9804	-0.021312721
90	0xbcd032c0	-0.025414824
91	0x3c973a80	0.018460512
92	0xbd56a8e0	-0.052407146
93	0x3d7d27e4	0.06180562
94	0x3c154890	0.0091115385
95	0x3cb27d2c	0.021788202
96	0xbd2cee92	-0.042219706
97	0x3d0d46c0	0.0344913
98	0xbc6f1908	-0.01459337
99	0xbcfebdcc	-0.031096362
100	0x3c2e2d28	0.010630883
101	0x3cd51678	0.02601169
102	0x3bd8e300	0.0066188574
103	0xbcb3210c	-0.021866344
104	0x3c3e6908	0.011621721
105	0xbcc61b30	-0.024182886
106	0xbcad583c	-0.021160237
107	0xbcbe3810	-0.023220092
108	0x3d1885e4	0.037237063
109	0xbd32effc	-0.0436859
110	0x3cde5270	0.027138919
111	0x3d04b048	0.032394677
112	0xbd2a194c	-0.04152803
113	0xbd427230	-0.04747218
114	0xbd2a7aa8	-0.04162088
115	0xbd588ea0	-0.052870393
116	0x3d56ee76	0.052473508
117	0x3d61a794	0.055091456
118	0xbc0efa50	-0.008726671
119	0x3d700be0	0.058605075
120	0x3c910790	0.017703801
121	0xbd7b234a	-0.06131295
122	0xbd6a3c1e	-0.05718624
123	0xbcf73bac	-0.030179821
124	0xbd7f5b1e	-0.062342755
125	0xbceae320	-0.028672755
126	0x3c8a79a0	0.016903698
127	0xbab7b640	-0.0014016107
128	0xbc3f3718	-0.01167085
129	0x3b7b9400	0.0038387775
130	0x3d6a0d60	0.05714166
131	0x3a320480	0.00067908317
132	0x3d00b842	0.031425722
133	0xbc76d088	-0.015064366
134	0xbd400c12	-0.04688651
135	0x3c484de0	0.012225598
136	0x3cebcb60	0.0287835
137	0x3d14da6e	0.036341123
138	0xbd70ddea	-0.058805384
139	0xbc079960	-0.008276314
140	0xbd76a8ec	-0.06021969
141	0x3a48b800	0.00076568127
142	0x3b34da00	0.0027595758
143	0x3ca6a130	0.020340532
144	0xbcafb2f0	-0.021447629
145	0xbc1596a0	-0.00913015
146	0x3c7b4160	0.015335411
147	0xbd77f80a	-0.060539283
148	0x3cfbd44c	0.03074088
149	0x3d777720	0.06041634
150	0xbd362f10	-0.044478476
151	0x3d79a5c4	0.060949102
152	0x3c1b7538	0.009488396
153	0x3d7d4964	0.06183757
154	0x3d602f82	0.054732807
155	0xbd5b2fba	-0.053512312
156	0x3d40b95a	0.047051765
157	0x3b0c1e40	0.0021380335
158	0x3c81c0d0	0.01583901
159	0xbcb9cbfc	-0.022680275
160	0xbd4d31dc	-0.050096378
161	0x3bc3fbf0	0.005980961
162	0x3c8e7008	0.017387405
163	0x3d00bdae	0.031430893
164	0xbd56bc3a	-0.0524256
165	0xbd77b6d8	-0.060477108
166	0x3cf3a0f8	0.029739842
167	0xbc4d0178	-0.012512557
168	0xba71f500	-0.0009229928
169	0xbc84d890	-0.016216546
170	0x3907d600	0.00012954324
171	0x3c291438	0.010319762
172	0xbd6c6c8e	-0.057720713
173	0x3cbcd784	0.023051985
174	0x3be13ab0	0.006873451
175	0x3cec6880	0.028858423
176	0xbd043608	-0.03227809
177	0x3d3a4cb8	0.04548332
178	0x3d2ab678	0.041677922
179	0xbd0090e0	-0.031388164
180	0x3d602636	0.05472394
181	0x3c03c9a8	0.008043684
182	0x3d6202d6	0.055178486
183	0x3d68b410	0.056812346
184	0x3c2098a0	0.009802014
185	0x3c259840	0.0101071
186	0x3ca05a60	0.019574344
187	0x3d24679c	0.040137872
188	0xbd69c368	-0.05707112
189	0x39ce1300	0.00039305538
190	0x3d7490c8	0.059708387
191	0xbd34c0ee	-0.044129305
192	0xbd102fcc	-0.035201833
193	0x3bd62b20	0.0065359026
194	0x3cb920f0	0.022598714
195	0x3d09810a	0.033570327
196	0x3b671a80	0.0035263598
197	0x3c718fb8	0.014743738
198	0xbce80284	-0.028321512
199	0x3d7283d2	0.059207745
200	0xbd28b32c	-0.041186497
201	0x3d267aa2	0.040644296
202	0x3d0af812	0.033927985
203	0x3d5f9440	0.05458474
204	0x3d63391a	0.05547438
205	0xbca9e808	-0.020740524
206	0x3d36e058	0.044647545
207	0xbd3ad372	-0.045611806
208	0x3d3286b8	0.04358551
209	0xbd1d95b8	-0.03847286
210	0xbd2e0106	-0.042481445
211	0xbd2d40ac	-0.042298004
212	0x3d791190	0.060807765
213	0x3c9747f0	0.01846692
214	0xbd3267cc	-0.04355602
215	0xbd400cd0	-0.04688722
216	0x3bd3c940	0.0064632
217	0xbc5cde10	-0.013480678
218	0x3c8562b0	0.01628241
219	0x3d211d3c	0.03933452
220	0xbd21bade	-0.03948485
221	0xbd687d18	-0.056759924
222	0x3bd30200	0.0064394474
223	0x3d2aad6a	0.041669287
224	0x3d1bd4ac	0.038044617
225	0xba6aec80	-0.0008961633
226	0xbc889310	-0.016671687
227	0x3ca33d7c	0.019926779
228	0x3d320040	0.04345727
229	0xbd5c8452	-0.053837128
230	0xbbc1ea80	-0.005917847
231	0x3d418f42	0.047255762
232	0x3d453af8	0.04815194
233	0x3d6d12aa	0.057879128
234	0x3cc5b4cc	0.024134062
235	0x3d7cc8b4	0.061714843
236	0xbd778e62	-0.06043852
237	0x3c41cae0	0.011828154
238	0x3c133858	0.008985601
239	0x3d308dec	0.043104097
240	0x3c4bef48	0.012447186
241	0x3d23f5f8	0.040029496
242	0xbd609fde	-0.05483996
243	0xbbdde4d0	-0.0067716613
244	0x3cbfed1c	0.023428492
245	0x3d24301a	0.040084936
246	0x3c7292f8	0.014805548
247	0x3d256788	0.04038194
248	0xbc9ff004	-0.019523628
249	0xbbb05220	-0.005380884
250	0x3d70307e	0.058639996
251	0x3d2aba52	0.041681595
252	0x3d33c01a	0.043884374
253	0xbd5de066	-0.05416908
254	0xba5cd000	-0.00084233284
255	0xbd5e7a50	-0.054315865

encoder.0.bias f4 [128]
0	0x3d52571a	0.051352598
1	0xbd1a2512	-0.03763301
2	0x3caa48a8	0.020786598
3	0xbce297b0	-0.02766022
4	0xbcbebf40	-0.023284554
5	0x3d51422c	0.051088497
6	0xbc58a880	-0.013223767
7	0x3d295a5a	0.04134593
8	0xbc4d9210	-0.012547031
9	0xbb881fd0	-0.004154183
10	0x3b97b660	0.004629895
11	0x3c82f630	0.015986532
12	0xbd421e82	-0.047392376
13	0x3d52df56	0.05148252
14	0xbbe94050	-0.0071182624
15	0xbcb9e63c	-0.022692792
16	0xbd1aee54	-0.037824944
17	0xbbffec60	-0.0078101605
18	0x3cd44b70	0.025914878
19	0xbd5b242e	-0.0535013
20	0xbd1dd6b0	-0.03853482
21	0xbd739d66	-0.05947628
22	0xbd453b80	-0.048152447
23	0x3d105a54	0.035242394
24	0x3d5947ae	0.053046875
25	0x3d31e458	0.043430656
26	0xbc1db018	-0.009624504
27	0x3c6adec8	0.014335342
28	0xbd7ae4f0	-0.061253488
29	0xbd6d67d6	-0.057960354
30	0xbc172358	-0.009224735
31	0xbd30d4f8	-0.043171853
32	0xbd104f4a	-0.035231866
33	0xbd104204	-0.035219207
34	0xbce7bd30	-0.028288454
35	0x3d08be44	0.033384576
36	0x3b26c180	0.0025444925
37	0xbc9afa58	-0.018918201
38	0xbd50b300	-0.050951958
39	0xbcdd4dac	-0.027014576
40	0x3ce9750c	0.028498195
41	0x3d273968	0.04082623
42	0xbd0aea92	-0.03391511
43	0x3ce3352c	0.027735315
44	0x3d6b2848	0.057411462
45	0x3c7c5238	0.015400462
46	0x3c02c150	0.00798066
47	0xbcbb7e1c	-0.022887282
48	0xbc84e2f0	-0.016221493
49	0x3d0e1ae6	0.03469362
50	0xbd2e4e4a	-0.04255513
51	0xbc9131ac	-0.01772388
52	0xbcdd6638	-0.02702628
53	0xbd196172	-0.037446447
54	0xbcc36c24	-0.023855276
55	0x3cd6cdf4	0.026221253
56	0x3d65c176	0.0560927
57	0xbcfd02e8	-0.030885175
58	0xbbb6abe0	-0.0055746883
59	0xbd3d61be	-0.046235792
60	0x3c5b3490	0.013379231
61	0xbbde5ff0	-0.006786339
62	0x3b26bae0	0.0025440976
63	0x3c763f38	0.015029721
64	0xbb82ad20	-0.0039879233
65	0xbcf807c0	-0.030277133
66	0x3d46bcac	0.048519775
67	0xbc2306f0	-0.0099503845
68	0xbb012d00	-0.001971066
69	0xbd5f7c82	-0.0545621
70	0xbd64b8b6	-0.055840217
71	0xbd75a7f6	-0.059974633
72	0xbd0cdb78	-0.03438899
73	0x3d18caf2	0.03730292
74	0xbd0b0ca8	-0.033947617
75	0x3d666edc	0.056258067
76	0x3d476f86	0.04869034
77	0xbcb55268	-0.02213402
78	0x3d1c17d8	0.038108677
79	0xbc81b7a0	-0.01583463
80	0xbd39dad4	-0.045374706
81	0xbc566238	-0.013084941
82	0xbd3fee7c	-0.046858296
83	0x3bedd2d0	0.007257797
84	0x3d1d61de	0.03842341
85	0x3d4f325a	0.05058513
86	0x3ce76038	0.028244123
87	0x3d541c66	0.051784895
88	0x3c3019c0	0.010748327
89	0x3d012362	0.031527884
90	0xbc0adda0	-0.008475691
91	0xbc6381b0	-0.0138859
92	0xbd403d1e	-0.046933286
93	0x3d712e4e	0.05888205
94	0x3d75e7f0	0.060035646
95	0xbc19c1f0	-0.009384617
96	0xbbc336d0	-0.005957462
97	0x3d5c8ee0	0.053847194
98	0x3c780758	0.01513847
99	0x3d722f6a	0.05912725
100	0xbcf3587c	-0.029705279
101	0xbd6a0302	-0.057131775
102	0x3c680908	0.0141623095
103	0x3c69e4f0	0.014275774
104	0xbd31e618	-0.043432325
105	0x3cbb6928	0.02287729
106	0x3c70e418	0.014702819
107	0xbcbb8dc4	-0.022894748
108	0xbcbb4dc0	-0.022864223
109	0xbd2a23c8	-0.04153803
110	0xbd59070c	-0.052985236
111	0x3c5a24b8	0.0133144185
112	0xbd20733c	-0.039172396
113	0x3c870c28	0.016485289
114	0x3cf49870	0.029857844
115	0xba4ef000	-0.0007894039
116	0x3ca12ad8	0.01967375
117	0x3aa5a140	0.0012636557
118	0x3cfe30a8	0.03102906
119	0xbd6bd9ae	-0.057580642
120	0x3d6128a0	0.054970384
121	0xbd553ca2	-0.052059777
122	0x3d6225c2	0.05521179
123	0xbd253a40	-0.040338755
124	0xbd3fe5be	-0.04684996
125	0x3d57e4fc	0.05270861
126	0xbd417c04	-0.04723741
127	0x3ca0becc	0.019622229
