checkpoints/only/seed0/final.pt (torch, 400887 bytes, 7 tensors)

fc1.weight f4 [256, 256]
00000000: 11af a8bd 81f4 ecbc 9ecd 3d3d c0dd 7fbd
00000010: 590a 1f3b 808b c13b 1431 cabc 8c88 c7bc
00000020: da16 ecbc ee2f 3b3b 7a1f 28bb 62d6 173d
00000030: 5c5c 503d f86b 023d 4887 2fbd 8797 083d
00000040: 9e5d 433c 45c3 993c b180 d8bc af3a 1e3d
00000050: 905d 37bd cc5e bcbc faa1 3fbd e0a8 a4bb
00000060: f96c 27bd 4e6d 153d 0ae6 ad3c d262 c6bc
00000070: cc0a 62bd 3c0b 2cbd 53c3 89bc 234f 383a
00000080: 1aa5 57bd f888 1e3d a6af d8bc 9cef ecbc
00000090: 8674 44bd 0639 4fbd bef9 213d f468 673d
000000a0: 4187 ff3c 8470 e1bb e653 923b e077 0fbd
000000b0: 5b0e 973c 0b87 34bd e82c f03c 8dee 1b3d
000000c0: 5c82 253d 1fb4 193c b050 29bc c7f9 10bd
000000d0: 2c67 85bd 91c8 2cbd c933 283d 5a6f 9b3c
000000e0: 550e 0c3d 562b 24bc 2f4b 593d b624 4dbd
000000f0: 7465 78bd 4139 c13c b8ae 783d 20ce 5d3d
00000100: 9090 4bbd fbbf 483d 6cfd cbbc 7441 35bd
00000110: 4306 12bd dd9a 70bd 2131 cdbb a487 97bc
00000120: 68d0 72bd b00d 613d 47ea 5ebb 7886 f93c
00000130: e401 e63c 9525 ddbc 01ce 43bd 977e a23b
00000140: 1005 ce3c 24eb ee3a 26b8 133a e1bd d0bb
00000150: 9d32 803d 5b04 4a3d f3a7 6dbd 285e de3c
00000160: e1a3 803d 6ec1 443d 2442 c7bc 48d2 383d
00000170: f2f9 60bb 4046 3e3d 9418 fcbc d645 703d
00000180: c4a0 113d 5c54 28bb 7162 003d 14a4 7a3d
00000190: 95a4 a0bb 259d 6c3c b03d c8bc fb18 06bc
000001a0: 0ab3 efbc 7cd7 523d 0450 ba3c ba6c 833d
000001b0: 87c7 263c 3e1a 50bd 444e 74bc 9e32 703d
000001c0: 50cc ae3c 682d 8fbc 48cd 533d 38dc 06bd
000001d0: 2072 36bd 2e85 2cbd 50dd 863c ce98 72bd
000001e0: 71f7 e2bb 6f0b 103d e8c6 a83c e6ba 04bd
000001f0: b841 943c d440 3f3d f655 4ebd f0cd e2bc
00000200: 6890 8b3c 4479 6ebd 92a5 6f3d af7b fabc
00000210: be1b 363d 6b8a 0ebd ac23 d1bc a653 7e3d
00000220: fece 20bd f404 923c 5ab5 703d 1564 753d
00000230: c208 093d 39cd 19bc 9811 6abd e7b3 debc
00000240: 248a 78bd ca3d 46bd 014b 403d c96e 2c3d
00000250: e46d 423d 7f0f 2d3d fc45 7ebd b625 dabc
00000260: fcc5 af3c 73e6 08bd d336 69bd b88e ce3c
00000270: 5a6c bd3a e4fe b0bb 46d6 b83c f48b c3bc
00000280: b20a 55bd 287e 3f3d 7e83 89bc b892 573d
00000290: 47e9 7f3c 4093 54bd 824b 74bd 922f 1d3c
000002a0: 5ca4 b43c 2efd 09bb 20bd 153d 556e 9d3b
000002b0: 000b 6e3d 7063 783d 165d 713c f9a4 23bc
000002c0: d043 66bd 2793 4a3d 9fd0 2bbd c298 813c
000002d0: a4af 45bc 19d3 a53a 5a07 8c3b 3911 c73c
000002e0: b418 10bd 1166 e93c 36e7 483d d72f 0e3d
000002f0: 2a52 1dbd 3a05 543d 9e54 1bbd 4798 2abd
00000300: cab6 fa3c a88f dc3c d610 2cbd fcaa 243d
00000310: a098 14bc e029 33bd 8038 bf3b 30de c6bc
00000320: 9240 0dbd f07e 2fbc 6c8b b7bc 21ec f63c
00000330: 6844 be3c 7be3 a9bc 809d 06ba 376c 903c
00000340: 3804 343c 2486 2dbd 6273 d23c 64c8 e8bc
00000350: 0055 743d 9a30 1d3d 34ba ea3a 9878 18bd
00000360: 76ff 9cbc f09a 41bc 70d2 59bd 9e3f 033d
00000370: f44a 14bd ebaa 043d 327d 70bd a499 233d
00000380: 2adb 5ebd 6640 02bd 809b cc3b 5094 ed3b
00000390: 501a f83c 4cce 02bd 00e8 f3bc a438 a3bc
000003a0: d01e 673d 0493 06bd b0ca 783c a073 36bb
000003b0: 7091 64bd fc7b 263d 9c70 dc3c 4af7 f63c
000003c0: 9008 013c 6b96 17bc 68f9 f5bc f2ce 56bd
000003d0: 40f8 553d aa3d 61bc 4612 a9bc b29d 2b3d
000003e0: d0ff 783d 24e1 babc 303a 9bbb 06e0 123d
000003f0: 7e84 08bd 2855 8c3c f45b 25bd 9002 2d3c
-0.08236516 -0.028925182 0.04633867 -0.062467337 0.0024267642 0.0059065223 -0.024681605 -0.024357103
-0.02881949 0.0028562504 -0.0025653527 0.037069686 0.05086933 0.03184125 -0.042853624 0.033347633
0.011924176 0.01876987 -0.026428552 0.038630184 -0.044766963 -0.022994421 -0.046785332 -0.0050250143
-0.04087541 0.036481194 0.021227855 -0.024217043 -0.055186078 -0.0420029 -0.01681677 0.0007030835
-0.052647687 0.038704842 -0.026450943 -0.028922848 -0.047962688 -0.05059149 0.039544813 0.056496575
0.031192424 -0.006879868 0.004465568 -0.03502643 0.018439462 -0.0440741 0.029318288 0.038069297
0.040407524 0.009381323 -0.010334179 -0.035394456 -0.06513819 -0.042183463 0.04106501 0.018973995
0.034193356 -0.010020098 0.053050216 -0.05008384 -0.06064363 0.023586871 0.0607135 0.054151654
-0.049698412 0.04901121 -0.024901114 -0.044251874 -0.035650503 -0.05874144 -0.00626196 -0.018497296
-0.059280783 0.054944694 -0.0034014152 0.030459628 0.028077073 -0.02699546 -0.047803883 0.0049589383
0.025148898 0.0018228036 0.0005635045 -0.0063702916 0.06259654 0.04932056 -0.058021497 0.027144507
0.062812574 0.04803603 -0.02432353 0.045122415 -0.0034328667 0.046453714 -0.030773439 0.05866035
0.03555371 -0.0025685048 0.03134388 0.061191633 -0.004902432 0.014441763 -0.024443477 -0.008184667
-0.029260177 0.051475033 0.022743233 0.06417222 0.010179407 -0.050806277 -0.014911238 0.058642022
0.021337658 -0.017477706 0.051709443 -0.03292486 -0.04454243 -0.042119198 0.016462952 -0.059227757
-0.00692647 0.035167154 0.020602658 -0.032404803 0.018097743 0.046692684 -0.050374947 -0.02768609
0.017036632 -0.058221117 0.05850751 -0.030576555 0.04446005 -0.034799974 -0.025529705 0.062091492
-0.039259903 0.017824627 0.0587667 0.0599099 0.033455618 -0.009387308 -0.057145685 -0.027185393
-0.060678616 -0.04839877 0.04694653 0.04209784 0.04746808 0.042251106 -0.06207846 -0.02662931
0.021456711 -0.0334229 -0.05693705 0.025214538 0.0014451847 -0.005401479 0.022563111 -0.023870446
-0.052012153 0.04675117 -0.016786333 0.052630156 0.0156195825 -0.05189824 -0.059642322 0.009593861
0.022051029 -0.0021055448 0.036557317 0.0048044124 0.05811596 0.060641706 0.014731666 -0.009988063
-0.056217015 0.04945674 -0.041947003 0.01581991 -0.012065802 0.0012651413 0.0042733373 0.024300205
-0.03517981 0.028491052 0.049048625 0.034713592 -0.038408436 0.051762797 -0.037922494 -0.04164913
0.030604739 0.02692397 -0.042008244 0.040202126 -0.009069592 -0.043741107 0.0058355927 -0.02427587
-0.034485407 -0.010711417 -0.022405349 0.030141892 0.023225978 -0.020738354 -0.00051351637 0.017629726
0.010987334 -0.042364255 0.025689784 -0.028415866 0.059651375 0.03837643 0.0017908276 -0.037224382
-0.019164782 -0.011816725 -0.053179204 0.032043092 -0.036204293 0.032389563 -0.058713146 0.039941445
-0.05440823 -0.031799696 0.006244123 0.0072503462 0.030285984 -0.03193502 -0.029773712 -0.01992447
0.05642587 -0.03285505 0.015185043 -0.0027839914 -0.055802763 0.040645584 0.026909165 0.030147213
0.007875577 -0.009252171 -0.030026153 -0.052443452 0.052238703 -0.013747612 -0.020638596 0.041898437
0.060790837 -0.022812434 -0.004737161 0.035858177 -0.03332948 0.01713045 -0.040370896 0.010559693

fc1.bias f4 [256]
00000000: ac98 6fbd 5fd3 00bd 3220 ff3c b0a8 49bd
00000010: e699 d4bc 083b 9cbc c38a 40bd 140e 4e3c
00000020: 3274 f33c d16e a93c 54a9 b0bc b609 78bc
00000030: 6556 6abc 8074 4aba 5476 f5bc e0cc 503d
00000040: a070 3cbd c20e 1d3c 08f4 eabc a635 6fbc
00000050: efe1 ce3b b98e 413d af60 4bbd e097 6fbd
00000060: 47d6 60bd a3db 2abd 3ead 7b39 5cba 27bd
00000070: a63a 143d 2d05 a33c cb71 183b ccf0 d8bc
00000080: b41c 2cbd c2e2 e1bc 7634 29bd 75d4 fcbb
00000090: 17dc 513d f403 01bd 5b1a 073d 3db6 393c
000000a0: fde2 ea3a fdaf a83c 57de a6bc 5f1c bbbc
000000b0: a296 17bd db28 123d 902d 71bd 1a4e d9bb
000000c0: 7202 1cbd 65c3 343c 3960 47bd 5310 24bd
000000d0: 0cf0 57bc c180 b4bc 8be4 1abd 8b65 9bbb
000000e0: 80df 22bd f8b2 a8bb b16c 6dbd 04e0 d6bc
000000f0: 41b0 f1bb 24cd 55bd 58b6 04bd 0682 3ebd
00000100: 3d5b b9bc fa16 633d c287 fe3c 8b74 2bbd
00000110: 7b04 6b3d 3467 5a3c 2650 11bd e1de 6dbc
00000120: efcc aabc 1061 53bd e504 833d a5c5 68bd
00000130: bf54 343c 0a58 17bd 7829 533d 60cf 7c3d
00000140: 6731 d33c e1d7 f43c 0cb5 ee3c 8c59 7fbd
00000150: df6c 413d 6079 7abc a098 d1bb aa58 5bbd
00000160: 48b6 763c 920d eebc f642 00bc 6cc2 2abc
00000170: 7718 62bb 4072 ecbc 9bb7 1fbd 86f1 7cbd
00000180: 15c5 963c a627 68bd 05ee 6ebd 19ca 5bbc
00000190: 8ec1 53bd be0d 593d 22cb 3ebd 4833 f2bc
000001a0: d3c5 3ebd 6925 783d a313 763d a8f1 7e3c
000001b0: dafc 51bc 408b 753d 37fc 6d3d 6254 3fbd
000001c0: 4458 1ebd f220 ed3c 43e4 2abd bc32 ec3c
000001d0: 040a 15bd f6c9 53bc c9d1 e03c 93d9 683d
000001e0: 9c20 0ebc 3cbd 653c 067e 343d 33a4 7f3d
000001f0: ca11 1cbd 4a9b 66bd 989b 93bc 489c 01bd
00000200: 82a5 0ebd 504e 1e3d c94b 4dbd 1b06 9f3c
00000210: 57b2 a7bc fdc3 cc3b fe21 2c3d a62b 823d
00000220: 984d 18bd a9ad 2abd fa3d e83b 3ec3 38bc
00000230: 42aa 6ebd 12d6 25bd f615 7b39 fc53 0bbd
00000240: dae5 883d 3bf2 ecbc f224 043d a6e4 053c
00000250: 1b54 43bb c039 26bd c81b 003c c431 1b3d
00000260: 5a05 053c e6d7 7fbd 5c86 51bd c777 393d
00000270: 6e6c 20bd 63d0 f9b9 ac26 38bd ce6b 573d
00000280: 02ce 00bd 72b8 183b 8029 8abd 8349 0f3c
00000290: 3ddd c73c 584f 76bc 72da 24bd d78d 11bd
000002a0: 4833 3d3d b7fb 723d beb3 e23c e8bf 263d
000002b0: dd55 54bd 16c8 31bd 8ad4 d6bc 25d3 dc3c
000002c0: 7203 e93c 4289 13bc 496d 88bc ee38 33bd
000002d0: 9aa1 5dbc 3acc 20bd ad47 243d e805 40bd
000002e0: 0879 a83c fd31 bf3c 273a d63c d2d7 853c
000002f0: cf69 413b 015e 9b3b 3e69 9d3c 5e7b 5c3d
00000300: a0b2 a7bb 00b2 ed3c ff12 283d 118c aa3c
00000310: f219 343d 205e f53c f9b3 70bc 3760 6e3d
00000320: 88a3 203d 13a7 a23c a5d0 dc3b c2cc c03c
00000330: f905 263d 9d7a fcbc 7366 5d3d 195e 0f3d
00000340: 2a26 023d 733a 573c 2cb9 e03b c105 dc3c
00000350: 48f8 ad3c 2065 a13b 202c 93bc 2218 59bd
00000360: fa36 843d 5233 42bd 3f24 9a3c 9bed 133d
00000370: 3e71 0fbd 4a09 1a3c 4f46 e8bc 3440 ef3c
00000380: a60a ef3c b43e 01bd bc95 443d ba27 8b3d
00000390: 8ecf 38bd 5ab3 83bc 72fb 223d 4e44 323d
000003a0: 72a7 2f3d c737 463d 2cb0 993a b54a 60bb
000003b0: b72f 6bbd 517d 9f3c 3dd6 93bc 98ee 453d
000003c0: ce74 b93b 5d41 2cbc 2ff8 6c3c 5a22 03bc
000003d0: 7f20 34bd 927b 19bc f3df d6bc 2909 bc3c
000003e0: 1163 593d 8f8d 823b a4d7 80bd 81c8 413d
000003f0: 3c68 b93c f0c2 e83c b2eb 533d 2c63 f53c
-0.05849521 -0.03145158 0.031143282 -0.04923314 -0.02595229 -0.019071117 -0.047007333 0.012576599
0.029718492 0.020682724 -0.021565117 -0.015139034 -0.014302825 -0.00077230483 -0.02996365 0.050976634
-0.046005845 0.009586038 -0.028680816 -0.014600193 0.0063135545 0.04725525 -0.04965275 -0.05849445
-0.05489185 -0.04171337 0.00024001763 -0.04094921 0.036188744 0.019899929 0.0023261185 -0.026482008
-0.04201956 -0.027573947 -0.041309796 -0.0077157565 0.051235285 -0.03149791 0.03298412 0.011334953
0.0017920431 0.02059173 -0.020369692 -0.022840677 -0.03700889 0.035683494 -0.058881342 -0.006631625
-0.03808827 0.011032914 -0.04867575 -0.04005463 -0.01317979 -0.02203405 -0.03781561 -0.0047423295
-0.039763927 -0.005148288 -0.057964984 -0.026229866 -0.0073757474 -0.05219759 -0.03240046 -0.04651072
-0.022626514 0.055441834 0.031070594 -0.04185919 0.05737732 0.01333027 -0.035476826 -0.0145184705
-0.020849673 -0.051606238 0.06397418 -0.056829114 0.011006533 -0.036949195 0.05155322 0.061721206
0.025780393 0.029888095 0.029139064 -0.062341258 0.04722297 -0.015287727 -0.006396368 -0.053551354
0.015058108 -0.029059205 -0.007828465 -0.01042233 -0.0034499445 -0.028863072 -0.03899346 -0.061753772
0.018404523 -0.056678437 -0.058332462 -0.013414883 -0.05169826 0.05299162 -0.04658044 -0.029565468
-0.04657538 0.060582552 0.06007732 0.015560545 -0.012816632 0.059947252 0.05810186 -0.046711333
-0.038658395 0.028946374 -0.041721594 0.028832786 -0.036386505 -0.012926569 0.027443783 0.05684812
-0.008674767 0.014022168 0.044065498 0.062412452 -0.038102902 -0.05630044 -0.018018529 -0.031643182
-0.03482581 0.038648903 -0.050121102 0.019412091 -0.020470781 0.0062489496 0.042024605 0.063559815
-0.037183374 -0.04166952 0.0070874663 -0.011277018 -0.05826784 -0.040487356 0.00023945406 -0.03401564
0.06684466 -0.028924098 0.032261796 0.00817219 -0.002980477 -0.04058242 0.007819124 0.037889257
0.008118952 -0.062461756 -0.051153526 0.045280244 -0.039165907 -0.0004764824 -0.044958755 0.052593045
-0.031446464 0.0023303297 -0.06746197 0.008745554 0.024397487 -0.015033565 -0.04024739 -0.03553566
0.046191484 0.059322085 0.027673598 0.04071036 -0.051839698 -0.043403707 -0.026224393 0.02695615
0.028444026 -0.009004893 -0.016653674 -0.043755464 -0.013527298 -0.039257266 0.040107418 -0.046880633
0.020565525 0.023339266 0.026150776 0.016338263 0.002951253 0.0047414307 0.019215222 0.05382859
-0.0051177293 0.029015541 0.04103374 0.020818742 0.043970056 0.029952109 -0.014691346 0.058197226
0.039218456 0.019855058 0.0067387396 0.023535136 0.04053304 -0.030820185 0.05405278 0.035001848
0.031774677 0.013136494 0.0068580117 0.026858212 0.021236554 0.004925385 -0.017965376 -0.05300153
0.064557984 -0.047412224 0.018816112 0.03611527 -0.035020106 0.009401629 -0.028353838 0.02920542
0.029179882 -0.03155394 0.04799436 0.067946866 -0.045119815 -0.016076732 0.03979058 0.04352217
0.042884298 0.048393037 0.0011725477 -0.0034224216 -0.05741855 0.019468935 -0.018046493 0.048323244
0.005659676 -0.010513631 0.014463468 -0.0080037955 -0.043976303 -0.00936784 -0.026229834 0.022953587
0.053072993 0.0039841603 -0.0629113 0.047310356 0.02263271 0.028413266 0.05173845 0.029954515

fc2.weight f4 [128, 256]
00000000: a821 903c c225 0fbd 8585 58bd e114 20bc
00000010: ad52 61bd 4e2a d63a e39b 23bd 83e7 483d
00000020: d513 10bc 5cd4 3f3d 9ee4 51bd 539d 3a3d
00000030: e00f f2bb 5d4d 2e3d e358 0fbd ffb5 993c
00000040: 0988 053b 4cb8 72bd 4eb1 a1bc 7e87 18bd
00000050: 3de3 75bc fb5e a0bc 2d58 673d 5cce 173d
00000060: 8b91 5b3d e78f 333d 8821 c93a 8d8a febc
00000070: cf8d 153d d98b 6e3d e740 cd3c eadf fc3c
00000080: 30da 993b 6d91 03bd b114 89bc 0d1f 72bd
00000090: 4b39 1ebc fa59 1fbd 7e79 acbc 3778 56bd
000000a0: 6eba d5bc cec4 00bd 33b0 093d f5ff bd3c
000000b0: ec23 283d 42ca 663d c872 393d 40ba 2f3d
000000c0: acd3 db3c 9c3c 4d3d 70b5 5abd c485 303c
000000d0: d4fa 253c d87d 623d c61e 833c 9939 24bc
000000e0: c030 62bb 8122 ef3c c2ee 7abc 1d10 3fbd
000000f0: b3fb 80bc 44cf 8dbb 383e 743c 5ce9 21bd
00000100: 7686 173c 9655 053d 255c 1b3d 2208 283d
00000110: 4f53 6dbd 687d 08bd 845f 593d f569 a5bc
00000120: 7fa1 41bd ea21 713d 173b 4b3c 767f 4c3d
00000130: b378 633d 7402 b8bc 6e8f b9bc f5b4 e43c
00000140: 2f58 193b 6384 6abd 06f6 1f3d c0a5 f1bc
00000150: c142 ccbc 9394 fdbc ec96 f13c ad11 753b
00000160: 2010 143b 25df 4fbd 18eb 423d 7b9d bfbc
00000170: 3954 bebc 866a 40bc a0a8 1bbd 389e f4bc
00000180: 9cbf 88bd 0805 21bd 386a 23bc 3df2 e23c
00000190: 197c 3e3d 8561 543c b091 4cbc 8273 583d
000001a0: 6483 f33c bb37 713d dc11 a6bc c402 a4bc
000001b0: a4ff 56bd 29a0 383c 6588 e0bc 80be 70ba
000001c0: fe15 053d b455 68bc 5e53 ebbb a5cc 6abd
000001d0: 1528 07bd ca47 44bd d889 853c 2591 67bd
000001e0: 2ff5 e23c d059 d7bc e633 e1bc 23f7 10bd
000001f0: 58f4 523d 593c 57bc 6dd3 033d 89a6 6fbd
00000200: bd34 90bc 10ec 3a3d 88b0 2e3d fdfb 803c
00000210: 3ca1 01bd a1a1 543d 2d9a 81bc 6379 11bd
00000220: 5c79 dcbc 413b 0e3d 497b 05bd b386 6dbb
00000230: d45b 873c bbc7 19bd a1bc b6bc c724 8638
00000240: 7028 213d 9e56 b1bc 6a01 0fbd 28e6 a8bb
00000250: 2f8e 1e3c 7c17 a0bc 2192 9abc 69db 3e3b
00000260: ced5 5b3d 6864 133c 0761 7f3a 1b78 e3bc
00000270: 2b1d 0bbd 3e9f ea3c 24b1 96bc a043 41bd
00000280: 7a4e 03bd d27a 51bd 31cf 4dbd 54c1 2bbb
00000290: 8e6b a03c 048c 1cbd 0217 21bc a56b 383d
000002a0: 08ef c3bb 6f24 e9bc 1547 103d b21d 5c3c
000002b0: d629 323d 60f0 b93b f0f8 08bd 6162 e33c
000002c0: aed8 54bd 72f3 36bd 6f66 e43b 823c 3a3d
000002d0: b879 82bd 1066 c0bc 20c0 4c3d 8c10 0c3d
000002e0: e020 1bbd 6f07 58bd 8350 013d 687a 3f3d
000002f0: d1ae 5a3d 3037 43bd bba2 04bd be92 28bd
00000300: 38da e9bc b55a 33bc 2d07 463d 8507 22bd
00000310: 23ee 5a3d 00a5 643d cbd8 47bd e1f5 3e3c
00000320: 536f e83c 5020 c43c 68a8 9ab9 0dcd 843c
00000330: 600e 86bd 85ca fcbc fc59 b4bc 1331 693c
00000340: 3e66 4a3d 2d46 5abc 7285 c33c 5e1b 1bbd
00000350: cca0 2dbd 9023 a93c e60b f7bc 9677 1e3d
00000360: 55f2 513d d491 3b3d 7126 3ebd 4b02 0ebd
00000370: 3cab 113d b5d0 1f3b aa73 383d e24e 83bd
00000380: a575 993c 367c 6f3d 989e 293d 712c 463d
00000390: 0027 763a 7cd6 0b3d 55e8 683d 3039 c9bc
000003a0: 4446 46bd 7d51 99bc fec8 6b3d 8dbb a9bb
000003b0: 913e f438 6625 593d 9668 32bd 8043 2b3c
000003c0: 672d 083d ec32 013d a6d2 46bd 9bd5 5abd
000003d0: dcc6 293d 750a 50bb bf93 6c3c 916d 713c
000003e0: 3ab7 1e3d 783e 49bd 6851 3b3c ae1a 523d
000003f0: 8968 33bd e884 db3c 1832 2cbc 663a 623d
0.017594174 -0.034948118 -0.05286171 -0.009770603 -0.055010486 0.0016339512 -0.039943587 0.04904891
-0.008793791 0.04683338 -0.051243417 0.045560192 -0.0073871464 0.042554248 -0.03499688 0.01876354
0.0020375273 -0.05925779 -0.019737866 -0.03723859 -0.015007791 -0.01957654 0.056480575 0.037062034
0.053605597 0.043838408 0.0015345076 -0.031071926 0.036512192 0.058238838 0.025055362 0.03086849
0.0046951994 -0.03212111 -0.0167335 -0.059111644 -0.009657214 -0.038904168 -0.021054026 -0.05236074
-0.026089873 -0.031437688 0.033615302 0.023193339 0.041049883 0.05634523 0.04527548 0.04290223
0.026834331 0.05010663 -0.05339569 0.01077408 0.010130603 0.055295795 0.016005885 -0.010023498
-0.003451392 0.029191257 -0.015315713 -0.046646226 -0.01574502 -0.0043276865 0.014907412 -0.03952919
0.009248367 0.032552324 0.037929673 0.04102338 -0.057940777 -0.03332272 0.053069606 -0.020192126
-0.047273155 0.058870234 0.012404225 0.049926244 0.05553503 -0.022462107 -0.0226514 0.027918318
0.0023398509 -0.05725516 0.039052986 -0.029497981 -0.024934174 -0.030954635 0.02949091 0.0037394569
0.002259262 -0.050749917 0.047587484 -0.023390522 -0.02323352 -0.011744147 -0.03800261 -0.0298606
-0.066771716 -0.03931144 -0.009974055 0.027703399 0.046505067 0.012962704 -0.0124859065 0.05284453
0.029725738 0.05889104 -0.020272188 -0.02002085 -0.05248989 0.011268654 -0.027408788 -0.000918366
0.032491677 -0.0141805895 -0.007181569 -0.05732407 -0.03299721 -0.047920026 0.01630108 -0.056534905
0.027704803 -0.026287943 -0.027490567 -0.035391938 0.051502556 -0.013136947 0.032184053 -0.05850843
-0.017603273 0.045635283 0.042648822 0.015745157 -0.031647906 0.051911954 -0.015820587 -0.035516154
-0.026913337 0.034724478 -0.032588277 -0.0036243617 0.01652328 -0.037543993 -0.022306742 6.396468e-05
0.039345205 -0.021647748 -0.034913458 -0.00515439 0.009677454 -0.019542448 -0.018868508 0.0029122478
0.053670697 0.008996107 0.0009741936 -0.027767232 -0.033963364 0.028640386 -0.018395014 -0.047183633
-0.032057263 -0.05114252 -0.05024642 -0.0026207762 0.019582536 -0.038219467 -0.009832146 0.045024533
-0.0059794225 -0.028459756 0.03522404 0.013434814 0.04349693 0.005674407 -0.03344053 0.027756872
-0.051964454 -0.04466576 0.006970219 0.04546786 -0.06370872 -0.023486167 0.049987912 0.034195468
-0.03787315 -0.052741464 0.031570923 0.046747595 0.053389374 -0.047660053 -0.032381754 -0.04115557
-0.028546438 -0.010946919 0.048346687 -0.039557952 0.05344976 0.05582142 -0.048790734 0.011655302
0.028373396 0.023941189 -0.0002949864 0.016211057 -0.065457106 -0.030858288 -0.022015564 0.014232892
0.049413912 -0.013322395 0.023867343 -0.037867896 -0.042389676 0.02064684 -0.03015704 0.038688265
0.051256496 0.04579337 -0.04642338 -0.034670155 0.035563692 0.0024385874 0.04503218 -0.0641153
0.018732855 0.058468066 0.041411012 0.048382226 0.0009389967 0.034140095 0.056862194 -0.024563402
-0.048406854 -0.018715614 0.057564728 -0.0051798285 0.000116464806 0.05301418 -0.043556772 0.010453105
0.033246424 0.031542704 -0.048540734 -0.053426366 0.041449413 -0.0031744514 0.014439522 0.014735595
0.038748957 -0.04913184 0.011432983 0.051294975 -0.043800864 0.026796773 -0.01050999 0.055231474

fc2.bias f4 [128]
00000000: 1000 0a3d 70dc 473c 1b30 773c b869 72bd
00000010: 8df7 4e3d 4ce9 473d 5471 7fbd 6ae6 243d
00000020: c53f 49bd 9d49 0abd 4337 acbc 80b1 52bb
00000030: e4dc ac3a a117 10bd b512 ad39 24ae c93a
00000040: 3425 2dbd c90c 25bd faac c8bb c9c2 0b3d
00000050: 269b 79bd 6559 4b3d 0fdf 0ebd 450a 263c
00000060: 8362 0fbd ce91 2f3d 0d86 a93c b2a4 813d
00000070: 7bd5 8c3c f76a 98bc b38e 863d 8319 e23c
00000080: 5d1a 343d 281e 23bc b529 653d f2cd 1f3d
00000090: 66ad 6f3d 8692 75bd c172 8a3d b7c6 03bd
000000a0: 14da 593d cdb6 713d db1d 86bd 7e62 443c
000000b0: 3223 c2bc 2aaa 77bc 6c2b 5b39 1c31 1bbd
000000c0: 2ec9 57bd ea03 6c3d 76dc 613d 5d7b ff3b
000000d0: df6b b93c 39d3 bbbc c88d 633d 6076 173d
000000e0: ffdd 433d 9ec4 de3c 58ac 70bc c7ad 38bd
000000f0: 7eed 37bd 4810 f4bc 5da6 583d 5235 40bd
00000100: 2cf6 6fbd 4449 35bd 08f2 d4bc 8d6b 83bd
00000110: 008b 0f3b 1a7d 3dbd aa44 d3bb b60d 26bd
00000120: affd 033d cddf 3ebd a855 88bc e234 843d
00000130: 48d9 6c3b b65e b03c 0249 c73a 5ef1 52bc
00000140: de7f 0c3d 73dc 5cbd 6229 cbbb 3f4e 06bd
00000150: 1532 80bd 0c65 d5bc ff62 0abc 79c5 42bd
00000160: d42b bfbc 02ae 55ba 2185 8a3c b99b 1ebd
00000170: 12a3 a0bc f8b3 bd3c 2af2 57bd c4b4 2b3d
00000180: 5e53 c7bc 3b8e 613b 061f b13c 511b 2f3d
00000190: 6a10 f1bc 01e7 263d 7feb e03c a4db 2ebd
000001a0: 0288 74bb 884b f93c d415 d6bc f0ca 163d
000001b0: 5a55 093d a481 813d 4356 c7bc 02ae 133d
000001c0: da43 00bd 7c7c 1c3d 9e14 19bd 9a28 f83c
000001d0: d4e0 5ebc 3023 54bd 7332 053d 33bc 843d
000001e0: 28e2 763d 74f4 bcbb a0e1 503d 43ac 1f3d
000001f0: 20cc ccbc f7c2 c2bc 9de1 5abd 0859 423d
0.033691466 0.0121985525 0.015087153 -0.059182853 0.05052905 0.048806474 -0.062363937 0.040258802
-0.04913308 -0.03376161 -0.021022445 -0.0032149255 0.0013188389 -0.035178784 0.0003301107 0.0015386981
-0.042271808 -0.040295396 -0.006124136 0.03412131 -0.060938977 0.0496458 -0.034880694 0.010134284
-0.035006057 0.04286366 0.020693803 0.06330241 0.01719164 -0.018605692 0.065701865 0.027600056
0.043970454 -0.00995592 0.055947978 0.039014764 0.058514975 -0.05995419 0.06760169 -0.03217193
0.05318649 0.059012223 -0.06548663 0.011986373 -0.023698423 -0.015116254 0.00020901643 -0.03788863
-0.052682094 0.05762092 0.05514189 0.0077966885 0.022634445 -0.022927867 0.055555135 0.036978126
0.047819134 0.027193364 -0.014689527 -0.045087602 -0.044904225 -0.02979292 0.05289303 -0.04692585
-0.058584377 -0.044259325 -0.025994316 -0.06416998 0.0021902919 -0.046261884 -0.0064473944 -0.04054042
0.032224353 -0.04660015 -0.016642407 0.06455399 0.0036140252 0.021529537 0.0015204253 -0.012874929
0.03430163 -0.053921174 -0.0062000016 -0.032789465 -0.062595524 -0.02604916 -0.008446454 -0.047551606
-0.023336329 -0.00081512344 0.016909184 -0.038722727 -0.019609008 0.023157105 -0.05272118 0.04192044
-0.024331745 0.0034417051 0.021621238 0.04275066 -0.029426772 0.040747646 0.027456043 -0.042689934
-0.0037312512 0.030431524 -0.026133455 0.03681463 0.033528663 0.06323555 -0.024333125 0.03605462
-0.03131471 0.038204655 -0.037373178 0.030292798 -0.013603408 -0.05179137 0.032518815 0.06481209
0.060274273 -0.005766446 0.050996423 0.03898264 -0.024999678 -0.023774607 -0.053437818 0.047448188

actor.weight f4 [4, 128]
00000000: e515 6f3d 9530 3f3d 42c3 1b3c 3fa5 a5bd
00000010: 4bba 653b bed4 97bc 7c69 aabd 77f2 a23d
00000020: 2dc0 36bd 037f 46bd db25 12bd 4ea7 933d
00000030: 20bf 54bd 9157 c6bc e62a e23b f361 f7bc
00000040: b3ae 87bd f85f 843d b20d 8d3d 6337 2f3d
00000050: d2c7 91bd 6a80 9abd 6f24 03bd c503 5fbd
00000060: ec9e 99bd f757 14bd 4e6c 863d 2dfb 84bd
00000070: fa5b f53c 3394 973b ba77 133d 44aa 163b
00000080: 9ff1 bcbb 73e5 0abd ce07 bb3d 150c 8d3c
00000090: d3a5 093d 18bc 95bd b98d dbbc 8ef3 c33c
000000a0: 92c4 67bd 8991 99bd 8180 a5bd 2e6c a9bd
000000b0: a038 433d 130a 19bd e5ad 1e3d e62d 3dbd
000000c0: faf6 81bd f7c6 36bc 4f3b b23c 6e83 edbc
000000d0: 7fc1 90bd f233 b13d acd1 72bc bebe 803d
000000e0: a958 a6bd 6824 9abd e695 b03d 7a72 7f3d
000000f0: d90b 0e3c 06cc 74bd 4371 83bb 662b b23d
00000100: 3aa0 963d 0bdf a7bd 6db0 943d e854 a13d
00000110: fee3 b33d c545 2fbc f23e 2ebc 89a7 a5bd
00000120: 190a 2b3d d830 a63c 63bd bf3c 5dfc 993c
00000130: 99a6 34bd db35 0e3d 8580 a0bd 8dcd c43c
00000140: e165 033d 4deb 723d ceb1 0f3d 469c 96bb
00000150: e730 ab3d 29a9 94bd 1f92 0c3d 476e 3e3d
00000160: 5dc9 0e3d 32b4 c53c 8d43 4fbc 2a85 95bc
00000170: bbc1 c73c 34ef 6c3c e11e 5b3d d62b 3d3b
00000180: 54b7 323d 67a1 5dbb 2903 34bd 0fd1 27bd
00000190: 3ada cb3d a860 adbd 294e 293d 9b77 5bbd
000001a0: ab00 9dbd 5347 233d d9ed a2bd 3384 fa3c
000001b0: f834 9fbd 7a0b 89bd ee3b a1bd 8898 003d
000001c0: 5c43 a3ba 88d7 203c 0979 723d e95f cbbc
000001d0: 3c00 823d 5ff4 bd3d c8fa a13d 5a72 6bbd
000001e0: 1575 4f3a 3881 6abd 60d2 60bd 00d9 1e3d
000001f0: 7e6c 033c 5bbe 18bd a9f5 00bd 11f8 c1bc
00000200: c2c0 76bd 5744 ae3d dd91 633d ff7f 33bc
00000210: 4f79 a8bd c17a b6bc a315 04bd 90b1 963d
00000220: b7f2 d8bc d840 693d ee69 82bd 0b25 513d
00000230: 669c a63d 47a5 2f3d 5984 14bd 57ac 9a3c
00000240: 0ae4 ac3d a1ae 9f3d 7df9 43bd eb93 83bd
00000250: 5c74 953d 48d5 6d3a ac8b c73c 8a2c a43d
00000260: e4f3 b8bc a311 30bc f6bc 5fbd 820d d4bd
00000270: bd57 0dbd 1256 00bd 9c8d 213d 0434 20bd
00000280: dac3 88bd c890 5f3c a092 2cbd 5e96 3bbc
00000290: 646c 69bc 30c4 a7bd e478 52bd a66b 173d
000002a0: f7ed 11bd 312f 86bd 3c76 1a3a 7dba 16bd
000002b0: 0ec6 8c3d a062 b03d b57b 663d 6081 903c
000002c0: 81f3 a83d 86d2 1c3d 7839 75bd e716 3f3d
000002d0: 527f 8b3d b7ae 91bc 7ec0 573d 8b84 7a3d
000002e0: 08c4 2abc 7283 8ebd a420 b43c 8def b5bd
000002f0: 0c4b 0e3c 843b 51bb 811f eabc 1c50 03bc
00000300: e72c 3bbd a8bb 463d c9f9 8a3d 6d4d 023c
00000310: 1f6b 5dbc a5cc d73c b0d4 8abd 86dc b23d
00000320: cc28 fd3c 4f6a 26bd 9769 0fbc 21fc 053d
00000330: 15a1 bcbc 8dbf 043c 8452 28bd db9a adbd
00000340: c481 9abc 0854 893d 0a18 06bd b95b 1f3b
00000350: d397 bf3d e615 f93c f87d 893d 05e4 8dbd
00000360: b172 6ebd cf1f 2ebd 73c3 d53c cc6d 3a3d
00000370: 0163 9a3d b875 6dbd 77cb 143d beb5 2e3d
00000380: f089 11bd 1d64 86bd 45fa 2bbd 9f2c 463d
00000390: da31 bbbd 9a66 d73c 83a8 9fbd d858 203c
000003a0: 7230 29bc 4472 803d 70a7 b33c bb83 9a3d
000003b0: ac2a deb8 a2a7 86bc 47ee 8abd 4a1b f73c
000003c0: 426f 943d fcec 503d b6b4 2c3d 5ec1 973d
000003d0: 139d 7ebd 2393 de3c fc5e 683c 569d 313d
000003e0: aba4 91bb 7328 80bd 7f9e 86bd 4cba 763d
000003f0: bb8b 80bd 5f4c e73c 3aa8 3d3d 7e21 b83d
0.05837049 0.04667719 0.009507002 -0.08088159 0.0035053666 -0.01853406 -0.08320901 0.07956403
-0.044616867 -0.04846097 -0.035680633 0.07209645 -0.051940084 -0.024211677 0.0069020865 -0.030198073
-0.06625118 0.06463617 0.06887378 0.04277743 -0.07118191 -0.07544024 -0.032017168 -0.054446954
-0.07501015 -0.036216702 0.06563626 -0.064932205 0.029951084 0.004625821 0.036002852 0.002298967
-0.005766108 -0.033910226 0.09132348 0.017217675 0.033605408 -0.07311267 -0.026800977 0.023919847
-0.05658395 -0.07498462 -0.08081151 -0.08272587 0.047661424 -0.037363123 0.038740057 -0.04618635
-0.06345935 -0.011155835 0.021756796 -0.028993335 -0.070681565 0.08652486 -0.0148204975 0.06286381
-0.08122379 -0.07526475 0.08622341 0.062365033 0.008669817 -0.059764884 -0.0040113046 0.08699684
0.073547795 -0.08196839 0.07260213 0.07877523 0.087837204 -0.010697787 -0.0106351245 -0.080885954
0.041757677 0.020286962 0.023405736 0.018797094 -0.044104192 0.03471933 -0.07837013 0.024023796
0.03207958 0.05930643 0.035081677 -0.004596266 0.08358937 -0.07258827 0.03431904 0.046491887
0.034860004 0.024133775 -0.012650383 -0.018251974 0.02438437 0.014461327 0.053496245 0.002886524
0.043631867 -0.0033818127 -0.043948326 -0.04097086 0.09953733 -0.08465701 0.041334305 -0.05358086
-0.07666143 0.039862942 -0.07955522 0.030580616 -0.07773775 -0.06691642 -0.07872759 0.031395465
-0.0012455988 0.009817012 0.05919746 -0.024826007 0.06347701 0.09275126 0.07909161 -0.0574821
0.000791387 -0.05725214 -0.05488813 0.038781166 0.008021472 -0.037290912 -0.03148428 -0.023677858
-0.060242422 0.085091285 0.055559028 -0.01095581 -0.08226263 -0.02227533 -0.032247197 0.07358086
-0.026482923 0.056946605 -0.06367861 0.051060718 0.081352994 0.04288223 -0.03625903 0.018881006
0.084419325 0.0779698 -0.047845352 -0.064246975 0.072975844 0.0009072614 0.024358593 0.08016308
-0.022577234 -0.010746392 -0.054623567 -0.10354139 -0.034507502 -0.031332083 0.03944169 -0.039112106
-0.06677981 0.013645358 -0.04213202 -0.011449425 -0.014247034 -0.08191717 -0.05138482 0.036967896
-0.03562733 -0.0655197 0.0005892252 -0.036798943 0.068737134 0.08612561 0.05627032 0.017639816
0.0824957 0.03828671 -0.05986926 0.0466527 0.06811394 -0.017783506 0.05267381 0.06116156
-0.010422714 -0.06958665 0.02198822 -0.08883581 0.008684885 -0.0031926343 -0.028579475 -0.008014705
-0.04569712 0.048518807 0.06785924 0.00795303 -0.013514309 0.0263427 -0.06778848 0.08733468
0.030903243 -0.040628728 -0.008753202 0.032711152 -0.023026029 0.00810231 -0.041094318 -0.08476802
-0.018860705 0.06705481 -0.03273777 0.0024316146 0.0935513 0.03040595 0.0671348 -0.06928257
-0.058214847 -0.042510804 0.026094174 0.045514867 0.07538415 -0.057973593 0.03632685 0.04265379
-0.035531938 -0.06562064 -0.041986722 0.048382398 -0.09140368 0.026294041 -0.07795813 0.009786807
-0.010326492 0.062717944 0.021930426 0.07544657 -0.00010593733 -0.016437355 -0.06783729 0.03016438
0.07247783 0.051007256 0.042164527 0.07409929 -0.062161516 0.02716977 0.014182802 0.043362938
-0.004444679 -0.06257715 -0.065731995 0.06023626 -0.062766515 0.028234659 0.04630301 0.08990763

actor.bias f4 [4]
00000000: a526 8fbd b18e a4bd dc0f 84bd dc5d 443d
-0.06989793 -0.08035029 -0.064483374 0.047941074

critic.weight f4 [1, 128]
00000000: 7a06 98bd dace fc3c 5093 8f3d f56f 9b3b
00000010: 22d0 0bbd 4aee a9bc 1ffa f33c 65d6 3cbd
00000020: cb2d 5d3b f29f 8bbc 93a3 4abd c489 933d
00000030: 99bb 973d cd9b b33d b4a6 36bd ed2f 193d
00000040: 26d7 323d 8a8b cbbb d1f3 3fbd d8cd 33bd
00000050: fdbe 85bd 9870 853d e4d9 d3bd ee97 abbd
00000060: 2e6f 92bc bf47 573d 863c 70bd 8b66 b83d
00000070: 1d5c 2c3b 5d2b 003d cfb0 2d3d ee37 2bbc
00000080: 5eec a33d 83b4 cebc 458d 703d 724a e33b
00000090: 208a f4bb 63fc c0bc 0d22 763d 0152 813d
000000a0: 4e89 7f3d 2446 eb3c e2e5 33bd 3f96 07bd
000000b0: 3e23 2c3d e4f6 3c3d f422 a8bd cc7d b3bd
000000c0: c30c a1bd a2eb 8dbd d6ec 6f3d fefc 2bbc
000000d0: e5f0 cdbc e7a6 a93b 41c8 a0bd ba89 55bd
000000e0: fa66 d2bc 2a15 ff3b f78d 9dbc 0885 ac3d
000000f0: 0bef be3c aeb4 5c3d 20ad 773d 4746 4c3d
00000100: bc23 2ebd c704 efba 3ef1 9ebc a193 23bd
00000110: 8893 8fbd acf1 89bd 637b 423c 897d 763d
00000120: 6a6b 4b3d de1d a4bd f018 b03d 52aa 083d
00000130: b4ec a1bd bb65 683d 0f62 0abd 9660 42bd
00000140: 1fdd 47bd fe2a 903d 657a 5cbc a62e ecbc
00000150: b2a6 b0bd 6957 b63d 2e45 edba bc14 8b3d
00000160: 1d37 52bc fa84 c3bc 4d92 88bc 3f6a 2d3d
00000170: c47a b73d 259f 4bbd b42e a6bc fbfc 17bd
00000180: 64f6 81bb 7c20 fa3c bca0 b53d a271 5f3d
00000190: 8ba9 8d3d ef72 12bc 4374 14bd 4257 653d
000001a0: 0d52 9f3d a218 36bd 2950 383c 992e 4cbc
000001b0: e499 913d ed03 453d 7f81 06bd 65dd 793d
000001c0: 525d 86bd 2e0c 99bd dcef 2d3d 830a c13d
000001d0: f78d 97bd 9847 b43b a3d0 e4bc c2c0 fb3c
000001e0: 7340 493d d1f7 2c3d de24 8a3d b8d9 f73c
000001f0: 6e4c afbc e87b ebbc bf95 dd3c 2514 be3d
-0.0742311 0.030860353 0.070105195 0.004743571 -0.034134038 -0.020743508 0.029782353 -0.0461029
0.0033749219 -0.017044041 -0.049472403 0.07204011 0.07408828 0.08769951 -0.044592574 0.03739922
0.043662213 -0.0062117027 -0.04686338 -0.04389748 -0.06530569 0.06515616 -0.10344294 -0.08378588
-0.01787528 0.052558657 -0.05865147 0.090039335 0.002630002 0.031291354 0.042404946 -0.010450346
0.08004068 -0.02523256 0.058728475 0.006936365 -0.007462755 -0.023557847 0.060091067 0.06314469
0.062386803 0.02871997 -0.043920405 -0.03310227 0.042025797 0.04613389 -0.08209792 -0.08764228
-0.07863762 -0.06929709 0.058575474 -0.01049733 -0.025139282 0.005177367 -0.078506954 -0.0521333
-0.025683869 0.0077845054 -0.019232733 0.08423811 0.023307344 0.053883247 0.06046784 0.04987171
-0.042514548 -0.0018235677 -0.019402143 -0.03993571 -0.07010561 -0.067355484 0.011870238 0.060178313
0.049662985 -0.08013509 0.085985065 0.033365555 -0.07906476 0.056737643 -0.033784922 -0.047455393
-0.048794862 0.0703945 -0.0134569155 -0.028830837 -0.086255446 0.08903391 -0.0018102282 0.06791064
-0.012830523 -0.02386712 -0.016671324 0.042337652 0.089589626 -0.04971232 -0.020285942 -0.037106495
-0.0039661396 0.030533068 0.08868548 0.054551728 0.069171034 -0.008938535 -0.03624369 0.05599142
0.07779322 -0.044457085 0.01124958 -0.012462282 0.071094304 0.048099447 -0.03283834 0.061002154
-0.06560768 -0.07473026 0.042465076 0.09425833 -0.074001245 0.0055016987 -0.027931517 0.030731563
0.04913373 0.042228524 0.06745313 0.030255184 -0.02139875 -0.028745607 0.027048944 0.09281186
