checkpoints/pc/seed3/final.pt (torch, 400859 bytes, 7 tensors)

fc1.weight f4 [256, 256]
000000 48 73 d0 bc f4 6b d1 3c ce 4e 76 3d b0 d1 b7 bb
       -0.025445595 0.025564171 0.060133748 -0.0056097135
000010 da c8 20 3d 20 ec 9d bc 5c e6 e0 3c 5c 43 9f bc
       0.039254047 -0.019277632 0.027453594 -0.0194413
000020 82 e2 39 3d 59 03 54 3d 3e 40 ad 3c 75 f2 9c 3c
       0.04538203 0.051761005 0.021148797 0.019158581
000030 14 f1 9e bc d0 69 c8 3b ce af 48 3d 50 ce dd bb
       -0.019402064 0.0061161295 0.048995785 -0.006768979
000040 00 0d cb ba 90 df 33 bc ac 03 ec bc 1c d3 64 bd
       -0.0015491545 -0.010978594 -0.028810345 -0.055865392
000050 0c 8d 38 bd 18 46 1c 3c e4 3b 8c bc 7e f2 5b bd
       -0.045056388 0.009538196 -0.017118402 -0.053698055
000060 9e d2 12 bd f2 a7 03 3d 88 9e f1 bc 50 96 85 3c
       -0.03584539 0.032142587 -0.029494539 0.016307026
000070 24 3a 7d 3d 48 fd 03 3c a8 a5 dc bc a4 a7 2f 3d
       0.061823025 0.008055992 -0.02693446 0.042884484
000080 a5 f7 2e 3d 08 56 9d bc e6 46 6c bd 82 70 25 3d
       0.04271664 -0.019206062 -0.0576848 0.0403905
000090 ac 48 d7 bc 40 de 3b 3d 06 c9 2f bd 8a f5 49 3d
       -0.02627977 0.04586625 -0.04291632 0.04930643
0000a0 7c 6a ab bc 64 51 74 bd 51 4d 09 3d a0 c9 aa bb
       -0.0209248 -0.059647933 0.033521 -0.005212024
0000b0 78 b3 67 bd 88 82 df 3c 1a ac 2a bd e8 b4 5f 3d
       -0.05656764 0.027283922 -0.041668035 0.054615885
0000c0 94 30 64 bd ae 18 78 bd fc 9b d2 bc c8 1c 13 bc
       -0.05571039 -0.06057041 -0.025709145 -0.00897903
0000d0 00 62 1c 3c ec 53 92 bc ac 4a fb bc c8 d1 9b 3c
       0.009544849 -0.017862283 -0.030675255 0.01902093
0000e0 80 05 70 3a aa d8 14 bd b0 6f 05 3c e0 03 32 bb
       0.0009156093 -0.03633944 0.008144304 -0.0027162954
0000f0 6f 10 05 3d 18 eb cf 3c d1 6c 4b 3d 5e 03 34 3d
       0.032486375 0.025380656 0.049664322 0.043948524
000100 ec 13 c7 3c b9 51 36 bd 29 ad 72 3d 58 5c ec 3c
       0.024301492 -0.04451153 0.05924717 0.028852627
000110 bc 20 9b bb 21 94 6b 3c fe f3 0b 3c e4 a7 d1 3c
       -0.004734127 0.014378578 0.008542059 0.025592752
000120 ff f4 7d bd f7 45 28 bd fd a2 75 bd cb 64 78 bd
       -0.062001225 -0.04108235 -0.05996989 -0.060643
000130 80 a4 67 ba f4 f3 82 bd 23 f2 12 3d e1 d0 45 3b
       -0.0008836463 -0.063941866 0.03587545 0.0030184316
000140 1f 04 4f bd 35 93 3e 3d f6 3e 19 3c b7 6f 0a bd
       -0.05054104 0.046527106 0.00935339 -0.033797946
000150 5d 38 54 3d ef de 64 bd 9e 1c 19 3c 2b 7d 21 bd
       0.051811565 -0.05587667 0.009345202 -0.03942601
000160 f5 a9 6d bd ff 73 1d bd 68 1c da bc 6f 21 5b 3d
       -0.05802341 -0.0384407 -0.026624873 0.05349868
000170 65 05 56 3d 09 84 36 3d dc 58 bb bb 44 43 ea ba
       0.05225124 0.044559512 -0.00571738 -0.001787283
000180 8f 47 07 3d a9 69 8d bc db 20 5c 3d c7 75 18 bd
       0.033027228 -0.017262297 0.05374227 -0.037221696
000190 f0 f9 d6 bc aa 03 58 bc 9a de 83 bc 04 36 b0 bc
       -0.026242226 -0.013184467 -0.016097356 -0.021510132
0001a0 d0 e2 c7 bc 0d 33 0f bd 46 20 83 bd fd f7 11 bd
       -0.024400145 -0.034960795 -0.0640264 -0.03563689
0001b0 d1 d8 2b bd 7a f6 50 bc a0 22 f7 bc 7d 2c 1d bd
       -0.04195482 -0.012754077 -0.030167878 -0.038372505
0001c0 76 6f 36 3c dc 2a cd bb 6f 8c 1b bd 1b 4f 74 bd
       0.011134973 -0.0062612128 -0.037975725 -0.059645753
0001d0 9e 25 1a 3c 4e 9b 5b 3c a7 43 5e bd ee 02 55 3c
       0.009408383 0.013403727 -0.054263737 0.013001187
0001e0 04 92 ba 3b 45 7b 63 bd 41 84 59 3b 20 f7 e1 3b
       0.005693676 -0.05553748 0.0033190402 0.0068959147
0001f0 b6 89 83 bc 0d be 1f bd 9d 97 44 bd 45 98 49 3d
       -0.016056877 -0.038999606 -0.047996152 0.04921748
000200 1e fb 10 bb 9a 73 5b bd 1b 79 13 bd a2 c6 18 bc
       -0.0022122334 -0.053577043 -0.036004167 -0.0093247015
000210 5d c9 18 bd 78 9c c7 bc 97 3b c1 3c e2 55 4e bd
       -0.03730141 -0.024366602 0.023587985 -0.050374873
000220 90 97 5d 3d 7d a9 73 3d a7 f6 e6 ba a5 9d 44 bc
       0.05409962 0.05948781 -0.0017621116 -0.012000476
000230 f5 90 6a 3d 98 05 ff bc 7b 7f b4 3c f6 46 95 3c
       0.057267148 -0.031130597 0.022033444 0.018222313
000240 01 a3 76 bd 73 28 66 bd 61 ae 60 3d 7d a3 68 3b
       -0.060214046 -0.05619092 0.0548538 0.0035497837
000250 9d b8 f2 bc 5f f0 02 3b 1f ce 02 3d fd a0 f1 3a
       -0.029629046 0.0019979698 0.031934854 0.0018434819
000260 25 eb 21 3b a1 02 c6 3b 86 45 f0 bc c6 78 4c 3d
       0.0024706807 0.006042794 -0.029330026 0.049919866
000270 71 da 20 3d 6e af ad bb 45 02 15 bc 9e 23 6f bc
       0.039270822 -0.005300454 -0.009094779 -0.014595894
000280 e7 45 ca bc ad 26 63 3d 71 77 75 bc 41 24 88 bc
       -0.024691535 0.055456806 -0.01498209 -0.01661885
000290 e4 24 4a 3c 40 43 48 bd c6 2a 7e bd a6 bf bc 3c
       0.012337897 -0.04889226 -0.06205251 0.023040604
0002a0 e2 a9 53 3d db 18 60 bd 2b ea 89 3c 50 ed 44 3c
       0.051675685 -0.054711204 0.016835293 0.01201947
0002b0 ab b1 22 bd ca c6 60 3d 66 73 cc bb 50 9f 02 3d
       -0.03972022 0.05487708 -0.0062393425 0.031890213
0002c0 dc 28 55 3d 88 0b 65 bd 20 87 fe 3b e4 2c 71 3d
       0.05204092 -0.0559192 0.007767573 0.0588807
0002d0 80 01 12 3a c0 9f 6a bc d0 b7 b8 3c 04 bc 02 3d
       0.00055696815 -0.014320314 0.022548586 0.031917587
0002e0 1c f0 72 bd 2c 9b f6 3c 18 8f 6a bd 4a c8 65 bd
       -0.059311017 0.030103289 -0.05726537 -0.056099214
0002f0 18 57 72 bd c8 42 46 3c 50 81 de bb a0 9b a7 3b
       -0.05916509 0.012100883 -0.0067903176 0.0051149875
000300 00 84 e7 39 5c 66 8a bc de 28 22 bd 3e ff 07 3d
       0.000441581 -0.016894512 -0.039589755 0.033202402
000310 38 01 98 3c d8 70 1c bd e4 4f 67 3d 7c 57 b7 bc
       0.018555269 -0.038193554 0.056472674 -0.022380583
000320 ac 13 09 bd 46 cb 19 bd ff c2 4e 3b 2a b4 15 bd
       -0.033466026 -0.037547372 0.0031549332 -0.03654877
000330 ce f3 81 bd 28 2a bc bc b2 ce 59 3d 40 63 2b 3d
       -0.0634533 -0.02296932 0.053175636 0.0418427
000340 a1 cf e5 bc 28 f0 5b 3c bf e7 7e bc f2 24 04 bd
       -0.028053107 0.013423957 -0.015558182 -0.032261796
000350 1b 19 00 3d ac 7a 20 bd 10 ba 4e 3d 50 31 bd 3b
       0.031273942 -0.03917949 0.05047041 0.005773701
000360 2e 04 20 bd 4e ab 35 3c ce cb 55 3d 62 df 5a 3d
       -0.039066486 0.0110882055 0.052196316 0.05343569
000370 49 4c 4e 3c 9a 3b 57 bd b0 24 d0 3c b8 04 8d bc
       0.01259143 -0.052547075 0.025408119 -0.017214164
000380 86 3c 14 bd c0 aa 11 3b 22 e0 53 3d 63 80 69 bd
       -0.036190532 0.002222702 0.05172742 -0.057007205
000390 64 fb 4a bd 68 70 3e 3d 21 05 29 3c 40 24 06 3d
       -0.04955615 0.046493918 0.010316164 0.032749414
0003a0 98 53 f7 3c 56 f9 38 bd 5a 30 70 3d 40 49 22 bc
       0.030191228 -0.04515966 0.05863986 -0.0099051595
0003b0 c0 61 08 bb a0 48 51 bb 90 2e b1 3b ec b9 13 bd
       -0.0020810217 -0.0031934157 0.005407162 -0.03606598
0003c0 a6 5f 68 bd 60 e9 12 bc 80 38 ec ba c9 ad 4e 3d
       -0.056731842 -0.008966774 -0.0018022209 0.050458703
0003d0 38 e0 9b 3c f4 ef 4e 3d cc cd 78 bd 88 ed 07 3c
       0.019027814 0.050521806 -0.06074314 0.008296378
0003e0 d0 7c 6b bd b8 b3 43 bc 52 06 39 3d 24 1b c4 3c
       -0.057492077 -0.011944704 0.045172043 0.023938723
0003f0 c0 ed ab bb 58 06 2a 3c 00 2f cb ba 26 f6 26 bd
       -0.005246848 0.010377489 -0.0015501678 -0.04076209

fc1.bias f4 [256]
000000 b7 6b 45 bd 46 81 08 bd 95 2f 58 3d 44 0d 8c 3c
       -0.048198428 -0.03332641 0.052779753 0.01709617
000010 39 0b 66 3d cc 5e 57 bd d6 d3 67 bd 00 a1 a5 bb
       0.056163047 -0.05258064 -0.056598507 -0.005054593
000020 7f 72 fd b9 21 7d a7 3c af 8f 38 3c 34 3e 80 bc
       -0.00048341227 0.020445408 0.011264726 -0.01565466
000030 12 c7 7c bd ca f8 07 bd d9 e2 ab 3c 98 b2 0d bc
       -0.061713286 -0.033196248 0.020982193 -0.008648537
000040 62 e5 cd 3c 35 66 70 3d 1a 72 d6 ba d2 6e 45 bd
       0.025133792 0.058691222 -0.0016360909 -0.04820139
000050 8e 3a 04 3d 32 68 81 3c 17 45 2c bd 34 59 3d bd
       0.032282405 0.015796755 -0.042058077 -0.04622765
000060 7a 23 45 3d 5e 50 38 3d 1a 86 82 3d e0 24 87 3d
       0.048129536 0.04499852 0.06373234 0.0659883
000070 a8 62 72 3c 40 5f 5f 3c 7d ee 93 bc 91 77 11 3c
       0.014794029 0.013633549 -0.018058056 0.0088786045
000080 ab b9 0b bc fa fa b9 bc 4c 32 80 bd 8d fc 71 3b
       -0.008528153 -0.022702683 -0.06259593 0.0036924214
000090 62 d2 51 bd 8d fe d5 bc e4 ba 19 bd 86 9f 1f bd
       -0.051226027 -0.026122356 -0.03753175 -0.038970493
0000a0 66 e3 67 3d fb 55 39 bd f6 b8 30 bc 8f a4 42 3d
       0.05661335 -0.045248013 -0.010786286 0.047520217
0000b0 16 b1 86 bb bb da 6a bb 0b 0a be 3c 06 80 11 bd
       -0.0041104658 -0.003583594 0.023198148 -0.035522483
0000c0 b8 06 3b 3c 54 9e f9 3c 5f 3d 03 3d 8b 8e de bb
       0.011415176 0.030471005 0.03204095 -0.006791895
0000d0 ad 1d ba 3b 5e da 50 bd 26 a5 69 bc 22 aa 02 3d
       0.005679807 -0.0509895 -0.014260566 0.031900533
0000e0 55 6d 60 3d 96 f8 97 bc 5e 48 95 bc 01 90 8d 3b
       0.054791767 -0.018551152 -0.018222984 0.004320145
0000f0 37 32 24 bd 60 ec f9 bc 47 88 6a 3d 3d 96 21 bb
       -0.04008695 -0.03050822 0.05725887 -0.00246562
000100 e0 e4 45 bc 00 8f 42 bd f2 c8 50 3d 61 c3 67 3d
       -0.012078494 -0.047499657 0.050972886 0.056582812
000110 f0 c2 ba bb 75 99 48 bd 98 11 60 3d 58 65 48 bd
       -0.005699508 -0.048974473 0.05470428 -0.048924774
000120 9c ef c8 bc 4e dc 24 bd 93 09 3d bd c9 01 e1 3c
       -0.024528317 -0.04024916 -0.04615171 0.027466672
000130 78 82 20 3d 8b 4e ba 3c 21 7d 5e 3d 8f f0 05 3d
       0.039186925 0.02274253 0.05431855 0.032700118
000140 75 87 7f 3d 36 5f c7 3c e8 60 e9 bc 96 81 0a 3d
       0.06238504 0.024337392 -0.028488591 0.03381499
000150 5a 0c 63 bd 49 da 41 3d 7f 5e 52 3d ea ea 37 3c
       -0.0554317 0.047327314 0.05135965 0.0112254415
000160 65 14 10 3d b8 90 ab 3c 87 12 2e 3a 61 9d 36 bd
       0.0351757 0.02094303 0.0006640334 -0.044583682
000170 40 17 10 3d 7d 1a 46 bd 5a 01 ee bc 6b ef 2e 3c
       0.035178423 -0.048365105 -0.029053379 0.010677199
000180 f3 da 2e bd be d4 89 3d b3 6b 1f bd 9f 08 ab bc
       -0.042689275 0.067300305 -0.03892107 -0.020878134
000190 4a 0b cf bb e2 69 6b 3d 25 99 3c bd 1a 46 3c bd
       -0.0063184844 0.057474025 -0.046044488 -0.04596529
0001a0 b3 eb f8 3a fc fc 27 bd 76 de 1c 3d b2 4d 58 bd
       0.0018991142 -0.04101275 0.038298093 -0.05280847
0001b0 d1 d8 c8 3c 9a 05 2c bd 60 da 98 bb 8a 6a 19 3d
       0.024517449 -0.04199753 -0.004664704 0.03745512
0001c0 a1 93 2e bb 1d c1 a7 bc 3c 16 5a 3b bb 9b 25 3b
       -0.0026638287 -0.020477826 0.0033277413 0.0025269825
0001d0 10 7f 95 bb 62 41 2c 3d ff 8b 10 bc 70 8e 66 bc
       -0.004562266 0.04205454 -0.00882244 -0.014072046
0001e0 d8 30 29 bc bf be 04 3c c8 1e 98 3c e9 93 b4 3c
       -0.010326587 0.008102118 0.018569365 0.022043185
0001f0 f1 eb 3d bd ea d4 42 bd 6b 41 f7 3b 0e 8e 67 3d
       -0.04636759 -0.047566332 0.00754564 0.05653196
000200 30 0b 8f bc 2a 40 7f 3d 33 a2 80 bd 05 99 9b 3c
       -0.01746139 0.06231705 -0.06280937 0.018993864
000210 78 11 45 bd 81 88 b2 bc c0 68 55 bd 60 09 16 bd
       -0.048112363 -0.021793606 -0.05210185 -0.036630034
000220 1e 00 7d 3c f2 bc 45 3d 60 6a d7 bc 81 0a 1c bd
       0.0154419225 0.048275895 -0.02629584 -0.038095955
000230 4f 47 20 bd 56 0a 04 bd c0 16 b4 bc 28 1d 5b 3c
       -0.039130505 -0.03223642 -0.021983504 0.013373651
000240 a9 c3 59 3d ca a1 07 bd 16 94 7f bd 9b 9e 7d 3d
       0.05316511 -0.03311328 -0.062397085 0.061918836
000250 75 28 36 bd e0 8d 7c 3d 4c 73 32 bb f2 e2 be bc
       -0.044472177 0.06165874 -0.0027229367 -0.023301575
000260 3d 26 64 3d 47 1e 6e bd df 93 06 bc 03 d0 12 3d
       0.05570053 -0.058134343 -0.008213966 0.035842907
000270 00 14 de ba 11 0e f0 bc 17 75 12 3d b4 6a 4f bd
       -0.0016943216 -0.029303582 0.035756197 -0.05063887
000280 4d 5d 0a 3d fb 6e 45 3d d8 fc 6a 3c 0a 0c ab 3c
       0.033780385 0.048201542 0.014342509 0.020879764
000290 33 f3 6e 3d 78 45 27 bc 77 f2 f7 3c 81 a2 63 3d
       0.0583374 -0.010209434 0.030266983 0.055574898
0002a0 86 cb 55 bc 28 39 35 3c 56 2a eb ba 9d 49 40 bc
       -0.013049012 0.01106099 -0.0017941694 -0.011736301
0002b0 e8 1d 0d bb 9d fb 61 3d ff 27 d4 3c 93 1c 68 bb
       -0.0021532718 0.055171598 0.025897978 -0.0035417422
0002c0 79 5c 36 bd 7a a5 9e 3c 99 f4 37 3d b4 90 c7 3b
       -0.044521783 0.019366015 0.044911 0.006090248
0002d0 36 4e 77 3d 00 65 2a 3d 6e 42 0b bd e5 8c 5a bd
       0.060377322 0.041600227 -0.0339989 -0.053357024
0002e0 a2 8f 83 bc 53 f2 82 bd 9a bb 26 3d 20 f9 70 bc
       -0.0160597 -0.06393876 0.040706255 -0.0147078335
0002f0 08 f5 a7 bc b1 fe 3f 3d 42 36 45 bb 08 19 0c bd
       -0.020502582 0.046873752 -0.0030092155 -0.03420356
000300 27 b4 3c bd 15 85 88 bc cc 0d bc bc d2 a9 42 bc
       -0.046070244 -0.016665021 -0.022955798 -0.011881309
000310 dc f3 85 bc 8c 54 56 bd 2e 7d 38 bd d0 66 75 3d
       -0.016351633 -0.052326724 -0.045041256 0.059912503
000320 be 1a 1f 3d f3 7f d7 ba 55 a7 35 bd 9d 92 f0 3c
       0.038843863 -0.001644133 -0.044349033 0.029366786
000330 a4 58 d0 3c 98 62 02 bc 35 7f 21 bc 2e 77 53 bd
       0.025432892 -0.007958077 -0.009856989 -0.05162733
000340 64 6c 73 bd 30 94 13 bd a0 9a ae 3c 68 c0 49 3d
       -0.05942954 -0.036029994 0.021313965 0.04925576
000350 d0 ea 03 3d 00 75 6d 3a cc 77 5d bd 94 a0 3f bd
       0.032206357 0.0009058267 -0.054069325 -0.046784
000360 1b 00 8d 3d 1f 8f 39 3d 23 d9 52 3d c4 86 e4 3c
       0.06884786 0.045302507 0.05147661 0.027896293
000370 ab 83 5a 3c 19 2f 59 3d 00 79 07 bd 67 f5 bf bc
       0.013337056 0.05302343 -0.03307438 -0.023432447
000380 32 7b 0a 3d 44 10 01 bd 0b db bd 3c 1b 92 00 bb
       0.033808894 -0.031509653 0.023175737 -0.0019618336
000390 82 66 db 3c 48 0a 5b 3d f8 7d 00 3c 5f 5f a8 39
       0.026782278 0.0534766 0.007842533 0.00032114514
0003a0 29 d3 b7 bc 56 92 24 3d e7 0f 58 3d 74 5d f7 bc
       -0.022439556 0.04017862 0.05274954 -0.03019593
0003b0 b4 55 38 bd 6f 03 62 bb c8 ef 4d 3d 02 fe 09 3d
       -0.045003608 -0.003448691 0.0502775 0.033689506
0003c0 c1 8a 2c bd 1f a7 e2 3c ff 88 c8 3c 9b 52 4c bd
       -0.042124514 0.02766758 0.024479387 -0.049883466
0003d0 73 fe 80 3d d6 24 31 3d 02 7f c5 3b de 40 37 3d
       0.06298532 0.04324802 0.0060271034 0.044739597
0003e0 c5 31 10 bd 29 5c bf bb c2 c7 00 3d cd f9 71 bd
       -0.035203714 -0.005839844 0.031440504 -0.05907612
0003f0 6a 3c fa 3c 41 9b fa bc 6d 87 35 bd 90 df 1f bc
       0.030546386 -0.030591609 -0.044318605 -0.009757891

fc2.weight f4 [128, 256]
000000 5c 93 05 bd 2f f3 91 bc 64 fb 5b 3d fd 0e 90 3d
       -0.032611236 -0.017816154 0.05370654 0.07034109
000010 e6 c3 6d 3d 8e 75 40 3d d8 79 d9 3c e0 b4 42 3c
       0.05804815 0.04698711 0.026547357 0.011883944
000020 d4 1c 4c bd f4 f9 a2 bc 2e 06 c7 3c ea 3c 78 bd
       -0.04983218 -0.019894578 0.024294939 -0.060604967
000030 0f b9 39 bd 8d 62 4b 3d 61 79 00 3d be ff 19 bd
       -0.0453425 0.049654532 0.031365756 -0.03759741
000040 a9 62 32 3d 17 fe 4c bc ba ab 52 3d 52 18 26 bc
       0.04355112 -0.012511752 0.051433302 -0.010137634
000050 bc df 56 bd 13 0c 83 bd 5d 1d 21 bd 7e b2 2c bd
       -0.052459463 -0.06398787 -0.039334644 -0.04216241
000060 bf f4 55 3d b5 05 30 3d 79 77 c4 bc c0 58 65 bd
       0.05223536 0.042974193 -0.02398275 -0.05599284
000070 06 b4 7f 3d 2a db 64 bd 5b d8 02 bc 82 a4 09 3d
       0.062427543 -0.055873074 -0.0079861535 0.033604153
000080 f7 ec 0e bc 2f 91 c0 3b b8 81 35 3c 74 c4 e4 37
       -0.008723489 0.0058766822 0.011078291 2.7271199e-05
000090 25 ec 12 3d d8 a6 07 3c 00 7b 2a bd a3 6a d3 bc
       0.035869736 0.008279525 -0.04162121 -0.025807684
0000a0 4b 4b 87 bd c9 19 dc 3c 5e 39 1a bd 05 b3 06 3d
       -0.06606158 0.026867764 -0.037652366 0.03288557
0000b0 ab 13 b4 bc 87 5d 33 bd 46 c7 f5 bc 61 28 23 bb
       -0.021982035 -0.043790367 -0.030002248 -0.0024895894
0000c0 85 54 24 3d 50 4b 83 bc 69 01 23 3d 4e de e2 bc
       0.040119667 -0.016027123 0.039796267 -0.027693894
0000d0 1f 9e 2b bd 09 5d c0 3c 73 e7 82 bd f4 4b 32 bd
       -0.041898843 0.023481863 -0.06391802 -0.043529466
0000e0 3b 07 9a 3b a2 c9 05 3d 5d 23 10 bd 9d 82 ff bc
       0.004700569 0.032662995 -0.035189975 -0.031190211
0000f0 08 13 05 3d 50 cd 64 bd bd b5 0b bc dc 31 bd bb
       0.032488853 -0.055859864 -0.0085272165 -0.005773766
000100 40 38 ec 3c 36 55 dd bb 58 45 da 3c a4 96 11 3d
       0.028835416 -0.0067545427 0.026644394 0.035544053
000110 41 e3 a4 bc e1 5d 5d 3c 21 e5 0a bd 7d e4 b1 bc
       -0.020127894 0.013511152 -0.03390992 -0.021715397
000120 be 1b 41 bd 5c 4c 83 3c 1e cc dc ba 02 77 20 3d
       -0.047145598 0.016027622 -0.00168455 0.039175995
000130 59 34 1d 3d 20 ce 60 3d c2 15 a2 bc 6b 31 45 bd
       0.03838 0.054884076 -0.019785766 -0.04814283
000140 f1 26 2c bd 88 57 04 3d 63 12 ba 3c 24 05 ff 3c
       -0.042029325 0.03231004 0.022713846 0.03113038
000150 20 60 f5 3b e5 5d 85 3d c3 c7 1f 3d c2 45 2d bd
       0.0074882656 0.065120496 0.039008867 -0.042302854
000160 8b d3 28 bd 9c bf 9c 3c 6b f0 27 3c 7d 36 68 3d
       -0.041217368 0.019134335 0.010250191 0.05669259
000170 77 9e 67 3c 54 d3 45 bd 46 13 26 bd 9d 4e d3 3b
       0.014136902 -0.04829724 -0.040545724 0.0064485804
000180 3a 37 80 3a 90 a9 42 3d ed 14 4f 3d 34 4e 13 bd
       0.0009782084 0.04752499 0.050557066 -0.035963252
000190 2c a4 6c 3d 6b 31 98 3c 8b 43 60 bd 01 4c 12 bd
       0.057773754 0.018578252 -0.054751914 -0.035717014
0001a0 ee c6 6e 3d 30 d9 88 3c 86 e5 4a bd fa b2 5d bc
       0.058295183 0.016705126 -0.049535297 -0.013531441
0001b0 bc 7c d8 bc a0 d8 87 bd 30 0a 0d 3c a0 82 26 bd
       -0.026426665 -0.06633115 0.008608386 -0.040651917
0001c0 db 73 30 bd 11 07 bd bc be f8 00 3d 74 39 66 bd
       -0.04307924 -0.023074659 0.03148722 -0.056207135
0001d0 67 a6 5c 3c 75 a3 61 bc 49 69 28 bc 1c 07 bd 3c
       0.013467408 -0.013771881 -0.010279008 0.02307468
0001e0 f5 68 f0 3b 74 18 98 bc e9 bf d5 3b ec 4d 58 3d
       0.0073367306 -0.018566348 0.0065231216 0.052808687
0001f0 3e 64 1d bd d2 5b 42 3d d2 89 79 3b 55 77 16 3d
       -0.038425677 0.047450848 0.0038076532 0.036734898
000200 e8 a8 61 bc 1e 5e 56 bd 8e 30 1a 3d 7b b0 f1 3b
       -0.013773181 -0.05233585 0.03764396 0.0073757744
000210 81 9b fd bc dd 3f 23 3c 48 9a 0d 3d 9c 7f 76 3d
       -0.03095794 0.009963957 0.034570962 0.06018029
000220 eb 18 0d 3d 13 38 56 bd e5 42 08 3d ef eb 5f 3d
       0.03444759 -0.05229957 0.03326692 0.054668363
000230 00 bc 68 bd 6b e2 4e 3d 69 da 24 3d c0 61 71 bc
       -0.056819916 0.050508898 0.040247355 -0.014732778
000240 0f dd 5f 3c fc db d9 bc c8 84 65 3c de 6d 0e 3d
       0.013663544 -0.026594155 0.014008708 0.034772746
000250 cd cf 68 3d 73 aa 46 3c e1 0a 62 bc f6 78 a3 bc
       0.0568388 0.012125599 -0.013796539 -0.01995514
000260 bf 05 46 bd fb 7f 2f bd 76 47 73 3c bc 4a eb bc
       -0.048345324 -0.04284666 0.014848581 -0.02872216
000270 08 56 3e 3c c2 e2 15 3d 7a 4b 83 3c 5f 72 81 bd
       0.011617191 0.036593206 0.016027201 -0.06320643
000280 2d 06 4c 3c 7f af b0 3c fc 59 3d bd 6c 9e ee 3c
       0.012452644 0.021568058 -0.046228394 0.029128276
000290 1a b5 2d 3d c4 75 3c bd 50 c5 72 3d 16 7e 40 3d
       0.04240904 -0.046010748 0.059270203 0.046995245
0002a0 20 df 63 3d fc 43 b2 3c 6c 5a 42 3c e8 43 00 bd
       0.05563271 0.021760933 0.011862379 -0.03131476
0002b0 19 60 2f 3d fa ad 6d 3b d1 1d 3e bd d4 67 28 3d
       0.042816255 0.0036267028 -0.046415154 0.041114643
0002c0 79 81 7b bd d6 d5 18 3d a2 cc 4b 3d b2 77 61 bc
       -0.06140277 0.037313305 0.0497557 -0.013761448
0002d0 68 ce 15 3c 9e d9 67 bd eb b9 ed bc 27 20 03 3d
       0.009143449 -0.05660402 -0.029019317 0.032013085
0002e0 cc 95 53 3d 14 4b ec bc 3f 78 37 bd 90 42 bd bc
       0.05165653 -0.028844394 -0.04479241 -0.023103029
0002f0 d6 6d 47 bd 97 1e c0 bb 0b 32 9c 3c 00 8d eb bb
       -0.048688732 -0.0058630216 0.019066831 -0.0071884394
000300 b4 34 ba 3b 2b cb 8f 3c 30 f1 6b bd 55 9c 84 3d
       0.0056825522 0.017552933 -0.05760306 0.064751305
000310 03 1a 53 3d f2 9d 38 3d 30 0d 12 bd ac 81 71 3d
       0.05153848 0.045072503 -0.035657108 0.058961555
000320 e0 09 21 bd ab 5c 52 3d 36 0f 1b bd 1f 44 61 bd
       -0.03931606 0.051357906 -0.037856303 -0.054996606
000330 c2 8e 53 bc a8 fc 69 bc 5e ce 5a 3c cc 19 fa 3c
       -0.012912454 -0.014281429 0.013354866 0.030529879
000340 cc 4e ce 3c 2a 97 2b 3d 39 e2 74 3c 1e 5e 13 bc
       0.025184058 0.04189221 0.014946514 -0.008994607
000350 dd 7b 9d bb 7e b0 24 bd f8 40 ba bc 40 d7 25 bc
       -0.0048060254 -0.04020738 -0.022736058 -0.01012212
000360 8d 25 f5 bc 4f 44 f3 bc bc 74 e5 3c 3e 56 6e 3d
       -0.029925132 -0.029695658 0.028009765 0.058187716
000370 1a d2 7f bc a3 54 2d 3d 20 ea 95 bc 04 d6 26 3d
       -0.015614057 0.042317044 -0.018300116 0.040731445
000380 d8 5a 46 bc 9b 96 f0 3c 01 c6 a1 bc f8 cf 31 3d
       -0.01210662 0.02936869 -0.019747736 0.043411225
000390 05 3b db 3c ef b3 2a bd c8 fd 62 3c 64 6a 51 bd
       0.026761541 -0.041675504 0.0138544515 -0.051126853
0003a0 ba 4b ad 3b 5f 5c 64 bd d7 a4 c4 b9 30 07 9c 3b
       0.0052885683 -0.055752154 -0.00037506848 0.004761599
0003b0 2e 95 3a 3d 76 61 4d 3d d1 fe 25 3d 15 40 43 3d
       0.045552425 0.050141774 0.040526215 0.047668535
0003c0 84 78 75 bd ff fe 9b bc 4c f9 47 bd 0e 87 26 3d
       -0.059929386 -0.01904249 -0.048821732 0.040656142
0003d0 07 23 1a bd 05 9d 86 bc b3 ea b1 3c cc 93 8b 3c
       -0.03763106 -0.016432295 0.021718359 0.017038248
0003e0 76 b5 50 3d 40 25 21 3d cb 7d bb 3c 08 07 e8 3c
       0.050954305 0.039342165 0.022887131 0.028323665
0003f0 7f 1b be 3c d6 e0 40 bb 17 ea be ba 04 f2 6c bd
       0.02320647 -0.0029430888 -0.0014565614 -0.05784799

fc2.bias f4 [128]
000000 bb f3 41 bd d4 94 42 bc a2 5b 41 bd 1a f3 b3 3c
       -0.04735158 -0.011876304 -0.04720653 0.021966506
000010 e4 72 17 bd 43 1f cd 3c e0 88 40 bd fa e0 49 bb
       -0.036974803 0.02503932 -0.047005534 -0.0030804262
000020 94 f9 6c 3d 4a 89 3f 3b 13 14 fd 3c 10 d8 25 bd
       0.057855204 0.0029226118 0.030893361 -0.040489256
000030 8c aa 66 bc 6c 47 00 bb e0 c8 9d bc 8b f4 30 3d
       -0.0140787475 -0.001957382 -0.019260824 0.043201964
000040 8d c9 40 3d 9f 77 23 bc e0 c3 1b 3d 90 84 e0 3c
       0.047067214 -0.00997725 0.038028598 0.02740696
000050 b6 31 a6 3c 57 ca af bc 7a 53 d1 bc 44 71 c6 bc
       0.020287376 -0.021458788 -0.0255525 -0.024223931
000060 4a 9c 03 3d 98 31 4a bd 15 b9 4b bd b4 da 0c 3c
       0.03213147 -0.049363703 -0.049737055 0.008597065
000070 18 98 4e 3d 08 ed 55 bd 3a 23 cb 3a 31 91 02 3d
       0.050438017 -0.052228004 0.0015498169 0.031876747
000080 62 8d 19 3d 44 5d 9a 3c 6f bc 3c 3d 82 c9 26 bd
       0.03748835 0.0188433 0.04607814 -0.040719517
000090 b7 cd 22 3a bf 31 31 bc f4 b4 6f 3d 3e b2 a8 bb
       0.00062104635 -0.010815083 0.05852218 -0.0051482012
0000a0 a6 39 45 3c 8a 69 08 bd 20 7d 03 bd 3c 38 d6 3c
       0.01203767 -0.033303775 -0.03210175 0.026149862
0000b0 02 d1 47 bd 01 93 47 3d ac 26 cd 3b f9 8b 75 3b
       -0.04878331 0.04872418 0.0062607136 0.0037467463
0000c0 50 78 13 bc 44 13 8c 3d 30 19 0c bd ea d9 fb 3c
       -0.009000853 0.06839612 -0.03420371 0.030743558
0000d0 b2 46 29 bd 72 2a 5d bc 9e 88 2b 3d 40 26 a8 3b
       -0.041327186 -0.013498889 0.041878335 0.005131513
0000e0 6b 12 10 3d 00 20 01 bc 39 1a 94 3c 57 5d 41 3d
       0.035173815 -0.007881165 0.01807891 0.047208156
0000f0 12 b0 13 3d d0 41 2b 3d 7c 0c 1b 3d dc d8 86 3d
       0.036056586 0.04181081 0.037853703 0.065843314
000100 98 2d 01 3d 80 80 4a 3c 65 3b c8 3b 42 d2 1d 3d
       0.031537622 0.012359738 0.006110596 0.038530596
000110 1f cb 34 bd c9 23 40 3d 85 27 03 bb e7 e7 03 bd
       -0.044139024 0.046909127 -0.002001257 -0.03220358
000120 49 30 06 bd 77 ef 74 bd 72 86 f2 3c ba 68 16 bd
       -0.032760892 -0.059798684 0.029605124 -0.03672097
000130 59 73 d8 3b b5 16 c3 3c 10 1c 7c bd 81 83 36 3c
       0.0066055474 0.023814538 -0.0615502 0.011139751
000140 2e 3b 54 bd 7e 59 5a bd 13 f5 40 bb 0a 64 c9 bc
       -0.05181425 -0.053308003 -0.002944295 -0.024583835
000150 74 ab 5a 3d a4 19 50 3d bd 4d b5 bc 3a 97 2b 3c
       0.053386167 0.050805703 -0.022131795 0.010473067
000160 b3 84 49 3d fb 7a 41 bd 1a 04 31 3d 29 87 a4 bc
       0.049198817 -0.047236424 0.043216802 -0.02008398
000170 32 2a 57 3d 82 29 65 3b 9b 4b b6 bc 75 30 5e 3c
       0.052530475 0.0034967368 -0.022252848 0.013561358
000180 04 8e c8 39 a9 32 50 3d 5e 34 98 bc 45 45 a3 3a
       0.00038252783 0.050829563 -0.018579658 0.0012456557
000190 a0 b7 bf 3b 21 48 9c bc 91 65 2d 3c d2 98 06 3d
       0.005850747 -0.019077362 0.010583297 0.032860585
0001a0 42 36 4c 3b 95 b6 16 bd 59 75 c3 bb 40 47 ae bc
       0.003116027 -0.036795218 -0.0059649167 -0.021274209
0001b0 48 e6 c3 bc 97 cc 6d bd 8f 8a 3a bc 56 c8 89 bc
       -0.023913518 -0.05805644 -0.011385574 -0.01681916
0001c0 33 a3 2b bb 75 cd 2d 3d 43 03 66 3d 04 6d 4f bd
       -0.0026189804 0.042432267 0.056155454 -0.050641075
0001d0 59 9a e8 bc bd 1f 30 3d ba 16 17 bc 95 ae f7 bb
       -0.028393911 0.042999018 -0.009221727 -0.0075586536
0001e0 f8 1d 49 3d 85 6d 43 3b d6 cd 3a bd 7f 9e 2f 3c
       0.049100846 0.0029819917 -0.045606457 0.010718941
0001f0 cd 05 7a bd c1 0b 1c 3d 52 af 3f 3d b6 37 5f bd
       -0.06104069 0.038097147 0.046798058 -0.05449649

actor.weight f4 [4, 128]
000000 b1 81 e4 bc 1f 1f 7d 3c 29 f1 82 bd 6b 8c ac 3d
       -0.027893873 0.015449314 -0.06393654 0.0842522
000010 f9 05 4d bc 19 1d 62 bc a0 71 81 bc bc 5b 40 bd
       -0.012513631 -0.013800883 -0.015801251 -0.046962485
000020 a7 e7 b9 3b ae 9b 05 3d 72 2f 13 bd f8 1e 48 bd
       0.005673367 0.03261917 -0.03593392 -0.04885766
000030 ce 29 22 bd b6 d3 61 bd ef c6 8d 3d 21 62 be bd
       -0.03959065 -0.055133544 0.06922709 -0.0929606
000040 61 48 a9 bb 35 82 28 3d 56 ed a3 3d 0e 6b 73 bd
       -0.005166099 0.0411398 0.080042526 -0.059428267
000050 ee a8 07 bd fc ba 15 bd 40 6e 5b bd 0e a7 5c bd
       -0.03312009 -0.036555275 -0.05357194 -0.053870253
000060 0b 0f 87 bd a2 ba 4b 3c 64 9b b2 bd 65 f7 ab 3d
       -0.06594666 0.012434633 -0.08721045 0.08396796
000070 98 ec ca 3c 7a 70 93 3d 89 84 8b 3c f9 b4 d5 3b
       0.02477102 0.071991876 0.017030971 0.0065218178
000080 7a a5 a7 3c d9 4c 9f bc 87 b2 ec bb c8 db aa bd
       0.020464648 -0.019445824 -0.0072234306 -0.08342701
000090 22 ee 77 3c 3b e2 0f bc e8 d6 5f bd 9c 21 3c b9
       0.015132459 -0.008781965 -0.05464831 -0.00017941598
0000a0 f3 27 cb 3c 38 0c 07 3c f0 b4 3e 3b a6 d3 00 bd
       0.024799323 0.008242659 0.0029099546 -0.031451844
0000b0 83 3c 1a 3d 50 9e bb 3d 29 11 89 bd bd 96 85 3d
       0.037655365 0.09161055 -0.06692726 0.06522892
0000c0 96 e3 51 3d 64 c6 55 bd f4 00 e3 bb 02 7d bc bc
       0.051242433 -0.052191153 -0.006927604 -0.023008827
0000d0 26 7d 6d bc 12 be 7d bd 39 83 31 3d 54 25 1f 3d
       -0.01449517 -0.061948843 0.043338034 0.03885396
0000e0 8d 60 b9 3d 38 60 b7 3d 90 13 3f bd f8 48 8d bc
       0.09051619 0.08953899 -0.046649516 -0.017246708
0000f0 ea da 97 3d f4 1a 9f bc b0 cb 96 bd e4 d6 d3 bb
       0.074148014 -0.019422032 -0.07363069 -0.006464826
000100 b8 ba 25 bd 1d 93 3b 3d 93 9c b6 3d 59 07 3a 3d
       -0.040461272 0.045794595 0.08916583 0.045417164
000110 c8 38 3c 3d 3a a5 14 3d 73 e4 1e bd 0f 5f 2e bc
       0.04595259 0.036290385 -0.038792085 -0.010642781
000120 fe d6 90 3d d6 d1 c7 3b a2 4b 6d bd 21 b1 8f bc
       0.070722565 0.0060980124 -0.057933457 -0.017540516
000130 98 dd 75 3d 1f a8 a0 3d fa 3e 59 bd 3a 26 e4 bb
       0.06002578 0.078445666 -0.053038575 -0.006962565
000140 e4 17 af bd cd 04 a5 3d e4 c7 50 3d 46 a8 3b bd
       -0.08549479 0.08057556 0.05097188 -0.045814775
000150 58 25 83 bd 35 f4 cb bc f4 94 af bc 59 73 81 bc
       -0.06403607 -0.02489672 -0.021433331 -0.015802072
000160 f5 74 30 bd 51 48 82 bc af 93 43 bd 94 ea af 3d
       -0.04308029 -0.015903624 -0.047748264 0.08589664
000170 7d f3 2b bd a4 29 10 bd 97 20 5e 3d 62 cf 87 bd
       -0.041980255 -0.03519596 0.0542303 -0.06631352
000180 82 ff 34 bc c3 ea 99 bd df 04 3d 3a 9e eb c3 3b
       -0.011047246 -0.0751548 0.00072105037 0.0059790155
000190 0e a9 8f bd e4 0d 95 bd 84 00 ae bc e3 d7 83 3d
       -0.070146665 -0.0727804 -0.02124048 0.064376615
0001a0 7e 64 8a 3d 50 32 6f bb e9 bc b9 3d 85 c8 33 bb
       0.067574486 -0.0036498494 0.09069235 -0.0027432751
0001b0 54 16 b0 3d 6f 3e 95 bd 87 00 18 bd 6b c7 7b bd
       0.08598009 -0.07287299 -0.037109878 -0.061469477
0001c0 d8 39 64 bc 7a 50 8c 3d 9a 90 d4 3c 9f ee 89 bd
       -0.013929807 0.06851287 0.025947858 -0.067349665
0001d0 e8 2b 10 bd e7 31 d2 bc d6 39 48 bd b5 26 84 3d
       -0.035198122 -0.02565856 -0.04888328 0.06452695
0001e0 79 49 2f bd 0a b8 35 3d 7f 0b 5b 3c d8 10 1d 3d
       -0.04279468 0.044364966 0.01336944 0.03834614
0001f0 1e 7e 2d bd 67 bb 86 3c 11 69 cd 3c d5 83 a8 3c
       -0.042356603 0.016446782 0.025074514 0.020570675
000200 ad 38 97 3d 94 72 fc bb 64 8a 0d bd ae 09 d0 bc
       0.07383857 -0.0077040885 -0.034555808 -0.02539524
000210 25 85 d9 bc 65 bc 7a 3c f4 ec af bb cb 79 40 3d
       -0.026552746 0.015303706 -0.005368823 0.04699115
000220 ea 6b 8e bd d2 85 32 3c b0 d1 9d bd 05 2c 90 bc
       -0.06954177 0.010896163 -0.0770601 -0.017599115
000230 a6 3c 58 3d 9d 69 bd 3c b5 98 21 3c d7 e7 61 bd
       0.052792214 0.02312165 0.009863068 -0.05515274
000240 88 47 c2 bd 2c 83 91 bd c5 e3 67 3d 3d ca 9a bd
       -0.094863 -0.07105097 0.056613702 -0.07558105
000250 38 f6 59 3d 98 6b 0c 3d d6 d9 70 bd 59 fe 72 bb
       0.053213328 0.034282297 -0.058801495 -0.0037077873
000260 b5 46 cf bc 25 c9 a8 3c 46 b3 46 bc fa 3d 55 3d
       -0.02530227 0.020603726 -0.012127703 0.05206106
000270 9f f5 e4 bb 7e a5 1a 3a ff d1 c6 bb e2 df 89 bd
       -0.006987288 0.0005899294 -0.006067514 -0.067321554
000280 62 ae 8d bd 90 19 8f 3d 7e c5 a7 bd 3b ef 3a 3d
       -0.069180265 0.069872975 -0.081919655 0.045638304
000290 07 a0 41 3d 9a fe bd bd 87 b7 60 bd d8 e9 45 3d
       0.047271755 -0.09277077 -0.054862525 0.048318714
0002a0 4a 64 b8 bb 87 ff 38 bd 49 44 a9 3d 33 55 ad bc
       -0.0056271898 -0.045165565 0.082649775 -0.02115879
0002b0 2c 6e a1 bd c5 1c cc 3c be 0f 03 3d da 5e 98 bd
       -0.07882342 0.024916062 0.031997435 -0.074399665
0002c0 12 06 f0 3c e0 f0 90 bd 85 8d 9e bd d0 f9 38 3d
       0.02929977 -0.07077193 -0.077418365 0.045160115
0002d0 e4 9e c4 bc d1 0b f4 3c 0a f6 97 bd b2 69 a3 3c
       -0.024001546 0.02979079 -0.07419975 0.01994786
0002e0 f2 fb 52 bd 6c 1a 5d 3d 5b f8 82 bd ed 8f 30 bc
       -0.051509805 0.053980276 -0.06395026 -0.010776502
0002f0 b3 ec ba 3c 1e fe 19 3d 73 e7 90 3d 83 2d 39 bd
       0.022817945 0.03759586 0.070753954 -0.04520942
000300 15 28 67 3d d9 bb 0b bd 8e 0e 8f bd 8f cb 2c bd
       0.05643471 -0.034114692 -0.06985198 -0.042186316
000310 d7 6f 6b 3d 61 bf 38 bd 54 57 31 3c 67 e3 8f bd
       0.057479706 -0.04510439 0.010824043 -0.070257954
000320 f7 77 02 bd aa 0f 97 bd bb 24 00 bd 11 84 95 3c
       -0.03185269 -0.073760346 -0.03128503 0.01825145
000330 7c 88 0e 3d 1d e2 80 3d f5 de 5d 3d a0 9c ae 3c
       0.03479813 0.06293128 0.054167707 0.021314919
000340 53 a0 76 bd 76 2e 82 3c a9 87 9a bd 95 01 91 3c
       -0.06021149 0.015891295 -0.07545406 0.01770095
000350 1c 89 0f bd be 53 53 3d 10 3d a3 3d ed 08 81 bd
       -0.035042867 0.051593535 0.07970631 -0.063005306
000360 9b 2c 03 3d d5 a1 91 3d 63 47 72 3c 64 93 84 bc
       0.03202496 0.07110945 0.014787528 -0.016183563
000370 89 55 8d 3d ca 03 59 3d 55 f8 8b bd 59 38 40 bd
       0.0690108 0.05298213 -0.06834475 -0.046928737
000380 f0 22 e7 3c 25 40 0f 3d 44 35 24 bd f8 a5 a1 3d
       0.028214902 0.034973282 -0.04008986 0.07892984
000390 20 d8 dc bc d5 2d ba bb 45 34 f9 bc f0 ec 22 bd
       -0.026958525 -0.005681733 -0.030420432 -0.039776742
0003a0 ba d6 3f bd 24 d4 aa 3d dd 36 87 3b b1 c9 c8 3c
       -0.04683564 0.08341244 0.0041264133 0.024510236
0003b0 d4 98 b8 bc a4 3c cc bc 74 91 96 bc 88 2f 8e bb
       -0.022533812 -0.02493126 -0.018379904 -0.0043391623
0003c0 bd f3 c2 bd 54 29 81 3d 18 1c 27 bd 42 a8 35 bd
       -0.09519146 0.06306711 -0.040798277 -0.044349916
0003d0 c5 24 8d 3b 08 41 7a 3d 1f 43 66 3d 48 84 67 bd
       0.004307362 0.061097175 0.056216355 -0.056522638
0003e0 81 2a 4b bd 80 92 37 3d a4 39 fe 3c 46 5b a0 bd
       -0.04960108 0.044817448 0.031033345 -0.07829909
0003f0 f8 98 1b 3c 23 cc f8 3c cb ea bd 3c cf 11 97 3d
       0.00949692 0.030370777 0.023183247 0.073764436

actor.bias f4 [4]
000000 69 6a 9c bd 6f 0b 36 bc 9c 1b 28 bc fc 6a 1d 3d
       -0.076374836 -0.011111124 -0.010260489 0.038432106

critic.weight f4 [1, 128]
000000 7c d2 57 bc a7 fa ea bc de 24 8b 3a 32 e3 f6 bc
       -0.013172742 -0.028683973 0.0010615846 -0.030137632
000010 1f d5 6f 3d 18 ad a0 bd 86 6a fb bc 9d 80 6a 3d
       0.058552857 -0.07845515 -0.030690443 0.05725156
000020 ba 34 a0 bd 50 d5 d7 bc 97 6c 1b 3d 2e 43 e3 3d
       -0.07822557 -0.026346833 0.037945356 0.11096798
000030 d0 37 af bb da ff 27 3d ff 44 6c 3d 29 c0 8e 3c
       -0.0053472295 0.041015483 0.057682987 0.017425613
000040 07 5f af bc 08 d3 a7 3d 91 dc bd 3d 9d 69 4c bd
       -0.021407617 0.08194548 0.09270585 -0.04990541
000050 9c 10 54 bd 94 6c ac 3c 28 99 2d 3c 77 fd 0c 3d
       -0.051773652 0.021047868 0.010595597 0.03442141
000060 eb 4d 90 bd 07 73 a6 3c f4 35 92 bd 69 99 8a bd
       -0.07046112 0.020318521 -0.07139197 -0.06767542
000070 1b db 27 bd 17 01 1a 3d 0b 8b 6c bd 9b 79 83 bd
       -0.04098044 0.037598696 -0.05774979 -0.06419679
000080 a2 b0 cd 3c 4a 58 5f bc 30 5a 2f 3d 78 18 94 3d
       0.02510864 -0.01363189 0.04281062 0.072312295
000090 d8 4b 52 bd 7d 00 70 3d 26 33 2b bc 1b 98 eb 3c
       -0.05134186 0.058594216 -0.010449206 0.028759053
0000a0 1c 2d 28 bd ad 11 03 3c c1 e3 06 bd 94 8d cf bc
       -0.041058645 0.00799982 -0.032932047 -0.025336064
0000b0 cd 29 a4 3d 3d ea 22 3d a4 d0 62 3d bb 78 1c 3c
       0.08015785 0.03977417 0.055374756 0.009550269
0000c0 e4 1d c9 bc 7c 43 0c 3d 1f e8 2e bd f5 fb c2 3d
       -0.024550386 0.034244046 -0.042701837 0.09520713
0000d0 07 c4 79 bd c4 3d a3 bd ca ef 41 3c 9b c5 3d 3d
       -0.060977962 -0.07970765 0.011836955 0.04633103
0000e0 99 92 98 3c 20 45 1c 3d 1f 43 50 3b 47 9b 45 3d
       0.01862459 0.03815186 0.0031778289 0.048243787
0000f0 b0 2a 65 bd 6f e4 71 3d 49 2d d9 bc 1f 64 91 3d
       -0.055948913 0.059055742 -0.026510851 0.07099175
000100 8f b7 53 3d 56 09 9e 3c 71 ca 1e 3d 54 c2 c5 3d
       0.051688727 0.019291561 0.038767282 0.09656206
000110 e5 c1 1c bd 62 b8 59 bd 38 f5 38 bb e2 a6 5c 3c
       -0.03827085 -0.053154357 -0.0028222334 0.013467522
000120 02 08 98 3c 8c b6 8c 3a 23 a9 f5 bc 64 13 80 3c
       0.018558506 0.0010735556 -0.029987877 0.015634246
000130 cc fd 14 bc d7 91 77 bd f5 46 ac bc 19 90 52 3a
       -0.009093713 -0.060441818 -0.021029929 0.00080323365
000140 6a ae 82 bd 6b dc 7c 3d b2 4a bd 3d a6 43 2b bc
       -0.06380923 0.061733644 0.092427626 -0.01045314
000150 5a 43 5e 3d 25 62 1c bd dc a0 84 bd a2 4d 67 bd
       0.05426345 -0.038179535 -0.06475994 -0.05647052
000160 04 1c 0d 3d ec 29 4b bd 8b fe b4 bd eb b8 10 bd
       0.034450546 -0.049600527 -0.08837613 -0.0353326
000170 c6 f0 65 3d 14 81 be 3d 41 b0 77 bd 8b f1 9f bd
       0.056137823 0.093019634 -0.060470823 -0.078097425
000180 d9 c0 20 bd a6 18 9d 3d ca b4 52 bd e4 c0 89 3d
       -0.039246414 0.07670717 -0.051441945 0.06726244
000190 06 a8 42 3d 54 bf 49 3d af fd d8 bc b2 1a 9e 3d
       0.04752352 0.04925473 -0.026488153 0.077199355
0001a0 e1 40 d7 bc bb 02 88 3d 53 35 71 3d 07 4f 88 3d
       -0.026276054 0.06641146 0.058888745 0.06655698
0001b0 05 e3 30 3d ec 6f 95 bc ef 23 38 3d 98 61 ab 3d
       0.043185253 -0.018241845 0.044956144 0.08368224
0001c0 5e c2 3a 3d 40 70 76 3c 93 14 aa bc 82 e8 6f 3d
       0.04559552 0.015041411 -0.020761764 0.058571346
0001d0 07 2d a9 3d 6e c2 e3 bc 13 8f bc 3c 18 0e 38 bc
       0.082605414 -0.027802672 0.023017442 -0.011233829
0001e0 fa 8b ab 3c 84 98 d9 3c 41 a1 99 3c be d6 5b 3d
       0.02094077 0.026561983 0.01875365 0.05367159
0001f0 49 48 97 bd 72 26 a6 3d 32 6f 32 bd 76 08 51 bd
       -0.07386834 0.081128016 -0.043563075 -0.05103346
