checkpoints/count/seed1/final.pt (torch, 400901 bytes, 7 tensors)

fc1.weight f4 [256, 256]
000000 73 c3 8f 3d 1c b8 23 3c d3 84 cd 3c ca 4d ac ba
       0.07019701 0.009992626 0.02508775 -0.0013145742
000010 b0 dc 81 3c 4c 73 63 bd 2f a1 80 3d 3c b3 92 bb
       0.015852302 -0.055529878 0.06280743 -0.004476933
000020 fa d4 ef 3b cb c0 95 bd 39 57 4f 3d 9a ae 67 bd
       0.00731909 -0.07312163 0.05062029 -0.056562997
000030 1d 62 4d 3d f3 9e 05 bd e3 9b 90 3b a8 b0 2b bd
       0.050142396 -0.03262229 0.0044131144 -0.04191652
000040 14 45 f7 bc 98 cc d9 bb 14 d2 03 3d 53 dc 05 3c
       -0.030184306 -0.006646704 0.032182768 0.008170205
000050 3f 4a 8a bc 6b 47 65 3c 75 86 17 3d f3 b6 e4 bc
       -0.016881106 0.013994078 0.036993463 -0.027919268
000060 79 17 c2 3b 51 76 ba 3c 66 d4 73 3d 59 73 a6 3c
       0.0059232083 0.022761496 0.05952873 0.020318674
000070 c7 02 71 bd a5 b8 95 bc 7b e7 5c 3d 8a c8 89 3a
       -0.05884054 -0.018276522 0.053931694 0.0010512036
000080 75 ac d9 3b d2 17 69 bb a9 16 ad bb 21 31 1e 3d
       0.006642873 -0.0035567177 -0.0052822423 0.03862107
000090 98 3a 5c 3d e4 5a 66 3c fc 70 00 bd 90 83 af bc
       0.053766817 0.014059756 -0.03135775 -0.021425039
0000a0 f4 78 84 b9 76 2d 3f bd ed ff 7b 3d 18 18 d8 3c
       -0.0002526712 -0.046674214 0.061523367 0.026378676
0000b0 b6 9d fe 3c ef 57 bc 3c 0e 5a 44 bd 48 10 e7 3b
       0.031081062 0.022991149 -0.047937445 0.0070515014
0000c0 a2 3a d9 3c f5 73 38 3d 5d bc 92 bc e9 4d 62 bd
       0.026517216 0.04503246 -0.017912084 -0.055250082
0000d0 b3 7e 51 3c b5 8e e1 3b 51 86 19 bd 08 d2 86 bc
       0.012786555 0.006883467 -0.03748161 -0.016457573
0000e0 20 b5 66 bd 4d da f6 bb 03 46 88 3b 90 f6 f1 bc
       -0.056325078 -0.0075333477 0.0041587367 -0.029536515
0000f0 fd 79 e4 bc 13 8d 8f 3b 59 2e 5e 3d 97 8a bf 3c
       -0.0278902 0.004380831 0.05424342 0.023381514
000100 6b 7a be bb 31 d9 79 3b 8e a6 60 3d 8e a3 1b bb
       -0.005812933 0.003812384 0.05484634 -0.002374861
000110 88 75 3b bd 81 d2 ca 3c bb ed a9 bc 61 0c f6 3c
       -0.045766383 0.02475858 -0.020743242 0.0300352
000120 b0 59 1b 3b b5 59 4f 3d 0d 79 67 bb 53 ad 4f 3b
       0.002370458 0.05062266 -0.0035319955 0.0031689003
000130 ef 46 4d bc 84 a2 25 3d 6c 75 25 3d 08 9f 85 3d
       -0.012529119 0.04043819 0.040395185 0.065244734
000140 26 00 88 bc 59 9d 3d 3d b2 19 4f 3d 27 de e8 bc
       -0.016601633 0.046292637 0.050561614 -0.028426243
000150 b0 91 70 3d 4d f5 63 bc 0e e5 5a b9 40 2f 21 bd
       0.05873269 -0.013913465 -0.0002087543 -0.0393517
000160 98 8b 7a 3d b7 c1 d4 bc 83 6d a8 3b 0e dc 21 3d
       0.061168283 -0.025971277 0.005140008 0.0395165
000170 a7 7b 32 bd 9c a2 28 bd 0d e4 c2 3c 50 55 ff 3c
       -0.043574955 -0.0411707 0.023790384 0.03116861
000180 33 6b d5 3b 36 01 43 3d 40 b7 68 3d f8 d2 f2 3c
       0.0065130233 0.047608577 0.056815386 0.029641613
000190 55 f1 34 3d 11 c0 7e bb ea 31 32 3d 42 1e 10 bd
       0.044175465 -0.0038871805 0.043504633 -0.035185106
0001a0 91 92 60 bb 09 de 0d 3c d0 d6 6a ba bf 3f ec 3b
       -0.0034267048 0.008658894 -0.0008958401 0.0072097476
0001b0 82 67 34 ba 65 ca f9 bc 12 b6 5c bd 20 fb e6 ba
       -0.0006881879 -0.030492017 -0.053884573 -0.0017622449
0001c0 ef 92 25 3c 2f c8 1e 3c 00 f0 33 3d eb 40 c2 bb
       0.0101058325 0.009691282 0.043930054 -0.005928149
0001d0 fe 9b 1f 3d c7 9a 3c 3d 8a e6 37 3d 0a 69 34 3d
       0.038967125 0.046046045 0.044897594 0.044045486
0001e0 7d 5b 6d bc 04 59 35 bd 15 90 bd 3c be f0 87 bc
       -0.014487145 -0.044274345 0.023139993 -0.016594287
0001f0 43 59 7b bd 0f b4 18 bd 85 6b ad bb c1 26 eb 3b
       -0.061364423 -0.037281092 -0.0052923583 0.0071762507
000200 8c 01 99 bc c6 5c 49 3d a4 4f 2f 3d e8 db d1 3b
       -0.018677495 0.04916074 0.04280056 0.0064043887
000210 e7 28 60 bd 40 2f d2 bb 94 fc fc 3c 8c 1b db 3c
       -0.054726508 -0.006414324 0.030882157 0.026746534
000220 32 33 08 bd 6e 88 da 3b d6 43 38 bd ba 04 5a 3d
       -0.03325195 0.0066690957 -0.04498657 0.053227164
000230 93 f3 e7 bc e3 3b 17 3d b2 7f 1b bd 9e 68 09 bd
       -0.028314387 0.036922347 -0.037963577 -0.033547036
000240 bc 31 36 bd 25 c0 9c bc 52 d8 55 3d 40 00 35 3c
       -0.044481024 -0.01913459 0.052208252 0.011047423
000250 6b 70 06 bd e9 d7 ea bc 48 c0 df bc fe a8 3e 3d
       -0.032822054 -0.028667407 -0.027313367 0.046547882
000260 cc 9f 3b 3b 6d cc f8 bc 43 f2 78 3d 7d f2 64 bd
       0.0028629182 -0.030370915 0.060777914 -0.055895317
000270 2e 4f da 3c ea d9 23 3d 2a a3 c7 bc 9e a0 3c 3d
       0.026649084 0.04000274 -0.024369795 0.046051614
000280 64 bb 79 bd 23 22 c0 b9 a4 51 e4 3c bc 25 42 3d
       -0.060969725 -0.00036646528 0.02787096 0.047399268
000290 ce 75 f6 bc a0 1a e5 bc f4 1f 07 3d 30 28 b5 3b
       -0.03008547 -0.027966797 0.032989457 0.0055284724
0002a0 98 e8 36 bd db 4a 6d bd e2 ca d3 3c 98 bd b2 bc
       -0.044655412 -0.057932716 0.025853578 -0.021818921
0002b0 f4 bb ea 3c cc 4c 8c bc 48 3e c4 3c ab bb 37 bc
       0.028654076 -0.017126463 0.02395548 -0.011214177
0002c0 a8 4c fe 3c a4 1a 33 bc 84 00 f1 bb c9 af cd bc
       0.031042412 -0.010931645 -0.007354798 -0.025108235
0002d0 05 5b 47 bd 04 6f 6c bd 2e e2 53 bd ba ac 44 bd
       -0.048670787 -0.05772306 -0.051729374 -0.048016287
0002e0 b8 5d ad 3c 76 b3 72 bd 64 99 8c bb de 70 bc bc
       0.021162853 -0.05925318 -0.0042907465 -0.023003038
0002f0 f3 fd f8 bc b0 b8 37 bd 2d 32 92 bc fa 91 03 3d
       -0.03039453 -0.044853866 -0.017846191 0.032121636
000300 70 02 52 3c 4c 9b 64 3d d8 8a 45 bc dc 04 b6 bc
       0.012817964 0.055812165 -0.012057029 -0.022219114
000310 40 9a 89 ba 1e c1 26 bd 42 ae 4d 3d 1c 84 0c bd
       -0.0010498241 -0.040711515 0.050215013 -0.034305677
000320 7c 6e ff bc d5 7e 40 3d 18 50 c0 bc ef 53 76 3d
       -0.031180613 0.046995956 -0.023475692 0.06013864
000330 14 f0 17 bb a8 c3 df bc 5c 46 1f bd 2a c5 e1 bc
       -0.002318387 -0.027314976 -0.03888546 -0.027559835
000340 50 27 36 bd c4 a0 e4 3c 36 fd 17 bd 32 47 31 3d
       -0.044471085 0.02790869 -0.037106715 0.043280788
000350 d8 dc 11 3d e7 91 61 bc 6c f3 b4 bc ca e9 02 bd
       0.035611004 -0.013767696 -0.022088729 -0.03196124
000360 48 7f 6f bc 6c 5e 5b 3d 43 80 6e 3d 40 16 57 3b
       -0.014617749 0.053556845 0.05822779 0.0032819659
000370 54 35 81 bc d3 85 ac bb 7e cf 42 bd 4c 15 e6 3c
       -0.0157725 -0.0052649765 -0.04756116 0.028086327
000380 13 59 b2 bb f0 02 28 3d 58 0e 27 3d a0 32 d5 3b
       -0.0054427474 0.041018426 0.040785164 0.006506279
000390 59 0a 29 3d 6e 8d 26 3d 74 37 a3 3c f0 22 af bb
       0.041269634 0.04066222 0.019923903 -0.005344741
0003a0 10 ea 25 3c 5e fa 1b 3d 7c 88 d0 3c 60 be fb 3b
       0.010126606 0.038080566 0.025455706 0.0076826066
0003b0 b8 bb b3 3c 32 e5 50 bd 60 70 22 bd 9b f3 cf bc
       0.021940097 -0.050999828 -0.03965795 -0.025384715
0003c0 26 59 8d 3c 14 47 3b bd 60 79 6d bd c7 8a 2a bd
       0.017254423 -0.045722082 -0.05797708 -0.041636255
0003d0 70 92 55 bc 1e eb 45 bd 40 ba fe 3a fa 6d 2a bd
       -0.013035402 -0.04831993 0.0019434169 -0.041608788
0003e0 cd f9 21 3d d8 97 ab bc b4 ca b0 3c 66 95 60 bd
       0.03954487 -0.020946428 0.021581031 -0.054829977
0003f0 84 e7 ba bc af a1 08 3d 33 9e 42 bd 00 27 a8 3b
       -0.022815473 0.03335732 -0.04751415 0.0051316023

fc1.bias f4 [256]
000000 21 7e 80 3c 8e a8 1d bc 79 c5 ca bb 01 f8 42 3d
       0.015685143 -0.009622706 -0.0061880914 0.047599796
000010 a0 50 ca bc e5 00 5b bd c4 f8 64 3d a7 44 33 3d
       -0.024696648 -0.05346765 0.055901304 0.043766644
000020 44 9e 8a 3d d7 9e b8 bc 74 01 8a 3d fa d8 95 bc
       0.06768468 -0.022536678 0.067385584 -0.018291939
000030 b9 39 3b 3d 69 d4 f1 3b 80 0f 8e bc 84 1b 74 bd
       0.045709345 0.0073800576 -0.017341375 -0.059596553
000040 04 99 d5 bc f9 1b 51 bc 18 65 3b bd 56 4e 51 3d
       -0.02607394 -0.012763017 -0.045750707 0.051100098
000050 f4 98 d6 bb dc 03 5d bc 88 88 69 3d 55 73 ec 3b
       -0.006548995 -0.01348969 0.057014972 0.007215897
000060 b0 84 90 3c 63 3d 90 3c b2 8c 01 bd 85 cc 35 3d
       0.017641395 0.017607396 -0.031628318 0.0443845
000070 2e b5 20 3c 41 16 ec 3b 0c bb 84 bc 1c f1 22 3d
       0.009808822 0.0072048013 -0.016202472 0.03978072
000080 b9 02 22 3d ef 6b 76 3d 9d e4 79 bd 75 10 71 3d
       0.039553378 0.060161527 -0.06100904 0.058853585
000090 e4 00 25 3d 89 ae 82 3d be 79 92 3c b4 23 99 bc
       0.040284052 0.06380946 0.017880317 -0.018693782
0000a0 79 73 86 bd 3d 36 0e 3d 49 af 89 bb 75 61 7b bc
       -0.065649934 0.034719694 -0.004201804 -0.01534306
0000b0 b6 bf 8f 3c da 6d 76 bb b9 b0 12 3c 0f bd 8e 3b
       0.01754747 -0.0037602098 0.008953267 0.0043560336
0000c0 b1 1b 1d 3d 5d 0f 86 3d c0 87 31 bb 90 fc a9 bb
       0.038356487 0.06545899 -0.002708897 -0.0051875785
0000d0 44 12 42 bd d9 a6 0e 3d 06 9d 7b 3b 42 7d 36 bd
       -0.0473807 0.034827087 0.0038393154 -0.04455305
0000e0 7e 2f 3b bd 8a 47 e3 3c fd 60 47 3d 5e d4 1d bd
       -0.04569959 0.027744073 0.04867648 -0.038532607
0000f0 0d 73 26 bd df c2 08 3d 5f c2 45 bd ab 81 58 3c
       -0.040637065 0.03338897 -0.04828107 0.013214509
000100 3d c4 1c 3d 57 84 89 3d 00 8a 2e bd c1 6b 25 bd
       0.038273085 0.06714695 -0.042612076 -0.040385965
000110 64 22 80 3d c5 52 83 bd 92 8d e6 3c b7 ee 95 bc
       0.062565595 -0.064122714 0.028143678 -0.018302305
000120 4a 41 30 3d 8a b6 23 bc 6e f4 21 3d 49 08 ac 3c
       0.043031015 -0.009992251 0.039539747 0.021000044
000130 2e 70 af 3c d5 fa 58 bc 17 fb 81 3b 80 88 1f 3d
       0.021415796 -0.013243397 0.0039667 0.038948536
000140 44 33 55 3d 09 68 07 3d bc 96 35 bd fd dc 43 bd
       0.052050844 0.0330582 -0.044333205 -0.047818173
000150 73 60 5b 3b 02 0c 35 bc 9f 2d 81 3d 8a 04 17 3d
       0.0033474236 -0.011050226 0.0630753 0.036869563
000160 72 e8 13 3c 85 cc 83 3d 1e 38 d1 3a a3 13 52 bd
       0.009027587 0.064354934 0.0015962159 -0.05128826
000170 64 9e 3a 3d 96 dc 8a bc 37 ab 1f bd 64 3e 32 3d
       0.04556121 -0.016950887 -0.038981643 0.04351653
000180 49 4a 70 3d 49 f8 20 bd 86 72 2d 3d 33 e5 30 bc
       0.058664594 -0.039299283 0.042345546 -0.010796833
000190 fb d9 02 bd ee 6c 3e bd 6e 88 3f bd 05 c5 5b bd
       -0.031946164 -0.046490602 -0.04676097 -0.05365469
0001a0 a0 f6 91 bc 53 ae 58 bd b4 46 48 3c d8 f1 67 bd
       -0.017817795 -0.052900624 0.012223888 -0.056627125
0001b0 b2 56 06 3b 64 d6 68 bd 9e 83 c2 bc 25 bf ed bc
       0.0020498452 -0.056845084 -0.0237444 -0.029021809
0001c0 6a bf 30 3d d3 20 fa 3c e8 6a 8b bc 94 c4 a0 bb
       0.043151297 0.03053323 -0.01701875 -0.0049062464
0001d0 62 51 7d 3c f2 7d 0b bd 2b d1 1f 3c be 90 51 bd
       0.015461298 -0.034055658 0.009754459 -0.051163428
0001e0 2d 80 03 3d e9 70 18 bd 6d 26 54 3d a8 d1 19 3d
       0.03210466 -0.037217055 0.05179446 0.03755346
0001f0 9f f1 61 3d f9 60 4e 3d d5 df b3 3b fc 1b 78 bd
       0.05516207 0.05038545 0.0054893293 -0.060573563
000200 35 37 9c 3b 70 11 45 bd 94 0e f5 bc c7 84 87 3b
       0.0047673234 -0.048112333 -0.029914178 0.0041357013
000210 50 9a 34 3d cc 46 18 3d 6c bd 2f bd 8a 31 b6 3c
       0.044092476 0.037176892 -0.042905256 0.022240419
000220 ca f7 ba bc 29 93 fa 3c 31 45 c9 bb 41 b7 5b 3d
       -0.022823233 0.03058775 -0.0061422815 0.05364156
000230 3a 95 46 3d 67 00 e3 bc e4 d1 c7 bb c6 79 9d 3c
       0.048482157 -0.027710153 -0.006098019 0.019223105
000240 30 c9 4f bd 18 de 1f bc 5d df 47 3d 32 ac 21 3d
       -0.050728977 -0.009757541 0.048797 0.03947086
000250 04 89 85 bc a4 47 be bc c8 57 07 3d d4 f9 e8 bc
       -0.016300686 -0.02322752 0.0330427 -0.02843944
000260 f2 7b 54 3d 23 12 9e bb 3e 49 36 bc da 06 b2 bc
       0.051876016 -0.0048239394 -0.011125861 -0.021731783
000270 87 3f 31 3d e8 9b 03 3c 8e 13 6a 3d ea 8f b0 3b
       0.043273475 0.008032776 0.057147555 0.0053882496
000280 f8 a6 d9 3c 3b 20 68 bd 8d 6f d2 bb 1d 7f 38 3c
       0.026568875 -0.056671362 -0.0064219893 0.011260775
000290 ac ea 8d 39 80 03 13 bd 58 40 16 bc 1e 90 2a bd
       0.0002706846 -0.03589201 -0.009170614 -0.041641347
0002a0 d0 a5 15 bd b4 69 c8 bc 6d 9b c8 bc 6b 65 8c 3c
       -0.036535084 -0.024464466 -0.024488175 0.017138204
0002b0 85 55 22 bc 23 43 bf 3b b8 a1 02 bc eb 56 25 3d
       -0.009908085 0.0058368607 -0.007973127 0.040366095
0002c0 5e ad 44 bd cd 85 3d bd 7b b9 03 3c d7 c7 53 bd
       -0.0480169 -0.04627018 0.008039827 -0.051704254
0002d0 78 5d e7 bc 0d 0e 75 3d bc 27 5e 3d ed a4 70 bc
       -0.028242812 0.059827853 0.054237112 -0.014687759
0002e0 cd 32 7a 3c d8 66 29 3d 4e 3d ed 3c 3a 66 1c bd
       0.015270901 0.041357845 0.028959896 -0.03818343
0002f0 84 7e 34 3d 4a 2b f4 3c d3 36 c0 bb e4 9e c7 bc
       0.044065967 0.029805798 -0.0058659106 -0.024367757
000300 1a 7d 64 bd b8 c9 ee 3c b8 f9 42 bc f2 f8 30 bd
       -0.05578337 0.029148921 -0.011900358 -0.043206163
000310 ab b6 d0 bc 2a 17 2c 3b 78 c3 49 ba 5c 42 49 3c
       -0.025477728 0.0026258924 -0.00076966686 0.012283888
000320 a8 61 0f 3b 1e 87 58 bd 9d a3 37 bd 6f 86 b4 3b
       0.0021878276 -0.052863233 -0.04483377 0.00550919
000330 00 65 43 3d 9e 94 20 bd 25 13 c4 3c 96 39 23 3d
       0.047703743 -0.039204232 0.02393491 0.03984984
000340 a8 94 e6 bc 51 49 ae bc 60 1a f4 bc dc 5e 7b bc
       -0.028147057 -0.021275194 -0.029797733 -0.01534244
000350 bb 42 08 3c 3e 23 0b bd 92 ae 06 3d e6 87 5a bd
       0.008316691 -0.033969156 0.032881327 -0.05335226
000360 d5 49 b5 3c b8 7c dd 3a 57 2f e1 3c 2e ee c7 3c
       0.022129932 0.0016898131 0.027488394 0.024405565
000370 3e ae 1d 3d e0 48 83 3d 7c 88 0d 3b c8 0a c1 bc
       0.03849625 0.06410384 0.0021596244 -0.023564711
000380 35 02 5b 3c b9 5e 62 3d ec f3 ac bc dc 9e 53 bd
       0.013367225 0.055266116 -0.021112405 -0.051665172
000390 b1 15 a8 bb 88 bf 52 3c 13 90 4e bd f2 f2 14 bc
       -0.005129539 0.012863047 -0.05043037 -0.009091126
0003a0 8b 56 27 3c 49 96 20 bd d7 58 a3 3c 83 23 16 3d
       0.010213505 -0.039205823 0.019939823 0.03665496
0003b0 36 0e b3 3c 88 cc 3e 3d cd e4 fa 3c 7f 39 29 3d
       0.021857362 0.046581775 0.030626679 0.0413146
0003c0 92 6b 83 bd 0e 67 fd bc bc 94 3e bd fc 82 a8 3c
       -0.06417002 -0.03093293 -0.046528563 0.02057027
0003d0 26 19 84 3c e5 7d b5 3c 84 44 73 3d b0 31 35 bd
       0.016125273 0.022154758 0.059391513 -0.04423684
0003e0 56 12 13 bd 96 2e 22 bd d1 7d 27 bc 9d a9 16 bd
       -0.03590616 -0.03959521 -0.010222868 -0.03678285
0003f0 6a 64 0f 3d a8 5e 65 bd 11 eb 84 3d 50 ee 65 bd
       0.03500787 -0.055998474 0.06490148 -0.056135476

fc2.weight f4 [128, 256]
000000 8c ff 43 bb 4f 2b c9 bb 80 5d 05 bb 64 6c e5 bc
       -0.0029906956 -0.006139196 -0.002034992 -0.028005786
000010 6a c4 1c 3d 9e ef 12 bd 9b 76 20 3d 69 53 87 3d
       0.038273253 -0.035873048 0.03917561 0.06607706
000020 f4 fe 56 3d a3 1e 6e 3d 6b 8c 12 3d d5 c9 5c 3c
       0.052489236 0.058134686 0.035778444 0.013475855
000030 d0 c1 6a bc 2f 9b 80 3a f6 36 0c bd 60 db a5 3c
       -0.014328435 0.0009811873 -0.034232102 0.020246208
000040 21 80 b9 3d 7d 2c 24 3d cc 95 09 bd 12 66 81 3d
       0.09057642 0.04008149 -0.033590123 0.063182965
000050 5e 71 36 bd db 28 66 bd 11 47 1a bc ef 94 83 bd
       -0.04454171 -0.056191307 -0.009416358 -0.06424891
000060 b3 98 f8 bc 2e c9 a8 3c 4c 54 eb 3c 84 55 3c 3d
       -0.03034625 0.020603742 0.02872672 0.04597999
000070 ee 58 16 3b eb e2 28 3c bc c7 20 bd d2 ff 99 3c
       0.002294119 0.010308008 -0.03925298 0.018798742
000080 78 c1 ca 3c 57 ca 0c bd b0 cd 59 3d 1f bf 29 bb
       0.024750456 -0.034372654 0.053174675 -0.002590127
000090 90 c7 89 3d f8 77 0a bd c5 ca 2b 3d 08 c9 29 bd
       0.06727517 -0.033805817 0.041941423 -0.041451484
0000a0 0a a1 d0 3c 62 23 68 bd 6f 80 86 bd 45 0a 39 bd
       0.025467414 -0.05667437 -0.065674655 -0.04517581
0000b0 a9 d3 07 3c 28 bb 61 3b 87 6c 9a bc d3 ed 2d bd
       0.00829021 0.003444383 -0.018850578 -0.042463135
0000c0 7f e3 f6 3c cc 52 04 bd 00 c0 41 3a a4 5c e1 3c
       0.030137775 -0.032305524 0.0007390976 0.027509995
0000d0 33 96 92 3c 3d 19 57 3d 59 23 f3 3c 0e ab 12 3d
       0.017893886 0.052514303 0.029679941 0.03580766
0000e0 34 38 2d bd 76 4e 52 bd 67 3b 0d 3c 1b ed 53 bd
       -0.042289928 -0.051344357 0.00862012 -0.051739793
0000f0 d0 c4 19 3d 66 57 7d 3d 0f f8 a7 bc aa b2 25 3d
       0.03754121 0.061850928 -0.020504026 0.04045359
000100 89 50 f4 bb 17 c5 07 bd de 6c 99 3b aa 41 68 bd
       -0.0074558896 -0.033146944 0.0046821674 -0.056703247
000110 10 13 5d 3d 0d 4e 0c bd 14 ed 82 3d 11 57 01 bd
       0.053973258 -0.034254123 0.06392875 -0.031577174
000120 54 ed 8e bc a2 34 55 bd 82 83 64 3d 57 58 32 3c
       -0.017447151 -0.052052148 0.055789478 0.01088532
000130 ec ac 29 bd 4c de 80 3c 46 65 07 3d 53 b4 77 3d
       -0.041424677 0.015731 0.033055566 0.060474705
000140 84 3e 5f 3d 2b ae 18 bd f4 01 95 bc 49 af 8b ba
       0.05450298 -0.037275475 -0.018189408 -0.0010657097
000150 64 b7 23 ba 29 8d 4b bd 81 8a 19 bc b5 14 05 3d
       -0.0006245284 -0.049695168 -0.009371401 0.03249045
000160 7c 9b 7a 3d 44 83 08 3d 12 e0 8c 3d 30 ba 44 3d
       0.061183438 0.03332831 0.068786755 0.048029125
000170 4a 29 7f 3c 14 e6 e3 bb 9a 68 fa bc e2 0b 08 bd
       0.015573809 -0.0069549177 -0.030567456 -0.033214457
000180 9f 31 bb 3c 13 ee 0b bd f7 94 9c 3c 37 dd 59 3d
       0.02285081 -0.034162592 0.019114 0.053189483
000190 9f c8 1f bd 97 f3 80 3d 94 57 53 bd 3a dd a7 3c
       -0.039009687 0.06296461 -0.051597193 0.020491231
0001a0 cb 9e 28 3d ab 50 13 bc 07 1d 55 3d b0 f8 67 bd
       0.04116706 -0.008991401 0.052029636 -0.05663365
0001b0 59 6f 41 3d e6 d0 3f 3d 89 0f db bb ec b9 7c bd
       0.04722533 0.04683008 -0.0066852015 -0.061700746
0001c0 53 ae 0a bd f2 9f 60 bc d7 24 11 bd 6b f3 28 bd
       -0.033857655 -0.013710009 -0.035435524 -0.041247766
0001d0 5b 97 37 3d af 87 6c 3c 0b 0e 31 3d ae 29 57 bd
       0.04482208 0.014436646 0.043226283 -0.052529983
0001e0 5b 35 f2 3c 3f 8c 97 3d 8d 1f 1b 3d d9 91 f4 bc
       0.029566457 0.07399797 0.037871886 -0.029854702
0001f0 9c 5b 0c bd e4 32 1e 3d 89 fc 67 3d c0 d0 33 bd
       -0.034267053 0.03862275 0.05663732 -0.04390025
000200 15 5e 06 3d 6a 17 74 3d aa 78 0e bd 49 4c 5a bc
       0.032804567 0.059592642 -0.034783043 -0.013323852
000210 d4 d7 30 bd 8c 9a 11 3d da a0 0c bc 33 2e 5e bd
       -0.04317458 0.035547778 -0.008583272 -0.054243278
000220 50 5a f0 3a 42 84 89 3d 50 f3 29 bd 15 a0 40 3d
       0.0018337462 0.06714679 -0.041491807 0.047027666
000230 10 de 6e bc 57 1c 84 3d bb 30 c5 bb 6e eb 7c 3d
       -0.014579311 0.06450718 -0.006017772 0.06174796
000240 74 6d 21 3d a2 32 9b 3c f0 2a 5d 3d b4 a2 d6 bc
       0.039411023 0.018945042 0.053996027 -0.02620063
000250 f7 ad 33 3d 8a 37 34 3d 4f b6 5b 3c f9 3f 17 3d
       0.043867078 0.04399828 0.013410165 0.036926243
000260 f8 21 4d 3d 93 a4 9d 3c 2c c0 67 bc d9 0f 43 bd
       0.050081223 0.019243514 -0.014144938 -0.047622535
000270 99 30 72 3d 27 0a 02 bd 89 d7 07 3b 44 56 ee 3b
       0.059128378 -0.031747963 0.0020727834 0.0072734673
000280 c5 32 7e bc 86 8a 39 bc dd ea 49 3c cc 58 06 bd
       -0.015515034 -0.0113245305 0.012324062 -0.032799527
000290 c0 fa 78 3c 28 9f cc 3c d9 41 84 3b 20 c2 cd 3c
       0.015196502 0.024978235 0.00403617 0.02511698
0002a0 b5 d9 9b 3d 30 d0 0d 3d d3 e8 cb 3c eb e4 82 3d
       0.07609884 0.03462237 0.024891293 0.06391319
0002b0 b9 c2 52 3d a6 34 90 3d 8c 76 89 bc 1e 8b 93 bc
       0.051455233 0.07041292 -0.01678016 -0.018010672
0002c0 71 d2 bf bc 79 2b 81 bc 05 df 22 bb a1 6c 64 3c
       -0.023415776 -0.0157678 -0.0024852168 0.013941915
0002d0 f0 bb ce bb 38 1e 7c 3d 70 cc 6f 3d 3c e8 e0 bc
       -0.006309025 0.061552256 0.058544576 -0.027454488
0002e0 80 03 45 bd 80 0c a1 3b e4 ba 20 3d 3e 47 3d 3d
       -0.04809904 0.00491482 0.039240733 0.04621052
0002f0 b9 44 0c bd e0 1e 28 3d 28 3b a2 bc f7 0a bc 3c
       -0.034245227 0.04104507 -0.019803599 0.022954447
000300 c6 70 61 3d f8 3a 96 3c 50 4f 45 3d 8c 38 39 bd
       0.05503919 0.018338665 0.04817134 -0.045219943
000310 b0 5f 3a 3d 39 5c e8 3c 5f 34 01 3d ad 01 ec bc
       0.04550141 0.028364288 0.031544086 -0.028809393
000320 48 31 98 3c d2 90 29 3d 5f 30 63 3d 0b 08 95 bd
       0.018578187 0.041397877 0.055466052 -0.07276925
000330 70 56 da 3c 5e 2a 0c 3c f5 0d d8 bc 49 68 62 bd
       0.026652545 0.008555023 -0.026373843 -0.055275235
000340 78 91 a7 bc ad e6 e1 bc c0 5d c0 3b 8e f2 b2 bc
       -0.020455107 -0.027575815 0.005870551 -0.021844175
000350 b7 6c 11 3d a8 42 a7 3c 34 05 be 3c 07 02 d9 3c
       0.03550407 0.020417526 0.02319584 0.026490225
000360 55 2c ec bc 28 ee 5e bc 2b d7 59 bb c8 2b 08 3d
       -0.028829733 -0.013606586 -0.0033239822 0.033244878
000370 e7 b9 35 3d e1 a6 19 3d 6a c1 0e bd 10 06 53 3c
       0.044366743 0.037512664 -0.034852423 0.012879863
000380 5d 44 19 bd 8c 47 25 3d 23 02 5f 3d 64 55 79 bc
       -0.037418712 0.040351436 0.054445397 -0.015218113
000390 b2 51 d4 3b b4 36 af bc 0c 15 2b 3d 71 58 57 bd
       0.0064794654 -0.02138839 0.04176812 -0.05257458
0003a0 1f 4f 73 bd 97 3d 79 3d 25 5e 1f 3d 35 93 ad 3c
       -0.059401628 0.060849752 0.038908143 0.021188358
0003b0 52 7b 78 3c 34 9d 5e 3c 72 bc 81 3d a4 0f 29 bd
       0.015166121 0.013587285 0.06334771 -0.04127468
0003c0 cb e4 cf 3c 50 ee 5e bd 14 73 84 3d f3 6c b1 3c
       0.025377652 -0.05442649 0.06467262 0.021658396
0003d0 70 dd 4c 3c a2 2a a1 bc 3b b1 84 bd 1c 7e 0f 3d
       0.012503967 -0.01967365 -0.064791165 0.035032377
0003e0 9c 2b da bc c0 e1 27 3d d8 f4 e7 3b 96 3f 4b ba
       -0.026632123 0.040986776 0.007078748 -0.00077533105
0003f0 f7 1b 42 3d c9 e3 26 3d 41 62 0c bd 28 e1 80 bd
       0.04738995 0.040744577 -0.03427339 -0.06292945

fc2.bias f4 [128]
000000 4f e1 6d 3d a3 b4 b9 bc 00 76 9d bc 6b 94 ea 3b
       0.0580762 -0.022669142 -0.019221306 0.007158806
000010 2a be 63 bd 5e f4 0e bb 68 c3 70 3c c2 5b 62 bd
       -0.055601276 -0.0021813135 0.014695026 -0.05526329
000020 60 68 7c 3d 2f f2 7e 3d 69 f8 33 bd d1 af 5a 3c
       0.061622977 0.062242683 -0.043938074 0.013347582
000030 e4 ed 34 3d 28 55 0b bc 4c 34 e7 bc c6 c8 50 3d
       0.044172183 -0.00850419 -0.02822318 0.050972722
000040 69 32 38 3d 4d ae e5 3b a4 f2 3c bd 8c 93 c6 3c
       0.04496995 0.0070093037 -0.046129838 0.024240278
000050 d5 c9 34 3d ca 11 8c bc e5 f0 da bb 62 29 57 bd
       0.044137795 -0.017098326 -0.006681549 -0.0525297
000060 5d 6b ac 3c d0 78 12 3d 9c c7 66 3d aa ee 77 bd
       0.021047289 0.035759747 0.056342706 -0.060530342
000070 d9 c5 30 3d 3a 8d 5e 3b a9 83 3d 3c a9 ee 65 3d
       0.043157432 0.003395869 0.011567035 0.056135807
000080 5b df 5e bc d6 a7 2d bc 3d 30 a4 3c f3 b9 7e bc
       -0.013603057 -0.010599097 0.020042533 -0.015547263
000090 7a 75 2d 3d 99 98 f9 bc de 2e 1f bc 05 49 cd 3c
       0.042348363 -0.030468272 -0.009715764 0.025059232
0000a0 bc 4b 5f 3c 2a 60 d7 bc d8 0e 68 bc 8b 96 05 bc
       0.013628896 -0.026290972 -0.014163695 -0.008153568
0000b0 e8 f0 64 bd 32 fe d5 3c c2 01 64 3c 7e 5d ee 3c
       -0.05589381 0.026122186 0.013916435 0.029097315
0000c0 ac 66 00 bd 25 b0 71 3d d4 84 56 3d f9 3f c7 b8
       -0.031347916 0.059005875 0.05237277 -9.500975e-05
0000d0 e2 64 04 3d 74 0d 9a 3a d4 36 0a bd 30 c3 8a 3b
       0.03232277 0.0011753277 -0.033743694 0.004234694
0000e0 58 1a 15 bd 89 02 26 3d c1 4f 9d 3c 8d 46 ef bc
       -0.036402076 0.04052976 0.019203069 -0.029208446
0000f0 86 e3 00 bd dc 54 4d 3d 3f a0 2e 3d e4 02 40 3d
       -0.031466983 0.050129756 0.04263329 0.046877757
000100 84 d2 25 3d 58 ab 5b 3d 13 5c 28 bc 0e f6 52 bc
       0.040483966 0.053630203 -0.010275858 -0.012876047
000110 fd b4 0a bd c3 22 81 3d 7a 76 1e bd 4b a8 7d bd
       -0.03386401 0.063054584 -0.038687207 -0.061928075
000120 74 66 9b bc f7 14 35 ba 8e 30 54 bd ad a3 b3 3c
       -0.018969752 -0.0006907726 -0.051804118 0.021928633
000130 60 c4 b3 bc 09 45 2f 3d f3 17 a4 bc 4b cc 4e bd
       -0.021944225 0.042790446 -0.020030951 -0.050487798
000140 58 54 75 3c f8 f6 99 b9 d8 48 00 bd b0 bc 2b 3d
       0.014973722 -0.0002936644 -0.03131947 0.041927993
000150 60 8e 93 3c a6 5f 39 bb 92 bd 7a bd 39 69 23 bd
       0.018012226 -0.002828577 -0.061215945 -0.03989527
000160 fe b7 ae bc d9 89 1f bd 44 28 2c 3d 63 32 28 3d
       -0.021327969 -0.03894982 0.042030588 0.041063678
000170 66 0e 39 bd a4 51 df bc c8 b3 05 3d c3 c7 e0 bb
       -0.045179747 -0.027260609 0.032642156 -0.006859751
000180 22 db 20 bd bb 59 44 bc 1b e2 58 3d e0 2e 67 3c
       -0.03927148 -0.011984284 0.052950006 0.014110297
000190 28 3a 61 bc 4c 4e 8e bc 53 94 e2 bc bc b5 21 bd
       -0.013746776 -0.01737132 -0.027658617 -0.039479956
0001a0 d4 8a c5 bb 10 0f 32 bc 18 d4 17 3d 0e bb 77 bd
       -0.0060285125 -0.010867849 0.037067503 -0.060481124
0001b0 ff cb 52 3c 2f 73 bb 3c 06 cd 1a 3d 14 4f 51 bd
       0.012866019 0.022882072 0.03779318 -0.051100805
0001c0 ae fe 27 3d 66 70 6f bd 64 93 40 bc 3a 8d 71 3d
       0.041014366 -0.0584568 -0.011753891 0.058972575
0001d0 80 55 53 bb 65 0e 35 3d 68 5f da 3c 00 7a b8 bb
       -0.0032247007 0.04420318 0.026656821 -0.005629778
0001e0 83 d6 83 3d 35 d3 8a bc 04 ef 9c bc 40 c5 78 bd
       0.06437399 -0.016946414 -0.01915694 -0.060734987
0001f0 0e 8a f0 3c 4b 3b 69 bd 25 b5 e1 bc e4 54 61 bd
       0.029362705 -0.05694131 -0.027552197 -0.0550126

actor.weight f4 [4, 128]
000000 6f b5 d8 3a 12 c1 b3 bd 55 3b 35 bd 29 ae 5f bd
       0.0016533564 -0.087770596 -0.044246037 -0.05460945
000010 3f f4 cf bd f9 e1 2e 3d ee 0f f1 3a 6c 6c df 3c
       -0.10154008 0.042695973 0.0018391588 0.02727338
000020 fe 6a 3e 3d 11 fe 94 3d be af c5 bb b2 f9 36 bd
       0.046488754 0.07275022 -0.006032913 -0.04467172
000030 26 6e 28 bd 42 14 b8 bd 62 e1 b1 bd 9c 40 44 3d
       -0.04112067 -0.08988239 -0.086855665 0.04791318
000040 de 09 9b 3d 18 d3 df 3b cd 6a 49 bd 4f 0e 84 bd
       0.075702414 0.0068305843 -0.04917412 -0.06448042
000050 c8 06 34 bc 48 da 5f bd 74 a3 72 3c f8 e2 90 bd
       -0.010987945 -0.05465153 0.014809478 -0.07074541
000060 cc 69 a8 3d fd c7 82 bd 16 a6 63 3d b9 cf b2 bc
       0.08223304 -0.06385801 0.055578314 -0.021827566
000070 66 f4 c3 bc 3e 9d a4 bd ae b1 50 3d ef 64 75 3d
       -0.02392025 -0.08037804 0.0509507 0.05991071
000080 16 11 23 bd ca 3c 47 bb a9 3b a5 bd 72 bf c3 bc
       -0.039811216 -0.0030401223 -0.0806802 -0.023895
000090 1f 3b d1 bc 72 1f 9b 3c 03 4a 53 bd e9 72 6a 3b
       -0.025540886 0.018935893 -0.051584255 0.0035774058
0000a0 de 52 a1 bd 46 82 7f bd ef d6 0a bd 90 df b7 3d
       -0.07877134 -0.062380098 -0.033896383 0.08978188
0000b0 e9 ac b9 bc a5 1e 63 bc 63 59 3c 3c 4a ee a5 bd
       -0.022665458 -0.013862287 0.011495921 -0.08102091
0000c0 5a c2 6c bc 33 1f 21 3d 63 19 00 3c e4 19 39 bd
       -0.014450634 0.039336395 0.007818553 -0.045190707
0000d0 80 a6 8a bd 1f c8 8d 3d aa 18 8f bd 6f 7a 4b bc
       -0.067700386 0.06922936 -0.06987126 -0.012419327
0000e0 ee b4 5f 3b bd e7 5c 3d af 96 79 bd c9 31 ad 3d
       0.0034134942 0.05393194 -0.06093472 0.084567614
0000f0 c0 aa 64 bd 9d cf fe 3c ed 23 ad bd 9f 37 9a 3d
       -0.055826902 0.031104857 -0.08454118 0.0753014
000100 40 45 3c bb 9c b1 8b 3d 50 14 17 bd 0c 45 a8 bd
       -0.00287278 0.06820986 -0.036884606 -0.08216295
000110 27 71 98 bd f3 fe 7e 3d 72 4c 56 3d bd 84 ae 3d
       -0.07443457 0.062254857 0.052318998 0.085214116
000120 76 ff 99 bc 18 7a 58 bd 40 d3 ad 3d 24 de 53 bd
       -0.018798571 -0.052850813 0.08487558 -0.05172552
000130 d8 ac b8 3d 90 ba 99 bd 65 1f 3f 3d 47 09 a8 bd
       0.09017342 -0.07506287 0.0466608 -0.082048945
000140 37 2a 19 3c 8f 27 d4 bc b9 c0 80 bb 88 8f b9 3d
       0.009348444 -0.02589777 -0.0039292243 0.090605795
000150 d4 d8 67 bd 35 1d 8a bd c8 75 8e bd 3f 96 8a bd
       -0.056603268 -0.06743852 -0.06956059 -0.067669384
000160 0e 3f 6f bd 9d 9d e1 3c a3 1a c1 3d c1 37 8c bc
       -0.058409743 0.027540976 0.09428909 -0.01711643
000170 69 12 49 3d 9b 53 41 bd 5f 90 25 bd 0f 38 ab 3d
       0.049089823 -0.047198873 -0.040420886 0.08360302
000180 9b b7 d2 3c 28 d8 10 bd 5f 7f 84 3d ed e0 87 3c
       0.025722316 -0.035362393 0.064696066 0.016586745
000190 87 0c d0 3c 4b 6c 73 3d 53 d4 a8 bd 38 e2 13 3d
       0.025396599 0.059429448 -0.08243623 0.03610441
0001a0 89 1d 8b 3c cb 4d 7d bd 69 03 8b bd 7f 5c 2d 3c
       0.016981857 -0.061841767 -0.0678776 0.010581135
0001b0 00 43 0e 3d a8 d3 d6 3c 2a 6b 10 bd 96 42 b8 3c
       0.034731865 0.026223972 -0.03525845 0.022492688
0001c0 4e 7f b8 3d 94 1d a6 bb 93 06 41 bd 3f a9 a8 3c
       0.090086564 -0.005069444 -0.04712541 0.020588515
0001d0 d7 c5 90 bd eb 53 c3 39 aa 02 67 bd 15 a4 78 bd
       -0.07068985 0.00037255822 -0.056399025 -0.060703356
0001e0 b5 eb 5c bb be 96 5c 3d 44 f0 ac 3d 66 ab 50 3d
       -0.0033709828 0.053854696 0.084442645 0.05094471
0001f0 78 65 8d bd f1 e8 8e bd 21 20 42 3d cc ef 57 bd
       -0.06904119 -0.06978024 0.04739392 -0.052718922
000200 72 74 4f 3d ee 49 34 3d 10 58 90 3d 10 ec 29 bd
       0.05064816 0.044015817 0.070480466 -0.041484892
000210 9f af c2 3d dc ae 1e bd a3 ac 3d bd 2c 58 d8 3c
       0.09506153 -0.038740978 -0.046307217 0.026409231
000220 30 9f 1e 3d 06 d8 49 3c a7 a3 89 3c 17 99 6d bd
       0.03872603 0.01231957 0.016801668 -0.058007326
000230 ab 52 81 3d 85 2b 94 3d 3f 90 d7 bc 0b fe 56 3c
       0.06314596 0.07234863 -0.0263139 0.013122092
000240 f1 1f f8 3c 73 7e 9c bd 8f f9 73 3d 11 53 95 3c
       0.030288668 -0.07641306 0.05956417 0.018228086
000250 ce 65 a5 bd ce d5 a4 3d d6 f1 93 bb c1 3b 9e bd
       -0.08076058 0.080485925 -0.004514913 -0.07726241
000260 55 ec 48 3d f4 c4 12 3d 36 43 b0 bd d7 1a 5d bc
       0.04905351 0.03583236 -0.086065695 -0.013495169
000270 82 e2 95 bd 43 b6 ae 3c 65 0c 8a bd f9 fe bf ba
       -0.073185936 0.021327144 -0.06740645 -0.0014648131
000280 3d 45 a7 3d 26 fa 19 bd 6a b0 13 bd 13 c1 67 3d
       0.08167503 -0.037592076 -0.036056913 0.056580614
000290 f2 0e 3e 3c b8 f9 61 3d 5e a4 1a bd 8c 4e 1d bd
       0.011600243 0.05516979 -0.03775441 -0.038404986
0002a0 43 05 90 3d 20 d1 b8 bd d0 dc ad bd 3b 7b 85 bd
       0.070322536 -0.090242624 -0.08489382 -0.06517645
0002b0 86 57 85 bd 24 8c a4 3d d8 01 b2 bd af 08 b2 3d
       -0.065108344 0.08034542 -0.08691758 0.086930625
0002c0 3e 01 e2 3c 33 47 ea 3b fc 87 91 bd f8 13 96 bc
       0.027588483 0.007149601 -0.07106015 -0.018320069
0002d0 ff da 13 3c 62 2d 8f bc ba 8b 02 bd f7 d1 97 3d
       0.009024381 -0.017477695 -0.031871535 0.074130945
0002e0 ef 72 92 3c b8 21 e6 b9 7a 98 98 bd e7 b3 46 bd
       0.01787707 -0.0004389414 -0.074509576 -0.048511412
0002f0 ac 06 42 3c ad 24 6c bd 0c 1a ad bd 5d 14 91 3d
       0.011842411 -0.057652164 -0.08452234 0.07083962
000300 ab 67 8c bd a3 46 47 3d 3a e0 8b bd cb bc 90 bd
       -0.068557106 0.04865135 -0.06829877 -0.070672594
000310 36 4e 32 3d 05 8c 24 3d fe c3 f0 bc fc 27 18 3c
       0.04353162 0.040172596 -0.029390331 0.009286877
000320 c5 38 b0 bd c3 f4 49 ba 4f b4 3a 3d d3 bc 66 3d
       -0.08604578 -0.0007704014 0.045582112 0.05633242
000330 0e a3 cc 3c af 5a 01 bd 0e bf df ba 37 36 cd 3c
       0.024980094 -0.031580623 -0.0017070489 0.025050266
000340 3c 04 74 bd 04 0d 97 3d c9 71 8f bd 9c 1a b2 bd
       -0.05957435 0.073755294 -0.07004125 -0.086964816
000350 1d 55 ba bd 56 6b a4 bd 5c 8c 90 bd 87 c6 e8 3a
       -0.09098265 -0.08028285 -0.070580214 0.0017759361
000360 f3 f2 56 bd cc 18 43 3b 41 ae a0 ba e9 2b 52 bd
       -0.05247779 0.0029769419 -0.0012258963 -0.051311407
000370 8b 8a 5c 3c fc 5a 84 bd 4f fa 0b bd c6 6f 4e 3d
       0.013460766 -0.064626664 -0.03417426 0.050399564
000380 0f b2 a3 bc 16 4d 89 3d 4b e9 55 3d 4e 13 c7 bb
       -0.019982366 0.06704156 0.05222444 -0.0060752993
000390 7d 4a b4 3d 09 19 37 3d 7c 04 1c 3d 15 e7 2e bd
       0.0880327 0.04470161 0.038090214 -0.042700846
0003a0 85 c4 06 3d 1e 7a 47 bd e0 01 06 3d 95 79 0e 3d
       0.03290226 -0.048700444 0.032716632 0.03478392
0003b0 27 89 ac 3c 35 04 d1 3c d0 3e 68 3d c0 02 a3 bd
       0.021061493 0.025514701 0.056700528 -0.07959509
0003c0 d8 1e 90 3c 6a e7 04 3d b8 9a ec 3b 53 87 64 3d
       0.017592832 0.032447256 0.0072205923 0.055793118
0003d0 05 de 05 bd f6 ba 89 3d b2 b6 d3 3c e7 ed 1f 3d
       -0.032682437 0.06725113 0.025843952 0.03904524
0003e0 f5 8a 7b 3d 46 1f 23 3d 4c dd 21 bd c6 72 96 3d
       0.061411817 0.039824747 -0.039517686 0.0734611
0003f0 0c 9e 4b bc b0 a4 80 bc 7e 1d 8d 3c fe 43 a6 3d
       -0.012427818 -0.01570353 0.017225977 0.08118437

actor.bias f4 [4]
000000 fc a5 cf 3c 4e 75 9f 3d dc da f0 bc a2 eb 08 3d
       0.025347702 0.07786046 -0.029401235 0.033427842

critic.weight f4 [1, 128]
000000 65 c6 51 3d 6c cf 2e bd 1b 9c 50 bc 0d 4b a7 3d
       0.051214594 -0.04267828 -0.012732531 0.08168612
000010 9b 08 ce 3d 15 1c c7 bc c4 cf bd 3d b2 5c b5 3d
       0.10060235 -0.024305383 0.09268144 0.08855571
000020 89 d6 07 3d 23 3d 61 3d 05 c1 04 3d 33 26 cd bb
       0.03316358 0.054989945 0.03241064 -0.006260657
000030 14 e5 74 3d 6d 22 8c bd f6 14 d8 3a 24 25 92 3d
       0.05978878 -0.06842504 0.0016485739 0.0713599
000040 25 b6 a4 bb 58 63 fc bc 9e e2 91 bc 32 7f 89 bd
       -0.005026596 -0.03080909 -0.017808255 -0.06713714
000050 fe 4b 42 3d d2 52 3c bd cf 46 53 bd 1a 02 04 bd
       0.047435753 -0.04597742 -0.0515812 -0.032228567
000060 55 a1 06 3d 12 3b 6f 3d 95 06 48 bd 32 a5 8e bd
       0.032868702 0.058405943 -0.048834402 -0.06965102
000070 11 e6 62 3a 5f 70 d1 3c 3c b4 0d bd cd c4 7f bd
       0.00086554984 0.025566278 -0.034595713 -0.062443543
000080 12 df be 3d fa c9 89 bb d3 e2 b9 3d 91 dd f2 bb
       0.09319891 -0.0042049857 0.090764664 -0.0074116667
000090 17 41 90 bd ef 13 89 bd 0a 33 c6 3d 95 b1 a7 3d
       -0.07043665 -0.06693255 0.09677704 0.08188168
0000a0 fd 69 65 3d 1c 6e 2d bd 6f 75 48 3d 0e cb 2f bd
       0.05600928 -0.042341337 0.04894012 -0.042918257
0000b0 10 78 07 3d 84 95 9f bd e1 fe b1 bc 55 e0 85 3d
       0.033073485 -0.0779219 -0.021727981 0.065369286
0000c0 46 a3 ac bd 71 ed 9b 3d b4 31 0e bd 8b 07 76 bd
       -0.084295794 0.07613648 -0.03471537 -0.060065787
0000d0 8f 09 b4 3c 2b e8 90 bd e2 0d 8c bb fd 5c 8a 3c
       0.021977214 -0.070755325 -0.004274116 0.016890043
0000e0 18 d6 97 bd 3c c6 e5 3b 03 01 59 bd f0 22 26 3d
       -0.07413882 0.007012157 -0.05297948 0.040560663
0000f0 50 06 b6 bc 1e ed 47 3d 2f 29 60 bd 4a 04 1a 3d
       -0.022219807 0.048810117 -0.054726776 0.037601747
000100 49 6a 96 bc eb 32 60 3d 04 30 2a 3d 29 ca b6 3d
       -0.018361228 0.05473606 0.041549698 0.08925278
000110 6c c5 22 3c ac ac 33 3d 07 e8 f7 bb 8c 6b 83 bc
       0.009934764 0.043865845 -0.0075655016 -0.016042493
000120 62 fe 48 3d 2a f7 b2 bb 69 17 8f bd 73 94 1a bd
       0.049070723 -0.005461593 -0.06986887 -0.03773923
000130 8e 3c 6e 3d 1c ca 6e 3d 9f 20 05 3c 6a c4 ec 3c
       0.05816322 0.058298215 0.008125453 0.028902251
000140 86 da a3 3b 16 86 3b 3d e0 9b b1 3d d8 e9 0e bd
       0.0050004153 0.04578217 0.08672309 -0.03489098
000150 00 34 9f 3d 90 d9 89 bd 2c c9 8e 3d f5 58 94 3d
       0.0777359 -0.0673095 0.06971964 0.0724353
000160 2d 23 a9 bd 21 92 10 bd 4c 7c f6 3b 84 3e e5 3b
       -0.082586624 -0.03529561 0.0075221416 0.006995978
000170 ae ff 9d 3c 4e c1 97 bd 56 0f 25 3d ad b6 1c bd
       0.019286957 -0.07409917 0.04029783 -0.03826015
000180 3a 57 e0 3c 45 c3 6c bd 50 49 8d bd 0e ab 2c bc
       0.027385343 -0.05780341 -0.06898749 -0.0105388295
000190 a0 8c 45 3b 64 f3 ab 3c ad 79 2c 3d 4e 24 63 3c
       0.0030143633 0.020990081 0.042108227 0.013863636
0001a0 3a fc c9 3c ec 45 9b 3d ba 8c 4e 3d 18 dc 85 3c
       0.024656404 0.07581696 0.050427176 0.0163403
0001b0 78 99 4d 3d d8 ae 56 bd cc a2 4e bb b6 85 7e 3d
       0.050195187 -0.052412838 -0.003153014 0.062139235
0001c0 9c a6 8a bc 2e 97 8a 3d d6 30 a1 bd d3 4e d0 3d
       -0.016925149 0.067671165 -0.07870643 0.101712845
0001d0 a6 de 72 bd 78 b1 66 bc 3c c5 2d 3d 5c 99 5a 3d
       -0.059294365 -0.014080398 0.042424425 0.05336891
0001e0 9d 86 05 3d 4a 86 bf 3c de 38 e1 bc e0 9e 18 bb
       0.03259908 0.023379464 -0.027492937 -0.0023288056
0001f0 7f 8e 6f 3d dd d8 4f 3d 9a 01 a3 bd 7f 6c d7 3b
       0.058485504 0.050743926 -0.0795929 0.006574213
