checkpoints/only/seed2/final.pt (torch, 400887 bytes, 7 tensors)

fc1.weight f4 [256, 256]
000000 cd b8 19 bd 35 62 82 3c 60 02 61 3d 1d de 38 bb
       -0.037529755 0.01591597 0.054933906 -0.0028208562
000010 72 ae 3b bd dd bf bf bc f1 e6 4b bc 38 31 3a bd
       -0.04582066 -0.023406917 -0.012445197 -0.045457095
000020 20 5f 56 bc 07 a4 d1 3c cf 2d 73 3d 73 e7 35 bb
       -0.013084203 0.02559091 0.05936986 -0.0027756363
000030 23 2f 85 bd 06 65 0b bd eb ff 6b 3d 98 e3 a4 3a
       -0.06503131 -0.03403189 0.05761711 0.0012580035
000040 68 7f 2f 3b 3a f8 8e 3d 05 50 97 bc f9 b7 03 3d
       0.002677882 0.06980939 -0.018470773 0.032157872
000050 c3 63 8b 3c d8 6a 54 3d b4 fc 7c 3a 7a 73 b2 3c
       0.017015344 0.051859707 0.0009650693 0.02178358
000060 5c 8a 6d bd 9d f5 56 bd c1 ce d8 3c ca 9f 51 3d
       -0.057993278 -0.05248033 0.026465775 0.051177777
000070 5b f4 83 bd 08 b0 8b bd 22 62 a9 3c b8 62 2d bd
       -0.064430915 -0.06820685 0.020676676 -0.042330474
000080 83 a3 71 3d 48 7c 5b 3d fd 89 c3 3b 34 68 6e bb
       0.058993828 0.05358532 0.005967377 -0.0036378028
000090 d9 03 a8 bc 2f 61 f1 3c f0 48 58 bd 83 e4 2e 3d
       -0.020509647 0.029465286 -0.052803934 0.042698395
0000a0 c8 1d 25 38 47 88 aa bb 7e d2 46 bc e9 6f 09 3d
       3.93668e-05 -0.005204234 -0.012135146 0.03355399
0000b0 d5 47 6c bd 8e 6e 43 bd 35 5b 6f 3d 08 b8 46 bd
       -0.057685692 -0.047712855 0.05843659 -0.04851535
0000c0 37 e3 fa bc 68 c7 bf 3c 31 db a1 3b c0 4c 37 bd
       -0.030625923 0.023410514 0.0049394597 -0.04475093
0000d0 40 df 1f bc 1c 76 f2 bc 2e bf 38 bd 30 aa 3d 3c
       -0.009757817 -0.029597335 -0.0451042 0.01157622
0000e0 c9 58 e8 3c db 6a 00 3d 68 d5 51 bd be 0f e5 bb
       0.028362649 0.031351905 -0.05122891 -0.006990402
0000f0 6b 36 9e bc 7a bc 4a bd db e7 34 3d 14 fd 84 3d
       -0.019313058 -0.04949615 0.044166427 0.06493583
000100 fb 29 5e 3d bb 2e 6f 3d 08 84 10 3d 43 0d 47 3d
       0.054239254 0.058394175 0.035282165 0.04859663
000110 b1 a6 2b 3d bc f1 3c 3c 95 21 f1 bc ee 0a 1e 3c
       0.041907016 0.011532243 -0.029434958 0.0096461605
000120 2b bf ae 3c 71 94 8a 3c 5e 35 eb ba 9f 56 67 3d
       0.02133139 0.016916486 -0.0017944982 0.056479093
000130 73 bf 98 bb 44 19 56 3c f3 c0 1e bd c6 b0 89 3d
       -0.0046614944 0.013067547 -0.03875823 0.0672317
000140 95 87 da bb cb d3 07 3d 2b 50 47 3d d1 56 a1 bc
       -0.0066689947 0.033160966 0.04866044 -0.019694718
000150 53 50 6f 3d c2 15 0d bc 47 e1 06 bd 5f bf 14 bd
       0.058426213 -0.0086111445 -0.032929685 -0.03631532
000160 dd 33 a5 3b 63 82 9f 3c 95 eb 37 bd cc 6c ab 3c
       0.005041583 0.019471353 -0.044902403 0.020925902
000170 56 25 91 3c 07 88 39 bb d5 06 19 bd 3b 9f 93 3b
       0.017717998 -0.0028309838 -0.03736003 0.0045050657
000180 4f 9d b0 3c e1 9d 1d 3d ed 1b 4a bd d1 6b 39 3d
       0.021559386 0.038480643 -0.04934304 0.045268837
000190 3b 60 9c 3c 4a fa 85 3d bd 82 a1 3b bd c7 6a 3d
       0.019088855 0.065418795 0.0049289153 0.05731939
0001a0 b9 38 57 bd ab 2d 53 bd 55 d8 4d bd 29 0f 5c 3d
       -0.05254433 -0.051557224 -0.05025514 0.053725395
0001b0 af 7f 55 3d fa a7 4f bc 3e 7c 5d 3c 3b c3 47 3d
       0.05212372 -0.012674326 0.013518391 0.04877017
0001c0 1b c0 51 bd ab 91 1a bd 76 8e 05 3d 03 fd a2 bb
       -0.051208597 -0.037736576 0.032606564 -0.004974009
0001d0 96 41 db ba 03 a1 32 3d 63 b1 51 3d f5 db 9b bc
       -0.001672792 0.043610584 0.05119456 -0.019025782
0001e0 29 b9 c6 bc ef 1e 4b bd 4d 56 43 bd 45 8d d1 bb
       -0.024258213 -0.049590047 -0.047689725 -0.0063950145
0001f0 b2 8a 74 3b 66 b9 6f 3c 31 38 54 3b fb 11 de bc
       0.0037314114 0.014631605 0.0032382126 -0.027108183
000200 d9 28 1a bd eb 97 ae 3c 11 80 c5 bc 5c 1f c8 bc
       -0.03763661 0.021312675 -0.024108918 -0.024429016
000210 e7 a6 0a bc ac 5b 71 bd 82 f7 57 3d b3 04 05 bd
       -0.008462644 -0.058925316 0.052726276 -0.032475185
000220 48 f7 bd bb 66 9d ea 3c f9 9c d1 bb a9 ec 13 3d
       -0.0057973005 0.028639507 -0.0063968864 0.03611437
000230 27 20 16 bd 0b 06 7a 3d 6b 80 34 bc e3 89 7a 3a
       -0.036651757 0.06104092 -0.011016945 0.000955729
000240 44 9f 68 3d 72 ad 6b bd e6 54 49 3d bc ec 27 3d
       0.056792513 -0.057538457 0.04915323 0.040997252
000250 f4 06 56 3d 83 9e 80 3c 3c 9c 1b bc 77 c0 0a 3d
       0.052252725 0.015700584 -0.009497698 0.033874955
000260 56 25 5e bd f0 5f 2b 3d 7f d7 d6 bc 21 a3 d0 3b
       -0.054234825 0.04183954 -0.026225803 0.0063671027
000270 ab fa 37 bc d8 34 13 3d bd ea bb 3c 42 57 35 bc
       -0.0112291975 0.035939068 0.02293908 -0.011068167
000280 81 d6 65 bc 9a 78 b9 3c 35 be 8b bc 20 a0 42 3d
       -0.0140281925 0.022640515 -0.017058471 0.04751599
000290 a5 27 ce 3c bf 99 16 3d 05 bb 84 3d 95 bd cd bc
       0.025165388 0.036767717 0.06480984 -0.025114814
0002a0 6c 40 35 bd 89 51 f8 3c ce e0 01 bd f6 2b d0 3c
       -0.04425089 0.030312316 -0.03170853 0.025411587
0002b0 fe eb 4f 3b 81 e5 63 bc 40 d2 cb bc 16 ec 29 3c
       0.0031726356 -0.013909698 -0.024880528 0.010371229
0002c0 1f 51 16 bd 46 4c b9 39 d7 99 e8 3c f1 9b f7 3c
       -0.036698457 0.00035342778 0.028393669 0.030225726
0002d0 fa b3 4c bc ed f5 6d 3c 58 2e de 3c 8e c2 d7 bb
       -0.012494082 0.014523965 0.027121708 -0.006584472
0002e0 d6 03 21 3d 6d 60 df 3c b6 64 a5 bb 74 1e db 3c
       0.0393103 0.02726766 -0.005047406 0.02674792
0002f0 3d 8a bd 3c 6f fe f4 3b b5 5f 54 bd d2 3e f8 3b
       0.023137206 0.00747662 -0.051849086 0.007575848
000300 69 1c f6 bc e0 af 42 3b ac 2a 2e bd f0 04 b8 bc
       -0.030042844 0.002970688 -0.042521164 -0.022463292
000310 9c 9c ee bc 31 39 86 3d 28 24 72 bd d0 b5 10 bd
       -0.029127412 0.06553877 -0.059116513 -0.03532964
000320 18 80 1a bd 36 ad 4d bd f0 20 df bb 30 b9 1a 3d
       -0.037719816 -0.050214015 -0.0068093464 0.037774265
000330 74 1f 44 3c b0 b8 82 3d 40 95 f0 3c 48 5a 96 3c
       0.01197039 0.063828826 0.029368043 0.018353596
000340 c3 e3 84 3d fc db cf bc 74 f2 97 bc f4 c4 3d bd
       0.064887546 -0.025373451 -0.018548228 -0.046330407
000350 c4 3a 5d 3d 92 90 0f bd 6b 57 5d ba cc 4f 5b 3d
       0.05401112 -0.035049982 -0.0008443507 0.053542897
000360 c8 2f cf 3c 63 58 86 3d 0a 65 70 bd 39 0f 8a 3d
       0.025291339 0.06559827 -0.05869011 0.06741185
000370 dc ec 2c bd 74 ac 2d 3d 80 d6 11 3b 08 bc 39 3d
       -0.042218074 0.042400792 0.0022253096 0.045345336
000380 a0 a0 49 bd ae 2f 5e bd ce a8 5f bd 60 9c 6a bd
       -0.04922545 -0.05424469 -0.054604344 -0.057278037
000390 80 28 24 bd ee b8 19 bd de b2 4f 3d 58 34 75 3d
       -0.040077686 -0.03752988 0.05070769 0.059864372
0003a0 66 6a 64 bd a0 38 ee 3b 69 2e db bc 20 6d 61 bd
       -0.055765532 0.007269934 -0.026755529 -0.05503571
0003b0 5e a9 33 3d 2a 94 22 bd 80 31 c6 3c a0 b1 18 3b
       0.043862693 -0.03969208 0.024193525 0.0023299232
0003c0 98 68 e2 3c 47 3e e8 bb 78 b2 bb bc 7c 2b 7a 3d
       0.027637765 -0.007087502 -0.022912249 0.061076626
0003d0 dc 80 7e bd 26 90 07 bd 34 70 aa bc 40 f2 7b bc
       -0.06213461 -0.033096455 -0.020805456 -0.015377581
0003e0 c0 00 70 3b 80 95 cb 3c b2 2e 64 bd 47 31 9f 3b
       0.003662154 0.02485156 -0.055708595 0.0048581692
0003f0 78 59 28 3c d8 5c 82 bc 80 91 89 bc ae a4 09 bd
       0.010275237 -0.015913412 -0.016793013 -0.033604316

fc1.bias f4 [256]
000000 aa 11 44 bd 8c 46 14 3d 68 95 4e 3d c5 1b e3 bc
       -0.04786841 0.03620009 0.050435454 -0.027723202
000010 38 82 70 bd 0c e8 93 bb 26 b0 4c bd 94 d0 35 bd
       -0.058717936 -0.004513746 -0.049972676 -0.04438837
000020 cd de 46 bd 24 15 63 3d c0 5a 58 3d c3 e7 7c 3b
       -0.048552323 0.055440083 0.05282092 0.003859029
000030 f7 36 68 3d 87 66 b5 bc 40 29 1a bd c0 ae 89 3d
       0.056693044 -0.022143615 -0.037636995 0.06722784
000040 40 3b d5 3a 8e f4 b4 bb d0 40 9b 3b d0 30 41 bd
       0.0016268268 -0.0055223173 0.004737951 -0.04716569
000050 72 d1 7c 3d 7a 11 5b bd 2d 6f 4c 3d f0 93 e9 bc
       0.06172318 -0.053483464 0.049910713 -0.028512925
000060 ac 3e 7e bd 8e a6 28 3d 88 91 62 bb 89 a6 f6 bc
       -0.062071487 0.041174464 -0.0034571607 -0.030108707
000070 57 38 2b bd 20 7e 90 bb b0 90 0c 3b ea ea 6c bd
       -0.041801777 -0.0044095665 0.0021448545 -0.05784122
000080 8a db d7 3c 4c af 31 bc b2 b0 c4 3c 43 7f 74 bd
       0.026349802 -0.010845017 0.024010036 -0.05969168
000090 6e b1 15 3d 1a bf df 3c ff 87 ac 3c e4 82 45 3d
       0.036546163 0.027312804 0.021060942 0.04822053
0000a0 37 c4 52 bd 0d 02 54 bd 60 92 b5 3b 84 fa 6d 3d
       -0.051456656 -0.05175977 0.005541131 0.05810024
0000b0 89 13 13 bd 9e b3 ac 3c 69 c1 e5 bc 3b ab 61 3d
       -0.035907302 0.021081742 -0.028046327 0.05509494
0000c0 d7 a3 1c 3d e0 05 0e 3d 59 b5 21 bc d0 f4 13 3d
       0.038242187 0.03467357 -0.009869897 0.036122143
0000d0 38 c8 47 3d 7a 67 15 3d 80 ff 2a bd 51 34 00 3d
       0.048774928 0.036475636 -0.04174757 0.031299893
0000e0 51 d6 1d bd cd b3 24 bd 0f 2d ff ba d2 34 27 bd
       -0.038534466 -0.040210534 -0.0019468385 -0.040821858
0000f0 0f d8 ad 3c 1b b8 b0 bc 19 2c 63 bd a8 94 ca 3c
       0.021221189 -0.021572163 -0.055461977 0.024729088
000100 86 e3 16 3d b5 9a cd bc 63 a7 b9 3c 07 ca 21 3d
       0.036838077 -0.025098184 0.022662824 0.03949931
000110 48 18 da 3b 26 d8 ff 3c e3 19 d8 3a 56 85 4e 3d
       0.0066557266 0.031230997 0.0016487207 0.050420128
000120 e2 5f b0 38 4f d6 bd 3c 55 3c 6e 3d f7 1c ed 3b
       8.4101935e-05 0.02317348 0.058163006 0.007236119
000130 8f 20 20 bd ae 71 d2 3c 52 ef 66 3d b0 19 b9 bc
       -0.03909355 0.025688972 0.056380577 -0.022595257
000140 84 b2 ce bc 94 ea d0 bc 0d 7b e6 bc b0 ac 1c bc
       -0.025231607 -0.02550248 -0.028134847 -0.009562656
000150 32 54 24 3d a0 86 32 3d 69 09 28 bd cc a9 34 bd
       0.040119357 0.04358542 -0.0410246 -0.044107243
000160 a8 c7 58 bd af 2a ac 3b 36 96 96 bc 6e f9 6f 3c
       -0.052924782 0.0052541117 -0.018382173 0.014646871
000170 b1 18 37 bc bf ee 4a 3c c9 42 75 3c 54 f8 ed 3c
       -0.0111753205 0.012386023 0.014969536 0.029049076
000180 22 96 22 bc 3a ec ac 3c 34 df 16 bd 98 4c 76 3c
       -0.00992349 0.021108735 -0.036833957 0.01503291
000190 40 bf a7 bb b7 d2 00 bc 55 1d e0 3c 42 9e 16 bd
       -0.0051192343 -0.007862738 0.027357737 -0.03677202
0001a0 44 05 6e bd 76 ad 25 bb be af 38 bc a9 12 25 3d
       -0.05811049 -0.0025280393 -0.011272369 0.040301
0001b0 37 3f 13 3d 33 cb 28 3c e3 de 31 bd 4e 64 c3 bc
       0.03594896 0.010302353 -0.043425452 -0.02385154
0001c0 03 37 41 3d 3b 43 8c 3c 68 9d 78 3c 02 4a 46 bb
       0.047171604 0.017121902 0.015174247 -0.0030256514
0001d0 74 78 99 bc c9 c0 9c 3c f1 b0 1c bd 76 ee 04 bd
       -0.018734194 0.019134896 -0.038254682 -0.032453977
0001e0 0f 76 20 3d 27 4c 1b 3d 4b d9 2b 3d 32 ba 62 bd
       0.03917509 0.03791442 0.041955274 -0.05535335
0001f0 e3 cc 80 bc 06 d7 2e bd c5 64 93 3c 83 a4 92 bc
       -0.015722698 -0.04268553 0.017992387 -0.01790071
000200 12 4e 2d 3d c7 09 18 bd e2 b0 d9 3c 6b 37 4d bd
       0.04231078 -0.0371187 0.026573602 -0.05010168
000210 e5 60 c9 3c cc 86 5b 3d 88 35 55 bd 4b 99 41 3c
       0.024582336 0.05359535 -0.052053005 0.011816333
000220 6f 22 63 3d 5c 40 8e bc 48 6c 0a bd 93 9b bd 3c
       0.05545276 -0.017364673 -0.03379467 0.023145473
000230 74 8c 98 bc 2f 9b df 3c 03 dc 7f 3d 1b 85 36 3d
       -0.01862166 0.027295677 0.06246568 0.044560533
000240 d3 cd 51 bd e8 99 0a bd 9c b1 c3 bc 26 4e 2a bd
       -0.05122168 -0.033838183 -0.023888402 -0.041578434
000250 17 84 12 3c e3 0f f3 3c 66 a8 76 bc 0e fa 61 bd
       0.0089426255 0.029670661 -0.015054798 -0.05517011
000260 d7 9a 5c 3c 19 0f f8 3c d5 38 36 3d 8a 42 4a bd
       0.013464651 0.030280637 0.044487793 -0.049379863
000270 2e 67 00 bd 94 39 c7 3c cd 14 88 3c 3a 1a 20 bd
       -0.0313484 0.024319448 0.016611481 -0.03908751
000280 6d 7e 3a 3d ef 99 89 3c 58 c9 e2 b6 02 62 04 bc
       0.045530725 0.016797034 -6.7587644e-06 -0.0080800075
000290 04 e4 73 bd 60 ac d0 bc 1c 0b 7d bd a9 a0 0a 3d
       -0.059543625 -0.02547282 -0.061778173 0.033844624
0002a0 c5 34 74 3c 7a 0b 6b 3d fc 60 65 3d 66 06 1a bd
       0.014905159 0.05738399 0.056000695 -0.03760376
0002b0 96 6f ab bc 20 7e a1 3b 6c 11 2d bc 9a e5 1f 3d
       -0.020927232 0.0049283653 -0.010563236 0.039037324
0002c0 5f 10 b1 3c 75 81 11 3c 91 9f 26 bd 42 cc 68 3b
       0.021614252 0.008880963 -0.040679518 0.0035522138
0002d0 d1 b1 c4 3c 52 a0 25 3c 10 01 00 bc f9 bf 68 bd
       0.02401057 0.010109024 -0.007812753 -0.056823704
0002e0 20 82 c3 bb 19 88 65 3d 90 75 84 bc 69 8b 2b 3c
       -0.00596644 0.056037996 -0.01616934 0.01047025
0002f0 48 b4 ac 3c ca 59 06 3d ea 50 6e 3c f1 35 00 bc
       0.021082059 0.032800473 0.014545659 -0.007825361
000300 7e fa e1 bb 57 69 7f 3d 27 c3 4e bc 8c b4 61 bd
       -0.006896316 0.06235632 -0.01261977 -0.055103824
000310 e4 26 5a 3d 33 89 86 3d 3f 18 b1 bb 2b e8 12 bc
       0.053259745 0.065691374 -0.0054045017 -0.008966486
000320 3d 2d 07 bc f2 17 56 bd 4e a2 02 3d 21 d4 5c bd
       -0.008250532 -0.05226893 0.031893067 -0.05391324
000330 8c fb df bc 4c bb 55 3c fa 36 57 bd bd b5 8e 3c
       -0.027341627 0.013045143 -0.052542664 0.017420644
000340 60 17 39 3b ce 04 f5 3c 29 c1 ac bc 2d 74 aa bc
       0.0028242692 0.029909518 -0.0210882 -0.02080735
000350 6f e1 dd 3c ce 5b 3d 3d 56 fc a4 bc af f4 86 3d
       0.027085034 0.04623013 -0.020139854 0.065896384
000360 ac d4 4b bd 2e d8 03 bd 53 8c 5a bd f4 58 a0 bc
       -0.049763367 -0.032188587 -0.05335648 -0.019573666
000370 92 23 fa 3b d9 70 32 3d c1 7c 38 3c 77 18 d3 bc
       0.007633635 0.04356465 0.011260212 -0.025768502
000380 0a 7f 2e bd 22 b4 35 3d 8a af 5d 3c 64 f2 5d bd
       -0.042601623 0.04436124 0.013530621 -0.05418624
000390 5c 4c fe bc 8f 64 06 3d 98 db 0a bd 63 29 80 bc
       -0.03104227 0.032810744 -0.033900827 -0.015644735
0003a0 ab 21 3a 3d 33 a2 62 bd 6d 0b f7 3c 5b 90 02 3d
       0.045442265 -0.055330466 0.030156815 0.03187595
0003b0 ba ae 53 3d b7 84 4e bc c1 35 0e bc 42 25 68 3d
       0.051680304 -0.012604884 -0.008679808 0.056676157
0003c0 b1 e1 3e bd 68 48 39 3d a8 2e 2f 3d 7a 34 8c 3c
       -0.046601955 0.045235068 0.042769104 0.017114867
0003d0 3b 90 0f 3c e5 79 e1 bc 1f 26 b9 3c e9 9f 44 3d
       0.008762415 -0.027523944 0.022601185 0.048004065
0003e0 04 57 ee bc 62 1d 2f bd 5d c0 2f bd 5c a5 41 bd
       -0.029094227 -0.04275263 -0.04290806 -0.04727684
0003f0 e1 df 10 3d 28 d3 02 3d 2e 48 3c 3c fb b7 a3 bc
       0.035369758 0.031939656 0.011491818 -0.01998519

fc2.weight f4 [128, 256]
000000 e3 ec 78 3d 40 cc d5 bb 2d b3 c7 3c 4d 1a 73 3d
       0.060772788 -0.0065245926 0.02437743 0.059351254
000010 c2 e4 4b bd 66 c0 40 bd 54 c8 58 3d b8 f9 33 3c
       -0.049778707 -0.047058485 0.052925423 0.010984831
000020 41 7a 68 bc 0a 87 e6 3b 02 dc 14 bd d1 55 bc 3c
       -0.014189304 0.007035141 -0.03634263 0.02299014
000030 54 41 99 ba df 6c b8 bc 14 3b 61 bd 39 1e 11 3d
       -0.0011692443 -0.022512851 -0.054987982 0.035429213
000040 18 77 3d 3d 3d 93 ff bc 5b c3 d1 3c a8 85 7d bc
       0.046256155 -0.031198138 0.025605848 -0.015473761
000050 7d 7c 58 bd 90 4c 03 3c a7 bc f2 3c ad d5 44 3d
       -0.052853096 0.008013859 0.029630972 0.04805534
000060 1e 73 4b bd 78 dc 62 3d 00 b3 70 3a ce 81 20 3d
       -0.04967033 0.055386037 0.00091819465 0.03918629
000070 1a db 65 3d c8 f1 26 bd b7 e4 36 3b a6 8c df bc
       0.056117155 -0.040757924 0.002790732 -0.027288746
000080 2b 43 6e 3d bc a6 61 3d 37 13 83 bd 00 76 8e bb
       0.058169525 0.05509065 -0.06400149 -0.004347563
000090 20 cd cb 3c 2b 6e b2 bc 52 47 a6 bb b4 fa e1 bc
       0.024878085 -0.021781048 -0.00507442 -0.027585365
0000a0 1e 3f 4e 3d b4 72 61 bd e0 ca 18 3b 4f a0 2f bc
       0.050353162 -0.05504103 0.0023314282 -0.010719373
0000b0 70 75 54 3c 5e 7f a4 3c 4d 02 b9 bc d4 d8 47 bd
       0.012967452 0.020080265 -0.022584105 -0.048790768
0000c0 3e 41 aa bc aa 21 71 bd 72 ad 73 3d d2 1e 19 bd
       -0.020783063 -0.058869995 0.059491582 -0.03738291
0000d0 26 4c 0a 3d 0b 49 97 3c d0 d3 9b bb 84 c6 88 bc
       0.033764027 0.018467447 -0.0047554746 -0.016696222
0000e0 be f3 6b bd 7b 95 bc bb b3 49 66 bc 60 64 06 3c
       -0.057605498 -0.005755124 -0.014055657 0.008202642
0000f0 d0 72 69 3c c6 32 08 bc 59 99 c0 bc c0 49 48 3c
       0.014248565 -0.008312887 -0.023510622 0.012224615
000100 62 2f c0 bc 5e e8 d5 bc 2f 53 0b bd 26 af fc 3c
       -0.023460094 -0.026111778 -0.034014877 0.030845236
000110 20 ae d0 3c d7 ca b4 bc 0c 47 12 3b 58 8d 20 bd
       0.025473654 -0.022069378 0.002232018 -0.039197296
000120 46 18 0d 3d cf c6 25 bc b4 1a 84 3c 7c be 90 bc
       0.034446977 -0.0101182 0.016126014 -0.017668955
000130 17 c4 52 3d 42 43 5d 3d 20 08 5d bc f0 e0 d0 3c
       0.051456537 0.05401922 -0.013490707 0.025497884
000140 f0 1e fa bc c0 7c 34 bb 27 62 27 3b 4a 5b 34 bd
       -0.03053233 -0.0027540177 0.002554068 -0.044032373
000150 84 96 87 3c 34 01 5f bd 20 ef 62 3d 8e 96 5d bd
       0.016551264 -0.054444507 0.05540383 -0.05409866
000160 c0 07 15 bd d2 26 4c 3d d0 b4 fa bc 03 3a 3f 3d
       -0.036384344 0.04984171 -0.030603796 0.046686184
000170 39 46 d1 bc f6 2a 47 3d 5b 6b 96 bc 0a 56 9e 3c
       -0.02554618 0.048624955 -0.018361738 0.019328136
000180 74 34 75 3d 76 0a 8d bc b2 66 45 3d 90 11 a0 bb
       0.059864476 -0.017216902 0.04819364 -0.004884906
000190 f0 28 15 bc 2e 3d 29 bd c0 0f 85 bb b8 b4 ad 3b
       -0.009103999 -0.04131811 -0.0040607154 0.0053010844
0001a0 74 49 ce 3c f8 4c 71 3d 18 6e 21 bc ba 16 cf 3c
       0.02518151 0.058911294 -0.009852909 0.025279392
0001b0 5c 1a 13 3c c5 d1 82 3c 04 e4 2c bd 45 de 2a bc
       0.0089784525 0.015969167 -0.04220964 -0.01042897
0001c0 d2 5d 29 3b 30 36 af bc 60 16 5c 3d e4 91 bc bc
       0.0025843275 -0.021388143 0.053732276 -0.023018785
0001d0 40 6d 38 3c 1f e4 a2 bb 4b 30 46 3c 91 c3 ca bc
       0.011256516 -0.004971042 0.012096475 -0.024751456
0001e0 a8 0b 4d 3d 41 2c 14 3d 78 93 1d 3d 58 ab f0 bc
       0.050059944 0.036175016 0.038470715 -0.029378578
0001f0 93 03 6d bc 36 36 69 bd 60 90 a5 bc 38 52 49 3d
       -0.014466184 -0.056936465 -0.020210445 0.049150676
000200 23 56 06 3d 1b 57 1e bd 3d b9 ca bc 90 63 22 3d
       0.03279699 -0.03865729 -0.024746532 0.03964573
000210 10 ab 19 bd 4a 62 12 3b bf a9 64 3d 66 20 57 bc
       -0.037516654 0.0022336417 0.055825945 -0.013130283
000220 44 ff fd bc 08 77 6f 3d c5 2b 44 3c d8 8b a8 bc
       -0.03100551 0.058463126 0.011973326 -0.020574495
000230 4c 11 55 bc 8c 3a 5f bd c4 80 79 bd ab 6d 57 3d
       -0.013004612 -0.054499194 -0.060913816 0.052594822
000240 7a 45 4b bd 64 94 78 bd d8 64 24 bd d8 70 35 3c
       -0.049626805 -0.06068839 -0.040135235 0.011074267
000250 8b 9b 77 bc 3a 08 40 bd a6 b1 30 3d cf d0 ed 3c
       -0.015112768 -0.046882845 0.04313817 0.029030232
000260 58 bc 50 bd 28 cb be 3c ee 94 5a 3d 80 b8 dd 3c
       -0.05096087 0.023290232 0.053364687 0.027065516
000270 10 6c 4d 3c 42 5c f1 3c 27 b1 10 3d 1c 96 f8 bc
       0.012537971 0.029462937 0.035325196 -0.030345015
000280 8c cf 09 3d c7 be 1d 3d b8 68 74 bd d0 a3 a5 bc
       0.033645198 0.038512018 -0.05967018 -0.020219713
000290 9e 7e 2e 3d 20 30 3e bd 3d a2 12 3d fc 37 0c bd
       0.04260122 -0.046432614 0.035799254 -0.03423308
0002a0 98 ae 00 bd e6 b4 5d 3c 74 93 88 3c fc 74 61 3d
       -0.031416506 0.013531899 0.016671874 0.055043206
0002b0 af 0b 2a bd a2 48 48 3d 28 27 0d 3c b7 3e 35 bd
       -0.04151505 0.048897393 0.008615293 -0.044249263
0002c0 54 a8 b1 bc dd 4d e0 bc df 30 cf bc 1a 24 4e bd
       -0.02168671 -0.027380878 -0.025291858 -0.050327398
0002d0 51 d5 5b bd e8 a2 a1 3c 7d ab 07 3d 8f 3c ef 3b
       -0.05367023 0.019731 0.03312253 0.0073009203
0002e0 c0 5b 44 3b 97 b5 7e 3b 9e 93 70 bd 40 79 63 3d
       0.0029961914 0.003886556 -0.05873453 0.055535555
0002f0 7e e7 0f bd 60 e8 4c 3b 98 69 6b bd 16 1e 09 3d
       -0.035132878 0.0031266436 -0.05747375 0.033475958
000300 26 c4 6b 3d a6 3e 75 bd 50 fa fa bc cc b3 b3 bc
       0.05756011 -0.0598742 -0.030636936 -0.02193632
000310 8c ae 97 3c 72 28 69 bd e0 52 a5 3b 6d 4a e6 3b
       0.018515848 -0.056923337 0.00504528 0.007027915
000320 3a c5 c3 3b 9e e4 3f bd 48 0f 4a bc e1 e1 5b 3d
       0.005974439 -0.046848886 -0.012332745 0.05368221
000330 f2 4b 35 3d e7 d6 79 bd 44 7b 4e 3c 73 34 a2 3c
       0.04426188 -0.060995962 0.012602631 0.0198004
000340 80 a2 ef 3a 7c c4 14 3d 9b 16 76 3d 98 de 57 bc
       0.0018282682 0.036320195 0.060080152 -0.013175629
000350 30 d0 b8 bc a0 80 de bb 4a cf 9d 3c d4 d7 f7 3c
       -0.022560209 -0.0067902356 0.019263882 0.030254282
000360 3e cf 67 3d 80 20 d7 3a dc b8 79 3d 19 a0 62 3d
       0.056594126 0.0016412884 0.06096731 0.055328462
000370 00 b8 88 39 c1 66 80 b9 a5 7e 96 bc e0 92 d2 bb
       0.00026077032 -0.0002449062 -0.018370936 -0.0064262003
000380 85 f4 ec bc 18 a3 6d bd 94 6c 64 3d 04 e4 8f bc
       -0.02892519 -0.058016866 0.05576761 -0.017564781
000390 80 a4 55 3c 19 72 d4 bc c0 53 26 bc 31 29 0c bd
       0.013039708 -0.025933312 -0.0101518035 -0.03421897
0003a0 49 98 5f bd 91 3a 55 bc 62 95 cf bc 1c 98 7d bd
       -0.05458859 -0.013014452 -0.025339786 -0.06191264
0003b0 6c f2 64 3d 74 70 f2 3c 1c 44 9e bc 9e 15 58 bd
       0.055895254 0.029594637 -0.019319586 -0.05275499
0003c0 4a fd 46 bd 66 10 7a bd 56 32 26 3b b3 d7 46 3d
       -0.0485814 -0.061050795 0.0025359592 0.04854555
0003d0 57 75 07 bd 31 a1 4e 3d 48 aa cd bc 0e 78 15 bd
       -0.03307089 0.050446693 -0.02510561 -0.036491446
0003e0 cb 86 55 bd 98 58 28 3d 7a 53 2d bd a7 2c b5 3c
       -0.0521305 0.041100115 -0.042315938 0.022116018
0003f0 80 b3 76 bd 5a 4c 78 3d 48 ec 20 bd f6 24 16 bd
       -0.06022978 0.06061969 -0.039287835 -0.036656342

fc2.bias f4 [128]
000000 20 5e 71 bd a3 83 0e 3b 1d 9d 4b 3d 33 90 3e bd
       -0.058927655 0.0021745942 0.04971038 -0.046524238
000010 8a bf 87 bc 8c 4b 08 3b 5a 93 f0 3c 25 e9 45 3d
       -0.016570825 0.0020796983 0.029367138 0.048318047
000020 00 a9 c2 3a 1b c2 2e 3d 3d 12 2b bd 8c 38 09 3c
       0.0014851391 0.042665582 -0.04176544 0.008375298
000030 00 d8 55 38 64 19 15 3b 12 fd 6b bc c1 5a 36 3c
       5.0984323e-05 0.002275073 -0.014403598 0.011130036
000040 63 08 db bc 96 aa 71 bd ac 32 85 bd 2d bd 55 bd
       -0.026737398 -0.059000574 -0.065038055 -0.052182365
000050 4d da 01 bd 69 0a 4e bd bc e6 a3 bc c1 d6 21 3d
       -0.03170233 -0.050302897 -0.020007484 0.039511446
000060 e5 59 69 bd 74 80 3a 3d 09 16 9c 3c c5 f0 ad 3c
       -0.056970496 0.04553266 0.019053476 0.021232972
000070 97 b9 7f 3c 6f e4 b8 39 10 ae 79 bc ce 0e 79 bc
       0.015608213 0.0003526541 -0.015239254 -0.015201284
000080 ec 72 be bb 2d a0 e7 3c 74 c0 46 3c 18 96 64 3d
       -0.0058120396 0.02827462 0.012130845 0.055807203
000090 3a 39 5a bd dd 63 4c 3b a3 57 37 3d fe b7 47 3d
       -0.05327723 0.0031187453 0.04476131 0.048759453
0000a0 54 d6 68 3d 5c 75 a6 bc da 34 a3 3b 92 90 4d bd
       0.056845024 -0.020319633 0.0049806656 -0.0501867
0000b0 27 df ac bc 06 15 15 3d 2c e8 15 bd 93 a0 8f ba
       -0.021102501 0.036397003 -0.03659837 -0.0010957889
0000c0 19 48 17 3b 91 a1 b6 bc f9 3e 2b bd ae ed 29 3d
       0.0023083745 -0.022293838 -0.041808102 0.041486435
0000d0 63 90 5d 3d 98 81 1f 3c 6b 6c 58 bd 87 be 9e 3c
       0.054092776 0.009735487 -0.05283777 0.01937796
0000e0 30 b4 2f ba 00 ae 5d bd a7 cf 45 bd ea 15 2e bd
       -0.000670257 -0.054121017 -0.048293736 -0.042501368
0000f0 cc 1a 46 3d c8 11 28 bd 20 a4 b3 bc 70 c1 4d bd
       0.0483654 -0.041032583 -0.021928847 -0.050233305
000100 eb a5 07 39 8b b1 37 3d 84 ac c3 3c 83 b7 8a 3d
       0.00012936413 0.044847053 0.023885973 0.06773283
000110 0f 8b 95 bc 62 66 c9 3c 7c 3f 25 bc 83 6a e6 38
       -0.018254785 0.024584953 -0.010085937 0.00010987094
000120 c0 7b 85 3d 80 dc 87 3b 2c dc 79 3d e4 2f 4f 3d
       0.06517744 0.0041461587 0.061000988 0.05058278
000130 3e bb 3b 3d 0d bf d6 bc 77 91 a5 ba 27 97 21 3d
       0.045832865 -0.026214147 -0.0012631853 0.03945079
000140 b9 af 25 bc 27 13 73 bd 36 59 37 bd f8 18 6f bc
       -0.010112696 -0.059344437 -0.044762813 -0.014593355
000150 90 aa 70 3d 68 7f 9d 3c a8 7c 21 3c f4 58 e7 bc
       0.05875641 0.019225791 0.0098563805 -0.028240658
000160 e0 d0 76 bd e6 ba 05 bd f1 2c 3a bd 19 9c 06 3d
       -0.060257792 -0.032648943 -0.045453016 0.03286371
000170 7e e4 72 3d 4c f7 0b bc 5c d5 4b 3d 4e 18 52 bd
       0.05929994 -0.008542847 0.049764022 -0.05129271
000180 14 c0 33 bd 94 38 e9 3c e3 41 e5 3c 89 0f 25 bd
       -0.04388435 0.028469361 0.027985519 -0.04029802
000190 70 53 90 3b 70 e3 7c 3d cc 96 25 ba b3 6a a5 bc
       0.004404478 0.06174034 -0.0006316721 -0.02019248
0001a0 62 ac 72 3c c5 f4 fa bb 49 74 79 bd 4b 55 cb 3c
       0.014811607 -0.0076585733 -0.060901914 0.024820944
0001b0 df 1f c6 3a 4a 41 a6 3a 29 5b bf bc 03 ee a2 bc
       0.00151157 0.0012684253 -0.023358898 -0.019888883
0001c0 00 c3 ec 3c 7d 5a 65 bd 78 21 39 3d 5f 44 2c 3d
       0.028901577 -0.0559945 0.045197934 0.04205739
0001d0 39 fc 87 3c e3 a1 d4 3b a3 7d 63 3d c4 aa 7c bd
       0.016599761 0.006489025 0.05553974 -0.061686292
0001e0 cb 49 a1 bc 1d d8 27 3d 87 06 71 3b 28 35 41 bc
       -0.019688508 0.040977586 0.0036777572 -0.011792459
0001f0 ad 8a 46 bd 0d 53 3a bc de 8a 2d 3d 58 88 f3 3c
       -0.048472095 -0.01137234 0.042368762 0.0297281

actor.weight f4 [4, 128]
000000 f3 c6 87 bd 48 aa 8f bd db 43 61 bd 70 39 e5 3c
       -0.066297434 -0.070149004 -0.054996353 0.02798149
000010 cb b7 17 3c 2f 55 2b bd de e0 8b 3d 0f 93 a1 3d
       0.009260128 -0.041829284 0.068299994 0.07889377
000020 46 6e 89 3c 9f b3 0f 3c d9 9f a5 bd d4 b1 b7 3d
       0.016776215 0.008770852 -0.08087129 0.08969465
000030 36 ac b1 bd fa f9 38 bd e6 2b c9 3c 85 46 53 bd
       -0.08675425 -0.04516027 0.024557065 -0.051580925
000040 9f d3 b1 3c d5 d7 cc 3b 20 38 99 3d c8 60 30 bd
       0.021707354 0.006251315 0.07481408 -0.043061048
000050 82 81 59 bd 83 80 f3 3b 91 ac 9f ba c4 80 b0 bd
       -0.053102024 0.0074310913 -0.0012182166 -0.0861831
000060 08 e5 73 3d 59 59 d0 bb 21 d3 0a bd 6c 76 f0 3c
       0.059544593 -0.0063583073 -0.033892754 0.029353343
000070 07 c4 8a bc 15 50 09 bd b7 86 ab 3d ba 16 6b 3d
       -0.016939176 -0.033523638 0.08375304 0.05739472
000080 43 26 a6 3d b3 45 c5 3c 3e aa 4a 3c 0c db 63 3d
       0.081127666 0.024081087 0.01236969 0.05562882
000090 57 d6 6d bd 55 72 96 bd c2 ff 45 bd 64 44 97 3c
       -0.05806574 -0.07346026 -0.048339613 0.018465228
0000a0 65 6f 64 3d fc d4 4c bd ca cc d5 bc af 54 73 bc
       0.055770297 -0.050007805 -0.026098628 -0.014851733
0000b0 39 9e 9d b9 9e e7 3e 3d 2c 03 a7 3d 17 82 be 3c
       -0.0003006326 0.046607606 0.08154902 0.023255391
0000c0 e8 e8 9b bc 2b 36 91 3d 13 7e 8e bd 0b b8 63 3c
       -0.019031957 0.0709041 -0.069576405 0.01389886
0000d0 0a 33 fd bc 1d 5d 96 bd cd 74 8c 3c 09 dd 0c 3d
       -0.030908126 -0.07341979 0.017145539 0.034390483
0000e0 f9 07 74 bd 63 ae 80 bd 25 28 2b 3d 09 dc 6c bd
       -0.059577916 -0.062832616 0.04178633 -0.05782703
0000f0 42 59 94 bd 71 a5 96 3d ab dc 88 bd 5b cf 09 bd
       -0.07243587 0.07355774 -0.06682714 -0.033645015
000100 12 ba e1 bc 72 af 6a 3c 4c 55 97 3c c9 73 b4 3c
       -0.027554546 0.014324056 0.01847329 0.022027867
000110 77 9f b8 3d 42 bf 96 bd e5 09 61 bd ef a7 e5 3c
       0.090147905 -0.07360698 -0.054941077 0.028034179
000120 52 c6 fc bc a0 52 ac 3a d9 c1 96 3d 65 f2 ab 3d
       -0.030856285 0.0013147183 0.07361192 0.083958425
000130 10 7e 55 bc ff a6 98 3d d9 eb 8c 3c bc 01 38 3d
       -0.013030544 0.07453727 0.017202305 0.04492353
000140 9c 91 85 3d de cf 9a 3d b1 52 1d bd b7 d7 9c 3d
       0.065219134 0.07559179 -0.03840894 0.07658332
000150 d6 df 76 3d 5d 35 37 3d 20 c5 f9 bc ba 05 56 bb
       0.06027206 0.044728626 -0.030489504 -0.0032657222
000160 02 2a e8 3b 5c 67 37 3d b2 2e 80 bd 66 0c b7 3d
       0.007085086 0.044776306 -0.062589064 0.08937912
000170 9c e0 92 3d b4 d0 ec bc bc 6a a5 3c 43 2d a9 3d
       0.07171747 -0.028908111 0.020192496 0.08260586
000180 b0 8e cd 3c f0 c4 19 3d 3b 8a 40 bd 44 64 f0 3c
       0.025092453 0.03754133 -0.047006827 0.029344685
000190 0b 85 6c 3d 8b 45 4f 3d a2 12 f2 3c 3b 44 58 3b
       0.057744067 0.05060343 0.0295499 0.0032999653
0001a0 39 fe 7c bd 2a 9a 7d 3d b8 fd 72 bd 6f 19 ec 3c
       -0.061765883 0.0619146 -0.059323996 0.028820721
0001b0 93 37 69 3d c7 5a 8d 3d 6e 7a 2a bc 06 b4 57 3c
       0.056937765 0.0690208 -0.010405166 0.0131654795
0001c0 d4 42 cb bc 00 85 e2 3a 74 44 e1 3c c1 47 74 bd
       -0.02481214 0.0017282069 0.027498461 -0.059638742
0001d0 de ff 88 bc 8e 23 ae bd 9a 88 ac bc da 90 a6 bd
       -0.01672357 -0.08502875 -0.02106123 -0.08133097
0001e0 be 2a ce bc ad 50 77 bc ce b0 c3 bc 2a f6 84 3d
       -0.025166865 -0.015094918 -0.023888018 0.064922646
0001f0 02 79 02 bd 91 44 09 3d 66 1b 1f 3d a6 4a 7c bd
       -0.031853683 0.033512656 0.03884449 -0.061594628
000200 a5 9b 34 bd c2 4c 85 3d 58 af ba bd 1e 38 0f bd
       -0.044093747 0.06508781 -0.091154754 -0.034965627
000210 e8 60 a0 3d 44 88 57 bd 91 7b b0 3c 87 a1 92 3d
       0.078309834 -0.052620187 0.021543296 0.07159715
000220 9a 4d 1a bd 57 ac bf 3d 5d 08 ad bb 75 f3 ef 3c
       -0.037671663 0.09359043 -0.005280538 0.029290894
000230 97 75 92 bd 28 d1 5d bd e0 cf ed 3c fc e6 a1 3d
       -0.07151335 -0.054154545 0.029029787 0.07905385
000240 7d c7 b5 3d c0 56 ec bc e6 0e a2 bd 75 34 f0 bc
       0.0887594 -0.02884996 -0.07912998 -0.029321888
000250 19 fe 7a 3d a4 e9 96 3d d9 b1 ec bc 87 29 9d bb
       0.061277483 0.07368782 -0.028893398 -0.00479621
000260 c4 2c b2 3d 3d 5f 6c bd 47 72 32 bc 40 fa 85 bd
       0.086999446 -0.057708014 -0.010891504 -0.06541872
000270 76 1d f7 bc 9a 04 9e bd ac 00 85 bc 95 d9 80 3d
       -0.030165415 -0.077157214 -0.016235672 0.062915005
000280 d1 36 59 bd 41 45 db 3c 02 38 98 3c 2a d4 f7 bc
       -0.053030793 0.026766421 0.018581394 -0.030252535
000290 30 fd 4d 3d 8a 9e 85 bc 0b 3a 3b 3d 77 db a2 3d
       0.050290287 -0.016310949 0.04570965 0.07952016
0002a0 79 1d 68 3c a7 cf 8e 3d 46 eb 9b 3d 5e 65 3a 3c
       0.014167183 0.069732 0.07613234 0.011376707
0002b0 18 ba a7 3d 43 d2 af 3c 7b 86 48 bd 99 b7 a2 bc
       0.081897914 0.021462565 -0.048956376 -0.019862937
0002c0 d8 d4 a6 bc ce 9c 29 3d eb 61 a9 bc 4b b2 7a bd
       -0.020365164 0.041409306 -0.020676574 -0.06120519
0002d0 d9 26 8c 3d 97 1b 56 bc 5e 6c 7b 3a 9f 50 02 3d
       0.06843347 -0.013068101 0.0009591038 0.031815168
0002e0 83 db 6d 3d 1c 32 69 bd 52 dd 9e bb 4e 92 96 bc
       0.05807067 -0.056932554 -0.004848161 -0.01838031
0002f0 3c 47 6b bd 39 c8 39 3c 3d 70 b4 ba 02 3e 32 3d
       -0.05744098 0.011339241 -0.001376636 0.043516167
000300 bf 17 32 bd 54 ed 43 3b 99 3a ae 3d c0 7d 94 3c
       -0.043479677 0.0029896097 0.0850727 0.018126369
000310 7a 53 46 3d cf c0 ce 3c 99 aa 99 3d 97 43 60 bd
       0.048419453 0.025238423 0.07503242 -0.05475196
000320 c5 5e 98 bd 18 1a 7f bd b6 fb f0 3c ca 77 a2 3d
       -0.07439951 -0.062280744 0.0294169 0.07933004
000330 1a 89 83 bd 9a 26 30 bc 40 99 f9 3c 5f 04 71 bd
       -0.064226344 -0.010751391 0.030468583 -0.05884206
000340 df 2a 52 bc e7 31 7b 3d 07 f9 ae 3d 06 a0 57 3d
       -0.012827604 0.061326887 0.08543592 0.052642845
000350 60 e5 aa 3d b2 94 82 3c 3b 82 00 3c c9 8a c0 bd
       0.08344531 0.015940044 0.007843549 -0.09401471
000360 e9 d4 74 bd 0a 8b ab 3d 31 8a 68 bd 15 f7 2e 3d
       -0.05977336 0.08376129 -0.056772415 0.042716105
000370 a4 b0 60 3d 33 41 53 bc 27 bb 03 3d 4d ee a6 bd
       0.054855958 -0.012893963 0.032160904 -0.08150921
000380 8c 70 9f bd eb b6 19 bd d8 06 9d bd c6 87 20 3d
       -0.077851385 -0.03752796 -0.07667321 0.039191984
000390 15 f0 2f bd 12 4d a2 bd e9 0c 8f bd 7d 8e 8e bd
       -0.04295357 -0.07924856 -0.06984884 -0.06960771
0003a0 8b f9 b6 bc bf 9c 83 bd 9a 20 2a bd 6a 04 31 3c
       -0.022335788 -0.06426381 -0.041534998 0.010804275
0003b0 87 5e 8e bc 59 8f be bc e5 c2 8c bd d3 a3 c3 bc
       -0.017379059 -0.023261713 -0.06873111 -0.023881828
0003c0 77 dc ab 3d 55 8c 86 3d 3f b0 4e bd 73 8d f8 3c
       0.0839166 0.06569735 -0.05046105 0.030340886
0003d0 ec ae d6 bc 38 a8 a8 3d 78 f2 3d bd 59 a5 64 bd
       -0.026206456 0.0823521 -0.046373814 -0.05582175
0003e0 a4 76 c3 bb 68 34 8e ba 49 54 54 bd f7 60 71 bd
       -0.005965071 -0.0010849359 -0.051838193 -0.058930364
0003f0 1d c0 6e 3d c1 9f 7a bc 77 da 8f bd 95 a8 49 bc
       0.058288682 -0.015296877 -0.07024091 -0.0123082595

actor.bias f4 [4]
000000 68 2d 39 bd 88 a9 f2 bb 67 b2 93 3d b9 0d da bc
       -0.04520932 -0.0074054636 0.07211762 -0.026617872

critic.weight f4 [1, 128]
000000 26 28 a9 3d cd 7b 6a 3d 5a cc f0 3c ac 4a 85 3c
       0.08259611 0.057246972 0.029394317 0.016270958
000010 92 3a 0c bd 3a 64 80 3d 9f 6a 87 bd 0d 9e 74 bc
       -0.034235545 0.06269117 -0.06612133 -0.01493026
000020 01 79 39 3d c7 01 3c 3b 05 75 9b 3c 56 21 b2 3d
       0.045281414 0.0028687583 0.018976698 0.086977646
000030 6d 22 b1 bd 7e ab d9 3c 6c ef 8d bd cd 12 af 3d
       -0.08649144 0.026571032 -0.06930432 0.08548508
000040 94 41 55 3d b7 f3 3c 3c e0 d8 02 bd f1 89 bb 3c
       0.052064493 0.0115327155 -0.03194511 0.022892924
000050 a6 45 0c bd 04 14 14 3d 1a 88 4b 3b 53 f2 61 bd
       -0.03424611 0.0361519 0.0031056465 -0.05516274
000060 57 6c 95 bd bd 9e 84 bd d3 09 b6 3c 14 da 2f bc
       -0.07296055 -0.064755894 0.022221481 -0.010733146
000070 01 36 e3 3c 28 0c 75 bd 76 f2 ac bd 88 1b 6a bd
       0.027735712 -0.059826046 -0.08444683 -0.057155162
000080 66 b0 fe 3c e5 74 9d bc 5d 6b 55 bd 29 79 a2 3d
       0.031089973 -0.019220779 -0.052104343 0.07933266
000090 a6 a1 22 bd 85 f4 b2 3d 77 e6 a7 3d 9e 97 ae 3d
       -0.03970494 0.08738045 0.081982546 0.085250124
0000a0 50 b8 f5 bc 71 68 35 3d 87 fc 12 3d 06 b3 f7 bc
       -0.029995114 0.044289056 0.03588536 -0.030236732
0000b0 f7 6e 17 3d 44 52 55 bd 80 99 5c 3d 03 6a 99 bc
       0.03697106 -0.052080408 0.053857327 -0.018727308
0000c0 0a d6 bc 3d 48 69 90 bd ae 9b a4 3d c7 41 74 3a
       0.09220512 -0.07051331 0.08037506 0.0009317663
0000d0 99 2a 71 3d 2e 21 9f 3d 2e a6 2b bc b0 57 97 3d
       0.058878515 0.077700004 -0.010476632 0.07389772
0000e0 98 9c 39 3d 70 ae ad bd ad ae 6e bc 38 fb b6 3c
       0.045315355 -0.08480537 -0.014568013 0.022336587
0000f0 be 35 93 3d 3a a8 90 3d 36 1f b1 3d 80 d2 86 bd
       0.07187985 0.07063337 0.08648531 -0.065831184
000100 09 27 b2 3d 0a 2c 6b bd 88 74 9d bb bc 03 08 3d
       0.086988516 -0.057415046 -0.0048051514 0.033206686
000110 8e 5f 00 bd 3d 50 19 bd 70 1c 66 3d 43 40 ab bc
       -0.031341128 -0.037430037 0.056179464 -0.020904666
000120 48 a8 b8 3d 33 2e 8c 3d 59 32 a7 3a b4 97 7c 3c
       0.09016472 0.06844749 0.0012756094 0.015417028
000130 ba 56 be bb 9b 4f a1 bd 26 fc 9d 3d 51 91 dc bc
       -0.0058086785 -0.07876512 0.07714109 -0.026924761
000140 02 be 08 3c ee 1c 7c 3d ee f4 73 bd 61 f0 4d 3d
       0.008346083 0.061551027 -0.059559755 0.05027807
000150 be 19 66 3d 5b 66 19 3d 8d 95 48 bd 89 f0 17 3d
       0.056176893 0.03745113 -0.048970748 0.037094627
000160 a3 c9 5f bd 64 6d 63 3d 34 80 6f 3d 9c 0f 8c 3c
       -0.054635655 0.055524245 0.058471873 0.017097287
000170 09 32 a1 bd a7 77 06 bd ea a7 1f bd e9 a9 73 bc
       -0.078708716 -0.032828953 -0.038978495 -0.014872053
000180 46 60 75 3c 7a ca bf 3c 60 40 a0 3d a5 5f ab bd
       0.014976567 0.023411978 0.078247786 -0.08367852
000190 30 39 35 3c 27 81 32 3d 9f 26 80 3d 28 56 1f bd
       0.011060998 0.0435802 0.062573664 -0.038900524
0001a0 41 47 68 3b 25 91 69 3d 80 34 24 bd 3a af 82 3c
       0.0035442861 0.057023186 -0.04008913 0.015952695
0001b0 f1 36 75 bc 9c b5 14 3d f5 32 34 3c 6b 70 0e bd
       -0.014966712 0.03630601 0.010998477 -0.03477518
0001c0 ed b9 9a bd c4 48 41 3d b6 07 02 3d 17 70 85 bd
       -0.07554994 0.047188535 0.031745635 -0.0651552
0001d0 c9 46 6c bd b9 48 f9 bc fa cf 26 3d cf fc 4d bd
       -0.057684693 -0.030430185 0.040725686 -0.050289925
0001e0 c8 3f 85 3c 69 73 a3 3d 21 88 a6 3d 07 15 13 3d
       0.016265765 0.07980997 0.08131433 0.035908725
0001f0 44 4b 05 bd 1b 50 97 3d 00 d0 b2 3c 95 14 1b 3d
       -0.032542482 0.07388326 0.021827698 0.037861425
