checkpoints/count/seed4/final.pt (torch, 400901 bytes, 7 tensors)

fc1.weight f4 [256, 256]
-0.048983283 -0.035762377 0.044077598 -0.017757528 -0.013354562 -0.011927672 0.04622884 -0.059131816
-0.045888416 -0.04018473 0.048432894 -0.02287262 0.005525604 0.020024665 0.03361001 0.012709454
-0.01541622 0.0240179 -0.04827428 -0.035677396 0.036295578 0.043845646 -0.04230631 0.053691626
-0.029938504 0.05160767 -0.014368378 0.05303412 0.021530062 0.059254117 -0.053300574 0.050116092
-0.010804236 0.016687542 0.046723843 -0.015074462 0.002030477 0.04073467 0.025361821 -0.011388093
-0.04864914 0.050076887 -0.038611606 0.04153572 -0.019537434 0.01589609 0.039720103 -0.024704166
-0.004223928 -0.0525593 -0.048957802 -0.013744943 -0.03329376 -0.06021533 0.025267638 -0.023095094
0.0045259297 -0.017323531 0.0019698888 0.03869891 -0.054545194 -0.003158234 -0.039346024 -0.056307577
0.008142881 -0.061064593 0.0039892048 0.05808515 -0.048232086 -0.032267265 0.027856357 0.033244774
-0.034210846 -0.0454294 -0.0071287155 -0.05395674 0.056732513 0.03385789 0.0021413714 0.023437537
0.0058216676 -0.050893933 0.010911249 0.0022495538 -0.036414087 -0.0595479 0.046108663 -0.016202688
0.062060557 0.054522447 -0.016862348 -0.053472877 -0.05781959 0.018764064 0.04695625 0.047462642
0.0450098 0.013675697 -0.008833557 -0.032868437 0.0380091 -0.049667664 -0.044467688 -0.038410895
0.020735443 0.01988858 0.031058565 0.00946562 0.050455786 0.052701034 0.021814458 0.056104504
-0.027592115 -0.05789461 0.04375056 -0.0065094084 -0.05496738 0.053878173 -0.013929911 -0.03877212
-0.020739734 0.016649783 -0.013536826 0.0075970665 -0.021721363 0.02907873 0.024566472 0.019982867
0.039144106 0.05662127 0.06194786 -0.0008338839 -0.009092219 -0.035057165 -0.028600872 0.032465138
-0.03180877 0.058277637 -0.044239603 0.048957124 -0.02410923 -0.0099925995 0.059988514 -0.044405006
-0.025176577 -0.019698419 -0.03608367 -0.015294708 -0.007530533 0.010697462 0.034638263 -0.026347362
-0.040230162 -0.018430024 -0.04315176 0.014797136 -0.05311179 -0.034020066 -0.045733742 0.040218353
-0.024279498 -0.060205296 -0.0399488 0.022506893 0.0047357753 -0.044008978 -0.04699882 0.05649732
-0.052368715 -0.061164625 0.023526318 0.003186591 0.037528746 0.005137481 -0.059655562 -0.048022777
-0.044814035 -0.008649886 -0.04231686 0.0017259493 0.02524668 0.015881695 -0.012441292 -0.059944376
-0.03249459 -0.005300641 -0.035892025 -0.015082836 0.026201546 -0.057110257 -0.04020737 0.035634704
-0.0054343566 -0.018450037 0.021222122 0.009097762 0.02631925 0.031463407 -0.053583622 -0.059517488
-0.061453134 -0.024387777 -0.030147702 0.036661237 -0.0110728815 0.061789073 -0.013222121 -0.03841079
0.042639747 -0.019384451 -0.053873405 -0.036537863 -0.002969861 0.029875144 -0.0021780208 -0.026518248
0.052688748 0.02431833 0.002268806 -0.048584856 -0.015196539 0.05530739 0.050695956 0.062127933
-0.0467105 -0.04759147 -0.021469265 0.05292009 -0.03205526 0.025280297 0.006041169 0.020214848
-0.0038786158 0.049557664 -0.036585607 0.060208604 -0.01897841 0.022080667 -0.016512595 0.03495267
-0.04635869 -0.036741085 0.0021097064 -0.017333053 -0.025647715 -0.011296444 0.05079166 -0.008428849
0.018813558 0.04665091 -0.022367924 0.021401726 0.03531854 0.015594497 0.04513088 0.01524502
00000000: b2a2 48bd 927b 12bd b68a 343d 3c78 91bc
00000010: 18cd 5abc 486c 43bc 745a 3d3d 3434 72bd
00000020: 7ef5 3bbd be98 24bd 9261 463d 5c5f bbbc
00000030: 2010 b53b c40a a43c a6aa 093d 503b 503c
00000040: 5094 7cbc 30c1 c43c 40bb 45bd 7622 12bd
00000050: acaa 143d 7e97 333d 6249 2dbd c0eb 5b3d
00000060: 9841 f5bc 9062 533d 5869 6bbc 4e3a 593d
00000070: d05f b03c 72b4 723d b451 5abd 8846 4d3d
00000080: 4004 31bc 50b4 883c 8061 3f3d e0fa 76bc
00000090: c011 053b 66d9 263d 98c3 cf3c 2095 3abc
000000a0: 5244 47bd 6c1d 4d3d 3427 1ebd 5c21 2a3d
000000b0: f80c a0bc 8438 823c 8cb1 223d 6460 cabc
000000c0: e068 8abb 6c48 57bd fa87 48bd 7832 61bc
000000d0: 0a5f 08bd 5aa4 76bd 14fe ce3c ec31 bdbc
000000e0: 404e 943b 14ea 8dbc 4019 013b c082 1e3d
000000f0: c86a 5fbd 60fa 4ebb 4c29 21bd c6a2 66bd
00000100: b869 053c de1e 7abd e0b7 823b b2ea 6d3d
00000110: 028f 45bd ae2a 04bd 0433 e43c ac2b 083d
00000120: ac20 0cbd 2e14 3abd 0098 e9bb be01 5dbd
00000130: 5a60 683d 92ae 0a3d 4056 0c3b 1400 c03c
00000140: b0c3 be3b 2876 50bd 18c5 323c 406d 133b
00000150: f026 15bd 80e8 73bd 70dc 3c3d 80bb 84bc
00000160: 3633 7e3d ee52 5f3d e822 8abc 6006 5bbd
00000170: 3cd4 6cbd 18b7 993c 3255 403d 3068 423d
00000180: 325c 383d 0810 603c a0ba 10bc 0ea1 06bd
00000190: 6eaf 1b3d 5270 4bbd c023 36bd be54 1dbd
000001a0: 60dd a93c 60ed a23c 886e fe3c b015 1b3c
000001b0: baaa 4e3d 0add 573d 3cb4 b23c d6cd 653d
000001c0: dc08 e2bc e622 6dbd ca33 333d e04c d5bb
000001d0: 7a25 61bd 5caf 5c3d 483a 64bc 84cf 1ebd
000001e0: 60e6 a9bc 2065 883c 90c9 5dbc d0f0 f83b
000001f0: 00f1 b1bc 8436 ee3c a03f c93c 1cb3 a33c
00000200: 9255 203d b4eb 673d 0abd 7d3d 0099 5aba
00000210: 88f7 14bc 1a98 0fbd 604c eabc 2afa 043d
00000220: ea49 02bd 88b4 6e3d 9634 35bd 4487 483d
00000230: b880 c5bc 00b8 23bc 84b6 753d 06e2 35bd
00000240: 1c3f cebc 945e a1bc 78cc 13bd a896 7abc
00000250: b0c2 f6bb 6844 2f3c dae0 0d3d 6cd6 d7bc
00000260: 62c8 24bd 90fa 96bc e6bf 30bd b06f 723c
00000270: c08b 59bd a058 0bbd 4e53 3bbd 00bc 243d
00000280: cce5 c6bc d499 76bd 5aa1 23bd 6060 b83c
00000290: 902e 9b3b c242 34bd d681 40bd bc69 673d
000002a0: 9480 56bd c287 7abd 44ba c03c 20d6 503b
000002b0: beb7 193d 5058 a83b 6459 74bd 88b3 44bd
000002c0: ec8e 37bd 40b8 0dbc 7254 2dbd 4039 e23a
000002d0: 20d2 ce3c 541a 823c 90d6 4bbc 3c88 75bd
000002e0: 0c19 05bd 00b1 adbb 8403 13bd 001e 77bc
000002f0: a0a4 d63c 72ec 69bd 7cb0 24bd b2f5 113d
00000300: b012 b2bb 8824 97bc 04da ad3c c80e 153c
00000310: 789b d73c c6df 003d 807a 5bbd 9cc8 73bd
00000320: 48b6 7bbd e0c8 c7bc 50f8 f6bc 182a 163d
00000330: 086b 35bc 8a16 7d3d 98a1 58bc a254 1dbd
00000340: 04a7 2e3d 24cc 9ebc 5caa 5cbd baa8 15bd
00000350: 00a2 42bb b8bc f43c 20bd 0ebb cc3c d9bc
00000360: 28d0 573d 3c37 c73c 40b0 143b ea00 47bd
00000370: e8fa 78bc 008a 623d 90a6 4f3d dc79 7e3d
00000380: 8253 3fbd 46ef 42bd 50e0 afbc bcc2 583d
00000390: 604c 03bd a018 cf3c 00f5 c53b 9c99 a53c
000003a0: 6030 7ebb fafc 4a3d cada 15bd 4c9d 763d
000003b0: 9c78 9bbc 84e2 b43c 6c45 87bc 882a 0f3d
000003c0: 9ce2 3dbd d27d 16bd 0043 0a3b 0cfe 8dbc
000003d0: 281b d2bc b814 39bc ea0a 503d 2819 0abc
000003e0: e41e 9a3c 0615 3f3d f03c b7bc ac52 af3c
000003f0: 2caa 103d 1080 7f3c 28db 383d 40c6 793c

fc1.bias f4 [256]
-0.025069341 0.06306169 0.04507076 -0.02253123 -0.04600213 0.014557609 0.040664267 0.013329192
0.017720401 0.060352378 0.016365591 0.054640256 0.032106094 0.046728216 0.047876447 0.0028407716
0.04573618 0.028962044 0.027770672 0.018682888 -0.023536734 -0.004495583 0.01522221 -0.0373718
-0.058614902 -0.030495286 0.06072928 -0.01299225 -0.05105394 -0.04523201 0.04789898 0.021176277
0.025071338 -0.040735513 0.03898023 -0.037751496 0.046251 0.027927548 -0.00026229175 0.053023435
0.021789242 -0.0042216945 0.010459259 0.0066483887 -0.032500364 0.05856697 -0.010477714 0.039173607
0.03582661 -0.013033629 0.032976873 -0.06690911 -0.03277521 -0.024597777 -0.054681566 -0.0125248665
-0.009628063 -0.015155233 -0.03149269 0.05563196 0.018708732 0.029625138 -0.026307093 0.032233573
0.06456865 0.014088011 -0.008226155 0.01805796 0.010302296 0.026817814 0.03518052 0.0316636
0.0059991353 -0.036412712 -0.028571934 0.018678946 0.0127334185 -0.030755632 0.057877243 -0.062188543
-0.034682997 -0.011661291 -0.013794944 0.029575774 0.0192237 0.056558833 0.027383933 0.02531824
0.043569583 -0.031659026 -0.028499557 -0.00024235995 -0.009777549 0.02723024 0.038056344 0.030583253
-0.057018295 -0.049484856 -0.024561865 -0.010655431 0.03447044 -0.03227547 -0.030624798 0.0552773
0.023215933 0.0518889 0.0022743451 0.05441759 -0.0056947265 0.038978055 0.04770471 0.042422693
-0.059210062 -0.040655956 -0.03004682 0.054322507 0.06778533 0.0054697464 -0.022434454 -0.018348046
-0.017029898 -0.05111577 -0.016211277 0.027076319 -0.05127253 -0.028741052 -1.1831507e-05 -0.056075364
0.03671617 0.00900893 0.039428286 0.05952751 0.037889086 -0.011089928 0.03531973 -0.050667197
-0.05941753 -0.016550418 0.028664777 0.052792687 -0.009367217 0.0029513855 0.029702503 0.04023386
0.028777132 0.04120058 -0.012395053 0.029260768 0.0023917155 0.050516438 -0.03299515 0.023582133
0.006777904 -0.053456027 -0.03280185 -0.019695248 -0.024263516 0.03242939 0.06462503 -0.010985566
-0.043496165 -0.035298962 0.062321052 -0.05066898 0.03336505 0.024353702 -0.047967855 -0.014736689
-0.051115204 -0.025530607 0.0065511595 -0.017109815 0.025738193 -0.007076409 0.004133381 -0.039409988
-0.0081130825 0.015484565 -0.0071987333 -0.002411981 -0.0021299396 -0.039959423 0.041043963 0.005122301
-0.0017475411 0.0432872 0.05143303 0.04197157 -0.026039379 0.039857347 0.040669065 -0.05138786
0.033165723 0.029976465 -0.003898725 0.029904319 -0.05280684 0.042873506 -0.017331064 0.027258126
0.031731427 -0.037227176 0.02126407 -0.012315765 0.009531393 0.029398607 -0.019184537 -0.01844086
0.053764563 -0.004058638 -0.026945643 -0.053478185 -0.03945351 -0.01837984 0.0004240475 0.007281727
-0.050551865 0.024280082 0.017127514 -0.0017134567 -0.01222045 0.045419693 0.032748837 -0.0052920715
0.058705475 0.039276175 -0.050944477 0.05349446 -0.0312583 0.04694022 -0.013169466 0.015483956
-0.0136690745 0.061736844 -0.031692155 -0.040776283 0.0073354095 -0.01069838 -0.03492495 -0.049506042
-0.044857666 -0.016524388 -0.010571325 -0.019603591 0.012304591 0.04343778 0.018838098 -0.025848543
0.060562298 -0.021960666 -0.040453594 -0.05314169 -0.059985533 -0.040525522 -0.040297087 -0.0070525925
00000000: 385e cdbc 7d26 813d 1e9c 383d 6a93 b8bc
00000010: bb6c 3cbd 0a83 6e3c 938f 263d af62 5a3c
00000020: 602a 913c 0e34 773d 2211 863c 76ce 5f3d
00000030: ae81 033d 1666 3f3d 181a 443d 3d2c 3a3b
00000040: dc55 3b3d cf41 ed3c 527f e33c db0c 993c
00000050: 1cd0 c0bc af4f 93bb 9466 793c 2c13 19bd
00000060: 2e16 70bd 40d1 f9bc 44bf 783d 72dd 54bc
00000070: f01d 51bd 3345 39bd b931 443d df79 ad3c
00000080: 6862 cd3c 48da 26bd bca9 1f3d 50a1 1abd
00000090: b071 3d3d 50c8 e43c 3484 89b9 1a2f 593d
000000a0: 5a7f b23c 2456 8abb 505d 2b3c bada d93b
000000b0: 1a1f 05bd ebe3 6f3d b8aa 2bbc 8174 203d
000000c0: ecbe 123d 018b 55bc c212 073d a507 89bd
000000d0: 4c3f 06bd 4781 c9bc c7f9 5fbd 1935 4dbc
000000e0: 06bf 1dbc a84d 78bc 7bfe 00bd 57de 633d
000000f0: 0e43 993c 6bb0 f23c f981 d7bc 5a07 043d
00000100: 923c 843d 67d1 663c ffc6 06bc 49ee 933c
00000110: f6ca 283c 08b1 db3c 7319 103d b1b1 013d
00000120: 6594 c43b 7f25 15bd b00f eabc 9704 993c
00000130: d49f 503c 3cf3 fbbc b010 6d3d 6ab9 7ebd
00000140: c20f 0ebd 000f 3fbc 3004 62bc e548 f23c
00000150: 057b 9d3c 3caa 673d 4554 e03c 3368 cf3c
00000160: 0576 323d e5ac 01bd e777 e9bc 0122 7eb9
00000170: 0332 20bc f411 df3c f8e0 1b3d bb89 fa3c
00000180: 048c 69bd a2b0 4abd f735 c9bc 1e94 2ebc
00000190: e030 0d3d 4933 04bd dbe0 fabc 736a 623d
000001a0: 572f be3c 7589 543d 2e0d 153b fbe4 5e3d
000001b0: d49a babb 74a7 1f3d 0466 433d 6bc3 2d3d
000001c0: 4086 72bd dc86 26bd c024 f6bc 4781 5e3d
000001d0: 09d3 8a3d 8f3b b33b 76c8 b7bc a44e 96bc
000001e0: 4982 8bbc c55e 51bd 83cd 84bc 28cf dd3c
000001f0: 2503 52bd 5b72 ebbc f07f 46b7 48af 65bd
00000200: b263 163d 319a 133c 8e7f 213d 1ed3 733d
00000210: 9631 1b3d 88b2 35bc 6cab 103d 6888 4fbd
00000220: cc5f 73bd be94 87bc 65d2 ea3c 253d 583d
00000230: f578 19bc 086c 413b aa52 f33c 43cc 243d
00000240: 05be eb3c f0c1 283d 9f14 4bbc 47b4 ef3c
00000250: 54be 1c3b 53ea 4e3d ec25 07bd 512f c13c
00000260: 2e19 de3b b5f4 5abd 3c5b 06bd ee57 a1bc
00000270: 48c4 c6bc aed4 043d 215a 843d cefc 33bc
00000280: 0929 32bd a595 10bd 5c44 7f3d 478a 4fbd
00000290: caa9 083d 6a81 c73c f179 44bd 2772 71bc
000002a0: 2d5e 51bd 9025 d1bc 1cab d63b e229 8cbc
000002b0: e7d8 d23c 39e1 e7bb 5071 873b 5e6c 21bd
000002c0: bcec 04bc f9b2 7d3c 5ae3 ebbb 5412 1ebb
000002d0: 7596 0bbb 7eac 23bd b71d 283d fad8 a73b
000002e0: c00d e5ba eb4d 313d 71ab 523d 62ea 2b3d
000002f0: 8950 d5bc 7541 233d 9b94 263d 147c 52bd
00000300: c8d8 073d 3491 f53c c081 7fbb e7f9 f43c
00000310: fc4b 58bd 219c 2f3d e0f9 8dbc 6f4c df3c
00000320: d0f8 013d 867b 18bd fd31 ae3c 10c8 49bc
00000330: 8f29 1c3c 59d5 f03c e428 9dbc 4911 97bc
00000340: 3b38 5c3d 53fe 84bb 1cbd dcbc f10b 5bbd
00000350: 019a 21bd 5191 96bc b152 de39 8e9b ee3b
00000360: 790f 4fbd 06e7 c63c 004f 8c3c 1196 e0ba
00000370: 4838 48bc 000a 3a3d a523 063d 1d69 adbb
00000380: 2775 703d 0ee0 203d 28ab 50bd 021d 5b3d
00000390: b408 00bd 6344 403d bec4 57bc 6bb0 7d3c
000003a0: 41f4 5fbc c6df 7c3d a2cf 01bd 0805 27bd
000003b0: e05d f03b 4248 2fbc 770d 0fbd d9c6 4abd
000003c0: acbc 37bd 275e 87bc 5a33 2dbc b697 a0bc
000003d0: 3299 493c d0eb 313d 5b52 9a3c 53c0 d3bc
000003e0: 2c10 783d dbe6 b3bc abb2 25bd 1aab 59bd
000003f0: 64b3 75bd 17fe 25bd 8f0e 25bd 6f19 e7bb

fc2.weight f4 [128, 256]
-0.029600702 0.0028740012 0.05194956 0.06526106 -0.016396996 0.032518614 -0.02465097 -0.012437888
0.0057942993 0.049252577 -0.025110094 0.009243852 0.06866107 0.038730208 0.043444205 -0.035933096
0.053271055 0.030340223 -0.009697178 0.06301433 0.04921282 0.046614714 -0.0009877016 -0.00058691204
-0.059947 0.042515926 -0.007550761 0.012602707 0.0049801194 -0.05305308 -0.029620266 0.022910848
-0.016516637 -0.015571235 0.050825875 -0.049885154 -0.025352992 0.0060975547 0.027767992 0.062439088
-0.019056749 0.0074992855 0.047899615 0.019021304 -0.044503547 0.045520883 0.034196623 0.00768283
0.0135886865 0.04092428 0.066923715 -0.054427035 -0.015334402 -0.05513644 0.0008743363 0.030352531
0.057928022 -0.02868741 0.021099363 -0.015941406 0.002798255 0.06581246 0.013183656 -0.023328595
-0.049550943 0.06203468 -0.017609736 -0.0038493169 0.057021193 -0.0015316736 -0.043322567 -0.051225547
0.06963909 0.012628708 -0.035841517 0.04185502 0.03402318 -0.04469741 0.008420892 0.010342814
-0.012520303 0.042421 0.05305144 0.05233451 -0.03510504 0.06685526 0.0191787 0.032273754
-0.0139428675 0.020915614 0.0018541261 -0.007448882 0.033704024 0.025850642 0.047457326 0.05328336
-0.05073215 0.046646126 -0.0332885 0.01992153 0.0102334535 0.02058037 -0.01420191 -0.016977182
0.027933294 0.05108049 0.0472777 0.029923817 -0.047704045 -0.017951684 -0.0018478781 0.042401027
0.030949801 0.041951817 -0.062196724 -0.04261197 -0.028927414 -0.031443678 0.015582396 0.051319297
-0.036743566 -0.043108977 0.06643044 0.00053691544 -0.048121467 0.03246098 -0.03732293 0.028378585
0.01192037 0.03612913 -0.04244322 -0.05157103 0.022867208 0.048171036 -0.04096728 0.058726676
-0.022971787 -0.044866618 -0.028430166 -0.006457096 0.035323203 -0.0039026143 -0.05395382 -0.03317239
-0.04547554 0.024824778 0.012772734 0.059480466 -0.024668291 0.04054329 -0.0015830814 0.012169425
0.0573331 -0.016547905 -0.020634972 -0.039281968 0.055408306 0.019239428 0.06798243 0.030649243
0.05111887 0.007551777 0.045257088 -0.030702012 0.054895863 -0.038860515 0.022198135 0.055883758
-0.015045058 -0.008760655 0.032737616 0.048475727 0.013672789 0.04056118 0.05704354 0.015996821
-0.0075758384 -0.048404116 0.010691641 0.03308959 -0.026939716 -0.04884915 -0.040889807 0.050771672
-0.05284573 -0.054907046 0.05725246 -0.0024179912 0.040836148 0.0015174133 0.0058914097 0.01353086
0.0075017978 0.055254467 -0.039709046 0.040525004 -0.0040333355 0.029646736 0.020763611 0.06629972
-0.0102396095 0.03021629 -0.014244437 -0.022779899 -0.041327193 -0.00803146 0.0624969 0.038791846
0.065766044 0.03828647 0.038245324 0.043613695 -0.012670167 -0.021281812 0.056133594 -0.05196143
0.008692505 0.040855806 0.017518224 -0.011015293 0.04187426 0.05965815 0.016224323 -0.045388598
-0.020277565 0.027351791 0.03135278 0.06287499 -0.036894985 0.02390863 0.015099019 0.03661393
0.020679532 -0.02717337 0.044090636 -0.058891486 0.018325113 -0.05222691 0.04273725 -0.029125841
0.06684865 -0.026100166 0.016074214 0.049684722 -0.018249676 -0.027117716 0.036150474 0.05603003
-0.051738556 -0.05176443 0.016452912 0.01756794 0.060877368 0.036229983 0.036123373 0.015584231
00000000: 2c7d f2bc bd59 3c3b 10c9 543d 97a7 853d
00000010: fe52 86bc 3d32 053d d5f0 c9bc 49c8 4bbc
00000020: 1bde bd3b 12bd 493d afb3 cdbc 8773 173c
00000030: 2d9e 8c3d 91a3 1e3d 8df2 313d 952e 13bd
00000040: c032 5a3d 0f8c f83c eae0 1ebc a80d 813d
00000050: 6293 493d 12ef 3e3d c475 81ba 00db 19ba
00000060: fc8a 75bd 2e25 2e3d 606c f7bb 967b 4e3c
00000070: 4530 a33b 304e 59bd 33a6 f2bc 88af bb3c
00000080: e64d 87bc 7e1e 7fbc cb2e 503d 6054 4cbd
00000090: 14b1 cfbc ffcd c73b b379 e33c 21c0 7f3d
000000a0: e61c 9cbc 91bc f53b 6332 443d 91d2 9b3c
000000b0: 5a49 36bd 1b74 3a3d c211 0c3d 40c0 fb3b
000000c0: 15a3 5e3c 38a0 273d 4d0f 893d e2ee 5ebd
000000d0: 253d 7bbc bfd6 61bd b733 653a dfa5 f83c
000000e0: ef45 6d3d dc01 ebbc 92d8 ac3c 8d97 82bc
000000f0: ee62 373b afc8 863d 4300 583c 9c1b bfbc
00000100: eef5 4abd 1418 7e3d 4b42 90bc d244 7cbb
00000110: 0e8f 693d 70c2 c8ba 0173 31bd e1d1 51bd
00000120: f09e 8e3d a4e8 4e3c 8ece 12bd 2b70 2b3d
00000130: e45b 0b3d a214 37bd c8f7 093c e874 293c
00000140: f521 4dbc a4c1 2d3d 774c 593d b65c 563d
00000150: 4dca 0fbd 69eb 883d a61c 9d3c 7c31 043d
00000160: a070 64bc 3957 ab3c 2606 f33a c015 f4bb
00000170: 3b0d 0a3d bac4 d33c 9d62 423d a73f 5a3d
00000180: 84cc 4fbd 0210 3f3d 8659 08bd 7a32 a33c
00000190: 37aa 273c 2a98 a83c 21af 68bc bb13 8bbc
000001a0: 5dd4 e43c c739 513d 43a6 413d cb22 f53c
000001b0: 5165 43bd 690f 93bc 8034 f2ba b3ac 2d3d
000001c0: 708a fd3c abd5 2b3d fec1 7ebd e489 2ebd
000001d0: 2ff9 ecbc 16cb 00bd 4e4d 7f3c 2f34 523d
000001e0: 6c80 16bd 0a93 30bd af0c 883d c9bf 0c3a
000001f0: 041b 45bd cef5 043d eedf 18bd 357a e83c
00000200: a84d 433c 23fc 133d f1d8 2dbd 253c 53bd
00000210: 0354 bb3c fe4e 453d 4ecd 27bd 628b 703d
00000220: 542f bcbc 0fc6 37bd 61e6 e8bc 0c96 d3bb
00000230: 10af 103d 01c3 7fbb aefe 5cbd c6df 07bd
00000240: 8f44 3abd 555d cb3c bb44 513c caa1 733d
00000250: 2815 cabc b910 263d 667f cfba 4562 473c
00000260: 1dd6 6a3d 798f 87bc ac0a a9bc 21e6 20bd
00000270: d2f3 623d 019c 9d3c 5f3a 8b3d 1f14 fb3c
00000280: 0562 513d e674 f73b 7f5f 393d c982 fbbc
00000290: 7cda 603d 342c 1fbd ddd8 b53c 5ee6 643d
000002a0: 8c7f 76bc da88 0fbc e117 063d 7c8e 463d
000002b0: d503 603c 7b23 263d 7da6 693d c40b 833c
000002c0: bd3e f8bb 6543 46bd fe2b 2f3c f388 073d
000002d0: aeb0 dcbc 0c16 48bd 127c 27bd f5f5 4f3d
000002e0: c474 58bd 36e6 60bd 8e81 6a3d 2977 1ebb
000002f0: ce43 273d f1e3 c63a ba0c c13b 8ab0 5d3c
00000300: a4d1 f53b 8252 623d f4a5 22bd 8cfd 253d
00000310: 122a 84bb b6dd f23c 7318 aa3c 26c8 873d
00000320: 09c4 27bc 2788 f73c 8061 69bc e99c babc
00000330: b446 29bd 6396 03bc c0fc 7f3d 33e4 1e3d
00000340: 59b0 863d 46d2 1c3d 21a7 1c3d 46a4 323d
00000350: 8896 4fbc 3257 aebc 57ec 653d 82d5 54bd
00000360: 026b 0e3c 6b58 273d 6182 8f3c 7d79 34bc
00000370: 5884 2b3d 1b5c 743d dfe8 843c 65e9 39bd
00000380: 231d a6bc dd10 e03c c66b 003d 9ac4 803d
00000390: 321f 17bd 08dc c33c e061 773c 7df8 153d
000003a0: 1f68 a93c b09a debc 6298 343d 3338 71bd
000003b0: 8c1e 963c e2eb 55bd 410d 2f3d 5199 eebc
000003c0: f2e7 883d 04d0 d5bc 12ae 833c 3582 4b3d
000003d0: 5880 95bc f925 debc 8512 143d bf7f 653d
000003e0: cfeb 53bd f006 54bd 42c8 863c a4ea 8f3c
000003f0: 8c5a 793d e465 143d 1af6 133d 0155 7f3c

fc2.bias f4 [128]
0.010516637 0.016941793 -0.03348093 -0.039080277 -0.031202512 0.004774804 0.04223971 0.02707235
0.061969385 0.051192116 -0.031593632 0.07003337 -0.046191785 0.007632991 -0.045529716 0.0024840515
0.04479215 0.014732291 0.058115892 0.00010582149 -0.034501437 -0.03581685 0.05096017 0.029104596
-0.045101516 0.009661836 -0.0552412 0.044321585 0.013639912 0.04301549 -0.0632484 0.012094131
0.00819383 -0.042904217 -0.016226057 0.016173542 -0.026155978 0.0413862 -0.05404177 0.030459376
0.04468857 -0.05642075 0.05517207 0.046469126 -0.0082893 -0.038543835 -0.008530555 0.0053854743
-0.03755831 -0.005686846 -0.035407044 -0.043541264 -0.029120242 0.014752987 0.028847795 -0.009728394
0.030696984 0.00037615816 -0.041484646 0.009415634 0.020556137 0.0060163466 0.011699687 -0.051864713
0.038374037 0.021766344 -0.018059358 0.008548289 0.043896437 0.054663286 0.04146508 0.05990154
0.044351753 -0.02403896 0.0047577997 -0.016630389 0.06852799 -0.019132806 0.00040785395 0.013807802
0.029870594 -0.052487332 -0.032983415 -0.018583791 0.034526836 -0.03942441 -0.0486867 -0.04455567
-0.003082287 -0.036407653 0.046592172 -0.037880376 -0.0401479 -0.009214151 0.020644328 -0.014761529
0.03640572 0.02216936 0.025677515 0.046100292 -0.039929435 0.030101707 -0.01238582 0.039456416
-0.05130957 -0.021218065 0.049532928 -0.0068232105 -0.045972165 -0.05252206 0.050608672 0.025440324
0.007881657 -0.020521095 0.055824786 -0.027221061 0.012812122 0.03686673 0.009344157 0.023689663
-0.011418661 0.048959717 -0.04813705 0.013598738 -0.002780118 -0.059340864 0.035058543 -0.053340036
00000000: f94d 2c3c 84c9 8a3c 4d23 09bd a412 20bd
00000010: 699c ffbc f675 9c3b 8c03 2d3d d5c6 dd3c
00000020: 9cd3 7d3d d3ae 513d 5368 01bd a86d 8f3d
00000030: 9933 3dbd 2b1e fa3b 5e7d 3abd 78cb 223b
00000040: f977 373d b55f 713c ee0a 6e3d 7bec dd38
00000050: 6151 0dbd b0b4 12bd 9cbb 503d c36c ee3c
00000060: 5ebc 38bd ad4c 1e3c 9944 62bd 8d8a 353d
00000070: f079 5f3c 0331 303d 6188 81bd 7626 463c
00000080: 6a3f 063c 55bc 2fbd 82ec 84bc 607e 843c
00000090: 1045 d6bc 9384 293d e75a 5dbd f185 f93c
000000a0: 5d0b 373d 7219 67bd 1cfc 613d 6956 3e3d
000000b0: d8cf 07bc 24e0 1dbd bec3 0bbc a278 b03b
000000c0: bed6 19bd b958 babb fa06 11bd 5358 32bd
000000d0: 938d eebc 83b6 713c 3652 ec3c d863 1fbc
000000e0: 3e78 fb3c 1837 c539 ceeb 29bd 0844 1a3c
000000f0: 5865 a83c c624 c53b 0bb0 3f3c 1870 54bd
00000100: 182e 1d3d 554f b23c 38f1 93bc 1f0e 0c3c
00000110: c0cc 333d 9ce6 5f3d 4ad7 293d 515b 753d
00000120: 2faa 353d 5aed c4bc 51e7 9b3b 743c 88bc
00000130: 6758 8c3d 67bc 9cbc 3bd5 d539 1f3a 623c
00000140: 2db3 f43c f5fc 56bd 9e19 07bd 093d 98bc
00000150: 036c 0d3d 7d7b 21bd b56b 47bd 0280 36bd
00000160: 3200 4abb 3120 15bd 6fd7 3e3d 7428 1bbd
00000170: 2072 24bd f3f6 16bc 4b1e a93c 57da 71bc
00000180: 2a1e 153d 859c b53c a759 d23c a9d3 3c3d
00000190: 0c8d 23bd db97 f63c e5ed 4abc 0d9d 213d
000001a0: fc29 52bd 82d1 adbc 0ae3 4a3d 3d95 dfbb
000001b0: 4f4d 3cbd 5f21 57bd 0a4b 4f3d 3a68 d03c
000001c0: 1122 013c db1b a8bc 88a8 643d b4fe debc
000001d0: efe9 513c 9101 173d 3c18 193c d310 c23c
000001e0: 5615 3bbc fc89 483d 5b2b 45bd 3ecd 5e3c
000001f0: a432 36bb 680f 73bd 8c99 0f3d 157b 5abd

actor.weight f4 [4, 128]
-0.019577967 -0.022707982 -0.059853453 -0.07990407 0.061096713 -0.07432916 0.072730504 -0.042619318
0.0064374115 -0.07975014 -0.005737387 -0.0075400546 -0.016826186 -0.0060173157 -0.0755341 -0.029999774
0.006498027 0.030239645 -0.04184562 -0.030197777 0.054344237 -0.0055710967 -0.027163783 0.043411393
-0.042100538 0.027006814 0.04872042 -0.003456561 0.08088906 0.057761874 -0.020435218 0.039863065
0.048559193 -0.046286598 0.06546931 -0.0024140135 -0.07071856 0.058227487 0.019312758 0.07398308
-0.08075941 -0.093843125 -0.081224844 0.069707684 -0.004579466 -0.019925555 0.062441505 -0.050872594
-0.07596007 0.04845744 0.027609563 -0.00506444 -0.034880165 0.055366375 0.060840666 -0.084459506
0.080097474 0.050771005 0.06299812 0.014376996 -0.031716395 0.00056939904 0.06557072 -0.034794882
0.05474099 0.06454781 -0.08249821 -0.034293033 -0.026452374 -0.056551684 0.038147002 -0.03234354
-0.011426599 0.060475223 0.059592318 -0.026276905 -0.08011807 -0.036940217 -0.00904771 0.07427926
-0.049072254 -0.036120836 0.0956978 -0.082163915 -0.0024279796 0.06671965 0.034193143 0.00893588
-0.041721385 0.06664328 -0.045414187 -0.05790797 -0.018429415 -0.00403999 0.060112167 -0.07582914
-0.0792726 0.009150019 -0.035733663 0.03830232 0.06668893 0.02058695 0.053890597 0.03108762
0.07856722 0.010145232 0.0019500682 -0.07479064 0.08011625 0.08218863 0.06983111 0.08260364
0.03567077 0.0027365559 -0.017221153 0.010272982 0.08212021 -0.038044948 -0.07571185 -0.048282214
0.029086357 -0.013020688 -0.023199297 -0.06717227 -0.020179866 0.023587134 0.05623385 0.08900303
-0.07105115 -0.063926004 -0.014871261 0.085516214 0.025599059 -0.00925545 0.08003542 0.031506114
-0.04536782 0.032710996 -0.030436097 -0.0808347 -0.07292107 0.049958844 0.01505523 0.06129819
0.047713164 -0.010890338 0.071198 -0.010821704 -0.0008154002 -0.030297661 -0.07711634 -0.066938035
0.07002605 -0.031706195 -0.021097725 -0.04187468 -0.038263958 0.019627837 -0.010642675 -0.08809137
0.027743924 -0.055348013 -0.020224323 -0.022134008 0.0067213895 -0.01907056 0.07725974 0.033111114
-0.012372455 0.02241424 -0.05858445 -0.07109675 0.05944722 0.035282824 -0.034040824 0.08570798
-0.066675164 -0.031418554 0.005554004 -0.05261404 0.039476313 0.025003279 -0.044490214 -0.025024518
-0.012758232 -0.008147201 -0.03442997 0.007276822 -0.042357538 -0.089125626 0.039256047 -0.06110915
-0.083571464 -0.016131595 0.017016115 -0.05675338 0.038422994 -0.047784608 0.044898417 -0.054988645
0.08077214 -0.06322669 0.024766304 0.019008113 -1.1686934e-05 0.04543491 -0.018588848 -0.023884574
0.08672507 0.014034842 -0.0014339058 -0.08454352 0.08187026 -0.019918514 -0.0007571395 0.06898357
-0.0114498865 -0.05268533 -0.08848563 0.08309602 0.07522777 0.012311576 0.04540508 -0.05423717
0.007186927 0.069878004 0.035615098 -0.06138646 -0.022503035 0.014931461 0.061165553 -0.075636424
-0.07684079 -0.033926964 0.04719931 -0.07554512 0.029860906 -0.060161613 -0.0051115886 -0.077442594
0.013828548 -0.08017161 -0.06722607 -0.041819707 -0.021479174 -0.0045813057 0.04879039 -0.006640826
-0.042583667 -0.035170555 -0.06756482 -0.005733413 0.03510049 0.030143712 0.049898036 -0.033412937
00000000: f961 a0bc 1706 babc e528 75bd bfa4 a3bd
00000010: 8c40 7a3d e339 98bd bbf3 943d 9891 2ebd
00000020: ecf0 d23b 0b54 a3bd b100 bcbb 9012 f7bb
00000030: 12d7 89bc e72c c5bb 9fb1 9abd 16c2 f5bc
00000040: 67ed d43b 22b9 f73c 5066 2bbd 5461 f7bc
00000050: 1098 5e3d bf8d b6bb 9586 debc 25d0 313d
00000060: 9d71 2cbd 653d dd3c 108f 473d 7887 62bb
00000070: 2aa9 a53d b797 6c3d c267 a7bc 7447 233d
00000080: 01e6 463d 0497 3dbd c614 863d 6d34 1ebb
00000090: e4d4 90bd f27f 6e3d ca35 9e3c 7184 973d
000000a0: 3165 a5bd d330 c0bd 3659 a6bd e7c2 8e3d
000000b0: 580f 96bb eb3a a3bc aac2 7f3d c85f 50bd
000000c0: f490 9bbd 4f7b 463d 732d e23c 9af3 a5bb
000000d0: 81de 0ebd dac7 623d 1034 793d 1bf9 acbd
000000e0: 250a a43d 42f5 4f3d 2905 813d 7e8d 6b3c
000000f0: 0de9 01bd b943 153a f149 863d 1485 0ebd
00000100: 1738 603d a431 843d d2f4 a8bd da76 0cbd
00000110: a6b2 d8bc bda2 67bd 0840 1c3d a97a 04bd
00000120: a136 3bbc deb4 773d 1317 743d aa42 d7bc
00000130: f114 a4bd a04e 17bd d93c 14bc ba1f 983d
00000140: fdff 48bd 71f3 13bd 35fd c33d 8e45 a8bd
00000150: bd1e 1fbb 50a4 883d 1c0e 0c3d cc67 123c
00000160: 0be4 2abd 467c 883d 3a04 3abd e830 6dbd
00000170: 49f9 96bc e461 84bb 2d38 763d 4f4c 9bbd
00000180: ac59 a2bd f6e9 153c 765d 12bd e5e2 1c3d
00000190: 3594 883d f7a5 a83c 63bc 5c3d 77ab fe3c
000001a0: dae7 a03d 3038 263c 6e99 ff3a d62b 99bd
000001b0: fd13 a43d 8352 a83d 9d03 8f3d 192c a93d
000001c0: 831b 123d ca57 333b 6013 8dbc 0250 283c
000001d0: a42e a83d 05d5 1bbd d00e 9bbd 92c3 45bd
000001e0: 8346 ee3c b954 55bc 740c bebc 9d91 89bd
000001f0: 3f50 a5bc ce39 c13c 7755 663d 3847 b63d
00000200: 4483 91bd a3eb 82bd 97a6 73bc 2023 af3d
00000210: 1eb5 d13c 2ca4 17bc 9ce9 a33d 8e0c 013d
00000220: 9bd3 39bd f7fb 053d 1f55 f9bc aa8c a5bd
00000230: a457 95bd a5a1 4c3d 36aa 763c d013 7b3d
00000240: e16e 433d 636d 32bc 42d0 913d 844d 31bc
00000250: 95c0 55ba cd32 f8bc 2cef 9dbd cf16 89bd
00000260: d169 8f3d 5bde 01bd 23d5 acbc c984 2bbd
00000270: abba 1cbd 8fca a03c 9d5e 2ebc 4069 b4bd
00000280: 3a47 e33c 99b4 62bd 7bad a5bc 6152 b5bc
00000290: 1a3f dc3b dd39 9cbc 5b3a 9e3d 859f 073d
000002a0: d6b5 4abc 119e b73c 40f6 6fbd 2c9b 91bd
000002b0: ee7e 733d b984 103d 646e 0bbd aa87 af3d
000002c0: fd8c 88bd beb0 00bd 5dfe b53b d281 57bd
000002d0: eab1 213d add3 cc3c 5f3b 36bd 3800 cdbc
000002e0: e707 51bc d67b 05bc 7106 0dbd 6872 ee3b
000002f0: 197f 2dbd 7f87 b6bd f3ca 203d 974d 7abd
00000300: 8427 abbd 6826 84bc 6165 8b3c 3b76 68bd
00000310: 6e61 1d3d cbb9 43bd 67e7 373d c63b 61bd
00000320: dd6b a53d ff7c 81bd b4e2 ca3c e7b6 9b3c
00000330: 0013 44b7 f519 3a3d a447 98bc 95a9 c3bc
00000340: ea9c b13d 65f2 653c e5f1 bbba 2725 adbd
00000350: 98ab a73d 272c a3bc c67a 46ba 4247 8d3d
00000360: 4e98 3bbc 93cc 57bd f437 b5bd 3f2e aa3d
00000370: 0411 9a3d 7eb6 493c adfa 393d cb27 5ebd
00000380: 5080 eb3b 331c 8f3d 23e1 113d 5e70 7bbd
00000390: 4958 b8bc 16a3 743c bb88 7a3d 45e7 9abd
000003a0: b45e 9dbd 00f7 0abd 1054 413d 66b7 9abd
000003b0: dc9e f43c 066c 76bd 1d7f a7bb 399a 9ebd
000003c0: 2291 623c 0331 a4bd d2ad 89bd 244b 2bbd
000003d0: 18f5 afbc c71e 96bb 6fd8 473d 499b d9bb
000003e0: 366c 2ebd 000f 10bd 6d5f 8abd 5bdf bbbb
000003f0: 88c5 0f3d f2ef f63c e261 4c3d 01dc 08bd

actor.bias f4 [4]
-0.071944855 -0.011863832 0.066974275 -0.06386237
00000000: d357 93bd 8560 42bc cf29 893d 46ca 82bd

critic.weight f4 [1, 128]
0.013736241 0.0039179684 0.047914654 -0.069680035 -0.037036464 0.034149293 -0.034323867 -0.015275483
0.06594703 0.054888695 0.04327715 0.016346248 -0.07765657 -0.025622074 -0.047684576 -0.08408622
-0.012119513 -0.028260995 0.09473979 -0.03752171 0.045551445 -0.033218566 -0.068739906 -0.015015781
-0.011314595 -0.0048709097 -0.08127255 -0.062029622 -0.009498138 0.040240504 -0.02372462 0.0669954
0.043739643 0.07209994 -0.036572233 0.05530598 -0.04723727 -0.06923354 -0.020933421 -0.06777619
0.07316601 -0.08024799 -0.039099358 -0.023943232 -0.039043292 0.020649385 0.062305387 0.052507926
-0.04459086 0.034190822 0.02074207 -0.06965551 -0.0107422015 0.09479255 0.056715358 -0.043582533
0.08621103 -0.009770699 0.04455514 0.033311225 0.035500675 -0.0637283 0.09262361 -0.012504661
0.015125127 -0.07282765 0.05448285 -0.07689046 -0.022186562 0.011779957 0.015144075 0.04743457
0.05444621 -0.07949486 0.06272819 -0.0633123 0.05169672 0.0901722 -0.017393067 0.076890394
-0.05892173 0.0034640164 -2.4002133e-05 -0.05655169 -0.027609505 0.07339935 -0.034069605 -0.009712435
0.048704643 -0.07809211 0.08681849 0.020929925 -0.015029451 0.0778191 -0.0698007 0.033513613
-0.02336456 -0.028013572 -0.004014169 0.04885448 0.069484524 -0.006467572 -0.08303448 -0.030409003
0.037892576 -0.05313861 -0.041473933 0.03282 0.006592313 -0.026410034 0.05983446 -0.04798908
-0.0024584127 -0.026681488 0.011662469 0.034661565 0.08367761 -0.044980124 0.085604064 -0.071922556
0.028373808 -0.031342722 0.058218107 0.09164138 0.08437792 0.008199738 -0.025847094 0.058813985
00000000: f80d 613c 4d62 803b 2842 443d 68b4 8ebd
00000010: 8cb3 17bd 21e0 0b3d 2f97 0cbd 0546 7abc
00000020: 3d0f 873d f8d2 603d 6143 313d 91e8 853c
00000030: 680a 9fbd 62e5 d1bc e750 43bd 6535 acbd
00000040: ec90 46bc 9a83 e7bc ef06 c23d 5db0 19bd
00000050: 2794 3a3d 3110 08bd 82c7 8cbd c004 76bc
00000060: da60 39bc 279c 9fbb 3972 a6bd c612 7ebd
00000070: 149e 1bbc 3ad3 243d 225a c2bc e234 893d
00000080: 5728 333d 22a9 933d c4cc 15bd 8688 623d
00000090: de7b 41bd 50ca 8dbd 917c abbc 3ece 8abd
000000a0: 10d8 953d 0f59 a4bd a626 20bd 9924 c4bc
000000b0: dceb 1fbd e628 a93c ef33 7f3d 8d12 573d
000000c0: e8a4 36bd ad0b 0c3d 46eb a93c 8ca7 8ebd
000000d0: 0f00 30bc 9922 c23d 5d4e 683d 9983 32bd
000000e0: 698f b03d 4815 20bc 737f 363d 5a71 083d
000000f0: 2869 113d fc83 82bd 72b1 bd3d 5ae0 4cbc
00000100: 61cf 773c aa26 95bd 6929 5f3d bf78 9dbd
00000110: 98c0 b5bc b900 413c db1e 783c c04a 423d
00000120: fd02 5f3d 33ce a2bd a377 803d e1a9 81bd
00000130: f1bf 533d 34ac b83d e87b 8ebc b678 9d3d
00000140: e957 71bd 8d04 633b 3058 c9b7 bfa2 67bd
00000150: 542d e2bc 6652 963d 928c 0bbd e820 1fbc
00000160: 857e 473d c2ee 9fbd e4cd b13d 3c75 ab3c
00000170: 163e 76bc 9f5f 9f3d abf3 8ebd 9245 093d
00000180: 0967 bfbc b87c e5bc 4a89 83bb a31b 483d
00000190: e74d 8e3d eded d3bb fb0d aabd 4d1c f9bc
000001a0: 3f35 1b3d dfa7 59bd 92e0 29bd 446e 063d
000001b0: 5404 d83b db59 d8bc fb14 753d 3390 44bd
000001c0: 521d 21bb 2393 dabc f113 3f3c 49f9 0d3d
000001d0: 2b5f ab3d 143d 38bd 2f51 af3d 224c 93bd
000001e0: 3070 e83c 3a61 00bd 1c76 6e3d 7aae bb3d
000001f0: 55ce ac3d 3258 063c 49bd d3bc efe6 703d
