checkpoints/count/seed3/final.pt (torch, 400901 bytes, 7 tensors)

fc1.weight f4 [256, 256]
-0.027661875 -0.021155283 0.059345182 -0.017962778 -0.00460227 0.040609296 0.032072067 -0.03373584
-0.0014336782 -0.036804587 0.0071708257 0.039434448 -0.053735964 -0.030848552 -0.047885876 -0.017907282
0.051647034 -0.0018956402 -0.053916667 -0.0074701463 -0.06296397 0.04166913 -0.03126117 0.007310998
0.020798175 -0.06608619 -0.00411691 0.028342998 0.034557294 0.017141415 -0.027383955 -0.025812302
0.028017133 -0.05663903 -0.051605023 -0.032051057 0.029466745 0.0020044348 -0.018662192 -0.04405201
0.029426714 0.023248458 -0.039141845 0.04546114 -0.024741983 0.061299767 -0.044983257 0.036228843
-0.033595257 -0.04958629 0.032998584 -0.039586734 0.047652133 -0.018227497 0.011303086 0.03289728
0.014645731 -0.014038505 0.018177694 0.026386244 -0.03774403 0.063132584 -0.044071995 0.02734008
0.058763813 0.035936188 -0.048810337 0.038737666 -0.042267065 0.036529567 -0.051477198 -0.025127385
-0.041900974 -0.050677616 0.0044409004 0.005608516 0.043650128 0.057333667 -0.009783432 0.01670346
0.04453857 0.014423206 0.0595132 0.034663796 -0.052395925 0.029683832 0.007557691 0.021162625
-0.012299387 0.020775381 -0.007284285 0.009743503 0.019681223 -0.046546772 0.0653947 0.0067997817
-0.008130528 0.029080395 0.051635075 0.043166373 0.03205716 -0.004668026 0.061057474 0.018511392
-0.031255085 0.057000753 -0.03892639 -0.047179732 0.046334665 0.020149235 0.065691434 0.009947956
-0.019058961 -0.019096259 0.029505175 -0.0389759 0.0064850394 -0.039126504 -0.026284594 0.006649563
0.008870582 0.026073586 0.020367425 0.035906035 0.032539558 -0.033835586 0.05841093 -0.025972176
-0.002531842 0.004610952 -0.0026796828 0.065825626 -0.01736607 -0.018504012 -0.02214007 0.056364782
-0.0041918517 -0.047829166 -0.04132278 -0.052260492 0.0012125664 0.033621673 -0.01712681 -0.01645483
0.024413276 0.0036239908 0.030992337 0.036226872 0.04937466 0.034649715 0.044243783 0.06266758
-0.018485267 -0.01244533 0.011098357 -0.027991582 0.061349854 0.030128013 0.017310945 -0.024476543
-0.035345823 0.021285215 0.018802842 -0.04925401 0.0535411 0.06505032 -0.05670782 -0.0007308923
0.026955575 -0.029209794 -0.021536186 0.0397055 0.03780207 0.043474868 0.022520399 -0.01563076
0.023589946 0.056613564 -0.047878675 0.018040657 -0.06225452 0.031581976 -0.0577655 0.028408244
0.02043312 -0.031626232 -0.0049562976 -0.026463263 -0.03745561 -0.011014655 -0.036246516 -0.058866374
0.025720164 0.058040492 0.053821504 0.021691889 -0.061887518 -0.017466621 0.03380216 -0.037478797
0.008637786 -0.007035287 -0.0014821602 -0.06002181 -0.030043626 0.019005306 0.015449882 0.004292384
0.018456655 0.055890277 0.0102069415 0.024250366 0.041225772 0.03551218 -0.03074371 -0.018168278
-0.050366327 -0.006191714 -0.04566428 0.050841384 -0.03222861 -0.031099046 0.034774818 -0.014761098
-0.05490213 0.051732786 0.050059326 0.035202 -0.014430076 -0.056842774 0.03665231 0.05335936
0.06401761 -0.036154762 -0.010940008 -0.049041793 0.059413917 0.040790513 0.018423162 0.013369203
-0.060211323 0.04578639 0.04442648 0.06354268 0.015053101 -0.009661213 -0.04061462 -0.046137087
0.04768286 0.04759205 -0.04955618 0.006394036 0.046980746 0.0505071 0.013534255 -0.032084674
00000000: 289b e2bc d84d adbc ef13 733d ad26 93bc
00000010: a4ce 96bb ef55 263d 005e 033d 982e 0abd
00000020: 42ea bbba 68c0 16bd 3ff9 ea3b 0486 213d
00000030: 3e1a 5cbd 1ab6 fcbc fb23 44bd 4bb2 92bc
00000040: d78b 533d 2177 f8ba b9d7 5cbd 21c8 f4bb
00000050: 41f3 80bd 40ad 2a3d b60b 00bd 1991 ef3b
00000060: ef60 aa3c 3258 87bd 25e7 86bb 932f e83c
00000070: f38b 0d3d 276c 8c3c 5154 e0bc 5274 d3bc
00000080: 3084 e53c 54fe 67bd ca5f 53bd f847 03bd
00000090: 3e64 f13c d65c 033b 74e1 98bc e16f 34bd
000000a0: 4b10 f13c 8d73 be3c 3353 20bd 7635 3a3d
000000b0: b3af cabc 7715 7b3d 5d40 38bd b264 143d
000000c0: 2e9b 09bd fe1a 4bbd 8629 073d b325 22bd
000000d0: e22e 433d d551 95bc 9430 393c 4cbf 063d
000000e0: a6f4 6f3c c201 66bc 63e9 943c f727 d83c
000000f0: 7c99 1abd a84b 813d d684 34bd 4ef8 df3c
00000100: 53b2 703d d331 133d 59ed 47bd 63ab 1e3d
00000110: 3b20 2dbd 07a0 153d c1d9 52bd f2d7 cdbc
00000120: 5ba0 2bbd 5593 4fbd f984 913b a4c7 b73b
00000130: 7aca 323d b5d6 6a3d b04a 20bc b2d5 883c
00000140: 136e 363d 504f 6c3c 1dc4 733d a0fb 0d3d
00000150: 1c9d 56bd 822b f33c 82a6 f73b 3e5d ad3c
00000160: 5e83 49bc 2231 aa3c 03b1 eebb 37a3 1f3c
00000170: 843a a13c d4a7 3ebd a8ed 853d b4d0 de3b
00000180: e835 05bc 023a ee3c 4d7f 533d 39cf 303d
00000190: 5e4e 033d 3ef6 98bb 6717 7a3d 34a5 973c
000001a0: 5505 00bd 9f79 693d 4771 1fbd 893f 41bd
000001b0: 6bc9 3d3d 0210 a53c 3b89 863d c0fc 223c
000001c0: 8a21 9cbc c26f 9cbc d6b4 f13c 31a5 1fbd
000001d0: 7480 d43b 1d43 20bd ca52 d7bc 94e4 d93b
000001e0: eb55 113c 4698 d53c 96d9 a63c 3512 133d
000001f0: 3348 053d 2f97 0abd 4d40 6f3d 9ac3 d4bc
00000200: 43ed 25bb 7817 973b 9e9d 2fbb 96cf 863d
00000210: 4a43 8ebc ba95 97bc 185f b5bc c2de 663d
00000220: cd5b 89bb 84e8 43bd 1342 29bd 190f 56bd
00000230: faee 9e3a e1b6 093d 864d 8cbc 48cc 86bc
00000240: 5afe c73c 7a80 6d3b a4e3 fd3c a162 143d
00000250: 153d 4a3d dcec 0d3d f838 353d dc57 803d
00000260: 6a6e 97bc 7fe7 4bbc e2d5 353c 9a4e e5bc
00000270: fc49 7b3d 06cf f63c afcf 8d3c 0883 c8bc
00000280: c8c6 10bd 555e ae3c 6b08 9a3c 93be 49bd
00000290: ea4d 5b3d 1a39 853d 7646 68bd 5a99 3fba
000002a0: f0d1 dc3c 6149 efbc a86c b0bc 3ca2 223d
000002b0: 58d6 1a3d b412 323d b37c b83c 140c 80bc
000002c0: b43f c13c a0e3 673d 6e1c 44bd 00ca 933c
000002d0: 98fe 7ebd 1a5c 013d 849b 6cbd 68b8 e83c
000002e0: 5c63 a73c 828a 01bd 7068 a2bb 7cc9 d8bc
000002f0: 0e6b 19bd d076 34bc 3a77 14bd de1d 71bd
00000300: 18b3 d23c debb 6d3d f073 5c3d 30b3 b13c
00000310: c47d 7dbd 2916 8fbc 2274 0a3d 5e83 19bd
00000320: 8085 0d3c 4488 e6bb 0b45 c2ba 6ed9 75bd
00000330: 0d1e f6bc 04b1 9b3c 8021 7d3c 20a7 8c3b
00000340: 6932 973c 34ed 643d 043b 273c b4a8 c63c
00000350: 5bdc 283d 3875 113d 3cda fbbc a4d5 94bc
00000360: ec4c 4ebd dde3 cabb 780a 3bbd 0e3f 503d
00000370: 2602 04bd 6dc3 febc 0a70 0e3d 88d8 71bc
00000380: 0ee1 60bd c2e5 533d 020b 4d3d f92f 103d
00000390: 206c 6cbc f8d3 68bd bc20 163d 588f 5a3d
000003a0: aa1b 833d 0417 14bd b83d 33bc 0ce0 48bd
000003b0: 025c 733d f413 273d 2cec 963c 800a 5b3c
000003c0: 26a0 76bd 828a 3b3d 8af8 353d aa22 823d
000003d0: 48a1 763c 104a 1ebc 845b 26bd 3efa 3cbd
000003e0: 1a4f 433d e2ef 423d 6cfb 4abd 1085 d13b
000003f0: e26e 403d 88e0 4e3d c8be 5d3c 386b 03bd

fc1.bias f4 [256]
0.0071095317 0.031874865 -0.019315766 -0.059146162 0.023941072 0.046334002 0.05352265 0.012495753
-0.031380598 0.024272047 0.033070076 0.042322308 0.01173529 -0.030085385 0.06197018 0.018374361
-0.03861509 0.0012866328 -0.008342484 -0.0074729943 -0.02713076 0.05936908 -0.053337324 0.038869813
0.045384306 0.058207266 -0.021575388 -0.040503927 -0.037718453 -0.02702856 -0.028766759 0.0057866224
-0.063772775 -0.0051488285 0.02357199 0.007990763 -0.025734324 0.012937665 -0.047255762 -0.008036411
0.040541954 -0.016849779 -0.05480251 -0.009526797 -0.0617657 0.023722395 -0.06496531 -0.006255332
-0.03260482 0.008353766 -0.05327245 -0.015638731 0.003122954 0.043365538 0.057850275 0.043725614
0.053580485 -0.011002031 0.0038653526 0.055851594 0.030177947 -0.052451137 0.054283388 -0.01686534
-0.027823135 -0.057233244 -0.015398197 0.02959539 0.04976913 -0.014055494 -0.054446444 0.016843166
0.0567298 -0.030986633 0.047806133 0.026087604 -0.031092092 -0.026066873 0.048520226 -0.036722016
0.0061171353 0.06067267 0.048019994 0.00407533 0.014021358 -0.020273564 0.052813306 -0.05580842
0.018967932 0.03368107 -0.044142194 0.041090727 -0.03420559 -0.061770402 -0.04725949 0.042249102
0.03413951 0.020822393 0.027110584 -0.046066698 -0.056695502 -0.033235595 -0.023098344 0.0042186496
0.022005945 -0.036412682 -0.013391898 -0.003981551 0.047983304 0.030575894 -0.015076691 -0.019160196
-0.004487098 0.044915803 0.03858123 -0.026826896 -0.016012412 0.04790973 -0.019240662 0.03384369
0.008641954 -0.009646495 -0.009069416 0.020462302 0.021061901 -0.047171347 0.04438124 -0.008419279
-0.050624724 0.025913859 -0.028368138 -0.04299979 0.039984908 0.015305057 0.022974372 0.030654673
0.04880212 -0.0054513547 -0.061919928 -0.040023208 0.00585559 0.0017242283 0.028555801 -0.02988374
-0.03773558 0.0029670347 0.0534427 -0.060233224 0.022399459 -0.022514403 0.057205103 -0.056243535
-0.029107483 0.057331532 -0.0401027 0.0031351405 -0.034864325 0.006942209 -0.04318794 0.014741527
0.041191965 0.0039382214 0.013151026 -0.012805248 0.033889677 0.013859068 0.020718867 -0.046206214
-0.037022207 -0.024973953 -0.042959005 -0.0397409 0.019744894 0.017846502 0.0390343 -0.04956065
-0.029327244 0.0152852675 -0.012831251 0.010990331 -0.059395287 0.024358064 -0.03184633 -0.03199622
0.03512294 -0.0037792416 -0.03208653 0.023777395 -0.016004752 -0.0374918 0.05453636 0.009181837
0.028648611 -0.0603841 -0.022759236 0.049619947 0.03208587 0.060167685 -0.024580983 -0.024610858
0.050438855 0.047632992 0.05076792 0.016918574 0.056992512 0.020828981 -0.04269878 0.017365025
0.044810858 -0.0131069375 0.024232058 0.040487126 -0.046171993 0.021334765 0.054154746 0.021697124
-0.02040035 -0.023131138 -0.04295106 -0.018977739 -0.0006524124 0.0047875266 -0.023035975 -0.027227506
0.018042209 0.034070477 0.053234473 0.025331719 -0.04928682 0.0049391505 0.0010343769 0.0038718148
-0.008779519 0.004140024 0.05834679 -0.035305493 0.028499871 -0.0313091 -0.04125367 -0.0135923745
0.057641968 0.034274507 0.0085769715 -0.02408699 0.05861331 0.052492313 0.020442482 -0.043458555
0.051476624 -0.027363045 -0.026295893 -0.011186436 0.025955413 0.020976648 -0.049401123 0.015208505
00000000: 13f7 e83b 388f 023d 193c 9ebc 3f43 72bd
00000010: 1120 c43c b9c8 3d3d 913a 5b3d fdba 4c3c
00000020: f188 00bd 2cd6 c63c 7d74 073d 285a 2d3d
00000030: 6045 403c a075 f6bc 72d4 7d3d d485 963c
00000040: db2a 1ebd 3ca4 a83a eaae 08bc 05e0 f4bb
00000050: 5441 debc fe2c 733d 3d78 5abd f435 1f3d
00000060: e5e4 393d be6a 6e3d debe b0bc 72e7 25bd
00000070: aa7e 1abd 006b ddbc 44a8 ebbc b59d bd3b
00000080: 4d9b 82bd 81b7 a8bb 0c1a c13c b0eb 023c
00000090: cad0 d2bc 80f8 533c 428f 41bd 27ab 03bc
000000a0: 520f 263d 8c08 8abc 9978 60bd 4816 1cbc
000000b0: 08fe 7cbd 7855 c23c 880c 85bd 87f9 ccbb
000000c0: a28c 05bd 3cde 083c 3634 5abd cc1c 80bc
000000d0: 79aa 4c3b 10a0 313d 69f4 6c3d a119 333d
000000e0: 3677 5b3d dd41 34bc db51 7d3b a4c4 643d
000000f0: be37 f73c 01d7 56bd 4258 5e3d 2e29 8abc
00000100: 58ed e3bc 686d 6abd b848 7cbc 0872 f23c
00000110: b7da 4b3d 0449 66bc 3c03 5fbd aefa 893c
00000120: 825d 683d aed7 fdbc 5dd0 433d acb5 d53c
00000130: d8b4 febc 328a d5bc 25bd 463d d369 16bd
00000140: 4072 c83b e883 783d 9db0 443d 598a 853b
00000150: d7b9 653c bf14 a6bc c452 583d 5f97 64bd
00000160: a362 9b3c 29f5 093d 72ce 34bd c04e 283d
00000170: 291b 0cbd f602 7dbd 2b93 41bd 650d 2d3d
00000180: dfd5 0b3d b993 aa3c 0417 de3c 6fb0 3cbd
00000190: 8b39 68bd 0c22 08bd bd38 bdbc 993c 8a3b
000001a0: d045 b43c 7725 15bd b169 5bbc ac77 82bb
000001b0: 248a 443d 4c7a fa3c 3a04 77bc d8f5 9cbc
000001c0: 8208 93bb a2f9 373d 5a07 1e3d 14c4 dbbc
000001d0: 762c 83bc fe3c 443d 989e 9dbc ae9f 0a3d
000001e0: fb96 0d3c 550c 1ebc e397 14bc 8fa0 a73c
000001f0: 028a ac3c be36 41bd 1ac9 353d 04f1 09bc
00000200: df5b 4fbd 4d49 d43c 4c64 e8bc 8c20 30bd
00000210: 37c7 233d 10c2 7a3c c034 bc3c 821f fb3c
00000220: bbe4 473d 47a1 b2bb c09f 7dbd 60ef 23bd
00000230: 40e0 bf3b 80ff e13a dbed e93c bfce f4bc
00000240: a090 1abd 9572 423b bce6 5a3d 1db7 76bd
00000250: 127f b73c 2070 b8bc e64f 6a3d 9f5f 66bd
00000260: d172 eebc 78d4 6a3d bb42 24bd ee76 4d3b
00000270: e5cd 0ebd 787b e33b d6e5 30bd 7286 713c
00000280: e8b8 283d 320c 813b 6777 573c 1acd 51bc
00000290: e7cf 0a3d 2511 633c 9dba a93c ba42 3dbd
000002a0: 99a4 17bd 2d96 ccbc c8f5 2fbd 5bc7 22bd
000002b0: 0bc0 a13c d432 923c 6ee2 1f3d 1c00 4bbd
000002c0: b03f f0bc 0f6f 7a3c 2b3a 52bc ca10 343c
000002d0: 7948 73bd 908a c73c 4c71 02bd 780e 03bd
000002e0: 12dd 0f3d 27ad 77bb 2a6d 03bd d0c8 c23c
000002f0: 661c 83bc 0091 19bd 8561 5f3d 6a6f 163c
00000300: 7eb0 ea3c 5155 77bd 9471 babc 493e 4b3d
00000310: 796c 033d 6472 763d 0f5e c9bc b69c c9bc
00000320: f998 4e3d d01a 433d 06f2 4f3d d298 8a3c
00000330: fb70 693d 8aa1 aa3c eae4 2ebd 1941 8e3c
00000340: 978b 373d 7bbe 56bc 4f82 c63c d4d5 253d
00000350: d81e 3dbd 3fc6 ae3c 5ed1 5d3d 2bbe b13c
00000360: a31e a7bc 837d bdbc 73ed 2fbd 3477 9bbc
00000370: a806 2bba afe0 9c3b f1b5 bcbc 380c dfbc
00000380: 41cd 933c 7c8d 0b3d 640c 5a3d 7784 cf3c
00000390: fae0 49bd 99d8 a13b ee93 873a 46be 7d3b
000003a0: f9d7 0fbc 0aa9 873b 0bfd 6e3d 7e9c 10bd
000003b0: 9078 e93c f93d 00bd 9cf9 28bd 8db2 5ebc
000003c0: fc19 6c3d 6d63 0c3d 6d86 0c3c 1452 c5bc
000003d0: 8314 703d 2e02 573d fe76 a73c 9901 32bd
000003e0: 27d9 523d 7728 e0bc 7c6a d7bc 5047 37bc
000003f0: 72a0 d43c 38d7 ab3c d558 4abd 182d 793c

fc2.weight f4 [128, 256]
0.018110955 -0.0012263777 0.028789135 0.012922585 0.019090274 0.06101069 0.003375126 0.02784832
0.014634211 0.031326428 -0.012176035 -0.03691291 -0.058994297 -0.025129845 0.03220754 0.041497014
0.039736055 0.0030890459 -0.008548309 0.044762652 0.001715096 -0.0013938955 0.045881655 -0.016841311
0.014032716 0.05067052 0.061410725 0.04020241 0.016939336 -0.0060738623 0.022560738 -0.05533909
0.012453651 0.015487678 0.06488737 -0.02451169 0.042963214 -0.055455714 -1.2657382e-05 0.029459171
0.055581793 0.06055406 -0.037320305 -0.04343838 0.012754694 -0.008605532 -0.022909509 0.018802129
-0.013241909 -0.033462714 -0.03042926 -0.049274407 -0.041697755 0.061359897 0.039792966 0.03575288
0.005704121 -0.0456145 -0.049029816 0.024243116 0.037844326 0.0076835956 0.029183447 0.039301336
-0.019732142 0.06578153 -0.01636292 -0.034511648 0.041761097 -0.044964988 -0.0035570015 0.014429745
0.026957316 0.044694006 0.045170516 -0.010286386 0.017055929 0.033574652 -0.039449345 0.045174994
0.014649677 0.042319734 -0.001210661 -0.015064006 0.05698745 -0.021911068 -0.018150719 -0.01169847
-0.025776135 -0.05132434 -0.008217007 0.033909727 0.050131537 0.03357762 -0.009171775 0.020218005
0.0005428726 0.033657603 -0.04688947 0.048726648 0.0022333488 0.061750785 -0.037486136 -0.0100813825
0.032858487 0.0051290486 0.0089510465 0.07382333 0.039565988 0.010037079 0.013054471 -0.01098125
0.049975216 0.0630138 0.02591601 0.04844854 0.044564046 -0.047132574 -0.003698036 -0.039482974
0.033944994 0.0651859 0.06915891 0.051101763 -0.03533983 -0.0016674995 0.019528463 0.021147793
0.0078743305 0.009144769 -0.024428898 0.05075202 -0.020312002 0.02743823 -0.029404728 -0.0488039
-0.051620066 0.028670585 -0.015803143 -0.006979987 0.023584977 0.026035085 0.06378581 0.053825513
0.058145724 0.047514413 -0.007734585 0.0069341506 0.013762706 -0.05899047 -0.04595434 0.05211952
0.014931205 0.059616677 0.013240703 -0.04457987 -0.0020895519 0.041785996 -0.036134534 0.019283125
-0.039695475 0.047000807 -0.044866923 -0.026703807 0.052636962 0.024916152 -0.054249275 -0.036540084
-0.05196876 0.020448538 -0.05801449 0.0035674279 0.055378895 -0.0011005923 0.045470662 0.038796984
0.037057266 0.048206624 0.038226698 0.025788667 -0.048218235 -0.04085634 0.041186213 -0.054536186
0.00091488543 0.0673089 -0.012517877 0.06404087 -0.06038291 0.047991805 0.025509922 0.00037235618
-0.04693579 -0.024644433 0.024173982 0.03223682 0.004874017 0.024906935 0.06487999 0.009621235
-0.03801001 0.048077866 0.02641205 -0.010381994 -0.009420113 0.008005387 0.058858987 0.04508135
-0.009200957 -0.047645584 0.033557184 0.0049567437 0.042939387 -0.029153908 0.01088163 0.0006049259
0.030942027 0.02416418 0.029753752 0.06622383 -0.013719628 0.051942624 -0.0433617 -0.00035058666
0.054599468 -0.038761307 0.030642774 -0.01394974 -0.047182914 0.044203423 -0.031163719 -0.055063017
-0.036459636 0.045737185 -0.027662879 -0.042979978 0.01944272 0.03606025 0.024243979 -0.045171376
-0.020524805 0.015717532 0.05301936 0.038123462 -0.0217623 -0.0288008 -0.04641411 0.020661868
0.015076053 -0.005958573 0.03475307 -0.04763595 0.04524866 0.004038608 -0.013579641 -0.021336816
00000000: 6d5d 943c 68be a0ba 31d7 eb3c 40b9 533c
00000010: 3563 9c3c 58e6 793d 3831 5d3b 2922 e43c
00000020: 54c4 6f3c 2450 003d fe7d 47bc fe31 17bd
00000030: 01a4 71bd 1bdd cdbc 0eec 033d c6f8 293d
00000040: 46c2 223d 9771 4a3b 350e 0cbc 0b59 373d
00000050: 12cd e03a 5fb3 b6ba 67ee 3b3d caf6 89bc
00000060: 7ae9 653c e48b 4f3d d089 7b3d 48ab 243d
00000070: 5dc4 8a3c 4007 c7bb 4cd1 b83c 3eab 62bd
00000080: 660a 4c3c 08c0 7d3c abe3 843d bdcc c8bc
00000090: 32fa 2f3d 8825 63bd 0b5b 54b7 5c54 f13c
000000a0: bca9 633d 8907 783d 2ddd 18bd 71ec 31bd
000000b0: 10f9 503c 38fe 0cbc b9ac bbbc ec06 9a3c
000000c0: 98f4 58bc 3310 09bd c946 f9bc f6d3 49bd
000000d0: 44cb 2abd 8454 7b3d f3fd 223d 9d71 123d
000000e0: a3e9 ba3b 45d6 3abd 7dd3 48bd 8099 c63c
000000f0: a702 1b3d acc6 fb3b 2012 ef3c 70fa 203d
00000100: 4da5 a1bc 78b8 863d 880b 86bc 165c 0dbd
00000110: af0d 2b3d 352d 38bd 951c 69bb bd6a 6c3c
00000120: 97d5 dc3c 1011 373d b804 393d 3b88 28bc
00000130: e0b8 8b3c 9385 093d a395 21bd 6a09 393d
00000140: 3305 703c 7557 2d3d 0baf 9eba 05cf 76bc
00000150: ac6b 693d d77e b3bc d1b0 94bc f1aa 3fbc
00000160: 7928 d3bc 7939 52bd a0a0 06bc ede4 0a3d
00000170: ba56 4d3d b088 093d 3645 16bc 3ba0 a53c
00000180: 904f 0e3a 8edc 093d 2c0f 40bd 9895 473d
00000190: 605d 123b 64ee 7c3d 108b 19bd 622c 25bc
000001a0: 9f96 063d 9411 a83b 69a7 123c b030 973d
000001b0: f20f 223d 9072 243c 6ce2 553c b3ea 33bc
000001c0: d0b2 4c3d 610d 813d d04d d43c fa71 463d
000001d0: ca88 363d 160e 41bd c05a 72bb e6b8 21bd
000001e0: e809 0b3d 2f80 853d 30a3 8d3d 1550 513d
000001f0: 7fc0 10bd 0090 daba 28fa 9f3c 233e ad3c
00000200: 5603 013c f1d3 153c 1d1f c8bc 5ae1 4f3d
00000210: 5b65 a6bc 24c6 e03c 2fe2 f0bc 99e6 47bd
00000220: 906f 53bd 93de ea3c 9875 81bc 60b8 e4bb
00000230: 4835 c13c 8847 d53c 22a2 823d 2478 5c3d
00000240: 362a 6e3d 799e 423d 6772 fdbb df37 e33b
00000250: f97c 613c fe9f 71bd 9e3a 3cbd 477b 553d
00000260: 03a2 743c 9e30 743d 89ef 583c 6299 36bd
00000270: ddf0 08bb cb27 2b3d ce01 14bd a5f7 9d3c
00000280: b997 22bd eb83 403d 61c6 37bd f1c1 dabc
00000290: db99 573d f51c cc3c 7d34 5ebd 0eab 15bd
000002a0: 32dd 54bd b183 a73c 9aa0 6dbd 82cb 693b
000002b0: fbd4 623d c041 90ba 723f 3a3d 96e9 1e3d
000002c0: 5cc9 173d 4f74 453d 9993 1c3d c142 d33c
000002d0: 7c80 45bd fa58 27bd e0b2 283d 5661 5fbd
000002e0: ecd4 6f3a 40d9 893d c817 4dbc dc27 833d
000002f0: 1254 77bd 0e93 443d 2ffa d03c cd38 c339
00000300: be3f 40bd 1fe3 c9bc 8408 c63c c10a 043d
00000310: 38b6 9f3b a109 cc3c cddf 843d 62a2 1d3c
00000320: 62b0 1bbd 4ced 443d 155e d83c 3d19 2abc
00000330: d156 1abc 0729 033c 1f16 713d 39a7 383d
00000340: 9cbf 16bc 0428 43bd 4273 093d 2e6c a23b
00000350: 36e1 2f3d 2dd4 eebc dd48 323c e493 1e3a
00000360: 227a fd3c f5f3 c53c 24be f33c 5ca0 873d
00000370: 4ac8 60bc cac1 543d 0a9c 31bd f2ce b7b9
00000380: b1a3 5f3d 2dc4 1ebd 8e06 fb3c 738d 64bc
00000390: df42 41bd a60e 353d 0e4b ffbc c289 61bd
000003a0: b356 15bd ea56 3b3d 439d e2bc c60b 30bd
000003b0: 5746 9f3c eab3 133d 4f9b c63c 9f05 39bd
000003c0: a323 a8bc 0ec2 803c d42a 593d 5927 1c3d
000003d0: da46 b2bc a8ef ebbc b91c 3ebd 1443 a93c
000003e0: 8d01 773c 2240 c3bb 3c59 0e3d ea1d 43bd
000003f0: a956 393d 4d56 843b 247d 5ebc 8cca aebc

fc2.bias f4 [128]
0.029128842 -0.0016213908 -0.023235828 -0.018373724 0.03422481 0.019449353 0.035664782 0.015341796
0.0057332213 0.028871503 -0.030233603 0.020124853 -0.06000132 0.034696847 -0.039857995 0.03335475
-0.013076217 -0.042204432 -0.012395375 0.0007531792 -0.016344596 -0.03557489 -0.05158984 -0.008979719
0.054857776 -0.009932875 -0.029408963 -0.057912014 0.0160537 -0.040476147 -0.019873988 0.025211392
0.012839579 0.0032511875 -0.02934128 0.034427892 -0.04611434 -0.0139448345 0.005202004 0.005840635
-0.052382812 -0.026873043 -0.0056832684 -0.05005499 0.008175065 0.06751635 0.066186816 -3.351792e-05
-0.030547265 0.03715796 0.00044885147 0.02218354 0.0462444 -0.06044042 0.013454569 0.03880654
-0.044530183 -0.0035446014 0.042631604 -0.004855449 -0.0064355214 -0.017667204 -0.016195929 0.057351537
0.03626184 -0.019302303 0.002621044 0.019021139 0.047255043 -0.05641853 -0.024256848 -0.04094536
0.006694776 0.00079027563 -0.05733288 0.023006111 0.030626971 -0.057117626 -0.052531227 0.036647532
-0.011930722 0.049352832 0.015567286 -0.059390485 0.036677595 0.024226977 0.031666577 0.017827472
-0.05376865 0.034096442 0.0034620888 0.0005473106 0.0077905054 0.052930508 0.03767736 0.061433922
-0.054221973 -0.050323196 0.011471714 0.01981977 0.03041932 0.013310507 -0.014205445 0.042582348
-0.012320021 0.06873488 0.06618992 0.055022273 -0.019083774 0.03616683 0.0064776363 0.0045536505
0.012104388 -0.031202393 0.028145572 0.03319296 0.057822578 -0.041959796 -0.041974377 0.008037537
-0.02218795 0.036776215 0.034477137 -0.058091015 0.053716753 0.0045020296 -0.06553484 -0.04074266
00000000: 9c9f ee3c d984 d4ba 1059 bebc 7e84 96bc
00000010: 502f 0c3d 4054 9f3c 3c15 123d 285c 7b3c
00000020: bfdd bb3b ee83 ec3c 76ac f7bc e0dc a43c
00000030: f2c3 75bd 481e 0e3d 2342 23bd fe9e 083d
00000040: a13d 56bc 8ede 2cbd f915 4bbc 0071 453a
00000050: 1ae5 85bc fab6 11bd de4f 53bd ac1f 13bc
00000060: 8cb2 603d 7fbd 22bc 11eb f0bc 2635 6dbd
00000070: 0d83 833c 51ca 25bd c6ce a2bc 1f88 ce3c
00000080: 195d 523c e011 553b 205d f0bc 4304 0d3d
00000090: 64e2 3cbd e078 64bc 9375 aa3b cc62 bf3b
000000a0: 5c8f 56bd db24 dcbc b63a babb 7606 4dbd
000000b0: b5f0 053c 0346 8a3d f48c 873d 9895 0cb8
000000c0: 423e fabc f232 183d d353 eb39 41ba b53c
000000d0: c56a 3d3d 6090 77bd 8d70 5c3c 9bf3 1e3d
000000e0: 4865 36bd 8b4c 68bb 7a9e 2e3d 751a 9fbb
000000f0: 11e1 d2bb d0ba 90bc 53ad 84bc 72e9 6a3d
00000100: 4c87 143d dd1f 9ebc d2c5 2b3b 38d2 9b3c
00000110: 818e 413d 1e17 67bd 4cb6 c6bc 52b6 27bd
00000120: da5f db3b 802a 4f3a e2d5 6abd 5077 bc3c
00000130: 6ae5 fa3c 2cf4 69bd fc2a 57bd b91b 163d
00000140: 1379 43bc 3226 4a3d ee0d 7f3c 7043 73bd
00000150: 3f3b 163d a777 c63c d0b4 013d eb0a 923c
00000160: 843c 5cbd b6a8 0b3d 36e4 623b 6579 0f3a
00000170: 7f47 ff3b a9cd 583d 9353 1a3d 23a2 7b3d
00000180: dc17 5ebd b21f 4ebd dbf3 3b3c 125d a23c
00000190: f031 f93c 5014 5a3c f4bd 68bc d46a 2e3d
000001a0: ead9 49bc dfc4 8c3d 958e 873d 095f 613d
000001b0: 9355 9cbc ac23 143d 5a42 d43b ca36 953b
000001c0: 7c51 463c 299c ffbc 8b91 e63c 57f5 073d
000001d0: 5ed7 6c3d 09de 2bbd 53ed 2bbd e0af 033c
000001e0: 81c3 b5bc a8a2 163d e637 0d3d d8f0 6dbd
000001f0: 1906 5c3d c385 933b 2137 86bd c7e1 26bd

actor.weight f4 [4, 128]
-0.047833156 -0.028283374 -0.068185635 0.013103068 -0.06913375 -0.04764224 -0.06663775 0.028656267
-0.06000237 0.015472639 -0.013724508 -0.012894607 0.05012373 -0.08608027 -0.038696796 0.05372722
-0.013301418 -0.07543311 0.049867697 -0.05267865 0.015437185 -0.036227692 -0.055523816 0.06328168
0.07057516 -0.04029858 0.029891806 -0.02286613 -0.019109435 -0.054094493 -0.07607042 0.03572356
-0.054196198 0.0830029 0.044036645 0.010127596 0.073795654 -0.01791828 0.011195613 0.06370716
-0.017726827 0.049260885 -0.06480716 -0.023358615 -0.04934082 0.068589866 0.056605436 -0.08607943
-0.027680084 0.002467187 -0.049694475 -0.041927967 0.06221981 0.07750937 0.08448011 0.015553915
-0.053650312 0.07267164 -0.019549422 0.049035456 -0.02309719 -0.055035233 0.03360286 0.03602425
-0.07507776 -0.09463074 -0.049823206 0.04853549 0.02072374 -0.015682848 0.011384163 0.022763018
-0.031854577 -0.070390955 0.062897965 0.025764907 0.077953145 -0.07098617 -0.06379567 0.06663039
-0.06944808 -0.020017827 -0.008204071 -0.050073948 -0.0036939671 -0.08183575 0.024686577 0.07881868
0.047897913 -0.08658092 -0.02969587 0.03776807 -0.026944678 0.08326656 0.04532894 0.025259191
0.0423665 -0.030315142 0.07569708 -0.023505703 0.048055667 0.05641322 -0.022030044 0.061143618
-0.03393748 0.062065873 -0.008895739 -0.0049962658 0.04803116 -0.004380811 -0.0775947 0.07475335
-0.035308644 -0.094286606 0.04193136 -0.056804642 0.057608046 0.038068015 -0.032734998 -0.06681733
0.07613283 0.077081375 0.051180087 -0.03556132 -0.0049252133 0.065182045 0.024654925 -0.000955568
-0.05749108 0.034339532 0.009985526 0.0672577 -0.024138037 0.065011404 0.05305389 -0.044957366
0.054678902 0.040181886 -0.030835332 -0.03486049 -0.051418617 -0.02104724 0.008242102 -0.07740928
-0.06746657 -0.07007595 0.053653754 -0.028942356 -0.030195104 -0.017052867 -0.07555326 -0.0033794548
-0.07767068 -0.051962707 -0.05649339 0.05245365 -0.010926596 -0.028219366 -0.024199223 0.015035356
-0.072079875 0.06809936 0.08274617 0.031290606 -0.07337624 -0.011356669 0.008037539 -0.072319664
-0.038452055 -0.08020208 -0.06888771 -0.02947762 0.0442664 0.012328627 0.04882662 0.092279695
0.049603153 -0.010891113 -0.07876355 0.017819485 -0.060870003 0.029065479 0.067208275 -0.008761907
0.06422106 -0.0511648 -0.050741747 0.043184586 -0.012214872 -0.07247527 -0.04726994 0.066531375
0.042347006 0.10910194 0.037924625 -0.054068413 -0.0110440655 -0.019410549 -0.028744727 0.07771617
-0.062207535 0.056029513 0.06999949 -0.046944752 0.013605831 0.050100856 0.021610819 0.053959575
-0.05750319 -0.08994072 0.05331226 0.025478665 0.05122306 0.050695747 0.073306605 -0.007387745
-0.041083034 0.069973126 -8.5487394e-05 0.07446716 -0.027846508 0.014845243 -0.050960883 0.035459034
0.050813697 -0.07126688 0.01250253 -0.006953045 0.06237447 -0.018623415 0.07117196 -0.02717703
0.042900972 -0.07252171 0.020640396 -0.068740465 0.039608486 0.08651161 0.0139785055 0.077681616
0.02592943 0.04075646 -0.0035735639 -0.03283481 0.050503213 -0.0071911477 0.0053845136 -0.02188907
-0.008702236 0.04357713 0.034102026 -0.03727853 0.010677594 0.058855295 -0.07492125 0.02033437
00000000: b3ec 43bd 89b2 e7bc e9a4 8bbd 40ae 563c
00000010: ff95 8dbd 8224 43bd 5f79 88bd 8cc0 ea3c
00000020: 0cc5 75bd f480 7d3c c2dc 60bc e743 53bc
00000030: 8a4e 4d3d da4a b0bd 8880 1ebd 1311 5c3d
00000040: 31ee 59bc ad7c 9abd 1242 4c3d 91c5 57bd
00000050: 3fec 7c3c 7d63 14bd f16c 63bd d399 813d
00000060: b689 903d 2010 25bd a9df f43c c051 bbbc
00000070: 648b 9cbc 3092 5dbd cfca 9bbd de52 123d
00000080: d5fc 5dbd 6dfd a93d c55f 343d 37ee 253c
00000090: 2d22 973d 5bc9 92bc ce6d 373c e678 823d
000000a0: da37 91bc c8c5 493d 9eb9 84bd 915a bfbc
000000b0: 9a19 4abd d878 8c3d 1adb 673d 6a4a b0bd
000000c0: 58c1 e2bc 87b0 213b 6f8c 4bbd a9bc 2bbd
000000d0: 33da 7e3d 3cbd 9e3d e803 ad3d d9d5 7e3c
000000e0: 6ec0 5bbd ded4 943d 1c26 a0bc 67d9 483d
000000f0: 5136 bdbc a06c 61bd 27a3 093d 2a8e 133d
00000100: 5ec2 99bd c3cd c1bd 6b13 4cbd 26cd 463d
00000110: d5c4 a93c 5179 80bc a484 3a3c 8279 ba3c
00000120: f279 02bd 2229 90bd a6d0 803d ed10 d33c
00000130: e6a5 9f3d 3261 91bd 4ea7 82bd 8475 883d
00000140: cc3a 8ebd 6dfc a3bc 5e6a 06bc 571a 4dbd
00000150: 7c16 72bb 8099 a7bd 813b ca3c b06b a13d
00000160: 9a30 443d 5651 b1bd c144 f3bc b1b2 1a3d
00000170: 16bb dcbc a987 aa3d d7aa 393d 5dec ce3c
00000180: 7f88 2d3d 7657 f8bc 1207 9b3d 088f c0bc
00000190: 05d6 443d 8c11 673d 5a78 b4bc bb71 7a3d
000001a0: 0702 0bbd c938 7e3d 6fbf 11bc b7b7 a3bb
000001b0: 52bc 443d e88c 8fbb f8e9 9ebd 4918 993d
000001c0: cc9f 10bd 5619 c1bd 38c0 2b3d fcab 68bd
000001d0: 6af6 6b3d 35ed 1b3d 2215 06bd 86d7 88bd
000001e0: 87eb 9b3d d7dc 9d3d 36a2 513d bfa8 11bd
000001f0: af63 a1bb 2a7e 853d 20f9 c93c 157f 7aba
00000200: c47b 6bbd 9ca7 0c3d 559a 233c 68be 893d
00000210: 22bd c5bc b324 853d 094f 593d 3725 38bd
00000220: fcf6 5f3d c395 243d 619a fcbc e0c9 0ebd
00000230: 549c 52bd 436b acbc e209 073c c288 9ebd
00000240: ea2b 8abd fb83 8fbd 0ac4 5b3d 8518 edbc
00000250: b95b f7bc 74b2 8bbc abbb 9abd d879 5dbb
00000260: ce11 9fbd d9d6 54bd 9d65 67bd a3d9 563d
00000270: 7705 33bc 4d2c e7bc 733d c6bc db56 763c
00000280: 9d9e 93bd ad77 8b3d d376 a93d 942a 003d
00000290: 4846 96bd 5211 3abc e2af 033c 551c 94bd
000002a0: e77f 1dbd fd40 a4bd 0015 8dbd 0d7b f1bc
000002b0: af50 353d 02fe 493c 6cfe 473d 23fd bc3d
000002c0: ad2c 4b3d a470 32bc c94e a1bd 2bfa 913c
000002d0: d352 79bd ba1a ee3c 7ea4 893d 1a8e 0fbc
000002e0: 5586 833d 2e92 51bd 94d6 4fbd 52e2 303d
000002f0: e320 48bc ea6d 94bd 209e 41bd 9a41 883d
00000300: 0e74 2d3d d770 df3d da56 1b3d d776 5dbd
00000310: 2bf2 34bc df02 9fbc 107a ebbc a829 9f3d
00000320: 54cd 7ebd 347f 653d e55b 8f3d 2449 40bd
00000330: feea 5e3c 8e36 4d3d 2c09 b13c b704 5d3d
00000340: 7788 6bbd d732 b8bd f55d 5a3d a2b8 d03c
00000350: 45cf 513d 58a6 4f3d c621 963d e614 f2bb
00000360: af46 28bd 124e 8f3d b247 b3b8 3d82 983d
00000370: 5c1e e4bc 7639 733c 5cbc 50bd 7e3d 113d
00000380: 0622 503d 5ff4 91bd 69d7 4c3c 5ed6 e3bb
00000390: 5f7c 7f3d 2290 98bc 9bc2 913d 5da2 debc
000003a0: eeb8 2f3d 4386 94bd 0c16 a93c cdc7 8cbd
000003b0: 823c 223d 002d b13d 1a06 653c 8a17 9f3d
000003c0: f569 d43c 3ff0 263d 7432 6abb cb7d 06bd
000003d0: 75dc 4e3d b8a3 ebbb 9370 b03b b550 b3bc
000003e0: d393 0ebc ef7d 323d 91ae 0b3d 5fb1 18bd
000003f0: 13f1 2e3c 4012 713d 5070 99bd 4494 a63c

actor.bias f4 [4]
-0.05660598 0.020586666 0.072181076 0.058300894
00000000: acdb 67bd 5ea5 a83c acd3 933d ebcc 6e3d

critic.weight f4 [1, 128]
0.036853813 -0.049788553 0.006760333 -0.02910781 -0.07283138 0.08445596 -0.019014005 -0.04228285
-0.04804456 -0.07574862 -0.06080718 -0.054601558 0.0522717 -0.013528259 0.051997766 0.058016606
0.025242304 -0.07632878 -0.064018615 -0.06680947 -0.05347328 0.0913897 0.032833796 -0.0042194882
0.03795871 -0.018220957 0.055314034 -0.03853105 0.07549158 -0.03466769 -0.016567625 -0.07988186
0.07840512 -0.0052786083 -0.005755211 0.018086309 0.034551553 0.03437028 0.011060619 0.05086457
0.002827474 -0.062345777 -0.027706174 0.04241306 0.07566275 0.040714514 0.016950171 0.027568746
0.01358699 -0.051303096 -0.007009805 -0.0068535306 0.018978626 0.0023449874 -0.07123923 -0.021919973
-0.046016872 0.08265631 0.059016492 -0.05790495 0.07147426 -0.025150627 -0.046232533 -0.07897019
0.0973133 0.023364512 0.064023845 -0.0024217037 -0.060787637 0.012233744 0.01673793 -0.046145152
-0.06941929 -0.035624634 -0.045051523 0.036484648 -0.07262117 0.02993168 -0.058066864 0.047006585
0.092022024 0.04952246 -0.015876375 -0.06852645 0.045835145 -0.07230702 -0.04780342 -0.055668257
-0.060077008 0.09392436 0.025160149 0.0727828 0.008286424 0.015759636 0.08729775 0.02160599
0.061071943 -0.0023272014 -0.072561204 -0.062023833 -0.061463613 0.029579742 -0.013714871 0.012656319
-0.03856385 0.047250114 0.06652889 -0.05354287 -0.013779447 -0.028166924 0.08786806 -0.070785
-0.044082303 0.0044025686 -0.012245162 0.06651592 -0.017750034 -0.013174862 0.06437601 -0.009507813
0.023516767 -0.08435572 0.05904742 -0.04865197 0.06382085 0.032130565 -0.03904693 -6.464405e-07
00000000: 06f4 163d 15ef 4bbd c985 dd3b 8173 eebc
00000010: 9e28 95bd 3ff7 ac3d 42c3 9bbc c830 2dbd
00000020: 5fca 44bd 1822 9bbd f310 79bd e2a5 5fbd
00000030: da1a 563d a1a5 5dbc 9cfb 543d d2a2 6d3d
00000040: f3c8 ce3c 4352 9cbd 311c 83bd 67d3 88bd
00000050: cc06 5bbd 862a bb3d bb7c 063d a243 8abb
00000060: 987a 1b3d 1e44 95bc f890 623d bcd2 1dbd
00000070: 549b 9a3d b5ff 0dbd d4b8 87bc 1a99 a3bd
00000080: dd92 a03d 2df8 acbb 3696 bcbb bd29 943c
00000090: ee85 0d3d dac7 0c3d 9937 353c 5e57 503d
000000a0: 244d 393b 495e 7fbd 0ff8 e2bc 51b9 2d3d
000000b0: 12f5 9a3d 43c4 263d 16db 8a3c dad7 e13c
000000c0: f79b 5e3c 3223 52bd 82b2 e5bb 9593 e0bb
000000d0: 1079 9b3c 5cae 193b e0e5 91bd 8491 b3bc
000000e0: 307c 3cbd b647 a93d 47bb 713d be2d 6dbd
000000f0: 1961 923d b008 cebc 535e 3dbd 1fbb a1bd
00000100: 324c c73d ef66 bf3c ef1e 833d 72b5 1ebb
00000110: 75fc 78bd 0b70 483c fc1d 893c b302 3dbd
00000120: b32b 8ebd 23eb 11bd f287 38bd ed70 153d
00000130: 68ba 94bd 4833 f53c 85d7 6dbd fa89 403d
00000140: 0b76 bc3d 10d8 4a3d 2c0f 82bc 9857 8cbd
00000150: a2bd 3b3d b415 94bd 85cd 43bd 6604 64bd
00000160: 4f13 76bd 6a5b c03d a81c ce3c 260f 953d
00000170: c8c3 073c 5a1a 813c 2ac9 b23d 0cff b03c
00000180: 9326 7a3d f683 18bb f89a 94bd b40c 7ebd
00000190: 45c1 7bbd 3751 f23c 57b4 60bc 735c 4f3c
000001a0: 21f5 1dbd 5689 413d 4c40 883d c54f 5bbd
000001b0: 31c3 61bc 52be e6bc 2bf4 b33d baf7 90bd
000001c0: a58f 34bd 6c43 903b ef9f 48bc 8039 883d
000001d0: 8568 91bc 60db 57bc 92d7 833d a8c6 1bbc
000001e0: 3ca6 c03c b1c2 acbd b5db 713d 4a47 47bd
000001f0: 81b4 823d 579b 033d acef 1fbd 0e87 2db5
