checkpoints/only/seed4/final.pt (torch, 400887 bytes, 7 tensors)

fc1.weight f4 [256, 256]
0	0xbd85f649	-0.06541116
1	0x3cdd7390	0.027032644
2	0x3cab161c	0.020884566
3	0x3d1c685f	0.038185474
4	0xbcbe2290	-0.02320984
5	0xbd0cdd42	-0.034390695
6	0xbd62e159	-0.05539069
7	0x3d7cc540	0.06171155
8	0x3d6e7dc7	0.05822542
9	0x3cef97ad	0.02924713
10	0xbcc2c052	-0.023773346
11	0x3d099dbe	0.0335977
12	0x3d6ea378	0.058261365
13	0xbbe06797	-0.0068482864
14	0x3d09d365	0.033648867
15	0xbd2959f0	-0.041345537
16	0x3c599304	0.01327968
17	0xbc216b56	-0.009852251
18	0x3ceec9cc	0.029148959
19	0x3d630eb6	0.05543395
20	0xbd055869	-0.032555018
21	0xbcd411f9	-0.025887476
22	0x3c3d5d33	0.011557865
23	0xbd431ca8	-0.04763475
24	0xbbbd8684	-0.005783858
25	0x3d8a9914	0.067674786
26	0xbc590a77	-0.013247124
27	0x3ca42be3	0.020040458
28	0x3d35492b	0.04425923
29	0xbc96f27f	-0.018426178
30	0x3ce6eed1	0.028190048
31	0xbb79d5ad	-0.0038121745
32	0x3d8d667c	0.06904313
33	0xbd0a034c	-0.03369455
34	0x3d8214a8	0.06351596
35	0xbd75ca1d	-0.060007203
36	0xbcce7efb	-0.025207033
37	0xbd4770cf	-0.048691567
38	0xbcc466b4	-0.023974754
39	0xbd7d8c94	-0.061901644
40	0xbd1f406b	-0.038879793
41	0x3d03e3f3	0.03219981
42	0xbd12bb0f	-0.035822924
43	0xbcf9502e	-0.03043374
44	0x3d4e321f	0.050340768
45	0xbc9ab5a8	-0.018885449
46	0xbcdafc3a	-0.0267316
47	0xbd40d33b	-0.047076445
48	0x3d8a9fdd	0.06768773
49	0xbc7f261d	-0.015573052
50	0x3cc3ba60	0.023892581
51	0x3c2d082e	0.010561032
52	0xbb8feb59	-0.0043920693
53	0xbc902c5d	-0.017599279
54	0x3c520835	0.0128193395
55	0xbb9103dc	-0.004425509
56	0x3bbc117c	0.005739389
57	0xbbb89d73	-0.005634004
58	0x3d3ee418	0.046604246
59	0x3d306fc3	0.043075334
60	0xbcdbcc12	-0.026830707
61	0xbc37c11f	-0.011215477
62	0xbc103515	-0.008801718
63	0xbbf1a9a4	-0.007374959
64	0x3d43bb4b	0.04778604
65	0xbd38f1a9	-0.04515234
66	0x3d2a1c61	0.04153097
67	0xbbf9408f	-0.007606573
68	0x3d875f2e	0.06609951
69	0xbcefdec7	-0.029281033
70	0x3d38be89	0.045103583
71	0x3cf4d781	0.029887917
72	0xbcc26f8b	-0.023734828
73	0x3c471c81	0.012152792
74	0x3cd77ef5	0.026305655
75	0xbbdde150	-0.006771244
76	0x3d8ac0fc	0.0677509
77	0x3d79ed49	0.06101731
78	0xbc8c795f	-0.017147718
79	0xbd35bfa7	-0.044372227
80	0x3c831247	0.015999926
81	0xbd1e03d5	-0.038577873
82	0xbd63665b	-0.055517536
83	0xbd4f20cd	-0.05056839
84	0x3bd4e0fc	0.006496547
85	0xbd3438ab	-0.043999355
86	0x39162bec	0.00014321477
87	0x3b61cd5b	0.0034454677
88	0xbc8dd8b7	-0.017315252
89	0x3d36371d	0.044486154
90	0x3d2f9d35	0.042874534
91	0x3cecb5f9	0.028895365
92	0x3bae7202	0.0053236494
93	0x3d875d9e	0.06609653
94	0xbd5adf67	-0.05343571
95	0xbcc4294b	-0.023945471
96	0xbc0bae67	-0.0085254675
97	0x3d5b5f79	0.053557847
98	0x3d841c44	0.06450704
99	0x3c3fdce9	0.011710384
100	0x3c47c2c1	0.012192429
101	0xbc0d371f	-0.008619099
102	0x3c927775	0.017879227
103	0xbcc387db	-0.023868492
104	0xbcbb60f3	-0.022873377
105	0x3d8ab213	0.06772246
106	0xbd3b18db	-0.045678
107	0xbd20bc1e	-0.039241903
108	0x3d8471f5	0.06467048
109	0x3d876ca3	0.06612518
110	0xbd142b9b	-0.036174398
111	0xbd073ca7	-0.033016827
112	0x39973ceb	0.00028846352
113	0x3c633641	0.013867916
114	0xbc83a978	-0.01607202
115	0x3d5636be	0.0522983
116	0x3d3c6af8	0.04600045
117	0x3d1da847	0.03849056
118	0x3c621b19	0.013800406
119	0x3cf53091	0.029930385
120	0xbd02471b	-0.031806093
121	0xbd0377cd	-0.032096673
122	0x3d820bde	0.0634992
123	0xbd1522a8	-0.036410004
124	0xbc7dfa14	-0.015501518
125	0x3d3d15d1	0.046163384
126	0x3d6c83af	0.05774277
127	0x3c71d3b9	0.014759951
128	0x3d6508e4	0.055916682
129	0xbd6f8cba	-0.058483817
130	0x3c1b8db8	0.009494238
131	0x3d8cf4ad	0.06882606
132	0x3d8d901c	0.06912252
133	0x3c3816c1	0.011235894
134	0x3bd32c3f	0.0064444835
135	0x3d7211df	0.059099074
136	0xbd74351e	-0.05962097
137	0x3d4f72ce	0.050646596
138	0x3d4b93df	0.049701568
139	0x3b90b81c	0.004416479
140	0x3c456b61	0.012049527
141	0x3ce32b34	0.027730562
142	0xbca126aa	-0.019671757
143	0xbcbcb95d	-0.023037607
144	0x3c8b21c4	0.016983874
145	0xbd41f37a	-0.047351338
146	0xbd3e2107	-0.046418216
147	0xbcd96639	-0.026538001
148	0x3bdce6f9	0.0067414013
149	0xbd37b84e	-0.0448535
150	0xbb9e8f34	-0.0048388485
151	0x3d463227	0.048387673
152	0x3d7e9c7a	0.062160946
153	0xbc4d8d70	-0.012545928
154	0xbc0ca423	-0.008584055
155	0xbcd2c2b0	-0.0257276
156	0x3d3fb57e	0.046803944
157	0xbc1ad0d6	-0.009449204
158	0xbd4ed329	-0.050494347
159	0xbd64f346	-0.055896066
160	0xbcf9d764	-0.030498214
161	0x3d57579a	0.052573778
162	0xbccf2c48	-0.02528967
163	0xbb65b8c0	-0.0035052747
164	0x3d232902	0.03983403
165	0xbd340372	-0.0439486
166	0x3cc074e1	0.023493232
167	0xbd721421	-0.059101228
168	0xbd5062e4	-0.05087556
169	0xbb969fb0	-0.004596673
170	0x3cc88730	0.024478525
171	0x3cc630f4	0.024193265
172	0xbcacfca5	-0.021116564
173	0x3cc2dc98	0.023786828
174	0x3d1582ed	0.036501814
175	0xbbe48835	-0.006974245
176	0xbd5a7156	-0.05333074
177	0xbd4dec7e	-0.050274365
178	0x3ce1e594	0.027575292
179	0xbc3ad3e0	-0.011403054
180	0x3d5ae51a	0.053441145
181	0x3d2c71f1	0.04210085
182	0x3d6d85df	0.057988998
183	0xbb848711	-0.0040444215
184	0xbd3fcfac	-0.04682891
185	0xbd6e898c	-0.058236644
186	0x3d7a7756	0.061148964
187	0xbcb5e6a8	-0.022204712
188	0x3b4d3a25	0.0031315174
189	0x3be5c558	0.0070120506
190	0x3d83f6a1	0.06443525
191	0x3d60303d	0.054733504
192	0x3d457236	0.048204623
193	0xbd3fc457	-0.046818104
194	0x3c659c10	0.014014259
195	0xbce0f9a8	-0.027462795
196	0xbd5d98bc	-0.054100737
197	0xbbed6540	-0.007244736
198	0x3cb880b0	0.0225223
199	0xbb412f55	-0.0029477675
200	0x3d8055e6	0.06266384
201	0xbd43b80e	-0.04778295
202	0xbbd7a791	-0.006581255
203	0xbd0b2e5c	-0.03397976
204	0xbd2b91fe	-0.041887276
205	0xbcbf86f0	-0.023379773
206	0xbc7fdd60	-0.015616745
207	0xbd13efac	-0.03611724
208	0xbd1980b8	-0.03747627
209	0xbb133120	-0.00224597
210	0xbd2909d6	-0.041269146
211	0xbc9d4f0c	-0.019202732
212	0xbd622940	-0.05521512
213	0x3d5e8380	0.054324627
214	0x3d4b9306	0.04970076
215	0x3d68c590	0.056829035
216	0xbd5588fc	-0.05213259
217	0xbcfee56c	-0.031115256
218	0xbc92b75e	-0.017909702
219	0xbcf6fc41	-0.03014958
220	0x3d3cc032	0.04608173
221	0x3d414ebe	0.047194235
222	0x3c0041b0	0.007828161
223	0x3d33156e	0.04372161
224	0xbcd7edcc	-0.026358508
225	0xba5e0e00	-0.0008470714
226	0xbd36b90c	-0.04461007
227	0x3d143176	0.036179982
228	0x3c4afd40	0.012389481
229	0xbb1306f7	-0.0022434571
230	0xbc371388	-0.01117409
231	0x3d7a80f6	0.061158143
232	0x3b913e20	0.0044324547
233	0xbc78b5c8	-0.015180059
234	0xbcca4f6c	-0.024696074
235	0xbd701c1c	-0.058620557
236	0x3d3b5e34	0.045744136
237	0x3d3d2c30	0.04618472
238	0xbd248155	-0.040162403
239	0xbd300630	-0.04297465
240	0xbc2984a3	-0.010346564
241	0xbd213b00	-0.039362907
242	0x3d5fba60	0.0546211
243	0x3bd23691	0.006415196
244	0xbd5f75d2	-0.05455572
245	0x3cbd4a93	0.023106849
246	0xbd7b864c	-0.061407372
247	0xbd26ad2e	-0.0406925
248	0xbd625c2e	-0.05526369
249	0xbbf793a0	-0.00755544
250	0xbc87d3a4	-0.01658041
251	0xbc88375e	-0.016627964
252	0x3cd04f6b	0.025428494
253	0x3d41ed1e	0.047345273
254	0xbd0bfccc	-0.034176633
255	0x3b88694d	0.0041629435

fc1.bias f4 [256]
0	0xbd616aee	-0.055033617
1	0xbd5bac3c	-0.053631052
2	0x3d0303b0	0.03198594
3	0x3d21b7a8	0.03948179
4	0x3bbc96a0	0.0057552606
5	0x3d090b64	0.03345813
6	0x3d726c39	0.05918524
7	0x3d367e2d	0.044553924
8	0x3b786114	0.003789966
9	0x3884ba8a	6.328996e-05
10	0xbd7a531c	-0.061114416
11	0xbd0d204a	-0.03445462
12	0x3d35054e	0.044194512
13	0x3c172038	0.00922399
14	0x3d886211	0.0665933
15	0xbcf37f77	-0.029723866
16	0x3d83c5bb	0.064341985
17	0xbd78ca50	-0.060739815
18	0xbcf71bf8	-0.030164704
19	0x3c70dcfe	0.014701126
20	0xbae47877	-0.0017430921
21	0x3cad2892	0.02113751
22	0xbd316f26	-0.04331889
23	0x3d8acd13	0.06777396
24	0xbd24cba8	-0.040233284
25	0x3bb8ec28	0.0056433864
26	0x3c8b5c03	0.017011648
27	0x3cecefc7	0.028922928
28	0x3cb8923c	0.022530667
29	0x3ca1af7b	0.019736996
30	0x3d6885fa	0.056768395
31	0xbd246098	-0.04013118
32	0xbcdd7ef8	-0.027038082
33	0xbcd3c774	-0.025851943
34	0x3d3c6b9f	0.046001073
35	0xbc8f5995	-0.01749877
36	0xbd51961e	-0.051168554
37	0xbcf2ca12	-0.02963737
38	0x3b920e55	0.004457275
39	0x3ca0fff5	0.0196533
40	0xbd4be532	-0.049779125
41	0xbca8be1d	-0.020598466
42	0xbd2ee9f9	-0.042703602
43	0x3cbafd10	0.022825748
44	0x3c4e1494	0.012578148
45	0x3d69e54e	0.057103448
46	0xbc9fecfe	-0.019522186
47	0x3cff9915	0.031200925
48	0xbd57d79a	-0.052695848
49	0xbd2cc284	-0.042177692
50	0x3cb13bcc	0.021634959
51	0x3d247e5f	0.04015958
52	0x3d44abb4	0.04801531
53	0xbd463e0a	-0.04839901
54	0x3cfc5692	0.030802999
55	0x3d4acf73	0.049514245
56	0x3d1e3c34	0.038631633
57	0x3d80c6c0	0.062879086
58	0xbd7e3c47	-0.062069204
59	0x3cff7dc4	0.0311879
60	0x3d6b3036	0.057419024
61	0xbd7b3c76	-0.061336957
62	0x3d844dca	0.064601496
63	0xbcdee7f8	-0.02721022
64	0xbd24a3c3	-0.040195238
65	0xbcc9c564	-0.024630256
66	0xbb01bd1d	-0.0019796558
67	0xbb81b1ff	-0.0039579864
68	0xbd794d20	-0.060864568
69	0x3d173d46	0.03692367
70	0x3c3b9541	0.011449159
71	0xbd5d9f28	-0.05410686
72	0xbb53ffe0	-0.0032348558
73	0x3d5ba017	0.05361947
74	0xbc5f849c	-0.013642456
75	0x3d7dd90f	0.06197458
76	0xbd61ea0d	-0.05515485
77	0xbd1bd1ab	-0.03804175
78	0x3b998896	0.0046854718
79	0x3aa121b8	0.0012293374
80	0xbd525710	-0.05135256
81	0xbd40741a	-0.046985723
82	0xbd32dd7f	-0.043668266
83	0xbd0df3d8	-0.034656376
84	0xbccef3db	-0.025262764
85	0x3c1777c3	0.009244862
86	0xbd70df18	-0.05880651
87	0xbd102f16	-0.035201155
88	0xbd4a66b8	-0.049414366
89	0x3c82548c	0.015909456
90	0x3d375228	0.044756085
91	0xbd3ea0df	-0.046540137
92	0xbc4ac08c	-0.012375008
93	0xbcd91a10	-0.026501685
94	0x3ca6475d	0.0202977
95	0xbd782d56	-0.06059011
96	0x3a045f7f	0.00050496304
97	0x3d7257ca	0.059165753
98	0xbd402470	-0.04690975
99	0xbc999c0a	-0.018751163
100	0x3c78d3f8	0.015187256
101	0xbd21d55e	-0.039510123
102	0xbcc2917c	-0.023751013
103	0xbba5eeb7	-0.0050638574
104	0x3bcf1606	0.006319764
105	0x3d3beb9d	0.045878995
106	0x3d16db04	0.036829963
107	0x3c3857b6	0.011251381
108	0xbc3ee958	-0.011652313
109	0x3c96f0a1	0.018425288
110	0x3add0ca2	0.0016864727
111	0xbcc5054d	-0.02405038
112	0x3d53c37c	0.0517001
113	0xba72f0e0	-0.00092674606
114	0xbd247cd1	-0.040158097
115	0x3b7a728e	0.0038215253
116	0xbd7522df	-0.05984771
117	0x3d3293d0	0.043597996
118	0x3d75f372	0.06004662
119	0xbd23cdff	-0.039991375
120	0x3bed1db4	0.007236207
121	0xbcd9ae40	-0.026572347
122	0x3d0fe578	0.035130948
123	0xbd3de4b2	-0.04636068
124	0xbd6ce2af	-0.05783337
125	0x3bc2438b	0.005928462
126	0xbd5aa6a7	-0.05338159
127	0xbb736c9f	-0.00371436
128	0x3d1dd8f0	0.038536966
129	0xbd39d156	-0.045365654
130	0xbd5f911c	-0.054581746
131	0xbd5bf4e4	-0.053700343
132	0x3ceb1754	0.028697647
133	0xbcd4922d	-0.025948608
134	0x3d6bab38	0.057536334
135	0xbb075a1b	-0.0020653072
136	0xbd3a2187	-0.04544213
137	0xbd221298	-0.039568514
138	0xbd2e62c0	-0.042574644
139	0x3d500217	0.050783243
140	0xbc278dcb	-0.010226677
141	0x39796d50	0.00023787213
142	0xbd5f19a6	-0.05446782
143	0xbcd4bc8a	-0.025968809
144	0x3cb74274	0.022370555
145	0xbd6cc510	-0.05780512
146	0xbd2c55d1	-0.04207403
147	0x3b6948cf	0.0035596376
148	0xbc2c2a40	-0.01050812
149	0x3cd75a35	0.026288131
150	0xbd7bb0b5	-0.061447818
151	0x3cdbbf43	0.0268246
152	0x3b8bc530	0.00426545
153	0x3d28fe17	0.041257944
154	0x3c9c1d9e	0.019057091
155	0x3d1e78aa	0.038689293
156	0xbd2c59a2	-0.042077668
157	0x3b630fd1	0.0034646878
158	0xbd4451b0	-0.047929466
159	0xbbdfbf8b	-0.0068282536
160	0x3c921287	0.0178311
161	0xbc026114	-0.007957716
162	0x3d2d94be	0.04237818
163	0xbd35c143	-0.04437376
164	0xbc64d5b5	-0.013966967
165	0xbd0cb6ed	-0.03435414
166	0x3d42b122	0.04753221
167	0xb9c0667e	-0.00036697456
168	0xbd19d07c	-0.03755234
169	0x3ca72f44	0.02040828
170	0x3d531906	0.051537536
171	0xbd051918	-0.032494634
172	0xbd0df6ec	-0.03465931
173	0x3d4dd69c	0.050253496
174	0xbc874bad	-0.016515577
175	0x3d571000	0.052505493
176	0x3c83816b	0.016052922
177	0xbc39c954	-0.011339504
178	0xbcba88d2	-0.02277032
179	0x3a7c6a6c	0.0009628895
180	0xba27ca00	-0.0006400645
181	0x3d2646db	0.040594917
182	0x39a5e76d	0.00031643678
183	0x3d6b64e9	0.057469282
184	0xbc8bbdcf	-0.017058281
185	0xbcbfc69c	-0.023410134
186	0x3cabc752	0.020969067
187	0xbd57b892	-0.052666254
188	0xbc92092a	-0.017826635
189	0xbb8ffdeb	-0.004394283
190	0xbce70202	-0.0281992
191	0xbc83696c	-0.01604148
192	0x3ca35483	0.01993776
193	0x3c8667a7	0.016406847
194	0x3d511ade	0.051051013
195	0xbd320e97	-0.043470945
196	0xbcc95fd5	-0.02458183
197	0x3c45c3ce	0.012070609
198	0xbd002a93	-0.031290602
199	0xbcd4f347	-0.02599491
200	0xbd6bf611	-0.057607714
201	0x3d004e07	0.031324413
202	0x3d07a8b7	0.033119883
203	0xbbc60ffc	-0.006044386
204	0x3cbb5796	0.022868913
205	0xbcecb82f	-0.02889642
206	0x3cfd8679	0.03094791
207	0xbb9bb44a	-0.0047517167
208	0xbc644f61	-0.013934941
209	0xbd36a36f	-0.044589456
210	0xbc186378	-0.009301059
211	0x3d25d8e8	0.04049006
212	0x3c660624	0.01403955
213	0x3c2a18d8	0.0103819
214	0x3cad05a1	0.021120848
215	0x3d1b8a81	0.037973884
216	0xbb78c0d9	-0.0037956743
217	0xbc0049d0	-0.007830098
218	0x3d2f292b	0.04276387
219	0xbca5bcd8	-0.02023165
220	0x3bda7028	0.006666202
221	0x3d087eb7	0.03332397
222	0xbb806792	-0.0039185965
223	0x3d4fd4e2	0.05074013
224	0x3c5b054e	0.013367964
225	0x3d72177c	0.059104428
226	0xbc9f2d7f	-0.019430874
227	0xbc6d9d83	-0.014502886
228	0x3d8384d5	0.0642182
229	0x3c2552a3	0.010090503
230	0x3ac0e01c	0.0014715227
231	0xbd4e9e10	-0.05044371
232	0xbb9480fa	-0.0045319768
233	0x3d8007ea	0.062515095
234	0xbd4e1b1b	-0.05031882
235	0xbd1024a0	-0.03519118
236	0x3bfe3241	0.0077574556
237	0x3c35f69e	0.011106161
238	0x3d2bc65c	0.041937217
239	0xbd776883	-0.060402405
240	0x3bbd8fcd	0.0057849647
241	0x3c413018	0.011791252
242	0x3cee3cbb	0.029081693
243	0x3aa033af	0.0012222434
244	0x3bd73d17	0.006568562
245	0x3d27b3b9	0.04094288
246	0x3c3bb1cc	0.011455964
247	0xbbfb5d8b	-0.0076710633
248	0x3cd21e55	0.025649229
249	0x3d0b81f5	0.034059484
250	0xbcd06ccf	-0.025442509
251	0xbd48243a	-0.048862673
252	0xbd05b736	-0.032645427
253	0x3d89899b	0.06715699
254	0x3b9e0811	0.004822739
255	0x3d3abf56	0.04559263

fc2.weight f4 [128, 256]
0	0xbc9dc08c	-0.019256853
1	0xbccd5d5a	-0.025068928
2	0x3c809717	0.015697045
3	0x3d86870b	0.06568726
4	0x3d519dc2	0.05117584
5	0xbcb9b781	-0.02267051
6	0x3d812e6b	0.06307682
7	0x3d36b80d	0.04460912
8	0x3ca585f7	0.020205481
9	0xbd240df5	-0.040052373
10	0xbd114224	-0.035463467
11	0x3d575688	0.052572757
12	0xbcaeaf5c	-0.021323852
13	0x3c7f3c48	0.015578337
14	0xbbdf2809	-0.0068101925
15	0x3c64ba5b	0.013960446
16	0x3d0971d3	0.033555817
17	0x3c65ba6f	0.0140215
18	0xbba75b10	-0.005107291
19	0xbd5f0eb1	-0.05445737
20	0x3cdde143	0.027084952
21	0x3d060388	0.03271821
22	0xbbcdde1d	-0.0062825815
23	0xbd0374b3	-0.032093715
24	0x3d5cf072	0.053940244
25	0xbcc51dba	-0.024062026
26	0xbd558169	-0.05212537
27	0x3c4fed8b	0.012690912
28	0x38ef7e1e	0.00011419899
29	0xbd4edfdb	-0.050506454
30	0xbc9a730c	-0.018853687
31	0xbd516efa	-0.051131226
32	0xbd0cbca9	-0.034359608
33	0x3d58e422	0.05295194
34	0x3d3bf067	0.045883562
35	0x3ccc673b	0.024951568
36	0xbc31f495	-0.010861536
37	0x3c3b0c85	0.011416559
38	0x3c2a336c	0.0103882365
39	0x3cb24ec0	0.021766067
40	0x3d592282	0.053011425
41	0xbc9e3138	-0.019310579
42	0x3d879133	0.066194914
43	0x3d1509e9	0.036386404
44	0x3b6c9646	0.0036100312
45	0xbcb36c59	-0.02190225
46	0xbd5b007a	-0.05346725
47	0x3d6eee0e	0.058332495
48	0xbd0d349d	-0.034474004
49	0xbd3543d8	-0.044254154
50	0xbd0f79c8	-0.03502825
51	0xbd2684ae	-0.040653877
52	0xba897dd7	-0.0010489774
53	0xbc4db5a8	-0.012555517
54	0xbd239e95	-0.039946157
55	0xbc9c82c5	-0.019105325
56	0x3cf18654	0.029482998
57	0x3d4cb3d1	0.049976174
58	0xbd149323	-0.036273133
59	0x3b0eda60	0.0021797642
60	0xbd0ee8a5	-0.034889836
61	0x3c574418	0.013138793
62	0xbccf8c1a	-0.02533536
63	0xbd517402	-0.051136024
64	0xbc3388d0	-0.010957912
65	0x3cf886c9	0.030337708
66	0x3d16cf2e	0.036818676
67	0xbd4881ed	-0.048952032
68	0xbcadff93	-0.021240031
69	0xbd3b1374	-0.04567285
70	0xbcbf0101	-0.023315908
71	0x3ca8c2a8	0.020600632
72	0x3d22494d	0.039620686
73	0xbd4ff666	-0.050772093
74	0x3d44c525	0.048039574
75	0xbc1809af	-0.0092796525
76	0x3d0feb79	0.035136674
77	0x3c7fb2e1	0.015606613
78	0x3cd5d49f	0.026102362
79	0xbd4e6eb4	-0.050398543
80	0xbd42c838	-0.047554225
81	0xbc0d7f2d	-0.008636278
82	0xbd41a8ac	-0.04728
83	0xbc848e0c	-0.016181014
84	0xbc05dfcc	-0.008171033
85	0xbd342687	-0.043982055
86	0x3cc8c36d	0.024507249
87	0x3bdd3df0	0.0067517683
88	0xbd723b50	-0.059138596
89	0x3d39fa2a	0.04540459
90	0x3d57ed97	0.052716818
91	0x3d6d7440	0.057972193
92	0x3d0a7522	0.033803113
93	0x3d76e055	0.060272533
94	0x3d5278c6	0.05138471
95	0x3bcc9993	0.0062438934
96	0xbccd5c16	-0.025068324
97	0xbd21ca4f	-0.039499577
98	0x3d4d9da9	0.050199185
99	0xbd42fd1e	-0.047604673
100	0xbd41738a	-0.047229327
101	0xbca1bd68	-0.019743636
102	0x3ba46770	0.0050172135
103	0xbd61ad41	-0.05509687
104	0x3d6e03f8	0.058109254
105	0xbd2deef1	-0.0424642
106	0xbd3ca6d9	-0.046057556
107	0xbd3c1a7f	-0.045923706
108	0x3d2e4b8a	0.04255251
109	0x3d156511	0.036473338
110	0x3d001095	0.031265814
111	0x3cb165af	0.021654932
112	0xbd3ddc5a	-0.04635272
113	0x3b53722a	0.0032264092
114	0x3c5f4b53	0.013628799
115	0xbc1a23f2	-0.009407984
116	0x3ce4ab02	0.027913574
117	0xbd15a604	-0.036535278
118	0x3ae7235e	0.0017634442
119	0x3ccb393f	0.02480757
120	0xbc3e81f7	-0.011627666
121	0x3cbcbc58	0.023039028
122	0x3cf180e8	0.029480413
123	0xbd0f7988	-0.03502801
124	0xbd215907	-0.039391544
125	0xbd5234e8	-0.051319987
126	0x3a32f6a5	0.0006826914
127	0x3d4fa076	0.050690137
128	0x3d2165b3	0.03940363
129	0x3d6aba7c	0.05730675
130	0x3ca419aa	0.020031769
131	0xbd70b552	-0.05876667
132	0xbc34011b	-0.010986592
133	0x3d58ef36	0.052962504
134	0xbbf87303	-0.00758207
135	0x3cefa6b5	0.029254297
136	0xbd1fb962	-0.038995154
137	0xbd385ed4	-0.04501231
138	0xbd4b3d46	-0.04961898
139	0xbd035d82	-0.032071598
140	0x3d77d530	0.060506046
141	0xbd67b69a	-0.056570627
142	0x3d678c98	0.056530565
143	0x3c9a58f8	0.018841252
144	0xbcb74ab4	-0.022374488
145	0x3c90f7ac	0.017696224
146	0x3d1823c0	0.03714347
147	0xbd07a47f	-0.03311586
148	0xbbcff2c0	-0.0063460767
149	0x3d857a44	0.06517461
150	0x3c82231e	0.015885886
151	0x3c377791	0.01119794
152	0xbb16737e	-0.0022957022
153	0xbd27eb74	-0.04099603
154	0xbcd91e65	-0.026503751
155	0x3ab4bad6	0.0013788592
156	0xbd4230bc	-0.047409758
157	0x3c63fe35	0.013915588
158	0x3d85b40e	0.06528483
159	0x3d29c4cb	0.041447442
160	0xbc35421e	-0.011063127
161	0x3d15586a	0.03646127
162	0x3d1e4195	0.038636763
163	0x3b10a246	0.0022069379
164	0xbd5158d7	-0.051110115
165	0x3d2ed803	0.042686474
166	0xbd32f7c2	-0.04369331
167	0xbd42214d	-0.04739504
168	0xbd289df9	-0.04116628
169	0x3c4c8c09	0.012484559
170	0x3d293ccf	0.041317757
171	0xbd231bcb	-0.039821427
172	0x3cdbbcc1	0.026823403
173	0xbb827af0	-0.0039819404
174	0xba992532	-0.0011684059
175	0xbd06a69e	-0.032873742
176	0xbd6a2af9	-0.05716989
177	0x3d853839	0.06504864
178	0xbd6520b4	-0.05593939
179	0xbcce7c22	-0.025205676
180	0xbce3e910	-0.027821094
181	0x3cfec044	0.031097539
182	0x3d079b41	0.033107046
183	0x3d27acb8	0.0409362
184	0x3cb9a405	0.022661218
185	0x3d6030f4	0.054734185
186	0xbc3252e4	-0.0108840205
187	0xbd298d54	-0.041394547
188	0x3c3f752c	0.011685651
189	0x3c6bc814	0.014390964
190	0xbd260642	-0.04053331
191	0x3cccaafc	0.024983875
192	0xbcc079a7	-0.023495508
193	0x3cca0b69	0.024663644
194	0x3d1f717c	0.038926587
195	0x3d7d12d1	0.061785523
196	0xba3dc7a3	-0.0007239526
197	0x3d535d00	0.051602364
198	0xbb89b73d	-0.004202752
199	0xbd336556	-0.043797813
200	0x3ac24b05	0.0014823383
201	0x3b62aa0b	0.0034586217
202	0x3d86df3d	0.06585548
203	0xbd23c035	-0.039978225
204	0x3a94b69e	0.0011345928
205	0xbd5551ea	-0.052080072
206	0xbd045c63	-0.03231467
207	0xbcc5fab6	-0.0241674
208	0x3d4cfd7b	0.050046425
209	0x3d829106	0.06375317
210	0xbcbdf3e4	-0.023187585
211	0xbce65db8	-0.02812086
212	0xbc96eb1b	-0.018422654
213	0xbcc37363	-0.023858732
214	0xbc583484	-0.013196114
215	0x3d1aa0a1	0.037750844
216	0xbd0c1f5c	-0.034209594
217	0xbcda0fb0	-0.026618809
218	0xbc4f5ac3	-0.012655917
219	0xbd1cf5ee	-0.038320474
220	0xbd2d402d	-0.04229753
221	0x3d50a796	0.050941072
222	0xbb70add6	-0.0036724708
223	0xbbdd1590	-0.006746955
224	0x3d613cb0	0.054989517
225	0xbd4aba8a	-0.049494304
226	0x3d8573bb	0.065162145
227	0x3d11cef5	0.03559776
228	0xbd216982	-0.03940726
229	0x3d65095e	0.055917136
230	0x3d548101	0.05188084
231	0xbb9ab040	-0.0047207177
232	0x3cb0f298	0.021600053
233	0x3c9e8a5e	0.019353088
234	0xbce0ec43	-0.027456408
235	0x3d16a779	0.036780808
236	0xbd4b4a50	-0.049631417
237	0x3c394806	0.011308676
238	0xbd61f31f	-0.0551635
239	0x3d180c06	0.03712084
240	0x3d06780c	0.03282933
241	0xbcec9325	-0.028878758
242	0xbca73dd7	-0.02041523
243	0xbd19f2ad	-0.03758495
244	0xbc79c50d	-0.0152447345
245	0x3d5ba096	0.053619944
246	0x3d073ed7	0.033018913
247	0xbd25f03f	-0.04051232
248	0x3c982b76	0.018575411
249	0x3d21f2c7	0.03953817
250	0x3c14248e	0.009041918
251	0xbce5c3fa	-0.02804755
252	0xbcb3a172	-0.021927569
253	0x3d33f896	0.043938242
254	0x3d56a781	0.052405838
255	0xbd41e6c1	-0.047339205

fc2.bias f4 [128]
0	0x3cbda98e	0.023152139
1	0xbd35a1b3	-0.04434366
2	0x3c187240	0.009304583
3	0xbbeeef0f	-0.0072916816
4	0xbd5eff64	-0.05444278
5	0xbbfb780a	-0.007674222
6	0xbd0a0fd8	-0.033706516
7	0x3d449014	0.047988966
8	0xbd5f0030	-0.05444354
9	0xbd62dbf4	-0.055385545
10	0x3cf482e0	0.029847562
11	0xbd046b10	-0.032328665
12	0xbc107410	-0.008816734
13	0xba62c4ce	-0.0008650542
14	0x3c954c77	0.018224938
15	0xbd103be8	-0.03521338
16	0xbd6d7bf0	-0.057979524
17	0x3d51fac9	0.051264558
18	0x3d5155e5	0.051107306
19	0x3cf6ed61	0.030142488
20	0x3d534591	0.051580016
21	0xbd4caf49	-0.049971852
22	0x3d687d3f	0.05676007
23	0x3d28613f	0.041108366
24	0x3d44b553	0.048024487
25	0xbd4ba042	-0.04971338
26	0xbccbad1a	-0.024862815
27	0x3c11b35d	0.008892861
28	0xbc68de2a	-0.014213124
29	0x3d86035f	0.06543612
30	0xbd30f36e	-0.043200903
31	0xbd355bc4	-0.044276968
32	0x3d556a68	0.05210343
33	0xbcecb2f0	-0.028893918
34	0x3d818696	0.06324498
35	0x3cc24581	0.023714783
36	0x3a09b1fd	0.00052526576
37	0x3d36a931	0.044594947
38	0xbd2f59a4	-0.042810097
39	0x3cc9b052	0.024620209
40	0xbd746900	-0.05967045
41	0x3d7ca86a	0.06168405
42	0xbd53cab8	-0.051707
43	0x3d8696b2	0.065717116
44	0xbc99f0ab	-0.018791517
45	0xbd0ba858	-0.034096092
46	0xbd409490	-0.04701668
47	0xbd70edf1	-0.05882067
48	0xbc0ece4b	-0.008716176
49	0x3d898984	0.06715682
50	0xbc141172	-0.009037362
51	0xbd3ebb93	-0.046565603
52	0x3d2697ae	0.040671997
53	0xbd247e85	-0.04015972
54	0xbb40c8da	-0.0029416592
55	0xbc6f0a4d	-0.014589858
56	0xbd076127	-0.033051636
57	0xbd1d4964	-0.03840007
58	0x3bcb69fd	0.006207703
59	0xbca8ceab	-0.02060636
60	0xbd62a5aa	-0.05533377
61	0xbd620d0d	-0.055188227
62	0x3cb140ff	0.021637438
63	0xbd0f2a19	-0.034952257
64	0x3d41be58	0.047300667
65	0xbcc6b3e7	-0.024255706
66	0x3bd7ff32	0.006591701
67	0xbd4416cb	-0.0478733
68	0xbb81ad71	-0.0039574434
69	0xbd618ef7	-0.055067983
70	0xbd5c379a	-0.053763963
71	0xbd660639	-0.05615828
72	0x3c0a39e9	0.008436658
73	0x3cf667d7	0.030078812
74	0x3ca7ef12	0.02049974
75	0xbc90f891	-0.01769665
76	0xbbad5c41	-0.0052905385
77	0x3d53ddc9	0.051725183
78	0x3bf8c13d	0.007591395
79	0x3ce6682b	0.028125843
80	0x3bfa8e85	0.007646384
81	0xbd2f0871	-0.04273266
82	0x3b64b00a	0.0034894967
83	0x3c16728a	0.009182582
84	0x3d7f2469	0.062290583
85	0x3d04f5d4	0.032461002
86	0xbd078eca	-0.03309516
87	0x3d29e5c4	0.041478887
88	0x3cbfc2fd	0.023408407
89	0xbce9d07d	-0.028541798
90	0x3d0eb6c1	0.034842256
91	0xbd12a2a1	-0.035799626
92	0x3c853c3d	0.016264075
93	0x3d11c333	0.035586547
94	0xbce0e66f	-0.02745363
95	0xbc575e2b	-0.01314501
96	0x3d39517e	0.045243733
97	0x3c728363	0.014801833
98	0x3ccab91e	0.024746474
99	0x3bead001	0.0071659093
100	0xbd720d70	-0.059094846
101	0x3c97ce70	0.018531054
102	0xbd8a5b7c	-0.067557305
103	0x3bb3dcbf	0.0054889615
104	0xbd061ac9	-0.032740388
105	0x3c6d3d2e	0.014479918
106	0xbd78b19f	-0.060716268
107	0xbc1d5ff1	-0.009605394
108	0xbd26ef6d	-0.040755678
109	0x3ca04efc	0.019568913
110	0xbd1f418b	-0.038880866
111	0xbb824c67	-0.003976393
112	0xbd0201b8	-0.03173992
113	0x3d0d15a8	0.03444448
114	0xbd2ef588	-0.042714626
115	0xbd54e111	-0.051972453
116	0xbc9d6e1d	-0.019217545
117	0xbd2bdc58	-0.041958183
118	0xbbc3a63e	-0.0059707453
119	0x399d59fe	0.00030012423
120	0x3c286243	0.010277334
121	0x3d261ea1	0.040556554
122	0xbd0a2849	-0.033729825
123	0xbd08dfc1	-0.033416513
124	0xbc0a205b	-0.008430566
125	0x3d8113d6	0.063026115
126	0xba5b99be	-0.00083770964
127	0x3c4c493f	0.012468635

actor.weight f4 [4, 128]
0	0xbda877bd	-0.08225963
1	0xbcf87ff1	-0.030334445
2	0xbda56a5b	-0.08076926
3	0x3c91a067	0.017776681
4	0x3d89e72a	0.06733544
5	0x3d504f55	0.050856907
6	0xbc7a9aca	-0.015295694
7	0x3d22e384	0.039767757
8	0x3c336601	0.010949613
9	0x3d81630c	0.0631772
10	0x3cc6d369	0.02427073
11	0xbd516541	-0.051121954
12	0xbd9eb8c5	-0.07750086
13	0x3d8cfa04	0.06883624
14	0xbdae9cb4	-0.085259825
15	0xbd8495b4	-0.06473866
16	0xbcc66556	-0.024218243
17	0x3d56a3dd	0.052402366
18	0xbb0b4ea3	-0.0021256588
19	0x3d507fd9	0.050903175
20	0x3cc11a2e	0.023572054
21	0xbbe4853c	-0.0069738906
22	0xbd4fa6d3	-0.050696205
23	0xbd77b5b1	-0.06047601
24	0x3daaba70	0.083363414
25	0x3d812146	0.063051745
26	0x3d3195ab	0.043355625
27	0xbd6d7d55	-0.057980854
28	0xbd906a05	-0.070514716
29	0x3d1b8971	0.03797287
30	0xbd3ec198	-0.046571344
31	0x3dc1809f	0.09448361
32	0xbba101e3	-0.004913555
33	0x3beea825	0.007283228
34	0xbd022304	-0.031771675
35	0x3ce906d0	0.028445631
36	0x3c905fe9	0.017623859
37	0x3d66c410	0.056339324
38	0x3daa3891	0.083115704
39	0xbd80d357	-0.0629031
40	0x3d6f3bc7	0.058406617
41	0xbd93bea6	-0.07214098
42	0x3d38df59	0.045134876
43	0xbd79b9db	-0.06096826
44	0x3db73493	0.089455746
45	0xbd0c2f52	-0.034224816
46	0x3d041c6e	0.032253675
47	0x3cbeecaa	0.02330621
48	0x3d81599f	0.06315922
49	0x3d33e03b	0.043915015
50	0x3cf7ee23	0.03026492
51	0x3b8c51f9	0.004282233
52	0x3d846ecd	0.06466446
53	0xbd715c42	-0.058925875
54	0x3c9eaa14	0.019368209
55	0x3d1e7b2b	0.03869168
56	0xbd62b4df	-0.055348273
57	0xbd10b83b	-0.035331946
58	0x3d86b6be	0.06577824
59	0xbcfeced3	-0.03110448
60	0x3d8c5196	0.06851499
61	0xbd09e395	-0.033664305
62	0xbc644297	-0.013931892
63	0x3d50b8c8	0.05095747
64	0xbd3a0dd2	-0.045423336
65	0xba8a6612	-0.0010558984
66	0x3c30feb1	0.010802911
67	0xb9d73ac9	-0.00041051794
68	0xbd56732e	-0.052355938
69	0x3d7959a6	0.06087651
70	0x3c1e5f40	0.009666264
71	0x3d98b635	0.07456628
72	0x3ca3751c	0.019953303
73	0xbc7dcf71	-0.015491352
74	0xbd722b89	-0.05912355
75	0x3d8703ee	0.065925464
76	0x3d1f195f	0.038842555
77	0xbda63e1b	-0.081173144
78	0xbd4fc60a	-0.050725974
79	0xbd982a68	-0.07429963
80	0xbba8044c	-0.0051274654
81	0xbd680a2c	-0.056650326
82	0x3d92c105	0.07165722
83	0xbd0e0ed7	-0.03468212
84	0xbbda0e25	-0.006654518
85	0xbd96374a	-0.07334764
86	0x3dab952e	0.08378063
87	0xbcca675f	-0.024707494
88	0xbd81d95f	-0.06340288
89	0x3c275032	0.010211991
90	0x3d8fcee6	0.070218846
91	0x3d259b16	0.040431105
92	0x3cc1857c	0.02362322
93	0x3d6612a1	0.05617011
94	0xbd018201	-0.031618122
95	0xbdac7d94	-0.084223896
96	0xbd52be6f	-0.051451143
97	0x3d865e54	0.065609604
98	0x3b2fb746	0.002681212
99	0x3d0b0002	0.033935554
100	0x3c078fdf	0.008274048
101	0x3d066275	0.03280874
102	0xbc9aca46	-0.01889528
103	0xbd8e8797	-0.069594555
104	0xbc192237	-0.009346536
105	0xbd6cbf85	-0.057799835
106	0x3db33105	0.08749584
107	0x3d1a0f08	0.03761199
108	0xbc100e1d	-0.008792427
109	0xbd7c6185	-0.06161644
110	0xbbff5cff	-0.0077930684
111	0xbd393057	-0.045212116
112	0xbd381a27	-0.044946816
113	0xbd995324	-0.07486561
114	0x3c90465c	0.017611675
115	0x3d8403c4	0.06446031
116	0x3cc8c08c	0.024505876
117	0xbbd32437	-0.006443526
118	0x3c43d76c	0.011953216
119	0xbd5a6685	-0.053320426
120	0x3cf2dd1a	0.029646445
121	0x3d542692	0.051794596
122	0x3d9c1d7f	0.076228134
123	0xbc3e2177	-0.011604658
124	0x3d2b8ebb	0.041884165
125	0x3d0b7019	0.03404245
126	0xbd2ddf3e	-0.04244923
127	0xbdb4fed4	-0.08837667
128	0xbd95ac96	-0.07308309
129	0xbcc48782	-0.023990396
130	0xbdaaff2d	-0.08349452
131	0xbd8d2d5f	-0.068934195
132	0x3d3464e4	0.04404153
133	0x3cf1d47e	0.02952027
134	0x3d831668	0.06400758
135	0xbdaee328	-0.0853942
136	0xbb81d4ff	-0.0039621587
137	0x3d382c06	0.04496386
138	0xbd9cb322	-0.07651354
139	0xbd7a3849	-0.061088834
140	0x3d2411ab	0.040055912
141	0xbc913887	-0.01772715
142	0x3da93721	0.08262468
143	0xbd2f24ba	-0.042759635
144	0xbba05c6d	-0.0048938305
145	0xbcd82fe7	-0.02639003
146	0xbd6aaa4b	-0.05729131
147	0x3c104739	0.008806043
148	0x3d91bcdc	0.071161
149	0x3d250137	0.04028436
150	0x3ce35f3a	0.027755369
151	0xbd21a92b	-0.03946797
152	0x3d510488	0.051029712
153	0xbdb1eee5	-0.08688144
154	0x3ce09170	0.0274131
155	0x3c13bcb9	0.009017163
156	0x3d43a094	0.04776056
157	0x3d10e037	0.035370078
158	0x3d3378cb	0.04381637
159	0x3d3ed72e	0.04659193
160	0xbd0a23b5	-0.03372546
161	0x3d8e9054	0.06961122
162	0x3da3d1c2	0.079989925
163	0xbc8d8c57	-0.017278833
164	0xbda228c2	-0.0791793
165	0x3c94338f	0.018090991
166	0xbcbc0a75	-0.022954205
167	0x3d30cc88	0.043163806
168	0x3d304b5b	0.043040615
169	0xbd3ceca8	-0.04612413
170	0x3d2460a5	0.04013123
171	0x3cabd01f	0.020973263
172	0xbda030de	-0.07821821
173	0x3ce33d0e	0.027739074
174	0xbcea0d7e	-0.028570887
175	0x3b960cee	0.004579178
176	0xbd796c0d	-0.06089406
177	0x3cdbb0f9	0.026817786
178	0xbbc3efe2	-0.005979524
179	0xbd04ab45	-0.032389898
180	0x3cc583cc	0.024110697
181	0xbd182f20	-0.037154317
182	0xbd84657f	-0.06464671
183	0x3ca1aeff	0.019736765
184	0xbd460af0	-0.048350275
185	0xbd49fd42	-0.04931379
186	0xbd823212	-0.063572064
187	0xbd1d2d76	-0.038373433
188	0x3d71016b	0.058839243
189	0x3c9ddb33	0.019269561
190	0xbd158312	-0.03650195
191	0xbd02eba1	-0.031962994
192	0x3d6f2817	0.058387842
193	0xbdb5ccbe	-0.08876942
194	0xbdba02de	-0.09082578
195	0xbc901f68	-0.0175931
196	0x3d893185	0.06698898
197	0x3c25f58c	0.010129344
198	0xbd0665c5	-0.0328119
199	0xbdad4203	-0.08459856
200	0xbcd80c7e	-0.026373144
201	0x3d16684a	0.03672055
202	0xbd3d19c1	-0.04616714
203	0x3d7d6dd5	0.061872322
204	0x3d970769	0.0737446
205	0x3d919934	0.07109299
206	0x3d1e2591	0.038610045
207	0x3dbdfbce	0.092765436
208	0x3d4f8a16	0.0506688
209	0xbd58c719	-0.05292425
210	0x3baed2e0	0.005335197
211	0xbd8af5c8	-0.0678516
212	0x3d70a296	0.058748804
213	0xbd61ef0b	-0.05515961
214	0x3d6d0a4b	0.057871144
215	0xbd419c7d	-0.04726838
216	0x3d42f73c	0.047599062
217	0x3a6dffa9	0.0009078929
218	0xbcd4f419	-0.025995301
219	0x3d115f23	0.03549112
220	0x3ca5a025	0.020217964
221	0xbb9771b5	-0.004621709
222	0xbd850879	-0.06495757
223	0x3db0e6c5	0.08637766
224	0x3ca8adf0	0.020590752
225	0x3d0c16e6	0.034201525
226	0xbd8419d6	-0.0645024
227	0xbc3b97a9	-0.011449733
228	0xbd7316c4	-0.059347883
229	0xbcbd21ec	-0.023087464
230	0x3cb0df78	0.021590933
231	0xbd408239	-0.04699919
232	0x3cc9abeb	0.02461811
233	0xbdb7c037	-0.08972209
234	0x3dae694f	0.0851618
235	0xbdaf86b2	-0.08570613
236	0x3d605724	0.054770604
237	0x3c3ebee9	0.011642196
238	0xbd5395c2	-0.051656492
239	0x3d851855	0.064987816
240	0xbd0f8024	-0.035034314
241	0x3bf9bcb1	0.0076213707
242	0x3d790618	0.060796827
243	0x3cc573b7	0.024103029
244	0xbc88cb7c	-0.016698591
245	0x3d5ac54f	0.053410824
246	0xbd29a6af	-0.041418727
247	0xbcf71f00	-0.03016615
248	0x3d7ee6bd	0.062231768
249	0xbd8a5678	-0.06754774
250	0x3d2bb09c	0.041916475
251	0x3d784cb6	0.060620032
252	0x3d7ef406	0.062244438
253	0x3d8e45a8	0.069468796
254	0x3dae1626	0.08500318
255	0xbd4d5d2f	-0.050137695

actor.bias f4 [4]
0	0x3c35580f	0.011068358
1	0xbbc7f069	-0.006101657
2	0xbd9682af	-0.07349145
3	0x3d54a064	0.051910773

critic.weight f4 [1, 128]
0	0x3d8806b2	0.06641902
1	0x3d0cf79b	0.034415822
2	0x3bba73c1	0.0056900685
3	0x3d1fa556	0.038976036
4	0x3d8b3460	0.06797099
5	0x3c92093f	0.017826675
6	0xbba73c2f	-0.00510361
7	0xbd667511	-0.056263987
8	0x3d2e8886	0.042610668
9	0xbd7a396e	-0.061089925
10	0x3bdbeacd	0.00671134
11	0xbc5becdb	-0.01342317
12	0x3d8436a3	0.064557336
13	0x3d3c65cb	0.045995515
14	0xbd9d8198	-0.07690734
15	0x3db769a0	0.08955693
16	0xbc85b4b5	-0.01632152
17	0x3d82ca6c	0.06386265
18	0x3cd615cb	0.026133439
19	0xbd852de3	-0.06502893
20	0x3bb3baf6	0.005484934
21	0xbd7f1c00	-0.062282562
22	0xbda3e989	-0.08003528
23	0x3db4f2b9	0.08835358
24	0xbcf82597	-0.030291362
25	0x3d9b2d85	0.075770415
26	0x3db7bdd4	0.08971754
27	0x3c401d55	0.011725743
28	0x3bc18e86	0.0059068827
29	0x3db1b7a3	0.08677604
30	0xbd724a65	-0.05915298
31	0x3d1b5540	0.037923098
32	0x3d7dec49	0.061992917
33	0x3bd4e6bb	0.006497232
34	0x3d6b2e2b	0.057417076
35	0xbc8c4329	-0.017121868
36	0x3d836c67	0.064171605
37	0xbd873369	-0.066016026
38	0xbcbf31b2	-0.023339126
39	0x3c16417d	0.009170887
40	0xbda1df9e	-0.0790398
41	0x3d660ab4	0.05616255
42	0x3d14e1b0	0.036348045
43	0x3d97c9d9	0.07411546
44	0x3d704649	0.05866078
45	0x3d63832d	0.05554502
46	0x3d3ebc46	0.04656627
47	0xbd3f71af	-0.046739276
48	0xbd54ad61	-0.05192316
49	0x3dad73fe	0.084693894
50	0xbcff36bf	-0.031154035
51	0x3c011e66	0.007880783
52	0x3d79220f	0.060823496
53	0xbd4938c8	-0.049126416
54	0xbcb20936	-0.021732908
55	0x3da385b4	0.07984486
56	0xbc57f6e7	-0.013181425
57	0x3c9da4de	0.019243654
58	0x3bf6a617	0.0075271237
59	0x3d422513	0.047398638
60	0x3cab881f	0.020938931
61	0xbd7bbcd1	-0.061459366
62	0x3ca33e2b	0.019927105
63	0xbd186150	-0.03720218
64	0x3db5ae49	0.08871133
65	0x3d65a9e7	0.056070235
66	0x3d329cf4	0.043606713
67	0x3c9c746d	0.019098485
68	0x3d04a68b	0.03238539
69	0x3db5782f	0.08860814
70	0xbd498b2c	-0.04920499
71	0xbd8effec	-0.06982407
72	0xbd9eb6db	-0.07749721
73	0x3ca4a685	0.020098934
74	0x3a20003e	0.0006103552
75	0xbcbe9766	-0.023265552
76	0xbd9adae7	-0.075612836
77	0xbcfa59c0	-0.030560374
78	0xbcf7a4f1	-0.030230017
79	0x3c073802	0.008253099
80	0x3d126041	0.035736326
81	0xbcf06627	-0.029345585
82	0x3c86732a	0.016412336
83	0xbd141cbe	-0.036160223
84	0x3d7d2636	0.06180402
85	0x3cc9789e	0.024593648
86	0xbd83a8e4	-0.06428698
87	0x3c0d5a64	0.008627508
88	0x3d6dfcef	0.058102544
89	0xbd5b3c37	-0.053524222
90	0xbd9a693b	-0.07539602
91	0x3c1d66a5	0.009606992
92	0xbd8b39f6	-0.067981645
93	0x3dac6a6d	0.084187366
94	0x3d59521d	0.053056825
95	0xbd8ea78f	-0.06965553
96	0xbdabf2b0	-0.08395898
97	0xbca38fe7	-0.019966079
98	0x3d6a43ef	0.057193693
99	0x3db583ce	0.088630304
100	0xbcdcbd25	-0.02694566
101	0x3b8071e1	0.0039198254
102	0x3d8889f9	0.06666941
103	0x3d0e3531	0.034718696
104	0xbc14f7a3	-0.009092244
105	0xbd6b6df8	-0.05747792
106	0xbd61a73a	-0.05509112
107	0xbdacab37	-0.08431094
108	0xbc5caf93	-0.0134695945
109	0xbc93287b	-0.017963639
110	0xbd2d6eb8	-0.042341918
111	0x39589893	0.00020656204
112	0x3da65c45	0.08123068
113	0xbc8b3a28	-0.016995504
114	0xbd9914ea	-0.07474692
115	0x3c1d6011	0.009605424
116	0x3c97eb41	0.018544795
117	0x3d8c7b9f	0.06859516
118	0xbce65988	-0.028118864
119	0xbbc2776f	-0.0059346478
120	0x3d8b7b75	0.06810657
121	0xbd8c729b	-0.06857797
122	0xbc24759f	-0.010037809
123	0x3d07f000	0.033187866
124	0x3cc9314d	0.024559641
125	0x3ca10bab	0.019658884
126	0xbdac4787	-0.0841208
127	0xbda772a0	-0.0817616
