checkpoints/icm/seed1/final.pt (torch, 869915 bytes, 19 tensors)

fc1.weight f4 [256, 256]
0	0xbd91d9db	-0.07121631
1	0xbce3c7d5	-0.027805248
2	0x3d26267b	0.04056404
3	0x3d363e4f	0.044493016
4	0x3ca8e338	0.020616159
5	0xbd3c1cef	-0.04592603
6	0xbcc207da	-0.023685385
7	0xbc654a42	-0.013994755
8	0x3d73bef3	0.059508275
9	0xbd8d4457	-0.068978004
10	0x3d306d23	0.04307283
11	0x3c9e664b	0.019335886
12	0xbc827ef3	-0.015929675
13	0x3a961ab2	0.0011452048
14	0x3ab9cc11	0.0014175196
15	0xbd6c50e9	-0.05769435
16	0x3c57df38	0.013175778
17	0xbd060a6a	-0.032724775
18	0x3d82562a	0.06364091
19	0xbc839c82	-0.01606584
20	0xbd5012e9	-0.050799284
21	0x39d74de4	0.0004106603
22	0x3d6a3caf	0.05718678
23	0x3c07ccd2	0.008288579
24	0x3d3f2a39	0.046671126
25	0xbc5de6d9	-0.013543808
26	0x3cc70821	0.024295868
27	0xbb848daf	-0.0040452103
28	0xbcb82536	-0.022478681
29	0x3d34e50a	0.04416374
30	0x3d5d2c16	0.05399712
31	0x3990e391	0.0002763537
32	0x3d3304dd	0.04370581
33	0x3d3f3ed7	0.046690788
34	0x3c7cc29e	0.01542726
35	0xbd7938d7	-0.060845222
36	0x3cbd7b30	0.02313003
37	0xbbaac423	-0.0052113696
38	0xbd1c2199	-0.03811798
39	0xbd1da06d	-0.038483072
40	0xbd126e5c	-0.03574978
41	0xbd54aa9b	-0.051920515
42	0xbd4ed5bd	-0.050496805
43	0xbd675afa	-0.056483246
44	0x3cc9dbae	0.024640884
45	0xbc8a4662	-0.016879264
46	0xbbbcfc71	-0.005767398
47	0x3a5cb988	0.00084199803
48	0x3ca4be99	0.020110415
49	0x3cfd23dc	0.030900888
50	0x3d79ac10	0.060955107
51	0xbcc42021	-0.023941102
52	0xbbe6d7ae	-0.007044754
53	0xbc9bbf58	-0.019012138
54	0xbc6b6303	-0.014366868
55	0xba9d54a0	-0.001200337
56	0xbc9b6300	-0.018968105
57	0x3aefac2d	0.0018285565
58	0x3b63524a	0.00346865
59	0xbd3090c0	-0.043106794
60	0xbd61d0b7	-0.055130687
61	0x3d860c5d	0.06545327
62	0xbd4fb4c8	-0.050709516
63	0x3c93d9a0	0.018048108
64	0x3cd0a162	0.025467578
65	0xbbfcebbd	-0.007718532
66	0x3d5c1da2	0.053739198
67	0x3d68c5b8	0.056829184
68	0xbd30159a	-0.04298935
69	0xbd2cb37e	-0.042163365
70	0xbcc2fd8e	-0.023802545
71	0x3cc0d876	0.023540717
72	0xbc0dde70	-0.00865899
73	0x3d31f1e9	0.043443594
74	0x3d561fd2	0.05227644
75	0x3c46c6db	0.012132372
76	0x3d702b50	0.058635056
77	0x3c4cf0fb	0.012508626
78	0x3d076d54	0.033063248
79	0xbcb11896	-0.021618169
80	0xbd78e6ae	-0.06076687
81	0xbba1e356	-0.0049404306
82	0xbd072170	-0.032990873
83	0x3c769b52	0.01505168
84	0xbd46a658	-0.04849848
85	0x3cdc732e	0.02691039
86	0x3c24e073	0.0100632785
87	0xbce86e5e	-0.02837294
88	0x3d3fd0ce	0.04682999
89	0x3d0c903a	0.034317233
90	0x3bd47ece	0.006484843
91	0xbd578bba	-0.052623488
92	0x3d570a36	0.052499972
93	0xbd65e6b0	-0.056128204
94	0xbc74de1d	-0.014945534
95	0xbd714fb6	-0.05891391
96	0x3c005778	0.007833354
97	0x3c8e2ffe	0.017356869
98	0xbd163942	-0.0366757
99	0xbcd5b694	-0.026088037
100	0xbd5580bb	-0.05212472
101	0x3d379a68	0.044824988
102	0xbc919f42	-0.017776135
103	0x3cae2bc6	0.021261107
104	0x3d5a46b8	0.0532901
105	0xbb365245	-0.0027820033
106	0xbd04e94b	-0.032449048
107	0x3d5b1c58	0.053493828
108	0x3c47f8c8	0.01220531
109	0x3cb04f4e	0.02152219
110	0xbd438522	-0.047734387
111	0xbd4d059a	-0.05005417
112	0x3cc38752	0.023868237
113	0xbbc46372	-0.0059933
114	0x3cc96caa	0.024587948
115	0xbc8bee96	-0.01708154
116	0x3ca1a9b2	0.019734237
117	0xbc08e0b7	-0.008354357
118	0x3d3867a4	0.045020714
119	0x3d71ec2e	0.05906313
120	0xbd0e98a2	-0.03481353
121	0x3c8d6f12	0.017264877
122	0xbbbaabc3	-0.005696745
123	0x3cf75a56	0.030194443
124	0x3cc2b088	0.023765817
125	0xbcf813ac	-0.030282818
126	0xbc84c5cc	-0.016207598
127	0xbb96b534	-0.004599238
128	0x3cf559e0	0.029950082
129	0xbb12bc20	-0.0022389963
130	0x3c6dcf79	0.014514797
131	0xbcd3f972	-0.02587578
132	0xbc38c2a3	-0.011276874
133	0x3d3aef76	0.045638524
134	0x3d11efe2	0.03562916
135	0x3c8eb39c	0.017419629
136	0xbd01c23e	-0.031679384
137	0x3d68d998	0.05684814
138	0xbcfd5c36	-0.030927759
139	0x3cb207ea	0.02173229
140	0x3d1537e8	0.03643027
141	0x3d5be75a	0.05368743
142	0x3c643ea8	0.013930954
143	0x3d6eaf7c	0.058272824
144	0x3d45934a	0.04823617
145	0xbd203eb4	-0.0391223
146	0x39b9b4be	0.00035420613
147	0x3c3db256	0.011578163
148	0xbd5bf92c	-0.053704426
149	0xbc18ef79	-0.0093344385
150	0x3c977a80	0.01849103
151	0x3cd1ec70	0.025625437
152	0x3c031edb	0.008002962
153	0x3c87e9c8	0.016590968
154	0x3d18d31d	0.03731071
155	0x3d400b6e	0.0468859
156	0x3c9eb6ca	0.01937427
157	0x3d5b8160	0.05359018
158	0x3d3cc5f5	0.046087224
159	0x3b9a3a90	0.004706688
160	0xbd75beca	-0.059996404
161	0xbd1322a5	-0.03592171
162	0x39b63cf4	0.0003475916
163	0xbd861b3a	-0.06548162
164	0x3ca4fbbd	0.02013957
165	0xbcca1b80	-0.024671316
166	0xbcefa7bd	-0.029254789
167	0x3d3fba24	0.046808377
168	0xbd4db204	-0.050218597
169	0x3d3e10fb	0.046402913
170	0xbd5f7323	-0.054553162
171	0x3d082986	0.033242725
172	0xbc7c318e	-0.015392674
173	0xbceabe8a	-0.02865531
174	0x3c4e2e50	0.012584284
175	0x3c1dce6b	0.009631733
176	0xba8d2680	-0.001076892
177	0x3d55ed14	0.05222805
178	0x3d6ecc71	0.05830044
179	0xbcf7fc27	-0.030271603
180	0x3d6b422a	0.057436146
181	0x3c451d20	0.01203087
182	0x3c098458	0.00839337
183	0xbb6ff4b2	-0.0036614356
184	0xbd7e48ba	-0.062081076
185	0x3d079bae	0.033107452
186	0x3cd98e7b	0.026557198
187	0x3d6be6ab	0.05759303
188	0x3d832290	0.06403077
189	0xbcbba6c8	-0.022906676
190	0x3b8dd364	0.0043281782
191	0x3d69d013	0.0570832
192	0xbc86ed4c	-0.016470574
193	0xbc6b3670	-0.014356241
194	0xbbcb38e0	-0.0062018484
195	0xbc2a77c8	-0.010404535
196	0x3d57891c	0.052620992
197	0x3c816b48	0.015798226
198	0x3bb78f20	0.0056017786
199	0xbcf983e0	-0.03045839
200	0x3d22998c	0.039697215
201	0xbd70ee18	-0.058820814
202	0xbc83a200	-0.016068459
203	0xbd1df7f6	-0.038566552
204	0x3d438a40	0.047739267
205	0x3d08c22c	0.0333883
206	0xbb8f18f0	-0.0043669865
207	0x3c19aa99	0.009379053
208	0x3ca7cf84	0.020484693
209	0xbd58f76c	-0.052970335
210	0xbcf3b808	-0.029750839
211	0xbc4de428	-0.012566604
212	0xbd38b3ac	-0.045093223
213	0x3cc37d63	0.0238635
214	0xbc9482e0	-0.018128812
215	0x3cb67a1c	0.022275023
216	0xbd2442a6	-0.040102623
217	0x3d320a28	0.043466717
218	0x3d5e1a08	0.054224044
219	0x3c7923d8	0.0152063
220	0xbcab344c	-0.02089896
221	0x3bbeaafc	0.005818723
222	0x3d0a2dc4	0.03373505
223	0x3c78c9f8	0.015184872
224	0xbc64581b	-0.013937022
225	0x3ce9b614	0.028529204
226	0x3d213076	0.039352857
227	0xbcd39794	-0.025829114
228	0x3c8e2c3e	0.01735508
229	0x3d765a72	0.06014485
230	0x3d4e71ca	0.050401486
231	0xbd7ee6c0	-0.06223178
232	0x3d0e0b36	0.03467866
233	0xbd3b7996	-0.04577025
234	0xbd316ca0	-0.043316483
235	0x3baca250	0.0052683726
236	0xbd5b0fe2	-0.053481944
237	0xbc2270b0	-0.009914562
238	0xbd16a0b2	-0.036774345
239	0xbcc51850	-0.024059445
240	0xbc6cc8cf	-0.014452173
241	0xbc7856a0	-0.015157372
242	0xbb5d7840	-0.0033793598
243	0xbd60585a	-0.05477176
244	0x3bbcf8a0	0.005766943
245	0xbd4fc6ac	-0.050726578
246	0x3d2e9580	0.042623043
247	0xbd01f11c	-0.03172408
248	0x3d408ff2	0.047012277
249	0xbcdfcee0	-0.027320325
250	0xbc9a05f8	-0.018801674
251	0x3d687ce6	0.056759737
252	0xbcdd83ec	-0.027040444
253	0x3d4d204e	0.050079636
254	0x3d3c7c3a	0.04601691
255	0xbc496cb8	-0.012293987

fc1.bias f4 [256]
0	0x3c896ce3	0.016775554
1	0xbd81b0fd	-0.06332586
2	0xbd6da5cb	-0.05801944
3	0x3d1b2778	0.037879437
4	0x3d1f71f7	0.038927045
5	0x3c963338	0.01833497
6	0x3d12f03b	0.035873633
7	0xbcd7e863	-0.026355928
8	0xbd088f5c	-0.033339843
9	0x3d208935	0.03919335
10	0x3cfc85c0	0.030825496
11	0xbd01b317	-0.031664934
12	0x3d580740	0.05274129
13	0xbd387126	-0.04502978
14	0x3d3bec5d	0.04587971
15	0x3d7b775e	0.061393134
16	0x3d67089e	0.056404702
17	0xbd1ec06b	-0.038757723
18	0xbd0b046b	-0.03393976
19	0xbbff1097	-0.00778396
20	0xbd28cb5a	-0.041209556
21	0xbcd947bd	-0.026523465
22	0x3c648589	0.013947853
23	0xbd407510	-0.04698664
24	0xbd393eaa	-0.045225777
25	0xbcedf33c	-0.029046647
26	0xbd761fa6	-0.060088776
27	0x3cc497fb	0.023998251
28	0x3c89c13c	0.016815774
29	0xbc834512	-0.016024146
30	0x3a5b2f68	0.0008361251
31	0x3d85b9ac	0.06529555
32	0xbcd58ec7	-0.026069058
33	0xbd35a2bb	-0.044344645
34	0x3b0c6377	0.002142159
35	0x3d8585c7	0.06519657
36	0xbc5acffb	-0.0133552505
37	0x3d2eec3f	0.04270577
38	0x3d36dfba	0.044646956
39	0xbd0b88fc	-0.034066185
40	0xbc2d1b1f	-0.010565548
41	0xbd6cf0c6	-0.057846807
42	0xbcfd8237	-0.03094588
43	0xbd525245	-0.05134799
44	0xbc281ff0	-0.010261521
45	0xbd36d2cc	-0.044634625
46	0x3ca18078	0.019714579
47	0xbd3b4745	-0.045722265
48	0xbc8d22a8	-0.01722844
49	0xbd7746e8	-0.060370356
50	0xbb95b857	-0.004569094
51	0xbd101f94	-0.035186365
52	0xbcdf5052	-0.02725998
53	0xbccef458	-0.025262997
54	0x3d578fdc	0.05262743
55	0x3d4109fc	0.047128662
56	0x3cd478e1	0.025936546
57	0x3c971f94	0.018447675
58	0xbcb36478	-0.021898493
59	0xbc8be24e	-0.017075684
60	0xbc3c51f0	-0.011494145
61	0xbce9def0	-0.028548688
62	0xbd1d950c	-0.03847222
63	0xbd83f00b	-0.06442269
64	0xbcb05b09	-0.021527784
65	0x3c438b8a	0.011935124
66	0xbd571036	-0.052505694
67	0x3c84d622	0.016215388
68	0xbce9517a	-0.028481234
69	0x3c9e7df2	0.019347165
70	0xbc08979a	-0.008336926
71	0xbcc920d9	-0.024551796
72	0x3d4d679a	0.05014763
73	0xbd00f18c	-0.031480357
74	0x3d17cdda	0.03706155
75	0xbb11ce80	-0.0022248328
76	0x3d85f323	0.06540515
77	0xbd556b5e	-0.052104346
78	0x3d7a8e75	0.061171014
79	0xbd0ea09a	-0.03482113
80	0xbd79bd04	-0.060971275
81	0x3d8e4bd1	0.069480546
82	0xbbc55a9a	-0.0060227634
83	0xbc08b174	-0.008343089
84	0xbccf064d	-0.02527156
85	0x3d21fbed	0.039546896
86	0x3d2dc2c7	0.042422082
87	0x3bb0e521	0.005398408
88	0xbd520d33	-0.05128212
89	0x3d477693	0.048697066
90	0xbd312f9c	-0.043258294
91	0x3d01d3d2	0.03169615
92	0x3d2d0adf	0.042246696
93	0xbbfcb280	-0.0077117085
94	0x3cc9e9ab	0.024647554
95	0xba62f8b8	-0.0008658278
96	0xbbe319c0	-0.00693056
97	0xbd5caf6e	-0.05387824
98	0x3cc33140	0.023827195
99	0x3b997c32	0.0046839947
100	0x3c35a8b8	0.011087589
101	0x3d297f2b	0.041381042
102	0xbbc87d27	-0.006118435
103	0xbd01d5c1	-0.031697992
104	0xbca0a888	-0.019611612
105	0x3ade3119	0.0016951888
106	0x3d23f056	0.040024124
107	0xbb745265	-0.0037280556
108	0x3bb0ef8c	0.00539965
109	0xbc8b509e	-0.017006215
110	0xbd36124d	-0.044451047
111	0x3d5190a7	0.05116334
112	0x3caa96e0	0.020823896
113	0x3c627699	0.013822221
114	0x3d10d719	0.035361383
115	0xbc937ad0	-0.018002898
116	0xbbbcc7a8	-0.0057611056
117	0x3ce2c9ac	0.027684055
118	0x3d804499	0.06263084
119	0x3b17de20	0.0023173168
120	0xbd4d38bf	-0.050102945
121	0xbd5ece38	-0.054395884
122	0x3d25e65d	0.040502895
123	0x3cfcb7d1	0.03084937
124	0xbc004ffc	-0.00783157
125	0x3d03b84e	0.03215819
126	0xbc99e7ac	-0.018787228
127	0xbd4d0cb6	-0.05006095
128	0xbd47cec0	-0.048781157
129	0x3d7b7b0a	0.061396636
130	0xbd5e135d	-0.054217685
131	0xb9576fcd	-0.00020545647
132	0xbc107f1a	-0.008819366
133	0xbcf80177	-0.030274136
134	0xbc1c76b9	-0.00954979
135	0x3d3dd226	0.04634299
136	0x3d873b04	0.06603053
137	0xbd6d769a	-0.057974435
138	0x3d587c2f	0.052852806
139	0xbcc517f0	-0.024059266
140	0xbd4cdf4b	-0.050017636
141	0x3d816d9e	0.06319736
142	0x3d6b87ad	0.057502437
143	0x3b80a26a	0.0039256113
144	0x3cdf0134	0.027222253
145	0x3c5e82ad	0.01358096
146	0xbd2eeb2c	-0.042704746
147	0xbd38a82f	-0.045082267
148	0xbd14ffd2	-0.03637678
149	0xbd209dce	-0.039212994
150	0xbbf12d74	-0.0073601548
151	0xbd031ce6	-0.03200998
152	0xbd07b6b5	-0.033133227
153	0x3cc52cc0	0.02406919
154	0x3d042e76	0.03227087
155	0x3cc7d35e	0.02439278
156	0x3d63646f	0.055515703
157	0xbc191416	-0.009343168
158	0x3d781f4e	0.06057673
159	0x3d28b510	0.0411883
160	0x3cd8276a	0.026385982
161	0x3d20af32	0.03922958
162	0xbd6b4299	-0.05743656
163	0xbbde1ea9	-0.0067785573
164	0xbd0045b4	-0.031316474
165	0x3c8469ac	0.01616367
166	0x3cad328f	0.021142272
167	0xbced939a	-0.029001046
168	0x3c88d8ba	0.016704906
169	0xbc8ca716	-0.017169517
170	0x3d4b7bd8	0.049678653
171	0xbd1c9906	-0.038231872
172	0xbd5af4e8	-0.053456217
173	0xbc902ce4	-0.01759953
174	0xbcb4d1bb	-0.022072664
175	0x3d1d8b95	0.038463194
176	0xbd53b6fe	-0.051688187
177	0xbcb13024	-0.0216294
178	0x3d6f9934	0.058495715
179	0xbb83a3b7	-0.004017319
180	0x3b908e9a	0.0044115307
181	0x3d4e7fd8	0.05041489
182	0x3c0cfd14	0.00860526
183	0xbbcf7ee8	-0.006332267
184	0xbd7f11a4	-0.062272683
185	0xbd62097a	-0.05518482
186	0x3c63b5cb	0.013898323
187	0xbcbf19b8	-0.023327693
188	0x3c3478dd	0.011015144
189	0xbcc2cf3f	-0.023780463
190	0xbbf8d722	-0.007594005
191	0x3b928585	0.004471483
192	0xbd37f416	-0.044910513
193	0x3cecaf2d	0.028892124
194	0x3d0dfbdf	0.03466403
195	0xbc99cb07	-0.018773569
196	0xbc9a46c4	-0.018832572
197	0x3caf51c4	0.021401294
198	0xbc818cc1	-0.015814187
199	0xbcd8deec	-0.026473485
200	0x3d762662	0.0600952
201	0xbd51c28c	-0.051210925
202	0xbc9d79bb	-0.019223085
203	0xbbb75758	-0.005595129
204	0x3d5b7fb5	0.053588588
205	0x3cdf8fd3	0.02729026
206	0xbcdb5d93	-0.026778018
207	0x3d585c25	0.05282225
208	0x3cf62ab3	0.030049657
209	0xbd503385	-0.050830383
210	0xbcb62e13	-0.022238767
211	0xbc8da67a	-0.017291296
212	0xba353f80	-0.0006914064
213	0xbcbfb884	-0.023403414
214	0x3d259740	0.040427446
215	0xbbb7bdc0	-0.0056073368
216	0xbce6c530	-0.028170198
217	0xbd229777	-0.03969523
218	0x3d06e594	0.032933787
219	0xbb295a81	-0.0025841298
220	0x3d85f0a2	0.06540038
221	0x3d34a21a	0.044099905
222	0xbcb4df34	-0.022079088
223	0xbca9cb0c	-0.020726703
224	0xbc2f7f22	-0.010711463
225	0xbcca1369	-0.024667459
226	0xbc919104	-0.017769344
227	0xbd3eacb7	-0.046551432
228	0xbd561771	-0.05226845
229	0x3d283a80	0.041071415
230	0xbd26315a	-0.04057441
231	0xbcf86513	-0.030321633
232	0x3ba08261	0.004898355
233	0x3d47eb03	0.04880811
234	0xbd791434	-0.060810283
235	0xbd70025e	-0.058596008
236	0x3c03bdfe	0.008040903
237	0xbd3cf535	-0.046132285
238	0xbc6508cc	-0.013979148
239	0x3d2f6cdc	0.042828426
240	0xbd2f4794	-0.04279287
241	0xbd046420	-0.03232205
242	0x3d093996	0.033502184
243	0x3d04253d	0.032262076
244	0xb9b8ce13	-0.00035248752
245	0x3d02c1d3	0.031923126
246	0x3b25a6c1	0.0025276395
247	0xbd5a636c	-0.053317472
248	0xbc908f63	-0.017646497
249	0x3c8ecb2a	0.01743086
250	0xbd66b4a3	-0.056324612
251	0xbd30a3c4	-0.04312493
252	0x3d2fe86c	0.042946264
253	0x3d85a536	0.06525652
254	0xbd04eece	-0.032454304
255	0xbc9b2ab2	-0.018941257

fc2.weight f4 [128, 256]
0	0x3d695872	0.056969114
1	0x3d6623cd	0.056186486
2	0x3d533db9	0.051572535
3	0xbc24bef5	-0.010055293
4	0xbd754750	-0.059882462
5	0xbc460499	-0.012086057
6	0x3ca3d31d	0.019998128
7	0x3d24fc6c	0.04027979
8	0xbd612770	-0.05496925
9	0xbd2d8e82	-0.042372234
10	0x3d0adb24	0.033900395
11	0x3ce145e4	0.027499147
12	0x3c375121	0.011188776
13	0xbd6aa5a2	-0.057286866
14	0x3c051aa5	0.008124028
15	0x3d214590	0.03937298
16	0xbd2e1a84	-0.042505756
17	0x3cb8904a	0.02252974
18	0xbcde810b	-0.027161142
19	0xbcf8a698	-0.030352876
20	0x3d2e9756	0.042624794
21	0xbd3371c4	-0.043809667
22	0xbbbffb62	-0.0058588246
23	0x3c924330	0.017854303
24	0xba263f80	-0.00063418597
25	0x3c2be4bc	0.010491546
26	0x3cf96ce4	0.03044743
27	0x3cadf9bb	0.021237245
28	0x3bec1b10	0.0072053745
29	0xbd07fbac	-0.033198997
30	0x3d1c0b53	0.038096737
31	0x3d5ee44c	0.05441694
32	0xbc70a174	-0.014686931
33	0xbcbca3bf	-0.023027299
34	0x3d2afac2	0.041743048
35	0xbd226056	-0.039642654
36	0xbc883fff	-0.016632078
37	0x3d50df84	0.05099441
38	0xbc10b341	-0.0088318
39	0xbc9a5278	-0.018838152
40	0xbd2ec06e	-0.042663984
41	0xbd163e45	-0.03668048
42	0xbd1929d9	-0.037393425
43	0xbd2ad318	-0.04170522
44	0xbd268b66	-0.040660284
45	0xbc5d2050	-0.013496473
46	0xbd61f0f0	-0.055161417
47	0x3d3b9a45	0.04580142
48	0x3d3862d1	0.045016114
49	0xbd24d7d6	-0.0402449
50	0x3c5d2bed	0.013499242
51	0x3beb4e31	0.007180952
52	0xbd3347ec	-0.043769762
53	0x3bae9390	0.0053276494
54	0x3d59350f	0.053029116
55	0x3d0a8d2b	0.033826035
56	0x3d2181de	0.03943049
57	0xbd6719d9	-0.056421135
58	0xbce873e0	-0.028375566
59	0xbc8b6f53	-0.017020857
60	0x3d3bb2dd	0.045824874
61	0xbd75b6f6	-0.05998894
62	0x3c70a0d5	0.014686783
63	0xbcdbe5a9	-0.026842909
64	0xbd3e6c05	-0.046489734
65	0xbd83e708	-0.0644055
66	0x3d25187e	0.04030656
67	0xbd55d79a	-0.052207567
68	0xbcd88924	-0.026432581
69	0x3ac04778	0.0014669737
70	0xbc81b38b	-0.015832683
71	0xbc2c4c52	-0.010516243
72	0xbd0e06a0	-0.034674287
73	0xbd859255	-0.06522051
74	0xbc35719b	-0.011074449
75	0xbcdf0560	-0.027224243
76	0x3d4bf581	0.049794678
77	0x3d0ef3ac	0.034900352
78	0xbd08fbae	-0.033443145
79	0xbcca30d4	-0.024681486
80	0xbd2c8a14	-0.04212387
81	0xbd140da2	-0.036145814
82	0xbc8efd32	-0.017454717
83	0x3d503403	0.050830852
84	0x3d1667ec	0.0367202
85	0x3cb834bd	0.022486085
86	0x3aaa1434	0.0012975992
87	0x3a914f26	0.001108621
88	0xba4b1a1b	-0.00077477255
89	0xbcfb0b12	-0.030644927
90	0xbcb88ec0	-0.022529006
91	0xbd1f873b	-0.038947325
92	0xbccabc8f	-0.024748115
93	0x3ccb16fc	0.024791233
94	0x3d189ec5	0.03726079
95	0x3c2b8356	0.010468325
96	0x3d5ff67c	0.054678425
97	0x3b859ec6	0.004077765
98	0xbd5f2826	-0.054481648
99	0xbd1b594d	-0.03792696
100	0x3abad9c0	0.0014255568
101	0x3d1c2956	0.03812536
102	0x3d7652c5	0.06013753
103	0xbc8425f2	-0.016131375
104	0xbc91f388	-0.01781632
105	0xbd615538	-0.05501291
106	0x3d429132	0.04750175
107	0x3c2ab808	0.010419853
108	0x3d60016f	0.054688867
109	0xba096700	-0.00052414834
110	0x3d4e09ba	0.050302245
111	0x3d21ac26	0.039470814
112	0xbd23a6b2	-0.039953895
113	0xbb4ab791	-0.0030932168
114	0x3c00ca6d	0.007860762
115	0x3ca80cc4	0.0205139
116	0xbc36b241	-0.0111508975
117	0xbca31460	-0.019907176
118	0xbd06418d	-0.032777358
119	0x3c8a8df8	0.0169134
120	0xbd6aadb9	-0.05729458
121	0x3d2b8690	0.041876376
122	0xbd7608aa	-0.060066856
123	0xbd0445b1	-0.032293025
124	0xbd4d18a5	-0.05007233
125	0x3cc6515a	0.024208713
126	0xbd690657	-0.05689081
127	0x3b9f3dcb	0.004859661
128	0xbd2912fd	-0.041277874
129	0xbd046507	-0.03232291
130	0x3d4a66a9	0.04941431
131	0x3c428a5a	0.011873806
132	0xbd723a87	-0.059137847
133	0xbd2d0e2c	-0.042249843
134	0xbba4c700	-0.0050286055
135	0xbc0097dc	-0.007848706
136	0xbcb8062b	-0.022463879
137	0x3c04a460	0.008095831
138	0xbc1dd2ac	-0.009632748
139	0xbd0bad36	-0.034100734
140	0x3beee937	0.007290985
141	0x3cb3a80a	0.021930713
142	0xbd3eccda	-0.04658208
143	0xbb98b916	-0.004660736
144	0x3d725985	0.059167404
145	0xbd26e84b	-0.040748876
146	0x3d5e7679	0.054312203
147	0x3cb357cc	0.02189245
148	0xbd015c00	-0.03158188
149	0xbc655337	-0.013996891
150	0x3c18ae13	0.009318846
151	0x3d4f0490	0.05054146
152	0xbd0a3dc2	-0.033750303
153	0xbd246349	-0.04013375
154	0xbd3d0e3a	-0.046156146
155	0x3abe62c0	0.0014525279
156	0xbd0262c2	-0.031832464
157	0x3cfbb49d	0.030725772
158	0xbd6a8ffa	-0.057266213
159	0x3d2a0742	0.041510828
160	0xbc953772	-0.018214915
161	0x3b611340	0.003434375
162	0x3d335d70	0.04379028
163	0xbd37caee	-0.044871263
164	0xbc9a2b28	-0.018819407
165	0x3d09d1c0	0.0336473
166	0xbbf93216	-0.0076048477
167	0x3d3b7caa	0.045773186
168	0x3c2dbe80	0.010604501
169	0xbd4b16fc	-0.049582466
170	0xbc6f9ef0	-0.014625296
171	0x3982547f	0.00024858487
172	0xbbc479d0	-0.0059959665
173	0xbc174a18	-0.009233974
174	0x3d34acb0	0.04411
175	0xbbf7291d	-0.007542743
176	0xbcaaacbf	-0.020834325
177	0x3d21092a	0.03931538
178	0x3d2141ae	0.039369278
179	0x3ce925f4	0.02846048
180	0xbd202c1b	-0.039104562
181	0x3c5416c2	0.012944879
182	0xbc15981a	-0.009130502
183	0xbc50f038	-0.012752585
184	0x3c546db5	0.012965609
185	0xbd4007e4	-0.046882525
186	0x3d57b4bf	0.052662607
187	0xbd7065e9	-0.05869094
188	0x3d6a9f01	0.057280544
189	0xbc90bb53	-0.017667448
190	0x3d4e58b3	0.05037756
191	0x3d2df5e1	0.042470817
192	0x3bd2a140	0.006427914
193	0xbd61d882	-0.05513812
194	0xbd04a568	-0.032384306
195	0x3d680eb0	0.056654632
196	0xbd1fcd33	-0.039014053
197	0x3a9fc800	0.0012190342
198	0x3d50b6ba	0.05095551
199	0xbcf32aed	-0.029683555
200	0x3c736c24	0.014857326
201	0x39d332b5	0.00040282836
202	0x3c1eb919	0.009687685
203	0x3d0a8904	0.033822075
204	0xbba756f0	-0.0051067993
205	0xbc8b1399	-0.016977118
206	0xbbd55398	-0.0065102093
207	0x3d1c7d07	0.038205173
208	0x3d4beb6a	0.049785055
209	0xbcdd3b7c	-0.027005903
210	0x3cd62686	0.026141416
211	0xbc445bef	-0.011984809
212	0x3d6e62b0	0.058199584
213	0x3cc13e8f	0.0235894
214	0x3d2ac33a	0.04169009
215	0xbb44fd20	-0.00300581
216	0xbc32a150	-0.010902718
217	0x3c45fc8b	0.012084137
218	0x3d725bf8	0.05916974
219	0xbd3a6156	-0.045502983
220	0xbd14d212	-0.03633315
221	0xbd24cab4	-0.040232375
222	0x3c372ef8	0.011180632
223	0x3ca2f5b8	0.019892558
224	0x3d2097af	0.039207157
225	0xba39c175	-0.0007086017
226	0xbbcd8bf5	-0.0062727877
227	0xbbe26ccb	-0.006909942
228	0xbb961bca	-0.0045809494
229	0x3d66cb3d	0.056346167
230	0x3cc620ae	0.024185505
231	0x3d658e59	0.056043956
232	0x3ca10e74	0.019660212
233	0xbd689765	-0.056785006
234	0x3d1066a4	0.035254136
235	0x3d0280c6	0.03186109
236	0xbd44b2f5	-0.04802223
237	0xbd801b78	-0.06255239
238	0x3d2ca06a	0.04214517
239	0x3c5b0e30	0.013370082
240	0xbd53fc4e	-0.05175429
241	0x39a5622c	0.00031544396
242	0x3b78c5a1	0.0037959593
243	0xbcbeb621	-0.023280205
244	0x3c7c9e5a	0.015418613
245	0xbcb746c0	-0.022372603
246	0xbb426404	-0.0029661665
247	0xbcf14054	-0.02944962
248	0x3d15332f	0.036425766
249	0xbd6ff043	-0.05857874
250	0x3bcf48a1	0.0063257967
251	0xbd383f3e	-0.044982187
252	0xbc743121	-0.014904291
253	0xbd029e5e	-0.031889312
254	0xbc839f40	-0.016067147
255	0x3d69fac6	0.05712392

fc2.bias f4 [128]
0	0x3d1f4be5	0.038890738
1	0xbc0a6d7e	-0.0084489565
2	0xbcb4f380	-0.022088766
3	0x3d16a14a	0.03677491
4	0xbd2c334c	-0.042041108
5	0x3ce571f5	0.02800844
6	0xbc9ca917	-0.019123597
7	0x3c59be77	0.013290039
8	0x3d1b2208	0.03787425
9	0x3d323043	0.043503057
10	0x3cf00cb6	0.029302936
11	0xbd687ec4	-0.056761518
12	0xbd38a59d	-0.045079816
13	0xbcba2c34	-0.022726156
14	0x3d4fa71f	0.05069649
15	0xbcfcbd7c	-0.030852072
16	0x3c3de63c	0.011590537
17	0xba819419	-0.0009886055
18	0xbd7ee618	-0.062231153
19	0xbc3a1517	-0.011357567
20	0x3ce708f4	0.028202511
21	0x3d81e0c0	0.06341696
22	0x3d70588e	0.058678202
23	0xbd7daba2	-0.06193126
24	0x3d6d1cf9	0.05788896
25	0xbd277178	-0.040879697
26	0xbae94a14	-0.0017798566
27	0xbd29c015	-0.04144295
28	0x3d041862	0.032249816
29	0x3cc7d6cc	0.024394415
30	0x3c78acf3	0.015177953
31	0xbc25ae82	-0.010112407
32	0x3d1e1877	0.03859755
33	0x3cd42a04	0.02589894
34	0x3d208ec1	0.03919864
35	0xbd3f3c7e	-0.04668855
36	0xbab556b5	-0.0013835045
37	0xbc6c2658	-0.014413439
38	0x3bc581f5	0.006027455
39	0xbd63cacd	-0.055613328
40	0x3d40c9bc	0.04706739
41	0x3d319767	0.04335728
42	0xbcdb7b0e	-0.026792075
43	0x3d597757	0.053092327
44	0xbcafa6cc	-0.02144184
45	0xb9ff3ebd	-0.00048684134
46	0xbd698f48	-0.05702141
47	0x3c5ed920	0.013601571
48	0x3d2692d4	0.04066737
49	0x3d593de4	0.05303754
50	0xbd0e4818	-0.034736723
51	0x3d6e42ab	0.05816905
52	0x3d401167	0.046891596
53	0x3d5543f6	0.052066766
54	0xbbf951f5	-0.007608647
55	0xbc99dad1	-0.018781098
56	0x3c2fa10e	0.010719551
57	0xbbdfc6b4	-0.006829107
58	0xbd2694f7	-0.040669408
59	0xbd439950	-0.047753632
60	0xbd5c83d8	-0.053836673
61	0x3b0227c0	0.0019860119
62	0x3d626141	0.05526853
63	0xbd08dc92	-0.033413477
64	0x3c9eb178	0.019371733
65	0xbd1003a4	-0.035159722
66	0xbc1cc1ee	-0.009567721
67	0x3d2cd2cf	0.04219323
68	0xbca14e06	-0.019690525
69	0x3be2ce1c	0.006921543
70	0x3d5dd146	0.054154657
71	0xbc9f2606	-0.01942731
72	0xbc901ca1	-0.017591776
73	0xbd7d340f	-0.061817225
74	0x3d301048	0.042984277
75	0xbd510ce1	-0.051037673
76	0xbc5d912b	-0.01352338
77	0xbd7c561c	-0.061605558
78	0xbc8d9854	-0.01728455
79	0xbc4407ba	-0.011964733
80	0x3d128bca	0.035777844
81	0xbd342974	-0.043984845
82	0x3c7b87ca	0.015352199
83	0x3c50b148	0.01273758
84	0x3d498d0e	0.049206786
85	0x3b8c7a21	0.00428702
86	0x3d144a8d	0.03620391
87	0x3d0eb9f4	0.034845307
88	0xbd5203ae	-0.05127304
89	0xbd20088c	-0.03907065
90	0xbc9de6c0	-0.01927507
91	0xbce6c16d	-0.028168404
92	0xbd4751c8	-0.048661977
93	0x3cf94b61	0.030431451
94	0x3d64406e	0.055725507
95	0xbcabdf78	-0.020980582
96	0x3d11cff1	0.0355987
97	0x3d65e3bf	0.0561254
98	0xba4a8b5c	-0.00077264546
99	0x3bcbe3d4	0.0062222276
100	0x3d0f28ca	0.03495101
101	0x3d283fd5	0.0410765
102	0x3d2ad6d7	0.041708793
103	0xbd06e0b0	-0.032929122
104	0x3c63a2ca	0.013893792
105	0x3d3498cc	0.04409103
106	0xbc5e4510	-0.0135662705
107	0xbd6697bc	-0.05629705
108	0x3c34e30d	0.011040461
109	0x3d1f55dc	0.03890024
110	0xbd760a60	-0.060068488
111	0x3ccea7d7	0.025226517
112	0xbd29b0a8	-0.04142824
113	0x3d82f05a	0.063935
114	0xbd7062aa	-0.058687843
115	0xbd71e08d	-0.05905204
116	0xbc80c374	-0.0157182
117	0x3c941794	0.01807765
118	0xbcf20999	-0.029545592
119	0x3d5ad0f6	0.053421937
120	0xbb73626c	-0.0037137521
121	0x3d898a21	0.06715799
122	0x3d076af2	0.033060975
123	0xbd24b809	-0.040214572
124	0x3d47aa42	0.048746355
125	0x3b9452bb	0.004526464
126	0x3d497355	0.049182255
127	0x3ce3f008	0.027824417

actor.weight f4 [4, 128]
0	0x3d8932d8	0.06699151
1	0x3d4a7341	0.04942632
2	0xbba7cc03	-0.0051207556
3	0x3d89e8ef	0.06733882
4	0xbceb9441	-0.028757216
5	0xbd8716cc	-0.06596145
6	0x3d390556	0.045171104
7	0xbc9633ca	-0.018335242
8	0x3a972a1e	0.0011532938
9	0xbcdee8b9	-0.02721058
10	0xbcc7c4f8	-0.024385914
11	0xbcc13908	-0.023586765
12	0x3d72c8a4	0.059273377
13	0xbd535af3	-0.051600408
14	0x3dbb8a0a	0.09157188
15	0x3cd3f031	0.025871368
16	0xbc55d524	-0.013051305
17	0x3da54f52	0.0807177
18	0xbd6af31f	-0.057360765
19	0xbd84340a	-0.06455238
20	0x3bfa9e09	0.007648234
21	0xbd391a40	-0.04519105
22	0x3c035d12	0.008017795
23	0x3ce15e41	0.027510764
24	0x3d5676f9	0.052359555
25	0x3d6662b7	0.056246486
26	0xbcf9f55f	-0.03051251
27	0xbaf41cd1	-0.0018624311
28	0x3c87668b	0.016528388
29	0x3b462426	0.0030233948
30	0xbcfee55e	-0.03111523
31	0x3d71a24c	0.05899267
32	0x3adab431	0.0016685781
33	0xbdbbb36d	-0.09165082
34	0xbd5faf0a	-0.05461029
35	0x3d72fe87	0.059324767
36	0xbd389227	-0.045061257
37	0xbce0a8a3	-0.027424162
38	0x3d46cd73	0.048535775
39	0x3d9a344c	0.07529506
40	0x3d2e52d8	0.042559475
41	0x3dad92de	0.08475278
42	0xbd4720db	-0.048615318
43	0xbd2ad19b	-0.0417038
44	0xbd1f0297	-0.03882083
45	0x3d580f0b	0.05274872
46	0x3d8f713a	0.07004018
47	0x3d91dfa2	0.07122733
48	0xbd36a45b	-0.044590335
49	0xbdaee4f1	-0.08539761
50	0x3c87b6cf	0.016566662
51	0x3d3785b0	0.04480523
52	0xbd3b833d	-0.045779455
53	0xbd031903	-0.032006275
54	0xbcb6c406	-0.022310268
55	0x3da9750e	0.082742795
56	0xbd278fda	-0.040908672
57	0x3da4fc61	0.0805595
58	0xba437ec7	-0.0007457551
59	0xbbf98216	-0.0076143844
60	0xbc859481	-0.016306164
61	0xbdb2cb61	-0.08730198
62	0x3d3eda72	0.046595044
63	0x3c8325ea	0.01600929
64	0x3d7080ce	0.058716588
65	0xbcfef9f3	-0.031125044
66	0x3da0a0f9	0.07843203
67	0x3d881a6f	0.06645667
68	0x3cf24f64	0.029578872
69	0xbdb32ba5	-0.08748559
70	0x3da1cba2	0.07900168
71	0x3d783994	0.060601786
72	0xbd28f7a6	-0.0412518
73	0x3d3359c7	0.04378679
74	0xbda6c671	-0.081433184
75	0x3daf0dae	0.08547531
76	0xbdae7b0c	-0.08519563
77	0xbd275dcc	-0.040860936
78	0xbda4fe97	-0.08056372
79	0xbd76beaa	-0.060240425
80	0x3caa1619	0.02076249
81	0xbda1abf4	-0.078941256
82	0x3d616a06	0.055032752
83	0x3da1b47a	0.07895751
84	0xbd7967a9	-0.060889874
85	0xbdae576d	-0.08512769
86	0x3b2b31d2	0.0026122225
87	0x3d5a9c65	0.053371806
88	0xbd32c6d0	-0.043646634
89	0x3d483bed	0.048885275
90	0xbd843298	-0.064549625
91	0x3cff99a8	0.031201199
92	0x3da7f855	0.082016625
93	0x3d04a5c6	0.032384656
94	0x3d4586c9	0.048224244
95	0xbd2d0676	-0.04224249
96	0x3ce82718	0.028338954
97	0x3c90c200	0.017670631
98	0xbccbcf83	-0.024879223
99	0x3c01f684	0.007932309
100	0x3d01bbfa	0.03167341
101	0xbc94c2be	-0.018159267
102	0xbd4c4803	-0.049873363
103	0xbd5177c8	-0.051139623
104	0xbd705c14	-0.058681563
105	0x3c7a92d7	0.015293798
106	0xbdad63c7	-0.08466297
107	0xbdafc993	-0.08583369
108	0xbd17678a	-0.036963977
109	0xbd0a07d4	-0.03369887
110	0xbdaa63bb	-0.08319803
111	0xbd9bd4dc	-0.07608959
112	0xbc9d062b	-0.01916798
113	0x3cf24be2	0.0295772
114	0x3d6ed1f1	0.058305684
115	0x3d8c1f6a	0.06841929
116	0x3d8c3ffd	0.06848142
117	0xbcb041ae	-0.021515694
118	0x3b07dd83	0.0020731397
119	0xbd52c586	-0.051457904
120	0xbd684c73	-0.056713533
121	0xbd9e2d6a	-0.07723506
122	0x3cdf7aa4	0.02728016
123	0x3d1b4adc	0.03791319
124	0xbd26407c	-0.04058884
125	0x3d017167	0.03160229
126	0x3d0c2841	0.034218077
127	0x3d037407	0.032093074
128	0xbcdbb152	-0.026817951
129	0xbb84f95d	-0.0040580467
130	0x3d3fcfe4	0.04682912
131	0x3da59112	0.080843106
132	0xbd658660	-0.056036353
133	0x3dbaf551	0.09128822
134	0x3d3c9795	0.046042997
135	0xbd39b4df	-0.045338508
136	0xbd03d750	-0.03218776
137	0xbd7e6b5d	-0.06211411
138	0x3c421539	0.01184588
139	0xbd9e4f78	-0.07730001
140	0xbd910c88	-0.07082468
141	0xbcf5aaf2	-0.02998874
142	0xbd65268b	-0.05594496
143	0xbd320097	-0.043457594
144	0x3a788d93	0.00094815454
145	0xbd3a2d5d	-0.045453418
146	0x3d933e81	0.07189656
147	0x3d905972	0.0704831
148	0xbd042d58	-0.032269806
149	0x3b0a4626	0.002109894
150	0x3d191115	0.037369806
151	0xbda7874f	-0.08180105
152	0x3d95ae94	0.07308689
153	0x3d944907	0.07240491
154	0x3cbbf2db	0.022942951
155	0x3ab5e237	0.0013876621
156	0x3c72aace	0.014811231
157	0x3b9e7db5	0.004836763
158	0xbd94de45	-0.07268957
159	0xbd75fc6b	-0.060055178
160	0xbd206ded	-0.039167333
161	0x3d9176f6	0.07102768
162	0x3d7a47c5	0.0611036
163	0xbd2db092	-0.04240472
164	0xbd5a0cea	-0.053234972
165	0xbcded61c	-0.027201705
166	0xbda5a894	-0.08088794
167	0x3b9ba9cb	0.0047504655
168	0xbc6b4640	-0.014360011
169	0xbd24eb83	-0.040263664
170	0xbd8d2ce1	-0.068933256
171	0xbd062fc3	-0.032760393
172	0xbd47875f	-0.048713084
173	0xbc9805f0	-0.018557519
174	0x3d3c04b1	0.04590291
175	0x3d9ba41a	0.07599659
176	0x3da80c53	0.08205476
177	0x3db58ebd	0.08865116
178	0x3be6c8fb	0.0070430017
179	0xbda4e7ef	-0.0805205
180	0xbda4e963	-0.080523275
181	0xbd389e7b	-0.045073014
182	0xbcb7efa2	-0.022453133
183	0x3d2da1d7	0.04239067
184	0xbbffa6ab	-0.007801851
185	0xbd752d17	-0.059857454
186	0xbcd0caae	-0.02548727
187	0xbd7765db	-0.06039987
188	0xbda8a2ed	-0.082342006
189	0x3d1900dd	0.03735434
190	0x3d911845	0.07084707
191	0x3cb011ed	0.021492923
192	0xbd71ddd1	-0.05904943
193	0x3d46edaf	0.048566516
194	0xbcf89f6a	-0.030349452
195	0x3db4f8cc	0.08836517
196	0x3cdbf3ea	0.026849706
197	0xbd774e5a	-0.060377456
198	0xbd3709b4	-0.044686988
199	0xbcbeb909	-0.023281591
200	0xbd9c62db	-0.07636043
201	0xbd0e2c86	-0.03471043
202	0xbd70ff73	-0.058837365
203	0x3ce1ff6b	0.027587613
204	0x3d6569dc	0.05600916
205	0x3d0285e6	0.031865977
206	0x3c615bfb	0.01375484
207	0xbb2e0b6d	-0.0026557103
208	0x3cc9f2ac	0.024651848
209	0xbc086fbe	-0.008327423
210	0xbd154168	-0.03643933
211	0x3d00a8c7	0.03141096
212	0x3d42ec79	0.0475888
213	0x38f6c89e	0.00011767562
214	0x3bddbb30	0.0067666993
215	0x3b712360	0.0036794767
216	0x3d1067eb	0.035255354
217	0x3d313305	0.043261547
218	0xbda174f4	-0.07883635
219	0xbcc12042	-0.023574952
220	0xbd61f7e4	-0.055168048
221	0x3d15a9e6	0.03653898
222	0xbc8f985c	-0.017528705
223	0xbc390a96	-0.011294028
224	0x3d4a6b57	0.049418774
225	0xbc95850a	-0.018251915
226	0xbc4fa39e	-0.012673287
227	0xbd37411b	-0.044739824
228	0xbda8c5f5	-0.08240882
229	0x3c839d1a	0.016066123
230	0xbda09288	-0.078404486
231	0xbd342acc	-0.043986127
232	0x3c21ba82	0.009871127
233	0x3b421d57	0.0029619539
234	0xbd50d2eb	-0.050982397
235	0xbd04fbb3	-0.0324666
236	0xbce1041e	-0.027467784
237	0x3d583094	0.052780703
238	0x3c968d70	0.01837799
239	0x3db36660	0.08759761
240	0x3db54330	0.088507056
241	0x3db19ff8	0.0867309
242	0xbd914e8a	-0.07095058
243	0xbd22ab03	-0.03971387
244	0x3d8e088a	0.069352224
245	0xbbe5d53f	-0.0070139463
246	0xbd0e8112	-0.03479106
247	0x3b82507b	0.003976879
248	0xbd99699e	-0.07490848
249	0x3da8fce6	0.082513615
250	0x3d783da8	0.060605675
251	0xbd698f2f	-0.057021316
252	0xbd869dfb	-0.06573101
253	0x3cae95bc	0.021311633
254	0xbd5acb4f	-0.053416546
255	0xbbb39929	-0.0054809046

actor.bias f4 [4]
0	0x3d2d7a96	0.042353235
1	0xbd336dea	-0.043805994
2	0xbb775768	-0.0037741307
3	0x3d837c46	0.06420188

critic.weight f4 [1, 128]
0	0xbbf5fb85	-0.00750679
1	0xbd318dac	-0.043348
2	0x3d87f201	0.066379555
3	0x3d95f771	0.07322586
4	0xbd997fe4	-0.07495096
5	0xbb077242	-0.0020667468
6	0xbd376842	-0.044777162
7	0x3db54cd1	0.08852542
8	0x3d3f0990	0.04663998
9	0x3cbac2ce	0.022797968
10	0x3d700aa6	0.058603905
11	0xbcf51b39	-0.029920207
12	0xbd97e362	-0.07416417
13	0x3d9a6f6e	0.07540785
14	0x3a35f760	0.0006941464
15	0xbc2608ce	-0.010133935
16	0xbd63d065	-0.055618662
17	0x3d17bf2a	0.037047543
18	0x3cae9eea	0.02131601
19	0xbbffb8a9	-0.0078039956
20	0x3dadcca8	0.08486301
21	0x3db17f90	0.08666909
22	0xbd280cd7	-0.04102787
23	0xbc179aa9	-0.009253182
24	0xbcbd5b49	-0.023114817
25	0x3cba0ab1	0.022710176
26	0xbc3591f0	-0.0110821575
27	0xbd80825a	-0.062748626
28	0x3d2826c2	0.041052587
29	0xbd0b126b	-0.03395311
30	0x3d90f10b	0.07077225
31	0xbcdc549c	-0.026895814
32	0x3db038f1	0.08604611
33	0x3dcae20a	0.09906395
34	0xbd1abce5	-0.0377778
35	0xbd7aca89	-0.06122831
36	0x3d90b7cc	0.070663065
37	0x3d13a91d	0.03604995
38	0xbd367fbe	-0.04455542
39	0xbd983252	-0.07431473
40	0x3cd2f4c5	0.02575148
41	0x3d3fff81	0.046874527
42	0x3d15f0bd	0.03660654
43	0x3d27bba0	0.040950418
44	0x3c9b2a63	0.01894111
45	0xbd9fbf4b	-0.07800158
46	0xbd2ea36c	-0.04263632
47	0xbd66e320	-0.056368947
48	0xbbc907a7	-0.0061349454
49	0x3d916946	0.071001574
50	0x3d111093	0.035416197
51	0xbb8d170c	-0.004305726
52	0xba9f6e91	-0.0012163689
53	0x3caa1abf	0.020764707
54	0xbd75e004	-0.06002809
55	0x3cc82e09	0.024436014
56	0xbc989b90	-0.018628865
57	0xbd971fe9	-0.07379133
58	0xbcbfe229	-0.023423271
59	0xbd8e1810	-0.06938183
60	0xbd4a883d	-0.049446333
61	0xbd114223	-0.035463464
62	0x3d1cadf3	0.03825183
63	0xbd8d5cc5	-0.0690246
64	0x3d8ce006	0.068786666
65	0xbdac15d1	-0.08402599
66	0xbcecee3a	-0.028922189
67	0xbc801d5f	-0.015639005
68	0x3cde6841	0.027149322
69	0x3d9ddf09	0.07708556
70	0xbd157825	-0.036491532
71	0x3dbe63fc	0.09296414
72	0xbcb4560b	-0.022013685
73	0xbc9e86bf	-0.019351361
74	0x3c012ce0	0.007884234
75	0xbb4e49a8	-0.0031477008
76	0xbd924151	-0.07141364
77	0xbd862530	-0.06550062
78	0xbd918f1c	-0.07107374
79	0xbd5195ee	-0.051168375
80	0xbd8748eb	-0.06605705
81	0xbd8f52f0	-0.06998241
82	0x3d235e58	0.039884895
83	0x3da6e3e3	0.08148935
84	0x3d1e18d2	0.03859789
85	0x3dc06e9e	0.093960986
86	0x3cbf5eb3	0.023360586
87	0xbd92f5a1	-0.07175756
88	0x3d39d0f6	0.045365296
89	0x3d3f5023	0.046707284
90	0xbd8de672	-0.069287196
91	0x3d92125c	0.07132408
92	0x3d875219	0.06607456
93	0xbb2b133a	-0.002610399
94	0xbd8c9c6d	-0.06865773
95	0xbd9b071a	-0.07569714
96	0xbc39a2b2	-0.0113302935
97	0xbcaf4140	-0.021393418
98	0x3da47829	0.08030731
99	0xbd922773	-0.071364306
100	0x3d4bf298	0.049791902
101	0x3cb386a2	0.021914784
102	0xbd823c2d	-0.06359134
103	0x3c7915d5	0.015202959
104	0xbda7786f	-0.08177268
105	0xbd99aa7b	-0.0750322
106	0xbc911d08	-0.017714038
107	0xbc8a0998	-0.016850278
108	0x3da28b6a	0.07936747
109	0xbd880588	-0.0664168
110	0x3d83f151	0.06442512
111	0xbdcca904	-0.09993175
112	0xbd6968e9	-0.056984816
113	0xbd836ec3	-0.064176105
114	0x3d40da8f	0.047083434
115	0xbd61c035	-0.055114944
116	0xbd0097d5	-0.0313948
117	0xbd913788	-0.0709067
118	0xbda50c01	-0.0805893
119	0x3daa1ebe	0.08306645
120	0x3dbd76e1	0.0925119
121	0xbca1c4bc	-0.01974713
122	0x3db2726b	0.0871323
123	0xbca9c27b	-0.020722618
124	0x3d9a062d	0.07520709
125	0x3d99bb88	0.07506472
126	0x3d9f1e27	0.07769423
127	0x3db69e82	0.08916952

encoder.0.weight f4 [128, 256]
0	0x3d03e84a	0.03220395
1	0xbce1fc54	-0.02758614
2	0xbc4683a0	-0.012116343
3	0x3cf05120	0.029335558
4	0xbd710202	-0.058839805
5	0x3d198712	0.03748233
6	0xbc52a9a8	-0.012857832
7	0x3d023d0a	0.031796493
8	0x3c0e5a78	0.008688562
9	0xbbfac400	-0.0076527596
10	0x3c8e0240	0.017335057
11	0x3b4a1020	0.0030832365
12	0x3cbaff30	0.022826761
13	0xbcc786e4	-0.024356313
14	0xbb955130	-0.0045567974
15	0xbbb86040	-0.0056267083
16	0x3c146c30	0.009058997
17	0xb982e700	-0.0002496764
18	0x3d5fc964	0.05463542
19	0x3c9f5450	0.019449383
20	0xbcbeac08	-0.02327539
21	0xbd1a9d36	-0.037747584
22	0xbc2ba370	-0.010475978
23	0xbcdcd8b0	-0.026958793
24	0xbca411d4	-0.020028032
25	0x3b441f80	0.0029926002
26	0x3d189bd4	0.037257984
27	0x3d0b2538	0.03397104
28	0xbd7a40c6	-0.06109693
29	0x3d1eb31c	0.03874503
30	0x3c8f08c8	0.017460242
31	0x3d72d488	0.059284717
32	0x3d28f9ae	0.041253738
33	0xbd694052	-0.056946106
34	0xbd73682e	-0.059425525
35	0xbcf6f43c	-0.030145757
36	0x3d60cbee	0.054881983
37	0xbc2a9110	-0.010410562
38	0x3cdb1d80	0.026747465
39	0xbcedeea8	-0.029044464
40	0x3d7b311a	0.061326124
41	0xbcd8a05c	-0.026443653
42	0x3d3ffb12	0.0468703
43	0x3a420380	0.0007401034
44	0xbd06dd82	-0.03292609
45	0x3d03967a	0.032125928
46	0xbd07e3d4	-0.03317626
47	0x3c9694e4	0.018381543
48	0xbc93d7fc	-0.018047325
49	0xbbe08800	-0.00685215
50	0xbd761d88	-0.060086757
51	0xbcf41cbc	-0.029798858
52	0x3d0aea10	0.033914626
53	0xbc78e940	-0.01519233
54	0x3d7efd1a	0.062253095
55	0x3d4d34e6	0.050099276
56	0xbb3fca20	-0.0029264763
57	0xbd2ae02c	-0.041717693
58	0x3d1be4f2	0.038060136
59	0x3c9ee720	0.019397318
60	0xbd257bc4	-0.040401235
61	0x3d26488e	0.040596537
62	0x3d1b6b06	0.037943862
63	0x3d630b8c	0.055430934
64	0xbd0f80d6	-0.035034977
65	0xbc288e78	-0.010287873
66	0xba9eb1c0	-0.0012107417
67	0x3c159018	0.009128593
68	0xbd424878	-0.047432393
69	0xbd35a9d0	-0.0443514
70	0x3d0b43e2	0.034000285
71	0xbc701ea8	-0.0146557465
72	0x3cfa1930	0.030529588
73	0x3b698340	0.003563121
74	0x3ca81cd0	0.020521551
75	0x3c612a80	0.013743043
76	0x3cba29b4	0.022724964
77	0x3cfdcdcc	0.03098192
78	0xbd6d15ae	-0.057882003
79	0x3d00dba4	0.031459466
80	0xbd33ffe2	-0.0439452
81	0xbd412780	-0.04715681
82	0x3b791880	0.0038008988
83	0xbc2e7f38	-0.0106504485
84	0x3d165ade	0.03670775
85	0xbd14423c	-0.03619598
86	0xbd639452	-0.05556137
87	0x3d3a4f0e	0.04548555
88	0xbc17d730	-0.009267613
89	0x3d0ffd32	0.035153575
90	0x3ca499a0	0.020092785
91	0xbd3ff7d4	-0.046867207
92	0x3c4db848	0.012556143
93	0x3c75f618	0.015012287
94	0xbd2b6832	-0.041847415
95	0xbcf2ee08	-0.029654518
96	0x3cae945c	0.021310978
97	0x3c376be8	0.01119516
98	0xbcd9ca70	-0.026585788
99	0xbc9afd94	-0.018919744
100	0x3d6a774a	0.05724267
101	0xbc3d7638	-0.01156383
102	0x3d1054a6	0.035236977
103	0x3cddb298	0.0270627
104	0xbd257af0	-0.040400445
105	0xbd59b5c0	-0.053151846
106	0x3d75bb44	0.059993044
107	0x3b55e140	0.003263548
108	0x3d2f7a2e	0.04284113
109	0x3c543478	0.012951963
110	0x3ca4abbc	0.02010142
111	0x3d3f38ae	0.046684913
112	0x3d72be32	0.059263416
113	0xbd29e072	-0.041473813
114	0x3c000798	0.0078143105
115	0x3d3f0ab8	0.04664108
116	0x3d397494	0.045277193
117	0x3d1f097c	0.038827404
118	0xbd3945a4	-0.04523243
119	0xbd3858c0	-0.045006514
120	0xbd1ad250	-0.037798226
121	0x3c00a4b8	0.007851772
122	0x3d7f256e	0.062291555
123	0xbd21b57e	-0.039479725
124	0x3d086ae2	0.033305056
125	0xbd0db166	-0.03459301
126	0xbd70b1fa	-0.05876348
127	0xbc59a400	-0.01328373
128	0x3d137ff0	0.036010683
129	0x3d6da9fa	0.05802343
130	0xbd1efc66	-0.038814925
131	0x3c5e3830	0.013563201
132	0x3d5ce468	0.053928763
133	0x3d29a3aa	0.041415848
134	0x3d1f8b8c	0.03895144
135	0x3d35ec04	0.044414535
136	0x3d21ec98	0.039532274
137	0x3c843f6c	0.016143523
138	0xbd2f0ed6	-0.042738758
139	0xbd56fa6a	-0.052484907
140	0xbcea9be4	-0.028638788
141	0xbbee7b30	-0.0072778687
142	0xbd1cea70	-0.038309515
143	0x3cbb512c	0.022865854
144	0x3c9e7530	0.019342989
145	0xbc67dea8	-0.0141522065
146	0x3cc4c850	0.024021298
147	0x3ca57878	0.020199046
148	0x3d1c4c48	0.038158685
149	0x3d2c66ce	0.04209023
150	0xbcad63e4	-0.021165796
151	0x3d7a1e5a	0.0610641
152	0xbbecc3c0	-0.0072254837
153	0xbb0cb8e0	-0.0021472499
154	0xbd71a220	-0.058992505
155	0xbd24c408	-0.040226012
156	0xbd158e5c	-0.036512718
157	0xbcdafe80	-0.026732683
158	0x3d36021a	0.044435598
159	0xbca74fd8	-0.020423815
160	0xbd3f4dd2	-0.046705075
161	0x3cc4fdf0	0.024046868
162	0x3ca3ed44	0.020010598
163	0x3d25cf0e	0.040480666
164	0xbd04790e	-0.03234201
165	0x3c5e04c0	0.013550937
166	0xbcba64d8	-0.022753164
167	0xbc661120	-0.014042169
168	0xbd4c02d8	-0.0498074
169	0xbce95980	-0.02848506
170	0xbc9ccdd0	-0.019141108
171	0x3cdaf304	0.026727207
172	0x3c3b12f0	0.011418089
173	0x3c7cf1e0	0.015438527
174	0x3d7f83d2	0.062381573
175	0x3d798130	0.06091422
176	0x3d2e9aa4	0.042627946
177	0x3b026e60	0.0019902214
178	0xbd31193e	-0.043236963
179	0x3d481104	0.048844352
180	0xbc800850	-0.015628964
181	0xbba59240	-0.0050528347
182	0xbd5c8b32	-0.053843684
183	0xbc4a44f0	-0.012345538
184	0xbd251dec	-0.04031174
185	0x3d6b3d6c	0.057431623
186	0xbd5d5140	-0.054032564
187	0xbd478c2e	-0.04871767
188	0xbb0b15c0	-0.002122268
189	0xbd0a6c54	-0.033794716
190	0x3cb73318	0.02236323
191	0xbcc514f8	-0.02405785
192	0xbcf07ae4	-0.029355474
193	0x3b67fce0	0.0035398528
194	0x3d395160	0.04524362
195	0xbd341394	-0.043963984
196	0x3cf0703c	0.029350393
197	0x3d24770a	0.040152587
198	0x3d7a6b22	0.061137326
199	0xbd332eac	-0.04374568
200	0x3c7800a0	0.015136868
201	0xbd3d4b14	-0.04621418
202	0x3d5a8f60	0.05335939
203	0xbcc69ba8	-0.024244145
204	0x3d1a33ca	0.037647046
205	0x3af3e340	0.0018607154
206	0xbb9f80f0	-0.0048676655
207	0xbb02b1c0	-0.0019942373
208	0x3c2e1308	0.010624655
209	0x3cf15ad4	0.029462256
210	0x3c243aa0	0.010023743
211	0x3c9c3028	0.019065931
212	0xbd664740	-0.056220293
213	0x3d3a816e	0.04553359
214	0x3d5f327a	0.054491498
215	0x3d539c70	0.051662862
216	0x3d3d3db2	0.046201415
217	0xbd38bcd6	-0.045101963
218	0xbcbdcc64	-0.02316875
219	0x3d61b8c0	0.055107832
220	0xbd42fc0e	-0.04760366
221	0x3d683fa6	0.056701325
222	0xbd4957ce	-0.049156003
223	0xbd34541e	-0.044025533
224	0x3cfa4e38	0.030554876
225	0xbd37eee6	-0.044905566
226	0xbc6a9960	-0.014318794
227	0x3d3a3ce8	0.04546824
228	0x3d4ac656	0.049505554
229	0x3d721d0c	0.059109733
230	0xbc4fc998	-0.012682341
231	0xbd46fa90	-0.0485788
232	0x3d7c0f76	0.061538182
233	0xbc5a2388	-0.013314135
234	0xbcd2a7a0	-0.025714695
235	0x3c799fd8	0.015235864
236	0xbd3306ee	-0.04370778
237	0x3d284384	0.041080013
238	0x3d20718e	0.039170794
239	0xbd4b2196	-0.049592577
240	0xbd524576	-0.051335774
241	0xbbb365c0	-0.005474776
242	0x3cd70d94	0.026251592
243	0xbaed4200	-0.0018101335
244	0xbd01cfd6	-0.03169235
245	0x3abb4a00	0.0014289021
246	0xbd709f66	-0.058745764
247	0xbd34ee4a	-0.044172563
248	0xbd2a6a9e	-0.041605584
249	0x3d52d2e2	0.051470645
250	0x3d61aa5e	0.055094115
251	0xbcade8cc	-0.02122917
252	0x3b37b500	0.0028031468
253	0x3ce45738	0.02787362
254	0x3bf562d0	0.007488586
255	0xbd003152	-0.031297036

encoder.0.bias f4 [128]
0	0x3c8b51f4	0.017006852
1	0x3ce664bc	0.028124206
2	0xbc855254	-0.016274609
3	0x3c7e0858	0.015504919
4	0x3ca42308	0.020036235
5	0x3c495b80	0.012289882
6	0xbd70d346	-0.058795236
7	0x3cb4a04c	0.022049092
8	0xbd506678	-0.05087897
9	0xbd061e5a	-0.03274379
10	0xbcec8f98	-0.028877065
11	0x3d63bd12	0.055600233
12	0xbd34a48a	-0.04410223
13	0xbc00a328	-0.0078513995
14	0xbd63226c	-0.05545275
15	0x3d4fb21c	0.050706968
16	0xbbc4ce40	-0.006006032
17	0x3d6c2bdc	0.057659015
18	0xbccfbd28	-0.025358751
19	0xbc0f8268	-0.008759119
20	0xbd2e3d06	-0.042538665
21	0x3bf183c0	0.007370442
22	0xbcdb85e0	-0.026797235
23	0x3b712d20	0.0036800578
24	0x3d0e35ac	0.034719154
25	0xbd3346a2	-0.043768533
26	0x3d21351a	0.039357282
27	0x3cdb5da8	0.026778057
28	0x3c2cdb20	0.01055029
29	0x3d5ef2a6	0.054430626
30	0x3d3c4636	0.045965396
31	0xbac54240	-0.0015049651
32	0x3d375b0c	0.044764563
33	0x3d0a9060	0.033829093
34	0x3d3cbfd6	0.046081387
35	0x3cb8eec0	0.022574782
36	0x3c8c953c	0.017161004
37	0xb9d12700	-0.00039892644
38	0xbbb22f40	-0.0054377615
39	0x3d2ab210	0.04167372
40	0x3bca90e0	0.006181821
41	0x3cb9a8c8	0.022663489
42	0x3d0756e4	0.03304185
43	0xbd039e00	-0.032133102
44	0xbd68f7e2	-0.056877024
45	0x3d66d622	0.056356557
46	0x3cccb804	0.02499009
47	0xbd3f593c	-0.04671596
48	0x3d74376a	0.05962316
49	0xbd5cdb16	-0.053919874
50	0x3d2f6392	0.042819567
51	0x3be20380	0.00689739
52	0x3d0e243e	0.034702532
53	0x3d5b84c2	0.053593405
54	0x3b4d62c0	0.0031339377
55	0x3d600822	0.054695256
56	0xbcb92a88	-0.022603288
57	0xbc751c08	-0.014960296
58	0xbd01f9c2	-0.03173233
59	0xbd2a652a	-0.041600384
60	0xbc2688d8	-0.010164462
61	0x3ccdb4b8	0.025110587
62	0xbd0a22ae	-0.03372448
63	0x3c9d4560	0.01919812
64	0x3d0604c4	0.03271939
65	0x393b9e00	0.0001789257
66	0x3d3d6d72	0.046246953
67	0x3c5f9c48	0.0136481
68	0x3c89a22c	0.016800962
69	0x3d078ab2	0.033091255
70	0xbd77377c	-0.06035565
71	0xbd737bc4	-0.059444204
72	0xbce6d338	-0.028176889
73	0x3d3a7afe	0.04552745
74	0xbd0c892a	-0.034310497
75	0xbb883430	-0.004156612
76	0x3d161134	0.0366375
77	0xbd584866	-0.05280342
78	0xbd67526a	-0.05647508
79	0xbd200ff6	-0.03907772
80	0x3c9d774c	0.019221924
81	0xbc9a9af8	-0.018872723
82	0xbd6b90f8	-0.0575113
83	0x3d54730a	0.051867522
84	0x3bb9f310	0.0056747273
85	0xbbca8a30	-0.006181024
86	0xbd0fb570	-0.03508514
87	0xbd5da37c	-0.05411099
88	0x3d534392	0.051578112
89	0xbcac1448	-0.021005765
90	0xbd6517cc	-0.055930898
91	0x3d001b1a	0.031275846
92	0x3d33e112	0.043915816
93	0xbc718398	-0.014740847
94	0xbc729770	-0.014806613
95	0x3c99f200	0.018792152
96	0x3c1c5860	0.009542555
97	0xbd556e4a	-0.052107133
98	0x3c90a85c	0.017658405
99	0xbcc3747c	-0.023859255
100	0x3d3932ac	0.04521434
101	0x3d753700	0.059866905
102	0x3d03af22	0.03214944
103	0x3ca9f4b0	0.020746559
104	0x3d563608	0.052297622
105	0x3d0a0122	0.033692487
106	0xbd02f438	-0.031971186
107	0x3c6179a8	0.013761915
108	0xbcc93a14	-0.024563827
109	0xbd6c9b2e	-0.05776518
110	0xbd0312fe	-0.032000534
111	0xbd1a582a	-0.037681736
112	0xbcbbf314	-0.022943057
113	0x3d409cec	0.047024652
114	0xbcf452cc	-0.029824637
115	0x3d0d35dc	0.034475192
116	0xbb89ced0	-0.004205562
117	0x3bd53200	0.0065062046
118	0x3c9dd5fc	0.019267075
119	0xbbd64770	-0.0065392777
120	0x3c9d9108	0.019234195
121	0xbd19f6c6	-0.037588857
122	0x3cae2468	0.021257594
123	0xbcc87d90	-0.024473935
124	0xbc899338	-0.016793832
125	0x3beb1780	0.0071744323
126	0x3cef3d64	0.029204078
127	0x3d06b3b2	0.032886215
