checkpoints/icm_planner/seed2/final.pt (torch, 870123 bytes, 19 tensors)

fc1.weight f4 [256, 256]
00000000: 9818 e13c d46a 9cbc 2f35 dd3c 135a ee3c
00000010: 67e3 713c 12cc 36bd 63a0 e93b bb4e fabb
00000020: 2c0d 833d 5ae5 07ba f1a9 433c f765 6c3d
00000030: e795 563d fa71 b73b 5490 1bbd a37d 4c3c
00000040: 443b 9e3c 5697 d5bc 7ca1 9c3d 0c38 3fbc
00000050: dbe5 f03c 5873 87bc 3f32 973c 7df4 a9bb
00000060: 6d8e 54bb a85b 483d 0fb8 51bd 942e ddbc
00000070: 212e 36bd 389e 3ebd fa05 85bd 2b4d 5d3d
00000080: a679 9d3c c4f7 f83c d92a 913c 9831 393c
00000090: 2f49 21bd 887f 9db9 6e64 bd3c cdc3 903d
000000a0: 5b3c 083c cc53 36bd 63d9 5f3d f451 623d
000000b0: a36a 4c3d bfa5 79bd 8403 bdba 4b9b 32bc
000000c0: a50f 21bd defc aebb 8c97 17bc ac10 fbbc
000000d0: f904 1a3d 6143 003d 3382 0bbd 43b6 483d
000000e0: 87b2 60bc d6da 3dbd dfba 6dbc 10c2 693d
000000f0: a788 383c be6a 28bd 3885 84bc 3fb9 2e3d
00000100: 2a83 ec3c 2964 76bd 60bf 323d da68 6f3d
00000110: d14b 973c dc82 0abc 766a f03c ea28 b93c
00000120: e43c 503d 72bc a73c be54 e2bc 8669 493c
00000130: 745d d5bb e56a 03ba 3480 29bb 9a7d 0a3a
00000140: 6ca9 3f3d 6519 8d3c 0a2a 6d3d 2a90 313d
00000150: 62e3 b0bc ea8f 28bc 662f 263c e3e5 0b3d
00000160: 6eb5 9c3b 1e32 ab3c 3c10 69bd 3c47 673d
00000170: 9c6c 71bd 906a 17bd 24af 4d3d 06f7 65bd
00000180: 1ec0 783d 3032 6abc e0a3 973b 4e42 ee3a
00000190: 8ef9 293c f627 b43c 9664 213d 78b5 f83c
000001a0: a444 383d 29f7 233b 7477 d4bb 7eb8 95bc
000001b0: ad42 013d c2b6 8fbc e485 9ebb cc53 3dbd
000001c0: 7c39 b7bc 0d03 cb3c 3d8c 683c 48fd ae3a
000001d0: 7670 ca3c bc51 513d f22e d9bc a292 5ebd
000001e0: ced0 d93c e919 373d 8cfe d43a 046d 153d
000001f0: 731f 85bc e205 003d 9dbe 5dbb d7d6 803d
00000200: 09ba 673c 5273 823b 77f1 5b3d 2cf3 183d
00000210: ff9a a1ba 5223 5d3d d8f3 da3c e973 7f3d
00000220: 77ce 7dbb 47d4 4f3d 08e4 32bc 93f4 80bd
00000230: 9d8f 023d 41ef 473d 7e0e a5bc 942a 3ebd
00000240: 5718 d5bb aef3 523d b21e 473d fb67 12bd
00000250: 782f 6b3d e02c 463d dd56 41bc fd52 133d
00000260: 814f 01bd a20a 263d 3f00 6abd 6384 c2bc
00000270: 387e 64bd aa07 a13c 55f7 ebbc efef 853d
00000280: 6a82 573c 07ad 38bd 121a 1839 e088 0739
00000290: 51cc 8abb 196e 5d3d 23db 37bb a60d b83c
000002a0: 272d 44bd 4f1a 82bb 431f 10bd ece0 ec3c
000002b0: 832d 0bbd e765 f7bc f1bc 423d 772d bfbb
000002c0: 4f95 f4bb 7dd1 65bd 742f 22bd 6f23 003d
000002d0: 413e eabc eaaf 803d e09e 90b8 1d4d 573d
000002e0: 05b0 04bc 0840 ce3c d4d8 943c dbd7 953c
000002f0: 8e01 133d 3fe5 3a3d 9b79 babc 18c4 29bd
00000300: 247b cb3c 5497 193d a1a2 b93b c4d2 e63c
00000310: f4bf 873c cb49 a0bb 642e 4dbd 5c1d 3d3d
00000320: 82a8 1c3d 445d 7d3d 941c 6cbd cefc 4f3d
00000330: 2020 5c3d b772 d6bc 1c8d 9a3c 6671 413d
00000340: 8569 4abc d6d3 0d3d 0c0d 773d 28e1 3e3c
00000350: d741 a8bc e420 a7bc d041 0b3a 1cd8 c13c
00000360: fe65 543c fda5 5b3d 2272 0bbd bf67 90bc
00000370: 2055 92bb 48af d0bc 6473 743d 02f0 603d
00000380: 6c6b 48bd e31d 673d f23d 083d a8dd 9bbc
00000390: 50b4 223d 8c9a 9a3c f0ef 5abd 2c94 4e3d
000003a0: d081 dcbb 7051 1dbc 49b7 2bbd 0060 17bc
000003b0: a855 2dbc ecea 0fbd dcc5 923b 10f6 c3bb
000003c0: 2a46 283d f5d0 4a3c 5a6e 123d ec91 e13c
000003d0: 742f 0d3d 818f 463d 9e23 e4bc 38ba 563c
000003e0: ff3c d9bc d0cf 6abd bee3 333d 9c81 1e3d
000003f0: 8c18 5b3d 0ea2 743d 3a33 643d 848b b43c
0.027477548 -0.019093908 0.027002899 0.029095685 0.01476369 -0.04462821 0.0071297153 -0.00763878
0.06398997 -0.00051840174 0.011942373 0.05771443 0.05238905 0.005598304 -0.03797944 0.012481126
0.01931537 -0.02607314 0.07647988 -0.011671077 0.029406479 -0.016534492 0.018456576 -0.005186616
-0.0032433525 0.048915535 -0.051200923 -0.02699975 -0.044477586 -0.046537608 -0.064952806 0.05402867
0.019223046 0.030391581 0.017720627 0.011303328 -0.039376434 -0.00030040392 0.023119178 0.07068596
0.008315171 -0.04451351 0.054650676 0.055253938 0.049906384 -0.060949083 -0.0014420603 -0.010901283
-0.03932156 -0.0053402027 -0.00925244 -0.030647598 0.0376024 0.031314258 -0.034059715 0.049001943
-0.013714439 -0.046351276 -0.014509886 0.057069838 0.011263049 -0.041117422 -0.016176805 0.042657133
0.028871138 -0.060154114 0.04363954 0.058449604 0.01846877 -0.008454051 0.02934764 0.022602517
0.05083932 0.0204756 -0.027628299 0.012293225 -0.0065113846 -0.0005013182 -0.0025863769 0.00052829983
0.046792433 0.017224023 0.05790142 0.043350376 -0.0215928 -0.010288218 0.010143137 0.034154784
0.0047823703 0.020897921 -0.056900248 0.05646442 -0.05894147 -0.03696686 0.050215855 -0.056143783
0.060730092 -0.014294192 0.0046276897 0.0018177719 0.01037444 0.021991711 0.039402567 0.030359969
0.044987336 0.0025019145 -0.0064839665 -0.01827645 0.031557728 -0.0175432 -0.0048377384 -0.046222493
-0.022366278 0.024781728 0.014193592 0.001335063 0.024711829 0.05110334 -0.026511643 -0.05433906
0.026588824 0.044702444 0.0016250177 0.03648092 -0.016250348 0.03125561 -0.0033835538 0.062909774
0.014143475 0.0039810324 0.053697076 0.03734128 -0.0012329518 0.053988762 0.026727602 0.0623664
-0.00387278 0.050739553 -0.010918625 -0.06296649 0.03187524 0.048812155 -0.020148512 -0.046427324
-0.0065031457 0.051501922 0.048613258 -0.035743695 0.057418317 0.04838264 -0.011800495 0.035967816
-0.03156996 0.040537484 -0.05712914 -0.023744768 -0.055784434 0.019656975 -0.02880446 0.06539904
0.013153652 -0.045086887 0.00014505562 0.00012925593 -0.004235782 0.054060075 -0.00280542 0.022467446
-0.047894623 -0.0039704214 -0.035186063 0.028915845 -0.03397895 -0.030199958 0.04754347 -0.0058342773
-0.007464088 -0.056107987 -0.039596036 0.031283792 -0.028594138 0.06283553 -6.896048e-05 0.052563775
-0.008098607 0.025177017 0.018169798 0.018291404 0.035890155 0.045628782 -0.022763064 -0.041446775
0.024838991 0.037497833 0.005665139 0.028176673 0.016571023 -0.0048916093 -0.05009307 0.046170577
0.03824664 0.061856523 -0.05764444 0.050778203 0.053741574 -0.026177747 0.018866114 0.047227286
-0.012354259 0.03462585 0.060315177 0.011650361 -0.020539207 -0.020401426 0.0005312236 0.02366262
0.01296377 0.053625096 -0.034044392 -0.017627595 -0.004465714 -0.025474206 0.059680358 0.05491639
-0.04893057 0.056424987 0.0332622 -0.019026592 0.03972274 0.018872522 -0.05345148 0.050434276
-0.006729342 -0.009601936 -0.04192284 -0.009239197 -0.010579504 -0.03513615 0.004479153 -0.0059802607
0.04108254 0.012378921 0.03574977 0.027535401 0.034469083 0.0484767 -0.027849015 0.013105921
-0.026518343 -0.05732709 0.043918364 0.038697824 0.053490207 0.05972486 0.055712916 0.022039182

fc1.bias f4 [256]
00000000: a140 ddbb e6db 833d a41c 413d 24ab dabc
00000010: 387f 873c 8b8c 853b 2f36 9abc a6a4 823d
00000020: ee52 b0bc 102c 463c be2c 30bd 3020 0a3c
00000030: 13c8 06bd 266b 183d 8e0a 6e3d a820 553c
00000040: b616 37bd f157 13bd 8916 e83c 35d8 8e3c
00000050: b5d3 333c 4915 2e3d c78e 74bc 73d7 5a3d
00000060: 0910 3ebc b619 873c 2116 833d 851f 493d
00000070: 8b5b 043d 625c 353d b411 943b 9b79 ddbc
00000080: 5bc0 ef3c 15cb 5f3d ae7a 6a3b d195 58bd
00000090: 2c57 403d 0de2 3f3d 3359 d93c 1e36 dc3c
000000a0: 122b 01bd fbe3 3cbd e920 f2bc 9276 db3b
000000b0: 7a57 ccbb 85f8 3bbd 96b8 4abd 8722 683d
000000c0: 6d01 383d b84a 99bb 8143 2a3d 782e 323d
000000d0: 4c81 263d dbbb 91bb e100 dfbc 09d9 bd3c
000000e0: 3d80 693d 2e48 eb3c dc3e 28bd f135 30bd
000000f0: bf95 8ebc 04aa aebc dd6f 94bc 5311 453d
00000100: 36c3 453d 79e6 66ba d496 2d3d 48b4 f23c
00000110: f348 e13c 728f 16bd 57c4 15bd 741f 523d
00000120: d22f 813c 14f8 3c3d 24a2 3b3d 8406 793d
00000130: c2a7 323d d0fc 213d fda0 833c ae38 63bd
00000140: 07d2 153c db06 c53b ed0d 90bb 5a47 00bd
00000150: daf2 593d e65f 433d 4387 843d 2b07 b1ba
00000160: 83d4 813d 34a0 52bc 0b51 23bc a2ac 353d
00000170: 506d d9bc 660b 723b ab3a 753d 665d 4abd
00000180: 17d4 15bd d6ae 473d 35a2 40bd c10c 47bd
00000190: efd3 f83c c4b1 22bd 483b 613d 76e5 73bd
000001a0: 00f0 1e3d c380 2b3d ee23 42bd bb5f a63b
000001b0: fdde d6bc ebc0 fb3c bca5 853d c7a5 9e3b
000001c0: 64bd 64bd 1d92 59bc 0fed 09bd 74ee 5d3d
000001d0: 7aa0 a5bc 8e50 40bc 1bfe 543d 6289 6fbd
000001e0: 142a 603d d686 afbc 62f2 1c3d 9fb2 563d
000001f0: 0611 213d c33a 3e3c e66f 4b3d f01e bdbc
00000200: 93a9 9ebc 9b34 d3bb 2e67 53bd d9c7 6ebd
00000210: 2ed7 6fbc ce5b 4dbd a61c 94bb c41a ebbc
00000220: dc82 b23c a44a cebc 0858 acbc f647 9e3c
00000230: 12f5 97bc 268a 423d 7b48 74bc be9c 65bd
00000240: ef1a 393d c20f 893c 4e0a 28bc f466 87bd
00000250: 377e 823d 0903 3abc 7d14 3d3c 50c4 2fbc
00000260: 0d27 023d dc83 3abd 9c04 b3bc eafa b6bc
00000270: 38b0 bdbc 9612 85bc 1e2a f73c 7a14 de3b
00000280: 4103 943c 65cb c0bb 7f9f 36bd 84d9 bebc
00000290: 0bf1 23bd 6be0 c0bc 14fb 1f3d a06d 4a3d
000002a0: 0219 8e3b 2e10 77bc 16bb 22bd 3b1e 0c3d
000002b0: f211 fe3c e976 30bd 945c 7bbd 75e4 87bc
000002c0: b526 68bd e062 a6bb d96a 51bd cf2d 06bd
000002d0: fc8e 773d 556d 373c 8361 87bd 3cc1 95bc
000002e0: 1f74 3f3c cc7d 383d 59c7 0b3d 8308 24bd
000002f0: 7620 863d e05a 19bd c53a 7a3c d0f9 c43c
00000300: fed4 8abc 2f06 743d 74d1 673d 0fa7 393d
00000310: 2108 3fbc a173 27bd 04c5 b8bc 7ee6 263d
00000320: b3e6 2c3d ccde 5d3d 8d7d 99bc e8a7 5a3d
00000330: 74a6 4a3d 71dc fbbc 1c50 c03c 533e 51bd
00000340: 0302 043c f40a 84bd c367 4a3d b5f2 833d
00000350: 10d8 fdbb c8ca 19bd f2c4 67bd 206e 5dbc
00000360: b4a6 ffbc 0071 b83c e48a 343d 8500 e3bb
00000370: 45f3 163c 1da5 9bbc 8a5a 4abd cc11 5f3d
00000380: 0066 debc 906c 6f3d 8d97 053b 1429 23bd
00000390: 55e7 f8ba a60c e03c fcc6 dd3c cdde 273c
000003a0: e191 69bd dd59 e5bc d95a 493c 4ac6 983c
000003b0: 443b 77bc cdce 703b f99f 1f3b 102b 633d
000003c0: 6c9d 1cbd 3449 213d d17e 31bd c845 413d
000003d0: 803d e7ba 9010 8d3d 48c3 8f3c e046 32bd
000003e0: 9988 c0bc f826 633d 88fc ff3c 5ce8 473b
000003f0: a882 eabc f1b8 2dbd 5149 553d d5b4 30bd
-0.006752089 0.06438427 0.047146454 -0.026692934 0.016540155 0.004075592 -0.018824665 0.063790604
-0.021523919 0.012095466 -0.04301142 0.008430526 -0.03290565 0.03721156 0.058115534 0.013008274
-0.044699393 -0.03597254 0.028331058 0.01743708 0.010975768 0.042500768 -0.014926619 0.053428125
-0.011600503 0.016491752 0.06400705 0.049102325 0.032313865 0.044277556 0.004518712 -0.027035525
0.029266527 0.054637033 0.003577869 -0.05287725 0.046958134 0.04684644 0.026531791 0.026881274
-0.031535216 -0.046115857 -0.029556708 0.0066974843 -0.006236014 -0.045891304 -0.04949244 0.056673553
0.044923235 -0.0046780966 0.041568283 0.043501347 0.04065065 -0.004447443 -0.027222099 0.02317478
0.057007063 0.028720941 -0.041075572 -0.043020193 -0.017405389 -0.021321304 -0.018119747 0.048112225
0.04828187 -0.0008808147 0.04238017 0.02962698 0.027500605 -0.036757894 -0.036564197 0.051299527
0.015769873 0.046135023 0.045808926 0.06079723 0.043617018 0.03954774 0.016067976 -0.055473976
0.009144313 0.00601278 -0.0043961913 -0.031318046 0.053210117 0.047698878 0.064711116 -0.0013506165
0.063393615 -0.012855578 -0.009968053 0.04435409 -0.026541382 0.0036933064 0.059870403 -0.049405478
-0.036579218 0.04875072 -0.047029693 -0.048596147 0.030374495 -0.03972031 0.054988176 -0.059545003
0.0388031 0.041870844 -0.047397546 0.00507733 -0.026229376 0.030731639 0.06525752 0.0048415395
-0.05584468 -0.013279465 -0.033673342 0.054182485 -0.020218123 -0.011737956 0.052000146 -0.058480628
0.05472763 -0.0214266 0.03831709 0.05241644 0.039322875 0.01161069 0.04966726 -0.023086041
-0.019367969 -0.00644548 -0.05161207 -0.05829606 -0.014638705 -0.05013638 -0.0045200167 -0.028699286
0.021790914 -0.025182076 -0.02103807 0.019321423 -0.018549476 0.04749503 -0.014909859 -0.056057684
0.0451917 0.016731147 -0.010256363 -0.066114336 0.0637173 -0.011353263 0.011540529 -0.010727957
0.031775523 -0.045535907 -0.021852784 -0.022336442 -0.023155317 -0.016244214 0.03017145 0.0067773433
0.018067958 -0.0058836215 -0.0445857 -0.023297079 -0.0400248 -0.02354451 0.039057806 0.049420953
0.0043364773 -0.015079541 -0.0397292 0.034208518 0.031014416 -0.04308215 -0.061367586 -0.016588429
-0.05667754 -0.005077705 -0.05112729 -0.03275853 0.060439095 0.0111955 -0.06610396 -0.018280618
0.0116854 0.045041844 0.03412566 -0.04004718 0.0654916 -0.03744018 0.015272801 0.024044901
-0.016947266 0.05957621 0.056596234 0.045325335 -0.011659653 -0.040881757 -0.022554882 0.04074716
0.0422122 0.054167554 -0.018736625 0.053382784 0.04947515 -0.030744763 0.0234757 -0.051084828
0.00805712 -0.06447402 0.04941536 0.06442777 -0.007746704 -0.037546903 -0.056584306 -0.013515025
-0.03120742 0.02251482 0.04407777 -0.006927552 0.009213273 -0.01899963 -0.04940275 0.05446033
-0.027148247 0.058453143 0.002038452 -0.039834097 -0.0018989841 0.027349781 0.027072422 0.010245991
-0.057023887 -0.027996952 0.012289726 0.01864924 -0.015089814 0.0036744357 0.0024356826 0.05546099
-0.038236067 0.039376453 -0.043333832 0.04718569 -0.001764223 0.06887925 0.017549172 -0.043524623
-0.023502635 0.055457085 0.031248346 0.0030503487 -0.028626755 -0.042412702 0.052071873 -0.043141205

fc2.weight f4 [128, 256]
00000000: 9e72 20bd d9a6 ecbc 58a0 7aba 0eb1 18bd
00000010: 4738 71bd 2930 633d 367b 4cbd be68 5cbd
00000020: d937 eaba 0046 fd3a 0822 233d fcc8 01bd
00000030: d666 18bc f2b5 04bd f071 4f3d bc7a a8bc
00000040: 70d2 923b 7cce 47bc fb5a 59bd 9e64 e8bc
00000050: 7718 b33b 6e46 113d 88a4 11bd 656e 09bc
00000060: 075c 553d 97d2 23bd 52cc 12bd 061c 49bd
00000070: 9fd9 3fbd a668 533d 87ee 94bc 64ea 393a
00000080: bf14 893d cef7 733d 3ba1 9abc b8fd 043d
00000090: 34dd 3c3d ef61 dd3c 2fa5 f9ba 2e63 a53b
000000a0: 8b95 ebbc 15ff 8b3d 2d42 afbc 1315 aebc
000000b0: 6473 3b3d 1798 4ebd 6715 243d 0f06 713c
000000c0: 22fa 143d 7a55 593c 5bff 02bd 3a62 103d
000000d0: 606a cd3c 9833 3abd 2b6f f13c 1318 9b3c
000000e0: cdb6 ef3c 6666 343d 88c3 14bd 735e 3a3c
000000f0: b0b1 19bd 87b5 eabc d4fe 0abd 7088 c33c
00000100: 7848 d7bc dea6 433d db64 f43c e137 3f3d
00000110: 9ea6 6b3b 3095 ccbb f655 57bd b710 36bd
00000120: 7e79 4dbd adbd 7ebc 55e2 51bd cb48 0c3d
00000130: 840f 41bb 232c 553d d735 c3bc 6401 b3bc
00000140: e91a 7abc b811 2b3c c8cb fa3c e01c 61bd
00000150: d239 debc 35ad 8b3d 33a6 debc c4e5 773d
00000160: 2a25 893d 91c8 843d e118 b03c b2e3 a13c
00000170: 84a2 413d 6ec0 c1bc c393 0f3d 1bb5 813d
00000180: 1b13 21bc 6ca9 69bd c02f d6bc 43c5 333d
00000190: c9b2 5bbd 6c17 b63c 80d6 273d ddc3 023c
000001a0: 7035 063d d0af 3bbd 0f47 0cbd 8e3c 223d
000001b0: 9809 88bd 9c02 31bd 9635 3b3d 10bd 87bd
000001c0: d59f 8dbc a0e0 31bd e313 0abd 76bb a0bc
000001d0: 4669 1f3d 0f16 0b3d 9eda 673d 582d d4bc
000001e0: c3a2 58bd 0b17 e4bc b101 673d 50b9 4e3d
000001f0: f3cf 933c b7dd 13bd 1aba 0d3d e037 0dbd
00000200: e124 403d 1fc6 483d f8b3 983c c096 043c
00000210: 2869 2ebd f6fb 023d 2f7c 0cbd ab31 0dbc
00000220: 9261 4abd 198f 4abd 574a 22bd f59b 63bd
00000230: b033 4abc bbaa 4b3d da1d 8cbc 39bb 13bd
00000240: df23 ef3b 75d4 92ba 8840 81ba d08c 1fbd
00000250: af3d 233d a270 853c 4b97 cabc 963a 663d
00000260: fe90 dc3b 1f6c b23c 8407 e5bc 6283 63bd
00000270: 7521 94bc 9efe 953c c89d 4c3c af27 47bd
00000280: deb5 b6bc ccf6 3ebd 6410 2c3d a4ab 9c3c
00000290: 2d4b 403d 6f9b f53c aeaf 563c 7ed6 2abd
000002a0: 6384 14bb 7f5d 05bd a7f8 413c 909c 95b9
000002b0: 2e2b 6d3d a186 4d3d b016 98bc f94b c3bb
000002c0: 7a4e 21bd 147b 493d b3e8 d83c 939c 0f3d
000002d0: d93a 0ebd 82a1 3c3d 5615 5f3d e85d 733d
000002e0: 2b4d 4d3d f04b 3ebc 725a 14bc 0e87 6cbb
000002f0: f1ba 153c c9e2 dabc d2b5 083d d98f d4bc
00000300: 20fd 5a3d e7f1 403d da4d 833d ffa7 2f3d
00000310: 74c5 27bd 995d 433d 309a 3b3c 9d5b a6bc
00000320: 81fc ffbc b527 593d d6ff 57bd d422 2dbc
00000330: 9529 6a3d 0c50 843d 7276 3d3d 50f7 21bd
00000340: 7841 923c cc17 8c3c dab7 4d3c 37ba 633c
00000350: b09c f23c 3b2e 8fbc 8ad8 3e3d 446e bd3c
00000360: 7e23 043d 8962 4fbd 93f5 423d 5149 94bb
00000370: bc5f 51bd 588b 633d bc9d 793d 57da 9fbb
00000380: 1f02 513d 1c22 743d cf41 e1bb 422f 573d
00000390: 8606 c1bc 7468 613d 3138 1e3d 1c84 1c3c
000003a0: 29f5 f13c 8f70 de3b a36f 5d3c 134a 5b3d
000003b0: 406f 3ebc 88d1 5f3d 899e 20bc a402 7dbc
000003c0: 4073 143d 9183 07b9 883d 48bc d0ec a3bc
000003d0: 86af 093d 69c8 713d 255e c03c 1b7b 163d
000003e0: e42c 83bc 56e5 25bc 1ed9 7bbd efa0 adbb
000003f0: 1808 153d fb6e ccba cc20 153d 82a1 65bc
-0.039171807 -0.028888153 -0.0009560636 -0.037278228 -0.05889156 0.05546585 -0.04992219 -0.053810827
-0.0017869427 0.001932323 0.039827377 -0.031685814 -0.009301862 -0.03240008 0.05064577 -0.020566337
0.0044806525 -0.012195226 -0.05306528 -0.02836829 0.005465563 0.035467558 -0.0355573 -0.0083881365
0.052089717 -0.039995756 -0.035839386 -0.04909899 -0.0468384 0.051613472 -0.018180145 0.0007092117
0.0669341 0.059562497 -0.018875709 0.032468528 0.046109393 0.027024237 -0.0019046421 0.0050472235
-0.028757831 0.068357624 -0.02139386 -0.021250283 0.045764342 -0.050438013 0.040059473 0.014710917
0.036371358 0.013265008 -0.031981807 0.035249926 0.025075138 -0.04545936 0.029471954 0.018932378
0.02926197 0.044042967 -0.036319286 0.0113750575 -0.03752297 -0.028651012 -0.03393443 0.02386877
-0.026279673 0.04776656 0.029833248 0.04668415 0.0035957466 -0.0062433705 -0.052572213 -0.044449534
-0.050164692 -0.015548152 -0.051241238 0.03424911 -0.002945871 0.052044045 -0.023829384 -0.021851249
-0.015265205 0.010441236 0.030614749 -0.054959178 -0.02712718 0.06820146 -0.02717886 0.060521856
0.066965416 0.064835675 0.021496238 0.019761894 0.047274128 -0.023651328 0.035053026 0.06333371
-0.009831215 -0.05704634 -0.026145816 0.043889295 -0.0536373 0.022227965 0.040976048 0.007981268
0.032765806 -0.045821965 -0.034247454 0.03960853 -0.06642455 -0.04321538 0.0457054 -0.06627858
-0.017288128 -0.04342711 -0.03371037 -0.019620638 0.038918756 0.033956584 0.056604974 -0.025900528
-0.052889597 -0.027843019 0.056398097 0.050469697 0.018043494 -0.036100116 0.03460131 -0.034477115
0.04691017 0.049017068 0.018640503 0.008092582 -0.042580754 0.03197857 -0.03429812 -0.008617799
-0.049409457 -0.049452875 -0.039621677 -0.055568654 -0.012341425 0.04972337 -0.017104078 -0.03606722
0.0072979773 -0.0011202233 -0.0009861151 -0.03895265 0.039853748 0.01628906 -0.024730345 0.056208216
0.0067311516 0.021780072 -0.027957685 -0.05554522 -0.01808236 0.018309887 0.01248879 -0.04862183
-0.022303518 -0.046622083 0.04200782 0.019124813 0.046946693 0.029981343 0.013103409 -0.041708462
-0.0022661916 -0.032559868 0.0118390685 -0.00028536143 0.057902507 0.05017722 -0.018565506 -0.0059599844
-0.03938148 0.049189642 0.026478147 0.03506143 -0.03472409 0.046052463 0.054463707 0.059415728
0.05012242 -0.011614785 -0.009054767 -0.003609124 0.009138809 -0.026719468 0.033376522 -0.025947498
0.053464055 0.047105696 0.064113334 0.042884823 -0.04095979 0.047696684 0.011450335 -0.020307356
-0.031248333 0.053016383 -0.05273422 -0.010567386 0.057168562 0.0646058 0.046255536 -0.039542496
0.017853484 0.017101191 0.012556041 0.013899378 0.02961573 -0.0174781 0.046593226 0.023123868
0.03226041 -0.05063108 0.04759748 -0.0045253416 -0.05111669 0.05555281 0.060941443 -0.004878323
0.051027413 0.05960284 -0.0068743 0.052535303 -0.02356268 0.055031255 0.038627807 0.009552982
0.029535847 0.0067883204 0.013515386 0.05353744 -0.011623204 0.054643184 -0.009803423 -0.015442524
0.036242723 -0.00012923616 -0.012221701 -0.020010382 0.033614658 0.059029017 0.023482392 0.036738496
-0.016012616 -0.010125479 -0.061486356 -0.005298726 0.036384672 -0.001559704 0.03640823 -0.014015557

fc2.bias f4 [128]
00000000: 527f 203d e899 d2bc 894a 143d 0d06 63bd
00000010: 92c3 78bd e4ff aebc fba8 133d 91af 4ebd
00000020: e548 a3bc 9eb3 bdbc 555d 13bd 0632 f7bc
00000030: 20fd 13bd 737d 6ebd 52a4 c5bb 9d56 31bb
00000040: f81a 57bc c668 ae3c d217 3e3d 2985 863d
00000050: dba2 cfbc f767 003d 50be 803c 610a b2bb
00000060: 483b 54bd cf63 823d 562c e0bc 60a3 cfbc
00000070: cbcc 6a3c 52f9 3d3d 6781 e23c a88a 00bd
00000080: 5e2a 70bc f63e d23c bdff eb3c cf2c 57bd
00000090: 4751 4d3d bb34 5e3d a9c8 0fbd 2e20 21bd
000000a0: 225e 2a3d bc84 23bd e2e7 08bd e003 ad3c
000000b0: 0006 4b3d 0872 21bd dd9c 3cba e2aa ccbc
000000c0: b033 5d3c 6c5d 023d 6ca2 473c ddb0 ccbc
000000d0: 4bfe f63c f2d1 433d 6b5e da3c 8cd2 343d
000000e0: b5cc 4b3d 2161 58bd c5d8 8f3b 51d6 8b3c
000000f0: 44f1 b33c 18cf bebb e670 bdb9 d716 8f3b
00000100: 5d2e 13bd de2c c53c 4392 903c 5245 0fbc
00000110: 1e42 63bc 41b8 51bd 8309 60bb 8c4a 6cbd
00000120: 9ebe 28bd cacf 75bc 3189 83bc d3d2 42bd
00000130: f5ca 623d 7a17 ae3c 0196 333c cbc7 72bd
00000140: cdf2 433d 2da4 30bc 0b39 503c 4f0e f73b
00000150: 0077 e23b c443 81bb 7793 4b3d 383b 54bc
00000160: 3e40 1ebc 4b3d 36bd d99e c83c c0b1 1abb
00000170: 73f6 3bbd 4a67 873c f5d5 433d 33f8 723b
00000180: ea6f eebb 1c7a 283d b9a6 b63c 6ce8 7fbd
00000190: d0c3 683d bc5b 6c3d 5051 7abd a789 823b
000001a0: c1d5 47bd ada1 2fbc 8dea 733c 7eb1 4abd
000001b0: 678d 0b3d f767 0cbd 60dd 873d 0cae 1fbd
000001c0: b82a febb d09d 36bd 392b 5fbc b1f8 12bd
000001d0: 64aa 50bd e6a2 523d ba40 d2bc 70eb 15bd
000001e0: 5c02 38b9 e8aa b0bc 405c c6bb 4224 30bb
000001f0: 32f8 4e3d 7883 2cbd 7cfa 44bd b7db 6abd
0.039183922 -0.025708154 0.036203895 -0.055425692 -0.060733385 -0.021362253 0.036049824 -0.050460402
-0.01993222 -0.023156937 -0.03597768 -0.03017522 -0.03613007 -0.058225106 -0.0060315514 -0.0027059682
-0.013128988 0.021290194 0.046409436 0.06568367 -0.02534621 0.03134915 0.015715748 -0.005433366
-0.051814348 0.06366693 -0.027364891 -0.025346458 0.014331053 0.04638035 0.027649594 -0.031382233
-0.014658539 0.025664788 0.028808469 -0.052532967 0.05012634 0.054249506 -0.035103474 -0.03933733
0.04159368 -0.039921507 -0.033424266 0.021120012 0.04956627 -0.03941539 -0.00071950053 -0.024983827
0.013501093 0.031827375 0.0121847205 -0.024986679 0.030150553 0.04780764 0.02665635 0.044146106
0.04975577 -0.052827004 0.0043898546 0.017069967 0.02196563 -0.0058230273 -0.00036133005 0.0043667364
-0.035932887 0.024069246 0.017647868 -0.008744555 -0.013870744 -0.05120111 -0.0034185357 -0.05768828
-0.04119741 -0.015003154 -0.016056629 -0.04756434 0.055369336 0.021251429 0.010961057 -0.05927257
0.047838975 -0.01078133 0.012708913 0.0075395475 0.0069111586 -0.003944846 0.04970118 -0.012953572
-0.009658871 -0.044492047 0.024489807 -0.0023604482 -0.04588933 0.016528744 0.047811467 0.0037074208
-0.007276525 0.041132078 0.022296296 -0.062477514 0.056827366 0.057704672 -0.061112702 0.0039836946
-0.048787836 -0.010719699 0.014887464 -0.049485676 0.0340704 -0.034278836 0.06634021 -0.038984343
-0.0077565573 -0.044584095 -0.013621145 -0.0358817 -0.050943747 0.051424883 -0.02566563 -0.036601484
-0.00017548486 -0.02156587 -0.0060534775 -0.002687708 0.050529666 -0.042117566 -0.048090443 -0.057338443

actor.weight f4 [4, 128]
00000000: 6fc0 b63d ae8d 3b3c 3d3e 9a3c c992 5abd
00000010: fb48 7abd 7659 04bc 6c49 053c aec4 3ebc
00000020: 388d c9bc 27d6 ae3d 3ffc 753d 7df3 a23d
00000030: 9fcb a9ba 51a6 ecbc bb76 8dbd cccd d23c
00000040: de81 e7bc 3683 ff39 5c06 fbbb 7358 103d
00000050: eeb7 72bc 424f 9c3d cf18 b7bc b957 7cbd
00000060: e066 1f3d 6dd3 ad3d 29d1 9ebc 0412 583d
00000070: 078e 763d 3242 9d3d 3fad 03bd b9ce aa3d
00000080: 8ff8 af3d 90a8 80bd 2946 5a3d 9e71 933d
00000090: e31e 903d 51f7 50bc b239 85bd 2b27 983d
000000a0: 9516 35bc 19e4 a3bd 97d6 12bc 45db 6ebd
000000b0: ccec 803c 6a5f 8b3c 3df7 bc3d 48b4 433d
000000c0: d184 d03b 5506 88bd 7805 29bd 708b 863b
000000d0: 8138 2a3d e8de b93d 079f 3fbc b2f4 7cbd
000000e0: ba6a d8bc 1ff7 8d3d 7f8f 473c 8350 19bd
000000f0: 0248 6d3d 61bd 99bd 473f 20bd 0b6c a6bd
00000100: bf26 f5bc 9f64 183d 0074 0fbd 4dff c0bc
00000110: 414b 4d3d 6395 82bd 34fc ca3b 92c8 38bd
00000120: c893 50bc 176b 7fbd 1f3f a13d 4fd0 3b3d
00000130: 3fc4 5abc 3e95 aa3d 2688 463c a447 b4bd
00000140: 0590 d5ba 6027 bbbc 2b6c 3abd 052b 84bd
00000150: 0cc1 0ebd 60e5 913d fcd4 ae3d 3560 e8bc
00000160: 5af0 293d 565a 813d 46c4 15bd 31b8 bbbc
00000170: e202 813a 78f6 29bd 527d 86bd c927 813d
00000180: 904a b3bb b66b 11bd 0722 81bd 56e9 b73c
00000190: 077b 813c 66f1 11bd c0ba 3e3d ec5a fcbc
000001a0: 4d8c b43b 7d47 8c3d 006e b3bc 1575 f73c
000001b0: df6e 52bd 0415 31bd ce56 a23d c29e 80bc
000001c0: 0873 f0ba 182a 473d c1f4 963d 68d2 033d
000001d0: 0eee 45bd 2c0a 39bd 2b68 9cbd 3b53 ecbc
000001e0: 52a4 0c3d 6e9a 403c 5b07 e8bb ddc5 993c
000001f0: 1b05 803d 2409 2e3d bd53 92bd 4d29 e43b
00000200: b37d bcbb e05a 4f3c 5045 243d 39b4 3abd
00000210: 95f5 6c3d 8116 59bd 00e3 9ebd c66b b1ba
00000220: 77b9 943d 9bb7 5cbc 01fe c3bc 2eb3 50bd
00000230: 5f4e 2e3c f892 a73c 426f b5bd 93f3 89bc
00000240: af08 223d 33e3 f5bc 5920 443d c5d5 56bb
00000250: 536b 41bd 0870 2fbc c060 3b3d 86ac a93d
00000260: 973f 953c bf1e a73d 1b3b 0fbd 4d9c a4bd
00000270: 08e5 963b a9ea 2d3d 91c7 03bd cdc7 e63c
00000280: 5e2e 9dbd 320c 68bd f1ec ad3d ffbf 983d
00000290: 588c a23d d95a 75bc 5f31 a7bd 4de4 a53d
000002a0: 342c 80bd 5b6e 4ebd 4744 48bd 8cfc 333d
000002b0: 622f aebc 000d 96bd a3ab 983d 17cc 393d
000002c0: 02cd 7e3c d9a8 8fbd 09be fa3c d5d2 023d
000002d0: e12a 85bd 6422 433c a4ab 9e3d 46a3 323d
000002e0: 4b74 a63d 436e 523d e083 0c3d 6224 aa3c
000002f0: cac9 933d b057 92bd 4b8b adbd 0f11 c73c
00000300: 1960 9f3d 7775 803c 6c67 02bd 3d37 1abd
00000310: ae62 153b 25ae 5fbc fe63 88bc a6c5 3bbd
00000320: ba9b 673d 6d8d 0a3d 517c f23c c653 ad3d
00000330: 1e8b 7c3d ba24 313d 7f7b 0f3d 7ff6 3ebd
00000340: 0938 c4bc fdfa 543a 4053 bcbd 2983 81bd
00000350: 7bf5 043d 4c0d 173d 42d5 9abd 9ea3 f33c
00000360: 017f 34bd d242 8bbd f356 973d 8d92 fcbb
00000370: fff6 273d cf48 193d 28aa 58bd 15e4 99bd
00000380: 35e5 5cbd e487 0b3d 1caf 573d 836f 5d3d
00000390: d257 abbd 48c5 583d efe2 83ba 704c da3c
000003a0: 37c9 92bd 060a 3a3d 4f04 353c a477 30bd
000003b0: 86fa 4cbc 2429 7dba a8ab b5bd a6fc b7bb
000003c0: 0132 88bd 166a aebd 81fc 4fbd 0b7d a8bc
000003d0: 89af 643d b57c 9e3d b1a6 433c 61d8 a43d
000003e0: d3b4 b33c cad1 97bd be0e 803d 37bf 8cbb
000003f0: 1228 9b3c 4ade 5d3c a4c8 b5bb aab0 89bd
0.089234225 0.011447353 0.018828506 -0.05336264 -0.061104756 -0.00807797 0.008135181 -0.011643572
-0.024603471 0.0853694 0.060055014 0.07956598 -0.001295436 -0.0288879 -0.06907412 0.025732897
-0.028260168 0.0004873515 -0.00766067 0.0352406 -0.01481436 0.07632305 -0.022350697 -0.061607096
0.03891647 0.08487592 -0.019386845 0.052751556 0.06019404 0.076786414 -0.032147642 0.083402105
0.08592331 -0.06282151 0.053289566 0.07199405 0.07037141 -0.012754277 -0.06505145 0.07429346
-0.011052747 -0.080024906 -0.008962295 -0.05831458 0.015737914 0.01701327 0.092268445 0.04777935
0.006363489 -0.06641833 -0.04126498 0.0041059777 0.041557793 0.09075719 -0.01169563 -0.061756797
-0.026418079 0.069319 0.012180208 -0.037430298 0.05793 -0.07506824 -0.039122846 -0.08126076
-0.029925702 0.037205335 -0.035022736 -0.023559237 0.050120596 -0.063761495 0.0061946157 -0.045113154
-0.012730546 -0.06235799 0.078733675 0.045852955 -0.013352453 0.08329247 0.012117421 -0.08802727
-0.0016293532 -0.022845924 -0.045513313 -0.06453518 -0.034852073 0.07123828 0.08536717 -0.028366188
0.041488983 0.06316058 -0.036564134 -0.022914978 0.0009842778 -0.041494817 -0.06566872 0.063064165
-0.005471535 -0.03550311 -0.06305318 0.02245013 0.015805734 -0.035630606 0.046564817 -0.030805074
0.005509889 0.06849573 -0.021903038 0.030207196 -0.051375266 -0.043232933 0.07926713 -0.015700702
-0.0018344829 0.048624128 0.07370902 0.03218308 -0.04832273 -0.045175716 -0.07637056 -0.028848281
0.034336396 0.011755569 -0.007080955 0.018771106 0.06250974 0.042489186 -0.07144878 0.0069629312
-0.005752289 0.012655944 0.040105164 -0.04558203 0.057851393 -0.052999977 -0.077581406 -0.0013536147
0.07261937 -0.013471509 -0.02392483 -0.05095213 0.010638802 0.020455822 -0.08859111 -0.016839778
0.039559063 -0.030015564 0.04788241 -0.0032781225 -0.047221493 -0.010707863 0.045746565 0.08284859
0.018218799 0.08160161 -0.034968477 -0.080376245 0.0046049394 0.042460117 -0.032172743 0.028171444
-0.076748595 -0.056652255 0.084924586 0.07458495 0.07936925 -0.014975273 -0.08163714 0.081001855
-0.06258431 -0.050398212 -0.04889324 0.04394202 -0.021262828 -0.07326698 0.07454612 0.04536065
0.015551807 -0.07014627 0.030608194 0.031939346 -0.06502319 0.011910055 0.077475816 0.04361274
0.0812765 0.051374685 0.034305453 0.020769302 0.072162226 -0.07145631 -0.08473834 0.024300126
0.07782001 0.015681012 -0.031836912 -0.037650336 0.0022794413 -0.013652359 -0.016649242 -0.04584279
0.056544997 0.03382628 0.029600294 0.08463244 0.06165611 0.043247916 0.035029884 -0.046621796
-0.0239525 0.00081245584 -0.09195566 -0.06323845 0.03246067 0.036877915 -0.07560207 0.029741105
-0.044066433 -0.06799854 0.07389631 -0.0077079 0.04100704 0.03742295 -0.05289665 -0.07514206
-0.053929526 0.034065142 0.05265723 0.054061424 -0.0836636 0.052922517 -0.0010062138 0.026647776
-0.07167285 0.045419715 0.0110483905 -0.04308285 -0.012510901 -0.00096573145 -0.088706315 -0.005614835
-0.066501625 -0.08516328 -0.050777916 -0.020567438 0.055831466 0.0773863 0.011941598 0.080490835
0.02193681 -0.07413061 0.06252812 -0.0042952555 0.018940005 0.013541767 -0.0055476 -0.06723149

actor.bias f4 [4]
00000000: 9d87 163c f4bd 04bd 3505 423c 387e 9c3d
0.009187606 -0.032407716 0.011842062 0.07641262

critic.weight f4 [1, 128]
00000000: 20bc 4a3d d231 1a3d 4a7e fd3c 1132 6ebd
00000010: f062 ce3c 6ca3 81bd c476 653d 97ea c93b
00000020: d15c 8d3d 76e5 bd3d 153a 53bc 561b 02bd
00000030: adfb 023d 29fd edbc e7c2 b23d 8e16 9f3d
00000040: 0a9a 5b3d 5689 003d e8d4 5f3d 9531 993d
00000050: 759c aabd 3527 34bd aa12 97bd 596c 2cbc
00000060: 5784 b43d 542e a83d 757f 6c3c f748 eebc
00000070: b7bc 743d 1653 4cbd 28e6 b5bc fcce 93bd
00000080: 2da2 e6bc 5b9c 40bd 7a8a 76bd 6640 85bd
00000090: 7ee1 b03a aa91 b13c 265f 43bd 36d1 e6bc
000000a0: 4b88 89bd 9815 9fbd 5d54 813d 5493 88bd
000000b0: c088 86bd da18 30bd cf54 823d 6883 103d
000000c0: 09de 2cbd 2af1 3b3d 5d13 23bd a44e a8bd
000000d0: 5b69 a83c a7c9 893d eed8 e2bb 15d0 603c
000000e0: 470f 093d 6bd7 4bbc 285f 11bd c4b2 fc3c
000000f0: 5cc9 2d3d 0f25 8dbd 6bde 623d 60dd 833d
00000100: 6412 8e3d 51c2 5fbd a93e 793d bc9f 023c
00000110: 8c8c ca3c 54e4 193d 678e 593d acfb 853d
00000120: 815e 4f3d b690 ffbc 758b 16bd 2ad1 5ebd
00000130: 41a6 4f3a c0c7 ec3c 36b6 bf3d 75fd 66bc
00000140: afd6 f9bc fae0 05bd b8b5 cc3c 28f9 9c3d
00000150: b7d1 19bd 0ffd eebc 11f0 92bd 77be 8c3c
00000160: d733 3bbc e581 96bc ee02 9ebc d3c3 913d
00000170: 2e43 78bd 11b6 ab3d 578b a5bd 5dff ed3c
00000180: ec02 04bc 01f7 a43d 6c4d 1f3d faf3 8abb
00000190: 67ad e23c f334 c93c 4b6c 903d e5cb be3c
000001a0: 678e 583d 9819 443d abf2 72bd e7e3 193d
000001b0: 6ef9 083d d453 bf3d c27d bb3c e6ae 7a3d
000001c0: 270b 8ebd 3fc3 803c 8563 43bd 5805 853c
000001d0: ea67 873d 53a6 4e3d b10f c7ba 2607 9e3d
000001e0: edb6 4ebd 3f00 b23d da65 2b3d a2e6 1dbd
000001f0: 33f5 15bd 5eb6 89bd 560c 01bd 30e9 c2bc
0.049495816 0.03764517 0.030944008 -0.058153216 0.025193661 -0.063299984 0.056021467 0.0061619985
0.06902469 0.09272282 -0.012892266 -0.03176435 0.031978298 -0.02905138 0.08728581 0.07767974
0.0536137 0.031380974 0.054646403 0.0748016 -0.08330623 -0.043982703 -0.07376607 -0.010523879
0.08814304 0.082119614 0.014434685 -0.029087527 0.059750285 -0.049883924 -0.022204474 -0.072172135
-0.028153503 -0.047024112 -0.060190655 -0.06506424 0.0013494936 0.021675903 -0.047698162 -0.028175931
-0.06715449 -0.077677906 0.06314919 -0.066687256 -0.06569052 -0.04299245 0.06363832 0.03528157
-0.042203937 0.04588429 -0.03981339 -0.082181245 0.02055805 0.06727915 -0.0069228327 0.013721486
0.033461835 -0.012441496 -0.03549114 0.03084696 0.04242836 -0.06891834 0.055387896 0.06438708
0.069371015 -0.054628674 0.060850773 0.007972654 0.024725221 0.037571266 0.05311432 0.06542143
0.050627235 -0.031196933 -0.03675409 -0.054398693 0.0007921197 0.028903842 0.09360926 -0.014098515
-0.030497877 -0.032685257 0.024988994 0.0766471 -0.037553515 -0.029173402 -0.07174695 0.017180664
-0.011425934 -0.018372485 -0.019288506 0.07117429 -0.060610943 0.08384336 -0.080832176 0.02905243
-0.008057337 0.08054925 0.038892195 -0.00424051 0.027670575 0.024561381 0.07051905 0.023290584
0.05287018 0.04787597 -0.059313457 0.03757086 0.033441 0.09342161 0.022887114 0.061201952
-0.06935721 0.0157181 -0.04770233 0.0162379 0.06611617 0.050451588 -0.0015187172 0.07716207
-0.05046742 0.08691453 0.04184518 -0.038550027 -0.036610793 -0.06724237 -0.031505905 -0.023792833

encoder.0.weight f4 [128, 256]
00000000: 40e5 6a3c 88af 73bc b467 8c3c 0037 51bb
00000010: 58b8 da3c 58c9 733c e062 ebbb 6af7 4ebd
00000020: 40cb 693c f2a5 62bd 1095 063c 101b 883b
00000030: 082d 61bc 9654 513d 50ad 883b bc50 d43c
00000040: fcac d83c c205 17bd 98d4 c4bc 2833 763d
00000050: 08bf 7abd c018 8bbb b04d a2bb 4e95 353d
00000060: d0b3 c2bb 98d1 863c 809f 44bb ac58 0fbd
00000070: 2a19 11bd 34bf f8bc 328d 68bd b423 26bd
00000080: 50ff 703c 427c 283d 40c7 493b 10b2 eabc
00000090: fc03 e13c f48a c4bc d8d5 62bc 5057 0cbd
000000a0: f0c4 a0bc a435 6dbd 1877 da3c 7c15 c73c
000000b0: 9866 4b3c e461 fb3c 7c00 d93c 4038 353b
000000c0: 00e5 d83b 4063 9c3b dc99 083d 98f7 2b3d
000000d0: 64d8 373d 0861 143d 30a9 79bc 2058 36bb
000000e0: 8819 50bc 62ec 143d 7072 e33b feef 6c3d
000000f0: 5cd7 013d f0ca 5abd c8c6 953c dafb 753d
00000100: f463 633d 40bc 80ba a4db a93c 2624 70bd
00000110: e039 a3bc dcab f93c de34 69bd 2c07 5f3d
00000120: 105a 28bd e8e7 a13c 6011 1bbb 4872 343c
00000130: 906b c63b 2e51 6fbd 90f4 5bbc 08d2 21bd
00000140: b4a3 593d 2064 fbbb 5ae7 7ebd 0003 783c
00000150: ac58 de3c 8033 e5bc 601e c0bb c857 dd3c
00000160: f048 1fbd 6853 07bd 2090 c5bb ecc6 33bd
00000170: 5056 1d3d 2082 a73b 782a 193d 120d 093d
00000180: 144a 45bd 3690 1fbd 7419 2fbd a88e a4bc
00000190: e818 bbbc 68ff 24bc 90a7 77bd 4837 d83c
000001a0: 023b 113d 1045 a23c 50ad 223d a250 403d
000001b0: 86b7 7cbd 30ae 1a3c f277 6d3d 0687 39bd
000001c0: 6cf8 e3bc e0b3 57bb dc40 1fbd 6001 41bc
000001d0: 3051 17bc ae16 643d a0c6 80bb 56d2 0a3d
000001e0: 6876 3b3d 941b e43c 6ca0 5ebd 90df 3f3d
000001f0: b4d1 283d 3a84 37bd 9490 b6bc c03d 2e3d
00000200: e0db 78bd 1660 60bd 9281 2dbd ec89 9f3c
00000210: ac15 d1bc aa4f 64bd 7477 c63c a07d 013d
00000220: a0c6 bf3c 7455 5bbd 9445 793d b085 9abb
00000230: 8aa7 73bd 7827 1abc 1e35 273d 78ca eb3c
00000240: 8019 2fba 3478 343d b291 69bd d69f 313d
00000250: 7e1e 7e3d 22aa 1bbd a0a4 5b3c 6820 25bc
00000260: d41c 58bd 80a2 0fba 3c95 abbc 38a9 5abd
00000270: 0c8a 3abd c0bf b23a 3654 6d3d 0050 b73c
00000280: 8453 2abd 5093 303d a01b a83b 1626 7abd
00000290: 804b 423b 4856 243d 8287 16bd a076 3cbb
000002a0: 4816 ffbc 9cdb 49bd 6e76 11bd 70a8 cd3b
000002b0: 627b 253d 3848 3ebc 5c39 66bd 803f 0cba
000002c0: 62a6 5ebd 609b 703b dccd 3d3d 8083 da3c
000002d0: 3294 1cbd 78fe 61bc a004 cd3c b0e5 8a3c
000002e0: a477 70bd 8a40 15bd dc12 b5bc ac27 bc3c
000002f0: 9cbc 643d 7827 e43c b869 c13c 423b 59bd
00000300: 40a6 253d dc5d b73c c0a3 a4bc aca9 f5bc
00000310: ac8e 913c 8cc3 0abd 88d7 cf3c 2ac8 433d
00000320: 2cea 28bd 9eb0 1fbd 04b5 d4bc 5a2e 5bbd
00000330: 30e0 eabb b872 1f3d cca0 bf3c 7cfe a4bc
00000340: 803f febb 54a6 debc 54a7 4ebd a0be 8bbc
00000350: f056 8d3b ead2 01bd fec9 3fbd ac8e 953c
00000360: 28d6 163c 1443 9fbc fc30 8c3c 0e99 6c3d
00000370: 00aa 5f3b 2e75 2fbd b8ba 6c3d 9e39 383d
00000380: 6078 c3bb bc45 e7bc 6c09 d8bc 723a 5f3d
00000390: 3ebb 053d bca5 03bd 007a 233b 5009 523c
000003a0: c058 873c 80bb 67bb d4fb 05bd 40fb fbba
000003b0: 846e 8dbc bce1 abbc 4ccf fdbc e042 f8bc
000003c0: 6c43 f1bc 24c0 c93c d66e 58bd b87c 73bd
000003d0: e4f5 5a3d 9cce b73c d097 0d3d 9c57 df3c
000003e0: b44a c3bc 0ac8 20bd 4c81 2ebd c03d 81bb
000003f0: 40f9 7d3c 34cd 6fbd da8f 44bd 7019 103d
0.014336884 -0.014873393 0.017139293 -0.0031923652 0.02669923 0.014879547 -0.0071834177 -0.05052892
0.01426965 -0.05533404 0.00821425 0.0041536167 -0.013743646 0.051106058 0.004171051 0.025917403
0.026449673 -0.036870725 -0.024027154 0.06010738 -0.061217338 -0.004244894 -0.0049531087 0.04433184
-0.0059418455 0.016457364 -0.0030002296 -0.034996673 -0.03542439 -0.03036461 -0.05677528 -0.040561393
0.014709309 0.041134126 0.0030788928 -0.02864936 0.02746772 -0.02399204 -0.01384493 -0.034262955
-0.019625157 -0.057912484 0.026668116 0.024302237 0.012414597 0.030686326 0.026489489 0.0027651936
0.006619096 0.0047725737 0.033349857 0.04198417 0.0448841 0.03622535 -0.015238091 -0.0027823523
-0.0127014 0.036358245 0.0069411322 0.057846062 0.031699523 -0.053416193 0.018283263 0.060054637
0.055515245 -0.0009821728 0.020734616 -0.058628224 -0.019925058 0.030477457 -0.056935184 0.0544502
-0.041101515 0.019763902 -0.002366148 0.011013575 0.006055303 -0.05842703 -0.013425007 -0.039506942
0.053134635 -0.007671848 -0.062232353 0.015137434 0.027141891 -0.027978659 -0.005862996 0.027019396
-0.038887918 -0.033038527 -0.006029144 -0.04389088 0.038412392 0.0051119477 0.037394017 0.03345973
-0.04816635 -0.03895589 -0.042748883 -0.020087555 -0.022839025 -0.010070659 -0.060462534 0.026393548
0.035456665 0.019808322 0.039716065 0.046951897 -0.06169846 0.009440944 0.057975717 -0.045294784
-0.027828418 -0.003291361 -0.038880214 -0.011780113 -0.009235665 0.05568569 -0.003929928 0.033892
0.045767218 0.027845182 -0.05435221 0.046844065 0.041215613 -0.044803835 -0.022285737 0.04253936
-0.060756564 -0.054779135 -0.042359896 0.019474946 -0.02552303 -0.055740036 0.024226882 0.031613946
0.023410141 -0.05354829 0.06085737 -0.004715644 -0.05948595 -0.009408824 0.04082214 0.028783068
-0.000667952 0.044059947 -0.05702371 0.043365322 0.0620408 -0.03800405 0.013405949 -0.010078527
-0.052761868 -0.00054792315 -0.020945184 -0.053384036 -0.045541808 0.0013637468 0.057941638 0.022377014
-0.041583553 0.04310924 0.0051302463 -0.061071478 0.0029647052 0.040121347 -0.036750324 -0.002875723
-0.031138554 -0.0492817 -0.035513334 0.006276183 0.04040087 -0.011613898 -0.056207046 -0.00053500384
-0.054357894 0.0036713704 0.0463389 0.026674032 -0.038227268 -0.01379358 0.02502662 0.016955227
-0.05870785 -0.036438502 -0.02210372 0.022968136 0.055843934 0.027850851 0.023609981 -0.05303503
0.04044175 0.022383623 -0.020097613 -0.029988132 0.017768227 -0.033877894 0.025371328 0.047798313
-0.04123895 -0.038986795 -0.025965221 -0.053511 -0.0071678385 0.038927764 0.023392104 -0.020140879
-0.0077590346 -0.02717892 -0.050452545 -0.01705867 0.0043133423 -0.031695284 -0.046823494 0.018256508
0.009206332 -0.019441165 0.017113201 0.05776315 0.0034128428 -0.04283636 0.057795256 0.044976823
-0.0059652776 -0.028231494 -0.02637168 0.054499097 0.03264927 -0.03214048 0.0024944544 0.012819603
0.016521811 -0.0035359561 -0.032710865 -0.0019224659 -0.017264612 -0.020981662 -0.030982636 -0.030305326
-0.029451095 0.024627753 -0.052840076 -0.059445113 0.053457156 0.022437386 0.034568608 0.027263455
-0.023839332 -0.039253272 -0.042603776 -0.0039441288 0.01550132 -0.058545306 -0.04798875 0.03518051

encoder.0.bias f4 [128]
00000000: f224 3bbd d8e2 04bc 0c3e 69bd 80ac 43ba
00000010: 6444 423d 2c73 0cbd acd0 afbc dc26 68bd
00000020: 883b 8cbc fcf5 d43c b45b 003d b47f 16bd
00000030: 4c68 52bd 06e1 693d 160f 1b3d 806c 393b
00000040: 5076 38bc 100e e93c 4449 383d 2cca aa3c
00000050: f0ca da3c 20d2 933b e8df 65bd c4e0 a03c
00000060: 80cd 8dbb 94ef ba3c 1c45 2d3d e085 ce3c
00000070: 10dd b0bc 802e fb3c f054 53bc 4057 ca3c
00000080: 60b5 68bb 4cca 83bc b81a 0dbd e64a 7a3d
00000090: 4cde 303d 1800 11bd 2c63 81bc 40b6 fd3b
000000a0: e8c4 37bc a027 cc3b 62c0 3ebd 8e83 433d
000000b0: e4a0 9f3c 5039 aabb 8843 fbbc 863e 4c3d
000000c0: 501a 96bc 509f af3c 301f c53c 12c6 5dbd
000000d0: c042 fe3c 8099 7fbd 5abf 06bd 5483 ca3c
000000e0: 102e f3bb 8c6e 3a3d 78b3 c13c 6441 85bc
000000f0: 5c8f 913c c073 89ba 9417 433d 469f 0bbd
00000100: 8866 2ebc 0a38 353d 3cf8 2b3d 3c7e 15bd
00000110: a086 91bb 64bc 9f3c a8cd 43bd 32c8 5bbd
00000120: 187b f9bc c434 cb3c 7893 59bc ac28 63bd
00000130: 206f 063c d071 453c c0de 08bb 7850 f9bc
00000140: 50f7 0a3c 840c 023d 200f 66bc 8088 75ba
00000150: 7cbf 7e3d 50af 223c f096 afbc 1691 4ebd
00000160: d60b 44bd a0ef bcbc 7c23 b0bc 8082 173d
00000170: 04db 27bd 80f8 1bba a09c 5d3c 0090 7c39
00000180: 4075 4ebb ba84 243d 003d 1a3d 14f0 2c3d
00000190: 3829 733c c4af 17bd 94e0 5f3d 687e 7a3d
000001a0: e604 7fbd 3017 23bc d44b 9a3c dceb 2c3d
000001b0: 7497 0abd b682 343d 98a8 6f3d fe88 073d
000001c0: 92bf 34bd 78e7 71bd 34f3 3cbd 4048 893b
000001d0: 4e1b 3fbd 682c 6fbd 9e17 22bd 30e5 82bc
000001e0: ce5c 753d 04b6 6b3d f02d d9bc d882 063d
000001f0: 5880 33bc f823 433d 44f9 463d baa6 32bd
-0.04568953 -0.008110724 -0.056943938 -0.0007464364 0.047428504 -0.034289524 -0.021461807 -0.056677684
-0.01711823 0.0259962 0.031337455 -0.03674288 -0.051368997 0.057099365 0.037856184 0.002829343
-0.011258677 0.028449088 0.044991747 0.020848356 0.026708096 0.004511133 -0.056121737 0.019638427
-0.004327476 0.022819318 0.042302236 0.025210321 -0.021589786 0.030661821 -0.012898669 0.024699807
-0.0035508499 -0.016087674 -0.03444931 0.061106585 0.04318075 -0.03540048 -0.01579436 0.007742673
-0.01121638 0.0062303096 -0.04657019 0.047732882 0.019485898 -0.0051948205 -0.03067185 0.049864314
-0.018323094 0.02143827 0.024062723 -0.054143973 0.031037688 -0.06240225 -0.03289733 0.024720825
-0.0074212626 0.045515582 0.023645148 -0.016266532 0.017768554 -0.0010486767 0.047629908 -0.03408744
-0.010644563 0.044242896 0.04198478 -0.03649734 -0.0044410974 0.019499011 -0.04780355 -0.053657718
-0.030454203 0.024805434 -0.013279788 -0.05545871 0.008205205 0.012051061 -0.0020884722 -0.030433878
0.008481815 0.031750217 -0.014041692 -0.00093663484 0.062194332 0.009929493 -0.021434277 -0.050431333
-0.04786285 -0.02306348 -0.021501295 0.03698969 -0.040980354 -0.000594981 0.013526112 0.00024086237
-0.0031502992 0.04016564 0.03765583 0.042221144 0.01484137 -0.037032858 0.054657534 0.061155707
-0.06226053 -0.009954259 0.018834986 0.04221712 -0.033835843 0.04406997 0.058510393 0.03308963
-0.04412801 -0.059058636 -0.046130374 0.004189521 -0.0466569 -0.05839196 -0.039573304 -0.015978426
0.05990296 0.05754663 -0.026511163 0.032839626 -0.0109558925 0.047641724 0.048577562 -0.043616034

encoder.2.weight f4 [128, 128]
00000000: 1f56 b3bc e695 af3d 40fe 8b3c d392 5f3d
00000010: 52c6 6c3d 8ea5 ae3d 5282 923d e555 50bd
00000020: df0a f8bc 4cbe c2bb be1a eb3c 5ede b1bd
00000030: b46a 53bd 7cb5 56bd 2c40 b9bc 413f 93bd
00000040: a9d1 28bc 446f 513d 18c8 b0bd 95b4 a33c
00000050: 36c3 79bd 361f 48bc e9a9 9e3d 40ee 8a3d
00000060: 4e1c 5b3b e0aa 31bd 6bbe d13b 327b 6d3d
00000070: b0a2 98bd 78fd 4dbd 09f2 d1bc ec7f d63c
00000080: e8d8 743c 4c94 003d a69c 763d b6c9 5d3d
00000090: 1238 22bc a6f2 39bd ccd2 9bbd 3794 a2bd
000000a0: edbd 8f3d dacd a8bd 3047 30bd 1199 bd3c
000000b0: f80b b23d 39e2 9d3a 1e60 473c f3d6 a23d
000000c0: 367c 98bd 6724 b2bd 923c 78bc 9998 c73c
000000d0: b86e a2bc cb63 6bbd 54b0 5abd 6c1e 9d3d
000000e0: e10e afbc 3be6 52bd 23c3 84bd ded9 3b3d
000000f0: aa6b 96bc 6cf7 2cbc 58b7 debc 68b7 fc3c
00000100: 10d6 85bd 6d5f 9e3c 7397 643d cf38 64bd
00000110: ee77 86bd a6c8 55bc b558 ae3d 1124 efbc
00000120: d06f eb3c 8979 923d 584a 723c cd8d afbd
00000130: cfe8 1d3d 2094 2fbd 1524 07bd 577b 083d
00000140: 0e48 16bd 0c8e 753d 02c8 85bc fe1c 823c
00000150: ad98 51bc 3988 433c c1b9 9d3d eabb 82bc
00000160: 91ff d83c 8f03 4a3d 3d16 b4bd e503 623d
00000170: 2482 24bd a4ab 0d3c 5d86 63bd bb3c 593d
00000180: 187c 1c3d d102 893d 7e32 923d 02ee e3bb
00000190: 18b6 9b3d f0a2 c33c 1ded 80bd 8912 a33d
000001a0: 5fa6 41bb 244b 4ebd de3d bebc 1208 49bd
000001b0: d1c0 3a3c 61fa a53c 8754 12bc 0e52 44bd
000001c0: 091f b7bc b4e2 44bd 0419 c13c c974 433d
000001d0: 04ba 453c a950 1dbd 800b abbb 0bfc 58bd
000001e0: 2eb8 35bd fa9c 243d b8d7 ae3d d644 85bd
000001f0: 539a b13d 6288 e3bc f669 89bd 2f2f 963d
00000200: 04be acbb add7 8137 20ed 903d e19a 82bc
00000210: d84a 93bc ae37 a43d 8a19 103c 6df2 d73c
00000220: 68cf 9fbd 3dc9 3bbd 7a97 f4bc c04c 42bd
00000230: 4b84 093d 2a42 08bd 09f3 5d3d 295e 0a3c
00000240: b914 913d 6b0d b0bd 6280 f4bc a32d 8e3d
00000250: 21ff 80bd d2f4 963c 3b36 9d3d 4731 8f3c
00000260: 529b 0f3c 99a7 2ebd 4c82 bbbb a410 0f3d
00000270: f81a 76bd 2336 9a3d aa74 af3d 51eb a4bd
00000280: 5bbf cb3c d4da df3c 17c3 f93c be42 33bd
00000290: 0b24 9f3b ff40 313d bd17 f33c 298e 59bc
000002a0: 66ac 883d b4d5 393c a6bd bbbc e9f4 803d
000002b0: 569a 833d 4ce8 aebd 2479 adbd 7f60 7dbd
000002c0: 045d 46bd 08bb e3bc cfce 30bd 44f1 1c3d
000002d0: 9f57 a73b 8859 91bd e2fd 9abd 4510 80bd
000002e0: a5fe f9bc 620d fa3c 34bb 663d 632c 8fbd
000002f0: 83c3 533d 2c7c 7dbd 7269 42bc c28b 86bd
00000300: 6689 ad3a a772 52bd 1c29 b3bc 2f3a 19bd
00000310: 423d e23c 9304 b2bd f962 1cba 9f1c 87bd
00000320: cbc5 88bd 81a7 253d 7912 b4bd aa8c f53c
00000330: 72e0 063d da69 ea3c 8636 b3bc 9979 f9bc
00000340: 8ace 963d be5e 3dbd 78f5 19bc f2dc 1cbd
00000350: 6903 af3d b1a7 973d 5ebd 96bd 6153 a53d
00000360: 19f6 aabd f685 b43d 03b0 443c 58ef 99bd
00000370: 53f0 2dbc a9a3 35bd 9731 213d bd8f 2bbd
00000380: 12ee 793c 1b51 6abc 58d2 50bd 57e4 443b
00000390: 0a84 22bd 181f 2abd b0cb 27bd e1d2 4d3d
000003a0: c193 a4bd 8dfb 943c f861 3f3d 1387 e4bc
000003b0: 5036 423d 5d5a 573d c947 7abd b3b2 e33c
000003c0: 8752 25bd 57ae 323c e9e8 55bc 4bbd 533d
000003d0: ee68 633d b640 5dbd 7082 ca3c d1e4 a5bd
000003e0: adf7 39bd 7d42 83bc da94 623c 5f99 e8bc
000003f0: 4fae ffbb a83c 8bbc 5088 23bd 6bb8 803d
-0.021891652 0.08573513 0.01708901 0.05458338 0.05780632 0.08527671 0.07153763 -0.050863165
-0.030278621 -0.0059430953 0.028699275 -0.08684991 -0.051615432 -0.05241917 -0.022613607 -0.07189799
-0.010303893 0.0511315 -0.08631915 0.01998357 -0.060977183 -0.0122144725 0.077472515 0.06783724
0.003343362 -0.04337585 0.0064008734 0.057978816 -0.07452905 -0.050290555 -0.025628107 0.026184045
0.014944293 0.031391427 0.060207985 0.054147445 -0.0099010635 -0.045397423 -0.07608566 -0.07938426
0.07018647 -0.08242388 -0.04303664 0.023144277 0.08693689 0.0012045569 0.012168912 0.079511546
-0.07445566 -0.086983494 -0.01515116 0.024364756 -0.019828185 -0.057468217 -0.053390816 0.07671818
-0.0213694 -0.051489096 -0.06482532 0.04586207 -0.018361885 -0.010557037 -0.027187034 0.030849174
-0.0653497 0.019332612 0.055808496 -0.05571824 -0.065658435 -0.013048327 0.08513013 -0.029192002
0.02873984 0.07152087 0.014788233 -0.08571968 0.0385521 -0.042865872 -0.032993395 0.03332075
-0.03668981 0.05994992 -0.016330723 0.015882965 -0.012792748 0.0119343335 0.07701445 -0.015958745
0.026489051 0.0493198 -0.08793304 0.055179495 -0.040163174 0.008646879 -0.05554806 0.053036433
0.038204283 0.0668999 0.07138537 -0.006955863 0.07603091 0.023881406 -0.06295226 0.0796252
-0.0029548628 -0.05036463 -0.02322286 -0.049079962 0.01139851 0.020260992 -0.008931286 -0.047929816
-0.022353666 -0.048067763 0.023571499 0.047718797 0.012068275 -0.038407 -0.0052198768 -0.052974742
-0.0443651 0.040188767 0.08537239 -0.0650727 0.08672013 -0.027774993 -0.067096636 0.07333218
-0.005271675 1.547843e-05 0.07076478 -0.015942993 -0.017980024 0.080184326 0.0087951515 0.026360715
-0.078032315 -0.045846213 -0.029857386 -0.047436476 0.03357343 -0.033266224 0.054186855 0.008445301
0.07084031 -0.08596309 -0.029846374 0.06942298 -0.06298662 0.018427286 0.07676359 0.017479552
0.008765059 -0.042640302 -0.0057223197 0.03492798 -0.060084313 0.07529857 0.08567174 -0.080526955
0.024871519 0.027326025 0.030488534 -0.043764822 0.0048565916 0.043274876 0.029674405 -0.0132785225
0.066735074 0.011342455 -0.02291758 0.06296713 0.064259216 -0.08540401 -0.08470371 -0.061859604
-0.04842855 -0.027799144 -0.043165978 0.038316026 0.005106881 -0.07097155 -0.075679556 -0.06253103
-0.030516932 0.03052396 0.056330875 -0.06990888 0.051700126 -0.061885998 -0.01186596 -0.065696254
0.00132398 -0.051378872 -0.021870188 -0.037409004 0.0276171 -0.08692279 -0.0005965676 -0.06597256
-0.06678351 0.040442947 -0.08792586 0.0299743 0.03292889 0.028614927 -0.021876585 -0.03045349
0.07363613 -0.04623293 -0.009396903 -0.038296647 0.08545572 0.074050315 -0.07360338 0.08072544
-0.08347721 0.088146135 0.012004855 -0.07516354 -0.01061638 -0.04434553 0.039353933 -0.041885126
0.015254514 -0.014301564 -0.05098185 0.0030043328 -0.039676704 -0.04153356 -0.040965736 0.050249938
-0.08035994 0.018186355 0.04672429 -0.02789644 0.047415078 0.05257641 -0.061103616 0.027795171
-0.040361907 0.010905824 -0.013056018 0.051694196 0.05551999 -0.05401679 0.0247204 -0.08100284
-0.045402218 -0.016022915 0.013829434 -0.028393446 -0.0078027616 -0.016996697 -0.03992492 0.06285175
